2WL_link_pred/checkpoint/archive/20221213_111505/2WL_dict_2.pt (torch, 165241 bytes, 34 tensors)

weight f4 [96, 1]
0	0x3f779027	0.96704334
1	0xbe87405f	-0.264163
2	0xbb9d0099	-0.004791331
3	0x3f15522f	0.5832853
4	0x3dfd4fbd	0.123687245
5	0xbe66cb00	-0.22538376
6	0xbec7cece	-0.39024967
7	0xbf0a3bf8	-0.53997755
8	0xbef637ec	-0.4808954
9	0x3f5295f8	0.82260084
10	0xbe9b63e4	-0.30349648
11	0xbf5881b5	-0.8457292
12	0xbe3023e4	-0.17201191
13	0x3eebe36d	0.4607195
14	0xbf6433b4	-0.8914139
15	0x3f4c82b5	0.79886943
16	0xbf3e9ab6	-0.7445482
17	0x3e7006f3	0.23440151
18	0xbe5acdc4	-0.21367556
19	0xbe6859fd	-0.22690578
20	0xbf1530a6	-0.58277357
21	0xbe70f4ff	-0.23530959
22	0x3f1ae362	0.6050321
23	0xbf1569de	-0.58364666
24	0xbeb1c5b9	-0.34721163
25	0x3f4bd504	0.7962191
26	0x3e13bc91	0.14427401
27	0x3efd60c8	0.494879
28	0x3ec70f98	0.38879085
29	0x3f66f044	0.90210366
30	0xbdec7e54	-0.11547533
31	0x3d3e3527	0.04643741
32	0x3ef7f3f3	0.48428306
33	0x3f28ccb0	0.6593733
34	0xbd7cc3c0	-0.06171012
35	0xbf383cf6	-0.7196802
36	0xbeaa1195	-0.3321654
37	0xbeaa162e	-0.33220047
38	0xbf345a10	-0.70449924
39	0xbe6a4f98	-0.22881925
40	0x3f448cf6	0.7677759
41	0x3f18f421	0.5974751
42	0x3f2f19d0	0.6839876
43	0x3e253eeb	0.16137283
44	0x3eac6c7a	0.3367651
45	0xbe3c72ce	-0.1840317
46	0xbf496cb4	-0.7868149
47	0x3f410140	0.7539253
48	0x3eb8d259	0.36097983
49	0xbed364da	-0.4128788
50	0x3e103718	0.14083517
51	0xbeb53a38	-0.3539598
52	0x3ef66a24	0.48127854
53	0xbe3f6b4e	-0.18693277
54	0x3f52919d	0.8225344
55	0xbee9b460	-0.45645428
56	0x3f5807f0	0.8438711
57	0xbf2403d6	-0.64068353
58	0xbf4d72b5	-0.80253154
59	0x3ecb7b4c	0.39742506
60	0x3f21251d	0.62947255
61	0x3f58b501	0.8465119
62	0x3f0a2d21	0.5397511
63	0xbdc98ff7	-0.09841912
64	0x3e89f957	0.26948044
65	0x3de603cf	0.11231195
66	0xbf155d6f	-0.58345693
67	0xbf1c7aef	-0.6112508
68	0xbe036e81	-0.12835123
69	0x3f4db044	0.80347085
70	0x3f592957	0.84828705
71	0x3f4c6062	0.7983457
72	0x3f69b832	0.91296685
73	0xbf60819a	-0.87697756
74	0x3f5138f7	0.81727546
75	0xbf1f33b8	-0.6218829
76	0x3e095ece	0.13415071
77	0xbf0c462b	-0.5479457
78	0x3e101dfc	0.14073938
79	0x3f1f8d22	0.62324727
80	0xbea8fa6c	-0.33003557
81	0xbe21d72a	-0.15804735
82	0x3ddf90c2	0.10916282
83	0x3ed6496b	0.41852888
84	0x3e31ea2f	0.1737449
85	0xbf22cede	-0.63596904
86	0xbcd8fdf5	-0.026488284
87	0xbe4d6aee	-0.20060322
88	0x3d82e308	0.06390959
89	0xbf042b32	-0.5162841
90	0x3ef0038f	0.46877715
91	0x3f4871d4	0.7829869
92	0xbf733e5a	-0.95017016
93	0xbf56dd89	-0.83931786
94	0x3f0defed	0.5544422
95	0x3f0bfbd0	0.5468111

bias f4 [96]
0	0x3f564b47	0.83708614
1	0x3e990bf8	0.29891944
2	0x3dc75ee5	0.097348966
3	0xbe8c79dd	-0.27436724
4	0x3f61102d	0.8791531
5	0xbe0f44a1	-0.13991024
6	0x3f066df4	0.52511525
7	0x3f2e396a	0.68056357
8	0xbf703f65	-0.9384673
9	0xbf02fe87	-0.5116963
10	0xbf4812c0	-0.7815361
11	0xbf62806f	-0.88477224
12	0xbf0e4fb0	-0.55590343
13	0x3eb6a2a8	0.35670972
14	0xbf6abfc0	-0.9169884
15	0xbf2b4f8d	-0.6691826
16	0x3f28020f	0.6562814
17	0xbe0b7eab	-0.13622539
18	0xbe47ffb5	-0.19531138
19	0x3f123504	0.57112145
20	0x3eae6b6f	0.3406634
21	0x3f09dc4b	0.53851765
22	0xbf72eb20	-0.9489002
23	0xbdb35808	-0.08757025
24	0x3dc9d250	0.09854567
25	0xbef0e5f3	-0.47050437
26	0x3f4a8a47	0.79117244
27	0xbed0dac0	-0.40791893
28	0xbde9c8c5	-0.11415247
29	0x3dd95697	0.10612219
30	0xbeb370ee	-0.35047096
31	0x3d176271	0.036959115
32	0x3dded1ed	0.10879884
33	0xbe9c9f41	-0.3059025
34	0xbed7b5c5	-0.42130867
35	0x3e3b0fe0	0.18267775
36	0x3e19d494	0.15022498
37	0xbd78cb20	-0.06074059
38	0x3ed0e078	0.40796256
39	0xbf57c2d5	-0.84281665
40	0xbf6ad29d	-0.9172762
41	0x3f500f5e	0.8127345
42	0xbf201128	-0.6252618
43	0xbed32ed9	-0.4124668
44	0x3e28ca54	0.16483432
45	0xbf62dc1e	-0.8861712
46	0xbc845b62	-0.016156856
47	0xbe432fd4	-0.19061214
48	0x3eb33e18	0.3500831
49	0x3f2c01a3	0.6719
50	0xbf5eaac8	-0.8697934
51	0xbf6366b9	-0.8882862
52	0x3ea2caa8	0.3179524
53	0xbf46e5e4	-0.77694535
54	0xbf293c84	-0.66107965
55	0xbd47242f	-0.04861849
56	0xbdb4d1ec	-0.08829102
57	0xbf258261	-0.6465207
58	0xbed4c978	-0.41559958
59	0xbe226237	-0.15857778
60	0xbf48a05b	-0.78369683
61	0x3dcee134	0.10101548
62	0xbf7bdf9d	-0.9838808
63	0x3eaadd0f	0.3337178
64	0x3ee08e33	0.4385849
65	0x3ecd3234	0.40077364
66	0x3f45a1d4	0.77200055
67	0x3f3a255a	0.72713244
68	0x3f2505f2	0.64462197
69	0x3f08c3ef	0.5342397
70	0x3e36da67	0.17856751
71	0xbe6a4d03	-0.2288094
72	0xbe8e5204	-0.27796948
73	0x3de27b1f	0.1105864
74	0xbf0a72e8	-0.54081583
75	0xbdf92a66	-0.1216629
76	0x3f0c79a8	0.5487313
77	0xbf213bc6	-0.6298183
78	0x3f6f95ee	0.9358815
79	0xbf6c3968	-0.92275095
80	0x3f2467c7	0.6422085
81	0xbe7642e6	-0.24048957
82	0xbe802576	-0.2502858
83	0x3e28432e	0.16431877
84	0xbeda2b42	-0.42611128
85	0x3f6820ce	0.90675056
86	0x3dce1fdf	0.10064673
87	0x3cb88dcc	0.022528552
88	0x3f06fa82	0.52725995
89	0x3f4b02a1	0.79300886
90	0x3f2e776c	0.68150973
91	0xbf1faab9	-0.6236988
92	0x3f7fdea5	0.99949104
93	0x3daafe97	0.083493404
94	0xbc0e6369	-0.008690693
95	0xbf2a5985	-0.66542846

bias f4 [96]
0	0xbb31b6e1	-0.002711706
1	0xbcd33035	-0.025779823
2	0xbbffbbee	-0.0078043854
3	0x3c3a728d	0.01137985
4	0x3c30892d	0.010774893
5	0xbc365a05	-0.011129861
6	0x3bae9fe2	0.005329118
7	0x3c9935d7	0.01870243
8	0xbb98c6b5	-0.0046623596
9	0xbb9062f5	-0.004406328
10	0x3c82f6b8	0.015986785
11	0x3c97da26	0.018536638
12	0xbc61978a	-0.01376904
13	0xbc5b239c	-0.013375189
14	0xbce962aa	-0.02848943
15	0x3a79df8a	0.0009531906
16	0x3cad7e50	0.021178395
17	0xbbe0aa25	-0.0068562203
18	0x3b0964ae	0.002096455
19	0xbb32e76f	-0.002729859
20	0x39fd03dd	0.000482588
21	0x3d1c516c	0.038163587
22	0xbb05d627	-0.0020421834
23	0x3c9f5f5c	0.01945465
24	0xbc98af45	-0.018638263
25	0x3c30934f	0.010777309
26	0x3c868b67	0.016423894
27	0xbb6f2b3d	-0.0036494278
28	0xbcc8d0ce	-0.024513628
29	0x3bd13061	0.006383941
30	0xbd303574	-0.043019727
31	0xbbe25ffb	-0.0069084144
32	0xbc39f418	-0.0113497
33	0x3b2ba3c0	0.0026190132
34	0x3b9a9f05	0.0047186636
35	0x3a72d0f0	0.00092627015
36	0xbb9a45d2	-0.0047080303
37	0xbb9ef7a5	-0.004851299
38	0x3cb4e1a7	0.022080256
39	0xbb9c6d97	-0.0047738063
40	0xbcabdb21	-0.020978512
41	0xbc54d658	-0.012990557
42	0xbc05e2f7	-0.008171788
43	0xbc47f399	-0.012204074
44	0xbbdea507	-0.006794575
45	0xbcb408c3	-0.021976834
46	0xbc315824	-0.010824237
47	0x3c7a60b8	0.015281849
48	0xbcb0a85a	-0.021564651
49	0xbcebcd5b	-0.028784445
50	0x3b9fe50f	0.004879601
51	0xbcce93af	-0.025216905
52	0x3c0e65f8	0.008691303
53	0x3ca2cfda	0.019874502
54	0x3cd573e0	0.02605623
55	0x36aa8ab8	5.082544e-06
56	0x3c86a3eb	0.016435584
57	0x3cba25ef	0.022723166
58	0x3b904e1b	0.004403842
59	0xbc11cf29	-0.0088994885
60	0x3bc82eaa	0.0061090784
61	0xbc860dec	-0.01636406
62	0xbc7254f9	-0.014790767
63	0xbc02128f	-0.007938995
64	0x3b84aecb	0.0040491573
65	0x3bd169b8	0.0063907765
66	0xbc4b45d5	-0.012406786
67	0xbb8d15b3	-0.0043055653
68	0x3cb03604	0.021510132
69	0xbc18ab46	-0.0093181785
70	0x3bf6e15e	0.00753419
71	0x3bdcb7ee	0.0067357933
72	0x3d0eccdf	0.03486335
73	0x3b628bd2	0.0034568203
74	0xbc1b0d44	-0.009463612
75	0xbcdcfe57	-0.026976747
76	0xbc52a240	-0.012856066
77	0x3cfd6962	0.03093404
78	0xbc58bdb7	-0.013228825
79	0xbc966534	-0.018358804
80	0xbc51d52f	-0.012807175
81	0x3b43d8cc	0.002988386
82	0xbcd2d8f6	-0.02573822
83	0x3c0ac3d8	0.008469544
84	0x3bd73c77	0.0065684873
85	0xbc3f1355	-0.011662324
86	0xbbe64054	-0.0070267115
87	0x3c3eea9d	0.011652616
88	0x3cac0304	0.020997532
89	0xbd1d80ee	-0.038453035
90	0xb7ba0294	-2.2174128e-05
91	0xbc489584	-0.012242679
92	0x3ca3d5f0	0.019999474
93	0xbc739229	-0.01486639
94	0x3aa020db	0.0012216823
95	0xbab24070	-0.0013599526

weight f4 [96, 96]
0	0x3e15dc26	0.14634761
1	0x3e0cae4b	0.13738362
2	0xbde8d37e	-0.11368464
3	0x3c460ecb	0.012088488
4	0xbd8050bf	-0.06265401
5	0x3df533da	0.119727805
6	0xbd9fb597	-0.077983074
7	0xbd8d26c6	-0.06892161
8	0x3ce7acb9	0.028280603
9	0x3dce9826	0.10087614
10	0x3d67a04e	0.056549363
11	0xbe1667af	-0.1468799
12	0x3ce4f395	0.02794818
13	0x3d272bd8	0.040813297
14	0xbda1f5c4	-0.07908204
15	0xbdaec278	-0.08533186
16	0xbb4c0111	-0.0031128565
17	0x3dd566ac	0.10419974
18	0xbd801d59	-0.062555976
19	0xbdbb1e51	-0.09136642
20	0x3dc7a524	0.09748295
21	0x3d99bbdb	0.07506534
22	0x3dd2d896	0.10295217
23	0xbe243310	-0.16035104
24	0xbdd80237	-0.105472974
25	0x3dfc894a	0.12330873
26	0xbe14b545	-0.14522274
27	0xbe28cd91	-0.16484667
28	0x3e2cfd5a	0.16893521
29	0x3d321453	0.043476414
30	0x3e2bcc09	0.16777052
31	0x3d5b043c	0.053470835
32	0xbdd14b23	-0.10219409
33	0x3da1c758	0.0789935
34	0xbda75e55	-0.08172289
35	0xbe12b705	-0.14327629
36	0x3d2baac9	0.04191092
37	0x3dd29ae6	0.10283451
38	0xbdfe3b20	-0.12413621
39	0xbd649612	-0.05580718
40	0xbd4f0019	-0.050537203
41	0x3d68a6f7	0.056799855
42	0x3e07e9cd	0.13272782
43	0x3d66d082	0.056351192
44	0x3d27aa2f	0.040933784
45	0xbdca1301	-0.09866906
46	0x3dd4c9de	0.103900656
47	0x3dfa3080	0.12216282
48	0x3d3f9f8d	0.04678302
49	0xbe2c03da	-0.16798344
50	0xbcefeb84	-0.029287107
51	0xbdd68bd0	-0.10475886
52	0x39ffb904	0.00048775238
53	0xbc255a95	-0.010092397
54	0x3daecdbe	0.08535336
55	0x3d3d5748	0.046225816
56	0x3b724143	0.0036965169
57	0x3dee492a	0.11635049
58	0x3da5e8eb	0.08101066
59	0x3d4c21fa	0.04983709
60	0x3ddcd2cf	0.10782396
61	0x3e07fb45	0.13279445
62	0xbd3bc83d	-0.04584526
63	0x3e0a8175	0.13525946
64	0xbd8e8c5f	-0.069603674
65	0x3da6a6a9	0.08137257
66	0xbd96b571	-0.07358826
67	0xbe284754	-0.1643346
68	0x3d4ce23c	0.05002044
69	0x3cb9a438	0.022661313
70	0x3dafa225	0.085758485
71	0x3d03b72a	0.0321571
72	0xbcd9cb01	-0.026586058
73	0xbda1a5b4	-0.078929335
74	0x3d4a14c8	0.049336225
75	0xbd101c0c	-0.035182998
76	0x3cbbcd59	0.022925066
77	0xbe2578c4	-0.1615935
78	0xbe0604c1	-0.13087751
79	0x3d897d43	0.06713345
80	0xbd9d21db	-0.07672473
81	0x3e28c295	0.16480477
82	0xbd0863a5	-0.033298153
83	0x3dd5bf76	0.10436909
84	0xbdbe9ae8	-0.0930689
85	0xbe3ac2cd	-0.18238373
86	0xbab1d6b7	-0.0013568018
87	0x3d1cb6bb	0.038260203
88	0x3d79edf1	0.061017934
89	0x3d4d603e	0.05014061
90	0xbe04ed35	-0.12981112
91	0x3d08a173	0.033357095
92	0xbdc37c5c	-0.09545204
93	0x3e1a893d	0.15091415
94	0x3dbaab1c	0.09114668
95	0x3dedb15f	0.116060965
96	0x3e034d07	0.12822352
97	0x3d1587b7	0.03650638
98	0x3d562756	0.052283607
99	0x3dddd22f	0.10831105
100	0x3e15abad	0.1461627
101	0x3e2faa04	0.171547
102	0xbb23999f	-0.0024963391
103	0x3bc9a0b4	0.0061531905
104	0xbc5ee2a4	-0.01360384
105	0xbdeb5f9b	-0.11492845
106	0x3dc4768b	0.09592923
107	0xbdd86e44	-0.105679065
108	0xbdfa13ea	-0.122108296
109	0x3e160f43	0.1465426
110	0x3e3e27e0	0.18569899
111	0xbd9e459e	-0.07728122
112	0xbe170349	-0.14747347
113	0x3e0cb537	0.13741003
114	0xbe1275b9	-0.1430272
115	0xbe26b87a	-0.1628131
116	0x3d92d39e	0.07169269
117	0xbe00b551	-0.12569167
118	0xbde3e740	-0.11128092
119	0x3e192913	0.14957075
120	0x3e1c032a	0.15235582
121	0xbe181b49	-0.14854158
122	0xbc9f320d	-0.019433046
123	0xbdd9b967	-0.10631066
124	0xbd39d940	-0.0453732
125	0x3df78480	0.12085819
126	0x3c662bd0	0.014048532
127	0xbc121811	-0.008916871
128	0x3e18a9b6	0.1490849
129	0xbe1bec3f	-0.1522684
130	0xbdf9d764	-0.121992856
131	0x3dd31c75	0.10308162
132	0x3d10981c	0.035301313
133	0x3e2541ed	0.1613843
134	0xbd2393e5	-0.039935965
135	0xbde5d7cb	-0.112228
136	0x3e03de01	0.12877657
137	0x3d4280d9	0.04748616
138	0xbd43a3cd	-0.047763634
139	0xbded1b96	-0.11577527
140	0xbe157c4c	-0.14598197
141	0x3bf5dbed	0.007503024
142	0xbd40ca9f	-0.047068235
143	0xbd8b01f9	-0.06787486
144	0xbd9d0e47	-0.07668739
145	0x3c425242	0.011860432
146	0xbdab7b0a	-0.08373077
147	0x3d32af76	0.043624364
148	0x3dd0b0e8	0.10189992
149	0x3d8ef68f	0.06980621
150	0xbe39fbd4	-0.18162471
151	0x3c38d098	0.011280201
152	0x3dc8e076	0.098084375
153	0xbd4aebc9	-0.04954127
154	0x3e1c91d8	0.1529001
155	0xbd415ddc	-0.047208652
156	0xbde63ee2	-0.11242463
157	0xbde9a40c	-0.114082426
158	0x3d30d69a	0.04317341
159	0x3e1b2efb	0.1515464
160	0xbd6db615	-0.058034975
161	0x3dd455a4	0.10367897
162	0xbe1c6518	-0.15272939
163	0x3e2a2523	0.16615729
164	0x3e2ec521	0.17067386
165	0xbe171c95	-0.14756997
166	0x3d6dec3a	0.05808661
167	0xbca88665	-0.020571897
168	0x3e1bb1fb	0.15204613
169	0x3cfa57b0	0.03055939
170	0x3d832bbe	0.064048275
171	0x3cf45511	0.02982572
172	0xbe0be580	-0.13661766
173	0xbe110128	-0.14160597
174	0xbe3286aa	-0.17434183
175	0x3e2bfcd6	0.16795668
176	0xbc360b06	-0.011111027
177	0x3db128e2	0.08650376
178	0xbd8b7e5b	-0.0681121
179	0x3e0e509d	0.13897939
180	0xbe39eb48	-0.18156159
181	0x3e2afdcd	0.1669838
182	0x3d0fbc4a	0.035091676
183	0xbd4764e7	-0.048680212
184	0x3d952dad	0.072841026
185	0xbd648275	-0.055788476
186	0x3cc11d0e	0.023573425
187	0x3d4054ea	0.04695598
188	0xbde41ab9	-0.111379094
189	0x3b74fa43	0.0037380613
190	0xbdd4065f	-0.10352778
191	0xbe001ef4	-0.12511808
192	0xbdbc00b2	-0.0917982
193	0xbb8647f6	-0.004097934
194	0xbd8009a8	-0.06251842
195	0xbe1a7495	-0.15083535
196	0xbe2d85f5	-0.16945632
197	0xbe04669f	-0.12929772
198	0x3dfa4962	0.12221028
199	0xbe057460	-0.13032675
200	0xbc698809	-0.014253625
201	0xbe430cd2	-0.1904786
202	0x3db0fc8a	0.08641918
203	0xbe0a5ee1	-0.13512756
204	0xbe00aea3	-0.12566619
205	0xbe011aea	-0.12607923
206	0x3cb7246b	0.022356233
207	0xbddb1125	-0.106966294
208	0xbe2116c2	-0.15731338
209	0xbd977d22	-0.07396914
210	0x3de8efa6	0.11373834
211	0x3e0afc46	0.13572797
212	0x3e114309	0.14185728
213	0x3dccffdc	0.10009739
214	0xbd24c408	-0.040226012
215	0xbb5a58c8	-0.0033317078
216	0xbe2a5496	-0.1663383
217	0x3d80fed6	0.06298606
218	0xbe098c89	-0.13432516
219	0xbdfaeba9	-0.1225198
220	0xbe3569b5	-0.17716105
221	0xbe37b9ef	-0.17942022
222	0xbdf30c30	-0.11867559
223	0x3e3db400	0.18525696
224	0x3c900c57	0.01758401
225	0xbe2d3398	-0.16914213
226	0x3d5ccc17	0.053905573
227	0xbd234edd	-0.03987013
228	0x3e0e3570	0.13887572
229	0xbe348e7f	-0.17632483
230	0x3dc58594	0.09644619
231	0xbd5f69a0	-0.05454409
232	0x3d4edbb8	0.05050251
233	0x3e032e73	0.12810688
234	0xbbd7462e	-0.0065696454
235	0x3d77acaf	0.06046742
236	0xbdc5ee59	-0.09664602
237	0xbe261884	-0.1622029
238	0x3d45171d	0.048117746
239	0x3ba6d3f4	0.0050911848
240	0xbda123ca	-0.07868154
241	0xbdcb90a1	-0.09939695
242	0x3c9204e6	0.017824601
243	0x3da52583	0.080637954
244	0x3c91e812	0.017810855
245	0x3dc290d2	0.095002785
246	0xbdf76414	-0.12079635
247	0xbdc7295c	-0.097246855
248	0xbe45567c	-0.19271272
249	0xbd530c12	-0.051525183
250	0x3d22a69d	0.039709676
251	0xbd4eb7a4	-0.050468102
252	0xbdd42096	-0.10357778
253	0xbdc2ec2e	-0.09517704
254	0x3d08dfec	0.033416674
255	0x3c4b1515	0.012395163

weight f4 [96]
0	0x3f8197b3	1.012442
1	0x3f8023c3	1.0010914
2	0x3f7d65bc	0.9898336
3	0x3f79125a	0.9729363
4	0x3f8084e1	1.0040551
5	0x3f807f4f	1.0038851
6	0x3f80079a	1.000232
7	0x3f819f97	1.0126828
8	0x3f7c886b	0.9864566
9	0x3f81851a	1.0118744
10	0x3f7f1e9b	0.99656075
11	0x3f7f088f	0.99622434
12	0x3f7e6f4b	0.9938857
13	0x3f822afa	1.0169365
14	0x3f8195af	1.0123805
15	0x3f7eabbe	0.9948081
16	0x3f7f0784	0.9962084
17	0x3f8006b5	1.0002047
18	0x3f821615	1.0162989
19	0x3f7e72db	0.99394006
20	0x3f7ffa58	0.9999137
21	0x3f7fe966	0.9996551
22	0x3f7f6534	0.997638
23	0x3f79b8fc	0.9754789
24	0x3f805216	1.0025051
25	0x3f7b9699	0.9827667
26	0x3f7e2b76	0.99285066
27	0x3f7edd8d	0.9955681
28	0x3f83a78e	1.0285509
29	0x3f790658	0.97275305
30	0x3f7b6647	0.9820294
31	0x3f78d0de	0.97193706
32	0x3f81fd0c	1.0155349
33	0x3f80d838	1.0065985
34	0x3f8064db	1.0030779
35	0x3f815a76	1.0105731
36	0x3f7f9432	0.99835503
37	0x3f82b272	1.0210707
38	0x3f7f884c	0.9981735
39	0x3f80d2ed	1.006437
40	0x3f7a6ff2	0.97827065
41	0x3f7ad938	0.979877
42	0x3f7f1c76	0.996528
43	0x3f81476f	1.0099925
44	0x3f7cf007	0.9880375
45	0x3f7f25aa	0.99666846
46	0x3f7c0a01	0.98452765
47	0x3f839290	1.0279102
48	0x3f800096	1.0000179
49	0x3f776872	0.96643746
50	0x3f822231	1.0166684
51	0x3f7cd20e	0.9875802
52	0x3f7fd0fa	0.9992825
53	0x3f80507e	1.0024564
54	0x3f7e731e	0.99394405
55	0x3f8109af	1.008108
56	0x3f7db30a	0.99101317
57	0x3f831680	1.0241241
58	0x3f7fb4a0	0.99884987
59	0x3f81792e	1.0115106
60	0x3f768874	0.9630196
61	0x3f8130e1	1.0093042
62	0x3f802ecd	1.0014282
63	0x3f83d5e1	1.0299646
64	0x3f8041eb	1.0020117
65	0x3f811064	1.0083127
66	0x3f8047c7	1.0021905
67	0x3f7ea9b9	0.99477726
68	0x3f80452f	1.0021113
69	0x3f80b538	1.0055304
70	0x3f809b2c	1.0047355
71	0x3f7fdcf7	0.9994654
72	0x3f7d6b06	0.9899143
73	0x3f7de6fd	0.99180585
74	0x3f7ccf0d	0.98753434
75	0x3f7ecce1	0.9953137
76	0x3f81183d	1.0085522
77	0x3f7c55a2	0.98568165
78	0x3f81ec77	1.0150288
79	0x3f7e8b0a	0.99430907
80	0x3f81bf06	1.0136421
81	0x3f808e53	1.0043434
82	0x3f7e3f92	0.9931575
83	0x3f7fffff	0.99999994
84	0x3f7d439a	0.98931277
85	0x3f808cd4	1.0042977
86	0x3f81b997	1.0134763
87	0x3f7e906b	0.99439114
88	0x3f8284ed	1.0196816
89	0x3f820cbc	1.0160136
90	0x3f807390	1.0035267
91	0x3f8167c8	1.0109797
92	0x3f8087f5	1.0041491
93	0x3f82b5b0	1.0211697
94	0x3f7c69f6	0.98599184
95	0x3f809984	1.0046849

bias f4 [96]
0	0xbc413e75	-0.011794676
1	0x3ba15d12	0.004924425
2	0x3c090c46	0.008364743
3	0xbc9712b1	-0.01844153
4	0xbc9b6d43	-0.018972998
5	0xbbcc92f9	-0.0062431064
6	0x3c6538a6	0.013990557
7	0xbc7208ee	-0.014772637
8	0xbc5355d3	-0.01289888
9	0xbc6553ee	-0.013997061
10	0xbca9dcb0	-0.020735115
11	0xbb9a509a	-0.0047093155
12	0xbc9be4ce	-0.019030001
13	0x3b078b73	0.0020682483
14	0x39b8de6d	0.00035260935
15	0xbc5ba8df	-0.013406961
16	0xbbbfabdb	-0.005849344
17	0x3b0b59c3	0.002126322
18	0xbc3cb8d0	-0.011518672
19	0x3c16eb03	0.009211305
20	0xbc65f8cc	-0.014036369
21	0x3b471799	0.0030379056
22	0x3ca57732	0.020198438
23	0xbcbcf86d	-0.023067677
24	0xbba190bb	-0.0049305833
25	0xbc9c02a9	-0.019044237
26	0x3a0e18a6	0.0005420543
27	0xbc76a655	-0.015054305
28	0x3b441f27	0.0029925795
29	0x3c1cd0a1	0.009571225
30	0x3d111719	0.03542242
31	0x3c16d5c7	0.009206242
32	0x3c7b9d43	0.015357318
33	0xbacf61b9	-0.001582197
34	0xbc623e5a	-0.013808811
35	0x3c18496e	0.009294851
36	0xba11f4f5	-0.00055678125
37	0xbc1e9824	-0.009679828
38	0x3ce67f87	0.028136982
39	0xbbb2d044	-0.005456956
40	0x3c054434	0.008133937
41	0xbc803627	-0.015650822
42	0x3cccecf8	0.02501534
43	0x3c3c3bc9	0.011488863
44	0xbbf3ebc8	-0.007443879
45	0xb9cb5e9a	-0.0003878966
46	0xbb063ffc	-0.0020484915
47	0x3ceb6b5d	0.028737718
48	0xbc074504	-0.008256201
49	0xbb76aa5b	-0.003763816
50	0xbc523abe	-0.012831388
51	0xbb0436b0	-0.0020174198
52	0x3b31b36a	0.0027114996
53	0xbb7a6293	-0.0038205727
54	0x3ce12a3c	0.02748596
55	0xbc24e114	-0.010063428
56	0x3b82db96	0.003993462
57	0x3accada8	0.0015615718
58	0xbc0f7cc4	-0.008757774
59	0xbcabf742	-0.020991925
60	0x3ca30f17	0.019904656
61	0x3cd97453	0.026544726
62	0xbcc04899	-0.023472117
63	0xbb95779b	-0.004561377
64	0xbc98cdb1	-0.018652769
65	0xbc4026ea	-0.011728028
66	0x3c7e84df	0.015534609
67	0x3c263253	0.010143834
68	0xbce64a41	-0.028111579
69	0x3ba00417	0.0048833
70	0x3c5b2775	0.0133761065
71	0x3c09d195	0.008411785
72	0x3c11d6ff	0.008901357
73	0x3c768d51	0.015048341
74	0xbb928110	-0.004470952
75	0xbce0725f	-0.027398286
76	0xbc5c57c2	-0.0134486575
77	0x3cf8f396	0.030389588
78	0xbab31670	-0.0013663303
79	0xbc030885	-0.007997637
80	0xbc2abbc8	-0.010420747
81	0x3c2c72b5	0.010525395
82	0xb99a58d5	-0.00029439354
83	0x3c3b0aa5	0.011416112
84	0x3c4a0723	0.012330803
85	0x3b932eb4	0.0044916514
86	0x3bdc685a	0.006726307
87	0xbad1047d	-0.0015946772
88	0x3ac51bdd	0.0015038211
89	0xbb9e36cd	-0.00482831
90	0xbc21ed5b	-0.00988325
91	0xbc426b83	-0.011866453
92	0x3cd59b33	0.026074981
93	0xbb3b7eb4	-0.0028609456
94	0x3c74af8b	0.014934431
95	0xbc37aaa0	-0.011210114

mean_scale f4 [96]
0	0x3f7ce2a7	0.98783344
1	0x3f7f9dc2	0.99850094
2	0x3f80f8e5	1.0075957
3	0x3f82bb5b	1.0213426
4	0x3f8236c2	1.0172961
5	0x3f80c83e	1.0061109
6	0x3f7d3efd	0.9892424
7	0x3f7cb607	0.9871525
8	0x3f7c3d94	0.9853146
9	0x3f7c2def	0.9850759
10	0x3f82d90d	1.0222489
11	0x3f7e64db	0.99372643
12	0x3f7b0049	0.9804731
13	0x3f7dd092	0.9914638
14	0x3f7f8a13	0.9982006
15	0x3f7ca676	0.986915
16	0x3f7ea04e	0.99463356
17	0x3f7f4c24	0.99725556
18	0x3f815124	1.0102887
19	0x3f80ef85	1.0073096
20	0x3f7cbf29	0.9872919
21	0x3f7eadd6	0.99484
22	0x3f82bddb	1.0214189
23	0x3f835bac	1.0262351
24	0x3f80affc	1.0053706
25	0x3f828465	1.0196654
26	0x3f7ffb9b	0.99993294
27	0x3f7bda51	0.9838
28	0x3f7f7dee	0.9980153
29	0x3f7ce2b9	0.9878345
30	0x3f856752	1.0422156
31	0x3f7d4e6a	0.98947775
32	0x3f81ebaa	1.0150044
33	0x3f804fc8	1.0024347
34	0x3f818336	1.0118167
35	0x3f7dbb8f	0.99114317
36	0x3f80853c	1.004066
37	0x3f814948	1.0100489
38	0x3f794b84	0.9738085
39	0x3f8088dd	1.0041767
40	0x3f7dbe53	0.99118537
41	0x3f7ae8af	0.98011297
42	0x3f82eef7	1.0229176
43	0x3f7d1f38	0.9887576
44	0x3f8121f2	1.0088484
45	0x3f7ffe7c	0.9999769
46	0x3f809827	1.0046433
47	0x3f82a6cd	1.0207154
48	0x3f80de34	1.0067811
49	0x3f7fdb63	0.9994413
50	0x3f819942	1.0124896
51	0x3f7b2a2c	0.98111224
52	0x3f7f0387	0.9961476
53	0x3f7e4ee9	0.9933916
54	0x3f7923c6	0.9732021
55	0x3f7cff57	0.9882712
56	0x3f805b49	1.0027858
57	0x3f7f6067	0.99756473
58	0x3f7dcebc	0.99143577
59	0x3f7bfbe2	0.9843122
60	0x3f7b69a2	0.9820806
61	0x3f833a81	1.0252229
62	0x3f7a8d18	0.9787154
63	0x3f806fdf	1.003414
64	0x3f7eff4c	0.996083
65	0x3f7d14df	0.9885997
66	0x3f82aca6	1.0208938
67	0x3f7d56ae	0.9896039
68	0x3f8364bb	1.0265115
69	0x3f7f91a7	0.9983162
70	0x3f7c5932	0.985736
71	0x3f813008	1.0092783
72	0x3f805dfb	1.002868
73	0x3f7c6845	0.985966
74	0x3f80792f	1.0036982
75	0x3f78bbab	0.9716136
76	0x3f81abeb	1.013059
77	0x3f783b93	0.96965903
78	0x3f8028ec	1.0012488
79	0x3f80c8b1	1.0061246
80	0x3f815dfe	1.0106809
81	0x3f7d9be1	0.9906598
82	0x3f7ff23d	0.99979
83	0x3f817dd2	1.0116522
84	0x3f7bd214	0.9836743
85	0x3f813d9e	1.0096929
86	0x3f7dac57	0.99091095
87	0x3f7fbf6d	0.9990147
88	0x3f803ca1	1.0018502
89	0x3f808016	1.0039089
90	0x3f80f226	1.0073898
91	0x3f79bd41	0.97554404
92	0x3f786216	0.9702467
93	0x3f800992	1.0002921
94	0x3f81c47d	1.0138088
95	0x3f817172	1.0112746

bias f4 [64]
0	0xbd079d8b	-0.03310923
1	0xbaf86217	-0.0018950131
2	0x3c67708b	0.014125953
3	0xba7989fe	-0.00095191586
4	0x3b48ed31	0.0030658955
5	0xbc0ed634	-0.008718062
6	0xbc3278b4	-0.010893036
7	0xbcb4d54e	-0.022074368
8	0xbab29023	-0.0013623278
9	0x3c0fb694	0.008771557
10	0xbbb13948	-0.00540844
11	0x3b6cd5b3	0.0036138117
12	0x3ae5d100	0.00175336
13	0x3d0984d5	0.033573944
14	0xbc90fba0	-0.01769811
15	0x3b8a5abe	0.004222243
16	0xbbffd4f4	-0.0078073684
17	0xbafb7a21	-0.0019186178
18	0x3b140480	0.002258569
19	0x3cdca1ed	0.026932681
20	0xbcb3e71b	-0.021960786
21	0x3c7e5fa7	0.015525735
22	0xbc3e9820	-0.011632949
23	0x3c6cdb89	0.014456638
24	0xbc4107d8	-0.011781655
25	0xbcd49749	-0.025951045
26	0x3bcefbad	0.006316623
27	0xbc5b8f69	-0.013400891
28	0x3c001af2	0.007818924
29	0x3c9f6949	0.019459384
30	0xbd345798	-0.04402885
31	0x3d02136f	0.031756815
32	0xbcd39aa6	-0.025830578
33	0x3a2c1ba4	0.0006565398
34	0x3afea4bc	0.0019427757
35	0x3bdee8e1	0.0068026637
36	0x3c93297a	0.017964114
37	0xbc3ad0f8	-0.011402361
38	0xbc24e061	-0.010063262
39	0x3c30b0ab	0.010784308
40	0x3d13a3d1	0.0360449
41	0xbbc2a8ab	-0.005940517
42	0xbc801537	-0.015635116
43	0x3d12337d	0.035693634
44	0xbd591cdc	-0.053006038
45	0x3bf733df	0.0075440253
46	0xbca9c459	-0.020723509
47	0xbc0220ae	-0.007942362
48	0x3c75dcba	0.015006239
49	0x39934be5	0.0002809457
50	0xbc47350d	-0.012158644
51	0xbbb1cfa4	-0.005426364
52	0x3c425c66	0.01186285
53	0x3ba38d13	0.0049911826
54	0x3c48de87	0.012260086
55	0xbc467945	-0.012113874
56	0x3c16d7a0	0.009206682
57	0x3d459f90	0.048247874
58	0xbc4f5f7a	-0.012657041
59	0xbc764053	-0.0150299845
60	0x3c25e1cd	0.010124636
61	0xbc7d5668	-0.015462495
62	0x3d195a77	0.03743979
63	0x3c958675	0.01825259

weight f4 [64, 96]
0	0x3e503896	0.20334086
1	0xbe1a85bd	-0.1509008
2	0xbd9bc232	-0.07605399
3	0x3dfa55ee	0.12223421
4	0xbe168b86	-0.14701661
5	0x3e310c62	0.1728988
6	0xbe40a430	-0.18812633
7	0xbe040514	-0.12892562
8	0xbcf2400a	-0.029571552
9	0x3e297e85	0.1655217
10	0xbdf63782	-0.12022306
11	0x3cc30145	0.023804316
12	0x3df1eff8	0.118133485
13	0xbbe63c17	-0.0070262062
14	0x3d8a0278	0.06738752
15	0x3dfea9dc	0.12434742
16	0x3dce24e8	0.10065633
17	0xbde63dd0	-0.112422585
18	0xbe34418d	-0.1760313
19	0x3c958e1b	0.018256238
20	0x3d232047	0.039825704
21	0x3d097c4f	0.033565816
22	0x3e108b48	0.14115632
23	0x3d476c39	0.048687194
24	0xbd84c6f8	-0.06483263
25	0x3dfd81bf	0.12378263
26	0xbde8f515	-0.11374871
27	0xbdfa76da	-0.122297004
28	0xbe0f301f	-0.139832
29	0xbdaa23a2	-0.08307578
30	0x3c8cefd5	0.017204205
31	0x3b1e8c53	0.0024192526
32	0x3c85b5da	0.016322065
33	0x3e322468	0.173967
34	0xbdaf0f88	-0.08547884
35	0x3d116203	0.035493862
36	0xbd85251b	-0.06501218
37	0x3e0c3b40	0.13694477
38	0xbdfd604b	-0.12371882
39	0x3e00d005	0.12579353
40	0x3dafea5a	0.08589621
41	0xbdcd704a	-0.10031183
42	0xbd4f33c9	-0.050586496
43	0x3df823d7	0.12116211
44	0xbd184fad	-0.03718536
45	0xbe1cae63	-0.15300898
46	0x3e25ae45	0.1617976
47	0x3e3534fb	0.17695992
48	0xbdff9fdd	-0.124816634
49	0xbde8692e	-0.113481864
50	0xbdf7fa0b	-0.12108239
51	0x3e115d3d	0.14195724
52	0x3e209be4	0.15684468
53	0xbdd103e0	-0.10205817
54	0xbe2a4742	-0.16628745
55	0xbcab2adf	-0.020894466
56	0xbdca8e7c	-0.09890458
57	0x3e485701	0.1956444
58	0x3ccae227	0.024766041
59	0xbe298991	-0.16556384
60	0xbe0708f6	-0.13187012
61	0xbde0b664	-0.10972288
62	0x3dbde72f	0.092726104
63	0x3dcb93c2	0.09940292
64	0xbd8d20c4	-0.06891015
65	0x3e0e4925	0.1389509
66	0xbd8e16d5	-0.069379486
67	0xbdf29d98	-0.11846465
68	0x3da09823	0.07841518
69	0x3dd8d69b	0.10587808
70	0x3db84cb8	0.08999008
71	0xbd5b8b7a	-0.053599812
72	0x3def73b6	0.11691992
73	0x3cef646e	0.029222693
74	0x3e266342	0.16248801
75	0x3e393181	0.1808529
76	0xbdf4e7d4	-0.1195828
77	0xbe56214f	-0.20911144
78	0x3d68a8b2	0.056801505
79	0xbdd753f4	-0.1051406
80	0xbe51d614	-0.2049182
81	0xbdf1f340	-0.118139744
82	0xbcd9dc63	-0.026594346
83	0x3c6d4ac6	0.014483159
84	0xbe15b158	-0.14618433
85	0x3c2b2ea3	0.010448131
86	0x3da747d0	0.08167994
87	0x3e031bac	0.12803525
88	0xbc9a4448	-0.018831387
89	0x3cb77c86	0.022398245
90	0x3dd89cc8	0.10576779
91	0x3e0ed113	0.13946943
92	0xbe18a430	-0.14906383
93	0xbce7b8fb	-0.028286448
94	0xbe0d7a07	-0.13816081
95	0xbdf952cb	-0.12173995
96	0x3d569059	0.052383754
97	0xbe3516de	-0.17684504
98	0x3defe746	0.11714034
99	0x3db077fc	0.08616635
100	0x3de42fe7	0.11141949
101	0x3b460ff1	0.0030221904
102	0x3e02cbb9	0.12773027
103	0xba6e1d9e	-0.0009083393
104	0xbe0612b8	-0.13093078
105	0x3e093264	0.13398129
106	0xbc3e64d5	-0.01162072
107	0x3df4ce52	0.11953415
108	0x3d2fb71b	0.042899232
109	0x3e153484	0.14570814
110	0x3d192145	0.037385244
111	0x3dd13de5	0.102168836
112	0x3c0b3b2a	0.0084979925
113	0x3caad740	0.020854592
114	0x3d5bcd60	0.053662658
115	0xbe3776e0	-0.17916441
116	0xbde2cfb8	-0.110747755
117	0xbcc755cc	-0.024332903
118	0xbc462973	-0.012094843
119	0xbe22c5b5	-0.15895732
120	0x3e0aa053	0.13537721
121	0x3dad1c96	0.08452718
122	0x3cb5aeef	0.022178141
123	0x3e0ef98e	0.13962385
124	0xbcf477b8	-0.029842243
125	0xbd720741	-0.05908895
126	0x3e00c818	0.1257633
127	0x3ca8a800	0.020587921
128	0x3da6dbdb	0.08147403
129	0x3e53d704	0.2068749
130	0xbe2ceb63	-0.16886668
131	0xbe370f8d	-0.17877026
132	0x3db43ffa	0.08801265
133	0xbe4697a0	-0.19393778
134	0x3d268b38	0.040660113
135	0xbe14ecc9	-0.14543451
136	0x3c21b92c	0.009870809
137	0xbcbb4013	-0.022857701
138	0xbdaef8fa	-0.08543582
139	0xbdb98ace	-0.09059678
140	0xbd04165f	-0.032247897
141	0x3d95d60a	0.07316215
142	0xbdb8a53b	-0.0901589
143	0x3e3c9e53	0.18419771
144	0x3d671860	0.05641973
145	0xbe361b8d	-0.17783947
146	0xbe11f2cd	-0.14252777
147	0x3e1f4e1c	0.1555714
148	0xbc6ea532	-0.014565753
149	0xbb4a3a93	-0.0030857667
150	0x3cf76a24	0.030201979
151	0xbdb924b2	-0.09040202
152	0x3e040fd0	0.12896657
153	0x3dec4292	0.11536135
154	0x3e44500a	0.19171157
155	0xbe14af51	-0.14520003
156	0xbcbf696d	-0.0233657
157	0x3da72855	0.081619896
158	0x3e0ef157	0.13959251
159	0x3dbb2ac3	0.091390155
160	0xbe243053	-0.16034059
161	0xbd51582d	-0.05110948
162	0xbe188eb3	-0.14898185
163	0x3e1b0ff7	0.15142809
164	0x3d8eeb72	0.069785014
165	0xbc1b668a	-0.009484896
166	0xbda771fd	-0.081760384
167	0xbdcf1602	-0.101116195
168	0xbe2c731d	-0.16840787
169	0x3e14afd7	0.14520203
170	0x3d793c77	0.06084868
171	0xbdd60544	-0.10450223
172	0xbdf580a9	-0.119874306
173	0xbde12981	-0.10994244
174	0x3da4a96b	0.080401264
175	0x3d703b5c	0.05865036
176	0x3dcfff17	0.101560764
177	0x3d95d279	0.07315535
178	0x3e02d61f	0.12776993
179	0x3d8bc86f	0.06825339
180	0x3e0ffa5c	0.14060348
181	0xbe44a382	-0.19202998
182	0xbd07af15	-0.033125956
183	0x3da60f83	0.081084274
184	0xbd128c6b	-0.035778444
185	0xbe2ed8d6	-0.17074904
186	0x3e32e0e2	0.17468598
187	0xbdb8ffe1	-0.0903318
188	0x3dc9a52f	0.098459594
189	0x3d1d69e5	0.038431067
190	0xbda8ec1a	-0.08248158
191	0x3dfc8050	0.12329161
192	0x3e31f868	0.17379916
193	0xbd2ccc2e	-0.04218691
194	0xbd6f1724	-0.058371678
195	0x3c296423	0.010338816
196	0x3d93c5bc	0.07215449
197	0x3e4e4334	0.20142823
198	0x3db18d25	0.08669499
199	0x3e0f57ff	0.13998412
200	0xbe37998f	-0.17929672
201	0x3c8be88d	0.017078662
202	0x3d900011	0.07031263
203	0xbe01d263	-0.12677912
204	0x3b6d5d70	0.0036219023
205	0x3d10844d	0.03528242
206	0x3d6fd6c1	0.058554415
207	0x3d55eb72	0.05222649
208	0xbd9ff63a	-0.07810636
209	0x3ddbcb75	0.10732166
210	0x3cd8b72a	0.026454527
211	0xbc8a26bc	-0.016864173
212	0xbdb517e2	-0.08842446
213	0xbc912b10	-0.01772073
214	0xbe2a5425	-0.16633661
215	0xbdc448fb	-0.095842324
216	0xbe136004	-0.14392096
217	0x3cab50db	0.020912578
218	0xbdfeb0b4	-0.12436047
219	0xbe5023df	-0.20326184
220	0x3c85344f	0.016260294
221	0x3d5dfc67	0.054195788
222	0xbd34b311	-0.044116084
223	0x3e09d835	0.13461383
224	0x3d41e376	0.047336064
225	0xbe15451a	-0.14577141
226	0xbe119597	-0.1421722
227	0xbdbdd6c4	-0.09269479
228	0xbe1f1d9a	-0.15538636
229	0x3e3067e4	0.17227131
230	0xbd545ebe	-0.051848166
231	0xbc21e501	-0.009881259
232	0x3d48ef41	0.049056295
233	0x3dbb1fa1	0.09136892
234	0xbda68484	-0.08130744
235	0xbe29ed16	-0.16594347
236	0xbe1a9594	-0.15096122
237	0x3ddcc5ce	0.10779916
238	0x3e3ac072	0.18237475
239	0x3d119077	0.035538163
240	0xb981bb24	-0.00024744228
241	0xbe40009c	-0.18750232
242	0x3e277798	0.16354215
243	0x3d5f7ca1	0.054562215
244	0xbd56587a	-0.05233047
245	0xbdc55c1f	-0.09636711
246	0x3d6f06d4	0.05835612
247	0xbd38dd62	-0.045133002
248	0x3cf141c2	0.029450301
249	0xbe3a5d0a	-0.18199554
250	0x3e0a2f87	0.13494693
251	0x3d9480d3	0.07251134
252	0x3d9bdd2a	0.07610543
253	0xbda6f8e4	-0.08152941
254	0x3de89ea7	0.113583855
255	0x3e2a3ef4	0.16625577

weight f4 [64]
0	0x3f81e6b8	1.0148535
1	0x3f81ff86	1.0156105
2	0x3f7a5382	0.9778367
3	0x3f7db55e	0.9910487
4	0x3f841389	1.0318462
5	0x3f81f5d8	1.015315
6	0x3f81e593	1.0148185
7	0x3f80299c	1.0012698
8	0x3f7d0065	0.98828727
9	0x3f7a60cc	0.9780395
10	0x3f80c8dd	1.0061299
11	0x3f813e19	1.0097076
12	0x3f80f8ac	1.0075889
13	0x3f7e628a	0.9936911
14	0x3f819e15	1.0126368
15	0x3f7eb73c	0.99498343
16	0x3f807ad0	1.0037479
17	0x3f82474f	1.0178012
18	0x3f82272a	1.0168202
19	0x3f7da0bf	0.99073404
20	0x3f803956	1.0017498
21	0x3f862d3a	1.0482552
22	0x3f7de9d9	0.9918495
23	0x3f8226a8	1.0168047
24	0x3f805aa4	1.0027661
25	0x3f7b4950	0.9815874
26	0x3f80f0ec	1.0073524
27	0x3f7deb3c	0.99187064
28	0x3f800446	1.0001304
29	0x3f7e1d36	0.9926332
30	0x3f7854cd	0.97004396
31	0x3f817493	1.0113701
32	0x3f7f10e3	0.9963514
33	0x3f83f309	1.0308543
34	0x3f851c81	1.0399324
35	0x3f803b3a	1.0018075
36	0x3f8213d7	1.0162305
37	0x3f82eabc	1.0227885
38	0x3f7e85e7	0.9942307
39	0x3f7da649	0.99081856
40	0x3f795866	0.9740051
41	0x3f7e53a4	0.99346375
42	0x3f7c5289	0.9856344
43	0x3f7b8ced	0.9826191
44	0x3f802389	1.0010844
45	0x3f8035ad	1.001638
46	0x3f7c75b7	0.9861712
47	0x3f80442e	1.0020807
48	0x3f7a2cd4	0.9772465
49	0x3f7ffb45	0.9999278
50	0x3f7f33f2	0.9968864
51	0x3f828c29	1.0199023
52	0x3f8247a1	1.017811
53	0x3f7c7ba8	0.98626184
54	0x3f7ee97b	0.9957501
55	0x3f81ea50	1.0149632
56	0x3f80f50f	1.0074786
57	0x3f7c11c8	0.9846463
58	0x3f81cb5a	1.0140183
59	0x3f8233de	1.0172079
60	0x3f823f18	1.0175505
61	0x3f7e1a46	0.9925884
62	0x3f836b49	1.0267116
63	0x3f7f3506	0.9969028

bias f4 [64]
0	0x3cbe0d70	0.023199767
1	0x3b40849a	0.0029375912
2	0x3c45d318	0.012074254
3	0xbbf2f793	-0.007414767
4	0xbc2965e2	-0.010339232
5	0xbbb0a08d	-0.005390233
6	0x3c65f6b7	0.014035872
7	0x3c9e092a	0.01929148
8	0x3c54bc2f	0.01298432
9	0x3a3ebb33	0.00072758197
10	0xbba3b123	-0.0049954816
11	0xbbeb3661	-0.0071781133
12	0xbbc87c1e	-0.0061183115
13	0x3d1d9403	0.038471233
14	0x3cee1485	0.029062519
15	0xbc1e7c31	-0.009673164
16	0xba9c2285	-0.0011912143
17	0x3772201d	1.4431801e-05
18	0x3c07cbb4	0.008288313
19	0x3d00394f	0.031304654
20	0xba4c97d0	-0.0007804604
21	0xbc9f5a5c	-0.019452266
22	0x3cc78213	0.024354016
23	0x3c60ae27	0.013713396
24	0xbc6a4640	-0.0142989755
25	0x3c9fc5b9	0.019503461
26	0x3bc7ff51	0.006103434
27	0xbc8fd858	-0.017559215
28	0x3c676e0c	0.014125358
29	0x3c325cb9	0.010886365
30	0xbd25a2ac	-0.04043834
31	0xbcff40bd	-0.0311588
32	0xbc922780	-0.0178411
33	0x3b7276df	0.0036997122
34	0xbc0a8fc1	-0.008457125
35	0x3c074c84	0.008257989
36	0x3c781b8b	0.0151432855
37	0xbacec8bd	-0.0015776377
38	0xba4b1070	-0.0007746285
39	0xbc86641a	-0.016405154
40	0x3c8b41b9	0.016999112
41	0xba5dd917	-0.000846283
42	0x3bba4408	0.0056843795
43	0x3d1f26c2	0.03885532
44	0x3b212098	0.0024586078
45	0x3cccd91e	0.025005873
46	0xbccbd439	-0.02488147
47	0xb99735ef	-0.00028841148
48	0xbc61fc4f	-0.013793065
49	0xbbede18c	-0.0072595533
50	0xba1407a5	-0.0005646891
51	0x3cb63294	0.022240914
52	0x3c954fb4	0.018226482
53	0xbb3c5d21	-0.0028742033
54	0x3c52c03f	0.012863218
55	0x3ccce989	0.025013702
56	0x3ad1a64b	0.0015994994
57	0x3cf137f4	0.029445626
58	0x3bd5e7d8	0.006527882
59	0x3baacaba	0.005212155
60	0xbc5f1a1d	-0.013617066
61	0xbcd70249	-0.026246207
62	0xb9eb173b	-0.0004484
63	0x3c04eaef	0.008112653

mean_scale f4 [64]
0	0x3f84e8f5	1.0383593
1	0x3f7dd709	0.9915624
2	0x3f7d645d	0.9898127
3	0x3f7ff204	0.9997866
4	0x3f7e705c	0.99390197
5	0x3f7f5938	0.9974551
6	0x3f8213a7	1.0162247
7	0x3f81231d	1.0088841
8	0x3f824d07	1.0179757
9	0x3f80fda5	1.0077406
10	0x3f7f0d03	0.9962923
11	0x3f80ca0b	1.0061659
12	0x3f807aa5	1.0037428
13	0x3f758d27	0.95918506
14	0x3f831300	1.0240173
15	0x3f7e090e	0.99232566
16	0x3f832ab3	1.0247406
17	0x3f7f7c95	0.9979947
18	0x3f8202c2	1.0157092
19	0x3f77ad45	0.96748763
20	0x3f80a09a	1.0049012
21	0x3f81a1e2	1.0127528
22	0x3f813652	1.0094702
23	0x3f810da0	1.0082283
24	0x3f80b830	1.005621
25	0x3f84c493	1.037249
26	0x3f800b26	1.0003402
27	0x3f7b2636	0.9810518
28	0x3f7ece11	0.9953318
29	0x3f7f4706	0.9971775
30	0x3f7440f0	0.95411587
31	0x3f852cb8	1.0404272
32	0x3f7aec8b	0.98017186
33	0x3f79e369	0.97612625
34	0x3f80008b	1.0000166
35	0x3f7ec0e5	0.99513084
36	0x3f765a08	0.96231127
37	0x3f814f28	1.0102282
38	0x3f7f8a99	0.9982086
39	0x3f81ba9c	1.0135074
40	0x3f7cbd2a	0.9872614
41	0x3f804898	1.0022154
42	0x3f7f5660	0.9974117
43	0x3f7900ef	0.9726705
44	0x3f8341c1	1.0254441
45	0x3f7ca8b7	0.9869494
46	0x3f785f89	0.97020775
47	0x3f811be2	1.0086634
48	0x3f821345	1.016213
49	0x3f8069a2	1.0032237
50	0x3f8000a8	1.00002
51	0x3f81c43d	1.0138012
52	0x3f7b43d3	0.98150367
53	0x3f7ee0ce	0.99561775
54	0x3f7d0e78	0.988502
55	0x3f8373d1	1.0269719
56	0x3f80c12c	1.0058951
57	0x3f75884b	0.9591109
58	0x3f8003d4	1.0001168
59	0x3f7efd98	0.99605703
60	0x3f821bae	1.0164697
61	0x3f7a956f	0.9788427
62	0x3f80966a	1.0045903
63	0x3f813308	1.0093699

bias f4 [64]
0	0x3c163fc8	0.00917048
1	0x3c719d7c	0.01474702
2	0x3d084899	0.03327236
3	0x3c2977e7	0.010343528
4	0x3cb1c3f0	0.021699876
5	0xbbb36c90	-0.005475588
6	0xbc90628f	-0.017625121
7	0x3b6203b8	0.003448708
8	0xbc116545	-0.008874242
9	0x3d4345e5	0.04767408
10	0x3c24ffdf	0.01007077
11	0x3b25cf4d	0.0025300563
12	0x3c0ff95f	0.008787482
13	0x3bf3f9d8	0.007445555
14	0x3a5406e5	0.00080881856
15	0x3cc815f3	0.024424529
16	0xbd52bcec	-0.0514497
17	0x3c9119f3	0.017712569
18	0xbcd1b4f1	-0.025598975
19	0x3c4ffa7d	0.012693998
20	0xbc596592	-0.013268845
21	0xbcadb84b	-0.021206042
22	0x3cba518a	0.022743959
23	0xbc19c336	-0.009384921
24	0x3d90a271	0.07062233
25	0x3c33f24c	0.010983061
26	0x3cd5215e	0.026016887
27	0x3c42c350	0.011887386
28	0x3c11d8ff	0.008901834
29	0xbd22a99f	-0.039712545
30	0x3c61033f	0.013733684
31	0x3c815a42	0.015790109
32	0x3c8bf858	0.017086193
33	0x3c448d8b	0.011996637
34	0xbc4759b7	-0.012167386
35	0xbcddcf79	-0.02707647
36	0xbbce8ca9	-0.006303389
37	0x3bf412d2	0.0074485326
38	0x3d8672e0	0.065648794
39	0xbc8a1a97	-0.016858382
40	0xbbb744c1	-0.005592913
41	0xbd376de5	-0.044782538
42	0x3c018301	0.007904769
43	0xbc6cbba1	-0.014449031
44	0x3cd4d78c	0.025981687
45	0x3b5298ff	0.003213465
46	0xbcdd02eb	-0.02697893
47	0xbd2ee133	-0.042695235
48	0x3cee6139	0.029099094
49	0x3c7f37c9	0.015577265
50	0xba1b6142	-0.00059272733
51	0x3caff7c2	0.021480445
52	0xbb80a4a7	-0.003925878
53	0xbb4cc900	-0.0031247735
54	0xbcaa08a0	-0.020756066
55	0xbd65f90a	-0.056145705
56	0x3be24cf4	0.006906146
57	0xbc804896	-0.015659612
58	0xbca7459a	-0.02041893
59	0x3b660ef6	0.0035104132
60	0x3b41154b	0.0029462154
61	0xbc666547	-0.014062232
62	0x3ca006db	0.019534519
63	0x3bc6e13d	0.006069331

weight f4 [64, 64]
0	0x3d348b6b	0.04407827
1	0x3c30bb7e	0.010786889
2	0xbde36510	-0.111032605
3	0xbda2a8da	-0.07942362
4	0x3e4f4def	0.20244573
5	0x3d026376	0.031833135
6	0x3e478144	0.19482905
7	0xbe2f3bff	-0.1711273
8	0x3e1f2b2d	0.15543814
9	0x3d95f62f	0.073223464
10	0x3e57be64	0.21068722
11	0xbe42d89b	-0.19027941
12	0x3dc4834d	0.09595356
13	0x3dbb041f	0.091316454
14	0x3d489ab9	0.04897568
15	0x3df3b30f	0.11899387
16	0xbdfe5d78	-0.124201715
17	0xbd978541	-0.07398463
18	0xbac9869f	-0.0015375203
19	0x3e05c0a9	0.13061775
20	0xbe1f54b4	-0.15559655
21	0x3e1fd745	0.15609463
22	0xbe5343e1	-0.20631362
23	0x3d64e143	0.05587889
24	0x3d3d959b	0.046285253
25	0x3cb32130	0.021866411
26	0x3df5ef78	0.12008566
27	0x3e4696e8	0.19393504
28	0xbe1701a6	-0.14746723
29	0x3c0e5fa6	0.008689797
30	0xbb907c5d	-0.0044093565
31	0x3e1fe1ad	0.15613432
32	0x3ddfaaf2	0.10921277
33	0xbc92bcb2	-0.017912243
34	0xbd9a64d5	-0.075387634
35	0xbe109699	-0.14119948
36	0xbe21411b	-0.15747492
37	0x3dc3ce1c	0.095607966
38	0xbe0a28d4	-0.13492137
39	0x3e366af2	0.17814234
40	0xbe023cc8	-0.12718499
41	0xbe43eacc	-0.19132537
42	0xbd970690	-0.073742986
43	0x3d4dbf1e	0.05023109
44	0xbd72ea6b	-0.05930559
45	0xbe479f8f	-0.1949446
46	0xbe4d78eb	-0.20065658
47	0xbe4642db	-0.19361441
48	0x3c9ae008	0.018905655
49	0x3e261a9a	0.16221085
50	0xbe4e467a	-0.20144072
51	0x3d1bf6c6	0.03807714
52	0x3d8e8785	0.06959442
53	0x3e47179a	0.19442597
54	0xbc4aa84a	-0.012369225
55	0x3c94a84a	0.018146653
56	0x3de90bd1	0.11379207
57	0x3d0a78ce	0.033806615
58	0xbe67938c	-0.22614878
59	0xbd848eeb	-0.06472572
60	0xbc354f67	-0.011066294
61	0xbe38aeb0	-0.18035388
62	0x3da06886	0.07832436
63	0xbe1c0220	-0.15235186
64	0xbdb822bf	-0.08991002
65	0xbdeda1aa	-0.116031006
66	0xbe549f9d	-0.20764013
67	0x3e40e9dc	0.1883921
68	0xbe0ca40d	-0.13734455
69	0xbb279db8	-0.0025576185
70	0xbe59dfb7	-0.21276747
71	0x3cf38ab3	0.029729223
72	0xbe3bee98	-0.18352735
73	0xbc2b71e2	-0.0104641635
74	0x3c962a9e	0.018330868
75	0x3e35fdb2	0.17772558
76	0xbca5bf37	-0.02023278
77	0xbe53582a	-0.206391
78	0xbd663f93	-0.056212973
79	0x3df770a8	0.12082034
80	0xbdea62df	-0.114446394
81	0xbdcab021	-0.09896875
82	0xbda97bba	-0.08275552
83	0xbdbd7320	-0.09250474
84	0x3e031d53	0.12804155
85	0xbc985937	-0.018597228
86	0xbdb82d27	-0.08992987
87	0xbc74566c	-0.014913183
88	0xbe672cc7	-0.22575675
89	0x3e1c8507	0.15285121
90	0x3ba8291f	0.005131855
91	0x3d6e8dc2	0.05824066
92	0x3e40fb34	0.18845826
93	0x3dfc7e18	0.12328738
94	0x3e4b9032	0.19879225
95	0xbdf6a8b1	-0.12043894
96	0xbd246d2b	-0.040143173
97	0xbdb1535f	-0.0865848
98	0x3de77b29	0.11302788
99	0xbdfd4d64	-0.12368277
100	0xbb64aa8a	-0.0034891688
101	0xbca9a6d8	-0.02070944
102	0x3d2c2f61	0.04203737
103	0xbd7d62f2	-0.06186194
104	0xbe1c50e3	-0.15265231
105	0x3e04ee10	0.12981439
106	0xbdb5cf11	-0.088773854
107	0x3cb7eb77	0.022451146
108	0xbe76a8c8	-0.24087822
109	0xbe424ceb	-0.18974654
110	0x3e0a83f3	0.13526897
111	0x3e27cd74	0.16386968
112	0x3e53871f	0.20657013
113	0x3d3008ab	0.042977016
114	0xbd17832e	-0.036990337
115	0xbe40a1b9	-0.18811692
116	0x3e0307e1	0.12795974
117	0xbdd46f3f	-0.10372781
118	0xbd6912a2	-0.056902535
119	0xbd689a2d	-0.05678766
120	0xbe15a6a8	-0.14614356
121	0xbe43fb55	-0.19138844
122	0xbe62bfb7	-0.22143446
123	0xbd39c604	-0.045354858
124	0x3bbdcb24	0.0057920385
125	0x3ca665bd	0.020312184
126	0xbe1197c4	-0.1421805
127	0x3e03bf70	0.12865996
128	0xbe15de8e	-0.14635679
129	0xbe2b91c7	-0.16754828
130	0xbdb18c25	-0.086693086
131	0x3e3355d7	0.17513214
132	0xbe0dcd75	-0.13847907
133	0xbe306d57	-0.1722921
134	0x3db67ba7	0.089103036
135	0xbe26c54b	-0.16286199
136	0xbd1a4b9c	-0.037669763
137	0xbcc85a7b	-0.024457207
138	0xbda068f5	-0.07832519
139	0xbe16b627	-0.14717923
140	0xbdd98404	-0.10620883
141	0xbe1b8c59	-0.15190257
142	0xbe4aa67e	-0.19790074
143	0x3dabe04e	0.08392392
144	0xbd4295aa	-0.047506012
145	0x3d91d54e	0.07120763
146	0x3df2561b	0.118328296
147	0xbe099ff8	-0.1343993
148	0x3e0024cd	0.12514038
149	0x3e2e8f43	0.17046838
150	0xbc0fe6a5	-0.008783017
151	0x3cccfd22	0.025023047
152	0x3d9fe3fa	0.07807155
153	0x3d08e435	0.03342076
154	0xbe214910	-0.15750527
155	0x3b0395b8	0.0020078253
156	0x3e2454b1	0.16047932
157	0x3e079df2	0.13243845
158	0x3c8143ef	0.015779464
159	0xbe01bcb2	-0.12669638
160	0x3e2bee06	0.16790017
161	0x3e0be8be	0.13663003
162	0x3e1089df	0.14115094
163	0x3e6c00ff	0.23047255
164	0x3dbc99ba	0.092090085
165	0xbe3e8bf0	-0.1860807
166	0x3dc35c8f	0.095391385
167	0x3e598730	0.21242976
168	0xbdb8caec	-0.09023079
169	0x3d945e42	0.07244541
170	0x3c50e299	0.012749338
171	0xbd51a888	-0.051186115
172	0x3db086f4	0.0861949
173	0xbdcf1920	-0.10112214
174	0x3dc4a1e6	0.09601192
175	0x3dfc95e0	0.12333274
176	0xbd136246	-0.035982393
177	0xbe46bbfa	-0.19407645
178	0x3d88100c	0.06643686
179	0x3c953f54	0.018218674
180	0x3d941ba3	0.07231834
181	0xbe08d9f0	-0.13364387
182	0xbdc71608	-0.09720999
183	0x3d3ffa06	0.0468693
184	0x3e31faee	0.17380878
185	0x3dd04628	0.10169631
186	0xbe3d589c	-0.18490833
187	0xbce31fb1	-0.027725073
188	0x3e4dc238	0.2009362
189	0x3df2d78b	0.11857518
190	0xbb40f010	-0.0029439963
191	0xbc90203a	-0.017593492
192	0xbe046b13	-0.1293147
193	0x3de8ec44	0.11373189
194	0x3e4d3f8e	0.20043775
195	0xbe2abc8c	-0.16673487
196	0xbd8f4109	-0.06994826
197	0x3da95b6a	0.08269389
198	0x3d5f02d6	0.054446064
199	0x3e333299	0.1749977
200	0x3e045285	0.12922104
201	0xbe11d2e6	-0.14240608
202	0xbe27696c	-0.16348809
203	0x3e4f5b2a	0.2024962
204	0x3d8ee956	0.06978099
205	0xbd9f69a4	-0.07783821
206	0x3dee7a1c	0.11644384
207	0x3d6f7a8d	0.058466483
208	0xbe1673fe	-0.14692685
209	0x3d1eeade	0.038798206
210	0xbe332105	-0.17493065
211	0x3db3a674	0.08771983
212	0xbd939295	-0.07205693
213	0xbe362b06	-0.1778985
214	0x3e05368a	0.13009086
215	0x3ddf250c	0.10895738
216	0xbd1ded4a	-0.038556375
217	0x3b7e24f5	0.0038779352
218	0x3e4348b0	0.19070697
219	0x3d874777	0.06605428
220	0x3cf5924e	0.02997699
221	0xbdc0c913	-0.09413352
222	0xbe21098a	-0.15726295
223	0xbcb0b407	-0.021570219
224	0x3d958480	0.07300663
225	0x3dd10c26	0.10207395
226	0xbb07ecd3	-0.0020740523
227	0x3e559514	0.2085765
228	0xbe2892e0	-0.16462278
229	0xbd425869	-0.047447596
230	0x3e0600d2	0.1308625
231	0xbe3fd1c7	-0.18732367
232	0x39d0ca39	0.0003982352
233	0xbcb6d4f0	-0.022318333
234	0xbdb38f28	-0.08767539
235	0xbe44c639	-0.19216241
236	0xbe5c6227	-0.21521817
237	0xbe178f15	-0.14800675
238	0xbcb868c4	-0.022510894
239	0xbdd4d19d	-0.10391543
240	0x3e22c2e7	0.15894662
241	0xbd2d957a	-0.04237888
242	0xbe1f55e3	-0.15560107
243	0x3e15de1f	0.14635514
244	0x3dbe1221	0.092808016
245	0xbb771e97	-0.0037707442
246	0xbe17d087	-0.1482564
247	0x3cab55d5	0.020914951
248	0x3d660281	0.05615473
249	0x3d80e512	0.06293692
250	0xbe2a2ac9	-0.16617884
251	0x3e145955	0.14487202
252	0xbd9d4431	-0.07679022
253	0x3e59dc6c	0.2127549
254	0xbc8d456f	-0.017245023
255	0x3dc06f3d	0.09396217

weight f4 [64]
0	0x3f7ea8f0	0.9947653
1	0x3f7d08bd	0.9884146
2	0x3f80ed5d	1.0072438
3	0x3f80808a	1.0039227
4	0x3f7edcea	0.9955584
5	0x3f76cc84	0.96405816
6	0x3f79a3da	0.9751564
7	0x3f7d145a	0.9885918
8	0x3f79cbf1	0.97576815
9	0x3f804e46	1.0023887
10	0x3f7d1d90	0.98873234
11	0x3f7e31c5	0.9929469
12	0x3f827ed8	1.019496
13	0x3f80c47c	1.0059962
14	0x3f811d54	1.0087075
15	0x3f7d7d31	0.9901915
16	0x3f82a89d	1.0207707
17	0x3f82abcd	1.020868
18	0x3f83b46f	1.0289439
19	0x3f82f81e	1.0231969
20	0x3f7c6be8	0.9860215
21	0x3f81544a	1.0103848
22	0x3f77d6e1	0.96812254
23	0x3f8013aa	1.0006001
24	0x3f8465d4	1.0343575
25	0x3f74cd1a	0.9562546
26	0x3f7d6906	0.9898838
27	0x3f802a2e	1.0012872
28	0x3f79ee56	0.97629297
29	0x3f82eb14	1.022799
30	0x3f7e9655	0.9944814
31	0x3f83a421	1.0284463
32	0x3f819c40	1.0125809
33	0x3f823f54	1.0175576
34	0x3f7837bb	0.9696004
35	0x3f7b180e	0.9808358
36	0x3f820cad	1.0160118
37	0x3f7cca5f	0.98746294
38	0x3f858318	1.0430632
39	0x3f7b4706	0.9815525
40	0x3f7a080c	0.9766853
41	0x3f808caa	1.0042927
42	0x3f817a78	1.01155
43	0x3f82bb8f	1.0213488
44	0x3f844089	1.0332195
45	0x3f79a157	0.9751181
46	0x3f82ba91	1.0213186
47	0x3f82ac84	1.0208898
48	0x3f83d523	1.0299419
49	0x3f80694c	1.0032134
50	0x3f7a249d	0.9771212
51	0x3f7f1824	0.9964621
52	0x3f840e93	1.0316948
53	0x3f7df8a7	0.9920754
54	0x3f7db7d8	0.9910865
55	0x3f80940e	1.0045183
56	0x3f7e2e07	0.9928898
57	0x3f76ffa8	0.9648385
58	0x3f82dd71	1.0223829
59	0x3f7cc408	0.9873662
60	0x3f8207af	1.0158595
61	0x3f806fae	1.0034082
62	0x3f7e784a	0.99402297
63	0x3f81193b	1.0085825

bias f4 [64]
0	0x3c56b027	0.013103521
1	0x3b23a1c3	0.0024968244
2	0x3d09a47c	0.03360413
3	0x3a6b482c	0.0008975293
4	0x3cd2d413	0.02573589
5	0xbc74a708	-0.0149324015
6	0xbb7a88e5	-0.0038228568
7	0xbc760ec9	-0.0150181735
8	0xbaca2c72	-0.0015424623
9	0x3d3dce38	0.046339244
10	0x3c98e0ea	0.018661935
11	0x3c93ce4b	0.018042704
12	0x3cf78fdc	0.030219965
13	0x3c23eb90	0.010004893
14	0xbac46ef5	-0.0014986681
15	0x3d0c4165	0.034242053
16	0x3d44dab2	0.048060127
17	0x3c8a5561	0.016886415
18	0x3cc0758f	0.023493556
19	0x3cb4d692	0.022074971
20	0x3ad279f5	0.0016058075
21	0x3bd363dd	0.0064511136
22	0xbb138cd4	-0.002251436
23	0xbbb9aa6a	-0.005666067
24	0x3d4f126e	0.050554685
25	0x3abc3e44	0.0014361818
26	0x3d0796e7	0.033102896
27	0x3c101140	0.008793175
28	0xbc5e15ef	-0.013555034
29	0x3cf92f74	0.030418135
30	0x3c9e8986	0.019352686
31	0x3cb915e3	0.022593444
32	0x3ba68ccc	0.0050827023
33	0x39509315	0.00019891218
34	0x3cc25d8b	0.023726245
35	0xbcecfe88	-0.028929964
36	0x3c6274cc	0.013821792
37	0xbb273c34	-0.0025518062
38	0x3d63b125	0.05558886
39	0x3bf3e3f1	0.007442944
40	0xbb8f2af2	-0.004369133
41	0x3d31c781	0.043403152
42	0x3c358ae5	0.011080478
43	0x3ce10088	0.027466074
44	0x3c5e2c4c	0.013560366
45	0x3c27b846	0.010236805
46	0x3ce16e03	0.027518278
47	0x3ad8b56b	0.0016533559
48	0x3c08e1dd	0.008354631
49	0x3ca47015	0.020072976
50	0xbbec1588	-0.007204715
51	0xbaa8457c	-0.0012838091
52	0x3d5c9c33	0.0538599
53	0x3ba0456e	0.004891089
54	0x3b6d123d	0.00361742
55	0x3d43f6b6	0.047842704
56	0xbbac8275	-0.005264575
57	0x3b3807a2	0.0028080721
58	0x3d3ab341	0.045581106
59	0x3c5b8cdc	0.013400283
60	0x3cd6e9de	0.026234563
61	0x3ba06f88	0.004896108
62	0x3bb0a025	0.0053901845
63	0x3cb22318	0.02174525

mean_scale f4 [64]
0	0x3f7db793	0.9910824
1	0x3f80096f	1.0002879
2	0x3f770600	0.9649353
3	0x3f7f046d	0.9961613
4	0x3f7f9d3e	0.9984931
5	0x3f7d521a	0.989534
6	0x3f80f266	1.0073974
7	0x3f7ce1c0	0.9878197
8	0x3f8009cf	1.0002993
9	0x3f74049b	0.9531953
10	0x3f8046b3	1.0021576
11	0x3f7c19d7	0.9847693
12	0x3f780400	0.96881104
13	0x3f81015e	1.0078542
14	0x3f8069d0	1.0032291
15	0x3f7e3e25	0.99313575
16	0x3f86c48d	1.0528733
17	0x3f7b98ad	0.9827984
18	0x3f815f94	1.0107293
19	0x3f7d4df6	0.98947084
20	0x3f7fee0a	0.99972594
21	0x3f7eeb0c	0.99577403
22	0x3f80171a	1.000705
23	0x3f80b428	1.0054979
24	0x3f6de200	0.92922974
25	0x3f81637f	1.0108489
26	0x3f776282	0.96634686
27	0x3f817a65	1.0115477
28	0x3f810d32	1.0082152
29	0x3f842f53	1.0326942
30	0x3f7a7f03	0.97850055
31	0x3f7a7244	0.97830606
32	0x3f806604	1.0031133
33	0x3f7feb76	0.9996866
34	0x3f8300a5	1.0234572
35	0x3f78e4bd	0.97224027
36	0x3f810eef	1.0082682
37	0x3f7ff571	0.9998389
38	0x3f70a2b8	0.9399829
39	0x3f80ca2e	1.00617
40	0x3f807af3	1.0037521
41	0x3f863e8d	1.0487839
42	0x3f7d9512	0.9905559
43	0x3f8317b5	1.024161
44	0x3f78b585	0.97151977
45	0x3f81a796	1.0129268
46	0x3f83b2b6	1.0288913
47	0x3f7fcfc6	0.9992641
48	0x3f8063b1	1.0030423
49	0x3f7e08ae	0.99231994
50	0x3f7e10b3	0.9924423
51	0x3f7ffe1f	0.99997133
52	0x3f78f158	0.9724326
53	0x3f80cc86	1.0062416
54	0x3f7eeb3a	0.9957768
55	0x3f88dfbd	1.069328
56	0x3f80c149	1.0058986
57	0x3f7fed04	0.9997103
58	0x3f7b5f1d	0.98192006
59	0x3f7d3106	0.9890293
60	0x3f79ac87	0.9752888
61	0x3f7e2e4a	0.9928938
62	0x3f80afa7	1.0053605
63	0x3f7ac19c	0.97951674

bias f4 [64]
0	0x3d632fd2	0.055465527
1	0xbd3de5a6	-0.046361588
2	0x3c32128f	0.0108686825
3	0xbcc1c4a5	-0.023653338
4	0xbd3db4ff	-0.04631519
5	0x3befdabd	0.007319777
6	0x3bb70505	0.005585315
7	0xbb3a091c	-0.0028386777
8	0xbd2245ef	-0.039617475
9	0x3c875aa2	0.01652271
10	0xbbc2d864	-0.005946206
11	0xbb0d743c	-0.0021584174
12	0x3d6481b0	0.055787742
13	0x3d33a70d	0.043860484
14	0x3d148a1e	0.03626453
15	0xbc6a8eca	-0.01431627
16	0x3d81a255	0.063297905
17	0xbbec61d3	-0.00721381
18	0xbc6c5772	-0.014425145
19	0xbd1f3df9	-0.03887746
20	0xbd4a26c4	-0.049353376
21	0xbd4bb788	-0.049735576
22	0x3c249d48	0.010047264
23	0xbca29f35	-0.019851306
24	0xbd477f72	-0.048705526
25	0xbbe6a1ac	-0.0070383158
26	0x3d2b09d5	0.041757423
27	0xbb9eeec1	-0.004850239
28	0xbdb9e227	-0.09076338
29	0x3cd3fbde	0.025876936
30	0x3d5b09ef	0.05347627
31	0x3d6e8ded	0.05824082
32	0xbdb65789	-0.08903415
33	0xbd978f60	-0.074003935
34	0x3b252b08	0.002520265
35	0xbd46dc17	-0.048549738
36	0xbcffbf35	-0.031219104
37	0x3d120966	0.035653494
38	0x3d02e52e	0.031956844
39	0xbc1e28ef	-0.009653314
40	0xbd4c6de0	-0.049909472
41	0xbdb77eef	-0.089597575
42	0x3cb98b5f	0.022649465
43	0xbd4ad5fb	-0.049520474
44	0xbd797941	-0.060906652
45	0x3d08049a	0.033207513
46	0x3c75589e	0.014974741
47	0x3d7c461b	0.061590295
48	0x3bb77caf	0.0055995802
49	0xbd456b67	-0.04819813
50	0xbd194bff	-0.03742599
51	0xbd4c0d8e	-0.049817614
52	0xbc38239b	-0.011238958
53	0x3d4034da	0.046925403
54	0x3b907bcd	0.0044092895
55	0xbd57126d	-0.052507807
56	0xbd639821	-0.055565003
57	0xbd3ca61c	-0.04605685
58	0xbd5e78a6	-0.054314278
59	0x3c5e54b2	0.013569998
60	0x3d71c3b0	0.059024513
61	0xbd51e0e4	-0.051239863
62	0xbd08d356	-0.03340467
63	0xbced45f3	-0.028964018
