2WL_link_pred/checkpoint/20221214_20_20/2WL_state_dict_20_20_0.pt (torch, 56754 bytes, 16 tensors)

lin1.1.modlist.0.weight f4 [48, 3]
00000000: 6729 583e 882f 79be dd90 0abf e65d 51be
00000010: bada ad3e c5f5 48bf feb7 3b3c df12 bd3d
00000020: 5fbb 94bf ea6b 4ebf eb08 77bd 2cc3 1f3f
00000030: 202c f4bc a362 393e 376f 8c3e 6aab 8d3e
00000040: 48c4 6bbe 2753 08bf 6e9c 11bd 5e7c 923f
00000050: f6ab 73be db3b 213d bd15 233e d3e7 943b
00000060: fc75 7bbe fef6 163e a0d2 39bf 897b 6fbf
00000070: 7d07 1dbf 033e d9be 7c85 88be e3a1 4d3d
00000080: 0ab2 03bf 9f7f f2bd 0f6e d63c 81aa 53be
00000090: 5377 09bc b28a aa3d 76f8 a43d 54a4 373f
000000a0: f07f 12bc 3e5e 18be 96af 593d 9de1 40bf
000000b0: c7c8 8b3e 4f64 6a3c 2dac 6abf 5873 3e3e
000000c0: 1e3a 46bf 9c34 0ebb af66 073e 29a8 90be
000000d0: 846a cfbc f9f1 423f 4546 893d 863b 3fbf
000000e0: 493f 5fbf c1f5 433e 1532 b9bf 0594 a63d
000000f0: 8995 1cbc 1420 ae3e c6ba 49bf 1585 2b3f
00000100: 9fb9 94be aba4 103f 8f8d 9dbe f490 2d3f
00000110: 3eed efbe 631e 2f3f 9b33 383e bd73 9a3e
00000120: 24be 6c3f 2ad7 f03e adaf 2d3f 26d5 25bf
00000130: 310c c83e c845 303e e9f2 8ebd 9d11 563e
00000140: 19a8 c5be b2f5 e23e b8cc e1be 64d5 4cbe
00000150: f803 bcbe 06da 62be b52d c13e c52d 3ebe
00000160: 4d74 99be 631a 563e fc7e 42bd 4e36 9cbf
00000170: 4248 01bd a329 b6be 9b52 8bbc f45e 20bf
00000180: 2750 0a3f 6abb 57bd d665 3bbe ac07 a13e
00000190: 10cc c1bc 2321 3abf f5ad 60be 0588 773f
000001a0: a585 083d 938a 083f 59e2 613f 9dd6 613e
000001b0: c973 d4bc 2e4c 873f 6205 7c3e 8302 b4be
000001c0: af05 1c3f 1b19 be3e 0080 78be 9f00 ac3d
000001d0: 82f0 283e 31ac 153e 19c9 b1be ccd1 323f
000001e0: d5cb 063e 9a57 25bf c613 e23e b387 3e3e
000001f0: e5dd aebe b9b2 bebe 52f0 173f 8ced e13d
00000200: 8b0e e5bd 6c65 4bbe 87a9 dcbe 1261 803e
00000210: cfb4 0fc0 8275 593e 1edb 713d f233 3e3f
00000220: 47fe 82be b7b4 eabd d1be 75bd 97d0 a23f
00000230: ab90 b7bd 9d6e ecbe a8d1 903e d66a 28bf
0.21109544 -0.24334538 -0.54127294 -0.20445976 0.33955938 -0.78500015 0.011457441 0.09232115
-1.1619681 -0.80633414 -0.06031124 0.62407184 -0.029806197 0.18104033 0.274286 0.2766984
-0.23024094 -0.5325188 -0.035549574 1.1444204 -0.23796067 0.039363723 0.15926261 0.004544237
-0.24556726 0.14742658 -0.72587013 -0.93547875 -0.6133955 -0.42430124 -0.2666434 0.050203215
-0.5144354 -0.11840748 0.026175527 -0.20670511 -0.0083902655 0.08327235 0.08055203 0.7173512
-0.0089416355 -0.148797 0.053145967 -0.7534426 0.27301618 0.014306142 -0.9166897 0.18598688
-0.7743243 -0.0021698838 0.13222764 -0.28253296 -0.025319345 0.7615047 0.06702856 -0.747002
-0.8720594 0.19136716 -1.4468409 0.08133701 -0.009557136 0.3400885 -0.7880062 0.6699994
-0.29047868 0.56501263 -0.30772063 0.67799306 -0.4686069 0.6840574 0.17988436 0.30166426
0.9247763 0.47039157 0.67846185 -0.64778364 0.390718 0.1721412 -0.06979925 0.20905156
-0.3860481 0.44328076 -0.441015 -0.20003277 -0.36721778 -0.22153482 0.37730184 -0.18572147
-0.29971543 0.20908503 -0.047484383 -1.2204072 -0.03156305 -0.3557864 -0.017007163 -0.62644887
0.5402855 -0.052668966 -0.18300566 0.31451166 -0.023656875 -0.7270681 -0.2194136 0.96691924
0.03333058 0.5333645 0.88236004 0.22054525 -0.025934117 1.0570123 0.24611428 -0.35158166
0.6094617 0.3712853 -0.24267578 0.08398556 0.16497996 0.14616467 -0.34723738 0.69851375
0.13163693 -0.64586794 0.4415571 0.18606453 -0.34153667 -0.3724573 0.59351075 0.110316366
-0.111844145 -0.19862908 -0.4309809 0.2507406 -2.2454107 0.21236232 0.059046857 0.7429801
-0.25584623 -0.1146025 -0.05999643 1.2719907 -0.0896314 -0.4617814 0.28284955 -0.6578802

lin1.1.modlist.0.bias f4 [48]
00000000: 1677 cebe 85d0 5c3e 72be f43d 3981 093f
00000010: 6956 f1be 0141 953e af4e 123d 2db7 f0bf
00000020: 2752 24bf da9a 8bbd 2954 5c3d 61bf a93e
00000030: 2c4a bebf 91a1 4abe e4b0 613e 1233 3abe
00000040: 2add 133e 63d6 5dbd 7226 c1bc 41df 553d
00000050: 662e acbd e82c 0cbe 61f9 9c3e 0737 4dbd
00000060: 2c20 07be c2b8 36be 9e58 3940 3d86 97be
00000070: e249 b63f 0d8e bfbe 6301 3abc 7396 9a3e
00000080: f177 943e 976c a8be 8245 32bd a09f 0abe
00000090: a9df 3bbd bb09 73be 7252 24bd 28ce 11bf
000000a0: 3a9f 52be 5f15 043e da58 d3bc 4e63 07be
000000b0: eba9 a6bd 22ba 00bd 0a7b fabd 4a80 8cbb
-0.4032523 0.21563919 0.11950387 0.53712803 -0.47136238 0.29151157 0.03571957 -1.8805901
-0.64187855 -0.06816645 0.0537912 0.33153823 -1.4866385 -0.19788195 0.22040135 -0.18183544
0.14439836 -0.054159533 -0.023577902 0.052214865 -0.08407287 -0.13689005 0.3065901 -0.050101306
-0.13195866 -0.17843917 2.8960338 -0.29594603 1.4241297 -0.37413064 -0.01135287 0.3019291
0.28997758 -0.32895347 -0.04352332 -0.13537455 -0.045867596 -0.2373418 -0.04011769 -0.56955194
-0.20568553 0.12898777 -0.025799204 -0.13221475 -0.08137878 -0.03142751 -0.12230499 -0.004287754

embedding.0.weight f4 [5, 48]
00000000: e7db 483e 78fa 143f 3e7a c2bf e9b5 d03e
00000010: a4bc 893f 585c bf3f 0d9c a93f 4092 4d3f
00000020: 12b0 dcbe ec12 96bf 2a76 92be 8fc6 623f
00000030: 1bb7 463f c2f0 193e 073a 503f 5539 1ebc
00000040: b0f6 163e 09fc 083f cf1f 0c3f a096 2d3f
00000050: e50e 193f c934 b33f fcf5 c33f 0635 513f
00000060: cf52 953e 1e3a 223f 962b eb3f a5ba adbf
00000070: 0b9f 433f 5f3b 00bf 704e 9d3e 4578 21c0
00000080: ff85 9f3e 8159 84bf 1d20 643f 54cf 003f
00000090: 6667 a6bf e305 cd3e 6348 b0bd 351f a8be
000000a0: 48a6 92bf 9262 9c3e c416 883f 8e6d 5f3f
000000b0: 33f8 39bf 5b1a d83e abca cd3e 07f2 ca3f
000000c0: d29e 39bf 06c6 a83e 7d1c 6a3f ce89 06bf
000000d0: d641 19be f0a6 60be 1d16 eabe ba0a e73e
000000e0: ebd8 2abe c223 eebf 4d08 efbe ef29 e63f
000000f0: 1986 9fbc 9c22 3dbe a603 1c40 e47a 9f3f
00000100: cc43 2a3f 91a0 5cbf 835b 2940 655b 0d40
00000110: 179b d5be dbf0 40bf 093d 893e cc44 043e
00000120: 9055 4cbe 534f 1ec0 c1cc b93e d610 94bf
00000130: 0a92 293e d366 383f c432 51bf 21b2 27bf
00000140: de54 bebf d392 4bbf 782a 04be e73f 773f
00000150: 7208 08be a9d3 06c0 1b4d 34bf 3a67 97bf
00000160: 95f0 a43f 3ff6 de3f 0e6f 7dbf f89a 3f40
00000170: 550e 51be 915a ccbd c71a 23c0 2c02 9b3f
00000180: ad5c c7be 78c8 ba3e b302 a33e 917e d8be
00000190: f215 ddbf cdd7 243f 0874 1c3e cfb0 f6bc
000001a0: f960 fb3f 1d51 6a3e 5185 0bbf 9c51 983e
000001b0: 6322 f4be 041c 7fbe 88ed 0c3f bb3b f53e
000001c0: 9879 41bf 5b14 d6be 18f2 edbb 03ba 0fbf
000001d0: a421 47bf 4264 27c0 2ba4 713e 810b 05bf
000001e0: d900 61bf 6390 52bf 867d a2bf 979c 863f
000001f0: 4ec7 49bf 3c82 dd3e 9abd a33e a90e adbf
00000200: 2149 d43f 25da d63d 6a0e c13e 9613 753f
00000210: 1c2d 373f 23f7 a13f a284 c43f 6c3a f5bc
00000220: 0edc 1abf 2420 943f 18d1 e3be bb9d 923f
00000230: e4e3 0cbd e049 01be 2aef 2c3f e4ea 983f
00000240: 3f42 3ebf 3a04 943e 734e 6fbf b7e2 1abf
00000250: aac2 fcbf 5248 043e 2eb1 ec3e bcc5 23c0
00000260: 9706 01bf bf84 0dbd bf00 c03f 661b 0fbf
00000270: a59e d8be 4266 c13e d7cc 1c3f f20e 6cbd
00000280: 9a43 0a40 05d1 7ebf 0ded c43f f47c 163d
00000290: 743a 8e3f 6dc5 0f40 84a9 923f 63e6 bbbd
000002a0: 0c5c 1640 3c25 bdbf b20e 11be 5af5 d1bd
000002b0: f87b 16bf 58a9 6cbf 69f5 213e 5f77 1440
000002c0: 68b4 40bf bea6 3abe 2962 cd3f aa5d a73f
000002d0: 835e 49bf 9529 973f 78ae fc3c 7931 90bd
000002e0: f342 af3e e234 0f40 cfe1 d13e 54bb b8bf
000002f0: e486 3d3d bfe8 ca3d 9121 bd3d b7b3 66bf
00000300: 1d97 a33c 1886 443f 13f7 4abf caef 3abe
00000310: 3b6e 86bf 83b5 9dbd ba2c 163f 796b afbf
00000320: 0e47 743f 9406 903f 1e35 8a3e be6b 303e
00000330: 6462 4f3d ee4b b7be c217 013f 303c 08be
00000340: 683f 66bd 59f8 bbbf 1da8 97bf 452a 97bf
00000350: 0284 853f 0070 6fbf b4fe 25bf 5ac7 3a3f
00000360: 46bc 54be 7d24 553d b69c 8bbe e021 73bf
00000370: b159 e33e 240b 8cbf d89a b8bf 7c9f d8be
00000380: cc00 653f d155 863c c351 61bf 1685 3fbe
00000390: ed35 87bf a2af 64bf 34a4 8a3f 5905 ed3f
000003a0: 43bb 8dbf d404 b13f cd5b c4be e8ea abbe
000003b0: a3ab ad3e 9ca8 d53e 4ef7 b53f b7ca 06bf
0.19615136 0.58194685 -1.5193555 0.40763786 1.0760694 1.4950056 1.3250748 0.80301285
-0.4310308 -1.1724524 -0.28605777 0.88584226 0.77623147 0.15033248 0.8133854 -0.009657224
0.14742541 0.53509575 0.54736036 0.6780796 0.5978835 1.4000484 1.5309443 0.8172153
0.2916474 0.6336993 1.8372676 -1.3572584 0.76414555 -0.50090593 0.30723906 -2.5229657
0.31156918 -1.0339814 0.891115 0.5031636 -1.3000305 0.40043554 -0.08607557 -0.3283631
-1.1456995 0.30543953 1.0631948 0.8727654 -0.72644347 0.42207608 0.40193686 1.5855111
-0.72507966 0.3296358 0.9144972 -0.52554023 -0.1496652 -0.21938682 -0.45719996 0.4512537
-0.1668431 -1.8604662 -0.4668602 1.7981547 -0.019473122 -0.18470234 2.4377227 1.2459378
0.665097 -0.86182505 2.6462104 2.2087033 -0.41719887 -0.75367516 0.2680438 0.12916869
-0.19954515 -2.4735916 0.36289027 -1.1567638 0.16559616 0.720319 -0.8171809 -0.6550618
-1.486965 -0.7952091 -0.12906826 0.9658188 -0.13284472 -2.1066687 -0.70430154 -1.1828377
1.288592 1.7418898 -0.9899758 2.9938335 -0.20415623 -0.09978212 -2.5485094 1.2110038
-0.38937894 0.3648107 0.31837997 -0.42284063 -1.7272322 0.64391786 0.15278637 -0.030113606
1.9638969 0.22882505 -0.545003 0.29749763 -0.47682485 -0.24913031 0.55049944 0.47897133
-0.7557616 -0.41812405 -0.007261526 -0.56143206 -0.77785707 -2.6154943 0.23597781 -0.5197068
-0.8789192 -0.82251567 -1.2694557 1.0516537 -0.7881974 0.43263423 0.31980592 -1.3520099
1.6584817 0.104908265 0.3770631 0.9573301 0.71553206 1.2653545 1.5352976 -0.029935084
-0.60492027 1.1572309 -0.44495463 1.1454386 -0.03439702 -0.12625837 0.67552435 1.1946683
-0.74319834 0.28909475 -0.9347908 -0.6050219 -1.9746907 0.12918213 0.46228927 -2.5589437
-0.5040068 -0.034550425 1.5000228 -0.5590118 -0.42308536 0.3777333 0.6125006 -0.05763144
2.160376 -0.9953769 1.5384842 0.03674026 1.1111588 2.246425 1.1457982 -0.09174802
2.349368 -1.4776988 -0.14165762 -0.10251875 -0.5878291 -0.924459 0.15816273 2.3197858
-0.7527528 -0.1822767 1.6045581 1.3075459 -0.7865984 1.1809565 0.030844912 -0.07040686
0.34230766 2.2376027 0.4099259 -1.4432168 0.04627122 0.09907674 0.09234918 -0.90117973
0.019969517 0.7676711 -0.79283255 -0.18255535 -1.050239 -0.07700636 0.58662 -1.3704673
0.9542092 1.1252007 0.2699365 0.172286 0.050630942 -0.35800117 0.50426877 -0.1330421
-0.056212813 -1.4685165 -1.1848179 -1.1809775 1.043091 -0.93530273 -0.6484177 0.72960436
-0.20774946 0.05203675 -0.27267998 -0.94973564 0.44404367 -1.09409 -1.4422255 -0.42309177
0.8945434 0.016398342 -0.88015383 -0.18703112 -1.0563332 -0.89330494 1.0831361 1.8517257
-1.1072773 1.3829598 -0.38351288 -0.33577657 0.3392001 0.417302 1.4216096 -0.5265307

nconvs.0.modlist.0.lin_l.weight f4 [48, 48]
00000000: 2799 6f3f f300 6b3e 344b 1540 10b6 22bf
00000010: 4ce7 f2bd 0a0a d33e 6a94 25bf fefa 3dbf
00000020: 5cc1 ff3e fdde 85be acc8 c9bd 3061 f2be
00000030: 59be 093f 71c9 1a3f fd49 80be 36d8 083f
00000040: fd05 7dbf 5da3 c4bf d637 d63e f87e 9c3e
00000050: 5fe6 9a3f a063 623e 9fdf c5be 8c16 8f3e
00000060: 9f74 473f c83e 2fbf 880d 433f 872a 5f3f
00000070: 8636 a3be d525 4fbe 3714 a63f 4f0f 833e
00000080: 2f65 303f ff18 833f 1d52 aebf 0fe2 733d
00000090: 9316 bdbf 558b bcbf 7bd2 9abf 2a55 94be
000000a0: 8e1b 633f 2f64 893f 8e27 ca3e c67a 40be
000000b0: 47b5 9dbe 71f0 f03e 412a fbbf 3448 b9bd
000000c0: 9f6e 6c3e 0704 633e 1c2b 423e 6ec8 acbe
000000d0: e922 eeba 1e18 0dbe 9222 47bd 918e f53e
000000e0: d3e9 e43e f10b b83e ed4b 493e 5d70 e33c
000000f0: 64bd 9c3e 6d11 f83a 6264 97be f81a 0cbf
00000100: e89f 8dbe d595 d1bd d802 11bc 7bbb 9cbe
00000110: 1959 98be c011 d6bd a605 69be c908 96be
00000120: 1c43 c5bd 66aa 003f 39b5 34bf 4e6e 23be
00000130: 5a1f 01bf a557 c1be c0b1 bebe 50da 3cbe
00000140: ad83 cb3d 74cb e33c 6b8f 3cbe fdcd 23be
00000150: 5050 f23d 95a6 493c 3e88 35be 364d c4bc
00000160: 5f35 7ebd e800 9d3d 90f1 153d 8c5e 4abe
00000170: 86b7 b6be 7ea2 97be daf5 16be b7f8 13be
00000180: 3fd9 e43e 3bc7 54be 583f c93d 21f5 2abe
00000190: 860f 9d3e 5bde 653c 9abf 53bd 4310 803d
000001a0: 63f6 993e c410 e03e 1837 40bf 7a6b 32bd
000001b0: 4fac 6d3c f061 12be 8e9e 61be 921b a7bb
000001c0: 7aef 65bd d3c8 b73d a608 87bd 34b5 a8bb
000001d0: b014 adbe 2fed f9be 808f 08bb aa93 bfbe
000001e0: 038a 573e 0f7e 013e ec10 2dbf 9b92 213d
000001f0: a239 173d 7fac 833e 42ef 323e b686 993e
00000200: e9a7 053d 6c70 d1be 528b 9cbd 2b65 2fbe
00000210: a6c9 e33d 96e2 973d 312f 063f 9c18 81be
00000220: 0ea5 193c 7296 8f3d 79a9 27be d037 413e
00000230: f688 293f a897 35be 4354 88be 6918 2f3e
00000240: 6f29 16be ca1c bf3e 59ce 7d3f 821d 163f
00000250: e5f1 63bf d1e7 4e3f 4a3f 5e3e f889 1340
00000260: e1cf 5ebf a942 783f 926f 4bbf 49e1 153f
00000270: 3646 0fbf b9dc 05bf 58a3 f23e 6d0e eebe
00000280: 27b9 36be 9af3 19bd 941f 7f3d 45dd 9abc
00000290: fb34 a73e f40d 4dbe e1ad db3e 0d03 a2be
000002a0: be07 1abf 5ace 3c3c 8d02 01c0 5861 a0bc
000002b0: 1a37 a0be 7ac7 0abf 9d75 313c e1ef 123f
000002c0: 45f8 033e 38bc 12be 17c0 d43e d848 9b3c
000002d0: e07b a4bf 4753 93be 550b 92be 07e1 95bf
000002e0: 9d82 a5bd 9330 99be f3fe ae3d ca6d 94be
000002f0: f59a 52bd eba5 c4bd d5c5 8fbf 3766 7d3e
00000300: f81e 363e 102c db3d 00c7 803e 491a c0bb
00000310: 7d39 5c3c c451 acbc ae12 08be 9853 abba
00000320: 5bf5 833d 67b5 5bbe 9bb7 1c3e 89c4 903d
00000330: bc18 82be da35 a33c 9cb1 6cbe e6c8 ab3d
00000340: 531c fbbd bb5b d7bd 10c1 363d 4a37 1dbe
00000350: 639f 983e e262 ed3d 82c4 2a3c b50e 093d
00000360: 1562 973e c9cf 64be 9ad9 6f3e f170 ba3b
00000370: bbac f23d 339d 45be ffe6 ef3d 56d8 dc3d
00000380: 95a4 3f3e 314d 843e 47d5 1fbe 41df bcbb
00000390: 77c3 563e 73e4 5bbe 575f 593d 13e4 65bd
000003a0: 819e ae3c 1a2f 69bd a32f 973e 70cf 70be
000003b0: 7e56 d8bd 27ff 803d 3a20 363e 0d3c b5bb
000003c0: ce8e bd3e 7d3f 023e 5993 c13c 79fb 4bbd
000003d0: 6d1a 5b3e 15b7 58be 390f 05be 9755 113e
000003e0: c3c0 633e fb17 493d 8362 463e 219a abbd
000003f0: 8485 093e 756a 07be f556 3a3e 65d2 b63e
0.93593067 0.22949581 2.332715 -0.63559055 -0.11860523 0.41218597 -0.64679587 -0.7421111
0.4995221 -0.2614669 -0.09852728 -0.47339773 0.5380607 0.60463625 -0.2505645 0.5345491
-0.9883726 -1.5362355 0.41839474 0.3056562 1.2101554 0.22108316 -0.38647172 0.2794689
0.77912325 -0.6845517 0.7619252 0.87174267 -0.31877536 -0.20229276 1.2974919 0.25597617
0.68904394 1.0242003 -1.3618809 0.05954176 -1.4772514 -1.4730021 -1.2095484 -0.28971225
0.8871392 1.0733699 0.39483303 -0.18796834 -0.30802366 0.47058442 -1.962227 -0.09046975
0.23089074 0.22169505 0.18961757 -0.33746666 -0.0018168363 -0.13778731 -0.048616953 0.47960332
0.44709644 0.3594661 0.1965787 0.02776354 0.30613244 0.0018926092 -0.29568774 -0.5472865
-0.2766106 -0.10233656 -0.008850776 -0.30611786 -0.29755476 -0.10452604 -0.22756061 -0.29303578
-0.09631941 0.5026001 -0.70589024 -0.15960047 -0.50438464 -0.3776218 -0.37244987 -0.18442655
0.099372245 0.027806975 -0.18414085 -0.15996547 0.11831725 0.012307783 -0.17727754 -0.023962598
-0.062062617 0.076661885 0.036607325 -0.1976263 -0.35686892 -0.2961616 -0.14742222 -0.14450346
0.44696996 -0.20779125 0.09826535 -0.16695072 0.30675906 0.014030064 -0.051696397 0.06253102
0.3007079 0.4376279 -0.75084066 -0.04355953 0.014506414 -0.14295173 -0.2203314 -0.005099722
-0.056136586 0.08973851 -0.065934464 -0.005148554 -0.33804846 -0.4881377 -0.0020837486 -0.37417346
0.21048741 0.12645744 -0.67603946 0.039446454 0.036920197 0.25717542 0.17474082 0.2998559
0.032630835 -0.40906084 -0.07643761 -0.17128436 0.11122446 0.07416265 0.5241576 -0.25214088
0.009377731 0.07011117 -0.16373242 0.18868947 0.6622461 -0.17733634 -0.26626787 0.17099155
-0.14664243 0.37326652 0.99142987 0.58638775 -0.89040977 0.80822474 0.2170383 2.305296
-0.8703595 0.96976715 -0.7946712 0.5854688 -0.5596651 -0.5228992 0.47390246 -0.4649538
-0.17844068 -0.037585832 0.062285975 -0.018904338 0.32657608 -0.20024854 0.42906097 -0.31642953
-0.60168064 0.011523807 -2.0157807 -0.019577667 -0.3129204 -0.5421063 0.010831264 0.57397276
0.12887676 -0.14329612 0.41552803 0.018955633 -1.2850304 -0.28774473 -0.2852427 -1.1709298
-0.08081553 -0.29919872 0.085447215 -0.28990012 -0.05141731 -0.09601959 -1.1232249 0.24746023
0.17785251 0.10701764 0.25151825 -0.0058625084 0.013441441 -0.021035083 -0.13288376 -0.0013071178
0.06443282 -0.21455918 0.15304415 0.07068736 -0.25409496 0.01992314 -0.23114628 0.08387928
-0.12261262 -0.10515543 0.044617712 -0.15353122 0.29809102 0.11591126 0.010422828 0.03346129
0.29567018 -0.22344889 0.23422852 0.005689733 0.11849352 -0.19298248 0.11713981 0.1078345
0.18715127 0.25840142 -0.15608703 -0.0057639186 0.20973001 -0.21473865 0.05306944 -0.05612571
0.021315815 -0.056929685 0.2952853 -0.23516631 -0.10563372 0.062986664 0.17785731 -0.0055308403
0.37023014 0.12719531 0.023629831 -0.04980037 0.213968 -0.2116359 -0.12994088 0.14192806
0.22241502 0.049095135 0.19373517 -0.08379007 0.13429838 -0.13224204 0.18197234 0.35707393

nconvs.0.modlist.0.lin_l.bias f4 [48]
00000000: 9968 3cbf 264f 693d d00c 98bd 9c0d da3e
00000010: 0f40 0cbd 3471 58be 2db2 16bf ce53 e2bd
00000020: 2372 8cbe 7b23 cebd bca8 ccbd b9e1 ab3d
00000030: c47f 00bf 5e74 1cbe 9c98 32bf bbe0 cbbe
00000040: 3762 31be 2c7d c0bd 7aec 6a3e ce4f 96bc
00000050: cf72 683f 079b 09bf c2ac c9be 5b1d 9cbd
00000060: 1fb5 5bbd 12a8 adbe ecb7 093f 685c 53be
00000070: af93 e73d 0b60 b7bd 5f85 70be ed14 c4be
00000080: d509 0abf dc4a 533d 1af8 38be 22da e93e
00000090: 0e54 4abe 43c9 e2bd 6046 31be f0fe 693e
000000a0: 16a6 713f 2f1e 66bd 63b2 2dbd d53a b33e
000000b0: fed5 4cbe b528 283e 7533 f5be 47c2 03bf
-0.73597103 0.056960247 -0.07424319 0.42588508 -0.03424078 -0.21136934 -0.58865625 -0.11051141
-0.2743083 -0.10065361 -0.09993121 0.083926626 -0.50194955 -0.15278766 -0.69764113 -0.39819893
-0.17322622 -0.09398875 0.22941771 -0.0183486 0.90800184 -0.5375218 -0.39389616 -0.076227866
-0.053639527 -0.3391729 0.5379627 -0.20640719 0.11307465 -0.089538656 -0.23488377 -0.38297215
-0.5392125 0.051585063 -0.18063393 0.45674235 -0.19758627 -0.11073544 -0.17312002 0.22851157
0.9439405 -0.05618113 -0.04240645 0.35005823 -0.20003507 0.16421779 -0.4789082 -0.5146832

nconvs.0.modlist.0.lin_r.weight f4 [48, 48]
00000000: 9187 a83b c37e 07be a08b 873e 9994 edbb
00000010: b9b1 0d3e 38be a3be a5fa 09bf a8a9 c0ba
00000020: 548b 4c3e 4162 253e dc71 e0ba 2e6c 94be
00000030: 0c86 ac3e 85f9 4bbe fa68 233d 4f0e 1abe
00000040: d729 903e bd60 1cbe 5361 1f3d 19cf 1ebe
00000050: 1f63 cabe 1591 cbbe 07eb e5be 9821 a4be
00000060: a052 d0be fbdd e93d 27f8 0fbe 87d5 3bbd
00000070: 56bd 73be f6ba 253f 59a0 88bd 7a87 8ebd
00000080: fbbd 933e 74e8 a4bd ee85 8ebe b3c3 71bd
00000090: 21e9 ad3d a564 dabb d3b9 babe 6d6d 9b3d
000000a0: 7994 4ebe f9ef 8d3d 9902 00be 4c6c ee3d
000000b0: 8d5b 7e3e 4591 2e3d 274a 3c3e 42c3 673e
000000c0: 352b 8c3d c3ee 6d3d 6494 853e 44d3 8b3e
000000d0: 2c28 0bbe fd2e 7d3e 980f 7ebe 0212 60be
000000e0: 9306 b03e 7960 bcbd fb26 0bbe ef8c cc3d
000000f0: 86f4 cf3d 6c7e 89be b752 623e 1b66 843d
00000100: 4427 a63e da6f 2ebe 97ab 233e c000 513e
00000110: 0b54 eb3a ea20 9fbe fa37 a9be 691c 7dbe
00000120: b963 9fbd 925e 7ebd 3db5 9fbe c108 cf3d
00000130: c342 66bc 1348 20bd 47c1 7c3e f29a 553c
00000140: 5193 ac3e 6e2f eebe ae98 093d c4e0 a7bd
00000150: 1d84 95be c23d d6bd 3ad0 1abd 6a45 843d
00000160: bec4 28be 2ba7 b43d 367c b73b 56ae 123e
00000170: aa2f 333e 06b5 2fbe 4721 33bd f24f b83d
00000180: 894a eb3c 4450 05bf c7eb 84be e5eb 13be
00000190: 1b9c 923e 9f9d 8b3d fa1d 60be 668f 143e
000001a0: d22d 8b3e fb3f a3bd bef9 ba3d 5fa5 64bd
000001b0: 76be 663e e5be 63be 9b81 aabd 4b1e d63e
000001c0: 2626 5e3e 9096 b13d acd8 cebe e71c 913e
000001d0: 3f90 9cbe 1848 7bbe fcd2 a4be 5138 77be
000001e0: 3cc8 52be e1e6 d33d 5b7d 13bd 1503 bdbd
000001f0: d487 a8bc 019f 8b3e 5442 893e c5b7 853e
00000200: b7e6 c1be 41bf 59bd c1dd b2bd 155d bdbe
00000210: c74e 73be 79bd 9dbc c98c c93e 8b4f 7b3e
00000220: ab28 383e 93a8 4ebd 1bd9 4bbe 9de9 923e
00000230: 16c5 bd3e 0858 50bc 28c0 a73c b346 ac3e
00000240: 582c e1bd ecd0 093e 13a3 933e e977 b53e
00000250: 4a61 893d 6709 b4be 04a2 a33d 672f 87bd
00000260: 69d0 88be ff63 de3d 9337 0bbe 5436 92be
00000270: 1048 e33b 2083 96be 7437 d7bd df91 a43d
00000280: 3bcd e33d 1577 8fbe 39e8 bcbe 4971 65bd
00000290: 5065 993d d92a 2cbe 85c9 a13e ecab 423e
000002a0: 4212 8dbd 0581 ca3c 1450 b9bd ab07 82bd
000002b0: 9037 d63d 2237 38bd 8da3 d63e a893 b83e
000002c0: 0f68 88be 22cd fabd 6fb6 cdbe a38b d4be
000002d0: bdf0 46be d22f 94bd bac0 9c3e 1068 19be
000002e0: 5627 033e 83b6 663d ada3 94be 9e04 1c3d
000002f0: f0b1 3fbe f9f5 193e 1016 bbbd 9705 fdbe
00000300: 5185 8abd 9088 8c3d 6a7c 183e d632 713e
00000310: f919 cebc 59e9 08bc bcbe a53e 1324 823c
00000320: bd1c ccbd b2e5 8e3e 06ff 8e3e dd30 abbd
00000330: 8dee 2c3e 77cc 14be eda1 ad3c af79 69be
00000340: 3f9a 943e 74a2 b33d d362 db3d ff3d 09be
00000350: 3fbf 263e e0f4 fdbb 88a2 1b3e bc0a 1bbe
00000360: c76e be3c d71a f43d 00c0 ac3d a223 72bd
00000370: 0a02 993c f446 f4bb 5c4d 0abe a63a 093e
00000380: d2b0 e13d c737 a9be 8fa5 fa3d 81ea 17be
00000390: b5ba f23d 48eb 63bd d762 e8bd 01ba 3cbe
000003a0: 0f57 3fbe f687 b0bc e207 6fbd 9b1f b93c
000003b0: 3d6d c53e 6cb5 eabd ed56 093e d086 4e3e
000003c0: 51e5 193e 481e e0be 426c bdbe 5aec aa3e
000003d0: b5d9 ac3e 9ba6 5abe 7755 efbe 9fe7 4d3e
000003e0: c682 623e 5a9c 09be e84d b7be dd26 8dbe
000003f0: 3556 093f f088 efbd 628d 303e 49c1 9c3e
0.005143114 -0.1323195 0.26473713 -0.0072503802 0.13837327 -0.31981063 -0.5389808 -0.0014698999
0.19975024 0.16150762 -0.0017123776 -0.28988785 0.3369602 -0.19919403 0.039895035 -0.15044521
0.2815692 -0.15271278 0.038911175 -0.15508689 -0.39528748 -0.39759126 -0.44905874 -0.3205688
-0.40688038 0.114192925 -0.14059506 -0.045857932 -0.23802695 0.64738405 -0.06671209 -0.06959434
0.2885588 -0.080521494 -0.27836555 -0.059024524 0.084917314 -0.00666483 -0.36469898 0.07589231
-0.20173825 0.06930537 -0.12500991 0.1164175 0.24839611 0.04261901 0.18387662 0.22633079
0.068441786 0.05808903 0.26089776 0.2730962 -0.13589543 0.24724956 -0.24810636 -0.2188187
0.34380016 -0.09198088 -0.13589089 0.099878184 0.10154061 -0.26854265 0.22101866 0.064647876
0.32451832 -0.17034855 0.15983425 0.20410442 0.0017954124 -0.310798 -0.3305052 -0.24717869
-0.077826925 -0.062101908 -0.3119296 0.101090916 -0.014054003 -0.039131235 0.24683104 0.01303743
0.33706143 -0.4652056 0.033592872 -0.081971675 -0.29202357 -0.10460998 -0.037796237 0.06458552
-0.16481301 0.08820947 0.005599524 0.14324316 0.17498651 -0.17158899 -0.043732908 0.08999623
0.028722065 -0.520756 -0.25961134 -0.14445455 0.28634724 0.06817173 -0.21886435 0.14507827
0.27183396 -0.07971188 0.09129666 -0.055821773 0.22533593 -0.22240789 -0.083255015 0.41819987
0.2169424 0.08671296 -0.40399683 0.28342363 -0.305788 -0.2453922 -0.32192218 -0.24142577
-0.20584196 0.10346771 -0.03600822 -0.092291035 -0.02057258 0.27269748 0.26808417 0.26116768
-0.37871334 -0.05316091 -0.087337025 -0.36985078 -0.2376052 -0.019255387 0.39365223 0.24542062
0.17984264 -0.050453734 -0.19907038 0.28693858 0.37064427 -0.012716301 0.02047737 0.3364769
-0.10994786 0.13458604 0.28835353 0.35443047 0.067080095 -0.35163423 0.079898864 -0.06600838
-0.26721504 0.108589165 -0.13595419 -0.28557074 0.0069360808 -0.29396915 -0.10508624 0.08035635
0.11123129 -0.2802054 -0.36895922 -0.05601624 0.07490027 -0.1681322 0.3159906 0.19010895
-0.06888248 0.024719724 -0.09048477 -0.06349119 0.104598165 -0.044974454 0.41921654 0.36050153
-0.2664189 -0.12246157 -0.40178248 -0.41512784 -0.19427772 -0.072356835 0.3061579 -0.14981103
0.12807974 0.0563264 -0.29031125 0.03809034 -0.18720222 0.15035237 -0.091350675 -0.49418327
-0.06763709 0.06861985 0.1489121 0.23554549 -0.02515887 -0.008356416 0.3237208 0.015886342
-0.09966419 0.2790962 0.27928942 -0.08358929 0.16887875 -0.14531122 0.021195376 -0.22800325
0.2902393 0.0877122 0.107122086 -0.13402556 0.16283892 -0.0077501386 0.1519872 -0.15140814
0.023246182 0.11919182 0.084350586 -0.059116013 0.01867773 -0.0074547473 -0.13506073 0.13401279
0.11020054 -0.33050367 0.12238609 -0.1483555 0.11852018 -0.055644304 -0.11346977 -0.1843033
-0.18685554 -0.021549206 -0.058357127 0.022598078 0.38559905 -0.11460385 0.13412066 0.20168614
0.15028884 -0.43773103 -0.36996657 0.33383447 0.33759847 -0.21352617 -0.46744892 0.20107888
0.22120199 -0.1343855 -0.35801625 -0.27568713 0.53647166 -0.11696041 0.17241433 0.30616215

nconvs.1.modlist.0.lin_l.weight f4 [48, 48]
00000000: 8ee3 96be ff6a 0abe 2f83 b4bd e1cd 0ebe
00000010: 20e9 42be 6c1d 7cbd 8ff0 34be de8a 01be
00000020: 2483 c3bd 1eb7 813d dbd4 bfbd f47b 783d
00000030: 3f2d a7bd 7295 31be 659d 5b3d cd87 65be
00000040: f794 0ebe 991c f1bd d4ee 8ebd 3167 e8bd
00000050: bfb7 abbe e3c6 d7bd e69a 4bbe f116 eebd
00000060: 8522 11be 3ed4 8cbe cdb1 98be 9911 38be
00000070: 508a f5bc 2d7a 29be 139e cebd 551f 4ebe
00000080: 26ea 76be 560b 85bd 1a97 16be d2d2 4abe
00000090: 51e4 afbd 9129 e5bd 15a0 bebd 9021 88be
000000a0: 1660 4cbd bd0a bfbd 448c d6bd c499 363c
000000b0: 1111 90be b314 2fbd 935d 5dbe 79f2 9fbe
000000c0: 7aad b23d 9eec e33d 2520 323d 7c2c 7abd
000000d0: ffff 623e 5c43 9fbc 86d7 f5bc 0c96 92bc
000000e0: eded de3e bbc9 f13d e8f5 e93c 39b4 933d
000000f0: b58e e0bb 8728 993d 26ab 783e eb3b dc3c
00000100: 57fa 783d f489 12bd 044b d43d 12b7 643e
00000110: 12a7 763e d88c 013e f256 c33d bd76 3d3d
00000120: fbe6 4c3e 2259 7f3d 0825 8c3e 2f40 3a3e
00000130: a41e 5fbb 4525 363e 28de 02bd 79cf 483e
00000140: 7ab3 fa3d 9995 04bd 5177 5b3e 850b 363e
00000150: 673e 293d 272c b53d eb2d 703e a61d 7c3e
00000160: bae1 e23d 1c1c 32bc f96a 343e e20b 2c3e
00000170: c33c 8d3d 6fcc 18bc 207d 6c3e e09a 2d3e
00000180: b079 a63d 54ea ac3d 5da8 9fbc 6732 053e
00000190: ec04 d03d 0a12 313e 3f10 d7bd 373e 333e
000001a0: 0b2c 833e 9861 993d f5d4 31bd 17d3 093d
000001b0: 0eb8 7e3e 421b 623e 397a 223e f06b 113d
000001c0: ba21 793d 2516 bcbd 9684 283d fd5f e73d
000001d0: 7740 2a3d e972 03be 24cb 343e c5dd 8b3e
000001e0: ce78 fa3d ce07 213e 076f 7b3e 8e05 a03d
000001f0: 5237 693c 63c8 383e 06d9 e23d 776d b83d
00000200: 16b7 333e d4ed b63d 3c92 c63c 97dd 19be
00000210: 3108 263e 1b64 c13d d64c 153e bba1 6b3c
00000220: e44c 4a3e 8f96 a93d 066a 843e 43c8 113e
00000230: a3bc 6abe f46e 2b3d 8e6d 903d dac3 223e
00000240: e21f dcbd 6c97 b63d 0462 07bf 6936 cbbe
00000250: 6942 39be 06cd 54bf ef86 13be f069 64bf
00000260: 8fa7 81bc b9cd 1ebf 73b1 04be ec42 d6bd
00000270: a4c7 edbc 6cd6 5dbf 3f5c 46be d7f2 463c
00000280: f8bf 00be fd03 06bf e2a0 6cbe 7716 47be
00000290: 3e89 29be 9757 953d a0d9 adbe 8c9f 09be
000002a0: 401c 62be 091d a0be d457 c9be 44df 8e3b
000002b0: 86b5 33be 8a19 89bd 06dc 49be 9779 88be
000002c0: f5d8 9bbc 782d d9be ab4a ba3d 6f84 bf3e
000002d0: 13b6 173b 2f18 933a f364 0fbd 79ab afbe
000002e0: 3a90 b5be 6dda 82bf 1fea 80be 73b3 7cbd
000002f0: 7345 eebe 16c3 acbe c049 8dbe 486e a8bd
00000300: 1bd2 ccbe aa1d 2d3e 8a7a 0e3f 3165 243e
00000310: dfbe 243b dbea ab3e 031f af3e c9f6 a03e
00000320: 6754 68be 0663 e4bc f7db d83e 171b de3d
00000330: 54b1 bc3e f896 c23c 9e0b 143e 5e2c 9fbd
00000340: 5062 dabd f29d aabd 6c8d 22be 9d21 21be
00000350: f1d5 1cbe e9f2 c13e ed71 c9be b936 673d
00000360: 7d9e 223d f823 3dbc 0c8d 443e aba4 8a3c
00000370: 9d24 183e 0d8d 08bd 1934 493e 3bbc 5fbd
00000380: a566 85be b769 a53d 6fba 9a3c 9239 a83d
00000390: a133 82bd bd7c b6bd 1313 423e e8aa 21be
000003a0: de4b 17be db2b 583e 5b9b 693d ffe8 14be
000003b0: 634a f93e 2b3a a83e d168 993d 94ff 403e
000003c0: 4849 a03d 151b d93c eec5 323e 01d3 a53d
000003d0: 2f9f 4bbc 8135 543d 8841 0a3e 7724 d33d
000003e0: edab b6be 1442 f43c f9c1 5fbd e2fb 7e3d
000003f0: a3a0 1bbe 44d0 ff3b 1f57 333e a9a2 483d
-0.29470485 -0.13517378 -0.08814084 -0.13945724 -0.19034243 -0.061551496 -0.17669891 -0.1265063
-0.095464975 0.06333755 -0.09366771 0.060665086 -0.08162927 -0.17342165 0.0536169 -0.22415085
-0.13924013 -0.11773033 -0.069791466 -0.11347807 -0.33538625 -0.105359815 -0.19883308 -0.116254695
-0.14173324 -0.27505678 -0.2982315 -0.17975463 -0.02997318 -0.16550513 -0.10088744 -0.2012914
-0.24112758 -0.06496303 -0.14706078 -0.19806984 -0.0858847 -0.11189569 -0.09307877 -0.26588106
-0.049896322 -0.0932822 -0.10475972 0.011145059 -0.2813802 -0.04274435 -0.21617727 -0.3123968
0.08724494 0.111291155 0.043487687 -0.06107758 0.22167967 -0.0194413 -0.030009996 -0.017893814
0.43540898 0.11806055 0.02855964 0.07212109 -0.0068529495 0.07478433 0.24284038 0.02688404
0.060785618 -0.035776094 0.103658706 0.22335461 0.2408717 0.12651384 0.09538068 0.046255816
0.20009987 0.062340863 0.27372003 0.18188547 -0.0034045363 0.17787655 -0.031950146 0.19610395
0.12241264 -0.03236923 0.21432234 0.17777832 0.041319277 0.08846312 0.23455016 0.24620685
0.1107821 -0.01087096 0.17618932 0.16801408 0.06896355 -0.0093260845 0.23094606 0.16953611
0.08128679 0.08443132 -0.019489462 0.13007508 0.10157189 0.17292038 -0.105011456 0.17504202
0.2561954 0.07489318 -0.043415982 0.033648577 0.24874899 0.2208071 0.15866937 0.035503328
0.06082318 -0.09183911 0.04114207 0.11297605 0.041565385 -0.12836803 0.17655617 0.27317634
0.12230073 0.15725634 0.24554072 0.078135595 0.014234381 0.18045191 0.1107655 0.09005254
0.1755031 0.08932081 0.024239652 -0.15025936 0.16214062 0.09442922 0.14580092 0.014381821
0.19755894 0.0828067 0.2586214 0.1423655 -0.22923522 0.04185386 0.07052146 0.15895024
-0.10748269 0.089156 -0.52883935 -0.3968995 -0.1809174 -0.8312534 -0.14406942 -0.8922415
-0.015826968 -0.6203266 -0.12958317 -0.10461983 -0.02902586 -0.86655307 -0.19371127 0.0121428585
-0.1257323 -0.52349836 -0.23108247 -0.19442163 -0.1655626 0.07292097 -0.33955097 -0.13439769
-0.22081089 -0.31272152 -0.3932482 0.0043601114 -0.17549714 -0.06694324 -0.19712839 -0.26655266
-0.019024352 -0.42417502 0.09096273 0.37405726 0.0023149296 0.0011222417 -0.035008382 -0.3431051
-0.354616 -1.0222908 -0.2517862 -0.061694574 -0.4653736 -0.3374259 -0.2759533 -0.082241595
-0.40004048 0.16905847 0.5565573 0.16054226 0.0025138182 0.33577618 0.34203348 0.31438282
-0.22688447 -0.02787925 0.4235532 0.10845011 0.3685404 0.023753628 0.14457557 -0.07772134
-0.10663283 -0.08330907 -0.1587426 -0.15735479 -0.15315987 0.37880638 -0.3934473 0.056448672
0.039701927 -0.01154422 0.1919443 0.016924223 0.14857717 -0.03333764 0.1964878 -0.05462287
-0.26054874 0.08076804 0.018887727 0.08214106 -0.06357504 -0.08910511 0.18952589 -0.15787852
-0.14775035 0.2111048 0.057032924 -0.14542006 0.48689565 0.3285688 0.07490695 0.18847495
0.07826477 0.026502172 0.17458317 0.080968864 -0.012428089 0.051808838 0.1350156 0.103096895
-0.35678044 0.029816665 -0.054628346 0.062251933 -0.15197997 0.0078068096 0.17513703 0.04898325

nconvs.1.modlist.0.lin_l.bias f4 [48]
00000000: d0d8 f0bb 3d89 da3d cd3e 54bd e77e 293e
00000010: fd7f 493e be26 bbbc 89ab ed3c 744d 933e
00000020: 19fe 073d ddd9 c73d 8ebb 87bd 48aa 36bc
00000030: 0c69 0bbd 3733 97bd 2a40 983c 8710 193d
00000040: 4958 04be eecc 933d 0de1 66bd 8239 f83c
00000050: a6ab 92bc 5e59 24bd be81 8d3d 17db babe
00000060: 513b be3c 5d51 51be 692c 03be ddcb 90bd
00000070: 4628 2c3e 81e0 77bc 163f ac3c 1e86 193e
00000080: a70d adbc 73ab 8e3d 9bdd 023e 54b6 3cbe
00000090: d538 9e3e b277 6e3b c7b1 013d 32ad 28bf
000000a0: 5e5d 713d 41ef c6bd 1d7d 013e 99ef 3a3e
000000b0: 2739 a2be ec79 8d3c 9d27 993d e3fd 0bbe
-0.007350065 0.106707074 -0.051817704 0.16552316 0.1967773 -0.022845622 0.029012458 0.2877003
0.03320131 0.09758351 -0.0662757 -0.011148997 -0.034035727 -0.07382815 0.018585283 0.037369277
-0.12924303 0.072168216 -0.05636697 0.03030086 -0.017904114 -0.04012429 0.06909512 -0.36495277
0.023221644 -0.20441194 -0.1280991 -0.07070134 0.16812238 -0.0151292095 0.021026175 0.14992568
-0.021124674 0.06966295 0.12779848 -0.18428928 0.30902734 0.0036387262 0.031663682 -0.65889275
0.058926933 -0.09713603 0.12645383 0.18255462 -0.3168423 0.017270051 0.07478259 -0.13671069

nconvs.1.modlist.0.lin_r.weight f4 [48, 48]
00000000: b220 e3bd 2f23 8d3d 27be 5e3e 4c82 b33e
00000010: 529a 0e3d f4b5 d63d 1f84 2cbd 21fc a33c
00000020: b4ec 45be 87ab 71bd cec5 423e c28d debd
00000030: 0b01 4cbd a6d2 39be a906 9ebe f8a7 03be
00000040: 7c65 ac3d 7401 a83d 4371 423c 88d1 aa3d
00000050: bebb ca3e bfc0 88be d810 41be 3699 58bd
00000060: 3b56 cf3c 60a5 563d 848c f83d 32f5 5b3d
00000070: c9df 3e3d f9eb 79bd 5d1a 38bd 1f36 56be
00000080: d435 963d 22df ccbd 6217 953e a126 ac3c
00000090: 090d 113e 8ef5 833c 8c87 8f3d 435f 893d
000000a0: bc6b 9b3e bdc4 ecbc a03e 813c 5f9e 973e
000000b0: 7cbb 1e3e 2a47 b93d c953 6dbe 222e d33d
000000c0: 84ab a23d 4460 253e 6f2e 0ebd e19f 213e
000000d0: ad8f 393e b9f6 8abd b758 053b 56a5 be3c
000000e0: 0614 b33e 684f adbd d8aa 523e f632 d83c
000000f0: 749f 513e 904c 96bd 502b 563d b139 653e
00000100: 1b2d febc 50a7 b6bb d665 4cbd 184d b1bd
00000110: 839d c9bd 1d8d 133d 3cdb 60bd 4f41 233e
00000120: 6abb eeba 75df 26bd a28a 2cbe bdfd 86bd
00000130: b4a9 7bbd c532 253e 29e9 3a3e 6599 883c
00000140: c5e6 043e 8619 893c 43bf b23d f30c c7bd
00000150: 851d be3d 70fa 4c3e 461f a33e 26cb 393e
00000160: 30c6 1cbd 0e47 ff3d 514a 8e3d 171c 2bbd
00000170: 35ea be3c 1ab5 413e 5c7c 583d 0927 053e
00000180: 96da 1bbe 3808 85bd c026 ef3d 9e37 02bf
00000190: 063f 893d d32c 933e f448 53be 7082 bc3d
000001a0: 8267 f4be 5825 ed3d 6417 34be 11f2 a3bd
000001b0: 15a5 25be 7ddf fabc 6b9d 0abf 9f4a 2abe
000001c0: 7054 3b3d 877f b53b 0d77 bbbe 4205 ea3c
000001d0: 53dd 84be 7bf6 84be 9bf9 653d d7e6 cabe
000001e0: 4e0c efbd 9bff b9bd 0651 4dbf e26a 43be
000001f0: 9851 f2bd 8f37 dabd c0ec 683d f98d 7abe
00000200: 86da 3cbe 1022 54be 267a 62be a7ff f6bd
00000210: 502a ba3d 591e cabd 7503 95be 91f3 613d
00000220: 15d1 93be 202c 9f3c 80d2 8fbd bfb3 4cba
00000230: 90bd 87be 1d0e 8fbe 6740 65be 8aab 3fbe
00000240: 6e69 313f cb17 b93e 82f7 3c3e d8f3 923f
00000250: 3545 5a3e 3157 593e 2966 973f a702 4abd
00000260: 56cd 423f 18ce 7e3f 18ed 593f 6d04 613f
00000270: 70ee 183f d90b fb3e 42db 8f3f b1df 843f
00000280: cb62 0b3e 4088 9cbd 475b 743f 279c 553c
00000290: d4af 833f f9ac 513f 4bda 603e 0271 5f3f
000002a0: 1c97 523e 9a48 9a3f 8a32 a13f cab0 3d3e
000002b0: e053 873f a56f 9b3e 3c49 bf3e afd9 fc3e
000002c0: 68b3 1d3f b2a5 8b3e 73e8 b83e 48f2 cf3e
000002d0: a998 7e3e cad4 ef3d 1ab4 873f 7b14 813d
000002e0: e4f3 863f 983a 3f3d 9ac1 863f 2ef0 e23e
000002f0: ae89 ea3e f12c 853f 7b57 2e3f 4c68 023f
00000300: 948c 97be ae43 b53d f03b 73bd 622d cf3d
00000310: 910b e83d 26c4 9dbc 789c 8cbe 5e4b c1bd
00000320: 90b8 e5be 693c 22be 812e f83e dc56 06be
00000330: 1492 85be 4d24 9a3d 7454 78bd 7989 28be
00000340: 4dc6 67be 26af 293d 1a8a 81be b9f7 b43d
00000350: 3c9d 18be 0ba0 54bf 79d5 c4bd 5a92 893e
00000360: 5154 a7be cf0f 9abe 4bc9 b73e bb84 f83d
00000370: ac1c 7f3c 8e89 90be 2280 4bbe f286 c33d
00000380: 45ef fb3d e51a 54bc e17d 903e 795b 423e
00000390: 8ff0 683d 5c2f 57bd dbbe 923d 3103 6abc
000003a0: 407d 05bf fb57 9d3e c591 83be a059 863e
000003b0: dba4 303f 3893 c4be 1071 f23d c017 8e3e
000003c0: 8d69 8abd b368 e6bd 0207 af3c 88e7 67bd
000003d0: 0400 c2bd 18f1 99bd 5f4c f03d 3e7a 56bd
000003e0: 8ba9 22be 58a1 2a3e e9a3 4b3d e13c 643d
000003f0: 19ac 29bd 658b 3d3d b91e 50bd 5953 0c3d
-0.110902205 0.06891476 0.21752225 0.35060346 0.03481514 0.104839236 -0.042118188 0.020017685
-0.19328576 -0.05900147 0.19020769 -0.10866882 -0.049805682 -0.18146762 -0.30864456 -0.12857044
0.08417794 0.08203402 0.011867824 0.08340746 0.3959636 -0.26709554 -0.18854082 -0.05288049
0.025309673 0.052403808 0.12136176 0.053700633 0.046600137 -0.061016057 -0.044947017 -0.20919083
0.07334486 -0.10003497 0.29119402 0.021014513 0.14165129 0.0161083 0.070082754 0.06707623
0.30355632 -0.028902406 0.015776932 0.29613015 0.15501207 0.090467766 -0.23176493 0.103115335
0.0794287 0.16150004 -0.03471225 0.15783645 0.18121214 -0.0678534 0.0020347068 0.023272198
0.34976214 -0.08462411 0.20572984 0.026391488 0.20470983 -0.07338822 0.0522874 0.22385289
-0.031027367 -0.0055741444 -0.049901806 -0.086572826 -0.09844496 0.036023248 -0.05489658 0.15942882
-0.0018213813 -0.04074045 -0.16849759 -0.065913655 -0.06144114 0.16132648 0.18253006 0.016674707
0.12978657 0.016735803 0.087278865 -0.09719267 0.09282974 0.2001741 0.31859797 0.18143901
-0.038274944 0.124647245 0.069477685 -0.041774835 0.023305038 0.18916741 0.052852973 0.13003172
-0.15220103 -0.06495708 0.11677313 -0.50866115 0.06701474 0.28745136 -0.20633298 0.092045665
-0.4773522 0.115793884 -0.17587048 -0.08005155 -0.16176255 -0.030624146 -0.5414645 -0.16630028
0.045734823 0.005538884 -0.36614266 0.02856696 -0.25950107 -0.259693 0.056146245 -0.39629242
-0.11672269 -0.09081956 -0.80201757 -0.19083741 -0.11831969 -0.10655128 0.056866407 -0.24468221
-0.18442735 -0.20716119 -0.22116908 -0.120604806 0.09090102 -0.098690696 -0.291042 0.055163924
-0.28870454 0.01943022 -0.070225716 -0.00078087667 -0.26511812 -0.27940455 -0.22387849 -0.1871778
0.693015 0.36150965 0.18453792 1.1480665 0.21315463 0.21224667 1.1828052 -0.049318936
0.7609457 0.99533224 0.851274 0.8789738 0.59738827 0.49032477 1.1238787 1.0380765
0.13611905 -0.07643175 0.9545178 0.013037718 1.0288033 0.8190456 0.21958272 0.8728181
0.20565456 1.2053406 1.2593548 0.18524471 1.0572472 0.30358616 0.3736056 0.4938483
0.6160188 0.27274853 0.36114845 0.40614533 0.24862923 0.11710508 1.0601838 0.063027345
1.054318 0.04668674 1.0527833 0.44323868 0.45808166 1.040434 0.68102235 0.50940394
-0.2959944 0.088507995 -0.059383333 0.10116078 0.11330331 -0.01925857 -0.27463126 -0.09438203
-0.44867373 -0.15843357 0.4847298 -0.13119072 -0.2608801 0.07526455 -0.060627416 -0.16458692
-0.2263424 0.0414268 -0.25300676 0.08836312 -0.1490373 -0.83056706 -0.09611029 0.2686947
-0.32681516 -0.30090186 0.35895762 0.12134691 0.015570801 -0.28229946 -0.19873098 0.09547223
0.123014964 -0.012945865 0.28221038 0.18980207 0.05687004 -0.0525354 0.07165309 -0.014282987
-0.5214424 0.30731186 -0.2569715 0.26240253 0.6900155 -0.3839357 0.11837971 0.27752495
-0.067584135 -0.112504385 0.021365646 -0.05661729 -0.09472659 -0.07516688 0.11733317 -0.052362673
-0.15884988 0.1666311 0.049716864 0.05572212 -0.04142389 0.046275515 -0.05081055 0.034259174

h_1.modlist.0.modlist.0.weight f4 [18, 49]
00000000: decd b63c 8990 533d 58de b4be 83b8 b2be
00000010: 1403 4d3e 7a74 5bbd d827 ef3d 71be 40be
00000020: ca89 923e b214 80be c074 3abc 92bb c4bd
00000030: 311e 73be 3cdc 73bc fdbb b93c b991 ba3b
00000040: 572a f53e b9cd 9abd 76ad eebc 9655 713e
00000050: 8c81 cd3e 4266 943e a568 b33d 38de 0f3d
00000060: 03bb 033e 8676 60be 3775 2c3e 331f e43d
00000070: 37ce 523e 2054 3dbe 372a 99be 0372 2a3e
00000080: 58a2 0fbe 0bd1 813d 160a 7dbe 36b4 8dbe
00000090: cbf0 49bb 5129 ef3d e917 e5bd 106d 8c3e
000000a0: af44 403d 8b06 ee3d ebfb 5cbd 569c 653e
000000b0: e230 97bd 781f cc3e e022 bebe e313 55be
000000c0: 0686 e13d 733c 68be 45bb 0f3b 3aa1 47be
000000d0: fce6 353d 8966 8f3e 619f abba 4794 293d
000000e0: d692 6cbe 2dcf 09be 6454 5bbc f3df b3be
000000f0: 8a2f 383e bfa7 50be e3f0 733e 00be 363e
00000100: 0a9c 2ebe dc2c 8d3e 3330 193c ccdf f23d
00000110: c257 b03d 1c61 6c3c e78e c23d 6ad7 6f3e
00000120: 282f 9cbe 6833 193e 0804 753e 046f fd39
00000130: 6919 1bbe 9258 4b3e 39b3 953e f8ca 87bd
00000140: 697d f4bc c087 87be 5a15 653d 3f12 dcbc
00000150: b31c 5cbe 6c0d da3d b5e5 693e 0769 97bd
00000160: 7acd bd3c ac9d e5bd f808 c2bd 54e1 333e
00000170: 4fbe 5abe 30a9 ddbd 7509 183e df73 79bc
00000180: 9415 a6be 2e04 d23c e1bd edbd f0b2 f3bd
00000190: 756e dbbb 2a3e 8d3d 801d a13d 0eb5 0b3e
000001a0: e5e5 79bd 2de3 19be 0bd9 d7bd 7f1e d0bd
000001b0: 4256 813e 857a 1bbe 88bb 183e ef9a cebd
000001c0: 39ca d33d cf1a 3c3e 3f74 773d f6f9 41bd
000001d0: a614 4fbe 13ef 74bd 3a20 babd b33a dabc
000001e0: d785 20be ceb8 37be 166a a2be 7f3f 323e
000001f0: 1ade 273f a698 d4bb 6349 133e a306 d9bd
00000200: 1a00 fa3d 972e 803e d667 2f3e 0bc9 0e3e
00000210: 80da b23d ec09 febd dc3d 8fbe 4161 343e
00000220: 8b9b 883e 171d 213f 69f6 e43d e66d 7c3d
00000230: db43 48bd 4c64 d73d 93ff 723d 50b5 5d3e
00000240: 5fb1 a8bc a121 193e 32c3 69bd 0762 b7be
00000250: f0eb e2be 1859 673d f397 903e cb06 4bbc
00000260: dd9d 33be 7bb7 e5bd 7a49 8fbe 5091 c4bc
00000270: 7750 8ebc 21f3 6fbe 01ee a33e 215a e5bd
00000280: 8d4b 0cbe efc8 01bf 06e1 3e3e 0f62 01bf
00000290: 113e 99bd 04df 33be ec1e 6bbe 3678 52be
000002a0: b0da 443e 3977 90be 893e a7be a194 dbbd
000002b0: 393b 513e e970 dbbe a9b2 d0be 3729 36be
000002c0: e5b6 e4be b5e1 c2bb 1feb f7be bf7e 1a3d
000002d0: 40ac a73c 019e c8bd 4fdf 273d d75a cabe
000002e0: c324 b5bd 2cc6 703e a607 8bbf a982 f2bd
000002f0: c275 49be 5119 95be ddbf a6be 463b f6be
00000300: 12e2 17bf 6936 a63d 05ac 05be 4017 fcbd
00000310: f9db ac3d c757 c4be d41b 083f cf48 1c3f
00000320: 2b10 92be e281 193e 71e6 873d cf7f 37bd
00000330: 3c39 6fbe f70a 52be ab8b 623e efa1 68bd
00000340: a984 d83e c521 4bbe 665d 60be 234f 9dbd
00000350: 934a db3d f8fa 8c3e d129 02be 639a 01bd
00000360: ebdf b8be 49ba 023e f64a 293e 46de c7bd
00000370: 3488 713e f562 9c3e fd28 a0be 53e3 25bd
00000380: d709 a23d 1822 24be 955e bb3d 6f84 40be
00000390: 0837 ba3d d399 aabd 2b39 d0be fa4a 77bd
000003a0: ac22 d0bd 18bd b9bd cddb 82bb 9581 86be
000003b0: e1ae 93bd fe11 bc3d cd55 333e 0973 32be
000003c0: 26fb d0be e456 88be 9c44 5b3d 4f2e fcbd
000003d0: 0570 69be 6234 dc3e 1a4b a3bd 3538 353e
000003e0: 2db5 a8bd 30bf 07bc d62c 553e 6da0 6d3e
000003f0: affa 5f3d f75b 013e bff0 b53e 96c8 faba
0.022314962 0.05165151 -0.35325885 -0.34906396 0.20020705 -0.053577878 0.116775215 -0.18822648
0.2862075 -0.2501579 -0.011380374 -0.09606089 -0.23741986 -0.014884051 0.022672648 0.005693641
0.47883865 -0.0755877 -0.029135447 0.23567805 0.401379 0.28984267 0.08760194 0.035124034
0.12864308 -0.21920213 0.16841589 0.11138763 0.20586477 -0.18489122 -0.2991502 0.16645055
-0.14026773 0.063387 -0.24710879 -0.27676553 -0.003081369 0.11677802 -0.11186201 0.27426958
0.0469405 0.11622342 -0.053951185 0.22422919 -0.073823705 0.3986776 -0.37135983 -0.20808367
0.11011891 -0.2267931 0.002193169 -0.19495097 0.044409737 0.28007916 -0.0013093763 0.041401174
-0.23102888 -0.13457938 -0.0133868195 -0.35131797 0.17986885 -0.2037649 0.2382236 0.17845917
-0.17051712 0.27573287 0.0093498705 0.11859092 0.086104885 0.01442745 0.09499913 0.23422018
-0.30504727 0.14961016 0.23927319 0.00048338633 -0.15146412 0.19858006 0.292383 -0.0663051
-0.029844956 -0.26470757 0.055928566 -0.02686417 -0.21495323 0.10647091 0.22841533 -0.07393079
0.023169268 -0.11211714 -0.09474367 0.17566425 -0.2136166 -0.108232856 0.14847358 -0.01522538
-0.32438338 0.025636759 -0.11608482 -0.11899364 -0.006696517 0.068966225 0.07866955 0.13643286
-0.06101026 -0.15028067 -0.105394445 -0.10162067 0.25261122 -0.15183456 0.14915287 -0.10088145
0.10341305 0.18369602 0.060413595 -0.047357522 -0.2022272 -0.05979831 -0.09088178 -0.026639318
-0.15676056 -0.17941591 -0.31721562 0.17407034 0.65573275 -0.0064879237 0.14383464 -0.10596969
0.122070506 0.25035545 0.17129454 0.1394388 0.08733082 -0.12404236 -0.27976882 0.17615224
0.2668117 0.6293501 0.111798115 0.061628245 -0.048892837 0.10517177 0.059325766 0.21651196
-0.02059239 0.14954235 -0.05707092 -0.35816976 -0.4432063 0.05648145 0.28240928 -0.012391756
-0.17540689 -0.11216637 -0.27985746 -0.023995072 -0.017372353 -0.2343259 0.3201752 -0.11198831
-0.13700695 -0.50697225 0.18640527 -0.5054025 -0.07482541 -0.17565542 -0.22961015 -0.2055367
0.19224048 -0.2821596 -0.32664898 -0.10721708 0.20432748 -0.4285958 -0.40761307 -0.1778916
-0.44670787 -0.0059473165 -0.4842157 0.03771853 0.020467877 -0.09795762 0.040984448 -0.3952243
-0.08844902 0.23513097 -1.0861709 -0.11841328 -0.19673827 -0.29120877 -0.32568255 -0.48092097
-0.5932933 0.08115847 -0.13053901 -0.12309122 0.08440394 -0.3834822 0.5316746 0.610486
-0.2852796 0.14990953 0.0663575 -0.044799622 -0.23361677 -0.20511995 0.22123592 -0.056795057
0.42288712 -0.19837101 -0.21910629 -0.0768111 0.10707583 0.27535224 -0.12711264 -0.031641375
-0.36108336 0.12766375 0.16532502 -0.09759192 0.23587114 0.30544248 -0.31281272 -0.040499996
0.07912033 -0.1602863 0.091488995 -0.1880052 0.09092528 -0.08330121 -0.40668616 -0.060374238
-0.10162863 -0.0906927 -0.0039934875 -0.26270738 -0.0721109 0.09183119 0.17513199 -0.17426695
-0.4081661 -0.26628792 0.053532228 -0.1231352 -0.22796638 0.43008715 -0.07973309 0.17697223
-0.082376815 -0.008285329 0.20817885 0.23205729 0.05468243 0.12632738 0.35535237 -0.0019133266

h_1.modlist.0.modlist.0.bias f4 [18]
00000000: 1af1 d83c 81d3 94bd d86a c53d 8784 f7bd
00000010: c6b9 6d3d 6b9c f13d c1ab 89bd 2009 4bbe
00000020: 2739 3abd 3be9 133d efd0 a43d 8cd0 febc
00000030: fa5d 92bc d176 103d a933 0cbd bbe4 a93b
00000040: 1ea6 f43b 4097 503e
0.026482154 -0.07266904 0.096395195 -0.120858245 0.058038495 0.117974125 -0.067222126 -0.198277
-0.04546466 0.036111098 0.080476634 -0.031105302 -0.017867077 0.035269562 -0.034228954 0.0051847375
0.007466092 0.20370197

g_1.modlist.0.modlist.0.weight f4 [18, 85]
00000000: d541 073e 9650 44be 0c45 e43c f3ba febd
00000010: 0ba0 4f3d 8853 12be 446b cdbd e7cc 193f
00000020: 1e77 a93e 859c 093f 3a6a 463d b9c0 a4be
00000030: 6d53 1d3d e6ca 4ebd 7ba1 a3bd aaea 3c3e
00000040: d8c8 473e d785 183e 8e69 48be 851f d4bd
00000050: 243f 3a3e 8eac 83bc 391b eebe 8878 493e
00000060: a4e9 a63e f8b6 703e 9f63 c23e 818e 3dbe
00000070: aefa eb3e 2114 94be df2f e33d 39ef 443e
00000080: 4285 b3be 2f3e c13d 6e91 2fbf 338a ac3e
00000090: 577c 893e 6672 863e 4a00 893f b164 943e
000000a0: 4d2b 89bd 2cde 263e 60b7 afbb c84a 233e
000000b0: 25e0 db3e 6b23 9d3e d9cc 9bbc 40ee 9fbe
000000c0: 1f6e aa3c 62d0 513e 3fd6 7fbd bfc0 07bf
000000d0: c54f c13e c0b0 c7be b7db 21bf 0580 dfbd
000000e0: e911 ce3e 2083 163f f94f 623e 44f0 13bf
000000f0: 3a49 b03d eb20 12bf 52f9 0ebf 635d 83be
00000100: 6738 bdbe a688 73be bd83 c93d 4c9a debc
00000110: 39fb a93b a50f ddbe e9c9 a83e cb94 07be
00000120: afa6 fcbe 863e 01bf 9d66 b03e 13cc 8f3e
00000130: aaed fc3e 005b 0ebf e26a c23d bbd2 91be
00000140: 8dd8 aebe e06b 8dbe 141e 8fbe ab14 4b3d
00000150: 0b3c 6c3d 0d26 3e3e 2aad a0be 2d01 9f3e
00000160: 26e7 1fbf 74d3 afbe 2ee9 a13c 270f 56be
00000170: 5f90 8bbe cc1b edbe 222e 39bf 00b3 10bf
00000180: e485 f8be 6bfe 5cbd 0aa2 0abe c6bd 13be
00000190: ed80 02bf d7d9 9a3d 03e5 e7bd 82f6 02bf
000001a0: d59d 243f 1003 c5bc b059 3fbf fc9d 28bf
000001b0: 2492 0dbf 2fc5 c53e e4a9 b0be c211 a13d
000001c0: bb13 c3be 8dda 503d cb9e efbd e020 c3be
000001d0: 6968 33bf bfd0 80bf 0aab 80bb 5a97 3abf
000001e0: a663 ebbd 6c7d 1cbf 7f08 82be 7970 393f
000001f0: f3d3 303d 8680 a13c 3edc 0ebd e951 55be
00000200: c308 863e 641e 783c c054 053e 6cca 003d
00000210: 50db 09bf 81ea 493d b1eb 0c3d e589 95bd
00000220: d654 c5bd f6cc 183e e9f7 fbbe 6b10 eebe
00000230: 7c4a c7bd d7e3 443e 2bdb a13e 16b4 953e
00000240: c8e7 4abe b920 673e 30bd 58be a312 5abd
00000250: 3a57 5d3d 1896 823d 211b adbd f612 fabd
00000260: 6226 bf3d 0a99 68bd e0b0 b8be 9602 323d
00000270: c39b 1cbc 6fb5 e0be 2c03 8abe 5dad 523e
00000280: d223 3b3e e53e d43d cdac 04be e114 963c
00000290: 934a 08bf 9cb9 6dbe 8c35 d33d 339b fcbd
000002a0: 8f69 b3bd c3f8 233c c036 5ebe d945 cdbe
000002b0: c00c 8cbe f0b0 70bf b833 79bd 50dd e8bd
000002c0: 7342 afbe 353a 6cbe 45b9 94be 10ad 253e
000002d0: 1e19 24bf 0f12 a6be e69c 11bf 42a1 23bf
000002e0: b018 2dbf 3b5c dabe 9345 41be 4bd6 29bf
000002f0: f326 eabe 9027 94be 24fc 1bbf a29b 08bf
00000300: 3449 4cbf 2931 a53a 83e2 f7bc 7e0e 08bf
00000310: 7d5f d3bd 3636 a5be a1a2 1fbe c3e6 8dbe
00000320: e250 14bd 8825 13bf 2c9b 3fbf 6182 47bb
00000330: 3b92 23bc 00bd e8be 8c3a 16bd aeeb b9be
00000340: 681c 3d3e 2abf 78be 0216 7f3e 1c93 15be
00000350: 987b 46bf 3997 dc3d dd03 54bd b70e 39bd
00000360: 2492 d2be 1ae1 0fbf 636f 8f3e bf18 96be
00000370: c91b 0e3d 6612 2abe 3095 32be e84d 143e
00000380: 232b 823d 9208 463c 88ad 39be 543d a23d
00000390: c437 42be 23f8 18be 1c4a dabd 4237 0d3e
000003a0: 54cc 653e aa58 0bbe 864d 3d3d ffda f5bd
000003b0: de52 43bd 010b 883c 15f6 933c eae0 003d
000003c0: a259 11bb eb09 c93d 9a81 4f3d 584d 98bd
000003d0: a625 28bd 77a2 bcbd e4c5 753d 644e 783c
000003e0: 2199 783c 72ac 0cbd 3ae4 913a c2b9 24be
000003f0: 8611 bebd 890e 573e e1e5 863e 701c 433e
0.13208707 -0.19171366 0.027864955 -0.124380015 0.05068974 -0.14289677 -0.10030225 0.6007828
0.33098692 0.53754455 0.04844115 -0.32178286 0.03840964 -0.050486468 -0.07989784 0.18448892
0.1951021 0.14894806 -0.19571516 -0.103575744 0.18188149 -0.016073491 -0.46505144 0.19674885
0.3260013 0.23507297 0.3796663 -0.18511392 0.4608969 -0.28921607 0.11093115 0.19231881
-0.35062605 0.09435689 -0.68581283 0.33699188 0.26852676 0.26259154 1.0703213 0.2898307
-0.06697712 0.1629569 -0.005362436 0.15946496 0.42944446 0.30691084 -0.019018577 -0.31236458
0.020804463 0.20489648 -0.06246018 -0.5302848 0.37756172 -0.39002037 -0.63225883 -0.1091309
0.4024804 0.5879383 0.2210082 -0.5778849 0.08607717 -0.5708148 -0.5584918 -0.25657186
-0.36957094 -0.23782596 0.0983958 -0.027173184 0.005187419 -0.43175998 0.32966545 -0.13240354
-0.4934592 -0.5048603 0.34453288 0.28085384 0.49400073 -0.55607605 0.094930425 -0.28481087
-0.3414959 -0.27621365 -0.27952635 0.049580257 0.05767445 0.18569203 -0.31382114 0.31055585
-0.6246208 -0.34341013 0.019764509 -0.20904218 -0.27258584 -0.4631027 -0.7233602 -0.5652313
-0.4853965 -0.05395357 -0.13538375 -0.14427862 -0.50977975 0.07561081 -0.113229774 -0.5115739
0.6430333 -0.024049312 -0.7474623 -0.65866065 -0.5530112 0.38627002 -0.34504616 0.07864715
-0.3810099 0.050989676 -0.11700209 -0.3811102 -0.7008119 -1.0063704 -0.0039266394 -0.72887194
-0.11493616 -0.6112888 -0.25397107 0.72437245 0.04317088 0.019714605 -0.034878008 -0.20832027
0.2617856 0.015143964 0.13020611 0.031443045 -0.5385027 0.049295906 0.03440446 -0.07301692
-0.09635322 0.14921936 -0.49212578 -0.464969 -0.09731004 0.19227539 0.31612524 0.29238957
-0.1981498 0.22571076 -0.2116592 -0.05324043 0.054038264 0.06376284 -0.0845244 -0.12210648
0.09333493 -0.056786574 -0.36072445 0.043459497 -0.009558621 -0.43888423 -0.26955545 0.20573945
0.18275383 0.10363559 -0.12956543 0.018320503 -0.5323879 -0.23215336 0.10312948 -0.123342894
-0.08760368 0.01000804 -0.21700573 -0.40092352 -0.27353477 -0.94019985 -0.06084034 -0.11370337
-0.34230384 -0.23069079 -0.290476 0.161793 -0.64100826 -0.32435653 -0.56880033 -0.63917935
-0.67615795 -0.4264849 -0.18874197 -0.6634261 -0.4573284 -0.28936434 -0.6093161 -0.53362477
-0.797992 0.0012603152 -0.030259376 -0.53147113 -0.10320947 -0.32267922 -0.15589382 -0.2771512
-0.03620995 -0.57479143 -0.7484615 -0.0030442702 -0.0099835945 -0.45456696 -0.03667693 -0.36312622
0.18467867 -0.24291673 0.24910739 -0.14606899 -0.7753234 0.10771031 -0.051761497 -0.04518005
-0.4112712 -0.5620285 0.2801467 -0.29315755 0.034694467 -0.16608581 -0.17439723 0.14482844
0.06355884 0.012087004 -0.18132603 0.07921854 -0.18966585 -0.14938407 -0.106586665 0.1379061
0.22441226 -0.13608041 0.04621651 -0.12004661 -0.04768645 0.01660681 0.018061677 0.031464495
-0.002217867 0.09816345 0.050660707 -0.07436627 -0.04105153 -0.09210675 0.060003176 0.0151554085
0.0151732275 -0.034344144 0.0011130639 -0.16086486 -0.09280686 0.21001638 0.2634726 0.19053817
