2WL_link_pred/checkpoint/archive/20221214_004725/2WL_dict_100_20_6.pt (torch, 185977 bytes, 33 tensors)

weight f4 [96, 3]
0.45829618 0.06711007 -0.103965394 0.44584155 -0.38914296 0.27747837 0.4511608 -0.36538607
0.24443693 0.20157407 0.18864204 -0.0988572 -0.19710065 -0.31482762 -0.19557866 -0.06573981
-0.15078285 -0.5641608 -0.14580645 -0.07824381 0.26876068 0.37551245 -0.23269135 0.37526667
-0.08231763 0.05738234 0.08681427 0.52745914 -0.22631925 -0.20021734 0.020789774 -0.11312011
-0.47929665 -0.5045769 0.11954809 0.5501552 -0.57494384 -0.38171506 0.28992277 0.55965024
0.16844422 0.50319386 -0.23781304 -0.4419762 -0.5536425 -0.38478625 0.34010655 0.09115677
0.33497187 -0.5444354 -0.20833066 -0.48031506 0.5691554 0.107782155 0.25920638 0.08331583
-0.4264612 0.35432184 0.06838478 -0.22956067 -0.113813974 0.06705654 0.2120916 0.0797546
-0.23984483 0.32250693 0.5418427 0.30829582 0.56291133 0.3728171 -0.5020438 0.53035736
-0.29708964 -0.15636212 0.14710078 0.06671324 0.5204109 0.34364036 -0.34624147 0.4565734
0.41495556 0.16895449 -0.5164926 -0.2386274 0.4984322 -0.20824352 0.27075413 -0.17302476
-0.41173032 -0.4281313 0.33105013 -0.15578707 0.023402462 0.013652751 0.0051718084 0.070183754
-0.07376203 -0.4743377 0.477275 -0.2249161 -0.23167223 0.1945326 -0.089437634 -0.024080101
-0.026651364 -0.014401863 -0.1285145 0.2491624 -0.032695636 -0.17984171 0.07121826 0.29731295
-0.1743076 -0.59263724 0.058478475 0.18315288 -0.36818483 -0.44902563 0.36814344 0.090684965
0.41269282 0.20026207 -0.17699204 -0.37220508 0.43937767 0.273461 -0.4400596 0.5058653
-0.46596038 0.14658973 -0.05161673 0.48666853 -0.099785656 0.26607442 0.14027146 0.45923996
-0.1659177 -0.5508943 -0.009090314 -0.51440376 0.47157466 0.3396009 -0.08335543 0.3090441
-0.0049825795 0.16438761 0.32017335 0.25117812 0.2585825 0.42343134 5.912741e-05 0.4659096
-0.5658991 0.21745627 -0.03887566 -0.0011363789 -0.52922815 -0.32098603 0.41007635 -0.30738914
-0.57741 -0.111647405 0.15637058 -0.13655545 0.56210905 -0.54837215 0.47920305 -0.21158175
0.14563929 -0.1631465 0.23581584 0.5730871 -0.22165601 -0.24414979 0.3141221 -0.03503053
0.065442964 -0.3705413 0.3106336 0.39479488 -0.5200071 -0.3050066 0.36855286 -0.54875475
0.26271343 -0.3706885 -0.38566276 -0.19014472 0.28751487 0.31400064 0.3191083 -0.018054366
0.31811798 0.37326938 -0.28392997 -0.34942204 0.541606 0.30327436 -0.4472421 0.35350436
-0.50081897 0.24355364 -0.17089503 0.4225599 -0.0067337593 0.37314835 0.19204727 0.05609987
0.006721223 0.28584352 0.17166677 -0.46574506 -0.54821855 0.031416308 0.28602934 -0.16101106
-0.4134134 -0.3220796 -0.5184553 -0.48800117 0.5687301 0.43212596 0.3402909 -0.46934822
-0.10949851 0.045851436 0.11134794 -0.28293157 0.1680922 0.52258456 0.24999602 0.4373258
0.11114809 -0.5176142 -0.32986847 0.22722824 0.12676623 0.025223432 0.20938161 0.042131122
0.08417108 0.061750658 -0.14054349 -0.086366236 0.41473567 0.094398044 0.121407226 0.4799902
0.008511218 0.112512656 -0.12546606 -0.45334777 -0.06665424 -0.5328313 -0.42333403 0.51022947
00000000: cca5 ea3e 0171 893d cfeb d4bd 5845 e43e
00000010: bf3d c7be a511 8e3e 8cfe e63e e213 bbbe
00000020: ad4d 7a3e 6f69 4e3e 612b 413e a575 cabd
00000030: c1d4 49be 1631 a1be c645 48be 98a2 86bd
00000040: d266 1abe d86c 10bf 494e 15be 4a3e a0bd
00000050: 009b 893e 2b43 c03e a446 6ebe f422 c03e
00000060: 2596 a8bd bf09 6b3d aecb b13d 9007 073f
00000070: 3cc0 67be c605 4dbe 514f aa3c 84ab e7bd
00000080: 5f66 f5be f42b 01bf a1d5 f43d f9d6 0c3f
00000090: 852f 13bf 2870 c3be c270 943e 3d45 0f3f
000000a0: a47c 2c3e 50d1 003f 4385 73be b44a e2be
000000b0: 84bb 0dbf b402 c5be 7222 ae3e 67b0 ba3d
000000c0: 6f81 ab3e 1e60 0bbf a254 55be dbeb f5be
000000d0: 2bb4 113f e4bc dc3d b3b6 843e 7da1 aa3d
000000e0: 1f59 dabe ac69 b53e 520d 8c3d f411 6bbe
000000f0: 4d17 e9bd f054 893d 8a2e 593e 6156 a33d
00000100: e299 75be a11f a53e 34b6 0a3f f3d8 9d3e
00000110: f51a 103f e2e1 be3e f185 00bf 80c5 073f
00000120: 221c 98be 641d 20be 96a1 163e f4a0 883d
00000130: a639 053f a1f1 af3e 9046 b1be fdc3 e93e
00000140: 0e75 d43e 6802 2d3e dc38 04bf be5a 74be
00000150: 8132 ff3e ca3d 55be 49a0 8a3e 672d 31be
00000160: 51ce d2be 0734 dbbe 677f a93e a586 1fbe
00000170: 85b6 bf3c caaf 5f3c 4678 a93b 80bc 8f3d
00000180: 8c10 97bd 64dc f2be 645d f43e 6850 66be
00000190: 7c3b 6dbe 8e33 473e 142b b7bd a243 c5bc
000001a0: f653 dabc cbf5 6bbc 4e99 03be 6e24 7f3e
000001b0: dceb 05bd 6d28 38be e1da 913d 6739 983e
000001c0: b17d 32be 13b7 17bf 2087 6f3d 6e8c 3b3e
000001d0: b982 bcbe b0e6 e5be 4c7d bc3e 0ab9 b93d
000001e0: 794c d33e 8011 4d3e 673d 35be aa91 bebe
000001f0: 1cf6 e03e 1503 8c3e 7e4f e1be 6380 013f
00000200: 5c92 eebe 9e1b 163e 106c 53bd 9e2c f93e
00000210: 6c5c ccbd e83a 883e 52a3 0f3e 8021 eb3e
00000220: 54e6 29be 6907 0dbf 8aef 14bc f7af 03bf
00000230: 3c72 f13e 2be0 ad3e 40b6 aabd 073b 9e3e
00000240: e844 a3bb 3a55 283e c3ed a33e 6b9a 803e
00000250: ed64 843e fecb d83e 93ff 7738 b48b ee3e
00000260: c3de 10bf dbac 5e3e 163c 1fbd 8cf2 94ba
00000270: 7f7b 07bf 4858 a4be 87f5 d13e 1c62 9dbe
00000280: 24d1 13bf 65a7 e4bd 9c1f 203e 31d5 0bbe
00000290: 61e6 0f3f 1e62 0cbf 1a5a f53e e3a8 58be
000002a0: 7722 153e e00f 27be b579 713e d6b5 123f
000002b0: cbf9 62be 6702 7abe 9dd4 a03e 2c7c 0fbd
000002c0: f606 863d 97b7 bdbe 5e0b 9f3e 8e22 ca3e
000002d0: 2f1f 05bf d329 9cbe f6b2 bc3e 317b 0cbf
000002e0: 6082 863e e2ca bdbe 9775 c5be 4cb5 42be
000002f0: 2635 933e b1c4 a03e 2a62 a33e c0e6 93bc
00000300: 5ce0 a23e 2a1d bf3e 455f 91be 72e7 b2be
00000310: b1a6 0a3f c746 9b3e ebfc e4be 86fe b43e
00000320: ac35 00bf 2066 793e 1bff 2ebe c559 d83e
00000330: dea6 dcbb 4d0d bf3e 0aa8 443e fac8 653d
00000340: b43d dc3b 155a 923e 6ac9 2f3e 2376 eebe
00000350: 0d58 0cbf 63ae 003d 7072 923e 15e0 24be
00000360: ecaa d3be 9ee7 a4be 7db9 04bf 4adb f9be
00000370: 4c98 113f 9d3f dd3e 9c3a ae3e 694e f0be
00000380: c140 e0bd b7ce 3b3d 640a e43d 68dc 90be
00000390: 5d20 2c3e 1ac8 053f f5fe 7f3e 2be9 df3e
000003a0: 9ca1 e33d 5d82 04bf 85e4 a8be 85ae 683e
000003b0: 02cf 013e 5fa1 ce3c 2268 563e af91 2c3d
000003c0: e361 ac3d 42ee 7c3d a2ea 0fbe c8e0 b0bd
000003d0: 3c58 d43e c353 c13d 5aa4 f83d 47c1 f53e
000003e0: a372 0b3c 096d e63d 2d7a 00be 331d e8be
000003f0: 0582 88bd a267 08bf 3dbf d8be 669e 023f

bias f4 [96]
0.4482178 -0.40072626 0.05582021 -0.2810787 0.4462507 0.17886783 -0.15197104 0.27077776
-0.536224 -0.20387886 -0.06449956 0.4032065 -0.29784635 0.28609854 0.12775925 0.4332166
0.56187904 -0.3284793 0.4493531 -0.5064144 -0.3413436 0.18389165 -0.13599795 0.310965
-0.21536145 -0.50217 -0.39170733 -0.0019375199 -0.22349651 0.25573513 0.29528797 -0.4461331
0.37832996 0.15101166 -0.22854602 0.5333072 0.45094788 -0.21986979 -0.23862045 0.22281136
-0.35130918 -0.34128398 0.2605101 0.2769129 -0.362856 0.15720277 0.08148462 0.34808305
-0.43874058 0.036179487 -0.48399034 -0.036672644 0.122982025 -0.14931962 0.10758005 -0.5383863
0.37910977 0.09023455 -0.36236927 0.119239934 -0.24146757 0.11064958 -0.31426 0.33449155
0.07670725 -0.23717879 0.4700714 0.19560352 -0.34070766 -0.28640217 0.16420107 -0.3073516
-0.18886785 0.3861104 0.34292856 0.40918025 0.3487798 -0.25381237 -0.42537013 0.15826657
0.19371013 -0.068223126 -0.060551047 0.24581379 -0.38269058 -0.34416735 0.5112974 -0.2856217
-0.33777064 -0.011550368 -0.38262373 -0.5937781 -0.019276638 0.43918672 0.55419946 -0.53699785
00000000: ce7c e53e fe2b cdbe bca3 643d 8ce9 8fbe
00000010: f97a e43e 2129 373e 4c9e 1bbe 62a3 8a3e
00000020: fa45 09bf 9fc5 50be 5818 84bd 1571 ce3e
00000030: 517f 98be 827b 923e 52d3 023e 91ce dd3e
00000040: 4ed7 0f3f 702e a8be 9c11 e63e 60a4 01bf
00000050: 97c4 aebe 184e 3c3e 0c43 0bbe ce36 9f3e
00000060: b687 5cbe 378e 00bf dd8d c8be 61f4 fdba
00000070: 45dc 64be b7ef 823e fc2f 973e 8f6b e4be
00000080: 77b4 c13e cda2 1a3e f807 6abe d286 083f
00000090: a4e2 e63e 8c25 61be eb58 74be a928 643e
000000a0: ccde b3be c6bc aebe 9461 853e 87c7 8d3e
000000b0: 43c8 b9be c3f9 203e 69e1 a63d f137 b23e
000000c0: 9ba2 e0be f130 143d 95cd f7be 0e36 16bd
000000d0: 00de fb3d 3ee7 18be ee52 dc3d afd3 09bf
000000e0: ad1a c23e e4cc b83d 7788 b9be 1134 f43d
000000f0: 4643 77be 3f9c e23d b0e6 a0be 7a42 ab3e
00000100: b118 9d3d ffde 72be 33ad f03e 4a4c 483e
00000110: 3c71 aebe 4ea3 92be 5324 283e 305d 9dbe
00000120: 9366 41be 43b0 c53e 5594 af3e 1380 d13e
00000130: 4493 b23e b2f3 81be 1dca d9be a210 223e
00000140: f35b 463e 91b8 8bbd 6004 78bd 9cb6 7b3e
00000150: 05f0 c3be b436 b0be 63e4 023f 023d 92be
00000160: 46f0 acbe c13d 3dbc 42e7 c3be d701 18bf
00000170: 0aea 9dbc 15dd e03e 04e0 0d3f b178 09bf

bias f4 [96]
0.008256799 -0.017400542 -0.004042374 -0.003499065 -0.01780827 -0.01133177 -0.0052381866 -0.0035783066
-0.011557832 0.0136767505 -0.009236382 0.011032034 0.0030416974 -0.02484059 -0.011699129 -0.011583493
0.00023616076 -0.0027243663 -0.0024404835 -0.007637012 0.024487926 -0.008902487 0.0064457264 -0.0041258624
-0.014228706 0.018567966 0.004351695 -0.008584385 0.006021895 0.0045957756 -0.014161953 0.020019831
0.021013 0.008754909 -0.0018166989 0.0060086404 -0.01625195 0.008155063 -0.0027489006 0.0132035315
0.0116302 -0.0032809358 -0.0024439034 0.0020108942 0.017437445 0.01800651 -0.011467094 -0.0040658494
-0.0067979163 -0.008502781 0.008204848 0.0045869667 0.0060945693 -0.0059990794 -0.013495399 -0.0054726196
0.0030195669 -0.0048829815 0.013761838 -0.010804912 -0.0077635082 0.0008157389 -0.0030153568 0.008721782
0.00580023 -0.007276362 -0.015035323 -0.012215701 -0.0009558763 0.011323307 0.012278588 0.0020408332
0.008790394 0.013321124 0.015575774 -0.006670184 -0.019856209 0.0158352 0.00786855 0.004289595
0.0015329877 0.008289279 0.0014395028 -0.017553264 -0.00060407177 -0.019453937 0.0070614195 -0.003671968
0.0032193784 -0.028498584 0.002339451 -0.000980491 -0.005575459 0.007655855 -0.015183338 -0.0036305715
00000000: 8647 073c 958b 8ebc e475 84bb 9250 65bb
00000010: a6e2 91bc e3a8 39bc 18a5 abbb 0682 6abb
00000020: 105d 3dbc 7314 603c 3254 17bc b4bf 343c
00000030: 3757 473b 7e7e cbbc b4ad 3fbc b1c8 3dbc
00000040: eca1 7739 488b 32bb 85f0 1fbb e63f fabb
00000050: e79a c83c bddb 11bc ac36 d33b 3e32 87bb
00000060: 851f 69bc d91b 983c aa98 8e3b 85a5 0cbc
00000070: 5153 c53b 2998 963b 8907 68bc a100 a43c
00000080: 7423 ac3c c070 0f3c 4d1e eeba 21e4 c43b
00000090: cf22 85bc d09c 053c e626 34bb a053 583c
000000a0: 988c 3e3c f804 57bb e529 20bb 35c9 033b
000000b0: f9d8 8e3c 6382 933c 7ae0 3bbc d13a 85bb
000000c0: 0ec1 debb 404f 0bbc a06d 063c 444e 963b
000000d0: f4b4 c73b ed93 c4bb ce1b 5dbc a953 b3bb
000000e0: ede3 453b 6b01 a0bb 5579 613c 1607 31bc
000000f0: 0765 febb 50d7 553a 4b9d 45bb cee5 0e3c
00000100: db0f be3b 8c6e eebb b756 76bc 5d24 48bc
00000110: c693 7aba 6485 393c 212c 493c 80bf 053b
00000120: 9605 103c d840 5a3c 8831 7f3c 8f91 dabb
00000130: 7da9 a2bc d2b8 813c 17eb 003c bb8f 8c3b
00000140: 88ee c83a c2cf 073c b3ad bc3a ddcb 8fbc
00000150: 925a 1eba dd5d 9fbc 7b63 e73b 66a5 70bb
00000160: 35fc 523b dd75 e9bc 7a51 193b d283 80ba
00000170: 57b2 b6bb f7dd fa3b 89c3 78bc e2ee 6dbb

weight f4 [96, 96]
-0.17828365 -0.08212849 0.13543612 0.10444857 0.032060817 0.1266038 0.07837247 -0.13772352
0.08291176 -0.08236667 -0.096854515 0.1569167 -0.13090803 0.067405835 0.1375341 -0.13404898
-0.029255075 -0.1307786 0.15738764 -0.07719131 0.10298529 -0.00894419 0.07928054 -0.16441262
-0.17199846 0.035948772 -0.10561273 -0.11503868 -0.114798315 -0.022798002 -0.19391192 -0.13852726
-0.14885467 -0.061817616 0.021365697 -0.056164306 0.120503485 -0.15257625 0.13261464 0.16810079
-0.13095632 0.15441865 -0.15915449 0.00024924593 -0.043412 -0.08160731 0.112621516 0.008470562
-0.035321347 -0.094222724 -0.045290202 -0.13889576 0.022823254 -0.08430128 0.18649371 -0.107747205
0.13593146 0.15683492 0.108681716 -0.07653635 -0.083326556 -0.112315066 -0.07248207 -0.060900163
0.14518061 -0.15196323 0.13788906 -0.008747346 -0.060187783 -0.06482303 0.06689433 0.08948562
0.14387614 0.018226473 0.13792495 -0.061272815 0.07167508 0.0484105 -0.0646737 0.02995083
-0.031702884 -0.0062777163 0.07065451 -0.10472203 -0.073764384 -0.08551277 0.17926611 -0.05541019
0.17189415 -0.15884605 0.14011209 0.014865555 -0.117070176 0.06727558 0.07922054 -0.03160875
0.1321055 0.1354858 -0.11942527 -0.11960865 -0.10471387 0.06795962 -0.13596934 0.076477
-0.03261118 0.13303745 0.06407398 0.06999452 0.100749895 -0.1499213 0.12987499 -0.110932715
-0.10328882 -0.018128265 0.12965748 0.07770677 -0.14163081 -0.17794879 0.041982826 0.13057657
-0.071225226 -0.07478055 0.17169228 0.047640912 0.08324662 0.17446376 0.042298406 0.020668551
0.08738979 -0.03503425 -0.14749499 -0.050342023 -0.106380604 -0.12870291 -0.0911607 -0.14997418
-0.13631848 0.11642764 -0.07237098 0.017120112 0.056592904 0.15663296 -0.04810767 -0.078566395
0.0060168877 0.010891411 -0.120225295 -0.025837883 -0.025791371 -0.14897431 0.020053243 0.061039187
0.05549377 0.06054351 -0.14957206 -0.08319569 0.11591161 -0.16578685 -0.00507752 0.1111942
0.041568983 -0.0032329508 0.18047708 0.11154684 0.060576864 -0.17430662 -0.067440845 -0.05106364
0.0881984 0.0059347535 -0.023531169 0.0885343 -0.07088392 -0.14593841 0.069773264 -0.018614965
0.01819376 -0.15730104 0.11993765 -0.040407687 -0.059524525 -0.079888545 0.002596159 -0.1344161
-0.07518903 0.058776084 -0.05653976 0.08013102 -0.040229507 -0.120560244 0.1027228 -0.121110685
-0.16642812 -0.06385392 0.041782256 0.16292521 -0.14142583 0.15238014 0.053800073 0.020824706
-0.13200895 0.033891138 0.04350075 0.11671864 0.11573768 0.08923961 -0.16322142 0.08665373
0.03984764 -0.13599412 0.15700525 -0.079577886 -0.076411285 -0.071408294 0.027114242 0.0945139
-0.11485097 -0.16133218 -0.08872525 -0.11471714 -0.11096813 0.011968312 0.06483324 0.17228565
0.14549126 -0.09904372 -0.18826154 0.022919375 0.08524818 0.13814238 -0.10977485 0.008405479
0.1582442 -0.08252509 -0.15078248 -0.14710733 0.099801555 -0.020857777 0.121900186 -0.08436538
0.007978141 0.10170085 0.17259657 0.13469943 0.053832926 0.055926286 -0.0066864877 0.045166694
0.04626007 -0.10522985 -0.12324206 -0.015289824 0.05576255 -0.13815923 -0.09205418 -0.039564442
00000000: fd8f 36be fb32 a8bd c4af 0a3e 22e9 d53d
00000010: 3452 033d 6da4 013e bf81 a03d 6507 0dbe
00000020: a4cd a93d dbaf a8bd a95b c6bd c5ae 203e
00000030: c10c 06be 120c 8a3d bdd5 0c3e 2344 09be
00000040: 57a8 efbc d3ea 05be 3a2a 213e 7a16 9ebd
00000050: f4e9 d23d a78a 12bc d65d a23d c85b 28be
00000060: 5d20 30be 053f 133d 7d4b d8bd 6699 ebbd
00000070: 611b ebbd e0c2 babc d990 46be 17da 0dbe
00000080: 5c6d 18be 7834 7dbd 1d07 af3c 8b0c 66bd
00000090: 88ca f63d f33c 1cbe 22cc 073e 9d22 2c3e
000000a0: 6a19 06be ec1f 1e3e 65f9 22be 39ad 8239
000000b0: c8d0 31bd bc21 a7bd 1ca6 e63d 1dc8 0a3c
000000c0: 1ead 10bd d8f7 c0bd 3882 39bd b13a 0ebe
000000d0: d5f7 ba3c 26a6 acbd 35f8 3e3e 91aa dcbd
000000e0: 9e31 0b3e 5599 203e 8594 de3d 17bf 9cbd
000000f0: 1da7 aabd 7105 e6bd 7b71 94bd 7372 79bd
00000100: 3aaa 143e 409c 1bbe ca32 0d3e 0751 0fbc
00000110: 7787 76bd f0c1 84bd e5ff 883d 3d44 b73d
00000120: 4454 133e af4f 953c 333c 0d3e 34f9 7abd
00000130: 62ca 923d 174a 463d a573 84bd 715b f53c
00000140: e2da 01bd 4db5 cdbb 50b3 903d 8178 d6bd
00000150: c811 97bd 5221 afbd 8991 373e ccf5 62bd
00000160: 0505 303e 8aa8 22be 8b79 0f3e a88e 733c
00000170: 7dc2 efbd c7c7 893d 613e a23d 2d78 01bd
00000180: aa46 073e cabc 0a3e 3c95 f4bd 61f5 f4bd
00000190: 3a74 d6bd 6a2e 8b3d 8c3b 0bbe f99f 9c3d
000001a0: 4d93 05bd f83a 083e 3839 833d 4959 8f3d
000001b0: f655 ce3d f884 19be f3fd 043e b130 e3bd
000001c0: 1789 d3bd ba81 94bc eec4 043e ba24 9f3d
000001d0: ab07 11be 3538 36be 2ff6 2b3d ddb5 053e
000001e0: 88de 91bd 8c26 99bd 1ad0 2f3e 1e23 433d
000001f0: 347d aa3d a1a6 323e 1841 2d3d 1851 a93c
00000200: 6bf9 b23d 1380 0fbd ed08 17be 7033 4ebd
00000210: 13de d9bd b2ca 03be 76b2 babd d592 19be
00000220: 1297 0bbe 9d71 ee3d 3d37 94bd 7a3f 8c3c
00000230: f6cd 673d 6464 203e 8c0c 45bd 6be7 a0bd
00000240: 5029 c53b e471 323c ae38 f6bd f8a9 d3bc
00000250: 6d48 d3bc b98c 18be b346 a43c 3a04 7a3d
00000260: 6f4d 633d 79fc 773d 6b29 19be 8062 aabd
00000270: 1163 ed3d 07c4 29be 5361 a6bb c9b9 e33d
00000280: 3d44 2a3d eadf 53bb fcce 383e ab72 e43d
00000290: 721f 783d 6f7d 32be 6d1e 8abd 1b28 51bd
000002a0: 5da1 b43d 5278 c23b 70c4 c0bc 7951 b53d
000002b0: 972b 91bd e170 15be 49e5 8e3d 697e 98bc
000002c0: 150b 953c 8613 21be dfa1 f53d 8882 25bd
000002d0: fdcf 73bd 9b9c a3bd 5224 2a3b 60a4 09be
000002e0: b5fc 99bd 31bf 703d 3c96 67bd bb1b a43d
000002f0: b2c7 24bd 4ae8 f6bd 5560 d23d e108 f8bd
00000300: 226c 2abe d8c5 82bd df23 2b3d ded5 263e
00000310: efd1 10be 8a09 1c3e 775d 5c3d 9398 aa3c
00000320: 5b2d 07be 6fd1 0a3d d82d 323d 2f0a ef3d
00000330: e007 ed3d 42c3 b63d 8423 27be 8377 b13d
00000340: 4737 233d 0b42 0bbe fcc5 203e bbf9 a2bd
00000350: 857d 9cbd 833e 92bd b01e de3c 8190 c13d
00000360: fc36 ebbd 4334 25be 95b5 b5bd d2f0 eabd
00000370: 4243 e3bd bd16 443c 4ac7 843d a66b 303e
00000380: a9fb 143e 6fd7 cabd a2c7 40be 6ac1 bb3c
00000390: 9996 ae3d 3275 0d3e a3d1 e0bd 22b7 093c
000003a0: c40a 223e ea02 a9bd b966 1abe 4ea3 16be
000003b0: c264 cc3d eedd aabc cea6 f93d c2c7 acbd
000003c0: c0b6 023c 8948 d03d 28bd 303e a6ee 093e
000003d0: ea7f 5c3d f612 653d 531a dbbb b600 393d
000003e0: 337b 3d3d bf82 d7bd 5566 fcbd 2c82 7abc
000003f0: 4667 643d 9d79 0dbe e786 bcbd 530e 22bd

weight f4 [96]
0.996364 1.0076628 0.9903245 0.9922505 1.0050408 1.0089676 0.9988187 1.0010724
1.0056316 1.0007758 1.0033079 0.99993306 0.99729484 1.0024025 0.9963763 1.0003337
0.99642617 0.992937 0.99896836 1.0000426 1.0158161 1.0065167 0.99976665 0.9867451
0.9860394 1.0140901 1.0004121 0.9985815 1.0034434 0.987846 0.99245095 0.9974879
1.0028287 1.0006026 1.0027945 0.993251 1.0013125 1.0065229 1.0025564 1.0090617
1.0183175 1.0034593 1.0158889 1.0082996 1.0140523 0.9977888 1.0069318 0.9994475
0.9975625 0.9949819 0.9673911 0.9946918 1.000076 0.9959893 1.0110524 0.9963999
0.98902994 1.0141187 1.0286732 0.9908138 1.013387 1.0116276 1.0092882 1.0011898
1.013646 0.9907672 0.9913583 0.99122435 0.9909154 1.0017681 0.9818292 1.0039977
0.99787813 1.0004236 0.9898669 1.0091695 1.0193444 1.0086545 1.0080955 1.0107291
1.0051999 0.988785 1.0187552 1.0123935 1.0010631 1.0065368 0.97508526 0.99549097
0.9966745 0.9911565 0.9935711 0.9972635 1.0038384 0.992347 1.0041102 1.0036596
00000000: b611 7f3f 18fb 803f e885 7d3f 2104 7e3f
00000010: 2da5 803f da25 813f 95b2 7f3f 2423 803f
00000020: 89b8 803f 6c19 803f 656c 803f 9dfb 7f3f
00000030: b74e 7f3f ba4e 803f 8412 7f3f ef0a 803f
00000040: c915 7f3f 1f31 7e3f 64bc 7f3f 6501 803f
00000050: 4306 823f 8ad5 803f b5f0 7f3f 549b 7c3f
00000060: 146d 7c3f b4cd 813f 810d 803f 0aa3 7f3f
00000070: d570 803f 7ae3 7c3f 4411 7e3f 5e5b 7f3f
00000080: b15c 803f bf13 803f 925b 803f b345 7e3f
00000090: 022b 803f bed5 803f c553 803f ef28 813f
000000a0: 3a58 823f 5b71 803f a608 823f f60f 813f
000000b0: 77cc 813f 166f 7f3f 24e3 803f cbdb 7f3f
000000c0: 4260 7f3f 22b7 7e3f f1a6 773f 1fa4 7e3f
000000d0: 7e02 803f 28f9 7e3f 2a6a 813f 1014 7f3f
000000e0: 1131 7d3f a4ce 813f 90ab 833f f9a5 7d3f
000000f0: aab6 813f 037d 813f 5b30 813f fd26 803f
00000100: 27bf 813f eba2 7d3f a8c9 7d3f e1c0 7d3f
00000110: a2ac 7d3f f039 803f 2959 7b3f ff82 803f
00000120: f174 7f3f e10d 803f eb67 7d3f 772c 813f
00000130: e179 823f 971b 813f 4609 813f 925f 813f
00000140: 64aa 803f 0421 7d3f 9266 823f 1c96 813f
00000150: d622 803f 33d6 803f 309f 793f 7fd8 7e3f
00000160: 0f26 7f3f 6fbc 7d3f ad5a 7e3f a94c 7f3f
00000170: c77d 803f 740a 7e3f af86 803f eb77 803f

bias f4 [96]
0.013167044 0.0005861347 0.012400787 0.008584941 -0.00585494 -0.016444908 0.011930317 0.0074763503
0.016514787 0.0017704666 -0.0070985025 -0.01682414 0.00039233416 -0.0018246066 0.004922036 0.0052864845
0.004529772 0.012583089 0.0026384566 -0.011216201 -0.0065782988 0.00022817677 0.019146541 -0.011359407
-0.01688541 -0.015593965 -0.0026734192 -0.0126907015 0.013211197 0.008351725 -0.006958837 4.827476e-05
-0.00077430485 0.001211162 0.0035113564 -0.003518899 0.023005141 0.011706556 -0.017073108 0.0068109403
-0.011665679 0.0075031943 0.010259417 0.012163453 0.0003822056 -0.016356254 -0.0056559946 -0.015942013
0.009507655 0.008288463 -0.0050460785 0.008768699 0.008604727 0.016597154 0.018666657 0.0068968437
-0.008871026 -0.01039954 -0.017175982 0.00033612648 -0.0058990577 0.007548014 0.007709125 -0.013844195
0.014185161 -0.0047982 -0.00049098156 0.015445563 -0.003037104 0.0032199838 -0.0022985148 0.0077348757
0.0054691616 -0.01953334 0.0057264506 0.011232856 -0.022684317 -0.021412084 0.011031028 -0.002817314
0.0074086846 0.016148595 -0.0027199395 -0.0013867297 -0.013747723 0.023739167 0.011274483 -0.006534248
0.00077576353 -0.00080977764 -0.0077420403 -0.008963957 0.0132098645 -0.0044689816 0.0030939088 -0.012163909
00000000: 96ba 573c d5a6 193a ac2c 4b3c daa7 0c3c
00000010: ccda bfbb 79b7 86bc 6077 433c 2cfc f43b
00000020: 054a 873c 000f e83a 8e9a e8bb c7d2 89bc
00000030: 33b2 cd39 a327 efba 0849 a13b 3f3a ad3b
00000040: 7b6e 943b 4d29 4e3c f5e9 2c3b 28c4 37bc
00000050: c58e d7bb bc42 6f39 35d9 9c3c ce1c 3abc
00000060: 4553 8abc d47d 7fbc 8834 2fbb a9ec 4fbc
00000070: c773 583c acd5 083c f506 e4bb a17a 4a38
00000080: b8fa 4aba dabf 9e3a c91e 663b 549d 66bb
00000090: 4775 bc3c dbcc 3f3c e7dc 8bbc 4f2e df3b
000000a0: 6721 3fbc 5bdd f53b 1d17 283c 3849 473c
000000b0: c462 c839 8dfd 85bc ec55 b9bb d398 82bc
000000c0: ffc5 1b3c 55cc 073c 9359 a5bb 97aa 0f3c
000000d0: d7fa 0c3c c1f6 873c d1ea 983c ebfe e13b
000000e0: c857 11bc d562 2abc a5b4 8cbc 223a b039
000000f0: e24c c1bb 5555 f73b d49c fc3b c3d2 62bc
00000100: e168 683c 383a 9dbb 37b5 00ba 630f 7d3c
00000110: 260a 47bb 5d06 533b aea2 16bb d774 fd3b
00000120: a736 b33b 6204 a0bc f3a4 bb3b 030a 383c
00000130: 76d4 b9bc 6568 afbc 7cbb 343c afa2 38bb
00000140: 8dc4 f23b 0f4a 843c 0341 32bb edc2 b5ba
00000150: 213e 61bc a478 c23c 9cb8 383c 3f1d d6bb
00000160: 9c5c 4b3a 4247 54ba f1b0 fdbb 90dd 12bc
00000170: 306e 583c 8970 92bb 2dc3 4a3b 224b 47bc

mean_scale f4 [96]
0.9876845 0.9990639 1.0126259 0.991689 0.9982748 0.98445 1.0154645 1.0081271
1.0164188 1.0016516 1.0065769 1.0172476 0.99127895 1.0019784 1.0118059 0.99427706
0.99543595 1.0130216 0.997899 0.9885727 0.99510795 1.0035993 1.0173413 1.0103254
0.98272276 1.0142009 0.99714327 0.98679245 0.98761165 0.99073297 1.0070442 1.0005808
0.9994215 1.0012228 0.9957899 0.99624836 1.0219527 1.0117657 0.9825317 0.9975905
0.98886317 0.9924512 1.010398 0.99062294 1.0006822 1.0215704 1.005844 0.9824289
1.0096645 0.9963133 0.9949606 1.0085899 1.0085646 1.0172758 1.0153817 0.9924582
0.9911311 0.9901028 1.0158656 0.99984205 1.0056565 0.99299085 0.9913592 0.98593205
0.99109393 1.0043114 1.0002381 1.0161972 1.0024537 1.0031383 0.99789035 0.99427426
0.9903367 1.0192931 1.0055588 1.0109026 0.97714597 1.0214806 0.9900286 0.99236476
1.0073924 0.9841488 0.9923518 0.99208766 0.98564136 1.0239596 1.0112641 1.0063286
1.0004617 1.0002321 0.991884 1.0090135 1.0111544 0.99681306 0.9968012 0.98733014
00000000: e4d8 7c3f a7c2 7f3f ba9d 813f 55df 7d3f
00000010: f08e 7f3f ea04 7c3f befa 813f 4f0a 813f
00000020: 031a 823f 1f36 803f 83d7 803f 2b35 823f
00000030: 75c4 7d3f d440 803f db82 813f f188 7e3f
00000040: e4d4 7e3f b1aa 813f 4f76 7f3f 1a13 7d3f
00000050: 65bf 7e3f f175 803f 3d38 823f 5852 813f
00000060: b893 7b3f 56d1 813f c844 7f3f 6e9e 7c3f
00000070: 1ed4 7c3f ada0 7d3f d3e6 803f 0813 803f
00000080: 16da 7f3f 1228 803f 16ec 7e3f 220a 7f3f
00000090: 59cf 823f 8a81 813f 3387 7b3f 1762 7f3f
000000a0: 2326 7d3f 4811 7e3f b954 813f 7799 7d3f
000000b0: 5b16 803f d2c2 823f 7fbf 803f 7680 7b3f
000000c0: b03c 813f 630e 7f3f bdb5 7e3f 7919 813f
000000d0: a518 813f 1836 823f 07f8 813f be11 7e3f
000000e0: c5ba 7d3f 6177 7d3f e207 823f a6f5 7f3f
000000f0: 5ab9 803f a634 7e3f b7c9 7d3f 0b66 7c3f
00000100: 55b8 7d3f 478d 803f cd07 803f c012 823f
00000110: 6750 803f d666 803f be75 7f3f c288 7e3f
00000120: b586 7d3f 3278 823f 27b6 803f 4265 813f
00000130: 3d26 7a3f e0bf 823f 8472 7d3f 9e0b 7e3f
00000140: 3cf2 803f 2df1 7b3f c40a 7e3f 75f9 7d3f
00000150: fe52 7c3f 1c11 833f 1a71 813f 60cf 803f
00000160: 210f 803f 9b07 803f 1cec 7d3f 5b27 813f
00000170: 826d 813f 242f 7f3f 5d2e 7f3f abc1 7c3f

bias f4 [64]
0.019965429 -0.021099476 0.0078379605 -0.003387622 0.00645401 -0.0041446965 0.0018948799 0.004766715
0.005363146 0.008102802 -0.005010397 -0.0092725335 -0.0025285133 0.016048644 -0.011363565 0.004172009
0.008366726 -0.0027950325 -0.0033048675 -0.009685614 0.0030431484 -0.010694921 4.2454074e-05 0.012307342
0.0007349658 0.00050241203 -0.0041079884 0.0037445605 -0.0009476841 -0.004185671 -0.0006284064 -0.011921903
0.01317085 -0.00051089417 -0.01081417 -0.007839677 0.00016805944 -0.0065849433 0.008299097 0.01403045
0.024751987 0.011630613 -0.007827825 0.022288164 0.0010442178 0.015252779 0.010627148 0.011560193
0.012885951 0.014406009 0.0018258905 -0.0012047316 -0.014231344 0.013095732 -0.0059698955 0.007818775
0.007878744 0.012013453 0.0051255715 0.0056715454 -0.005136438 -0.0012821949 -0.0057900436 0.010030066
00000000: 8a8e a33c cfd8 acbc ca6a 003c de02 5ebb
00000010: 297c d33b 3cd0 87bb 9e5d f83a 1b32 9c3b
00000020: 54bd af3b 9dc1 043c 422e a4bb d3eb 17bc
00000030: 6ab5 25bb 7278 833c 3f2e 3abc 59b5 883b
00000040: 9814 093c dd2c 37bb 7a96 58bb 69b0 1ebc
00000050: 8f6f 473b c039 2fbc b710 3238 bca4 493c
00000060: b8aa 403a 4db4 033a 4e9c 86bb 4d67 753b
00000070: 016e 78ba f427 89bb a4bb 24ba 1654 43bc
00000080: 8dca 573c 87ed 05ba eb2d 31bc fd71 00bc
00000090: 1d39 3039 82c6 d7bb f0f8 073c f9df 653c
000000a0: aec4 ca3c 548e 3e3c 4740 00bc ab95 b63c
000000b0: 23de 883a cbe6 793c 7d1d 2e3c f766 3d3c
000000c0: 991f 533c 2e07 6c3c b852 ef3a 16e8 9dba
000000d0: 952a 69bc 7b8f 563c 1d9f c3bb 521a 003c
000000e0: d915 013c 13d4 443c 69f4 a73b 5fd8 b93b
000000f0: 914f a8bb 520f a8ba 68ba bdbb 2555 243c

weight f4 [64, 96]
0.023572268 -0.039009016 -0.0221974 0.13096231 0.10406377 0.121762216 0.017147297 -0.01067943
0.10942455 0.031594332 0.14465964 -0.020931365 -0.14741051 0.029656684 0.15314399 0.1401768
-0.18669367 0.09158357 0.079949 0.013737809 0.12547188 -0.08600315 0.115564786 0.12031651
-0.19486137 0.09962942 -0.14937426 0.066764 0.054501824 0.0384776 0.096059084 0.0555945
-0.07029739 0.042286657 -0.09728017 -0.021704806 -0.20164672 -0.14429726 0.18423104 -0.124556124
0.116722696 -0.0032037704 0.17459437 0.022819499 0.13910402 -0.05124381 0.07348647 -0.016719436
-0.17858435 0.020981617 0.09947182 -0.1688361 0.056216598 -0.18381248 -0.058275796 0.01395862
0.098231904 -0.11479302 0.09608071 -0.085371844 0.07017296 0.07849985 0.11047602 -0.11540564
-0.15826842 -0.14854363 0.01089035 0.10573864 0.19483367 0.14504883 -0.11766205 0.033756375
-0.011790025 0.16503724 0.057561055 -0.01753286 -0.06236534 -0.010938074 -0.12784074 -0.17666677
0.043387104 0.085526675 -0.011850893 0.0053691277 -0.16483235 0.108182624 -0.14075129 -0.0029663017
-0.12626253 0.052517686 -0.08025506 0.18711883 0.10326436 0.15253857 -0.059527494 0.034823842
0.18333249 -0.11398965 -0.0032727236 -0.101108 -0.058085304 -0.18326896 -0.08800658 0.192223
-0.1445677 -0.14416857 -0.12900516 -0.078896426 -0.039528877 0.13269514 -0.09689204 -0.090303436
-0.12270987 -0.083527625 -0.056800295 -0.11488724 -0.015253733 -0.0016546103 0.0067248754 0.104877375
0.062872395 0.13117278 0.042695496 0.15518488 0.14514048 0.04278214 -0.11698403 0.14624986
-0.054362144 -0.13042706 -0.12989922 0.00330904 0.018721683 0.18389839 -0.015561501 0.09643981
-0.16797735 0.04357262 -0.099251345 -0.057118293 0.13826458 -0.18968306 -0.14121628 0.17786273
0.011295908 0.15911874 -0.114856735 0.022960033 0.03137456 -0.17310183 0.19176763 0.085786805
-0.14488359 0.19754782 -0.00964561 0.13564572 0.019871825 -0.010606189 0.06948133 0.0015916348
0.17092699 0.044894207 0.16798264 -0.031476863 0.079975784 0.081395485 0.11466482 0.16585964
-0.08292473 0.08103862 -0.1821892 -0.024357408 -0.14186683 0.1572096 -0.16230786 -0.19830887
-0.026425047 0.048203483 0.0074131167 0.0809722 0.17434002 0.12678634 0.05908537 0.079385
0.15921535 0.08634983 -0.13140635 0.037105657 0.0074033686 -0.055552825 -0.17204136 0.2002023
0.0034030387 0.14876896 0.06151094 -0.075100645 -0.00788005 0.13035974 0.056960136 0.16716003
-0.056581125 -0.18627064 -0.19489412 -0.13515702 -0.19429623 0.1717702 0.054425597 -0.13606577
-0.13861777 -0.12770534 0.17189863 0.13701329 0.05392144 0.18207629 -0.00031406363 0.024240417
-0.07866266 -0.09669083 0.096921705 -0.079400614 0.07656016 -0.021744547 0.11830016 0.14106017
0.029193232 0.029493576 -0.034109354 -0.07230008 0.13374013 0.028693818 0.0076298374 -0.054719485
0.01712475 -0.07422401 -0.16211157 0.07518963 0.15486732 -0.15225051 -0.15233424 -0.13433467
0.03803022 0.110789515 -0.15567233 -0.04648421 0.016247403 -0.17843075 0.040544953 -0.04640866
0.0006950393 -0.054039266 -0.16389988 -0.162811 -0.10756782 0.024296358 0.1793879 0.005908272
00000000: a11a c13c ebc7 1fbd 52d7 b5bc fc1a 063e
00000010: 631f d53d 785e f93d 7d78 8c3c c7f8 2ebc
00000020: fa19 e03d 0f69 013d a821 143e 4178 abbc
00000030: c8f2 16be 93f2 f23c c7d1 1c3e 828a 0f3e
00000040: a02c 3fbe 2b90 bb3d 4dbc a33d 8c14 613c
00000050: b37b 003e 6b22 b0bd 3bad ec3d 8168 f63d
00000060: bd89 47be 820a cc3d 91f5 18be 90bb 883d
00000070: 4e3d 5f3d b09a 1d3d a0ba c43d 0fb7 633d
00000080: 14f8 8fbd c634 2d3d d33a c7bd 47ce b1bc
00000090: 7a7c 4ebe a9c2 13be 10a7 3c3e 4817 ffbd
000000a0: 4f0c ef3d 59f6 51bb dec8 323e f5ef ba3c
000000b0: 4971 0e3e 08e5 51bd 1380 963d 33f7 88bc
000000c0: d1de 36be a4e1 ab3c e2b7 cb3d 5fe3 2cbe
000000d0: 6043 663d 5739 3cbe 9ab2 6ebd b2b2 643c
000000e0: cf2d c93d 9a18 ebbd f7c5 c43d 6fd7 aebd
000000f0: d7b6 8f3d 88c4 a03d 4041 e23d cb59 ecbd
00000100: 1e11 22be d21b 18be 706d 323c 808d d83d
00000110: 7a82 473e ae87 143e cdf8 f0bd 2044 0a3d
00000120: f32a 41bc 86ff 283e 24c5 6b3d 13a1 8fbc
00000130: cc72 7fbd 9c35 33bc afe8 02be 22e8 34be
00000140: adb6 313d 9c28 af3d 3f2a 42bc 82ef af3b
00000150: d0c9 28be da8e dd3d 1b21 10be 4966 42bb
00000160: f74a 01be c91c 573d c45c a4bd 149c 3f3e
00000170: 447c d33d 1233 1c3e 1ad3 73bd 72a3 0e3d
00000180: 83bb 3b3e 6873 e9bd 317b 56bb b611 cfbd
00000190: dbea 6dbd dcaa 3bbe cb3c b4bd 1bd6 443e
000001a0: 8e09 14be eda0 13be ee19 04be 7394 a1bd
000001b0: 08e9 21bd 3ce1 073e 556f c6bd 02f1 b8bd
000001c0: 504f fbbd 8810 abbd 6da7 68bd 004a ebbd
000001d0: cbea 79bc 82df d8ba 585c dc3b f3c9 d63d
000001e0: 3ec3 803d 2852 063e 79e1 2e3d c9e8 1e3e
000001f0: b59f 143e 533c 2f3d 5395 efbd 86c2 153e
00000200: d7aa 5ebd ac8e 05be 4d04 05be 7bdc 583b
00000210: 375e 993c dc4f 3c3e aaf5 7ebc 3c82 c53d
00000220: 4102 2cbe 3479 323d 4a44 cbbd dff4 69bd
00000230: 3b95 0d3e 473c 42be 009b 10be a621 363e
00000240: 7912 393c 06f0 223e 023a ebbd ae16 bc3c
00000250: 9c82 003d 9b41 31be bc5e 443e feb0 af3d
00000260: 5d5c 14be fa49 4a3e 9f08 1ebc b6e6 0a3e
00000270: 3dca a23c 95c5 2dbc 3a4c 8e3d 679e d03a
00000280: 7c07 2f3e fde2 373d a403 2c3e e2ed 00bd
00000290: 58ca a33d adb2 a63d 64d5 ea3d 1cd7 293e
000002a0: 71d4 a9bd 93f7 a53d ce8f 3abe 3089 c7bc
000002b0: 8a45 11be 8efb 203e 0834 26be 7b11 4bbe
000002c0: 5779 d8bc 0471 453d bbe9 f23b c1d4 a53d
000002d0: 3186 323e 47d4 013e 8003 723d 9a94 a23d
000002e0: 5909 233e 2ed8 b03d 638f 06be 1afc 173d
000002f0: f597 f23b 5c8b 63bd 9c2b 30be d501 4d3e
00000300: 8405 5f3b e456 183e e5f2 7b3d 5ece 99bd
00000310: 531b 01bc 067d 053e 084f 693d 002c 2b3e
00000320: 9cc1 67bd bbbd 3ebe 5392 47be 9a66 0abe
00000330: 97f5 46be 87e4 2f3e 60ed 5e3d d354 0bbe
00000340: d1f1 0dbe 30c5 02be 3206 303e 364d 0c3e
00000350: badc 5c3d 3572 3a3e e8a8 a4b9 d793 c63c
00000360: e419 a1bd d805 c6bd e37e c63d ca9c a2bd
00000370: 93cb 9c3d 9f21 b2bc 5b47 f23d 1472 103e
00000380: a526 ef3c 839c f13c 40b6 0bbd 1012 94bd
00000390: 2cf3 083e 4c0f eb3c b703 fa3b 8a21 60bd
000003a0: 3449 8c3c c202 98bd 9300 26be 05fd 993d
000003b0: 8a95 1e3e 8fe7 1bbe 82fd 1bbe 078f 09be
000003c0: 93c5 1b3d 9de5 e23d 9168 1fbe 3a66 3ebd
000003d0: 4619 853c 8db6 36be 7712 263d 0217 3ebd
000003e0: 4c33 363a 4758 5dbd 5fd5 27be edb7 26be
000003f0: 844c dcbd 2809 c73c 76b1 373e 2e9a c13b

weight f4 [64]
1.0129868 1.0126818 1.0148997 1.0082666 0.98431313 1.0096059 1.0168766 0.999519
1.0149404 0.98661536 0.99697167 1.0066134 1.0026308 1.0095621 0.9982409 0.99333376
0.9836787 0.99954885 0.99938864 0.99892145 1.0157897 1.0102955 0.9955622 0.99727136
1.013894 0.99077666 0.98480785 1.0146121 1.0179813 1.0116643 0.97897464 1.0301535
1.0057611 0.9962131 0.9912665 1.0108036 1.025708 0.9860886 1.0206449 1.0145627
1.0036505 1.0150216 0.98861665 1.0252602 0.99282104 1.00282 1.0053952 0.99391675
0.98961836 1.0055703 0.9959902 1.0034146 1.0039058 1.012192 0.9954299 1.0066448
0.9908361 1.010083 1.0114225 0.98574626 0.99831843 1.0022088 1.0155506 1.0145903
00000000: 8da9 813f 8f9f 813f 3ce8 813f e10e 813f
00000010: f2fb 7b3f c43a 813f 0329 823f 7ae0 7f3f
00000020: 91e9 813f d392 7c3f 8939 7f3f b5d8 803f
00000030: 3556 803f 5539 813f b78c 7f3f 1f4b 7e3f
00000040: 5ed2 7b3f 6fe2 7f3f efd7 7f3f 51b9 7f3f
00000050: 6605 823f 5d51 813f 2add 7e3f 2d4d 7f3f
00000060: 47c7 813f 8aa3 7d3f 5e1c 7c3f cfde 813f
00000070: 364d 823f 377e 813f 159e 7a3f 12dc 833f
00000080: c8bc 803f d207 7f3f a4c3 7d3f 0362 813f
00000090: 664a 833f 4d70 7c3f 7ea4 823f 31dd 813f
000000a0: 9f77 803f 3aec 813f fb15 7d3f ba3b 833f
000000b0: 8529 7e3f 685c 803f cab0 803f 5471 7e3f
000000c0: a157 7d3f 87b6 803f 37f9 7e3f e46f 803f
000000d0: fc7f 803f 828f 813f 7ed4 7e3f bdd9 803f
000000e0: 6fa7 7d3f 664a 813f 4b76 813f de59 7c3f
000000f0: cc91 7f3f 6148 803f 90fd 813f 18de 813f

bias f4 [64]
0.018280497 -0.00085182267 0.0057740468 -0.00019754627 -0.006316573 -0.014612295 0.0022639632 -0.011426675
-0.0057999347 0.012022209 -0.006111887 0.009944996 -0.009791301 0.012245265 0.005491227 0.0040272553
0.0056676483 -0.0020798973 0.0031846128 0.0068653347 0.012989592 0.012222393 -0.0011899582 0.004641141
0.0022510027 0.006223272 0.0016527969 0.0015776827 0.0033440955 0.018954877 -0.0070438753 0.02113328
0.009699583 0.0056142677 -0.0027336392 -0.013407013 0.0061698174 0.010182899 -0.01897708 0.017308181
0.019147258 0.017560137 -0.0052683027 0.0257014 0.0077608204 -0.019229764 -0.0027905745 -0.006113098
0.014531585 -0.015536901 -0.005476122 -0.008606078 -0.004412303 0.025377395 -0.00936402 -0.00862283
0.023127139 0.010779454 -0.013529462 0.00850568 0.007935388 -0.009210756 -0.009497696 0.0049220566
00000000: fbc0 953c da4c 5fba 3734 bd3b 6c24 4fb9
00000010: 41fb cebb 6868 6fbc 005f 143b f336 3bbc
00000020: 610d bebb cdf8 443c 3946 c8bb 56f0 223c
00000030: b16b 20bc 5da0 483c c0ef b33b 11f7 833b
00000040: aeb7 b93b e34e 08bb f0b4 503b 9af6 e03b
00000050: 4cd2 543c 6f40 483c 5ff8 9bba b614 983b
00000060: 8f85 133b 97ec cb3b a9a2 d83a 3fca ce3a
00000070: 9d28 5b3b 4247 9b3c 4fd0 e6bb b31f ad3c
00000080: 00eb 1e3c e4f7 b73b db26 33bb 17a9 5bbc
00000090: 2e2c ca3b 2dd6 263c d275 9bbc e3c9 8d3c
000000a0: b6da 9c3c 47da 8f3c baa1 acbb be8b d23c
000000b0: 7b4e fe3b bd87 9dbc 12e2 36bb 6250 c8bb
000000c0: e315 6e3c 7c8e 7ebc 0a71 b3bb 8200 0dbc
000000d0: 1595 90bb 41e4 cf3c 8c6b 19bc c546 0dbc
000000e0: 2075 bd3c 4f9c 303c adaa 5dbc 685b 0b3c
000000f0: 6e03 023c b6e8 16bc 399c 1bbc 3449 a13b

mean_scale f4 [64]
0.9855816 0.9916404 0.99419457 1.0307777 0.99904805 0.99012375 0.9911228 0.99764806
0.9976875 0.999596 0.9920504 0.9861227 1.0096601 0.9869819 1.0046674 1.0104536
0.98915476 0.9950751 0.9993333 0.99528587 1.0095843 1.0230551 1.0099032 1.0030892
0.9952935 0.9899953 1.0028949 0.99186605 0.98401177 0.9960982 1.0005171 1.0089566
0.98200107 1.0122715 0.9960856 0.98510045 1.0002027 1.0078746 0.99525905 0.98918116
1.0017098 0.9775972 0.9855169 0.97903574 0.99709547 0.9982006 0.9996454 1.0048473
0.99611825 1.0128495 0.9958754 0.99933535 0.9947994 0.98665106 0.99999064 0.99707884
0.9837368 0.9837642 1.0120996 1.003332 1.000327 1.0008134 0.9904897 0.9977374
00000000: 134f 7c3f 25dc 7d3f 8983 7e3f 86f0 833f
00000010: 9dc1 7f3f c078 7d3f 39ba 7d3f dd65 7f3f
00000020: 7368 7f3f 86e5 7f3f 04f7 7d3f 8a72 7c3f
00000030: 8b3c 813f d9aa 7c3f f198 803f 8b56 813f
00000040: 3f39 7d3f 3ebd 7e3f 4fd4 7f3f 0ecb 7e3f
00000050: 0f3a 813f 78f3 823f 8244 813f 3a65 803f
00000060: 8ecb 7e3f 5570 7d3f dc5e 803f efea 7d3f
00000070: 32e8 7b3f 4b00 7f3f f210 803f 7d25 813f
00000080: 6c64 7b3f 1d92 813f 77ff 7e3f 8b2f 7c3f
00000090: a406 803f 0902 813f 4cc9 7e3f fa3a 7d3f
000000a0: 0738 803f cf43 7a3f d64a 7c3f 16a2 7a3f
000000b0: a641 7f3f 138a 7f3f c3e8 7f3f d69e 803f
000000c0: 9b01 7f3f 0da5 813f b1f1 7e3f 71d4 7f3f
000000d0: 2cab 7e3f 2a95 7c3f 63ff 7f3f 8f40 7f3f
000000e0: 2dd6 7b3f f8d7 7b3f 7b8c 813f 2f6d 803f
000000f0: b70a 803f a71a 803f bc90 7d3f b86b 7f3f

bias f4 [64]
0.03654854 0.017398437 0.021000834 0.0017643959 -0.00046682273 -0.00769593 0.021853 0.016749915
0.00017509556 0.015732473 0.014941143 0.0072656814 0.003927801 -0.005968591 0.025292518 0.013266053
-0.004778927 8.462867e-05 0.01756102 -0.032225735 0.007622535 -0.01643401 0.010470569 -0.015701763
-0.0013474879 -0.02507974 0.0076995385 0.009898408 -0.010649434 0.016587758 -1.4934537e-05 0.016335841
0.0074871257 0.011822564 -0.0019944643 -0.0051058293 0.034191754 -0.005097658 -0.006041883 -0.025752066
-0.027769849 0.0041215834 0.011018431 0.03928691 0.011307489 -0.002572211 0.04717641 -0.012546224
0.011830194 0.006513432 0.003155501 0.035924762 -0.015930183 0.020666849 -0.031543776 -0.0041529806
0.00083917956 0.006582214 -0.0129393665 -0.0032913687 -0.017609106 0.020126002 -0.0040714056 7.105175e-05
00000000: ecb3 153d 2b87 8e3c f109 ac3c 4d43 e73a
00000010: e3bf f4b9 242e fcbb 1005 b33c 1e37 893c
00000020: db99 3739 63e1 803c b2cb 743c f414 ee3b
00000030: c8b4 803b 2c94 c3bb 4132 cf3c dc59 593c
00000040: 8c98 9cbb ac7a b138 21dc 8f3c 22ff 03bd
00000050: 75c6 f93b 9ea0 86bc c08c 2b3c fca0 80bc
00000060: 319e b0ba 0774 cdbc 694c fc3b ef2c 223c
00000070: f77a 2ebc 0de3 873c 598f 7ab7 bed2 853c
00000080: 9056 f53b 6db3 413c 8fb5 02bb cd4e a7bb
00000090: a70c 0c3d 410a a7bb fdfa c5bb fff5 d2bc
000000a0: 987d e3bc 590e 873b a686 343c 50eb 203d
000000b0: 0c43 393c 8a92 28bb 0d3c 413d ad8e 4dbc
000000c0: 6ed3 413c a16e d53b 86cc 4e3b d825 133d
000000d0: 0480 82bc 864d a93c 0c34 01bd ba15 88bb
000000e0: 63fc 5b3a 9daf d73b a3ff 53bc 01b4 57bb
000000f0: f940 90bc 49df a43c 6d69 85bb 9e01 9538

weight f4 [64, 64]
-0.13485825 0.14054067 0.20167425 0.13969295 0.20893428 0.16086903 0.13771994 0.16852732
0.06296988 -0.068380415 -0.12511005 0.14489308 -0.0061373995 0.14666113 0.054274637 0.015322623
0.109041385 -0.19987811 0.1730663 0.10527956 -0.06052983 0.08619394 0.11703556 0.051703528
0.15951417 0.06289195 -0.035734925 0.06969683 0.17381066 -0.1502916 0.029745905 0.16152963
0.0025448292 -0.09568127 0.15739928 0.17095721 0.05350299 0.14451584 -0.083049364 0.1380005
-0.05738995 0.08282442 -0.18562496 0.09420445 -0.21706721 0.13635595 0.04750472 0.18422014
0.19442938 0.08803501 0.002071317 0.08197214 -0.05347491 -0.11767177 0.085986614 -0.11386775
-0.06441096 0.20781471 -0.14811212 0.03327786 -0.12851977 0.11831429 0.13020019 -0.13310644
0.12349906 0.21403801 0.039548207 0.040628158 0.008319862 -0.15964375 -0.016468909 -0.016423812
0.1438643 0.07050217 -0.17352097 0.03204243 -0.09000057 0.10092009 -0.22518995 0.14991218
0.12192519 -0.20102412 0.02275192 0.095457174 0.07586895 -0.059727374 -0.04096377 -0.08249625
-0.17171746 -0.10144189 -0.025013538 0.024227036 0.16045752 0.21306278 0.12544693 0.09846394
-0.21601224 -0.1485113 0.16863587 -0.03968929 -0.06691459 0.118246384 0.038737755 -0.007454212
0.01530363 0.05284422 0.061115753 0.08890687 0.15877794 -0.12175567 0.024831168 -0.034842443
-0.1860697 -0.17897646 0.14076328 -0.08032093 -0.053493436 0.0021971818 -0.071646616 -0.1044219
-0.0773201 -0.12998687 0.08656194 -0.12292077 0.01054953 0.04318214 -0.13433619 -0.19089861
-0.20442718 0.13143241 -0.023005662 0.18717574 -0.10082722 0.13345915 0.022011591 -0.024156692
0.15003093 0.18354772 -0.13945524 0.00028573663 0.18542877 0.046762522 -0.17118552 0.10299427
-0.07715584 -0.16060737 -0.084843434 0.05256692 0.11317261 -0.08048214 -0.042003166 -0.114012785
0.14787047 0.051669423 -0.030964104 0.20702717 -0.021613428 0.14030524 0.045028456 -0.19143829
-0.07683111 -0.035660215 0.17406167 0.056709275 0.18986401 0.13220905 -0.12610206 -0.18746547
0.10173366 -0.16580246 -0.23563178 -0.046940263 -0.10653446 -0.19055705 -0.08383453 -0.0068619703
-0.0059167696 0.14535357 0.06025792 0.20662823 0.12919025 0.08333842 -0.040466607 0.1837345
0.030809984 0.03477303 -0.002798318 0.15456563 0.15012196 0.09928716 -0.071298175 0.1434363
0.08668347 0.124633424 0.20060208 -0.19005659 -0.02721274 -0.151646 0.20945555 0.046915047
-0.10213884 -0.17024301 0.027219642 -0.14960392 0.18428256 0.029384546 -0.021571266 0.1193302
0.11259301 0.14888415 0.19748916 -0.04973541 -0.034323327 -0.12992333 0.08134696 0.013591127
-0.059106976 -0.0861384 -0.19309698 0.16988574 -0.1368377 0.12807626 -0.19104992 0.12797834
0.17934658 -0.02839839 -0.13200171 0.022551646 -0.11239751 0.03132223 -0.20039217 -0.18049914
0.12561503 -0.16981111 0.22305375 -0.13469565 -0.18166591 0.11283974 0.111913964 -0.15246403
0.008405227 -0.19215733 -0.18679613 -0.013916016 -0.0680892 -0.12262257 0.037267078 -0.03804739
-0.0466387 0.18741877 -0.1400679 -0.074793145 0.12398944 -0.06420888 -0.034251407 0.037913173
00000000: 4818 0abe e5e9 0f3e b283 4e3e ab0b 0f3e
00000010: def2 553e daba 243e 7506 0d3e 6d92 2c3e
00000020: 5af6 803d 080b 8cbd d91c 00be da5e 143e
00000030: 3d1c c9bb 562e 163e 154f 5e3d bd0b 7b3c
00000040: 1751 df3d d9ac 4cbe 4b38 313e cf9c d73d
00000050: 21ee 77bd 7386 b03d 57b0 ef3d 14c7 533d
00000060: af57 233e 7fcd 803d c95e 12bd 36bd 8e3d
00000070: 6cfb 313e 0be6 19be afad f33c 0668 253e
00000080: 26c7 263b 8bf4 c3bd 472d 213e 680f 2f3e
00000090: f425 5b3d f6fb 133e c915 aabd 0150 0d3e
000000a0: b911 6bbd d99f a93d 7814 3ebe 43ee c03d
000000b0: de46 5ebe e5a0 0b3e 4f94 423d 34a4 3c3e
000000c0: 7f18 473e b34b b43d efbe 073b 02e1 a73d
000000d0: 8208 5bbd e6fd f0bd c019 b03d 7f33 e9bd
000000e0: e5e9 83bd 61cd 543e b4aa 17be 5e4e 083d
000000f0: b09a 03be c34e f23d 3353 053e 0e4d 08be
00000100: 13ed fc3d c82c 5b3e 4dfd 213d b669 263d
00000110: 0850 083c a779 23be cee9 86bc 3b8b 86bc
00000120: 2a51 133e 7163 903d 7baf 31be ec3e 033d
00000130: 3852 b8bd 31af ce3d 3298 66be 9482 193e
00000140: eab3 f93d 44d9 4dbe 3c62 ba3c 0d7f c33d
00000150: 2e61 9b3d b1a4 74bd a0c9 27bd cbf3 a8bd
00000160: b4d6 2fbe c4c0 cfbd 31e9 ccbc c777 c63c
00000170: fa4e 243e 212d 5a3e 2975 003e 76a7 c93d
00000180: 5032 5dbe 5913 18be e2ae 2c3e 3d91 22bd
00000190: 840a 89bd 292b f23d 7bab 1e3d 7642 f4bb
000001a0: 14bc 7a3c 2e73 583d 8354 7a3d ce14 b63d
000001b0: af96 223e 095b f9bd bc6a cb3c f3b6 0ebd
000001c0: 0e89 3ebe 9b45 37be 4024 103e 4d7f a4bd
000001d0: ef1b 5bbd 98fe 0f3b 76bb 92bd 26db d5bd
000001e0: 005a 9ebd 471b 05be 6347 b13d e2bd fbbd
000001f0: f0d7 2c3c c1df 303d 6d8f 09be ed7a 43be
00000200: 5c55 51be 3896 063e 5f76 bcbc ffaa 3f3e
00000210: 807e cebd 84a9 083e a751 b43c 41e4 c5bc
00000220: b5a1 193e eff3 3b3e 5bcd 0ebe ecce 9539
00000230: 0ae1 3d3e 0f8a 3f3d 424b 2fbe a9ee d23d
00000240: e203 9ebd 4276 24be 65c2 adbd 6950 573d
00000250: 0bc7 e73d d2d3 a4bd 830b 2cbd 897f e9bd
00000260: 5b6b 173e 51a3 533d 6fa8 fdbc eefe 533e
00000270: a50e b1bc 2dac 0f3e c26f 383d 6608 44be
00000280: a159 9dbd 7210 12bd 393d 323e fc47 683d
00000290: b66b 423e cf61 073e e620 01be f3f6 3fbe
000002a0: bd59 d03d 1fc8 29be 7549 71be 6f44 40bd
000002b0: bd2e dabd 6321 43be 70b1 abbd 61da e0bb
000002c0: 76e1 c1bb 91d7 143e 02d1 763d 5a96 533e
000002d0: 734a 043e 55ad aa3d 50c0 25bd e624 3c3e
000002e0: 3865 fc3c 2a6e 0e3d fc63 37bb 7446 1e3e
000002f0: 92b9 193e 1157 cb3d c704 92bd f7e0 123e
00000300: 1a87 b13d cf3f ff3d a26a 4d3e 329e 42be
00000310: 41ed debc 1749 1bbe 847b 563e fe29 403d
00000320: 2b2e d1bd 2f54 2ebe bafb de3c c531 19be
00000330: 91b4 3c3e dcb7 f03c 39b6 b0bc 6463 f43d
00000340: 2a97 e63d 1675 183e 993a 4a3e 5bb7 4bbd
00000350: 9e96 0cbd 9f0a 05be 3c99 a63d 51ad 5e3c
00000360: 281a 72bd 5469 b0bd 37bb 45be 87f6 2d3e
00000370: 2f1f 0cbe 6c26 033e 97a2 43be c10c 033e
00000380: a1a6 373e bea3 e8bc 752b 07be 3bbe b83c
00000390: aa30 e6bd bd4b 003d 9b33 4dbe c4d4 38be
000003a0: 3aa1 003e f7e2 2dbe 3468 643e a8ed 09be
000003b0: a106 3abe 8618 e73d 2633 e53d 881f 1cbe
000003c0: 14b6 093c e4c4 44be 7c47 3fbe 0000 64bc
000003d0: 5a72 8bbd 8b21 fbbd 5da5 183d 94d7 1bbd
000003e0: 3908 3fbd b5ea 3f3e f66d 0fbe 262d 99bd
000003f0: 2dee fd3d f27f 83bd 344b 0cbd d84a 1b3d

weight f4 [64]
1.0246329 0.9872974 1.0056828 1.0151566 1.0009605 0.98909247 1.0168377 1.0260524
0.99822026 1.0086195 1.0268892 1.013946 0.99698126 1.0004194 1.0067985 0.9930122
0.98610914 1.0123273 1.0148484 0.9753319 0.9989556 0.98321074 0.99293894 0.9905168
0.98053706 0.9939222 0.9756511 1.0108435 0.99178183 1.0008631 0.9908932 1.0188968
0.97524226 1.022236 0.9961016 1.0060464 1.0278461 1.0258143 0.98109543 0.99864185
1.0192124 1.0309671 1.0035369 1.0412424 0.99154717 1.0152642 1.0235773 1.0086176
0.9917743 1.0167779 0.9906113 1.037241 0.9829905 1.0110717 1.0156938 0.9878356
0.9937899 0.98323107 1.0041374 0.9930248 1.0002931 1.0025282 0.9788054 0.98615277
00000000: 2c27 833f 86bf 7c3f 37ba 803f a7f0 813f
00000010: 791f 803f 2a35 7d3f bd27 823f af55 833f
00000020: 5d8b 7f3f 721a 813f 1b71 833f fcc8 813f
00000030: 2a3a 7f3f be0d 803f c6de 803f 0c36 7e3f
00000040: a671 7c3f f193 813f 8de6 813f 5aaf 793f
00000050: 8ebb 7f3f b3b3 7b3f 3f31 7e3f 8292 7d3f
00000060: 7a04 7b3f af71 7e3f 45c4 793f 5263 813f
00000070: 6ae5 7d3f 481c 803f 2dab 7d3f 366b 823f
00000080: 7aa9 793f a1d8 823f 8400 7f3f 21c6 803f
00000090: 7690 833f e24d 833f 1229 7b3f fea6 7f3f
000000a0: 8d75 823f bbf6 833f e673 803f 6e47 853f
000000b0: 09d6 7d3f 2df4 813f 9504 833f 621a 813f
000000c0: ece4 7d3f c725 823f b498 7d3f 50c4 843f
000000d0: 44a5 7b3f cc6a 813f 4102 823f cbe2 7c3f
000000e0: 0469 7e3f 08b5 7b3f 9387 803f e036 7e3f
000000f0: 9b09 803f d852 803f fe92 7a3f 8274 7c3f

bias f4 [64]
0.03882054 -0.0005802876 0.023854882 0.0053830794 0.006183675 -0.018219188 0.030341195 0.024880584
0.00054076477 0.02083249 0.018525602 0.009746623 -0.002149473 0.01454008 0.02606995 -0.017275307
0.0008213962 0.005238348 0.026158348 -0.03291253 0.008190432 0.0029279497 0.0064228885 0.00095052854
0.0003232475 0.027992517 -0.016942905 0.014970845 0.013398095 0.020839581 0.00076325715 0.02286583
-0.018988479 0.017033562 0.006116878 -0.0013889606 0.035479326 0.011140965 -0.019670444 0.018464083
0.030280087 0.007157834 0.014570908 0.042131335 -0.006543317 0.011897695 0.048437715 0.0062344987
0.004981744 0.019414973 0.008096027 0.03836944 0.00445092 0.023784723 0.033730626 0.0021286667
-0.0038612597 -0.008851199 0.003067778 0.0040132063 0.023122497 0.023652319 -0.002692226 0.010545305
00000000: 4902 1f3d 711e 18ba 506b c33c 8b64 b03b
00000010: 6da0 ca3b 6840 95bc 198e f83c 5ed2 cb3c
00000020: 1cc2 0d3a e6a8 aa3c 01c3 973c 4db0 1f3c
00000030: 2cde 0cbb 8439 6e3c a690 d53c f284 8dbc
00000040: f752 573a 73a6 ab3b 084a d63c 4acf 06bd
00000050: 2931 063c d8e2 3f3b 1877 d23b e42c 793a
00000060: 8c79 a939 9050 e53c d9cb 8abc 4648 753c
00000070: af83 5b3c c5b7 aa3c 5215 483a 1f51 bb3c
00000080: ba8d 9bbc f889 8b3c 1770 c83b c90d b6ba
00000090: c552 113d 9888 363c e923 a1bc fd41 973c
000000a0: f20d f83c 438c ea3b d1ba 6e3c e891 2c3d
000000b0: 5269 d6bb 8dee 423c a066 463d c44a cc3b
000000c0: e63d a33b 260c 9f3c 33a5 043c 4629 1d3d
000000d0: 06d9 913b 2ed8 c23c 2029 0a3d 1a81 0b3b
000000e0: 300d 7dbb 9f04 11bc c60c 493b 3781 833b
000000f0: 646b bd3c 82c2 c13c 0f70 30bb 37c6 2c3c

mean_scale f4 [64]
0.96099204 1.0037485 0.97626513 1.0056252 0.9937523 0.982026 0.9699389 0.97563684
1.0026411 0.9787895 0.9821495 1.0102745 0.9979318 0.98614323 0.9736642 1.018018
1.0000187 0.99440956 0.9738186 0.96528137 1.0059233 0.99705225 0.98178196 0.9989076
0.995768 1.0284292 1.0169096 0.9849471 1.0140848 0.97976017 0.99125725 0.9769401
1.0051742 0.9829157 1.0061581 1.0142674 0.96467704 1.0114585 0.98025817 1.0233728
1.0302877 0.99127054 0.9851371 0.9580968 1.0048609 0.98792994 0.951077 0.99352664
1.0048462 0.9806288 0.9917008 0.96198386 0.9955801 0.9776127 1.0336605 0.99818397
0.9959667 0.9916051 0.99702877 0.99603915 1.0234615 0.97547865 1.0026604 1.0101929
00000000: 9303 763f d57a 803f 83ec 793f 54b8 803f
00000010: 8d66 7e3f 0e66 7b3f ea4d 783f 56c3 793f
00000020: 8b56 803f f391 7a3f 266e 7b3f ad50 813f
00000030: 7578 7f3f e273 7c3f 0f42 793f 6a4e 823f
00000040: 9d00 803f a091 7e3f 2d4c 793f ae1c 773f
00000050: 18c2 803f d13e 7f3f 1056 7b3f 69b8 7f3f
00000060: a7ea 7e3f 91a3 833f 182a 823f 7e25 7c3f
00000070: 88cd 813f 90d1 7a3f 09c3 7d3f bf18 7a3f
00000080: 8ca9 803f 5da0 7b3f cac9 803f 84d3 813f
00000090: 13f5 763f 7977 813f 33f2 7a3f e1fd 823f
000000a0: 78e0 833f e8c3 7d3f f231 7c3f d545 753f
000000b0: 489f 803f fae8 7c3f c879 733f c357 7e3f
000000c0: cd9e 803f 7d0a 7b3f 1be0 7d3f 9344 763f
000000d0: 56de 7e3f d344 7a3f fd4e 843f fc88 7f3f
000000e0: acf7 7e3f d5d9 7d3f 473d 7f3f 6cfc 7e3f
000000f0: c900 833f f8b8 793f 2d57 803f 004e 813f
