15_15_1_99.pth (torch, 92901 bytes, 30 tensors)

feature_extract.mlps.0.linears.0.weight f4 [64, 2]
000000 0e d5 9b be d1 24 d5 3e 46 b9 00 3f 05 76 70 be
       -0.30435985 0.4162965 0.50282705 -0.23482521
000010 97 56 8b 3d fd e6 db be 3a bb 08 bf 93 b1 b2 3e
       0.06803625 -0.42949668 -0.53410685 0.34901103
000020 eb bf 01 3f ac 54 ca bc f7 c0 31 bf 03 c0 4b be
       0.5068347 -0.024698578 -0.69435066 -0.19897465
000030 83 8b d8 be de bf 44 be 28 a1 54 be af 34 15 bf
       -0.4229394 -0.19213817 -0.20764601 -0.58283514
000040 e2 7b c4 be c7 b9 92 3e fd 47 b8 be 14 e0 a8 be
       -0.38375765 0.28657362 -0.35992423 -0.32983458
000050 9c b7 cb be 88 5f 0d 3f 14 a3 a0 be 0a fe 5c be
       -0.3978852 0.55223894 -0.3137442 -0.21581283
000060 47 6f 0c be 07 e6 2a 3f 29 70 d3 be d4 fa 7d 3e
       -0.13714324 0.66757244 -0.4129651 0.24802715
000070 fd cc 1b 3f 26 2c 16 3e 0d 6f 34 3f fe 50 b0 be
       0.6085966 0.14665279 0.7048195 -0.34436792
000080 a5 1b 0a 3f 17 db 1e bf fd 5d c9 3e a2 59 05 bf
       0.5394843 -0.62053055 0.3932952 -0.52089894
000090 07 ad 0e bf f4 2f ff 3d b3 1d 02 bc 85 67 65 3e
       -0.5573277 0.12460318 -0.007941651 0.22402771
0000a0 4c f0 88 3c b2 69 56 3c 26 f8 b2 be 4e 0b 63 3e
       0.016716145 0.013086723 -0.34954947 0.22172281
0000b0 6d 10 5b be 1f 60 12 3e 2d 8d b9 3c b3 3d 27 bd
       -0.21392985 0.1429448 0.022650326 -0.040830325
0000c0 57 c2 a0 be 9d 45 01 3f 99 fb 21 bf cd e8 87 bc
       -0.3139827 0.50496846 -0.6327453 -0.0165905
0000d0 ea c3 c4 3e 09 38 33 be 91 4d f3 3e 69 fc f7 be
       0.3843072 -0.17501844 0.47520116 -0.4843476
0000e0 a1 d7 1a bf a7 46 a8 be dc 44 04 bf 64 18 d6 bc
       -0.60485274 -0.32866403 -0.5166757 -0.026134677
0000f0 6f 00 94 be be b2 62 3e 24 d3 dc 3e fd c4 05 3e
       -0.2890658 0.22138497 0.43129838 0.13063426
000100 1c 18 9a bc b4 a1 88 be 0c c9 b8 be 4b d4 0d 3f
       -0.018810324 -0.2668587 -0.36090887 0.5540206
000110 39 52 03 3f 41 c8 b6 3e f4 f4 a2 be 08 d7 85 be
       0.51297337 0.35699657 -0.3182751 -0.26140618
000120 83 ef a1 3d e7 60 4e 3d f1 e3 44 bd 36 dd db be
       0.07907011 0.050385382 -0.048068944 -0.42942208
000130 4a b9 f3 be 73 92 ba 3e ca 56 cb 3e 83 12 11 3f
       -0.47602302 0.36439857 0.39714652 0.5666887
000140 c6 72 29 3f 48 d1 25 be 4f bc 69 bd 94 14 f2 3c
       0.66190755 -0.16193116 -0.05706435 0.029550828
000150 43 11 16 3e 07 8b 0f 3e 92 88 03 3d df 30 aa be
       0.14655022 0.14017878 0.032112665 -0.3324041
000160 f3 e7 38 bc 8c c9 c2 3e ee fb a7 3e 73 7d 22 3f
       -0.01128577 0.38044393 0.32809395 0.6347267
000170 45 70 a3 3e bd 71 2c bf b5 28 97 3e d4 fc 0c bf
       0.31921592 -0.6736105 0.29523245 -0.55073285
000180 63 d1 0c 3f 91 1f 0f bf 4c 62 0d bf 31 5f 2a 3e
       0.55007 -0.5590754 -0.55228114 0.16637875
000190 58 df 0a 3e 31 88 02 3f 96 26 f0 be 42 95 0b 3f
       0.13561761 0.5098906 -0.4690444 0.54524624
0001a0 57 72 f9 3d 1d 63 fb bd 73 49 02 bf cd 0d ab 3e
       0.12180012 -0.12274764 -0.50893325 0.33408967
0001b0 84 48 bc 3d 59 f5 0e 3f 3b 57 d0 be 1b 00 1a 3f
       0.09193519 0.5584312 -0.40691552 0.6015641
0001c0 1b a8 f5 be 9b 71 d2 be 95 29 c7 3e 96 3e c4 bd
       -0.47979817 -0.411023 0.38898912 -0.0958225
0001d0 a9 29 dd be 54 8b 4d bd 58 fb 2f 3f 96 1b 14 bd
       -0.43195847 -0.0501817 0.68742895 -0.03615912
0001e0 21 d3 77 3e c4 72 2a be 0e 66 28 3e 69 bf 2f 3f
       0.24201633 -0.16645342 0.16445181 0.68651444
0001f0 0e aa af 3e 9b d9 fb be 21 b4 d6 be a7 af d6 bd
       0.3430943 -0.49189457 -0.41934302 -0.10482722

feature_extract.mlps.0.linears.0.bias f4 [64]
000000 7a d5 a3 3e fe d6 c7 be 48 e2 44 bd cb fe b1 3e
       0.31998807 -0.39031214 -0.04806736 0.34764704
000010 0a 7a b1 be 9c e1 c4 be fd f6 4b 3c ec 48 14 bf
       -0.3466342 -0.38453376 0.012449023 -0.5792377
000020 f3 6f 96 3e e4 fb 47 be 23 41 10 3f b5 7c 5b 3d
       0.29382285 -0.19529682 0.5634939 0.053585727
000030 78 b4 ad 3e cd 4c f8 bd c0 86 81 be a1 ff 9b be
       0.3392675 -0.121240236 -0.2529812 -0.30468467
000040 df e0 af 3e f6 9f 24 3f ed 88 82 3e 00 54 27 be
       0.3435125 0.6430658 0.2549509 -0.16340637
000050 f3 02 bc 3e a5 1f 09 bf ca f9 1b bf a2 18 6d be
       0.36721 -0.5356391 -0.6092802 -0.23153928
000060 18 b7 a0 3e 44 17 99 bd 96 e5 f9 be 32 02 16 bf
       0.3138969 -0.07475141 -0.48807973 -0.585971
000070 3c 5c b4 3e 35 2d bb be 99 3a 92 be b4 9c 21 3f
       0.3522662 -0.36557928 -0.2856033 0.63129735
000080 9d e0 d2 3d 7c be d3 be 9d b2 67 3d 57 c3 c6 3e
       0.10296748 -0.41356266 0.056566823 0.38820907
000090 53 33 a9 be 31 d0 e1 be 1b 85 29 bf b7 91 19 bf
       -0.3304697 -0.4410415 -0.6621873 -0.5998797
0000a0 6d cd 06 bf c3 ab bb 3e aa eb 81 3d e3 eb 5d 3e
       -0.52657205 0.3665448 0.063437775 0.21672015
0000b0 1a 7a ce 3e 23 6f 23 3f b3 bc 41 be fb 98 21 3f
       0.4032753 0.63841456 -0.1891964 0.63124055
0000c0 e3 1e e5 3d df c8 10 3f d9 e4 28 bf e7 aa 9e be
       0.11187532 0.56556505 -0.65974194 -0.30989763
0000d0 22 30 88 be f9 02 04 3f 51 06 d6 3e 8c 86 32 bf
       -0.26599222 0.51567036 0.41801694 -0.6973655
0000e0 38 32 cc be 9b a4 0c bf 3b 2d 32 bf 85 03 28 bf
       -0.39882064 -0.5493867 -0.69600266 -0.6563037
0000f0 ec b8 ac 3e 77 54 7e 3e 21 fc 60 bd 91 52 04 bd
       0.33734834 0.24836908 -0.05492795 -0.032305304

feature_extract.mlps.0.linears.1.weight f4 [64, 64]
000000 a5 23 8b bd 76 00 82 3d 17 76 d5 bd 84 a9 bf bd
       -0.06793908 0.06347744 -0.104229145 -0.093585044
000010 3d 54 d7 bd a1 bf 5d bd 53 a5 c6 bd 27 6c aa 3d
       -0.10514114 -0.05413783 -0.09699502 0.0832141
000020 09 82 f7 bd 0e 82 65 3c ff ba d1 3c ac fd 2e 3b
       -0.12085349 0.014008058 0.025601862 0.0026701493
000030 51 b9 68 3d 2e e1 f0 3d d8 25 81 3d 4a 00 ee 3c
       0.056817356 0.117616996 0.06306046 0.029052872
000040 5c a7 48 bd 84 09 3f bc 74 2a f4 3d 91 56 33 3d
       -0.04898773 -0.011659984 0.1192216 0.043783728
000050 a4 f9 18 bd d9 da 64 bc 92 8f df bd 37 fe c0 bd
       -0.03734745 -0.013968193 -0.10916056 -0.09423488
000060 67 1d 95 3d 1e 1a 93 3c 26 2f b9 3d 36 07 9f 3d
       0.07280999 0.01795679 0.09042196 0.07765047
000070 2f 93 89 bc c1 d3 de 3d b9 15 1c 3d bd 85 b5 3d
       -0.016793815 0.108802326 0.038106654 0.08863399
000080 de 98 ab 3d 5b e4 e8 3d be 71 ad bd dc 62 7b bc
       0.083787665 0.1137168 -0.0846896 -0.015343394
000090 46 7b 81 3d b4 d9 d8 bd c8 cd c9 3c 3f ef e1 bd
       0.06322341 -0.105883986 0.024634257 -0.11031961
0000a0 51 f3 75 bd 59 0c 4d bd 51 84 84 bd 3e 99 19 3d
       -0.060046498 -0.050060604 -0.0647055 0.03749966
0000b0 be 19 c7 3d ce 43 e4 bd 89 7b b7 3d 86 28 28 bd
       0.09721707 -0.11145745 0.08959109 -0.04105427
0000c0 26 10 50 bc a6 92 9b bc 0e 91 ec bc 9b 2f b8 bb
       -0.012699163 -0.018990826 -0.028877761 -0.0056209094
0000d0 e1 29 11 bd f3 a4 aa bd a0 cb a4 3a 34 77 5e 3d
       -0.03544033 -0.08332243 0.0012572892 0.0543129
0000e0 4d 95 cf 3c c4 eb 83 3d 5c 65 09 bd e1 d0 0a 3c
       0.025339747 0.06441453 -0.03354393 0.008472652
0000f0 ee 8e a4 3d 02 a4 e9 3d 29 84 ef bd ce 92 c3 3d
       0.08035074 0.11408235 -0.116951294 0.09549485
000100 0d b6 c1 3d 62 aa aa bd 8c 33 34 bd db 86 4e 3d
       0.094585516 -0.08333279 -0.04399447 0.050421577
000110 29 da 9b 3d e9 39 f0 bd 40 b0 19 3c 43 ed 03 bc
       0.0760997 -0.117297955 0.0093804 -0.008052173
000120 82 9a 91 bb 9c ba d0 3d 38 65 16 3c 0f 23 5a bd
       -0.0044434676 0.10191843 0.009179406 -0.05325609
000130 90 01 be 3d 7b 3d f8 bc 89 11 ac 3d 0b 61 d9 3d
       0.09277642 -0.030302754 0.08401782 0.106142126
000140 6e 4c 3d 3d f9 60 9f bd df 42 5b bd f9 3c c7 bd
       0.046215467 -0.07782168 -0.05353057 -0.097284265
000150 3b 0b 8c bd d5 5a eb bd 00 b2 d8 3b 51 e5 47 bd
       -0.068380795 -0.11491934 0.006613016 -0.048802678
000160 f6 52 e3 3d bd 2a e3 3c 90 b2 5d bd 0c 92 fb bd
       0.11099808 0.02773034 -0.05412537 -0.122837156
000170 92 d7 77 3d c7 37 df bd 1e aa 2e bd 48 ec 40 3d
       0.06050832 -0.108993106 -0.042642705 0.047100335
000180 87 21 64 3d 51 43 0c bd 27 11 a5 3d fc 84 7f bd
       0.055696037 -0.034243885 0.08059912 -0.062382683
000190 6a 5b 9e bd 46 fb 9e 3d 4c 22 1b 3c b5 e8 3e 3d
       -0.077322796 0.0776277 0.009468626 0.046608645
0001a0 4e 78 69 3c 49 3b 29 3d 60 7c 9e bd f8 73 13 3d
       0.014249874 0.041316304 -0.077385664 0.03599927
0001b0 d4 79 90 bc ad 4e af bd ad 31 f1 3d e3 9f 97 3d
       -0.017636217 -0.08559928 0.11777053 0.07403543
0001c0 fc d1 c2 39 06 f4 f6 3d 24 0b f5 bd 63 ad b4 3d
       0.00037159014 0.120582625 -0.119650155 0.088221334
0001d0 43 20 70 bb 96 35 9d bd 0d 2d fd 3d 71 7c e8 3d
       -0.0036640323 -0.07676236 0.123621084 0.1135186
0001e0 fd 90 50 bd 63 fb 82 bd ff 91 43 bd 3c b6 33 bd
       -0.05091952 -0.063956045 -0.047746655 -0.043874964
0001f0 f9 79 10 3d 44 e5 45 3d 9b 92 b9 3c ed de f6 bd
       0.035272572 0.048314348 0.022652915 -0.120542385
000200 ee 8a 9a bd 99 aa 34 bd 4d 76 49 bc fb d6 09 bc
       -0.0754603 -0.044108007 -0.0122962715 -0.008413072
000210 fe 72 85 ba be 3d 6f bc cd 91 af bd f9 81 3a 3d
       -0.0010181365 -0.014602123 -0.08572731 0.045534108
000220 9c ac c7 bd 66 b8 b9 bd a4 7b 67 3c d4 3f fb 3d
       -0.097497195 -0.09068374 0.014128599 0.122680336
000230 3b 2f 56 bd a8 60 d4 bd bd f1 16 bb 62 d2 46 3d
       -0.052291136 -0.10369998 -0.002303227 0.04854048
000240 50 77 1d 3d 83 3b 45 3a c3 d3 95 bd f6 51 6f 3b
       0.038443863 0.00075238216 -0.07315781 0.0036517358
000250 50 3e 0b 3c e0 bb df bd 18 e4 40 3d cd 59 06 3d
       0.008498743 -0.10924506 0.047092527 0.032800484
000260 a7 93 50 3d d8 93 b9 3d a0 10 68 bd dd 1b 5f 3d
       0.050922062 0.09061402 -0.05665648 0.054469932
000270 dd 60 cf 3d aa 31 ed bd 9b 9f d6 bd fe f2 31 3c
       0.10125897 -0.11581738 -0.10479661 0.0108611565
000280 18 fe 3d bd e7 98 a0 3d 49 c9 fc 3d 98 de c2 bb
       -0.0463849 0.07841664 0.123430796 -0.0059469454
000290 cc f2 3c 3c 44 5d 9f bd 82 1b eb 3d b8 36 00 bd
       0.011532497 -0.07781461 0.11479856 -0.031302184
0002a0 c3 b5 a5 bd 23 27 f5 bd 00 6b 9c bd b6 2e 22 bc
       -0.08091309 -0.11970355 -0.07637596 -0.009898832
0002b0 c6 1c 83 bd b3 a3 0e bb 68 25 f7 3b 25 76 f3 ba
       -0.064019725 -0.0021765053 0.007542301 -0.0018574639
0002c0 e6 36 ce 3b 65 03 2f bc e2 21 82 3d 67 5c e9 bd
       0.0062931655 -0.010681962 0.06354119 -0.113945775
0002d0 ba ad ae bd 0f 31 88 bc 45 3f 8b bd 2b ce b5 3d
       -0.085292295 -0.016624955 -0.06799177 0.08877214
0002e0 a8 d2 b5 3d ad 14 e9 3c 8a 71 19 bd 71 ac e2 bb
       0.0887807 0.028452242 -0.037461795 -0.0069175293
0002f0 e0 49 bb 3d cc 32 08 3c 29 d1 d1 3d 0f 7f e0 3d
       0.0914495 0.008312892 0.10244972 0.109617345
000300 7f 10 bf 3c c9 82 be 3d da aa 77 bb 05 fe 59 bc
       0.023323296 0.09302289 -0.0037791044 -0.013305192
000310 b8 9b 0b bc 50 b3 d1 bd 47 6a db 3d 3c 80 ff 3d
       -0.008521013 -0.10239279 0.1071363 0.12475631
000320 04 1c 7b bc 16 a2 ac bd 34 5e 12 bd 94 09 74 bb
       -0.015326504 -0.08429353 -0.03573437 -0.0037237154
000330 d5 e8 cb bd 18 d7 5a 3d a2 39 9d bd ec a7 90 3d
       -0.099565186 0.053427786 -0.07677008 0.070632786
000340 5a 59 d8 3c 8a b6 b1 3d c4 8d 84 3d 81 7f cd 3d
       0.026409794 0.08677395 0.06472352 0.10034085
000350 30 9a db 3d b5 85 99 3d 33 ce 95 bd 03 c5 95 bd
       0.10722768 0.07496206 -0.0731472 -0.07312968
000360 52 dd 52 3d 4f 88 e2 3d 0e 45 98 bd 51 73 9f bd
       0.0514806 0.11061155 -0.07435046 -0.07785667
000370 d7 cb f0 bd d9 1b 01 3d 2c d8 a0 bd 42 83 81 bd
       -0.11757629 0.0315207 -0.078537315 -0.063238636
000380 18 41 16 3d 5a b3 88 bd a6 3f bf 3d 8b 1d 38 bc
       0.036683172 -0.066748336 0.09338312 -0.011237512
000390 66 19 d7 3c c5 bd 1c 3d 47 9c 45 3c ff 03 99 3d
       0.026257228 0.038266916 0.012061185 0.07471465
0003a0 53 54 e4 bd 1b 22 ab 3d 48 d0 5a 3d 10 66 6b 3c
       -0.11148896 0.083561145 0.05342129 0.014367595
0003b0 59 b8 89 3d 1d 36 c9 3d 7f a4 6c bd 57 59 f2 3d
       0.06724615 0.098247744 -0.057774063 0.118334465
0003c0 f0 6d a5 bc a6 4a dc bd 49 76 63 3d 0d b3 90 bd
       -0.020194024 -0.107564256 0.055532727 -0.07065401
0003d0 e3 99 3d 3c b0 3b b1 bd 45 bd 97 3c 87 22 99 3c
       0.011572334 -0.086539626 0.018522868 0.018693222
0003e0 f2 ac e5 bd 0b 68 5c bd c3 a5 40 bd e3 94 c3 bd
       -0.11214627 -0.05381016 -0.047033083 -0.09549882
0003f0 98 62 02 3d da 73 3f bd 43 ce 38 3c 4f d0 8c 3d
       0.031832308 -0.046741344 0.011279645 0.06875669

feature_extract.mlps.0.linears.1.bias f4 [64]
000000 e7 f7 27 3d a0 73 5c 3d 6d 22 36 3c 21 3e d4 3d
       0.041007902 0.053821206 0.011116606 0.10363413
000010 77 c7 b1 bd 29 a4 f1 3c b0 b2 e7 3c 18 e1 b4 3c
       -0.08680623 0.029497223 0.028283447 0.02207999
000020 cd 92 a3 3d 23 de de 3d 90 46 b0 3d 6c 62 96 bc
       0.079869844 0.10882213 0.08607209 -0.018357478
000030 20 b9 df 3d 22 ea 49 3d 42 8a 21 3d 1e d8 63 3b
       0.10923982 0.049295552 0.039438494 0.0034766267
000040 c1 e5 87 bd 33 72 94 3d 57 cf 06 3d c5 1b cb 3c
       -0.06635619 0.07248344 0.03291258 0.024793515
000050 f4 c6 19 bd c2 80 e0 3d 02 a3 b4 3d 99 c2 eb 3d
       -0.037543252 0.109620586 0.08820154 0.11511726
000060 a4 36 e9 bc 04 96 4a 3d b7 42 48 bd 83 68 c0 3d
       -0.028468437 0.049459472 -0.04889175 0.09394934
000070 5a 76 db 3d b9 bf 07 3d 38 ee d6 3d 56 58 be bd
       0.10715933 0.033141825 0.10494655 -0.092941925
000080 0b 48 fa 3c 85 ee 87 3d 70 4b ab bd 33 39 2c bb
       0.03055193 0.06637291 -0.08363998 -0.002627921
000090 97 07 82 3d a1 1d 19 bd 70 55 ad bd 78 f1 8c 3d
       0.06349104 -0.037381772 -0.084635615 0.06881994
0000a0 5b d9 bd bd 4b 7f 02 bc 5f 8b eb 3d b1 43 0a bd
       -0.09269973 -0.007964919 0.11501192 -0.03375596
0000b0 12 9f dc bb e3 36 e1 3c 54 c0 df bd 55 0d dc bd
       -0.00673283 0.027491992 -0.109253556 -0.107447304
0000c0 55 e4 36 bd 42 5f d9 3c b5 cb fb 3d 06 83 21 3d
       -0.04465135 0.02653468 0.122947134 0.039431594
0000d0 e1 e1 fd bd f6 8a b9 3d e3 79 51 bd a2 2a 5e 3c
       -0.123965986 0.09059708 -0.05114163 0.013559969
0000e0 20 39 b1 3d f9 24 90 3d 78 6a 54 3d 87 72 e9 3c
       0.08653474 0.07038302 0.05185935 0.028496994
0000f0 88 e7 d0 bd 98 0a eb bc ab 3c d8 3d 93 3f fa bd
       -0.10200411 -0.028691575 0.105584465 -0.12219157

feature_extract.mlps.0.batch_norms.0.weight f4 [64]
000000 60 26 80 3f 97 07 80 3f 88 0d 80 3f ab 24 80 3f
       1.0011711 1.0002316 1.000413 1.001119
000010 35 7e 7f 3f c7 40 80 3f 95 14 80 3f ac 25 80 3f
       0.9980195 1.0019768 1.0006281 1.0011497
000020 3f b5 7f 3f a0 33 80 3f 4b 29 80 3f c9 45 80 3f
       0.99885935 1.0015755 1.0012602 1.0021297
000030 78 9a 7f 3f 73 2a 80 3f 30 23 80 3f 89 8c 7f 3f
       0.99845076 1.0012954 1.0010738 0.99823815
000040 7f 31 80 3f e7 e2 7f 3f e7 f4 7f 3f 41 29 80 3f
       1.0015105 0.999556 0.99983066 1.001259
000050 f4 7e 7f 3f a8 05 80 3f 6d aa 7f 3f 11 37 80 3f
       0.9980309 1.0001726 0.99869424 1.0016805
000060 c8 a3 7f 3f ba 77 7f 3f fb 27 80 3f 2a da 7f 3f
       0.99859285 0.99792063 1.0012201 0.99942267
000070 97 35 80 3f 8f 33 80 3f 49 21 80 3f 88 23 80 3f
       1.0016354 1.0015734 1.0010158 1.0010843
000080 59 82 7f 3f 93 1f 80 3f da 30 80 3f ae f1 7f 3f
       0.9980827 1.0009636 1.0014908 0.9997815
000090 bf 9c 7f 3f 21 29 80 3f 72 39 80 3f fa a4 7f 3f
       0.9984855 1.0012552 1.0017531 0.9986111
0000a0 ee 92 7f 3f 92 ae 7f 3f 11 05 80 3f af 2b 80 3f
       0.9983357 0.9987575 1.0001546 1.0013331
0000b0 54 9c 7f 3f aa 93 7f 3f 0e a6 7f 3f f2 19 80 3f
       0.9984791 0.9983469 0.99862754 1.0007918
0000c0 57 eb 7f 3f 93 ce 7f 3f b2 29 80 3f c5 a0 7f 3f
       0.99968475 0.9992458 1.0012724 0.9985469
0000d0 65 22 80 3f e6 32 80 3f 0c d3 7f 3f 47 32 80 3f
       1.0010496 1.0015533 0.99931407 1.0015343
0000e0 a9 2a 80 3f 92 f5 7f 3f bd 83 7f 3f 55 84 7f 3f
       1.0013019 0.99984086 0.9981039 0.998113
0000f0 7b 84 7f 3f 67 d9 7f 3f 8e 9c 7f 3f bb 8a 7f 3f
       0.99811524 0.99941105 0.9984826 0.9982106

feature_extract.mlps.0.batch_norms.0.bias f4 [64]
000000 37 d0 d2 3a 1d f8 d5 3a 61 76 89 3a be 8c 27 39
       0.0016083781 0.0016324554 0.001048755 0.00015978792
000010 87 67 c6 b9 46 fa 12 3b 52 86 93 3a af af 68 3a
       -0.00037842637 0.0022427007 0.001125524 0.00088762766
000020 d4 b6 91 ba ea f8 a2 3a 89 8f c3 3a 57 0e 8c 3a
       -0.0011117109 0.0012433801 0.0014920096 0.0010685426
000030 15 02 c1 ba fd 0e ae 3a 38 e5 cf 3a a5 0c c8 3a
       -0.0014725352 0.0013279613 0.0015861159 0.0015262557
000040 43 63 d0 3a 81 21 53 ba ab 2a c2 3a 31 15 9d 3a
       0.0015898723 -0.00080540037 0.0014813741 0.0011984465
000050 4b b2 fe ba 2d bc 83 3a a2 10 a4 ba f6 1b 86 3a
       -0.0019431798 0.0010050588 -0.0012517164 0.0010231722
000060 b7 bd ff b9 19 4c ed ba 14 fc 8d ba 15 a1 7d b9
       -0.0004877874 -0.0018104344 -0.0010832571 -0.00024187968
000070 66 89 75 3a 5f 14 d3 3a 1f c5 2d b9 d8 03 05 3b
       0.0009366482 0.0016104094 -0.00016571999 0.002029648
000080 db a5 8f b8 da 19 be ba 85 c4 b6 3a dc 23 05 39
       -6.849664e-05 -0.0014503554 0.0013944065 0.00012697227
000090 07 b0 c7 ba 0a 95 9a 3a 56 f9 64 3a b3 13 57 ba
       -0.0015234955 0.0011793685 0.0008734664 -0.00082045345
0000a0 19 09 07 bb 2b 47 aa b8 b2 3e 57 3a 85 2d be 3a
       -0.0020604788 -8.119488e-05 0.00082109415 0.0014509415
0000b0 d5 95 b5 ba f7 84 ce ba 47 81 e3 b9 62 71 9e 3a
       -0.0013853858 -0.0015756179 -0.00043393133 0.0012088234
0000c0 b5 0b 9f ba 24 61 2f ba 8b b9 e5 3a 1a cb ab ba
       -0.0012134226 -0.00066901953 0.001752661 -0.0013106794
0000d0 6d 21 8f ba 10 d0 99 3a 3c 5e 46 ba 01 0c e6 3a
       -0.0010919996 0.0011734981 -0.00075671426 0.0017551185
0000e0 6b 66 77 3a db ff 7d ba 32 89 09 bb 03 db c0 ba
       0.0009437564 -0.00096893095 -0.0020986316 -0.0014713708
0000f0 23 6f 96 ba 3e d1 88 39 b1 15 eb 3a be 95 ac ba
       -0.0011477213 0.0002609584 0.0017935542 -0.0013167185

feature_extract.mlps.0.batch_norms.0.running_mean f4 [64]
000000 f9 b2 4c 3f fa d2 7a 3d 65 25 8a bf f0 e1 10 3e
       0.7996059 0.06123636 -1.0792662 0.14148688
000010 55 d4 30 3f 73 7c 1c c0 eb ff b7 bf 66 7e 28 c0
       0.6907399 -2.4450958 -1.4374975 -2.6327147
000020 1b e5 79 3e 68 68 f1 bf d6 33 9b 3f 14 94 9c bf
       0.24403803 -1.8859987 1.2125194 -1.223269
000030 af d2 ef 3f 39 60 ae be c1 0a bd 3f 0b ae 92 3e
       1.873617 -0.34057787 1.4768907 0.2864841
000040 fc b7 3c be 15 92 8f 3d 45 3f 1e bf 0e 7c de 3e
       -0.1842956 0.07010285 -0.6181529 0.4345402
000050 87 13 e1 3e f7 5d 30 bf f2 e5 2e bf 4e ac 96 be
       0.4396021 -0.6889338 -0.6831962 -0.29428333
000060 31 0e 82 3f ad 02 c0 bf 90 dc 05 be 1d 44 61 bf
       1.0160581 -1.5000817 -0.13072419 -0.8799456
000070 a7 45 ef bf d0 31 c8 bf a8 a9 9d be 8a 1c f7 3f
       -1.8693131 -1.5640202 -0.307935 1.9305584
000080 02 c3 2b bf 56 58 a4 3e 71 f5 09 40 03 0a 83 bf
       -0.67094433 0.32098645 2.1556056 -1.023743
000090 f0 26 a1 bc da d3 dc bf d2 0d 33 bf fa 46 e9 3f
       -0.019671887 -1.7252152 -0.69942963 1.8224785
0000a0 2b b2 f1 3e 59 83 a5 3e f9 9a 44 3f 1f 4c 20 bf
       0.47206244 0.32326773 0.7679897 -0.6261615
0000b0 7b 35 b6 3f 2b 36 46 40 b3 ea ab bf 87 31 73 be
       1.4235071 3.0970562 -1.3431 -0.23749362
0000c0 d4 72 65 be 8d 2a 3a be b7 a6 84 3f 08 b5 28 3e
       -0.22407085 -0.18180294 1.0363377 0.16475308
0000d0 84 cd ac be db 97 a5 3e e2 bc 09 40 b9 1a 8a 3d
       -0.33750546 0.3234242 2.1521535 0.06743378
0000e0 ae ba 24 c0 3e 25 12 3d cc 4b e3 bf 7c 4f 3e 3f
       -2.573894 0.03568005 -1.7757506 0.74340034
0000f0 5c de d0 3e 73 83 1f 40 2c 5f 28 bf 11 08 9e bf
       0.40794647 2.492398 -0.6577022 -1.2346212

feature_extract.mlps.0.batch_norms.0.running_var f4 [64]
000000 76 b6 4e 3e e9 9f db 3e cc 2b aa 3d 0e 8f fd 3e
       0.20186791 0.4289544 0.08309135 0.49523205
000010 e4 9a e2 3e 95 69 65 3f be f6 b3 3e e2 b0 87 3e
       0.44258797 0.8961423 0.35149187 0.26502138
000020 d4 47 85 3e 55 82 9e 3e a9 31 b2 3e 72 44 59 3e
       0.26031363 0.3095881 0.34803513 0.21217516
000030 32 bd 54 3e a5 53 96 3e 0a ed 2d 3f 6d 22 58 3f
       0.20775297 0.2936069 0.6793982 0.8442753
000040 2e a7 14 3f db 68 a9 3e 19 97 06 3f cc 32 b7 3c
       0.58067596 0.3308781 0.52574307 0.022363089
000050 d6 9a 24 3a 46 84 58 3e e6 21 a3 3d 31 ef b3 3a
       0.0006279176 0.21144208 0.0796545 0.0013727901
000060 32 93 75 3e 18 cb 32 3f 8c 2f 80 3e d7 42 dc 3e
       0.23981932 0.69841146 0.25036275 0.43019745
000070 a4 4a 3e 3f de 88 ef 3e 53 e1 17 3e 38 e8 b1 3e
       0.7433264 0.4678411 0.14832048 0.3474748
000080 7f 08 0d 3d ab b7 9c 3e 8a b4 11 3f 56 2f 6d 3e
       0.03443193 0.30608878 0.56916106 0.23162588
000090 16 22 58 3c 40 35 c0 3d 8a eb cd 3e f7 16 f9 3e
       0.0131917205 0.09385157 0.40218765 0.48650333
0000a0 ce a3 3d 3f 41 d8 b5 3b 9e 47 56 3d 9d c8 47 3d
       0.7407807 0.005549461 0.052314393 0.048775304
0000b0 79 65 84 3d 8a 02 dd 3e 21 56 a3 3e 13 7e 76 3e
       0.06464667 0.43166 0.3190165 0.24071531
0000c0 5a 6d 13 3f 8a ce 03 3f c7 96 2e 3e 1e c6 e1 3e
       0.5758873 0.5148703 0.17049704 0.44096464
0000d0 27 a8 e6 3c c9 56 e6 3e f7 99 2f 3e f5 11 c2 3e
       0.028156353 0.44988087 0.17148577 0.37904325
0000e0 46 f5 08 3f 13 fb 82 3e 68 c2 a9 3e 46 50 50 3f
       0.5349926 0.2558218 0.33156133 0.8137249
0000f0 ff 86 d1 3d e1 c0 96 3e bd 35 87 3e f6 91 a5 3e
       0.102308266 0.2944403 0.26408187 0.32337922

feature_extract.mlps.1.linears.0.weight f4 [64, 64]
000000 94 0e e2 3d 74 e6 8b 3d ac 7f c7 3d fa ba fb 3d
       0.11037937 0.06831065 0.09741148 0.12291522
000010 79 bf 05 bc 8c a1 41 bd 06 6b 6c bd e3 0b 24 3c
       -0.008163326 -0.047273204 -0.057719253 0.0100126
000020 cb fe 22 3d cc 38 04 bd 50 fa 9d 3d 01 a1 ff bd
       0.03979377 -0.03228073 0.07713759 -0.12481881
000030 df 2b d9 bd 83 a8 2a bd 6e a9 21 bc a6 78 83 bb
       -0.10604071 -0.04166461 -0.009867055 -0.004012185
000040 5a bd 08 bd 53 16 09 bd cd 7d a5 bd 73 c3 0b 3d
       -0.033383705 -0.033468556 -0.08080635 0.03412194
000050 46 0d 68 3d 0a c6 00 3d e0 94 f6 bc 10 d7 25 bd
       0.056653284 0.031438865 -0.030100286 -0.040488303
000060 01 08 98 3d b5 b5 92 bb a5 d6 b3 3b d6 f7 e7 ba
       0.074234016 -0.0044772276 0.005488234 -0.0017697762
000070 a2 40 5a bd 92 01 08 3d 01 7a f1 3d 30 38 65 3d
       -0.053284295 0.033204623 0.117908485 0.055961788
000080 a0 29 2d bd a5 f7 e6 3c c5 c9 99 bd 5a a0 c6 3d
       -0.042276025 0.028194258 -0.075091876 0.096985534
000090 70 0d 17 bd 0b 3f a8 3d a4 83 e2 bd 6d 53 df 3d
       -0.03687805 0.082151495 -0.11060265 0.10904584
0000a0 06 be dc 3d 6d 0a 82 3d fe 08 be 3d 52 42 5e 3d
       0.107784316 0.06349645 0.09279059 0.054262467
0000b0 ec 37 a9 3d 6a ec a7 3d 52 e0 39 bd 85 9e e7 bd
       0.082626194 0.08199389 -0.045379944 -0.11309532
0000c0 68 f7 8a 3d c7 c9 ed bd bf 1f fb 3c 4f 06 92 bd
       0.0678547 -0.116107516 0.030654786 -0.071301095
0000d0 e2 c4 32 3d da 73 02 bb fb 1d b7 3d 31 3d 7f 3d
       0.043644793 -0.0019905479 0.08941265 0.062314216
0000e0 63 d2 a2 3b 89 13 8d bd 63 23 93 3d 93 7a dd bc
       0.0049689277 -0.06888492 0.07184484 -0.027035987
0000f0 78 e6 9c 3d d7 fb 8a 3d 45 89 23 bd 64 2b 42 3d
       0.07661146 0.06786316 -0.039925832 0.04740466
000100 6c ae 8c bc 6f 30 c8 bd b0 d2 c7 bd 9a df c1 3d
       -0.017173015 -0.09774863 -0.09756982 0.09466477
000110 34 da 05 bd ac ed ff 3d e3 4a c0 bd 23 d5 ee 3d
       -0.032678798 0.12496504 -0.093892835 0.11661746
000120 cc 1a 2c bd 6e a9 87 3d a8 a7 fa bd ab c7 b2 3d
       -0.042017743 0.06624113 -0.12239009 0.0872949
000130 16 1a 24 3d f3 b1 8c bd 39 72 69 3d 11 25 8e bd
       0.04006394 -0.068698786 0.056993697 -0.069406636
000140 b7 a8 be 3d 5d 7a a3 bc 96 e1 6d bc b2 1d 56 3d
       0.093095236 -0.019955808 -0.014519116 0.052274413
000150 51 13 2a bd 6f cb 89 3d 74 5d cf bc 41 7e 58 bd
       -0.041522328 0.06728255 -0.025313117 -0.05285478
000160 c5 54 da bd 74 40 e7 3d 24 e8 2a bd 59 bd c8 3d
       -0.106607 0.1129159 -0.041725293 0.0980174
000170 9b 54 ec 3c f8 99 8f bd be 66 c9 3d bd fe 82 bd
       0.028848937 -0.07011789 0.0983405 -0.06396244
000180 d2 17 39 bc f7 80 2c 3d 76 36 d4 bd 7e 57 56 bc
       -0.011297183 0.042115178 -0.1036195 -0.013082383
000190 cb 87 49 bd a5 da c2 bb 0f 86 32 bd e2 d4 da bd
       -0.049201768 -0.0059464746 -0.04358488 -0.106851354
0001a0 e6 fd 83 bd 9f 4e f1 3b ee e9 c4 bc bc ad fc bc
       -0.06444912 0.0073641087 -0.024037328 -0.030844562
0001b0 f8 50 0e 3c d4 a4 56 3c a6 da 7d bd 11 14 36 bd
       0.008686297 0.0131008215 -0.061976098 -0.04445273
0001c0 e0 08 d3 3d a6 8c 85 3d e8 19 d3 3d 42 41 d3 3d
       0.10304427 0.06520967 0.103076756 0.10315181
0001d0 0c ab e1 3d 8a 5e e9 3d f3 47 69 bd 6b 0f 47 3d
       0.11018953 0.11394985 -0.05695338 0.048598688
0001e0 08 af 50 bd cf 5d a9 bd f6 b3 ae bd 7d 82 d9 bd
       -0.050948173 -0.08269846 -0.085304186 -0.10620592
0001f0 4f 4a 54 3d 77 9a 5a 3d 12 17 53 3d 1b 3f 64 bd
       0.05182868 0.053369965 0.051535673 -0.055724245
000200 cc 74 5d bd 3b 29 b8 3d 56 08 9b bd 49 70 a6 3d
       -0.054066464 0.08992239 -0.07569949 0.081268854
000210 bc e4 7e bd de ab c2 bd 31 7a 3a bc e2 2c ed 3d
       -0.062229857 -0.09505437 -0.011381672 0.11580826
000220 41 c8 f2 3d 48 a2 fb bd 8b c8 5b 3c af c6 f1 bd
       0.11854602 -0.12286812 0.013414512 -0.11805474
000230 c3 70 a8 bd 23 0d d3 3c 1b 18 90 bc 53 b3 f4 bc
       -0.082246326 0.0257631 -0.01758962 -0.029870665
000240 64 0b 87 bd 2a 00 09 bd e6 dc a6 3c fc 16 c4 bc
       -0.065939695 -0.033447422 0.020369004 -0.023936741
000250 0f 90 7f bd aa 9d 29 bd cf c6 f4 3d 16 b3 df 3c
       -0.062393244 -0.041410126 0.11951982 0.027307075
000260 67 4d b2 bc 34 a5 a4 bd ba e4 2a bd 86 70 dc bc
       -0.021765424 -0.080393225 -0.041722037 -0.026909124
000270 8f 3f fd 3d 00 09 c9 bd f8 c0 98 bd 59 58 89 bd
       0.123656385 -0.0981617 -0.07458681 -0.06706304
000280 2b ba 0f bc ef 5e 9c 3d 89 ad 1f bd 09 26 fa bc
       -0.008772413 0.07635295 -0.038983855 -0.030535715
000290 3c e7 f5 bd 69 38 0e 3d af 82 7b 3c a8 a9 33 bd
       -0.12006995 0.034721766 0.015350982 -0.04386297
0002a0 b1 17 ec 3d b5 30 c6 3d d5 9a 99 ba 1b 56 50 bd
       0.11527956 0.09677259 -0.0011719117 -0.050863367
0002b0 85 55 94 ba 23 20 1e 3c 92 3c 8d bc 89 d5 ee 3d
       -0.0011316991 0.009651217 -0.017240796 0.11661822
0002c0 a7 64 ad 3d 0a 50 7d bd ef f3 94 bd d6 f0 5e 3d
       0.084664635 -0.06184391 -0.07273089 0.054428898
0002d0 48 45 54 3a 97 5a fb bc f1 4b bc bd e7 fd 59 bd
       0.0008097482 -0.030682845 -0.09194172 -0.053220656
0002e0 18 bf f9 3d e2 f4 b8 3d 42 3c f4 bc 44 c5 9c bc
       0.12194651 0.09031083 -0.02981389 -0.019137032
0002f0 ea 75 34 3d 98 fc 72 3c 4d 0a 2c 3d 52 d5 b8 3d
       0.044057764 0.014830731 0.04200201 0.090250626
000300 c7 7e 93 3d d0 a3 74 bd 95 3d c1 3d 20 07 2c 3d
       0.07201915 -0.059726536 0.09435574 0.041998982
000310 83 ae 82 bd 7a 84 ec bc 23 c9 2f 3d 8a 67 56 bd
       -0.06380942 -0.028871763 0.04291643 -0.052344836
000320 57 02 a8 bd bd 3f 9e bd 7a 47 a8 3d 49 48 ac bd
       -0.08203571 -0.07727001 0.08216758 -0.08412225
000330 cc b9 f5 bd 6d dd a8 3d f0 6c b4 bd d9 a9 d6 3d
       -0.119983286 0.082453586 -0.08809841 0.104816146
000340 54 36 fe bd 60 60 6d 3c 22 01 34 3c 4f e5 ad 3c
       -0.12412706 0.01448831 0.010986598 0.021227507
000350 9b a0 2a 3d 3f ce f2 bd 26 65 3c 3d b9 07 15 bc
       0.04165707 -0.118557446 0.0459949 -0.0090960795
000360 9e ab bd bc ff ad d5 3d 3a 60 0a bd 42 f8 26 bd
       -0.023153123 0.10433578 -0.033783175 -0.0407641
000370 ea 48 d2 bd cf 71 f4 bd 06 15 c7 bd 96 c9 f2 3c
       -0.102678135 -0.1193577 -0.09720807 0.02963714
000380 a7 b6 0b 3d 7b 08 e7 bc 54 5c 94 bd 8f ad 99 b9
       0.034109738 -0.028202286 -0.07244173 -0.00029311745
000390 ea 75 0d bd 9e e4 af 3c 61 ba 4c 3d ed 68 35 bd
       -0.03453628 0.021471318 0.049982432 -0.04428952
0003a0 a9 12 02 bd 9d a1 ba bd 8f bc f7 3d 26 bf 46 3d
       -0.031756077 -0.091128565 0.120965116 0.048522137
0003b0 31 cb e2 bd ad 03 5f 3d ba ee 82 3d b6 3f 6f 3d
       -0.11073912 0.054446865 0.0639319 0.05841037
0003c0 51 00 bc bc 35 56 bf bd 46 a3 ed 3c af af ed bc
       -0.02294937 -0.093426146 0.029008519 -0.029014437
0003d0 61 0d 1e bd e9 a5 1f bd 84 58 97 bd 3f ba 28 3d
       -0.038586978 -0.038976584 -0.0738993 0.041193243
0003e0 3f 0f 7f 3d 37 56 c1 3b eb cd ce 3d 13 a8 74 bd
       0.0622704 0.00590017 0.100978695 -0.0597306
0003f0 f3 14 bf bd 88 16 00 be 4f 62 dc bd c5 f0 d9 bd
       -0.093301676 -0.12508595 -0.107609384 -0.10641626

feature_extract.mlps.1.linears.0.bias f4 [64]
000000 8a f2 91 bd 15 f7 43 3d 1e 12 53 bc 07 88 05 3d
       -0.07126339 0.047843058 -0.012882737 0.03260043
000010 5c 1f 4f bd 11 c9 95 bd ab e4 3f bd 4f f8 ca 3d
       -0.050567016 -0.07313741 -0.046848934 0.09910642
000020 a1 6f b5 3d 0f 39 d3 3c b2 95 33 3c 05 9c 84 bc
       0.08859182 0.025784044 0.010960983 -0.016187677
000030 e6 ec bb 3d ea 51 41 bd 39 ca 29 3d cc 4c 17 bd
       0.09176044 -0.04719726 0.04145262 -0.036938474
000040 9d 5b f3 3d bd 62 29 3c a2 6e c9 3d f4 a1 ea 3d
       0.11882708 0.010338482 0.09835555 0.11456671
000050 a9 a2 73 bd d4 d2 bd bd fd 8b 8d b8 33 6f e2 3c
       -0.059481297 -0.09268728 -6.749479e-05 0.027640915
000060 fc 33 f6 3d e0 2e db 3d 73 1d a7 bd 3a 54 a1 3d
       0.12021634 0.107023 -0.08159914 0.07877393
000070 27 47 a9 3c f1 30 91 bd 3e 2c b8 bd e3 9d b0 3d
       0.02066381 -0.07089413 -0.089928135 0.086238645
000080 a1 ab a3 3d 08 eb e1 bd 4d 9f 9a bd 07 1b 81 3d
       0.0799172 -0.11031157 -0.075499155 0.06303983
000090 0a ac 5f 3d 25 d0 4a 3d 94 27 5d bd 42 35 f4 3b
       0.05460743 0.04951491 -0.053992823 0.007452638
0000a0 1f 11 06 3b 77 24 61 3a 34 da 0e 3d d3 d4 19 bc
       0.0020456982 0.00085885025 0.034876063 -0.00938912
0000b0 21 fe 9c 3d ae 96 fc bd 34 c4 cc 3d a6 54 e1 3d
       0.07665659 -0.12333427 0.0999836 0.110024735
0000c0 4e 75 7c 3c f6 34 91 3d 86 2c 65 bd 75 2f e1 3d
       0.015408827 0.070901796 -0.055950664 0.1099538
0000d0 bd 7e 1e 3c 3f 5b e8 bd bc b0 73 3d c1 9e c9 3d
       0.009673771 -0.11345529 0.05949472 0.09844733
0000e0 ee 41 15 3d 5b bd 82 3d e7 79 be bb b9 c7 53 3d
       0.03643983 0.06383773 -0.0058128717 0.051704142
0000f0 f5 c1 df 3d 5c 13 ef bd 7f ef 9a bd df 57 e8 bd
       0.10925666 -0.116736144 -0.075652115 -0.11344885

feature_extract.mlps.1.linears.1.weight f4 [64, 64]
000000 19 70 02 bd b4 db b9 3d af e2 71 3d d6 87 7f bc
       -0.031845186 0.09075108 0.059054073 -0.015596351
000010 e0 47 ca bd 44 fd ba bd 84 b2 d5 3d 9b 3c b7 3d
       -0.0987699 -0.09130338 0.1043444 0.089471065
000020 40 b1 47 3d 8f 9c 36 bb ff d0 e0 bd 45 4c b9 bd
       0.048753023 -0.0027864312 -0.10977363 -0.090477504
000030 47 9b ae bd 76 6e a8 3d 99 c6 5c bd 9e e3 ad 3d
       -0.085257106 0.08224194 -0.053900335 0.0849068
000040 88 4b e0 3d 84 8f ba 3d 58 01 a5 bc 92 f2 fb b9
       0.109519064 0.09109405 -0.020142242 -0.0004805518
000050 df 59 db 3d 4f 5c e0 bd fc 54 84 3d b6 e3 d2 3d
       0.10710501 -0.109551065 0.06461522 0.10297339
000060 04 dd 79 bc f9 59 6b bd 7e 2c dd bd 2f 45 4d bd
       -0.015250448 -0.05745885 -0.10799502 -0.050114807
000070 7f 13 3e 3d db 26 52 bd a4 7e 84 3d 7c 41 17 bd
       0.04640531 -0.051306587 0.06469467 -0.036927685
000080 b6 5f 97 3d f8 15 c8 3c ed 9a d5 bd 8d ae b7 bd
       0.07391302 0.024424538 -0.104299404 -0.0896884
000090 09 0d a4 bd f1 96 d9 3d ad 49 c7 bd dc 93 60 3d
       -0.08010299 0.10624493 -0.097308494 0.05482851
0000a0 ea 2b d7 bd 5e 3a 2d 3d ce c4 d3 bc f0 3e 89 bd
       -0.10506423 0.04229199 -0.02585068 -0.067014575
0000b0 7d 6a c4 3d 26 a8 e1 bd f2 46 e8 3d 97 c1 fc 3c
       0.095906235 -0.110184 0.11341657 0.03085403
0000c0 8d ac 77 3b 82 fb 84 bd 7c 86 20 bc 61 e0 95 3d
       0.0037792057 -0.06493284 -0.009797689 0.073181875
0000d0 1e 3e 84 3d 2c 4b f2 3d 47 79 cb bc d7 85 2c 3c
       0.064571604 0.11830744 -0.024838103 0.010529957
0000e0 24 96 3f bd d7 98 d6 bd 60 44 35 3d 0e a4 d3 bd
       -0.046774045 -0.10478371 0.04425466 -0.10334025
0000f0 5a 37 b5 3d 1b d7 3d bc 67 e5 0b bc bf b0 7b 3d
       0.08848448 -0.01158693 -0.0085385805 0.061447855
000100 68 b8 a4 3b c1 d9 9d 3d ad d7 c1 3d 7c 99 a8 bd
       0.0050268658 0.07707549 0.09464965 -0.082324
000110 34 6f ef bd df d9 ec bd 4d f1 e3 3d de 58 f4 3d
       -0.11691132 -0.11564993 0.11130009 0.119310126
000120 cf ea a1 bb 92 52 0b 3d 61 79 69 3d e9 f0 00 be
       -0.0049413214 0.034014292 0.05700052 -0.125919
000130 61 74 3f 3d f5 22 0a bd bd 35 cf bd 9c d1 43 3b
       0.046741847 -0.033724744 -0.10117672 0.0029879576
000140 03 8b 9b 3d bc 99 d4 bd a1 b4 a8 3c 13 bc b6 bd
       0.07594874 -0.10380885 0.020593943 -0.08922591
000150 bc 13 7d bd a0 f1 ea bc 14 a1 98 3d 83 c9 e2 bd
       -0.0617864 -0.028679669 0.07452598 -0.110735916
000160 33 f2 33 bd ac 59 61 3d c9 54 b4 3c 4a 1a f1 3c
       -0.04393215 0.05501716 0.022013085 0.02943148
000170 20 1c c6 3d 92 5e 03 bd 8c 1d 4a 3d 13 ba 8f bd
       0.09673333 -0.03207261 0.049344584 -0.07017913
000180 94 fb 5c bc 23 2d 76 3a bd c9 94 bc 63 5f de bd
       -0.013487715 0.0009390881 -0.018162603 -0.10858037
000190 e3 7e 77 3d d6 ab 73 3d ab 4e 50 3d 2a 2d 77 3d
       0.060423743 0.059490047 0.050856274 0.060345806
0001a0 c6 c6 24 bd 2f a0 05 3c 12 09 6e bd f4 a4 8c 3d
       -0.040228628 0.0081558665 -0.05811412 0.068674
0001b0 80 54 b8 bc 08 b5 d2 3d 36 ea 9d bd 1a a0 f5 3d
       -0.02250123 0.10288435 -0.07710688 0.119934276
0001c0 eb 51 e6 3d 3d d0 67 bd 60 36 84 3d e6 1a a2 3d
       0.11246093 -0.056595076 0.06455684 0.07915287
0001d0 bf 22 f8 bd ba 99 bc 3d b8 67 2a 3d 80 ed e6 bd
       -0.12116002 0.092090085 0.04160282 -0.11275768
0001e0 f3 c7 3d bd 0a 4a db bd 14 49 60 bd 25 3b bd bd
       -0.046333265 -0.10707481 -0.054757193 -0.092397965
0001f0 f9 fb b2 bd 78 4d 5b bd d1 ba 17 bd c5 09 1f bd
       -0.08739466 -0.053540677 -0.037043396 -0.038827676
000200 29 0e db bb 0a 67 a7 3d 3a 39 87 3d 2e 28 1b bd
       -0.0066850376 0.0817395 0.06602712 -0.037880115
000210 8f 18 93 bd 79 48 f4 3d 2b fd f9 3d 45 75 d7 bc
       -0.071824186 0.119278856 0.12206491 -0.026301036
000220 fb af b1 3c fa 84 9e 3d 2c 33 4b 3d f1 73 27 3d
       0.02169036 0.07740207 0.04960935 0.040882055
000230 56 08 e0 3d 41 4f c5 3c 38 62 c6 bc a6 60 cf bd
       0.1093909 0.024085643 -0.024216756 -0.10125856
000240 ea 69 93 3d 74 74 12 bd 0a 4b 99 bd 0b 9c 71 3d
       0.07197936 -0.03575559 -0.07485016 0.058986705
000250 7b 12 d8 bd 27 4a bf 3d a8 d2 0a 3b 44 fe fb 3d
       -0.105504 0.09340315 0.002118269 0.12304357
000260 f8 95 7e bd 46 34 d8 3d 79 7f 0b bc 71 d6 f2 bd
       -0.06215474 0.10556845 -0.008514279 -0.11857308
000270 64 aa 9c 3b fc 61 1e bc 8f 3f 62 3d b4 e3 1a 3c
       0.0047810543 -0.009666916 0.055236395 0.009453703
000280 04 ef 2a 3b 33 3a fd bd 38 9a a7 bd 78 d8 9c bd
       0.0026082406 -0.12364616 -0.08183712 -0.07658476
000290 75 a8 57 bd a5 22 63 bd b2 60 10 bd 4b 27 6f 3d
       -0.052650888 -0.05545296 -0.035248466 0.058387082
0002a0 af c3 6b 3d cd 65 f8 ba 07 cf 01 be 3a bb f1 3d
       0.057559665 -0.0018951237 -0.12676631 0.11803289
0002b0 ca d5 89 3d d8 26 ec bd 93 7c a8 3d 13 02 ce 3d
       0.0673023 -0.11530846 0.08226886 0.100589894
0002c0 ec 2f d8 3d 23 14 af 3b 96 70 d9 bd bd 36 61 bc
       0.10556015 0.0053429767 -0.10617177 -0.013745961
0002d0 b8 c4 bd bd 36 11 c5 3d 95 e6 9f 3d d9 8b 9b 3c
       -0.09266037 0.09622423 0.07807652 0.018987583
0002e0 4b 6a 72 3c 0a b5 50 bd d1 80 44 bd 2b 75 65 3d
       0.01479585 -0.050953902 -0.04797441 0.056019943
0002f0 0e 80 b8 3d 52 49 0d 3d cc 62 df bb e9 31 51 3c
       0.090087995 0.03449375 -0.0068171974 0.012768247
000300 51 cb 20 bc cb 81 25 bc 9b 37 6d bc 22 55 b1 3c
       -0.009814099 -0.010101746 -0.014478589 0.02164704
000310 ad b8 af 3c cc 31 db 3d 92 55 b0 bd cc 43 4e bd
       0.021450365 0.107028574 -0.08610071 -0.050357625
000320 7f 23 e1 3c 18 6d e8 3d 93 e8 dd 3d 71 43 84 3d
       0.027482746 0.11348933 0.10835376 0.06458176
000330 39 60 21 bb 9f a9 a4 3d 0b 97 b0 bd 18 e7 86 3c
       -0.0024624004 0.08040165 -0.08622559 0.016467616
000340 6d b0 41 bd eb c4 96 3d a5 38 79 bd 32 81 e3 3d
       -0.047287393 0.07361778 -0.060845036 0.111086264
000350 2b 53 69 3c d2 94 f9 bd f2 da d2 3d ce 4d 70 bb
       0.01424102 -0.12186588 0.10295667 -0.003666747
000360 7f 39 02 be 3f 34 f4 3d e3 a3 7a bd 16 09 f0 ba
       -0.12717246 0.11924028 -0.06119145 -0.0018313255
000370 7c 7f f5 3d 9b 73 36 bd ce dc d0 bd e0 b0 f2 3d
       0.11987206 -0.044543844 -0.10198365 0.118501425
000380 3a bd cb bd ca 93 fa 3d 2d 28 f2 3d f0 00 9c 3d
       -0.099482015 0.1223522 0.11824069 0.07617366
000390 47 8e 8b 3d 09 16 d9 3c 51 06 fd bd 07 88 cd bd
       0.068142466 0.026499765 -0.123547204 -0.10035711
0003a0 15 a1 a9 3d 04 d2 e0 3d 59 79 8c 3d f0 48 da bd
       0.08282677 0.10977557 0.06859083 -0.10658443
0003b0 7d c2 85 3d 44 f9 53 bb 83 fc 97 bc 41 b5 df bd
       0.06531236 -0.0032344619 -0.018553024 -0.10923243
0003c0 7e cc ba bd f6 06 fd bd 50 b0 ad 3c bf 44 fa 3d
       -0.09121035 -0.12354843 0.021202236 0.122201435
0003d0 69 42 8d bd 13 0b 54 bd 59 8e c5 bd ca ac e6 bd
       -0.06897432 -0.051768374 -0.09646291 -0.11263426
0003e0 4e 89 cd 3d 1e 54 95 3d b8 d7 9d bb 06 85 fe 3c
       0.100359544 0.07291435 -0.0048169754 0.03106929
0003f0 65 d9 b4 3d cb 72 44 bc 4f be ad bd 0c 0b e4 3c
       0.08830527 -0.011990259 -0.08483564 0.027837299

feature_extract.mlps.1.linears.1.bias f4 [64]
000000 62 54 9a 3d 89 ad 0a bd b3 53 bc bd ae ad 2b 3d
       0.07535626 -0.033856902 -0.09195652 0.04191368
000010 4f 4a dc 3c f0 76 20 3d 03 25 b5 bc 54 bc 8b bd
       0.026890902 0.039175928 -0.022112375 -0.0682303
000020 41 a8 e5 3c a3 77 9f 3d 30 ed fc 3d 8f e6 b6 bd
       0.028034331 0.07786491 0.123499274 -0.08930694
000030 e7 69 07 bd a4 fc c4 3d c8 62 a5 bd f9 90 d1 3d
       -0.03305998 0.096185 -0.08075482 0.102327295
000040 1e 9d 10 3d 82 69 93 3d ae 76 28 bd 49 b4 d3 3d
       0.03530609 0.071978584 -0.041128807 0.10337121
000050 12 b6 f6 bd dd 70 ab 3d fa a7 1f 3c c9 11 11 3d
       -0.12046446 0.08371136 0.009744639 0.035417352
000060 72 b1 87 3d 03 1b f8 bd c6 dc 52 3b 16 d1 d8 3a
       0.06625642 -0.12114527 0.0032175048 0.0016541805
000070 59 86 16 3d 02 ac 8d bc 68 a1 98 3c 22 cb aa bb
       0.036749218 -0.017293934 0.018631652 -0.0052122036
000080 fa bb e4 bd 72 8c 7b bd 29 f9 b5 3d c4 d9 cc bd
       -0.11168666 -0.061413236 0.08885414 -0.10002473
000090 a9 aa 36 bd 54 51 c6 bd 60 6f 9c bb 6b 7c 55 3d
       -0.044596348 -0.09683481 -0.004774019 0.052120607
0000a0 93 3c 5c bc 0a 72 83 3d 91 b3 ae bd e6 49 ab bd
       -0.013442176 0.064182356 -0.08530343 -0.083637044
0000b0 e3 89 da bd 3e 1d 64 3d 1c 90 a1 3c 7e ea a9 bd
       -0.10670831 0.05569195 0.019722037 -0.08296679
0000c0 91 06 f0 bd a0 79 24 bd 56 f6 84 bb 8d cd ab 3d
       -0.117200024 -0.040155053 -0.004057686 0.08388815
0000d0 60 52 a6 bd 67 89 a8 3d 2d bd 45 3d 12 9e e3 bd
       -0.081211805 0.082293324 0.048276115 -0.11114134
0000e0 22 cb 43 3d cb 21 a6 3d 36 f0 92 bd d8 f2 b4 3d
       0.047801144 0.08111914 -0.07174723 0.08835381
0000f0 89 32 e8 3d eb a9 ba bd c4 43 b7 3d 82 20 a0 3d
       0.11337764 -0.091144405 0.08948472 0.078187004

feature_extract.mlps.1.batch_norms.0.weight f4 [64]
000000 0e d5 7f 3f e2 98 7f 3f cb d6 7f 3f 27 94 7f 3f
       0.9993447 0.99842656 0.99937123 0.9983544
000010 05 38 80 3f 6d 00 80 3f 48 84 7f 3f 42 8e 7f 3f
       1.0017096 1.000013 0.9981122 0.99826443
000020 d3 9a 7f 3f 33 3e 80 3f 14 3e 80 3f 45 42 80 3f
       0.9984562 1.0018982 1.0018945 1.0020224
000030 8f 86 7f 3f d7 8b 7f 3f 0d a5 7f 3f 96 83 7f 3f
       0.99814695 0.99822754 0.9986122 0.9981016
000040 f0 34 80 3f 60 8c 7f 3f 88 3a 80 3f 3c e7 7f 3f
       1.0016155 0.9982357 1.0017862 0.9996221
000050 5d 2c 80 3f 23 90 7f 3f 10 7f 7f 3f 1a 36 80 3f
       1.0013539 0.9982931 0.99803257 1.001651
000060 a4 41 80 3f cc 88 7f 3f 2f 42 80 3f 30 ab 7f 3f
       1.0020032 0.9981811 1.0020198 0.99870586
000070 75 d1 7f 3f 0b 3a 80 3f 98 78 7f 3f a3 aa 7f 3f
       0.9992898 1.0017713 0.99793386 0.99869746
000080 6e 2f 80 3f fc 81 7f 3f dc b8 7f 3f d8 43 80 3f
       1.0014474 0.99807715 0.9989145 1.0020704
000090 0e 6a 7f 3f 6a 2a 80 3f 6d 8e 7f 3f 09 b8 7f 3f
       0.997712 1.0012944 0.998267 0.9989019
0000a0 03 4d 80 3f cb 84 7f 3f aa 74 7f 3f 74 78 7f 3f
       1.0023502 0.99812 0.9978739 0.9979317
0000b0 8a 76 7f 3f 7b 40 80 3f c4 3e 80 3f 6e 40 80 3f
       0.9979025 1.0019678 1.0019155 1.0019662
0000c0 a3 22 80 3f c1 99 7f 3f 59 46 80 3f c2 43 80 3f
       1.001057 0.99843985 1.0021468 1.0020678
0000d0 0c 3e 80 3f f1 31 80 3f 37 35 80 3f 84 92 7f 3f
       1.0018935 1.0015241 1.001624 0.9983294
0000e0 03 6d 7f 3f 64 86 7f 3f 8f 29 80 3f 33 9c 7f 3f
       0.99775714 0.9981444 1.0012683 0.99847716
0000f0 56 8e 7f 3f 83 45 80 3f 2a 4f 80 3f 18 33 80 3f
       0.9982656 1.0021213 1.0024159 1.0015593

feature_extract.mlps.1.batch_norms.0.bias f4 [64]
000000 3e ff 6b ba a7 71 db ba af d4 06 bb d2 38 b4 ba
       -0.00090025726 -0.0016742245 -0.0020573547 -0.0013749844
000010 63 49 e7 3a e7 17 0f 3b ee 2f c3 ba 23 7d e0 ba
       0.0017645772 0.0021834315 -0.0014891603 -0.0017127137
000020 90 9f dd 3a 3e 2e fa 3a df 16 04 3b 14 1f 03 3b
       0.0016908515 0.0019087268 0.0020155234 0.0020007538
000030 6d ad ec ba fd 7f 39 ba b8 29 e3 ba e8 00 ff 3a
       -0.0018057056 -0.00070762617 -0.0017331159 0.0019455226
000040 ed f7 c3 3a 1c be e0 ba f5 9b f8 b9 c1 af 90 3a
       0.0014951207 -0.0017146501 -0.00047418443 0.0011038707
000050 5d 19 8c b6 38 44 dd ba 40 6d 2c ba 4b aa d4 3a
       -4.175278e-06 -0.0016881293 -0.0006577559 0.0016225068
000060 51 35 d8 3a d2 02 91 ba bf 32 ff 3a 91 f1 dd ba
       0.0016495382 -0.0011063463 0.001947008 -0.0016932954
000070 ec 22 60 ba 8d d6 d2 3a 9d e8 16 bb f6 0f 02 3b
       -0.00085501256 0.001608567 -0.0023026832 0.001984594
000080 6e e8 c5 3a 0e e7 f7 ba b0 6d 0c 3a fb e2 f7 3a
       0.0015099177 -0.0018913464 0.0005356921 0.001891225
000090 45 b5 d1 ba 70 80 d5 3a 37 7b e4 ba 7b 95 cd ba
       -0.0015999457 0.0016288888 -0.001743174 -0.0015684807
0000a0 54 d6 15 3b 92 86 f0 ba b5 04 0f bb d0 31 02 bb
       0.0022863345 -0.0018350652 -0.0021822874 -0.0019866116
0000b0 85 05 01 bb b5 51 ef 3a 13 3c e6 3a 28 94 10 3b
       -0.0019687128 0.0018258604 0.0017565511 0.0022060964
0000c0 eb 55 aa 3a 10 c5 ed ba a7 cd 11 3b 68 15 0e 3b
       0.0012995576 -0.0018140394 0.0022247822 0.002168024
0000d0 89 84 f4 3a ec a4 ca 3a 66 4f 9e 3a da bc c9 ba
       0.0018655221 0.0015460528 0.0012078106 -0.0015391365
0000e0 4e 96 14 bb b4 b1 e4 ba 79 db a2 3a cf 7d dc ba
       -0.0022672596 -0.0017447979 0.0012425027 -0.0016822162
0000f0 8a b6 dd ba e7 9f 6b 3a 21 dc c3 3a d0 df ce 3a
       -0.0016915363 0.0008988366 0.0014942923 0.0015783254

feature_extract.mlps.1.batch_norms.0.running_mean f4 [64]
000000 2e 46 80 3f ca 03 57 be b8 76 b1 bd 1b c7 7d bf
       1.0021417 -0.20997539 -0.08665222 -0.99131936
000010 64 87 80 be ef 19 05 3d 41 ed fd bd 56 ea 5d be
       -0.25103295 0.032495435 -0.12398768 -0.21671423
000020 b3 e1 4e 3f 4d 5a 12 be 2d b2 26 bf af cc 10 bf
       0.8081314 -0.1429226 -0.65115625 -0.5656232
000030 e6 4c ad 3e c9 79 2e bd 97 cd 88 3f 70 eb 94 3f
       0.3384773 -0.042596612 1.0687741 1.163435
000040 77 f8 0e 3f 81 57 c0 be 75 8f 08 3f f6 3c cb be
       0.5584788 -0.3756676 0.533439 -0.39694947
000050 16 b0 f0 3d 9c b0 c0 bd ef 8e 28 bf 7f 22 94 bf
       0.11752336 -0.094086856 -0.658431 -1.1573027
000060 95 65 0a be e7 7f 04 bf 47 f6 dd be 5e 5e 01 3f
       -0.13515313 -0.51757663 -0.43351957 0.5053462
000070 28 13 45 bf 99 d5 58 bc 72 f6 c5 be a5 45 bf bd
       -0.76982355 -0.013234519 -0.38664585 -0.093394555
000080 8e 42 62 bf ec d3 bc be 13 5a bc be d3 20 fb 3e
       -0.88382804 -0.36880434 -0.3678747 0.4904848
000090 20 e9 21 bd e0 5e 14 bf 80 88 6c 3f ce d9 4c 3d
       -0.039528966 -0.5795727 0.9239578 0.050012402
0000a0 2a 14 19 3f 99 32 92 3f bb 28 d0 bb 10 f8 0a 3e
       0.5979639 1.1421691 -0.0063525117 0.13571191
0000b0 78 c4 22 bf 84 56 86 3d 85 6d 17 bf 05 1c bf 3e
       -0.6358104 0.0655947 -0.5915149 0.37326065
0000c0 38 8d 85 3e 9e 02 12 3f d1 cd 52 bf 3a dc 38 be
       0.26084304 0.57035244 -0.823453 -0.1805276
0000d0 10 dc 32 3f ea 89 37 be 30 5a 71 3e 23 f9 17 3f
       0.6986704 -0.17923704 0.2356956 0.5936453
0000e0 23 72 60 3f 1f 31 ee bb 2d 58 53 3f b5 e6 9c bf
       0.8767416 -0.0072690393 0.8255642 -1.2257906
0000f0 fb 50 29 3f 65 47 90 be 05 fa d1 3e 11 0f 42 3e
       0.6613919 -0.2817947 0.41011062 0.1895106

feature_extract.mlps.1.batch_norms.0.running_var f4 [64]
000000 b4 b7 ba 3e 09 b1 2c 3f a9 32 2a 3f e9 22 cc 3e
       0.3646828 0.67457634 0.6648355 0.39870384
000010 4c d0 3a 3f f5 18 b0 3d 99 7f fb 3d 9b 53 d8 3e
       0.72974086 0.0859851 0.12280197 0.42251286
000020 1b bd dd 3e 00 06 88 3e 08 66 54 3f 50 e4 c8 3e
       0.4330834 0.26567078 0.8296819 0.3923669
000030 30 01 91 3e b1 96 9f 3f b6 f8 6d 3f fa ea 62 3f
       0.28321218 1.2467862 0.9295763 0.88639796
000040 ca 5c fd 3e eb 76 2e 3f bb 29 fc 3e 1b 20 b4 3e
       0.49484855 0.68150204 0.49250588 0.35180745
000050 c2 15 6a 3f 25 3d 3f 3f fc 1a da 3e bf 99 98 3f
       0.9143945 0.74702674 0.42598712 1.192192
000060 d1 96 74 3f a0 40 96 3f 22 2d 82 3f c5 ad a9 3e
       0.9554263 1.1738472 1.0170023 0.33140388
000070 f3 12 ae 3e 2c 88 63 3f 77 c9 ea 3d 6f 57 c1 3e
       0.33998832 0.88879657 0.114642076 0.3776202
000080 df f7 f0 3e 8d 3d ea 3e ad 30 9b 3e 62 d7 38 3f
       0.4706411 0.45750085 0.30310574 0.7220365
000090 f3 49 be 3e 60 da 1a 3f 0f 8b 36 3f 2b f3 05 3f
       0.37165794 0.60489464 0.71305937 0.5232417
0000a0 1a 6a cd 3e cf 05 40 3f dd e4 fc 3e 59 2c 32 3e
       0.40120012 0.75008863 0.4939336 0.1739973
0000b0 d7 f5 e0 3e ad 89 3c 3f 99 5c 43 3e ba 6a b3 3d
       0.4393756 0.73647577 0.19078292 0.08760591
0000c0 0c 9f f6 3f 62 4d 51 3e 0e 27 b9 3e 03 e1 c2 3d
       1.9267287 0.20439675 0.3616261 0.09515574
0000d0 c6 51 0d 3f 0c 60 87 3e 15 04 5e 3e 1c 56 17 3e
       0.552029 0.26440465 0.21681245 0.14778942
0000e0 90 b3 61 3f b1 ee 16 3e e9 97 e4 3e 5b 03 67 3f
       0.88164616 0.14739491 0.44647148 0.90239495
0000f0 8d 7c f7 3e 78 35 36 3f f5 f8 8c 3f 39 93 24 3f
       0.48337212 0.71175337 1.1013476 0.64287144

feature_extract.batch_norms.0.weight f4 [64]
000000 d2 88 7f 3f 24 bc 7f 3f 75 85 7f 3f 45 af 7f 3f
       0.99818146 0.99896455 0.99813014 0.99876815
000010 6d 35 80 3f bb 91 7f 3f 5a 7a 7f 3f 55 85 7f 3f
       1.0016304 0.9983174 0.9979607 0.99812824
000020 04 be 7f 3f 98 c3 7f 3f ca 82 7f 3f 76 2c 80 3f
       0.99899316 0.9990783 0.99808943 1.0013568
000030 80 34 80 3f 34 bc 7f 3f 80 2c 80 3f 09 0e 80 3f
       1.0016022 0.9989655 1.001358 1.0004283
000040 a3 0a 80 3f bc 39 80 3f ff eb 7f 3f 0f 36 80 3f
       1.0003246 1.0017619 0.99969476 1.0016497
000050 40 3a 80 3f cf 37 80 3f 31 95 7f 3f 3d 40 80 3f
       1.0017776 1.0017031 0.99837023 1.0019604
000060 5e 94 7f 3f 92 99 7f 3f d7 00 80 3f 6a 88 7f 3f
       0.99835765 0.99843705 1.0000256 0.99817526
000070 dc 2f 80 3f 85 9c 7f 3f a9 8d 7f 3f 98 7c 7f 3f
       1.0014606 0.99848205 0.9982553 0.9979949
000080 26 31 80 3f 88 48 80 3f 71 3d 80 3f ce a0 7f 3f
       1.0014999 1.0022135 1.001875 0.99854743
000090 b3 01 80 3f 1d 09 80 3f ca 78 7f 3f ba 3d 80 3f
       1.0000519 1.0002781 0.99793684 1.0018837
0000a0 a5 27 80 3f 90 9d 7f 3f fb 3c 80 3f f3 b5 7f 3f
       1.0012099 0.99849796 1.001861 0.9988701
0000b0 f3 de 7f 3f 8b 3a 80 3f e9 b7 7f 3f 84 38 80 3f
       0.9994957 1.0017866 0.9989 1.0017247
0000c0 6e 0e 80 3f df 29 80 3f a1 2c 80 3f 29 85 7f 3f
       1.0004404 1.0012778 1.001362 0.9981256
0000d0 a2 12 80 3f 0c de 7f 3f 3a 22 80 3f 17 75 7f 3f
       1.0005686 0.9994819 1.0010445 0.9978804
0000e0 6d 14 80 3f 17 28 80 3f 90 aa 7f 3f e7 d6 7f 3f
       1.0006233 1.0012234 0.9986963 0.9993729
0000f0 8a 2d 80 3f d6 b0 7f 3f 17 e7 7f 3f de 40 80 3f
       1.0013897 0.99879205 0.9996199 1.0019796

feature_extract.batch_norms.0.bias f4 [64]
000000 58 c8 e8 ba 0f e6 31 ba da dc fa 3a 66 aa a6 ba
       -0.0017759902 -0.00067862956 0.0019139305 -0.0012715578
000010 4c de e0 3a ab 63 e9 ba 31 18 d3 ba b9 65 91 3a
       0.0017156093 -0.0017806193 -0.0016105232 0.0011092938
000020 7d b5 27 ba 64 02 84 ba e9 f9 ea ba 70 c5 b6 3a
       -0.00063975883 -0.0010071513 -0.0017927262 0.0013944339
000030 33 07 eb 3a 4e 13 9e 3a 1f 32 ca 3a 26 1b e5 3a
       0.0017931223 0.0012060197 0.0015426314 0.0017479404
000040 5c 3b 6b b9 de 5f e0 3a 7f a8 a4 b9 8f d8 e4 3a
       -0.0002243346 0.0017118414 -0.00031406057 0.0017459559
000050 a2 f2 f1 3a c3 fe e7 3a f1 2f c5 ba ed 62 ee 3a
       0.0018459151 0.0017699826 -0.0015044195 0.0018187441
000060 97 eb e1 ba de 90 fb ba 41 93 0a 3b 89 d2 0f bb
       -0.0017236349 -0.0019192954 0.00211449 -0.0021945557
000070 c1 4a cd 3a 22 23 9e ba b9 f8 9d 3a 91 86 cc ba
       0.0015662537 -0.0012064914 0.0012052275 -0.0015604069
000080 93 4b d5 3a 44 6e 8f 3a 3f 7e e3 3a 38 ba cd ba
       0.0016273133 0.0010942896 0.001735635 -0.0015695756
000090 b4 3d 50 39 74 35 db 3a 38 92 f2 ba 7e 5c a6 b9
       0.00019859412 0.0016724304 -0.0018506711 -0.000317309
0000a0 21 16 ae 3a 8d 3d ce ba 81 ea e4 3a 03 a1 67 3a
       0.0013281741 -0.0015734896 0.0017464907 0.00088359433
0000b0 e4 e4 04 38 e7 49 8e 39 b4 7a c1 ba e6 54 d8 3a
       3.1684423e-05 0.00027139412 -0.00147613 0.0016504794
0000c0 65 76 8c b9 ec 31 d1 3a 81 27 db 3a 40 8c ef ba
       -0.00026791092 0.0015960312 0.0016720147 -0.0018276051
0000d0 77 62 9f 3a f7 57 09 3a dd 4b b8 3a 9c 02 09 bb
       0.0012160082 0.0005239243 0.0014060695 -0.0020906096
0000e0 64 bd dc 3a 69 87 e6 ba 0b 22 cf ba e7 ce ad ba
       0.0016841111 -0.0017587963 -0.0015802992 -0.0013260514
0000f0 bc eb bd 3a 5b a6 af b8 23 f5 68 39 e6 55 04 3b
       0.001448981 -8.3756364e-05 0.00022216565 0.00201928
