2WL_link_pred/checkpoint/archive/20221213_041823/2WL_state_dict_1602.pt (torch, 146879 bytes, 33 tensors)

lin1.1.0.weight f4 [96, 1]
-0.23065582 -0.6296743 -0.00069020526 -0.47244772 -0.20667563 0.77865934 -0.74661785 0.8799198
-0.72495836 0.80586916 0.6163089 -0.5202612 -0.82050544 -0.10181111 -0.7653948 0.50784963
0.118832454 -0.29519913 -0.50870395 0.832866 0.067181066 -0.431884 -0.6172224 -0.80829746
-0.6860987 -0.29899696 0.7063048 0.56160116 0.31472546 0.15209703 0.76379645 -0.54491895
-0.10809469 0.54640335 -0.087638065 0.70048726 -0.44868025 0.42775124 -0.44248706 0.677399
-0.09235819 0.28654194 0.814036 -0.010204567 -0.74631315 0.69644547 0.35081235 -0.63681364
-0.9645916 -0.32598746 -0.48077983 -0.31793335 -0.3768024 -0.47761115 0.86349976 0.612358
0.38634428 0.46782756 -0.6458555 -0.10135597 -0.30276966 0.13138188 -0.9126583 -0.07456527
-0.43657324 0.6870744 0.68663514 0.5852589 -0.6170048 -0.461531 -0.01662551 -0.7113715
-0.7733537 0.59654075 -0.089791164 -0.75167453 -0.6660062 0.67779803 0.66835105 0.96505046
0.46382076 -0.82836795 -0.88884217 0.57931775 -0.7993193 0.508611 -0.95380145 -0.9757459
-0.09996811 -0.60960037 0.44828352 0.4747182 -0.0854304 -0.5058811 -0.22184645 -0.31352705
00000000: 0a31 6cbe 5632 21bf e4ee 34ba abe4 f1be
00000010: c7a2 53be 3856 473f 5922 3fbf 6d42 613f
00000020: df96 39bf 714d 4e3f 6cc6 1d3f d72f 05bf
00000030: a50c 52bf 5882 d0bd eaf0 43bf 6f02 023f
00000040: 6e5e f33d 5724 97be 6c3a 02bf b536 553f
00000050: 3a96 893d e61f ddbe 4a02 1ebf 95ec 4ebf
00000060: 2aa4 2fbf 2116 99be 64d0 343f 18c5 0f3f
00000070: b223 a13e 53bf 1b3e 2a88 433f cf7f 0bbf
00000080: c060 ddbd 17e1 0b3f 967b b3bd 2253 333f
00000090: 6bb9 e5be 3602 db3e aa8d e2be 056a 2d3f
000000a0: 4a26 bdbd a0b5 923e aa64 503f 0e31 27bc
000000b0: 610e 3fbf 404a 323f ad9d b33e 3806 23bf
000000c0: 7aef 76bf d4e7 a6be c628 f6be 29c8 a2be
000000d0: 3fec c0be 7389 f4be 520e 5d3f 7ec3 1c3f
000000e0: ebce c53e 1887 ef3e c956 25bf b893 cfbd
000000f0: a004 9bbe f988 063e f9a3 69bf adb5 98bd
00000100: 8786 dfbe 1ce4 2f3f 52c7 2f3f 87d3 153f
00000110: 07f4 1dbf cb4d ecbe 3932 88bc 711c 36bf
00000120: 82fa 45bf e5b6 183f 6ee4 b7bd be6d 40bf
00000130: 627f 2abf 2c84 2d3f 0e19 2b3f 8c0d 773f
00000140: ea79 ed3e ec0f 54bf 298b 63bf 2b4e 143f
00000150: 31a0 4cbf 5534 023f 552c 74bf 7cca 79bf
00000160: 15bc ccbd c50e 1cbf 6b85 e53e 440e f33e
00000170: 22f6 aebd 6c81 01bf b72b 63be 9e86 a0be

lin1.1.0.bias f4 [96]
-0.9842368 -0.6432465 -0.501035 -0.7497282 -0.12224741 0.29316607 -0.14674121 -0.3539162
0.3969702 0.11313084 0.22797906 -0.029501457 -0.314911 0.78903294 0.29611424 -0.00870754
0.346676 -0.023779739 -0.20191528 -0.64523315 0.72250974 -0.09624709 -0.8323853 0.55708855
0.6613188 0.18816815 0.4560062 0.8108011 -0.20848861 -0.6326776 0.6236244 0.6264727
0.8221361 0.7272354 0.41330022 -0.062396478 -0.31397045 0.43235692 -0.8982187 -0.97542673
0.3925295 -0.3065703 0.12515813 0.21588895 -0.12466226 -0.6533015 0.07396513 0.28703746
0.24779911 -0.44759357 0.1713114 -0.5978922 0.3219559 0.14392394 0.23550858 -0.112384066
-0.21824789 -0.35405618 -0.00023548194 0.43247935 0.9072442 -0.48760873 -0.9753327 0.3843459
-0.24002308 -0.6692066 0.40272084 0.72465986 0.08078623 -0.26954255 -0.41353995 -0.23058859
0.97142345 0.3858037 -0.7678284 0.5765605 -0.8546709 -0.7930578 -0.2837215 -0.42926568
1.0152643 0.46377227 -0.81658125 0.85245866 -0.73010737 -0.015982188 -0.0353866 1.0114057
-0.16350596 0.25425848 0.021422334 0.11862341 -0.87737286 0.27713272 -0.33722538 0.044286624
00000000: f1f6 7bbf cdab 24bf d443 00bf 30ee 3fbf
00000010: da5c fabd dd19 963e 5443 16be 8134 b5be
00000020: ae3f cb3e 24b1 e73d 5873 693e 0aad f1bc
00000030: 043c a1be 10fe 493f 499c 973e 12aa 0ebc
00000040: 847f b13e bacd c2bc e1c2 4ebe 002e 25bf
00000050: 66f6 383f 321d c5bd 3417 55bf 5b9d 0e3f
00000060: 304c 293f 27af 403e a579 e93e a990 4f3f
00000070: 0a7e 55be 29f7 21bf d9a5 1f3f 8460 203f
00000080: 8377 523f 192c 3a3f 169c d33e 7393 7fbd
00000090: bcc0 a0be e35d dd3e a9f1 65bf 91b5 79bf
000000a0: a0f9 c83e c8f6 9cbe 7429 003e fe11 5d3e
000000b0: ed4e ffbd c43e 27bf 087b 973d 93f6 923e
000000c0: 0dbf 7d3e fc2a e5be 416c 2f3e 770f 19bf
000000d0: 67d7 a43e cc60 133e 2929 713e 9e29 e6bd
000000e0: 607c 5fbe da46 b5be b4eb 76b9 ef6d dd3e
000000f0: 2841 683f daa7 f9be 67af 79bf fcc8 c43e
00000100: 9cc8 75be 2051 2bbf 6d31 ce3e 4f83 393f
00000110: 4073 a53d 7b01 8abe 82bb d3be 6a1f 6cbe
00000120: 35af 783f 1088 c53e 6790 44bf 7899 133f
00000130: b6cb 5abf d605 4bbf f243 91be b6c8 dbbe
00000140: 2ef4 813f 8f73 ed3e 780b 51bf bb3a 5a3f
00000150: 51e8 3abf 14ed 82bc 8af1 10bd be75 813f
00000160: 1b6e 27be 2b2e 823e e47d af3c d5f0 f23d
00000170: 829b 60bf 57e4 8d3e cea8 acbe e465 353d

conv1s.0.modlist.0.bias f4 [96]
-0.0014852565 -0.046868738 -0.033999726 -0.16405976 0.052966725 -0.03904653 -0.090288416 0.03610273
0.01647898 0.0024683154 -0.08150521 -0.01108875 -0.04296988 -0.004878406 -0.021502363 0.0008637013
0.06341504 0.026526265 0.10954003 -0.05039284 0.03189428 0.035019152 -0.08781189 0.015478495
0.0695928 -0.052392315 0.020645153 -0.0037772134 -0.030753342 0.053134635 0.059350226 0.032860644
0.008596425 -0.027425872 0.28964114 0.032140568 0.016199898 0.013372112 0.057648126 -0.020513285
-0.15759055 0.09363262 0.051324595 -0.014781359 -0.00872866 -0.04584516 0.027430102 0.027870912
0.02936432 -0.00018430653 -0.041261874 -0.07700366 0.03609739 0.012137155 -0.05922178 0.009308022
-0.009376776 0.013442868 0.0019078921 -0.056367494 0.032610077 0.039358016 0.049735975 0.025062846
0.038948365 0.041376922 -0.030071374 0.012519555 -0.0641659 0.1403172 -0.0043819933 -0.035207942
-0.20714894 0.051754594 0.011097409 0.019724302 0.02063178 0.05173297 0.00619936 -0.025162801
-0.004683089 0.045595832 -0.036290888 0.026795428 -0.00588686 -0.0008814553 0.039637387 0.024837555
0.027455 -0.15855718 0.027554957 0.0005450837 0.042039827 0.0044206358 0.032705978 0.021564448
00000000: f0ac c2ba 6ff9 3fbd 4c43 0bbd 48ff 27be
00000010: a3f3 583d 41ef 1fbd 22e9 b8bd 75e0 133d
00000020: edfe 863c 76c3 213b 34ec a6bd 97ad 35bc
00000030: 2f01 30bd 09db 9fbb b925 b0bc 036a 623a
00000040: bfdf 813d 9c4d d93c 8656 e03d b968 4ebd
00000050: 94a3 023d 3e70 0f3d b8d6 b3bd 8399 7d3c
00000060: ac86 8e3d 5399 56bd 0620 a93c 208b 77bb
00000070: 6fee fbbc b4a3 593d 3919 733d e298 063d
00000080: 05d8 0c3c 39ac e0bc d84b 943e d4a5 033d
00000090: a6b5 843c b416 5b3c 7120 6c3d 7a0b a8bc
000000a0: 6b5f 21be 76c2 bf3d bd39 523d 832d 72bc
000000b0: a702 0fbc 22c8 3bbd 18b5 e03c 8a51 e43c
000000c0: 718d f03c 6842 41b9 3602 29bd 18b4 9dbd
000000d0: dbda 133d ebda 463c 8a92 72bd ad80 183c
000000e0: 0da1 19bc 7a3f 5c3c 3c12 fa3a 9ae1 66bd
000000f0: 2592 053d df35 213d f3b7 4b3d 9950 cd3c
00000100: 5288 1f3d d97a 293d 3e58 f6bc d21e 4d3c
00000110: 6969 83bd 50af 0f3e d396 8fbb 3436 10bd
00000120: da1e 54be a0fc 533d e8d1 353c dc94 a13c
00000130: fb03 a93c f3e5 533d 0024 cb3b 3822 cebc
00000140: 9974 99bb b2c2 3a3d c1a5 14bd 1682 db3c
00000150: 90e6 c0bb 7711 67ba d05a 223d 2178 cb3c
00000160: 4fe9 e03c d05c 22be efba e13c f3e3 0e3a
00000170: f431 2c3d fbda 903b b4f6 053d eda7 b03c

conv1s.0.modlist.0.lin.weight f4 [96, 96]
0.01769536 0.16030361 0.14494248 -0.052560344 0.11252559 -0.11134218 0.020391384 -0.13102935
0.10352139 -0.017575087 -0.123591624 0.1054018 0.15144342 -0.15440243 -0.110867314 -0.10447673
0.04366247 -0.015231604 -0.03802772 -0.050576333 -0.07314206 -0.0057868664 0.08649882 -0.17794384
-0.020982986 0.17103457 -0.15669337 0.13613842 0.019883536 -0.092299744 -0.056287635 0.0312352
-0.07100055 0.045928996 -0.120691225 -0.07352306 -0.015660705 -0.05840348 -0.023659557 -0.09143326
0.14227782 -0.03396559 0.049540747 0.05203769 -0.028193021 0.010488603 -0.18230353 -0.11919242
-0.1787573 -0.03221598 -0.111643955 -0.18301407 -0.018301379 -0.024326041 0.04523512 0.10459028
0.15745948 0.14504644 -0.10760396 -0.020050619 -0.15554602 -0.1450671 -0.18030836 0.07029697
0.122363575 -0.13384813 0.09747048 -0.14232753 0.08079822 -0.023556046 -0.117884144 0.04539954
0.074025616 -0.06824505 -0.17974453 -0.029154936 0.055976417 0.058046356 -0.008497907 0.022371715
0.15633465 0.116835736 -0.0068561034 -0.10400616 -0.09832509 -0.08284424 -0.12351688 -0.09079689
-0.05351097 -0.1332195 -0.09184593 -0.0048186663 0.025888879 0.062977 0.15322076 -0.07641233
-0.06388684 0.0036665078 0.06570691 -0.00876578 -0.10410168 -0.012673252 0.17048404 0.054896306
-0.038447626 -0.0032054393 -0.023095468 -0.13474578 0.03262868 -0.05900408 -0.15168314 -0.028032718
-0.093685396 -0.07548122 0.10814183 0.044872697 -0.19074307 -0.020319622 -0.08902275 -0.21102299
-0.09150352 0.09360263 -0.032763954 0.13450955 -0.1660841 0.07842906 -0.09946811 0.18994085
0.032291707 0.106597714 0.027891 -0.1005812 -0.062116522 -0.1664706 0.20037918 0.045763917
-0.0052323607 -0.0023593137 0.045591265 0.07535767 0.17107904 -0.21991277 0.046073608 0.10682285
-0.09714714 -0.042432547 -0.16046177 0.026198452 0.18183054 -0.07447759 0.005619899 0.10084617
-0.11330411 0.13818456 -0.06558892 0.15098043 0.01719069 0.11607711 0.065631576 0.02168474
0.04286457 -0.037583318 -0.07278863 0.07215891 -0.14689593 0.1797741 0.050638385 0.05805761
-0.11816669 -0.14818497 -0.03139428 -0.022957599 0.2187858 0.15853599 0.09796925 -0.003502615
0.059661772 0.12341277 0.07365663 0.1366175 0.13560945 -0.011443304 -0.106641985 0.07844595
0.17371513 -0.10718057 -0.10939797 -0.08721862 0.06295524 0.03612787 0.15612555 -0.026092226
-0.11775378 0.10038475 0.0620209 -0.14821683 -0.07136541 0.006848714 0.09903823 -0.07204728
-0.119127184 0.14733717 0.146734 -0.05672081 -0.13510674 0.113326244 0.14631207 -0.034019336
0.05470121 0.12959786 0.10512642 0.005764195 -0.07850248 -0.14148423 0.12594801 -0.13704778
-0.027437638 0.06490139 -0.022554649 -0.14521092 0.042411633 0.015665531 -0.07217182 0.08068603
-0.19238377 -0.01708555 -0.07343545 -0.047425747 0.18728839 -0.13634172 -0.04806859 -0.16054443
-0.14548275 -0.20199513 -0.10377184 -0.01703749 0.0677006 -0.06333962 -0.15173058 -0.16979988
0.11753171 -0.16589217 -0.17111206 -0.113849424 0.029684363 -0.10703408 -0.032976523 -0.11031856
0.0067249727 -0.100714445 0.0048928102 0.049297273 -0.15627053 0.108667724 0.14698038 0.040714968
00000000: dcf5 903c a126 243e cd6b 143e 8449 57bd
00000010: d173 e63d 5e07 e4bd d50b a73c 8f2c 06be
00000020: 0603 d43d a1f9 8fbc 9b1d fdbd e6dc d73d
00000030: fc13 1b3e ac1b 1ebe 670e e3bd e5f7 d5bd
00000040: 6bd7 323d fa8d 79bc f4c2 1bbd 2129 4fbd
00000050: 81cb 95bd c19f bdbb 4b26 b13d e936 36be
00000060: 83e4 abbc b023 2f3e 3a74 20be df67 0b3e
00000070: cce2 a23c a607 bdbd dd8d 66bd f6e0 ff3c
00000080: bd68 91bd 0b20 3c3d f62c f7bd 4293 96bd
00000090: e14a 80bc 7d38 6fbd b0d1 c1bc 5c41 bbbd
000000a0: 47b1 113e 811f 0bbd 3deb 4a3d 7925 553d
000000b0: 0df5 e6bc 64d8 2b3c c7ad 3abe 281b f4bd
000000c0: 270c 37be e7f4 03bd 96a5 e4bd 0a68 3bbe
000000d0: c6ec 95bc 6847 c7bc 7648 393d 6e33 d63d
000000e0: 0f3d 213e 0e87 143e 775f dcbd 3241 a4bc
000000f0: 7547 1fbe 788c 14be c1a2 38be dcf7 8f3d
00000100: c199 fa3d 7c0f 09be 9a9e c73d 4fbe 11be
00000110: 8a79 a53d 9cf8 c0bc 3e6d f1bd def4 393d
00000120: be9a 973d 10c4 8bbd f30e 38be 55d6 eebc
00000130: 8747 653d 04c2 6d3d ce3a 0bbc e344 b73c
00000140: 3116 203e 9347 ef3d 2aa9 e0bb 2e01 d5bd
00000150: aa5e c9bd 3eaa a9bd 6bf6 fcbd b8f3 b9bd
00000160: 522e 5bbd b16a 08be b819 bcbd e7e5 9dbb
00000170: ea14 d43c 16fa 803d e7e5 1c3e 117e 9cbd
00000180: 1bd7 82bd cb49 703b 5891 863d 599e 0fbc
00000190: 4333 d5bd 79a3 4fbc 5e93 2e3e f3da 603d
000001a0: 427b 1dbd 5912 52bb b532 bdbc ccfa 09be
000001b0: a7a5 053d 43ae 71bd d352 1bbe dfa4 e5bc
000001c0: 21de bfbd e695 9abd 7779 dd3d 6fcc 373d
000001d0: 2752 43be 5675 a6bc 8f51 b6bd 6916 58be
000001e0: 3366 bbbd bcb2 bf3d 7f33 06bd dfbc 093e
000001f0: f311 2abe 6a9f a03d f0b5 cbbd db7f 423e
00000200: 4f44 043d e74f da3d ab7b e43c 84fd cdbd
00000210: e56d 7ebd 4577 2abe 3330 4d3e f272 3b3d
00000220: 3974 abbb b79e 1abb e8bd 3a3d 1f55 9a3d
00000230: 582f 2f3e d030 61be aeb7 3c3d f0c5 da3d
00000240: 14f5 c6bd c0cd 2dbd 1750 24be 239e d63c
00000250: c931 3a3e b587 98bd 2127 b83b 7088 ce3d
00000260: fc0b e8bd 4180 0d3e 7c53 86bd 9d9a 1a3e
00000270: 7dd3 8c3c d6b9 ed3d d969 863d 32a4 b13c
00000280: c292 2f3d f7f0 19bd 3512 95bd 0dc8 933d
00000290: e36b 16be b416 383e 326a 4f3d d1cd 6d3d
000002a0: 6101 f2bd cdbd 17be 4a97 00bd 9311 bcbc
000002b0: 6209 603e 4257 223e 1aa4 c83d 218c 65bb
000002c0: e75f 743d d6bf fc3d 4ad9 963d 75e5 0b3e
000002d0: 34dd 0a3e b27c 3bbc 1d67 dabd 45a8 a03d
000002e0: 61e2 313e 7d81 dbbd 0b0c e0bd ad9f b2bd
000002f0: adee 803d d1fa 133d 60df 1f3e 5dbf d5bc
00000300: e528 f1bd 8596 cd3d a109 7e3d 27c6 17be
00000310: 0728 92bd 2d6b e03b 8ed4 ca3d 868d 93bd
00000320: f4f8 f3bd 8edf 163e 7041 163e 1454 68bd
00000330: 6c59 0abe 9717 e83d d5d2 153e dc57 0bbd
00000340: 600e 603d 4db5 043e 854c d73d 93e1 bc3b
00000350: e9c5 a0bd 3ee1 10be 84f8 003e 4156 0cbe
00000360: e6c4 e0bc 05eb 843d 87c4 b8bc 2cb2 14be
00000370: d2b7 2d3d 0055 803c d2ce 93bd b83e a53d
00000380: 4000 45be fff6 8bbc 5365 96bd 8041 42bd
00000390: 87c8 3f3e 2a9d 0bbe 92e3 44bd c265 24be
000003a0: 6ef9 14be d0d7 4ebe 5586 d4bd 3592 8bbc
000003b0: 9da6 8a3d 34b8 81bd 435f 1bbe 05e0 2dbe
000003c0: 77b4 f03d a3df 29be 0038 2fbe e329 e9bd
000003d0: 9f2c f33c af34 dbbd 6412 07bd b2ee e1bd
000003e0: 295d dc3b 6043 cebd de53 a03b f0eb 493d
000003f0: 6205 20be 2f8d de3d 0682 163e bdc4 263d

conv1s.0.modlist.1.weight f4 [96]
1.0155879 0.9966664 1.0173297 0.975054 1.0068518 0.9815035 1.0004016 0.9951447
0.9872071 1.0087696 1.0043484 1.0701915 1.0120765 0.97947687 0.9720384 0.95567757
0.9829223 1.0480682 1.0490499 1.0190426 0.9734342 0.96249557 0.9996909 0.98855996
0.9693894 1.005721 1.0487839 1.0314422 1.019729 1.0065666 0.995841 1.026085
0.99936646 1.0034741 0.97112995 1.0188577 1.0162243 1.0124998 1.0575025 1.0285792
1.0042865 1.0269083 1.0281116 1.0138494 0.9886187 0.98765373 0.99430186 1.0053113
1.0203972 1.0260798 1.0467403 0.9763284 1.038273 0.99685365 1.06106 1.0063704
1.0192995 0.9795064 0.9924826 0.97879565 0.9930293 0.96715754 0.98466384 0.9973738
1.0060254 0.98102325 0.9792482 1.0002075 0.965611 0.99022436 0.9731233 1.0063094
0.96996355 1.0015621 1.0057845 0.982065 0.97300726 0.94905907 1.0182378 0.95464724
1.0027485 0.99730235 0.99152005 0.9843858 0.97466874 1.0444468 0.99634284 0.9610579
0.96949923 1.0224217 0.974747 0.9744791 1.0374997 0.9848386 1.0211937 1.0227337
00000000: c9fe 813f 8725 7f3f dc37 823f 249d 793f
00000010: 85e0 803f d043 7b3f 290d 803f cec1 7e3f
00000020: 9bb9 7c3f 5d1f 813f 7d8e 803f 09fc 883f
00000030: b98b 813f ffbe 7a3f 82d7 783f 49a7 743f
00000040: cca0 7b3f 1927 863f 4447 863f fd6f 823f
00000050: fc32 793f 1c66 763f beeb 7f3f 4412 7d3f
00000060: e729 783f 77bb 803f 8d3e 863f 4c06 843f
00000070: 7b86 823f 2dd7 803f 70ef 7e3f c156 833f
00000080: 7bd6 7f3f d771 803f f99b 783f ee69 823f
00000090: a313 823f 9899 813f 3e5c 873f 7ca8 833f
000000a0: 768c 803f bb71 833f 2999 833f d1c5 813f
000000b0: 1d16 7d3f e0d6 7c3f 918a 7e3f 0aae 803f
000000c0: 609c 823f 9556 833f 96fb 853f a8f0 793f
000000d0: 21e6 843f cd31 7f3f d0d0 873f bfd0 803f
000000e0: 6878 823f eec0 7a3f 5713 7e3f 5a92 7a3f
000000f0: 2b37 7e3f a397 773f ee12 7c3f e453 7f3f
00000100: 71c5 803f 5724 7b3f 03b0 7a3f cd06 803f
00000110: 4832 773f 587f 7d3f 9c1e 793f bfce 803f
00000120: 884f 783f 3033 803f 8cbd 803f 9d68 7b3f
00000130: 0117 793f 89f5 723f 9e55 823f c363 743f
00000140: 105a 803f 354f 7f3f 42d4 7d3f b500 7c3f
00000150: e483 793f 6fb0 853f 5310 7f3f e407 763f
00000160: 1a31 783f b7de 823f 0589 793f 7677 793f
00000170: cacc 843f 621e 7c3f 7ab6 823f f0e8 823f

conv1s.0.modlist.1.bias f4 [96]
-0.0004733618 0.0371637 0.049536277 0.078135066 -0.044660337 0.034487963 -0.053724308 -0.006567058
0.031963754 0.026844248 -0.04791674 -0.032579787 0.0060817446 0.026576681 0.034005143 0.027418172
0.04458019 -0.042427015 -0.013006285 -0.053055454 -0.029186657 -0.001628448 -0.072542794 -0.0004445125
-0.0665762 -0.04521811 -0.015226406 -0.026369011 -0.044501785 0.052458603 0.014868714 -0.011993883
-0.0098747555 -0.024708768 0.15170597 0.042738058 -0.027052369 -0.019864254 0.05778723 -0.0004891896
-0.0707309 -0.007927415 0.014619364 -0.034326375 0.03312517 0.022633145 -0.04032682 0.035446472
-0.01606914 -0.026063642 0.0042871647 -0.040555254 -0.04786535 -0.020660233 0.063393526 -0.015090493
0.030074373 -0.021438636 0.00863343 -0.04646846 -0.009418881 0.029356828 0.0019533227 0.006025545
0.022524618 0.011814481 -0.026050033 0.03226889 0.03684164 -0.07128938 0.013790106 -0.0030613618
0.085373834 -0.014400922 0.023806741 0.010449487 0.012705886 0.011475043 0.004483285 -0.0057212007
0.009349381 0.042207193 0.00021138597 0.02323367 0.014157563 -0.019599525 0.041920047 -0.02851777
0.03037661 0.09697686 0.022521278 -0.009668312 -0.004345701 -0.026646812 -0.03897361 0.0013376931
00000000: 8c2d f8b9 f738 183d 8de6 4a3d 4705 a03d
00000010: c2ed 36bd 4043 0d3d 050e 5cbd 7a30 d7bb
00000020: 6dec 023d 78e8 db3c 5844 44bd 6272 05bd
00000030: 5f49 c73b 57b7 d93c fa48 0b3d 139c e03c
00000040: b899 363d f3c7 2dbd 5018 55bc ad50 59bd
00000050: db18 efbc a671 d5ba 5191 94bd 750d e9b9
00000060: 1a59 88bd a036 39bd 2d78 79bc d303 d8bc
00000070: 8147 36bd d5de 563d e89b 733c fe81 44bc
00000080: bac9 21bc 0b6a cabc cf58 1b3e 1a0e 2f3d
00000090: ee9c ddbc 5cba a2bc 4db2 6c3d f53c 00ba
000000a0: 5ddb 90bd fde1 01bc 0f86 6f3c d099 0cbd
000000b0: 42ae 073d 2569 b93c bc2d 25bd 5230 113d
000000c0: 6ea3 83bc 6b83 d5bc 587b 8c3b 441d 26bd
000000d0: 750e 44bd a63f a9bc 77d4 813d 1d3e 77bc
000000e0: 885e f63c 14a0 afbc 3b73 0d3c b655 3ebd
000000f0: a651 1abc bb7d f03c 5103 003b ef71 c53b
00000100: 8c85 b83c 8691 413c e166 d5bc 622c 043d
00000110: 42e7 163d 2b00 92bd e6ef 613c 21a1 48bb
00000120: 7ad8 ae3d d8f1 6bbc 5b06 c33c 5334 2b3c
00000130: 592c 503c d201 3c3c 85e8 923b e978 bbbb
00000140: 252e 193c 73e1 2c3d 7da7 5d39 8a54 be3c
00000150: 20f5 673c 2f8f a0bc 5bb4 2b3d 199e e9bc
00000160: 5ed8 f83c ce9b c63d 8b7e b83c d767 1ebc
00000170: 6266 8ebb 6a4a dabc cba2 1fbd 8855 af3a

conv1s.0.modlist.1.mean_scale f4 [96]
1.0148613 1.0418954 1.0379776 1.075261 1.0425245 1.0428072 0.93883747 0.9952187
0.9674867 1.0161059 0.9414472 0.97607404 0.99593425 1.0339246 0.99946404 0.9740692
0.9820919 1.0389035 0.99390984 0.9393751 1.0307642 0.9979069 0.9322802 0.99613094
1.0538234 0.9587571 0.9913424 0.9705999 0.9704618 0.95057654 1.0124998 1.0270619
0.9969065 1.0150505 0.8273305 0.9573643 1.028928 0.9860389 0.96788085 1.0014725
0.9123349 0.98882407 0.9832404 0.9681245 1.0246079 1.0378739 1.0264404 0.948403
0.98183 1.022497 1.0046594 0.94052035 1.0438304 0.9807256 1.035845 1.0153025
0.96944934 1.0242518 0.9920068 0.95536965 1.0077299 0.95663005 1.0082766 1.0054724
1.0142437 1.0150998 1.0032405 0.9670387 1.0562835 1.0528861 0.9846877 0.98631287
1.1379437 1.0264626 1.0402317 1.0091363 1.0121623 1.0041959 1.0043414 1.0091571
0.9871711 0.96171784 1.000534 1.0176189 1.0168341 0.98438656 0.95627314 1.0391306
0.9617131 1.0864061 0.9922904 0.9922596 0.9965174 1.0290647 1.0375127 1.0017836
00000000: fae6 813f d45c 853f 73dc 843f 27a2 893f
00000010: 7171 853f b57a 853f a757 703f a7c6 7e3f
00000020: 35ad 773f c20f 823f af02 713f fddf 793f
00000030: 8cf5 7e3f a457 843f e0dc 7f3f 995c 793f
00000040: 606a 7b3f cafa 843f e070 7e3f e37a 703f
00000050: 15f0 833f d476 7f3f eaa9 6e3f 7002 7f3f
00000060: afe3 863f 1b71 753f 9ec8 7d3f 3c79 783f
00000070: 2f70 783f fc58 733f 9899 813f c476 833f
00000080: 4435 7f3f 2ded 813f efcb 533f d415 753f
00000090: eab3 833f 0c6d 7c3f 0ac7 773f 4030 803f
000000a0: c88e 693f 9323 7d3f a5b5 7b3f 02d7 773f
000000b0: 5a26 833f 0dd9 843f 6662 833f 8aca 723f
000000c0: 3659 7b3f 2fe1 823f ae98 803f f1c5 703f
000000d0: 3c9c 853f d510 7b3f 9296 843f 6ff5 813f
000000e0: d52d 783f af1a 833f 28f4 7d3f 1b93 743f
000000f0: 4bfd 803f b5e5 743f 350f 813f 52b3 803f
00000100: bdd2 813f caee 813f 2f6a 803f d98f 773f
00000110: 4c34 873f f9c4 863f 7e14 7c3f 007f 7c3f
00000120: 24a8 913f 2063 833f 5026 853f 612b 813f
00000130: 898e 813f 7e89 803f 428e 803f 0f2c 813f
00000140: 3fb7 7c3f 2433 763f 8011 803f 5641 823f
00000150: 9f27 823f c200 7c3f 51ce 743f 3b02 853f
00000160: d432 763f 5b0f 8b3f be06 7e3f ba04 7e3f
00000170: c41b 7f3f 64b8 833f 37cd 843f 723a 803f

conv1s.1.modlist.0.bias f4 [64]
-0.022343703 0.06311044 0.035959054 -0.049016085 0.012106486 0.10780654 -0.048754007 -0.025820354
0.10445979 0.005074702 -0.015789054 0.053959303 0.05152126 -0.02358172 -0.03215077 0.033619523
0.11556415 0.10150114 -0.011000564 -0.0255011 0.061069313 -0.053341176 0.055182897 0.018816534
-0.03485298 -0.033274986 0.054660387 -0.062504195 0.016576033 0.08890112 -0.062481787 0.005515672
0.16598289 -0.19045068 -0.033640288 -0.055835705 -0.10047532 0.078047566 -0.07767298 0.022005955
-0.10371383 -0.029243803 -0.122925304 0.017795471 0.034234162 -0.04480555 0.021147367 0.13003603
-0.12300947 0.15783067 -0.028223133 -0.012671621 -0.07425786 -0.005200693 -0.06617042 0.018699646
-0.0678132 -0.03248751 0.03918144 0.01272188 -0.030271249 0.0036477272 0.033802375 -0.009874473
00000000: 240a b7bc 0c40 813d cd49 133d 17c5 48bd
00000010: 485a 463c adc9 dc3d 48b2 47bd 3585 d3bc
00000020: 04ef d53d b049 a63b 0c58 81bc 6e04 5d3d
00000030: f507 533d 742e c1bc 87b0 03bd a0b4 093d
00000040: e6ac ec3d d4df cf3d b63b 34bc afe7 d0bc
00000050: d123 7a3d 477c 5abd 7607 623d 2225 9a3c
00000060: 00c2 0ebd 5a4b 08bd 92e3 5f3d 3302 80bd
00000070: 76ca 873c ca11 b63d e7ec 7fbd cfbc b43b
00000080: 6bf7 293e 8105 43be 66ca 09bd fbb3 64bd
00000090: 01c6 cdbd 67d7 9f3d 0313 9fbd d545 b43c
000000a0: eb67 d4bd b390 efbc 43c0 fbbd cfc7 913c
000000b0: 1f39 0c3d 0686 37bd 3e3d ad3c 2a28 053e
000000c0: 64ec fbbd 5d9e 213e 3334 e7bc a19c 4fbc
000000d0: 8114 98bd 936a aabb 5b84 87bd 0030 993c
000000e0: a6e1 8abd a011 05bd b87c 203d 6f6f 503c
000000f0: 69fb f7bc b50e 6f3b 5c74 0a3d 8bc8 21bc

conv1s.1.modlist.0.lin.weight f4 [64, 96]
-0.063757464 -0.050845128 0.02060859 -0.049790032 0.14381573 0.103597336 0.038607795 0.13984385
0.06655379 0.092440665 -0.038009785 0.02639873 0.04812267 0.1401199 0.10518991 0.15316968
-0.17200218 -0.11241381 -0.039636478 0.07483755 -0.1266628 -0.06406827 0.018690495 -0.07270403
0.1046283 -0.07476001 -0.08875598 -0.112747155 -0.013622231 -0.16021605 0.1842582 -0.039736614
0.017075477 -0.048113175 0.07680467 0.13893011 0.12617058 0.16431323 -0.01352166 0.13324243
-0.16184951 -0.1752465 -0.014710252 -0.1631333 -0.06974501 -0.11833451 0.13306072 -0.059357062
-0.17551805 0.13279806 0.06356424 0.18117812 0.09799772 0.025828796 0.043263827 0.14994857
-0.06033951 0.06421054 0.055738136 -0.08050845 -0.120611124 -0.076219454 -0.09347665 -0.048973963
0.15568377 -0.046324253 0.17829105 -0.116029546 0.01949599 -0.036536053 0.21420436 -0.13262172
0.20124596 0.074475974 -0.16871455 -0.06737444 -0.037430957 -0.13585833 -0.100133434 -0.0004870554
0.018942785 0.12325896 0.12672015 0.1611796 0.09968403 -0.011065189 -0.069928445 -0.082588986
0.14511576 -0.12752768 0.024469974 0.07128362 0.20149529 -0.021376383 -0.05689618 -0.019203754
-0.017701266 0.17121845 -0.14669314 -0.012339698 0.019222392 0.2232775 -0.004231773 -0.14061347
-0.09120903 0.05794878 0.03108697 0.043621723 -0.03602987 -0.1533898 0.10997057 -0.14539135
0.043923575 -0.18666361 -0.20156851 0.08004365 0.036505673 0.060266234 -0.13393158 -0.12631248
0.03472383 -0.011298353 -0.16350383 0.022010682 -0.14859352 0.14719523 -0.026092593 -0.087250605
0.11882228 0.10937027 0.014896573 -0.085565485 0.08770598 -0.09324835 0.117508754 -0.07615772
0.20028003 -0.03217647 0.11039939 -0.012784055 -0.032732427 0.058409862 0.20873424 0.036620703
0.16933163 0.05620489 -0.026502058 0.096268274 0.029780926 -0.05912234 0.0778143 0.060854636
-0.09115306 -0.067740485 -0.034670196 -0.026297258 0.15977226 0.17640547 -0.029997988 -0.04861632
-0.0035921657 -0.14256822 0.084613085 -0.16251196 0.04818249 0.012974272 -0.0035576841 -0.14116217
0.027571887 -0.0040664915 -0.030617619 -0.04010487 -0.018808747 0.12034139 0.060331054 -0.054098323
0.030719485 0.011453621 -0.1792127 0.048161894 0.1952502 -0.12335692 -0.026088195 0.12734775
0.14317451 0.1616247 -0.065576166 0.029818244 -0.03151209 -0.15893771 -0.18195474 -0.048258357
0.16582099 -0.0047652475 -0.11648474 0.0944387 -0.18777826 0.1215976 -0.10730518 -0.10088944
0.12831332 -0.009807302 -0.013181423 -0.027308408 -0.08873126 -0.15136547 0.06711924 -0.14439596
-0.044567995 -0.12392775 0.078264594 0.11976331 0.011167833 -0.14926215 -0.06637723 0.14264356
0.13447933 0.1529478 -0.14498924 -0.23011982 -0.15106125 0.101906925 -0.12547874 0.046672143
-0.014909323 0.046563204 0.1741595 0.060310576 0.023061952 0.022037916 -0.22746025 0.18678463
-0.10411227 0.15408683 -0.0692773 -0.15223594 -0.037678245 -0.0067322534 -0.043642975 -0.15572391
-0.04302831 -0.13145524 0.17075089 -0.069706105 -0.035405226 0.038743295 0.10769681 -0.0039047368
0.09522954 -0.06353087 0.012879326 -0.15641819 0.06996185 0.15348412 -0.049333323 -0.09266002
00000000: 4693 82bd fb42 50bd 59d3 a83c a2f0 4bbd
00000010: 6e44 133e d72a d43d 3523 1e3d 3a33 0f3e
00000020: 5a4d 883d 8851 bd3d 26b0 1bbd 2642 d83c
00000030: 471c 453d 977b 0f3e cf6d d73d 83d8 1c3e
00000040: 5721 30be 3639 e6bd dc59 22bd 6e44 993d
00000050: e5b3 01be 3a36 83bd cf1c 993c dae5 94bd
00000060: 5d47 d63d c71b 99bd b2c5 b5bd fbe7 e6bd
00000070: c72f 5fbc ad0f 24be 2eae 3c3e dcc2 22bd
00000080: dfe1 8b3c 5212 45bd c44b 9d3d b243 0e3e
00000090: dc32 013e ba41 283e f489 5dbc b470 083e
000000a0: e1bb 25be d273 33be 4503 71bc 6a0c 27be
000000b0: 79d6 8ebd 5d59 f2bd 1241 083e 6420 73bd
000000c0: 01bb 33be 37fc 073e f82d 823d c286 393e
000000d0: 07b3 c83d e996 d33c 6935 313d 1e8c 193e
000000e0: 9026 77bd d180 833d ac4d 643d 9de1 a4bd
000000f0: f702 f7bd f218 9cbd b070 bfbd ec98 48bd
00000100: 916b 1f3e 80be 3dbd ee91 363e e6a0 edbd
00000110: 0eb6 9f3c d4a6 15bd 6358 5b3e fdcd 07be
00000120: 6c13 4e3e dc86 983d 82c3 2cbe 9cfb 89bd
00000130: 3451 19bd 721e 0bbe c212 cdbd 785b ffb9
00000140: e62d 9b3c 326f fc3d edc2 013e 440c 253e
00000150: 2427 cc3d c44a 35bc a536 8fbd 6a24 a9bd
00000160: 3a99 143e 9e96 02be 4175 c83c 26fd 913d
00000170: c854 4e3e 861d afbc f80b 69bd 3151 9dbc
00000180: 3f02 91bc e453 2f3e ba36 16be 722c 4abc
00000190: 4778 9d3c dba2 643e afaa 8abb fafc 0fbe
000001a0: cdcb babd b35b 6d3d 1aaa fe3c b1ac 323d
000001b0: 0f94 13bd 3712 1dbe 4038 e13d 78e1 14be
000001c0: 35e9 333d bf24 3fbe fa67 4ebe eded a33d
000001d0: f986 153d bad9 763d 5c25 09be 0f58 01be
000001e0: 933a 0e3d ba1c 39bc 8c6d 27be bf4f b43c
000001f0: e628 18be 59ba 163e 22c0 d5bc 72b0 b2bd
00000200: 1859 f33d 85fd df3d c110 743c f53c afbd
00000210: 319f b33d fef8 bebd 6ea8 f03d 94f8 9bbd
00000220: 3516 4d3e 79cb 03bd 1319 e23d 3774 51bc
00000230: 7012 06bd 2e3f 6f3d 6ebe 553e 97ff 153d
00000240: 4565 2d3e 1937 663d d81a d9bc 4d28 c53d
00000250: 21f7 f33c 442a 72bd 1b5d 9f3d b642 793d
00000260: 75ae babd 86bb 8abd 5602 0ebd 596d d7bc
00000270: 579b 233e a3a3 343e 57be f5bc e821 47bd
00000280: 8a6a 6bbb 67fd 11be a049 ad3d 8969 26be
00000290: 015b 453d 0a92 543c 0928 69bb d18c 10be
000002a0: 70de e13c 3440 85bb cdd1 fabc 0145 24bd
000002b0: cd14 9abc 8c75 f63d b21d 773d 3496 5dbd
000002c0: 6ea7 fb3c f8a7 3b3c 8983 37be 6845 453d
000002d0: abef 473e 8ea2 fcbd e9b6 d5bc 7367 023e
000002e0: 579c 123e f280 253e cc4c 86bd 6445 f43c
000002f0: d212 01bd 91c0 22be 5852 3abe 8eaa 45bd
00000300: facc 293e cb25 9cbb 8d8f eebd 1469 c13d
00000310: f248 40be 2a08 f93d d1c2 dbbd 1f9f cebd
00000320: 9164 033e ceae 20bc e5f6 57bc e2b5 dfbc
00000330: bcb8 b5bd 8dff 1abe d075 893d 89dc 13be
00000340: ee8c 36bd d5cd fdbd 3049 a03d 7746 f53d
00000350: 49f9 363c 2dd8 18be c9f0 87bd 2711 123e
00000360: f3b4 093e 599e 1c3e 0f78 14be 88a4 6bbe
00000370: cdaf 1abe 94b4 d03d 807d 00be 4a2b 3f3d
00000380: 3c46 74bc 0fb9 3e3d de56 323e 3908 773d
00000390: 6bec bc3c dc88 b43c 57eb 68be 7844 3f3e
000003a0: d038 d5bd f0c8 1d3e 42e1 8dbd bde3 1bbe
000003b0: 8154 1abd 3c9a dcbb fac2 32bd 1776 1fbe
000003c0: 743e 30bd 349c 06be 52d9 2e3e 13c2 8ebd
000003d0: 1205 11bd 4ab1 1e3d 2590 dc3d 9de6 7fbb
000003e0: b407 c33d 791c 82bd cf03 533c 172c 20be
000003f0: 2948 8f3d f12a 1d3e bd11 4abd 89c4 bdbd

conv1s.1.modlist.1.weight f4 [64]
0.96297294 1.0037292 0.9409956 1.0009942 0.99821395 0.9953658 0.97775394 0.9801243
0.98788005 1.0563474 0.9804927 0.9925787 0.9894196 1.052999 1.0061395 1.00156
1.0199373 1.0154012 0.9840922 0.99385387 1.0176796 0.99673706 0.94493216 1.0027359
0.9828126 0.98249733 1.0131401 1.029881 0.980143 1.0313655 0.9949074 0.9999648
0.9801498 0.96989405 0.9955145 1.015412 0.9548447 1.0166304 1.0254257 0.97718406
1.0068392 1.0532196 1.0087603 0.9809091 1.0242137 1.0148295 1.043137 1.0198117
1.0380092 0.9720976 0.9904675 1.0369034 1.0089207 0.9970396 0.9762954 0.98008406
0.9900135 0.984439 1.000177 0.9970844 1.0636394 1.0411496 1.0138991 1.0214002
00000000: 6585 763f 337a 803f 16e5 703f 9420 803f
00000010: f38a 7f3f 4bd0 7e3f 154e 7a3f 6de9 7a3f
00000020: b5e5 7c3f 6436 873f 9201 7b3f a319 7e3f
00000030: 9a4a 7d3f acc8 863f 2ec9 803f 1e33 803f
00000040: 4e8d 823f abf8 813f 77ed 7b3f 356d 7e3f
00000050: 5343 823f 292a 7f3f 13e7 713f a659 803f
00000060: 9b99 7b3f f284 7b3f 93ae 813f 24d3 833f
00000070: a7ea 7a3f c903 843f 40b2 7e3f b1fd 7f3f
00000080: 19eb 7a3f fa4a 783f 0ada 7e3f 05f9 813f
00000090: b470 743f f220 823f 2641 833f bc28 7a3f
000000a0: 1be0 803f e6cf 863f 0f1f 813f dc1c 7b3f
000000b0: 6f19 833f efe5 813f 8385 853f 3189 823f
000000c0: 7cdd 843f 63db 783f 478f 7d3f 40b9 843f
000000d0: 5024 813f fd3d 7f3f 7fee 793f cae6 7a3f
000000e0: 8671 7d3f 3204 7c3f cd05 803f ec40 7f3f
000000f0: 5625 883f 6444 853f 72c7 813f 3ebd 823f

conv1s.1.modlist.1.bias f4 [64]
-0.043364678 0.0525109 0.05574383 -0.035358943 0.034477107 -0.020884473 0.023745395 -0.003090183
0.08066112 -0.015544131 -0.0067082443 -0.022848126 -0.008573421 0.017393839 0.041481677 -0.0041688746
-0.057241485 0.023248136 0.020112325 -0.01760378 0.04195985 0.014713627 -0.012154571 0.032793947
0.049069345 0.027502012 0.035587132 0.03643286 -0.04846666 -0.07192402 -0.0021661576 0.015146383
-0.10740721 0.09513248 -0.036798283 -0.037676316 -0.059227355 -0.052739967 0.03425777 0.019855859
0.06496032 0.025799409 0.07294845 0.006285424 -0.0159738 -0.03107098 0.00047791417 -0.07598088
0.06448922 0.10055069 0.008271152 -0.017113384 -0.042755295 0.01434366 -0.042706326 -0.0017214624
-0.04040632 0.0047298684 0.03417403 -0.013126627 -0.04837302 0.020738762 0.0035061066 0.0020901237
00000000: 299f 31bd ab15 573d a453 643d 8ad4 10bd
00000010: de37 0d3d ea15 abbc b485 c23c ab84 4abb
00000020: a831 a53d d0ac 7ebc d5d0 dbbb fe2b bbbc
00000030: 8977 0cbc 867d 8e3c b1e8 293d 0e9b 88bb
00000040: 0c76 6abd e072 be3c 9ac2 a43c cd35 90bc
00000050: 17de 2b3d 6d11 713c f723 47bc f252 063d
00000060: f0fc 483d e64b e13c d0c3 113d 9f3a 153d
00000070: fa84 46bd e74c 93bd 18f6 0dbb 8928 783c
00000080: 50f8 dbbd d1d4 c23d ccb9 16bd 7b52 1abd
00000090: 6298 72bd dd05 58bd e051 0c3d c1a8 a23c
000000a0: eb09 853d 4859 d33c ff65 953d f5f5 cd3b
000000b0: 7ddb 82bc 9188 febc 8e90 fa39 dd9b 9bbd
000000c0: ed12 843d 85ed cd3d ba83 073c 5e31 8cbc
000000d0: 2d20 2fbd ac01 6b3c d4ec 2ebd b1a2 e1ba
000000e0: 1981 25bd 03fd 9a3b 11fa 0b3d 1011 57bc
000000f0: ca22 46bd 56e4 a93c b5c6 653b 75fa 083b

conv1s.1.modlist.1.mean_scale f4 [64]
0.9734339 0.93972844 0.9189364 0.9588675 0.99196404 1.0786971 1.0629256 1.0187593
0.99549544 1.0420969 0.98418164 0.9702221 1.0343106 1.0466812 1.0444269 1.0058708
1.1266719 1.0134139 1.0127455 0.99728584 0.95131004 1.0367988 0.9906133 0.9726478
0.9864707 1.0311223 0.9536549 1.080102 1.0282568 1.0796824 0.9953964 1.062133
1.1688011 1.1615576 0.92688155 0.94614875 0.91925573 1.0902168 1.0526992 1.0002539
1.1054537 1.0365397 1.1246014 1.0146877 1.0069926 0.9416199 1.026721 1.1171339
1.1274928 0.8998062 1.0717629 0.968969 0.93732727 0.95105916 0.9548725 1.0032189
0.9341209 1.0256934 1.019773 1.0027598 0.9501599 1.0451721 0.999973 0.99814457
00000000: f732 793f 0b92 703f 6a3f 6b3f 5778 753f
00000010: 5bf1 7d3f bf12 8a3f f20d 883f b466 823f
00000020: cad8 7e3f 6e63 853f 54f3 7b3f 7a60 783f
00000030: 4a64 843f a6f9 853f c8af 853f 60c0 803f
00000040: c936 903f 8cb7 813f a5a1 813f 204e 7f3f
00000050: 0e89 733f d3b5 843f d598 7d3f 72ff 783f
00000060: 5889 7c3f d1fb 833f ba22 743f c840 8a3f
00000070: eb9d 833f 0833 8a3f 4cd2 7e3f f9f3 873f
00000080: 469b 953f ebad 943f 1c48 6d3f ce36 723f
00000090: 5854 6b3f 398c 8b3f d9be 863f 5208 803f
000000a0: 827f 8d3f 55ad 843f f0f2 8f3f 49e1 813f
000000b0: 22e5 803f 000e 713f 986b 833f 3efe 8e3f
000000c0: af51 903f b359 663f 872f 893f 5a0e 783f
000000d0: aef4 6f3f 9d78 733f 8672 743f 7a69 803f
000000e0: 8c22 6f3f ec49 833f ec87 823f 6f5a 803f
000000f0: ae3d 733f 33c8 853f 3bfe 7f3f 6786 7f3f

conv2s.0.modlist.0.bias f4 [64]
-0.26630333 -0.010805035 -0.08523431 0.19534695 -0.642368 -0.76776713 -0.38188797 0.24299063
0.068207584 -0.39071164 -0.24134153 -0.10977214 -0.15866102 0.2614135 -0.025380412 -0.3329025
-0.12675707 0.38894722 0.3213682 -0.33534458 -0.5750924 -0.1836963 -0.2132511 0.03047606
0.24737969 0.0508546 0.25111097 0.07016514 0.11649305 -0.21612799 0.102853216 -0.038893707
0.15969005 0.09757302 -0.42162418 -0.1669643 -0.1274371 0.09658923 0.07004865 0.19817314
-0.18247841 -0.28875828 -0.21971354 -0.20727877 0.031177443 0.059533343 0.4404013 0.1094257
-0.68722016 0.15926872 0.099881396 0.12984845 -0.09717251 0.18598443 0.09303177 0.0072590318
-0.5248919 -0.4030395 0.44839725 -0.31713644 -0.7567287 0.30945295 0.29292905 0.11248967
00000000: e958 88be 9a07 31bc 538f aebd 0809 483e
00000010: 3b72 24bf 638c 44bf d286 c3be 89d2 783e
00000020: 6bb0 8b3d 5b0b c8be 3c22 77be 37d0 e0bd
00000030: 0978 22be fed7 853e 95ea cfbc 3272 aabe
00000040: 9bcc 01be 1724 c73e 5f8a a43e 49b2 abbe
00000050: 4139 13bf e21a 3cbe 7f5e 5abe eea8 f93c
00000060: 1a51 7d3e ea4c 503d 9e91 803e beb2 8f3d
00000070: e893 ee3d a850 5dbe b5a4 d23d 024f 1fbd
00000080: ca85 233e 5dd4 c73d 20df d7be b1f8 2abe
00000090: df7e 02be 93d0 c53d ab75 8f3d e6ed 4a3e
000000a0: 9fdb 3abe 20d8 93be 96fc 60be e340 54be
000000b0: d667 ff3c 3cd9 733d 477c e13e 951a e03d
000000c0: a9ed 2fbf 5717 233e 9e8e cc3d fef6 043e
000000d0: 6202 c7bd b472 3e3e 7187 be3d 2cdd ed3b
000000e0: 515f 06bf 315b cebe 5394 e53e b55f a2be
000000f0: f9b8 41bf 9e70 9e3e ccfa 953e fc60 e63d

conv2s.0.modlist.0.lin.weight f4 [64, 64]
-0.24671642 -0.05173084 0.04042791 -0.0138757555 -0.18608052 0.069979034 0.105936825 0.11302002
0.042353544 -0.18378538 0.11355929 -0.19574723 -0.12594946 0.1860797 0.016657474 0.11078883
-0.12949243 0.16365807 -0.21501449 0.0060889283 0.20112915 -0.20623572 0.09029076 -0.114952214
-0.15815958 -0.17854708 -0.10255626 0.15662323 -0.09597138 -0.17517926 0.13147183 0.2081368
0.09043246 -0.02315284 -0.18802057 0.052669857 0.12886195 0.019859528 -0.13036984 0.03619415
0.1803809 -0.18210565 -0.18446371 -0.07584805 -0.03978006 0.189106 0.14310545 -0.14332476
0.1541728 -0.21587582 -0.23021972 0.19167979 -0.122631304 -0.1426876 0.026786234 -0.100182556
-0.09929975 0.085360914 0.10490431 -0.20536137 -0.09990286 -0.2743726 -0.18334028 0.0397109
0.13151139 -0.091561966 -0.008585081 0.134288 0.025503939 0.039292824 -0.091293424 -0.14822495
0.027603513 0.20731978 0.111350045 -0.13369754 0.0022237436 -0.033403423 -0.14488581 -0.1864473
0.03610487 -0.15314117 -0.17645353 -0.14863846 -0.04317441 -0.121835016 0.062087487 0.14745115
-0.1902697 -0.08216845 0.19250867 -0.10421848 0.0058272085 0.03684599 0.01274722 -0.0697454
0.053497348 0.047951743 -0.007381833 0.10183115 0.15057583 0.1496664 -0.026789948 -0.01741985
0.18255857 0.07567985 -0.021656925 0.09674075 -0.15175696 0.1462647 -0.019271854 -0.084322505
-0.21205662 -0.18483004 0.037146978 0.07697672 -0.21858354 -0.123565376 -0.18973541 -0.052161943
-0.01670276 -0.20423308 0.14263156 -0.102833964 0.11869752 -0.19254786 -0.07327325 0.20913936
0.024959525 -0.120978884 -0.073687315 0.10745394 0.2006683 -0.16520974 -0.14468104 0.059319817
0.13943449 -0.15572178 0.19543889 -0.016362637 -0.17139907 -0.067568325 0.055232022 -0.08279323
-0.06043023 -0.1553762 0.10631407 -0.11190823 -0.14289653 0.0322021 -0.006787295 -0.13880004
-0.14924069 -0.091190085 0.06354748 -0.15716279 -0.009037868 0.04480906 -0.048311424 0.19867207
-0.008196743 -0.012585193 0.23954152 -0.17018434 0.10470437 0.19453673 0.020809162 0.103293374
0.05052242 0.19444346 0.15213773 0.09332691 -0.1312419 0.15807267 -0.1381812 -0.045313124
-0.008361029 -0.022655021 -0.14538652 0.08251136 -0.04015084 0.1928534 0.097168826 0.011091061
-0.22888917 0.055927616 -0.18385024 0.15996371 0.013374686 -0.22178225 0.095918804 -0.059150107
-0.1513701 0.01044802 -0.16460754 -0.1948944 0.022887362 0.07642388 0.17251185 -0.04222976
0.034862597 0.15909836 0.09357236 0.08838347 0.084663205 0.23553193 0.19436644 0.06594726
-0.1519272 -0.02430891 -0.17235906 0.074475765 0.17732288 0.08964856 0.22054946 -0.0032299752
0.19169241 0.08942125 0.11175071 -0.14850894 -0.04091247 -0.10074124 0.15842848 0.2034788
0.025233371 0.2053065 -0.107551746 0.22053382 0.18397963 0.19903757 -0.060707774 -0.14308327
0.19167288 -0.16578998 -0.16155611 0.10022043 0.17540243 0.08262389 0.12850338 -0.09681149
0.18806362 -0.20405088 0.07238653 -0.12402346 0.120035276 0.14152984 0.14304334 -0.024595195
0.17035864 0.14077656 -0.034120247 0.116616346 0.15690103 0.1499094 0.044127814 0.24904919
00000000: 3ba3 7cbe b8e3 53bd bc97 253d 2357 63bc
00000010: e48b 3ebe 2b51 8f3d 68f5 d83d 0a77 e73d
00000020: e97a 2d3d 3c32 3cbe c691 e83d f671 48be
00000030: e5f8 00be ad8b 3e3e 4175 883c 41e5 e23d
00000040: aa99 04be fb95 273e c22c 5cbe a285 c73b
00000050: cdf4 4d3e 752f 53be 5dea b83d 116c ebbd
00000060: 96f4 21be 0cd5 36be 0409 d2bd d761 203e
00000070: a58c c4bd 3162 33be 8da0 063e d021 553e
00000080: a734 b93d 06ab bdbc 7788 40be 59bc 573d
00000090: 63f4 033e 73b0 a23c ac7f 05be 5140 143d
000000a0: c5b5 383e e779 3abe 0ee4 3cbe 3956 9bbd
000000b0: 6bf0 22bd 01a5 413e 3c8a 123e bac3 12be
000000c0: 79df 1d3e 8d0e 5dbe b8be 6bbe b547 443e
000000d0: 1f26 fbbd b31c 12be ce6e db3c 832c cdbd
000000e0: ab5d cbbd b4d1 ae3d 12d8 d63d 404a 52be
000000f0: df99 ccbd 917a 8cbe 8ebd 3bbe e6a7 223d
00000100: ecaa 063e d784 bbbd 71a8 0cbc cb82 093e
00000110: a3ed d03c 83f1 203d 0cf8 babd 48c8 17be
00000120: c320 e23c a34b 543e 7e0b e43d 02e8 08be
00000130: 3abc 113b 07d2 08bd f25c 14be 0aec 3ebe
00000140: b3e2 133d 0ad1 1cbe 3cb0 34be ae34 18be
00000150: a6d7 30bd a384 f9bd 734f 7e3d 6ffd 163e
00000160: 0fd6 42be ef47 a8bd fe20 453e 8070 d5bd
00000170: 2bf2 be3b d2eb 163d b7d9 503c add6 8ebd
00000180: 0920 5b3d 0c69 443d 4ee3 f1bb da8c d03d
00000190: 8d30 1a3e 2642 193e 9876 dbbc 13b4 8ebc
000001a0: a2f0 3a3e 0afe 9a3d dd69 b1bc 0420 c63d
000001b0: 2d66 1bbe 6ac6 153e 02e0 9dbc 47b1 acbd
000001c0: 5f25 59be 1644 3dbe 6e27 183d f8a5 9d3d
000001d0: 5dd4 5fbe d80f fdbd 004a 42be c3a7 55bd
000001e0: 3ad4 88bc 7a22 51be 020e 123e 9d9a d2bd
000001f0: af17 f33d 442b 45be 4910 96bd a128 563e
00000200: eb77 cc3c c7c3 f7bd 60e9 96bd d010 dc3d
00000210: fe7b 4d3e be2c 29be 4427 14be 56f9 723d
00000220: eac7 0e3e 8875 1fbe 2221 483e f00a 86bc
00000230: 3d83 2fbe 4361 8abd f93a 623d 7f8f a9bd
00000240: b085 77bd f01a 1fbe 31bb d93d 2430 e5bd
00000250: 7853 12be 59e6 033d f567 debb 9921 0ebe
00000260: 8dd2 18be dec1 babd 2e25 823d 48ef 20be
00000270: 9113 14bc b489 373d 33e2 45bd b170 4b3e
00000280: a24b 06bc 2032 4ebc 5f4a 753e ce44 2ebe
00000290: 3f6f d63d a334 473e fa77 aa3c 7a8b d33d
000002a0: 99f0 4e3d 301c 473e fec9 1b3e 2e22 bf3d
000002b0: 4764 06be cddd 213e 5f7f 0dbe 419a 39bd
000002c0: b3fc 08bc 0697 b9bc 34e0 14be b7fb a83d
000002d0: 3575 24bd 5d7b 453e 7300 c73d 48b7 353c
000002e0: ec61 6abe 5b14 653d 3d43 3cbe 87cd 233e
000002f0: 8021 5b3c e31a 63be 1471 c43d 6247 72bd
00000300: c300 1bbe 2c2e 2b3c e18e 28be 6692 47be
00000310: 477e bb3c 2084 9c3d f2a6 303e 1df9 2cbd
00000320: 15cc 0e3d aeea 223e dea2 bf3d 6502 b53d
00000330: e763 ad3d 482f 713e ff07 473e 5b0f 873d
00000340: ce92 1bbe 7b23 c7bc e57e 30be c086 983d
00000350: 2194 353e aa99 b73d b8d7 613e fead 53bb
00000360: 044b 443e 7d22 b73d 8edd e43d ba12 18be
00000370: d693 27bd 6c51 cebd 133b 223e bf5c 503e
00000380: 37b6 ce3c de3b 523e 1744 dcbd 9ed3 613e
00000390: 2865 3c3e 81d0 4b3e b7a8 78bd 6c84 12be
000003a0: e545 443e d9c4 29be f76e 25be 5e40 cd3d
000003b0: b29c 333e b736 a93d 6496 033e 1a45 c6bd
000003c0: c093 403e b7f2 50be 643f 943d 0300 febd
000003d0: 0ed5 f53d 33ed 103e f479 123e dd7b c9bc
000003e0: 7f72 2e3e bb27 103e acc1 0bbd 8dd4 ee3d
000003f0: aaaa 203e da81 193e 5ebf 343d c006 7f3e

conv2s.0.modlist.1.weight f4 [64]
0.95866716 0.95392233 0.96253455 1.0553055 0.9877444 1.0582912 0.93853843 0.9982251
1.0481299 1.036859 1.0085194 0.94246453 1.0409877 0.95957613 0.9432522 0.99621844
0.9670514 1.0173613 1.0379496 1.0258296 0.9815337 0.9630778 0.98835653 0.98589236
1.1155427 1.0044343 1.008814 0.98722124 1.0124435 0.9336302 1.0665284 0.993058
1.0698779 1.0246203 0.98643583 0.96822006 0.9308927 0.9877667 1.0638967 1.0465282
1.0129056 0.9699563 0.9733788 0.96106887 0.9207814 1.0249653 1.0653862 0.98727894
0.98636496 1.0109687 0.99038756 0.9899487 1.0180775 0.9742344 0.96821463 0.9738768
1.0640037 1.021582 1.0311471 1.0102919 1.048159 0.97730565 1.0467968 1.0548565
00000000: 366b 753f 4134 743f aa68 763f 4014 873f
00000010: d1dc 7c3f 1676 873f 0e44 703f ae8b 7f3f
00000020: 1f29 863f ccb7 843f 2a17 813f 5b45 713f
00000030: 163f 853f c8a6 753f fa78 713f 2c08 7f3f
00000040: ae90 773f e538 823f 88db 843f 624e 833f
00000050: cb45 7b3f 448c 763f ef04 7d3f 7163 7c3f
00000060: 1aca 8e3f 4e91 803f d120 813f 88ba 7c3f
00000070: c097 813f 6402 6f3f 0184 883f 0d39 7e3f
00000080: c2f1 883f c226 833f 0f87 7c3f 45dd 773f
00000090: fc4e 6e3f 47de 7c3f c42d 883f a3f4 853f
000000a0: e4a6 813f 0e4f 783f 5a2f 793f 9c08 763f
000000b0: 54b8 6b3f 1032 833f 935e 883f 50be 7c3f
000000c0: 6a82 7c3f 6c67 813f 0a8a 7d3f 476d 7d3f
000000d0: 5d50 823f 6d67 793f eadc 773f fd4f 793f
000000e0: 4631 883f 33c3 823f a1fc 833f 3f51 813f
000000f0: 132a 863f b430 7a3f 70fd 853f 8a05 873f

conv2s.0.modlist.1.bias f4 [64]
0.16781814 0.04328009 0.057676017 0.11210378 0.37863117 0.43217903 0.1798335 0.14649463
0.053147327 0.21379444 0.13589184 0.10963549 0.11871272 0.14343713 0.0037896382 0.17216069
0.09557618 0.24113746 0.18112287 0.1773032 0.2918214 0.080404624 0.11742634 0.08572716
0.15006976 0.048288196 0.1998961 0.058425907 0.09748838 0.11021668 -0.07602394 0.020685626
0.10740987 0.1006676 0.2180235 0.07988433 0.09101227 0.08453071 0.039382864 0.16043018
0.112105176 0.15824394 0.10808268 0.11622591 0.023353217 -0.062168 0.26167062 0.08039204
0.37078467 0.08560018 0.09906884 0.11250613 0.093931176 -0.09524833 0.101310216 0.023206148
0.28146124 0.21638416 0.2641568 0.15513006 0.4021102 0.18277805 0.18164961 0.0822079
00000000: 85d8 2b3e 7746 313d b03d 6c3d ab96 e53d
00000010: f2db c13e 9246 dd3e 4626 383e b002 163e
00000020: 03b1 593d eeec 5a3e 3b27 0b3e 9288 e03d
00000030: a81f f33d 2fe1 123e 945b 783b e44a 303e
00000040: 72bd c33d bdec 763e 4678 393e f88e 353e
00000050: 9d69 953e 2eab a43d 397d f03d b991 af3d
00000060: e3ab 193e d8c9 453d 90b1 4c3e 0150 6f3d
00000070: fda7 c73d 48b9 e13d 71b2 9bbd e774 a93c
00000080: b5f9 db3d d12a ce3d 8d41 5f3e 659a a33d
00000090: a464 ba3d 701e ad3d ed4f 213d cf47 243e
000000a0: 6697 e53d b30a 223e 745a dd3d da07 ee3d
000000b0: 3f4f bf3c dfa3 7ebd b1f9 853e 95a4 a43d
000000c0: 7dd7 bd3e 264f af3d 9be4 ca3d 9d69 e63d
000000d0: fd5e c03d 8e11 c3bd bb7b cf3d d21a be3c
000000e0: b01b 903e cf93 5d3e 8f3f 873e 6ada 1e3e
000000f0: 63e1 cd3e 2b2a 3b3e 5b02 3a3e 9e5c a83d

conv2s.0.modlist.1.mean_scale f4 [64]
1.2078735 1.0387762 1.0547224 0.88361514 1.4651386 1.6014313 1.2571437 0.8575563
0.93793494 1.2330779 1.1517599 1.02436 1.0755372 0.8293183 0.9999259 1.223847
1.0176276 0.7298592 0.75543994 1.2279018 1.3597279 1.1494964 1.1246747 0.97680783
0.8466209 0.9414011 1.0400876 0.9406885 0.91012675 1.2244222 1.0943677 1.0141112
0.89065486 0.93934304 1.2979952 1.1007745 1.1016127 0.9209793 0.9608749 0.775309
1.1380843 1.1862565 1.1426632 1.1698858 1.0206869 1.0732417 0.6900866 0.8952674
1.5109801 0.91492695 0.95014167 0.89239013 1.0477678 1.1082102 0.9413207 0.9726919
1.3541412 1.2841862 0.66746056 1.2794226 1.4298296 0.791466 0.79271466 0.9254577
00000000: 999b 9a3f 9ef6 843f 2501 873f 9a34 623f
00000010: a989 bb3f b3fb cc3f 16ea a03f cf88 5b3f
00000020: 811c 703f 7fd5 9d3f de6c 933f 3a1e 833f
00000030: 34ab 893f 344e 543f 25fb 7f3f 05a7 9c3f
00000040: 9f41 823f 0dd8 3a3f 8364 413f e32b 9d3f
00000050: 900b ae3f b322 933f 57f5 8f3f 1410 7a3f
00000060: 26bc 583f aaff 703f 9721 853f f6d0 703f
00000070: 11fe 683f deb9 9c3f 3e14 8c3f 65ce 813f
00000080: f501 643f c978 703f b524 a63f 2ee6 8c3f
00000090: a501 8d3f 4dc5 6b3f e6fb 753f a77a 463f
000000a0: bfac 913f 41d7 973f ca42 923f d1be 953f
000000b0: dea5 823f fc5f 893f 84a9 303f 3f30 653f
000000c0: cc67 c13f a738 6a3f 7c3c 733f ae73 643f
000000d0: 411d 863f d5d9 8d3f 65fa 703f 5602 793f
000000e0: 8054 ad3f 3760 a43f b2de 2a3f 1fc4 a33f
000000f0: a804 b73f 849d 4a3f 59ef 4a3f ccea 6c3f

conv2s.1.modlist.0.bias f4 [64]
-0.07714203 -0.028351858 0.06958935 -0.07340897 0.042013653 -0.2090485 -0.044342447 0.08540922
0.03254842 0.008418544 -0.0036969194 0.0050545875 0.15697245 -0.021808181 -0.076276645 -0.058085773
0.017201418 -0.038047563 -0.10000704 0.017114319 -0.019509697 0.065998375 0.043101806 -0.07091869
0.21288787 0.013232619 -0.1078719 0.020660734 0.19229111 0.046316464 -0.13744873 -0.02088206
-0.026461167 -0.030827451 -0.008136384 0.14333747 0.017101934 -0.0096332915 0.26035187 -0.052897364
-0.05666064 0.031580377 0.032134086 0.18312946 -0.061279688 0.005951874 -0.08148274 0.18425862
-0.021722319 0.15224783 -0.0003937583 -0.09139771 0.31898114 0.06357391 0.24147607 0.24779055
-0.03053918 -0.24159668 0.1781912 0.3185316 -0.049729913 0.06272621 0.014094796 0.006275098
00000000: a4fc 9dbd 2842 e8bc dc84 8e3d 7157 96bd
00000010: 8216 2c3d cf10 56be 6da0 35bd 07eb ae3d
00000020: 7e51 053d efed 093c 0448 72bb f4a0 a53b
00000030: 63bd 203e 12a7 b2bc ee36 9cbd 59eb 6dbd
00000040: fde9 8c3c c3d7 1bbd 7ed0 ccbd 5433 8c3c
00000050: cdd2 9fbc 282a 873d 858b 303d d13d 91bd
00000060: 47ff 593e a0cd 583c f1eb dcbd b340 a93c
00000070: f6e7 443e 55b6 3d3d 5cbf 0cbe db10 abbc
00000080: 17c5 d8bc da89 fcbc 784e 05bc 0fc7 123e
00000090: 5b19 8c3c f4d4 1dbc d74c 853e e8aa 58bd
000000a0: fd14 68bd 6d5a 013d 089f 033d 4a86 3b3e
000000b0: 6900 7bbd f007 c33b 6ce0 a6bd 4bae 3c3e
000000c0: 01f3 b1bc dbe6 1b3e 5871 ceb9 b92e bbbd
000000d0: 7f51 a33e 0a33 823d 8145 773e cebc 7d3e
000000e0: 4d2d fabc 1f65 77be c177 363e 9316 a33e
000000f0: 98b1 4bbd 9976 803d dced 663c 569f cd3b
