2WL_link_pred/checkpoint/archive/20221213_041823/2WL_dict_2659.pt (torch, 165561 bytes, 34 tensors)

weight f4 [96, 1]
-0.09120201 0.3076892 0.17515548 0.51801664 0.7550641 -0.35659415 -0.7982239 0.68987304
0.7677604 0.09422555 -0.3784653 -0.5738336 -0.87054354 -0.22560142 -0.094633915 0.9554801
0.6856455 0.34311318 -0.22542356 -0.8598379 0.8389502 -0.35977584 -0.22463292 0.8155071
-0.834994 -0.048943404 0.79875916 -0.3653813 -0.310595 0.6406876 0.36552268 -0.43397763
0.123081096 0.5685982 0.7747366 -0.6278752 -0.5893859 -0.611309 -0.57428163 0.012082411
0.43418345 -0.31887633 0.03714835 -0.694477 0.4532954 -0.90192 -0.014788453 0.1643516
-0.78320843 -0.34512576 -0.598639 -0.45990235 0.11986211 -0.06492358 -0.15953384 0.4449169
0.836054 1.0043529 0.54809666 0.8544292 0.9390417 -0.51150686 0.10344434 -0.5165206
0.18777691 -0.18182732 -0.6948721 -0.76257753 0.34240055 0.18317235 0.57766676 -0.42422333
-0.04304052 -0.9536499 -0.2468402 0.5056872 -0.49934974 0.82511216 -0.23648788 -0.79633963
-0.3317594 -0.17108628 -0.5085362 0.6837533 -0.8623194 -0.28341886 -0.18088025 -0.9234675
-0.58232754 0.6551526 -0.77470875 0.22503522 -0.8730702 -0.1589737 -0.055580657 -0.89295113
00000000: 1fc8 babd 7089 9d3e f55b 333e bd9c 043f
00000010: e14b 413f 8293 b6be 6758 4cbf 859b 303f
00000020: f28b 443f 53f9 c03d 34c6 c1be c2e6 12bf
00000030: f1db 5ebf 0f04 67be 6dcf c1bd 589a 743f
00000040: 7786 2f3f 88ac af3e 6fd5 66be 561e 5cbf
00000050: 71c5 563f 8a34 b8be 2c06 66be 13c5 503f
00000060: 2bc2 55bf e178 48bd 7b7b 4c3f 4213 bbbe
00000070: 4f06 9fbe 1a04 243f ca25 bb3e 5132 debe
00000080: f111 fc3d a78f 113f 2355 463f 6ebc 20bf
00000090: ffe1 16bf bf7e 1cbf 1f04 13bf 4ef5 453c
000000a0: 4b4d de3e c243 a3be de28 183d 3fc9 31bf
000000b0: 5616 e83e 3be4 66bf 444b 72bc c94b 283e
000000c0: 5980 48bf 53b4 b0be 6840 19bf 5278 ebbe
000000d0: 447a f53d a7f6 84bd d75c 23be 26cc e33e
000000e0: a307 563f a38e 803f 1050 0c3f dfbb 5a3f
000000f0: 0965 703f 1df2 02bf a0da d33d b23a 04bf
00000100: 9748 403e f130 3abe 23e3 31bf 4838 43bf
00000110: 204f af3e 8891 3b3e f8e1 133f cd33 d9be
00000120: 424b 30bd 6622 74bf adc3 7cbe b774 013f
00000130: c5aa ffbe 8d3a 533f e129 72be eadc 4bbf
00000140: 5edc a9be 3e31 2fbe 6e2f 02bf 750a 2f3f
00000150: f7c0 5cbf 471c 91be ac38 39be 5e68 6cbf
00000160: 6b13 15bf 15b8 273f 5053 46bf a26f 663e
00000170: 8781 5fbf 00ca 22be 8ba8 63bd 7298 64bf

bias f4 [96]
0.1958263 -0.64445144 -0.72839963 -0.5404773 -0.26691073 0.83525777 0.19781892 0.77103513
-0.7872744 0.05178655 0.8524516 -0.33573315 0.40893316 -0.2467876 -0.4737461 0.6377601
-0.9624002 0.14823984 -0.94979346 -0.5986413 0.6158439 0.22970277 -0.40923464 0.601221
-1.0555607 0.47972408 -0.17091392 -0.5221746 0.88779694 0.9328 -0.5741531 -0.506793
-0.41923168 0.37371293 0.089303195 -0.041032266 -0.37785837 -0.694411 0.5507779 -0.9096828
0.8895994 0.10770703 0.06485952 -0.007446476 0.16849819 0.20353083 0.49446723 -0.13912341
0.44025043 -0.37542072 -0.15206076 0.6063768 0.4031312 0.8191459 -0.31721324 0.4740957
-0.5463252 0.9226442 0.120998636 0.47546104 -0.31104723 0.7174985 0.5228702 0.7239534
-0.6817047 0.84980667 0.70751077 0.72036153 0.6895242 0.52632016 -0.710121 -0.8916171
-0.27074042 0.6549577 -0.5197783 -0.89351296 -0.8316671 0.39032397 0.82308316 0.33891007
0.19445077 0.77861065 0.44318298 0.43970254 -0.45075497 0.20379575 0.5594482 -0.68757534
0.41615185 -0.91473496 0.6349782 -0.9008129 0.3532512 -0.9347119 -0.97933185 0.088974886
00000000: b186 483e c5fa 24bf 6678 3abf b85c 0abf
00000010: 86a8 88be 74d3 553f 0b91 4a3e 8f62 453f
00000020: d18a 49bf 221e 543d 453a 5a3f 37e5 abbe
00000030: b05f d13e e3b5 7cbe d98e f2be 3f44 233f
00000040: dc5f 76bf 2fcc 173e aa25 73bf 8e40 19bf
00000050: f2a7 1d3f 3437 6b3e 3487 d1be 9fe9 193f
00000060: 9d1c 87bf 659e f53e 0f04 2fbe 3cad 05bf
00000070: a946 633f fbcb 6e3f b3fb 12bf 30bd 01bf
00000080: 89a5 d6be 4d57 bf3e 98e4 b63d 7311 28bd
00000090: a776 c1be ebc4 31bf c8ff 0c3f f9e0 68bf
000000a0: c9bc 633f 8195 dc3d 11d5 843d 9101 f4bb
000000b0: ca8a 2c3e 636a 503e cf2a fd3e 5e76 0ebe
000000c0: 8168 e13e 2537 c0be d1b5 1bbe 833b 1b3f
000000d0: 3667 ce3e 8cb3 513f c669 a2be acbc f23e
000000e0: f8db 0bbf 6932 6c3f 22ce f73d a16f f33e
000000f0: 9541 9fbe fbad 373f d2da 053f 0355 393f
00000100: 3384 2ebf ee8c 593f 6d1f 353f 9d69 383f
00000110: a884 303f ebbc 063f 7dca 35bf 0541 64bf
00000120: 7d9e 8abe 4fab 273f 3110 05bf 44bd 64bf
00000130: 23e8 54bf 8bd8 c73e 94b5 523f 9f85 ad3e
00000140: 1a1e 473e 0753 473f e1e8 e23e b120 e13e
00000150: 5bc9 e6be d5af 503e ff37 0f3f f004 30bf
00000160: db11 d53e 122c 6abf ee8d 223f ad9b 66bf
00000170: 57dd b43e 4749 6fbf 7eb5 7abf 7738 b63d

bias f4 [96]
-0.12476846 -0.002701303 -0.10540512 -0.014678409 -0.024477901 0.09556793 -0.14584862 0.06569095
0.1394153 -0.13701026 -0.2048326 0.0740123 0.04490859 0.12835096 0.0041277893 -0.13538483
0.0073206103 -0.035205998 -0.04150497 0.22422263 -0.17986251 0.00051699113 -0.07808592 0.00049311965
-0.026779842 -0.037842058 0.027502367 -0.028031638 0.0653795 0.069427975 0.04727341 -0.0031383256
0.02520883 -0.05746029 0.015034073 -0.13491978 -0.0193784 0.035676066 0.08196469 -0.20094539
0.0068699457 -0.10096131 0.096727446 -0.030013751 -0.07143432 -0.00075334404 0.049788643 0.008064276
-0.034250133 -0.0010355822 -0.102156915 -0.10491913 -0.011267052 -0.060684923 -0.04944942 0.0732745
0.025993837 -0.0025761507 0.032389164 -0.052136026 -0.008252576 -0.14026769 -0.07028131 -0.0215135
0.027382225 0.041774742 -0.04111834 -0.0062598162 -0.08609764 -0.0550297 -0.05931502 0.019838395
-0.06930746 -0.053110275 0.10062962 -0.27503473 -0.047801424 -0.038972646 -0.010582796 -0.030572683
0.008040295 0.18510525 -0.032273576 -0.039617114 0.018161792 0.02538847 -0.07356073 0.088655636
-0.12183239 -0.07662937 -0.028467774 0.044789296 -0.015624777 0.03318442 0.022550547 -0.10472759
00000000: 9b86 ffbd 5808 31bb a4de d7bd b67d 70bc
00000010: e185 c8bc 1eb9 c33d 5759 15be fa88 863d
00000020: e2c2 0e3e 6b4c 0cbe a3bf 51be c393 973d
00000030: 12f2 373d 6f6e 033e 6842 873b 52a2 0abe
00000040: bbe1 ef3b 2a34 10bd 1e01 2abd 9e9a 653e
00000050: e12d 38be b086 073a 83eb 9fbd b344 013a
00000060: 6661 dbbc 4600 1bbd a54c e13c 9ba2 e5bc
00000070: b0e5 853d 4130 8e3d c3a1 413d 5eac 4dbb
00000080: c082 ce3c 7b5b 6bbd 7951 763c 6928 0abe
00000090: 73bf 9ebc 1121 123d 1add a73d a1c4 4dbe
000000a0: 481d e13b cec4 cebd 0a19 c63d 66df f5bc
000000b0: 284c 92bd 107c 45ba 2def 4b3d 0620 043c
000000c0: de49 0cbd 5fbc 87ba a537 d1bd d7df d6bd
000000d0: 7199 38bc c190 78bd 7a8b 4abd f110 963d
000000e0: 07f1 d43c a3d4 28bb 80aa 043d 968c 55bd
000000f0: d035 07bc 55a2 0fbe a6ef 8fbd 143d b0bc
00000100: b050 e03c fe1b 2b3d b46b 28bd 251f cdbb
00000110: f653 b0bd d366 61bd 4ef4 72bd 2184 a23c
00000120: 12f1 8dbd 298a 59bd e716 ce3d 5ad1 8cbe
00000130: 6dcb 43bd c8a1 1fbd 7763 2dbc 9073 fabc
00000140: 71bb 033c 3b8c 3d3e 4c31 04bd 8e45 22bd
00000150: 0ac8 943c 7bfb cf3c 02a7 96bd 1691 b53d
00000160: 4383 f9bd dcef 9cbd 4035 e9bc fb74 373d
00000170: 11ff 7fbc 63ec 073d edbb b83c 6b7b d6bd

weight f4 [96, 96]
-0.1058451 -0.17703462 0.17767188 0.20427334 -0.07335373 0.083929636 0.005214249 0.15105906
0.16296661 0.16385461 -0.04131897 0.11342015 0.06947304 0.020965168 -0.04853438 0.09263242
0.14277753 -0.10123401 -0.01802586 -0.12480614 0.17212626 0.024163246 -0.09470611 0.055792656
0.035972327 -0.020907583 -0.03805482 0.10955163 0.16406766 -0.097131886 -0.12342247 0.12604414
-0.07803461 0.0897605 -0.14439458 0.14717114 0.010543894 -0.07079597 0.15398179 -0.013284113
0.11625348 -0.09223767 0.15092187 -0.07829987 -0.072324365 -0.072510734 0.13996144 -0.14438298
-0.015805254 -0.13073103 -0.060739335 0.03531526 0.020430405 0.14497343 -0.1113422 0.007046113
-0.06084443 -0.13556162 0.09574562 -0.05877574 0.0068208952 -0.17325497 0.21722917 -0.004287898
-0.06794565 0.08188321 -0.16707449 0.053604253 -0.14209582 -0.08440594 -0.095822625 0.21834855
-0.013001638 0.045445543 0.06924679 0.14582054 0.07178936 -0.017608764 0.11951722 0.043704376
0.06634331 0.00189185 -0.13841574 0.15452318 0.089184225 0.0055025187 0.033402354 0.11145463
0.1776404 0.123705246 -0.14971252 0.04215296 0.019803295 -0.16415925 0.093602024 0.16973339
0.08434499 0.117164746 -0.1520198 -0.051670764 -0.047415264 0.11635245 0.1821519 0.16782145
0.009455831 0.115991786 -0.15430766 -0.07641888 -0.07073739 -0.03823852 0.042676322 0.1239541
-0.056569256 0.03022966 0.13051932 0.08369149 -0.10814526 -0.14224894 0.19132145 0.07069379
-0.112447135 0.10931752 -0.06951647 -0.08254406 0.12386751 0.0536024 -0.1526404 -0.089625694
-0.19073237 -0.06185202 -0.03056127 -0.0009611485 0.13003106 0.01394492 -0.11203215 0.16872045
0.13226083 -0.060980707 -0.077484235 0.056461167 0.14345644 0.006902548 -0.028187372 -0.044762757
0.13707092 -0.0036625427 0.15088956 -0.1180403 -0.1480842 0.14753233 0.13600604 -0.09656443
0.080996215 -0.2190016 0.055614155 0.04538202 -0.05986998 -0.0854931 0.081081025 0.09252153
-0.06763248 -0.023186794 -0.104972504 0.068948835 -0.049209043 0.1946696 0.19170761 -0.08818916
-0.10911559 0.13076149 0.11417175 -0.11544383 0.12741789 0.0802132 -0.09183677 -0.16053179
-0.07229631 0.18649273 -0.069136895 -0.16167493 0.032218713 0.020395689 -0.0865858 -0.004338418
-0.023855062 -0.09815323 -0.016288616 0.06371525 0.14232102 -0.09502127 0.11545912 -0.053476088
0.12480886 0.07790041 -0.056132957 -0.05081998 0.07785203 -0.12072241 -0.12623619 0.07166289
-0.032169126 0.074100524 -0.15477316 -0.07016409 -0.05133771 0.041677646 -0.14581893 -0.05964109
0.17515597 -0.11573244 0.039895974 0.09849866 -0.06863431 0.04042015 0.1447031 -0.09387781
-0.028287668 -0.09095704 -0.18385257 -0.119720824 -0.17065954 -0.15314259 0.06539849 -0.10861024
0.038658116 -0.13395211 0.05247195 0.1370722 0.17005092 -0.10260639 -0.05401818 -0.032849394
0.07286 0.06916628 0.07049986 -0.11589237 -0.07297268 -0.069839336 -0.12436278 -0.18452612
0.1148341 0.012861818 -0.11563559 -0.08698789 0.078565866 -0.1157807 0.20025599 0.099416405
-0.050772995 -0.1390989 -0.0030837383 0.17007522 -0.04595992 -0.01865174 -0.12108277 -0.039238792
00000000: 51c5 d8bd 9048 35be 9eef 353e 082d 513e
00000010: 7b3a 96bd 4de3 ab3d 4adc aa3b 3aaf 1a3e
00000020: b8e0 263e 81c9 273e 153e 29bd d348 e83d
00000030: e247 8e3d 25bf ab3c fccb 46bd 11b6 bd3d
00000040: 4634 123e c753 cfbd f8aa 93bc 5d9a ffbd
00000050: de41 303e 00f2 c53c 47f5 c1bd d786 643d
00000060: b857 133d 6146 abbc 5fdf 1bbd 9b5c e03d
00000070: 5a01 283e 15ed c6bd ecc4 fcbd b711 013e
00000080: 9cd0 9fbd 5ad4 b73d 2cdc 13be 08b4 163e
00000090: 4cc0 2c3c 7afd 90bd 67ad 1d3e 9ca5 59bc
000000a0: 4e16 ee3d 1be7 bcbd 438b 1a3e af5b a0bd
000000b0: cc1e 94bd 8280 94bd 0d52 0f3e 22d9 13be
000000c0: 057a 81bc 5bde 05be cfc9 78bd bca6 103d
000000d0: aa5d a73c ea73 143e 6107 e4bd 14e3 e63b
000000e0: 0238 79bd aad0 0abe 4816 c43d d5be 70bd
000000f0: d181 df3b c069 31be 5371 5e3e 7f81 8cbb
00000100: 1727 8bbd 62b2 a73d 9315 2bbe 2290 5b3d
00000110: 9181 11be 05dd acbd a73e c4bd c396 5f3e
00000120: d304 55bc 1b25 3a3d 43d1 8d3d fb51 153e
00000130: 4d06 933d 4140 90bc 72c5 f43d 5c03 333d
00000140: 00df 873d f4f7 f73a dbbc 0dbe 533b 1e3e
00000150: 38a6 b63d 794e b43b e8d0 083d 5342 e43d
00000160: 5de7 353e 2d59 fd3d 3d4e 19be 95a8 2c3d
00000170: 853a a23c 5d19 28be 6bb2 bf3d 97ce 2d3e
00000180: 11bd ac3d 12f4 ef3d 14ab 1bbe b9a4 53bd
00000190: 8236 42bd 314a ee3d 0786 3a3e 63d9 2b3e
000001a0: a1ec 1a3c 1a8d ed3d d402 1ebe 8081 9cbd
000001b0: c4de 90bd ff9f 1cbd 5ecd 2e3d a6db fd3d
000001c0: 2ab5 67bd 31a4 f73c dba6 053e 7266 ab3d
000001d0: 437b ddbd b5a9 11be c5e9 433e e8c7 903d
000001e0: af4a e6bd dde1 df3d a75e 8ebd dc0c a9bd
000001f0: 40ae fd3d 318e 5b3d c44d 1cbe ad8d b7bd
00000200: 594f 43be 8b58 7dbd a15b fabc 95f5 7bba
00000210: dd26 053e 3c79 643c 1d71 e5bd 0ec5 2c3e
00000220: 626f 073e e8c6 79bd 0eb0 9ebd d343 673d
00000230: 3fe6 123e c52e e23b 34e9 e6bc 2759 37bd
00000240: 525c 0c3e 4507 70bb cb82 1a3e 1dbf f1bd
00000250: 62a3 17be b712 173e 2b45 0b3e 92c3 c5bd
00000260: 58e1 a53d f541 60be abcb 633d 7fe2 393d
00000270: 393a 75bd 0217 afbd cf0d a63d ee7b bd3d
00000280: e682 8abd 3bf2 bdbc d3fb d6bd 0c35 8d3d
00000290: 6c8f 49bd 7857 473e 004f 443e 859c b4bd
000002a0: ff77 dfbd 57e6 053e e1d2 e93d d16d ecbd
000002b0: d679 023e d146 a43d eb14 bcbd 7262 24be
000002c0: 1610 94bd f3f7 3e3e a597 8dbd 1d8e 25be
000002d0: c5f7 033d dc14 a73c e553 b1bd 4a29 8ebb
000002e0: b16b c3bc 9004 c9bd b46f 85bc 247d 823d
000002f0: 9abc 113e 839a c2bd d575 ec3d be09 5bbd
00000300: ca9b ff3d 408a 9f3d aceb 65bd 9d28 50bd
00000310: e370 9f3d 503d f7bd 0f44 01be fec3 923d
00000320: c6c3 03bd 04c2 973d db7c 1ebe 31b2 8fbd
00000330: 7e47 52bd 2eb6 2a3d 8f51 15be 374a 74bd
00000340: 165c 333e 2105 edbd f669 233d aab9 c93d
00000350: 2590 8cbd 998f 253d 0d2d 143e 0243 c0bd
00000360: 8abb e7bc af47 babd d943 3cbe 3130 f5bd
00000370: 60c1 2ebe 69d1 1cbe a5ef 853d 0c6f debd
00000380: f957 1e3d be2a 09be d4ec 563d a85c 0c3e
00000390: d421 2e3e 4d23 d2bd 2b42 5dbd 168d 06bd
000003a0: a037 953d 0da7 8d3d 3b62 903d fb58 edbd
000003b0: b372 95bd ed07 8fbd eab1 febd 6af4 3cbe
000003c0: 242e eb3d 60ba 523c 5ad2 ecbd b526 b2bd
000003d0: 24e7 a03d 6f1e edbd e80f 4d3e d49a cb3d
000003e0: 58f7 4fbd f16f 0ebe 8b18 4abb 3328 2e3e
000003f0: 7840 3cbd 89cb 98bc 3efa f7bd dbb8 20bd

weight f4 [96]
1.0187082 0.9827353 0.9623405 1.0154744 1.0110581 1.039207 0.9644233 1.0577445
1.0275838 1.0183339 1.0324392 1.0368052 1.00279 0.9980971 1.0166459 0.98261374
0.9911589 0.9937233 0.96140933 1.028876 1.0450674 0.99121803 1.0558978 1.0129249
0.999459 0.96589136 1.0007825 0.95852375 1.0401493 0.98090315 0.998686 1.0191263
0.9815104 0.9592371 0.9967365 0.990548 0.948387 1.0035262 1.0286485 1.0171939
1.0034853 1.0208105 1.0012276 0.9757669 0.97718203 0.9901247 0.99261224 1.0152316
1.0092553 1.0059648 0.9906365 0.9796336 0.9959093 0.9917687 1.0600374 1.0378962
1.0296253 1.0122936 1.0173787 0.98684925 0.99059397 1.0122083 0.99342686 1.043662
0.9581626 1.0839791 0.9935104 1.0278257 1.0312562 0.9294854 0.96237123 0.9803724
0.98082095 0.9590293 0.98851293 0.99121344 0.97151464 0.9819541 1.0838438 1.0185475
1.0001512 1.0138109 0.97020286 1.0221148 1.0357599 1.0244232 1.0133301 0.9370021
0.91984344 0.99827564 0.955557 0.9798395 0.97878087 1.0236377 0.9761654 0.9888866
00000000: 0865 823f 8a94 7b3f f25b 763f 11fb 813f
00000010: 5a6a 813f bc04 853f 72e4 763f 2c64 873f
00000020: de87 833f c458 823f f826 843f 08b6 843f
00000030: 6c5b 803f 4b83 7f3f 7421 823f 938c 7b3f
00000040: 97bc 7d3f a664 7e3f ec1e 763f 35b2 833f
00000050: c5c4 853f 77c0 7d3f a927 873f 86a7 813f
00000060: 8cdc 7f3f a844 773f a419 803f d061 753f
00000070: 9d23 853f 781c 7b3f e3a9 7f3f bb72 823f
00000080: 4444 7b3f 9090 753f 202a 7f3f 8e94 7d3f
00000090: 7ec9 723f 8c73 803f c1aa 833f 6933 823f
000000a0: 3572 803f eba9 823f 3a28 803f dccb 793f
000000b0: 9a28 7a3f d078 7d3f d61b 7e3f 1cf3 813f
000000c0: 472f 813f 74c3 803f 5b9a 7d3f 45c9 7a3f
000000d0: e9f3 7e3f 8ee4 7d3f 4eaf 873f c8d9 843f
000000e0: c3ca 833f d692 813f 7739 823f 27a2 7c3f
000000f0: 9197 7d3f 0b90 813f 3951 7e3f b796 853f
00000100: 254a 753f d4bf 8a3f b356 7e3f cb8f 833f
00000110: 3400 843f c1f2 6d3f f65d 763f b0f9 7a3f
00000120: 1517 7b3f f282 753f 2f0f 7d3f 2ac0 7d3f
00000130: 2fb5 783f 5861 7b3f 65bb 8a3f c45f 823f
00000140: f404 803f 8ec4 813f 375f 783f a8d4 823f
00000150: c893 843f 4d20 833f cdb4 813f 5fdf 6f3f
00000160: dc7a 6b3f fe8e 7f3f 629f 743f c3d6 7a3f
00000170: 6291 7a3f 8f06 833f fae5 793f ac27 7d3f

bias f4 [96]
0.09274367 0.020726038 0.056896497 -0.009646564 0.015714124 -0.014640508 -0.08809322 -0.012371025
0.07450582 -0.08898903 -0.15421276 -0.113475636 -0.03833779 0.09023371 0.0019938806 -0.05433027
0.010642212 0.046700317 -0.029721387 0.10607375 0.15953395 0.021231849 -0.033249397 -0.02635548
-0.009468482 -0.00619788 0.0021462801 0.013118408 0.02518207 0.033401676 0.007935077 0.020126108
0.031989627 0.012728414 0.026617127 0.08610703 0.034651723 -0.03245104 0.011498005 0.10034453
0.0007596151 -0.034801077 0.07171281 0.022547996 0.0413809 0.0318656 0.04099113 -0.025926031
0.0030145957 -0.03172679 0.060239702 0.06579845 -0.015374857 0.03470024 0.0031221854 0.08262914
0.052791044 0.024034273 -0.06723444 0.028364051 -0.032032292 0.096380785 0.013682099 0.04360348
-0.005381221 0.021101488 -0.016445663 0.058568247 0.07563422 -0.069473565 0.027434198 0.05602516
0.012819872 0.007134046 0.031447202 0.15495206 0.05907723 0.047530383 0.051240202 0.012972422
0.03552089 -0.11296038 0.026835345 -0.0122486325 -0.0027925202 0.02492474 0.077979356 0.062460452
0.08324226 0.028466456 -0.04552811 0.056823667 0.022930631 -0.05204691 -0.021566795 0.06847806
00000000: 65f0 bd3d a7c9 a93c 4d0c 693d 9f0c 1ebc
00000010: e8ba 803c bede 6fbc 386a b4bd d7af 4abc
00000020: 8296 983d e13f b6bd f3e9 1dbe ea65 e8bd
00000030: 1608 1dbd 74cc b83d c4ab 023b 6b89 5ebd
00000040: ac5c 2e3c d548 3f3d 447a f3bc 323d d93d
00000050: de5c 233e 6aee ad3c 8530 08bd 73e7 d7bc
00000060: b121 1bbc 9617 cbbb 9ba8 0c3b 97ee 563c
00000070: a14a ce3c 32d0 083d 2002 023c 82df a43c
00000080: 8e07 033d d68a 503c 290c da3c e258 b03d
00000090: f7ee 0d3d 62eb 04bd 2162 3c3c 6f81 cd3d
000000a0: e820 473a 938b 0ebd 2ade 923d 93b6 b83c
000000b0: 057f 293d 8185 023d 51e6 273d d462 d4bc
000000c0: 8690 453b f3f3 01bd e8bd 763d 56c1 863d
000000d0: d3e6 7bbc d721 0e3d 949d 4c3b 7739 a93d
000000e0: 6c3b 583d 86e3 c43c 36b2 89bd ba5b e83c
000000f0: 4b34 03bd 4a63 c53d e22a 603c 9099 323d
00000100: f454 b0bb 07dd ac3c 0eb9 86bc 42e5 6f3d
00000110: 1de6 9a3d 2848 8ebd afbd e03c a37a 653d
00000120: 710a 523c b7c4 e93b c8ce 003d c1ab 1e3e
00000130: f7fa 713d 38af 423d 3fe1 513d 488a 543c
00000140: 5a7e 113d c657 e7bd ccd5 db3c 7dae 48bc
00000150: b702 37bb f82e cc3c a4b3 9f3d 88d6 7f3d
00000160: eb7a aa3d 7c32 e93c af7b 3abd efbf 683d
00000170: 05d9 bb3c 242f 55bd d9ac b0bc 3a3e 8c3d

mean_scale f4 [96]
1.0610616 1.0599155 1.0617025 0.9084291 0.9799029 0.99332523 0.86751574 0.9860358
0.9358444 0.91607136 0.81421405 1.0316318 1.0160753 0.88539004 0.9737587 0.8831298
0.98521054 1.0433303 1.0349079 0.9589145 1.1341631 0.98384255 0.97992015 0.9805227
1.0099483 1.009689 1.0018995 0.98233044 1.015199 1.0153562 1.000403 0.9781985
0.9663045 0.99565816 0.9653203 1.151216 0.97247064 1.0345645 1.0039212 1.0841379
1.008455 0.91130704 0.94601756 0.98164904 1.0859075 0.96470934 0.96741915 1.0137615
1.0314633 0.9570853 1.0589699 1.0624956 1.0190748 1.0377352 0.9974666 0.92726916
0.9554167 0.9845459 1.0397415 0.9977985 0.980846 1.073528 0.993393 0.9567303
0.98972166 1.0256419 1.0270296 1.0011601 1.0536959 0.95639074 1.045984 0.94720054
0.981406 0.98974305 0.9983166 1.1645031 1.0204285 1.0033987 1.0271436 1.0059402
0.95686555 1.1165224 1.0002615 1.0165583 0.9809277 0.98823094 1.0666376 0.9270569
1.0246711 1.0211914 0.95692575 0.93697846 0.9865142 1.0371433 1.0535074 1.1011008
00000000: ded0 873f 50ab 873f dee5 873f cf8e 683f
00000010: ebda 7a3f 904a 7e3f 8315 5e3f d86c 7c3f
00000020: 8093 6f3f a783 6a3f 5570 503f 830c 843f
00000030: c10e 823f eca8 623f 4048 793f cb14 623f
00000040: c236 7c3f d98b 853f dd77 843f 6c7b 753f
00000050: 422c 913f 1bdd 7b3f 0cdc 7a3f 8903 7b3f
00000060: fc45 813f 7d3d 813f 3e3e 803f 027a 7b3f
00000070: 0af2 813f 31f7 813f 350d 803f 386b 7a3f
00000080: bb5f 773f 74e3 7e3f 3b1f 773f 0c5b 933f
00000090: d6f3 783f 9c6c 843f 7d80 803f 08c5 8a3f
000000a0: 0e15 813f 6b4b 693f 352e 723f 5a4d 7b3f
000000b0: 04ff 8a3f 31f7 763f c8a8 773f f0c2 813f
000000c0: fd06 843f 8b03 753f 538c 873f dbff 873f
000000d0: 0b71 823f 82d4 843f f959 7f3f 8361 6d3f
000000e0: 3096 743f 330b 7c3f 4016 853f b96f 7f3f
000000f0: b918 7b3f 5e69 893f 014f 7e3f 47ec 743f
00000100: 665e 7d3f 3c48 833f b575 833f 0426 803f
00000110: 82df 863f 06d6 743f cee2 853f bc7b 723f
00000120: 6c3d 7b3f cd5f 7d3f ad91 7f3f 700e 953f
00000130: 679d 823f 5e6f 803f 7179 833f a6c2 803f
00000140: 24f5 743f 35ea 8e3f 9208 803f 951e 823f
00000150: 141e 7b3f b4fc 7c3f 9587 883f 9a53 6d3f
00000160: 6c28 833f 66b6 823f 16f9 743f d2dd 6f3f
00000170: 328c 7c3f 1dc1 843f 55d9 863f dff0 8c3f

bias f4 [64]
0.0044521675 0.00920198 0.09397386 -0.02772355 0.03506963 0.12069979 0.04130477 -0.1437223
0.025651423 0.07453811 -0.0147812655 -0.004143779 0.06020267 0.08076005 0.03180801 0.1714539
0.024916505 -0.021908944 0.007955355 -0.1192828 0.08973556 -0.0040943525 -0.097235635 -0.042128224
-0.06431454 -0.039499808 0.010118013 -0.0016065768 0.047211707 0.044970706 -0.117991544 0.0072859116
-0.15781496 0.038387243 0.024093233 0.0020551777 0.098112464 0.016323064 -0.10480313 0.039756555
-0.028685164 0.018581554 -0.03128374 0.03481115 -0.028278306 0.12643516 0.004685212 0.054131497
-0.08610785 0.07873262 -0.045435943 0.08182385 0.047791865 -0.0855973 -0.062964976 -0.06157023
0.0745426 0.07373735 -0.0122563895 0.058706034 0.08813833 0.042858012 -0.016067592 -0.19282159
00000000: 7de3 913b e7c3 163c 5e75 c03d 801c e3bc
00000010: 2ca5 0f3d 7431 f73d 312f 293d f02b 13be
00000020: ef22 d23c 70a7 983d 1f2d 72bc 8ac8 87bb
00000030: 1397 763d 8665 a53d 1e49 023d 9c91 2f3e
00000040: b31d cc3c 637a b3bc 2d57 023c 8a4a f4bd
00000050: 47c7 b73d eb29 86bb 7a23 c7bd a58e 2cbd
00000060: 57b7 83bd 8dca 21bd 06c6 253c c693 d2ba
00000070: 1061 413d 3433 383d 8da5 f1bd a8be ee3b
00000080: 3f9a 21be f13b 1d3d 2c5f c53c 29b0 063b
00000090: 30ef c83d f2b7 853c 06a3 d6bd c5d7 223d
000000a0: 26fd eabc 5838 983c 6123 00bd 2396 0e3d
000000b0: e8a7 e7bc 3878 013e 6886 993b fdb8 5d3d
000000c0: 5059 b0bd 913e a13d 0a1b 3abd 4393 a73d
000000d0: 67c1 433d a34d afbd c8f3 80bd 1131 7cbd
000000e0: caa9 983d 9c03 973d 06cf 48bc bd75 703d
000000f0: de81 b43d e28b 2f3d 2fa0 83bc 0673 45be

weight f4 [64, 96]
0.073847905 0.09692918 0.10290017 0.07270243 0.07943997 0.120339 0.07897038 0.14009033
-0.14912303 0.07883746 0.024298292 -0.15624204 -0.122109435 0.03800255 0.16003004 -0.028500397
-0.026000276 0.009438616 0.16211191 -0.08254903 -0.17191473 -0.055401005 -0.083462276 0.09960704
-0.1459143 -0.049490772 -0.17718089 0.20035042 0.018054953 0.088821 -0.097915135 0.11215512
-0.03478911 0.07771979 0.09912817 -0.14450192 -0.16390616 -0.1419833 -0.2353852 0.00049513276
-0.16025293 -0.20923468 0.053372532 -0.16602564 -0.0344537 0.08177926 -0.16273089 -0.113687895
0.07485504 -0.19670549 0.12057539 -0.09594981 -0.022585751 -0.07208312 0.10101087 0.1497924
-0.13138707 0.09136071 -0.0149790505 -0.05875705 -0.040746085 -0.1365636 -0.04902486 -0.0026507964
-0.08824497 -0.15843599 -0.108817466 0.10496824 -0.1405435 0.050687585 0.028757777 -0.12881164
-0.13866901 0.19299708 0.022300983 -0.036002945 -0.20733067 -0.2008677 0.13641796 -0.11806784
0.051627155 0.10036768 0.0152198495 0.15124704 0.065871775 -0.14034939 0.21148099 0.0035063233
0.06587223 -0.04205876 0.02581424 -0.1323655 -0.16421844 0.083189666 0.042316597 -0.02801008
-0.12914948 -0.047247462 -0.17175505 -0.2020102 0.0127803 -0.09048131 -0.034591533 0.0005288568
0.15744506 -0.09040676 -0.1332009 0.14606741 0.16206157 0.031918354 -0.0017304262 0.14314875
0.12441089 0.20486993 0.13280225 0.049966205 0.18882586 -0.10440011 -0.19005333 0.08994766
0.08366488 0.08008997 -0.06648792 -0.13862087 0.107446745 -0.13894317 0.21219338 -0.10092598
0.03788861 -0.18279451 0.018886825 -0.1223097 0.10621931 -0.23421484 0.13456666 -0.11399997
0.063538924 0.043234885 -0.06887959 0.13807608 -0.16907114 0.1769304 -0.047090776 0.058670297
0.12199324 0.066664 -0.1983374 -0.08492962 0.027605487 0.14042391 0.16842061 0.064216144
-0.033759356 0.102293625 -0.003827607 0.1441827 -0.19575414 -0.0775836 0.122903354 0.033263832
-0.041241467 0.12843646 0.14089668 -0.18282515 -0.1038436 0.18405518 0.042867985 -0.02500863
-0.08876076 -0.06693373 -0.13719091 -0.2096329 0.15730493 0.12549624 0.08267337 -0.17052104
-0.14815068 -0.09129174 -0.10888425 0.10682322 -0.060515154 -0.10070825 0.12843484 0.0030028243
0.08780332 -0.05965585 0.16664447 -0.073224604 0.03462042 -0.07004704 -0.032680918 0.057497453
-0.10928329 0.08664032 0.08691691 -0.20719182 0.07214679 -0.11658762 -0.06127538 -0.046616457
0.08985476 0.15814163 -0.1262713 -0.044182852 -0.046471287 0.0036580765 -0.0455433 0.08087861
0.17086838 -0.22979023 0.1063435 0.012571844 -0.15166186 -0.16049485 -0.034623798 0.076477416
-0.041142445 0.123172686 0.05820976 0.009760911 -0.17677525 -0.17010117 -0.048408482 0.1942551
0.103370674 -0.18898618 0.019408064 0.12864673 -0.06107009 0.17634271 -0.09424273 0.11217283
0.13732639 0.1263175 0.05429892 -0.15783978 -0.10541444 0.09798744 -0.11373439 0.06587343
0.03465747 0.06896489 0.0015275376 -0.13678625 0.02228466 -0.016152106 0.13909638 0.02958742
-0.052722167 -0.21494879 -0.037541293 -0.07343137 0.054472044 0.19237188 0.09080008 -0.023084547
00000000: 923d 973d ce82 c63d 53bd d23d 03e5 943d
00000010: 6cb1 a23d 4b74 f63d 39bb a13d d773 0f3e
00000020: b5b3 18be 8975 a13d 360d c73c eafd 1fbe
00000030: 8314 fabd 90a8 1b3d eade 233e aa79 e9bc
00000040: 88fe d4bc 6da4 1a3c aa00 263e 770f a9bd
00000050: 6a0a 30be 2aec 62bd 45ee aabd c7fe cb3d
00000060: 8f6a 15be d6b6 4abd e86e 35be a928 4d3e
00000070: fbe7 933c c9e7 b53d bb87 c8bd 95b1 e53d
00000080: 077f 0ebd 8e2b 9f3d b603 cb3d 50f8 13be
00000090: 04d7 27be 1264 11be d108 71be cccb 013a
000000a0: 5819 24be 9e41 56be 289d 5a3d a002 2abe
000000b0: 531f 0dbd e27b a73d eda2 26be 33d5 e8bd
000000c0: 994d 993d 2a6d 49be 3bf0 f63d 5681 c4bd
000000d0: c105 b9bc 51a0 93bd c9de ce3d 2e63 193e
000000e0: 558a 06be 531b bb3d b16a 75bc 3cab 70bd
000000f0: 5ee5 26bd 54d7 0bbe 4bce 48bd fcb8 2dbb
00000100: c7b9 b4bd 0b3d 22be b1db debd 97f9 d63d
00000110: a3ea 0fbe c99d 4f3d 6e95 eb3c 33e7 03be
00000120: 40ff 0dbe 07a1 453e 8db0 b63c d377 13bd
00000130: 7e4e 54be 43b0 4dbe 26b1 0b3e 8dcd f1bd
00000140: ff76 533d 928d cd3d ad5c 793c 81e0 1a3e
00000150: c8e7 863d c0b7 0fbe 798e 583e 58ca 653b
00000160: 05e8 863d ce45 2cbd 6378 d33c d28a 07be
00000170: e128 28be 585f aa3d 2b54 2d3d 6575 e5bc
00000180: c33f 04be 8e86 41bd 8ee0 2fbe c3db 4ebe
00000190: 7764 513c 444e b9bd daaf 0dbd fba2 0a3a
000001a0: 4739 213e 2e27 b9bd d165 08be b292 153e
000001b0: 78f3 253e d2bc 023d 78cf e2ba 9695 123e
000001c0: 23cb fe3d 6cc9 513e 50fd 073e 5da9 4c3d
000001d0: 915b 413e bacf d5bd 579d 42be 7b36 b83d
000001e0: 7e58 ab3d 3606 a43d d22a 88bd a1f2 0dbe
000001f0: 0a0d dc3d 1e47 0ebe 3949 593e 48b2 cebd
00000200: 1631 1b3d 7c2e 3bbe 8bb8 9a3c 827d fabd
00000210: 8289 d93d 04d6 6fbe d8cb 093e d178 e9bd
00000220: b220 823d 1017 313d be10 8dbd d163 0d3e
00000230: fc20 2dbe 3e2d 353e 42e2 40bd 4450 703d
00000240: 98d7 f93d 2387 883d f618 4bbe 95ef adbd
00000250: e724 e23c 49cb 0f3e 7476 2c3e c183 833d
00000260: 4047 0abd 527f d13d 97d8 7abb a1a4 133e
00000270: c673 48be 27e4 9ebd c1b4 fb3d a83f 083d
00000280: d0ec 28bd d984 033e 3847 103e 8436 3bbe
00000290: f4ab d4bd f678 3c3e 5796 2f3d e6de ccbc
000002a0: 34c8 b5bd 8d14 89bd c67b 0cbe 02aa 56be
000002b0: 8b14 213e 1682 003e a850 a93d 119d 2ebe
000002c0: d0b4 17be 2af7 babd b5fe debd 22c6 da3d
000002d0: bdde 77bd 2140 cebd 6c84 033e 08cb 443b
000002e0: 3ad2 b33d b159 74bd d9a4 2a3e c8f6 95bd
000002f0: 24ce 0d3d d374 8fbd 6ddc 05bd 7382 6b3d
00000300: ebcf dfbd 7b70 b13d 7e01 b23d 182a 54be
00000310: b2c1 933d 7dc5 eebd e5fb 7abd e6f0 3ebd
00000320: c605 b83d e1ef 213e 434d 01be 14f9 34bd
00000330: ad58 3ebd 57bc 6f3b 9d8b 3abd afa3 a53d
00000340: 1ff8 2e3e 214e 6bbe 9fca d93d 23fa 4d3c
00000350: 3f4d 1bbe c358 24be afd1 0dbd 31a0 9c3d
00000360: fb84 28bd f641 fc3d 5b6d 6e3d 3aec 1f3c
00000370: 9204 35be 002f 2ebe f947 46bd cfea 463e
00000380: 01b4 d33d 9885 41be a9fd 9e3c f8bb 033e
00000390: a124 7abd 2f93 343e 5502 c1bd deba e53d
000003a0: 4a9f 0c3e 6059 013e 8b68 5e3d c0a0 21be
000003b0: 87e3 d7bd a4ad c83d 93ed e8bd a6e8 863d
000003c0: fef4 0d3d 773d 8d3d a837 c83a b211 0cbe
000003d0: 528e b63c 6c51 84bc 486f 0e3e 5161 f23c
000003e0: 33f3 57bd 891b 5cbe e6c4 19bd 3063 96bd
000003f0: 141e 5f3d 22fd 443e 64f5 b93d ce1b bdbc

weight f4 [64]
0.98447174 0.9978483 0.952584 1.0118066 0.9565231 0.97888494 0.9807144 1.0072919
1.0020951 0.9820892 1.0288138 0.99098957 0.9755942 0.9557261 1.0314212 0.9695936
1.0269783 1.0066295 0.97644407 0.9556048 1.0310667 1.0215338 0.93955094 0.99761933
1.0716664 0.9602118 0.97351897 0.9976922 0.954454 1.026739 0.9833467 0.9846191
0.972821 0.9774447 0.9968079 1.0788288 0.99949056 1.008956 0.99572885 1.0134981
0.9748335 1.0263534 1.0124266 0.9704009 1.0085509 1.016532 0.99496484 0.993457
1.0009303 0.9662761 1.0150129 0.9881347 0.99110293 0.9852349 0.984872 0.99211186
1.025194 1.0283477 0.97165304 1.0007588 1.0330781 0.9515836 0.99600554 0.97650516
00000000: 5706 7c3f fc72 7f3f 8cdc 733f e182 813f
00000010: b3de 743f 3498 7a3f 1910 7b3f f1ee 803f
00000020: a744 803f 336a 7b3f 2cb0 833f 7eb1 7d3f
00000030: 8bc0 793f 77aa 743f 9c05 843f 4937 783f
00000040: 0674 833f 3cd9 803f 3df8 793f 84a2 743f
00000050: fef9 833f 9fc1 823f 6986 703f fb63 7f3f
00000060: 5d2c 893f 71d0 753f 8a38 793f c268 7f3f
00000070: 1957 743f 2f6c 833f 9cbc 7b3f ff0f 7c3f
00000080: cc0a 793f d139 7a3f cd2e 7f3f 1017 8a3f
00000090: 9dde 7f3f 7825 813f 16e8 7e3f 4eba 813f
000000a0: b08e 793f 8c5f 833f 3297 813f 326c 783f
000000b0: 3218 813f b81d 823f 04b6 7e3f 3353 7e3f
000000c0: 7c1e 803f df5d 773f f1eb 813f 65f6 7c3f
000000d0: ecb8 7d3f 5b38 7c3f 9220 7c3f 0bfb 7d3f
000000e0: 8f39 833f e6a0 833f 41be 783f dd18 803f
000000f0: e73b 843f fc9a 733f 38fa 7e3f 3efc 793f

bias f4 [64]
0.0045836912 -0.017466588 -0.06711986 0.0119785955 -0.06382049 -0.07046546 0.011337496 -0.07845963
-0.029566996 0.03773596 0.043645363 0.008370663 0.003528042 -0.04730462 -0.04048494 -0.057461657
0.007487144 0.033187076 -0.002349739 0.05269816 0.028446874 0.029955227 0.025762396 0.054971557
-0.024897393 -0.05722004 -0.005988545 0.044564288 -0.020106269 -0.030567272 0.038800944 0.016003689
0.089852154 -0.014735906 -0.027685847 -0.040160928 0.0024002867 0.00853102 0.091932476 0.010274153
0.0015273034 0.04545299 0.0075059286 0.009435617 0.020603145 -0.07651801 0.017911373 -0.0027533663
0.061070006 -0.06911402 0.006554831 0.04882631 0.0016119162 -0.05850697 0.02634588 -0.026685383
-0.016228376 -0.025672715 -0.03509922 -0.017565792 -0.04209979 0.0495772 -0.03656704 0.1034066
00000000: ca32 963b 1716 8fbc 2376 89bd df41 443c
00000010: 51b4 82bd 3250 90bd e8c0 393c 71af a0bd
00000020: 7c36 f2bc 0691 1a3d 7bc5 323d 1b25 093c
00000030: b936 673b 7dc2 41bd 89d3 25bd ea5c 6bbd
00000040: b756 f53b 2cef 073d 14fe 19bb 07da 573d
00000050: 6b09 e93c aa64 f53c a90b d33c db29 613d
00000060: 9ef5 cbbc 905f 6abd 8e3b c4bb 0b89 363d
00000070: e7b5 a4bc 3768 fabc bded 1e3d 2b1a 833c
00000080: 6804 b83d df6e 71bc 6ecd e2bc c97f 24bd
00000090: 214e 1d3b b1c5 0b3c 1847 bc3d ec54 283c
000000a0: cc2f c83a ea2c 3a3d 4bf4 f53b d997 1a3c
000000b0: edc7 a83c 79b5 9cbd dfba 923c d271 34bb
000000c0: 8b24 7a3d a78b 8dbd e8c9 d63b 19fe 473d
000000d0: ef46 d33a 01a5 6fbd 51d3 d73c 4e9b dabc
000000e0: 5ff1 84bc 964f d2bc 33c4 0fbd 23e6 8fbc
000000f0: d470 2cbd 7611 4b3d 52c7 15bd d7c6 d33d

mean_scale f4 [64]
0.97498226 0.97138196 1.1117386 1.0267773 1.056063 1.1317984 0.9626537 0.9603505
1.0083592 0.968129 1.0265143 1.0470896 0.9303406 1.0734257 1.0309169 1.1698445
1.013556 1.0394155 1.0777767 1.0870856 0.9896684 1.0444554 1.0510135 0.98099357
0.95054847 0.9633606 1.0127505 1.026276 1.0666072 1.0395427 1.1040051 0.9809726
1.1435978 1.0428323 1.0287911 1.0751317 1.0194316 1.002583 1.1260812 0.98634166
1.0276475 0.939575 0.9863029 0.95733684 1.0147715 1.1131521 1.0040407 0.8935392
1.0811406 1.1056281 0.9941612 0.9293705 0.9279223 0.9629363 1.0297287 0.94985366
0.99881077 1.0058198 1.0206442 1.0693204 0.9947363 0.96845305 0.94321185 1.1505374
00000000: 7098 793f 7dac 783f 734d 8e3f 706d 833f
00000010: 132d 873f c5de 903f 7970 763f 88d9 753f
00000020: ea11 813f 4dd7 773f d264 833f 0807 863f
00000030: cd2a 6e3f 0366 893f 16f5 833f 77bd 953f
00000040: 34bc 813f 910b 853f 96f4 893f 9f25 8b3f
00000050: e95a 7d3f b7b0 853f 9c87 863f 6522 7b3f
00000060: 2557 733f cd9e 763f cfa1 813f 035d 833f
00000070: 9686 883f bc0f 853f 0a50 8d3f 0521 7b3f
00000080: 6a61 923f 877b 853f 6daf 833f ea9d 893f
00000090: bc7c 823f a454 803f 6e23 903f e380 7c3f
000000a0: f489 833f fd87 703f 597e 7c3f 0714 753f
000000b0: 08e4 813f c57b 8e3f 6884 803f fcbe 643f
000000c0: d162 8a3f 3985 8d3f 5981 7e3f 3aeb 6d3f
000000d0: 518c 6d3f fe82 763f 26ce 833f 9c29 733f
000000e0: 10b2 7f3f b4be 803f 78a4 823f 7edf 883f
000000f0: 0aa7 7e3f 8aec 773f 5576 713f cf44 933f

bias f4 [64]
0.6610743 -0.88030005 -0.1532325 -0.28060162 -0.846343 0.38439673 -0.7339297 0.4330531
-0.03687763 0.25841156 -0.2064816 0.0733031 0.18861271 0.511125 -0.10265021 -0.7009369
0.34488192 -0.67621773 0.277207 0.21620077 -0.0790377 -0.28619093 -0.4824543 -0.780152
0.39192197 0.5725671 -0.21706112 -0.49923918 -0.73241156 -0.4879094 -0.78893864 0.30230734
0.07979323 0.14066951 0.14147255 0.44960585 0.05544058 -0.6840686 -0.8548593 0.38507858
0.16007273 0.11182238 -0.16973054 0.100351475 0.33713874 0.21688685 0.2763642 -0.7593051
0.007692173 0.4789232 0.5152752 -0.07581355 0.3669905 -0.7683758 0.33007586 -0.88489157
-0.7005064 -0.58572805 -0.31940642 -0.011120321 0.52318597 0.50398606 0.066213824 0.16090964
00000000: 2a3c 293f 585b 61bf fbe8 1cbe 04ab 8fbe
00000010: efa9 58bf a6cf c43e d1e2 3bbf 23b9 dd3e
00000020: ff0c 17bd 854e 843e ea6f 53be f01f 963d
00000030: b123 413e 17d9 023f 463a d2bd 9a70 33bf
00000040: 5d94 b03e 9b1c 2dbf 13ee 8d3e bc63 5d3e
00000050: 85de a1bd 9e87 92be 4004 f7be 0bb8 47bf
00000060: ffa9 c83e c293 123f 4545 5ebe 479c ffbe
00000070: 537f 3bbf 43cf f9be e2f7 49bf 07c8 9a3e
00000080: a26a a33d ab0b 103e 2ede 103e bd32 e63e
00000090: a915 633d 1f1f 2fbf 0fd8 5abf 0529 c53e
000000a0: 1bea 233e 2203 e53d d8cd 2dbe 1385 cd3d
000000b0: 739d ac3e 9617 5e3e 9c7f 8d3e d261 42bf
000000c0: a00e fc3b 6c35 f53e 13e9 033f 2244 9bbd
000000d0: 2ee6 bb3e 47b4 44bf b4ff a83e 4188 62bf
000000e0: 6354 33bf 46f2 15bf 3d89 a3be 0232 36bc
000000f0: 84ef 053f 3b05 013f 1d9b 873d 7fc5 243e

weight f4 [64, 64]
-0.074372336 0.079898216 -0.060188133 0.03975517 0.16670828 -0.095311254 0.076679885 -0.02435576
-0.10167596 0.070228964 0.10010454 -0.096516654 0.1155095 -0.17918523 0.16691178 -0.04779603
0.083026566 -0.024689505 -0.13647902 -0.07893 -0.21395405 0.02078538 0.15876718 0.21178089
0.14409767 0.0957956 0.081568204 -0.16323657 0.24452342 0.055684976 -0.03342535 0.21103652
0.1403111 -0.068779364 -0.011170347 0.18748271 0.20319138 -0.027691426 0.030945687 -0.013680673
0.0981785 -0.040503588 -0.124273114 -0.14552733 0.043120455 0.13347054 0.18071584 -0.12327032
0.21713401 -0.08707172 -0.09209598 0.22985771 0.049761795 -0.012066992 -0.06429968 0.17306107
0.018319363 0.06976877 0.07383778 0.047068186 0.059410114 0.100696966 0.09630266 -0.08530738
-0.1022068 -0.15994191 -0.21714215 -0.019912817 -0.025620846 0.022047013 -0.18577836 -0.040222224
0.17881007 -0.177457 -0.23033328 -0.08344614 -0.017378494 -0.16230528 -0.1295888 0.028775485
-0.16938914 -0.06543587 0.17035408 -0.08747676 0.015427272 -0.02954797 0.1338979 0.013402856
-0.13298312 -0.009199161 -0.16769528 0.07290959 -0.16653608 -0.10312449 0.12460622 -0.026277322
-0.14581214 0.039965075 -0.09226872 -0.045667678 -0.15114926 0.037830714 0.06956415 -0.2196078
0.05592238 -0.15907137 -0.027276335 0.13465747 0.0067596342 -0.18869197 -0.13928816 -0.0003605692
-0.20629445 0.13285002 -0.16868608 -0.08743208 -0.006576237 0.07250917 -0.12116724 -0.18542403
-0.0259868 -0.14842524 -0.07296441 -0.06777639 -0.110431634 0.09545073 -0.2588945 -0.20756371
-0.148305 0.016010394 -0.053096887 0.053559706 -0.15344632 -0.07747301 0.1299437 0.018656138
-0.11147184 0.079040565 -0.1844475 0.14624664 0.08262011 0.14346154 -0.13083765 -0.08316766
0.2297485 0.03650734 -0.07276627 -0.0058768247 -0.16510822 -0.23687114 0.09299557 -0.1934378
-0.0012495246 0.05089887 0.09857197 -0.21955694 -0.1606112 -0.0074124946 0.16176954 0.0023437592
-0.031088058 0.01838567 0.18691888 0.20247173 -0.15460983 -0.10084973 -0.025644645 0.13058005
-0.049253862 0.10517569 -0.11200129 0.08640722 0.18803017 -0.16211186 -0.09277108 -0.0038267246
0.17650887 -0.15644303 -0.0493649 0.12393449 -0.07446012 -0.12326031 -0.030335316 -0.05423791
0.13098082 0.107507974 0.18812667 -0.051747993 0.027627004 -0.12612534 0.12606204 0.15061237
0.007795096 -0.007205795 0.16820595 -0.21941523 -0.1393958 -0.20848224 0.009060882 -0.027257433
-0.056525446 0.007540704 -0.17379266 -0.13402714 0.21674031 -0.083327934 0.24926847 0.052128278
-0.13660656 0.034521144 0.18527558 0.2136881 -0.054208826 -0.01185784 0.068009235 -0.20721726
-0.13841438 0.009249035 0.07513147 -0.07945392 0.05293375 -0.17415032 0.057642136 0.16786182
-0.15059748 -0.20819658 0.059733752 0.16535097 -0.19250344 0.10041766 0.13293415 0.14404103
-0.016656728 0.18597363 -0.044205632 0.24136542 -0.001482085 -0.14004849 0.18848346 -0.19745117
-0.10928869 -0.040399913 -0.21195765 -0.12233667 -0.14252117 0.11912906 0.10835944 -0.08726992
-0.02973384 -0.10577305 0.2008186 -0.07122248 0.040770397 -0.042443555 -0.110268764 -0.16887975
00000000: 8650 98bd ada1 a33d d587 76bd 51d6 223d
00000010: 93b5 2a3e 8c32 c3bd 580a 9d3d bb85 c7bc
00000020: 7c3b d0bd 34d4 8f3d 9c03 cd3d 86aa c5bd
00000030: 3f90 ec3d 557c 37be ecea 2a3e c5c5 43bd
00000040: d509 aa3d a541 cabc 28c1 0bbe 0da6 a1bd
00000050: c516 5bbe 1a46 aa3c dd93 223e 17dd 583e
00000060: 578e 133e 7c30 c43d 3b0d a73d 7d27 27be
00000070: 5964 7a3e ee15 643d 05e9 08bd f519 583e
00000080: b7ad 0f3e 32dc 8cbd d503 37bc 78fb 3f3e
00000090: 6711 503e 21d9 e2bc cf81 fd3c e724 60bc
000000a0: cf11 c93d 17e7 25bd e782 febd 1e05 15be
000000b0: 139f 303d 80ac 083e 930d 393e 2675 fcbd
000000c0: 6158 5e3e a852 b2bd d19c bcbd d25f 6b3e
000000d0: 06d3 4b3d a2b4 45bc 8daf 83bd ec36 313e
000000e0: 7d12 963c eee2 8e3d 4338 973d 92ca 403d
000000f0: 0558 733d 363a ce3d 543a c53d a3b5 aebd
00000100: cc51 d1bd d0c7 23be 835a 5ebe 3420 a3bc
00000110: cfe2 d1bc f09b b43c af3c 3ebe 0fc0 24bd
00000120: fd19 373e 4ab7 35be 7ddc 6bbe cfe5 aabd
00000130: 585d 8ebc 5b33 26be edb2 04be 91ba eb3c
00000140: 5974 2dbe 3e03 86bd 4d71 2e3e 0427 b3bd
00000150: abc2 7c3c 960e f2bc 881c 093e a797 5b3c
00000160: ba2c 08be 14b8 16bc 50b8 2bbe a051 953d
00000170: 6f88 2abe ef32 d3bd 8c31 ff3d 8a43 d7bc
00000180: c74f 15be 6bb2 233d 62f7 bcbd 080e 3bbd
00000190: dfc6 1abe 61f4 1a3d a677 8e3d dee0 60be
000001a0: de0e 653d 9be3 22be 9f72 dfbc a6e3 093e
000001b0: ec7f dd3b 7838 41be 8ea1 0ebe c70a bdb9
000001c0: da3e 53be d609 083e 0bbc 2cbe 970f b3bd
000001d0: 797d d7bb b07f 943d 8826 f8bd ccdf 3dbe
000001e0: 45e2 d4bc c9fc 17be 5d6e 95bd 59ce 8abd
000001f0: fb29 e2bd ac7b c33d d28d 84be 958b 54be
00000200: 44dd 17be 3b28 833c 1f7c 59bd 6c61 5b3d
00000210: 0821 1dbe 2baa 9ebd f60f 053e c2d4 983c
00000220: 594b e4bd 05e0 a13d cedf 3cbe aec1 153e
00000230: bb34 a93d 95e7 123e 4efa 05be ce53 aabd
00000240: 3143 6b3e b888 153d 7b06 95bd 6192 c0bb
00000250: 2112 29be 598e 72be 7674 be3d 8f14 46be
00000260: 17c7 a3ba 557b 503d 1ae0 c93d 89d3 60be
00000270: 4377 24be 83e4 f2bb eaa6 253e c199 193b
00000280: 62ac febc 8b9d 963c aa67 3f3e c054 4f3e
00000290: 0a52 1ebe 4e8a cebd b814 d2bc c7b6 053e
000002a0: 6bbe 49bd 5a66 d73d ef60 e5bd 45f6 b03d
000002b0: fb8a 403e a700 26be c4fe bdbd c9c9 7abb
000002c0: bebe 343e 9a32 20be d932 4abd 5ed1 fd3d
000002d0: 8c7e 98bd e76f fcbd c581 f8bc 9228 5ebd
000002e0: d61f 063e 242d dc3d 47a4 403e b4f5 53bd
000002f0: 0752 e23c 0027 01be 6816 013e 213a 1a3e
00000300: 016e ff3b 971e ecbb 2e3e 2c3e 63ae 60be
00000310: c6bd 0ebe 5e7c 55be 1874 143c fb4a dfbc
00000320: 3a87 67bd 0318 f73b b4f6 31be 693e 09be
00000330: 2cf1 5d3e d6a7 aabd 3c40 7f3e 7684 553d
00000340: 97e2 0bbe 0b66 0d3d e2b8 3d3e 0ed1 5a3e
00000350: 130a 5ebd 6347 42bc 6d48 8b3d c330 54be
00000360: 80bc 0dbe 4489 173c 87de 993d bdb8 a2bd
00000370: 0fd1 583d 7654 32be 291a 6c3d f8e3 2b3e
00000380: 3a36 1abe 7c31 55be 61ab 743d c451 293e
00000390: 9f1f 45be c6a7 cd3d e41f 083e 7e7f 133e
000003a0: b173 88bc df6f 3e3e f710 35bd 7f28 773e
000003b0: 8542 c2ba df68 0fbe cf01 413e a430 4abe
000003c0: c0d2 dfbd 617a 25bd 6d0b 59be a68b fabd
000003d0: 12f1 11be f0f9 f33d 8eeb dd3d 92ba b2bd
000003e0: 6294 f3bc 8a9f d8bd 64a3 4d3e 17dd 91bd
000003f0: dcfe 263d 4bd9 2dbd 97d4 e1bd d0ee 2cbe

weight f4 [64]
0.95836145 1.1030294 0.96611685 0.963012 1.0757517 1.0406433 1.0290705 1.0828999
1.003809 0.94671494 0.9190602 0.9397635 0.91330516 1.0333555 0.97595686 1.0372822
1.0557548 1.0037363 0.9539054 0.92786217 0.93205047 0.9270342 0.91124475 1.1016469
0.9829985 1.0695194 0.9349517 1.0232114 1.0755668 0.9350575 1.0497869 0.99468213
1.0752974 0.8576331 0.97666043 1.125007 0.91981906 0.97676307 1.0742074 1.0858088
1.0890749 0.93657833 0.9243611 0.89634615 0.9775111 1.0175762 0.9898536 0.94851756
0.9533541 1.0180212 1.0867016 0.94260097 0.9831485 0.99429744 0.97062427 1.059771
0.959642 0.95785934 0.81155163 0.9583866 1.0548254 1.0129527 0.8749769 0.97065973
00000000: 2d57 753f 1130 8d3f 6f53 773f f487 763f
00000010: 3bb2 893f cd33 853f 95b8 833f 779c 8a3f
00000020: d07c 803f e95b 723f 8747 6b3f 5794 703f
00000030: 5ece 693f fe44 843f 4fd8 793f aac5 843f
00000040: f922 873f 6e7a 803f 2533 743f 6088 6d3f
00000050: dc9a 6e3f 1d52 6d3f 5647 693f c402 8d3f
00000060: caa5 7b3f 03e6 883f ff58 6f3f 97f8 823f
00000070: 2cac 893f ee5f 6f3f 6b5f 863f 7da3 7e3f
00000080: 58a3 893f d88d 5b3f 6b06 7a3f 3b00 903f
00000090: 4379 6b3f 250d 7a3f a17f 893f c8fb 8a3f
000000a0: ce66 8b3f 99c3 6f3f eea2 6c3f f176 653f
000000b0: 2b3e 7a3f f03f 823f 0c67 7d3f 0cd2 723f
000000c0: 040f 743f 854e 823f 0a19 8b3f 4c4e 713f
000000d0: 9faf 7b3f 478a 7e3f d57a 783f 93a6 873f
000000e0: 19ab 753f 4536 753f d9c1 4f3f d358 753f
000000f0: 8504 873f 6fa8 813f 7cfe 5f3f 287d 783f

bias f4 [64]
0.38817218 0.54715025 0.13123809 0.16206676 0.6270376 0.19455913 0.44464833 0.26697895
0.019712694 0.16176179 0.14852884 0.06392069 0.18662964 0.28977042 0.09298068 0.43263552
0.22916596 0.43323052 0.17741172 0.15786783 0.14395903 0.19466202 0.27475232 0.53093266
0.23692581 0.3408374 0.20905814 0.2970355 0.5499743 0.3546722 0.49006242 -0.19694123
0.053645242 0.11908835 -0.082249396 0.26866332 0.064984776 0.31912434 0.61775887 0.23473158
0.09710982 -0.07828414 0.18363065 0.26566008 0.19939585 0.1339267 0.15117039 0.41520336
-0.024228036 0.24276324 0.3502719 0.06994364 0.21187314 0.44578797 0.13932347 0.5463526
0.35250098 0.26201874 0.2408087 0.020363249 0.28133813 0.27681938 0.041828983 0.21648945
00000000: 81be c63e 0a12 0c3f 4763 063e d4f4 253e
00000010: 8985 203f 823a 473e f2a8 e33e 77b1 883e
00000020: 847c a13c e2a4 253e f217 183e dae8 823d
00000030: d71b 3f3e ca5c 943e a86c be3d 6782 dd3e
00000040: 7baa 6a3e 64d0 dd3e 6bab 353e 1ba8 213e
00000050: ff69 133e 7b55 473e 56ac 8c3e 34eb 073f
00000060: ae9c 723e 3d82 ae3e 5613 563e 0915 983e
00000070: 1ecb 0c3f 9897 b53e 76e9 fa3e f6aa 49be
00000080: 1dbb 5b3d 98e4 f33d 5f72 a8bd 3d8e 893e
00000090: bd16 853d 4464 a33e 7225 1e3f 7a5d 703e
000000a0: 83e1 c63d 6f53 a0bd ac09 3c3e 9904 883e
000000b0: 6d2e 4c3e 1524 093e 69cc 1a3e 8995 d43e
000000c0: e079 c6bc ed96 783e d756 b33e 9c3e 8f3d
000000d0: 46f5 583e 523e e43e d0aa 0e3e c4dd 0b3f
000000e0: 027b b43e 5227 863e 8e96 763e d4d0 a63c
000000f0: 8d0b 903e 45bb 8d3e de54 2b3d 69af 5d3e

mean_scale f4 [64]
0.5420943 1.5618262 1.0971739 1.1954343 1.6672661 0.7052347 1.635726 0.7161186
0.98593384 0.8771803 1.1600428 0.96168625 1.0210221 0.616701 1.1155521 1.6504061
0.703506 1.5677959 0.78090805 0.88307124 1.1088636 1.1981388 1.4183928 1.5660148
0.7623696 0.5940042 1.1734883 1.4120461 1.7002144 1.4421686 1.5756792 1.2244434
0.93741137 0.83887047 1.0962697 0.6601956 0.95336384 1.4467689 1.635481 0.690374
0.88835543 1.067538 1.1695163 0.793496 0.80818194 0.84422266 0.8169431 1.6262062
0.97379637 0.6867971 0.5798747 1.1063929 0.77595276 1.5496445 0.83921164 1.6581645
1.603017 1.3360279 1.2040305 1.0153052 0.6330622 0.5498078 0.9421863 1.0656768
00000000: b1c6 0a3f ece9 c73f 3270 8c3f fe03 993f
00000010: fa68 d53f 438a 343f 785f d13f 8c53 373f
00000020: 2966 7c3f e38e 603f 487c 943f 1231 763f
00000030: dab0 823f 1ee0 1d3f 69ca 8e3f 8240 d33f
00000040: f818 343f 89ad c83f 97e9 473f f510 623f
00000050: 3eef 8d3f 9d5c 993f e58d b53f 2c73 c83f
00000060: a72a 433f a910 183f dd34 963f edbd b43f
00000070: a0a0 d93f fb98 b83f dbaf c93f 90ba 9c3f
00000080: 31fa 6f3f 37c0 563f 9152 8c3f 9402 293f
00000090: a70f 743f b92f b93f 7157 d13f 5abc 303f
000000a0: 436b 633f 16a5 883f b6b2 953f 8e22 4b3f
000000b0: 03e5 4e3f fa1e 583f 2f23 513f 8627 d03f
000000c0: b84a 793f efd1 2f3f ab72 143f 489e 8d3f
000000d0: d7a4 463f c05a c63f 93d6 563f bc3e d43f
000000e0: a92f cd3f f602 ab3f ac1d 9a3f 85f5 813f
000000f0: 5d10 223f 34c0 0c3f 1f33 713f 1968 883f

bias f4 [64]
0.0216186 0.2558558 0.39035767 0.024488224 0.04016239 0.00069778087 -0.24364775 -0.12384162
0.3043584 -0.08260978 -0.022065183 -0.17202964 0.06890739 0.45998707 -0.08097555 0.09210133
0.04997915 -0.14531697 -0.08174497 -0.3498167 0.04991341 -0.08541348 0.19696853 0.40977523
-0.0010710746 0.009654716 -0.12941533 -0.12970749 -0.11483633 -0.27730048 0.033470593 0.37905222
0.055817176 -0.010888614 -0.028617334 0.07005695 -0.33091894 0.1463991 -0.0036751106 0.112096205
-0.012612375 0.025943225 0.102087945 -0.07192425 -0.0458086 0.25711772 0.007702401 -0.100329675
-0.17573467 0.1274137 0.3280673 -0.028176393 0.105797656 -0.0054128547 -0.09879253 -0.11703683
-0.22868037 -0.21196188 -0.1412839 0.047070168 0.4260447 0.23045196 -0.014604795 -0.053970635
00000000: 7d19 b13c 88ff 823e f6dc c73e 879b c83c
00000010: 5181 243d 48eb 363a cc7e 79be ada0 fdbd
00000020: ddd4 9b3e 512f a9bd 0bc2 b4bc 8a28 30be
00000030: 511f 8d3d 6d83 eb3e 82d6 a5bd 9f9f bc3d
00000040: f0b6 4c3d f9cd 14be e869 a7bd 2d1b b3be
00000050: 0172 4c3d 43ed aebd 1eb2 493e 0fce d13e
00000060: 4d63 8cba d02e 1e3c 7485 04be 0ad2 04be
00000070: 4f2f ebbd 54fa 8dbe 7618 093d 2213 c23e
00000080: 8da0 643d 2866 32bc e66e eabc 057a 8f3d
00000090: 356e a9be a5e9 153e 20da 70bb b292 e53d
000000a0: 23a4 4ebc e386 d43c 7c13 d13d 054d 93bd
000000b0: cca1 3bbd efa4 833e 6c64 fc3b a579 cdbd
000000c0: caf3 33be bd78 023e 70f8 a73e 2ed2 e6bc
000000d0: 71ac d83d 515e b1bb bd53 cabd 01b1 efbd
000000e0: 302b 6abe 890c 59be baac 10be a6cc 403d
000000f0: 8822 da3e 99fb 6b3e f348 6fbc 5010 5dbd
