2WL_link_pred/checkpoint/20221214_50_20/2WL_state_dict_50_20_6.pt (torch, 56754 bytes, 16 tensors)

lin1.1.modlist.0.weight f4 [48, 3]
000000 ba 6d 0d be df 1b bb 3d 24 32 52 be 43 8e 97 be
       -0.13811389 0.09136175 -0.2052694 -0.29600725
000010 3f 76 2b 3d 22 1a d1 3d d3 ae 39 3c bb 46 47 3e
       0.041860815 0.102100626 0.011333185 0.19460575
000020 7b b8 ea 3d 35 b8 d8 3d af ca cf 3e fe a3 1c 3f
       0.11460968 0.1058201 0.40584323 0.6118773
000030 e3 91 13 bf 23 60 3d bf b2 c9 78 be dd 85 8d 3e
       -0.5764448 -0.7397482 -0.2429569 0.27641192
000040 b9 4f 78 3f a7 43 69 3f a9 64 9c 3e fd 8c 19 3f
       0.9699665 0.91118854 0.30545548 0.59980756
000050 3c e1 6d 3f 6e ff 79 3e b6 5d 5b 3f dd 44 5f 3f
       0.92921805 0.24413845 0.85689867 0.8721445
000060 98 05 97 bc 6e a9 10 3e 21 3d 98 3e 9f 19 05 bd
       -0.018435284 0.14127132 0.29734138 -0.032495137
000070 dd 0f cf 3e 57 40 d2 3e 24 be b0 3e 4c 86 a3 3e
       0.4044179 0.41064712 0.34520066 0.31938398
000080 47 20 1e 3f f6 11 d1 3f f1 68 f1 3f 62 38 0d 40
       0.61768 1.6333606 1.886015 2.2065663
000090 37 a9 52 3e 0f 78 18 3f 30 3a 33 3f 20 7f e4 be
       0.20572363 0.59558195 0.7001066 -0.4462824
0000a0 9a 43 81 bd bc f9 80 be 9f 6c b4 3d 2e 30 69 3e
       -0.06311722 -0.25190532 0.0880978 0.22772285
0000b0 ed 53 93 3e 71 d1 b5 be 23 2f 36 be 67 32 6c bd
       0.28774968 -0.35511354 -0.17791419 -0.057665255
0000c0 70 4e 91 bf 91 16 f7 be aa 29 6d be 4e 4d 6c be
       -1.1352062 -0.48259404 -0.23160425 -0.23076364
0000d0 cb 49 a5 bd 58 f4 85 bc 3d c1 2c c0 c5 e5 4b c0
       -0.080707155 -0.016351864 -2.6992943 -3.185899
0000e0 74 fd fe 3d 7f 6b 76 3e b2 f4 a7 3e 10 4e e7 3e
       0.12450686 0.24064444 0.32803875 0.45176744
0000f0 e5 6c 5f c0 64 9b 87 3d 2b 04 32 c0 e2 08 17 be
       -3.4910214 0.06621435 -2.7815044 -0.14749482
000100 45 25 30 bd 14 99 2a be 26 37 61 bf f3 fa 9f be
       -0.043004293 -0.16659957 -0.87974775 -0.31246147
000110 b1 76 03 bf 02 d8 1e bf 85 4e c9 be 8e d0 db be
       -0.51352984 -0.6204835 -0.39317718 -0.42932552
000120 ad 81 29 40 1e 35 32 40 4a 39 3a 40 e9 1f df 3e
       2.6485398 2.784492 2.9097466 0.43579033
000130 39 8a f6 3e aa cc 06 3f 12 7b 89 bd 63 5f db 3d
       0.4815233 0.5265604 -0.06712927 0.10711553
000140 ab da d9 3e 91 b5 18 3d 7a 75 c9 3e f8 86 d0 bd
       0.42549643 0.03728253 0.3934744 -0.10181993
000150 8b 9a 94 be 84 72 9f be 53 d4 99 3e 7c f8 dc 3e
       -0.29024157 -0.31142056 0.30044803 0.4315833
000160 34 30 4c 3f 9b e8 11 3f e3 d4 8a be 98 30 86 be
       0.7976105 0.5699555 -0.27115545 -0.2620895
000170 db e7 44 be 71 52 2d 3e 89 18 b7 3e 45 57 ad 3e
       -0.19229071 0.1692598 0.35760906 0.33855644
000180 f8 b2 62 bf 16 30 2f bf 35 59 ca be 55 78 a2 bd
       -0.88554335 -0.6843275 -0.39521185 -0.07933108
000190 4a f9 93 3e 87 7e 4e 3e 09 16 a0 3d 5f 81 02 3f
       0.2890113 0.20165454 0.07816703 0.50978655
0001a0 2f 9c c7 3e 1c 6b c0 40 07 fb d7 3d b2 07 9d 3d
       0.38986346 6.013075 0.105459265 0.076674834
0001b0 c6 26 1b 40 02 42 1e 40 7f 54 24 40 ff 1e cb bd
       2.4242415 2.4727788 2.5676572 -0.099180214
0001c0 9f de 0d be 96 da f8 3d c2 2d 5d bf 95 5a d1 be
       -0.13854454 0.12151067 -0.86397946 -0.4088942
0001d0 23 31 aa be a5 32 90 3e 4c 77 1e 3f 45 44 0c 3f
       -0.33240613 0.2816364 0.6190078 0.5479167
0001e0 93 d2 98 be 60 14 35 be 22 28 cb bd b6 f0 f5 be
       -0.29848155 -0.17683554 -0.09919764 -0.4803521
0001f0 3c b4 c9 bd cb 0b 13 3c 42 9f 89 c0 ac 3c b2 3d
       -0.0984883 0.00897498 -4.3006907 0.087029785
000200 80 a3 41 c0 27 87 6e 3c fe 9f 97 3e 57 1b c6 3e
       -3.0256042 0.01455859 0.29614252 0.38692734
000210 10 72 2d be 83 16 39 bb 12 62 38 bd 00 45 cc bc
       -0.16938043 -0.0028242178 -0.045015402 -0.024935246
000220 81 97 c4 c0 e4 29 bf c0 09 c8 09 bf 55 08 9d bd
       -6.143494 -5.9738636 -0.53820854 -0.07667605
000230 2b 02 24 3e 0d db 03 be f6 0a b7 3e 02 91 c7 3e
       0.16016452 -0.1287653 0.3575055 0.3897782

lin1.1.modlist.0.bias f4 [48]
000000 eb 92 a1 40 e6 85 c7 3e ca 91 97 be b7 47 4b be
       5.0491843 0.38969344 -0.29603416 -0.19851576
000010 bc de 0f 3e e0 58 dd b9 b9 99 ec 3c 9d 79 7f bd
       0.1404981 -0.00042218622 0.028881894 -0.06237184
000020 16 e2 87 c0 75 16 96 be 77 6a dc bc 64 7b d7 3c
       -4.2463484 -0.29314008 -0.026906235 0.026303954
000030 d0 60 40 3c c6 b0 f6 3d dd 2d eb bd 4a a7 23 3f
       0.011741832 0.120454356 -0.11483357 0.6392714
000040 d7 37 23 3e 27 b2 2a 3f 95 10 26 3e b8 db c7 3e
       0.1593927 0.6667809 0.16217263 0.3903482
000050 4a 32 6d 3d fb 88 e5 3e 1f c9 2d 3d d5 63 11 3e
       0.057909288 0.4483107 0.042428132 0.14198239
000060 fe fe 80 3b fe dc 0c bb be 55 66 c0 0f 1e 95 3e
       0.0039366474 -0.0021494026 -3.5989833 0.29124495
000070 ab 83 dd 3e ae 67 e7 bd cb d2 8c 3e a2 56 84 be
       0.43264517 -0.11299072 0.27504572 -0.25847346
000080 d6 f2 1b bd 73 d3 89 be 90 e1 f4 bd 72 4a 73 3c
       -0.038073383 -0.26919135 -0.11957085 0.014849292
000090 25 66 6c bc 61 c0 01 3f 99 e9 1e 3e f5 a3 49 bb
       -0.01442865 0.5068417 0.15518798 -0.0030767892
0000a0 28 33 f3 3e 7b b6 00 3f 2b a0 24 3e f3 7a 84 be
       0.47499967 0.50278443 0.16076724 -0.25875053
0000b0 d1 db 28 3f 9d 2d 97 3c 75 6f ad 3e 37 54 8b be
       0.65960413 0.018454367 0.33874097 -0.27212688

embedding.0.weight f4 [5, 48]
000000 dd 2d 09 3e 81 4e e9 be 36 a2 0a 3e e4 47 da bc
       0.13396402 -0.45567706 0.13538441 -0.026645608
000010 bd ce f6 bd 39 dc 72 3f 28 8d bf 3e 45 6a 09 3f
       -0.12051151 0.94867283 0.3741238 0.5367778
000020 ac 18 f2 3e 26 fd e8 3d b6 6c 54 3f e4 7e 6f 3f
       0.47284448 0.11376409 0.8297838 0.93552995
000030 95 0a db 3f ce ce 28 3f 9e 98 22 3f 96 f0 75 3f
       1.7112604 0.6594056 0.63514125 0.9607023
000040 42 99 7c bf b7 8b 03 bf e4 0f b1 3e 6f ca 84 be
       -0.9867135 -0.5138506 0.34582436 -0.25935695
000050 99 df 56 3f f1 6c 24 bf a3 ab f0 3d b3 36 0d be
       0.8393493 -0.6422873 0.11751487 -0.13790397
000060 d0 18 f4 3e 0b 8e 9c 3b e0 3d 3f bf 3d 37 6c 3e
       0.4767518 0.004777675 -0.7470379 0.23067947
000070 0b c9 c0 bf ac d1 ac bd b8 ee a0 bf 55 e2 ca 3f
       -1.5061353 -0.08438429 -1.2572851 1.5850321
000080 e0 b5 39 bf 46 18 d4 be 50 78 0e bf 96 91 c4 3f
       -0.72543144 -0.4142477 -0.5565233 1.5356929
000090 dc 4b 3c 3e 75 7f c0 3f 97 c6 54 3f 2c 5f 18 bf
       0.18388313 1.5038897 0.83115524 -0.5952022
0000a0 fa 45 bb bc 55 2d 54 3f f0 7f 9c bf 0b 1e f3 3c
       -0.022860516 0.8288167 -1.2226543 0.029677412
0000b0 0a c1 bd 3d 17 9f 61 bf ae 2a 9f be 24 37 01 40
       0.09265335 -0.88133377 -0.3108725 2.0189905
0000c0 26 86 0e c0 a9 63 16 3f 84 f8 d6 bd 29 e4 2f 3f
       -2.2269378 0.5874582 -0.10496619 0.6870752
0000d0 e1 6b 33 bf 6b 05 48 bf df cc 99 bf 1c 04 de 3e
       -0.70086485 -0.7813327 -1.2015647 0.4336251
0000e0 1f d6 86 be 6f c5 79 3f 24 56 d6 3f aa 58 e5 3e
       -0.26335236 0.97566885 1.6745038 0.44794208
0000f0 09 4e 14 c0 e9 c8 d2 3e b9 e1 b4 bd 51 d9 a8 3f
       -2.317263 0.41168907 -0.08832116 1.319132
000100 f2 34 e6 3f c1 88 60 bf bc f3 ab 3e e5 99 99 bf
       1.7984908 -0.8770867 0.33584392 -1.200009
000110 fb 25 fa 3e 3a ac ec bc bf 65 55 be 64 46 a0 3e
       0.48857102 -0.028890718 -0.20839594 0.31303704
000120 e7 50 84 bf 87 dc bd 3f 11 af 7b bf 87 aa 90 3f
       -1.033719 1.4832925 -0.98314005 1.1302041
000130 95 76 90 bf 09 b3 c8 bf bb 69 3a 3f f7 5f f6 be
       -1.1286188 -1.5679637 0.7281758 -0.4812009
000140 08 ea d8 bf 22 6a 64 3f 1b b3 0f 40 73 44 fb 3e
       -1.6946421 0.89224446 2.2453067 0.4907566
000150 15 17 8f bf 46 dd 31 3f 1d 2e 9b bf 0f b4 17 c0
       -1.1178919 0.6947826 -1.2123448 -2.370365
000160 ca 34 47 3f 9c d4 b8 be 5e 1b 13 c0 01 8b 86 bf
       0.77814925 -0.36099708 -2.2985454 -1.0511171
000170 5a 11 25 be ab dc 31 3e e0 e0 65 3f b9 e0 2b 3d
       -0.161199 0.17369334 0.89796257 0.04196236
000180 d6 b5 1f be 3d 18 9b 3c 2e 1a b6 3e fb ec ff 3e
       -0.15596709 0.018932456 0.3556685 0.4998549
000190 81 28 54 3f 98 9d d9 be c5 11 62 3f bf aa 9d bd
       0.82874304 -0.42503047 0.88308364 -0.07698583
0001a0 ed 7b 2d bf 00 d9 01 3e ba 7d d5 3f f9 99 81 3f
       -0.6776722 0.12680435 1.6678994 1.0125114
0001b0 5d 30 2d bf 20 63 d5 bf 76 a6 85 bf 3d e7 5c bf
       -0.6765192 -1.6670876 -1.0441425 -0.8629034
0001c0 e2 2e a7 3d 15 ef 28 be bd 81 90 bf 4d ce 63 bf
       0.08163239 -0.16497453 -1.1289593 -0.88986665
0001d0 55 9f 93 3f c3 2b c3 3f 3a bf 92 3f 1f 5f d0 bf
       1.1532999 1.524773 1.1464608 -1.6279029
0001e0 fd f5 a3 3f 7f 6f 1d bf 72 f2 05 bb 68 f9 ad be
       1.2809445 -0.61498255 -0.0020438698 -0.33979344
0001f0 cd 66 06 3f 07 91 43 3f 1d 22 b4 3f f1 90 87 3e
       0.5250061 0.7639317 1.407291 0.2647777
000200 4d 26 49 3f ad 34 82 3f 2d 63 96 bf 31 78 fc 3e
       0.7857407 1.0172325 -1.1749016 0.4931045
000210 ab 33 17 3f 6c 97 79 3f 7d 73 a0 3f 3e e0 6a 3f
       0.59063214 0.97496676 1.2535244 0.91748416
000220 95 9b 9a bc bb 4e 2e c0 aa 31 e6 3f bc 90 c4 3e
       -0.018873015 -2.7235553 1.7983906 0.38391674
000230 3c 70 df 3e 76 8c a1 bf d4 78 91 bd 78 aa cc 3e
       0.43640316 -1.262099 -0.07103124 0.39973807
000240 77 f8 e0 be 73 60 ad be 7f ed 28 3f 72 bc d2 3e
       -0.43939564 -0.33862647 0.6598739 0.41159397
000250 00 41 60 3f 09 04 67 be 78 e2 a3 3f 2f d6 14 c0
       0.8759918 -0.22560133 1.2803488 -2.3255727
000260 5a ad 23 bf 84 15 58 3f ca ce 82 bd 61 01 0a bf
       -0.6393639 0.8440783 -0.06387098 -0.53908354
000270 20 3d 4b 3e 9a ef f3 be f1 57 91 be 43 08 42 3f
       0.19847536 -0.4764374 -0.28387406 0.75793856
000280 75 cf 3d 3f ec 85 6f 3e 1b 64 da 3f 59 09 a0 bf
       0.7414468 0.23390931 1.70618 -1.2502853
000290 ec ae 87 3c 18 2f 15 3f 79 5b c1 3f 55 e5 57 be
       0.016562901 0.58274984 1.510604 -0.21083577
0002a0 98 eb 5e bf ef 88 b4 3e 17 48 9c 3f 71 8c 35 3e
       -0.8707824 0.35260722 1.22095 0.17729355
0002b0 33 11 30 40 d5 2d 6f 3f 1a 07 a3 3f e9 1e 15 40
       2.7510498 0.9342931 1.2736542 2.3300116
0002c0 78 25 06 c0 8c b1 fd bf f4 f2 b3 3f a5 de 33 3f
       -2.096037 -1.9819808 1.4058518 0.70261604
0002d0 6f 6a f6 3e 93 2d 1f 3e fd 95 6b bf 7c c8 2a 3f
       0.48128077 0.15544729 -0.9202574 0.66712165
0002e0 06 96 6b bf 64 e0 12 40 d5 6c 13 3f 8d 38 e7 3f
       -0.9202579 2.2949457 0.5758794 1.8064133
0002f0 55 33 35 3f 5a 67 c6 3e 4b 96 30 3e 22 83 ba 3e
       0.7078145 0.38750726 0.17244832 0.3642817
000300 85 dc a4 3f 4f ac d3 bf 7f 46 2b 3c 39 a7 84 be
       1.2879797 -1.653696 0.010453819 -0.2590883
000310 84 7f ce bd da 82 8d 3e ca f7 5f bb aa ef 1e be
       -0.100829154 0.27638894 -0.0034174793 -0.15521112
000320 8d a9 cf 3f 3c 26 3f bf 26 0c ed bd d8 f6 4d 3e
       1.6223618 -0.74667716 -0.11574583 0.20113695
000330 16 79 34 bf 69 57 cd 3f 1d 70 63 bf 52 75 13 3f
       -0.7049726 1.60423 -0.88842946 0.5760089
000340 1e 9d 59 bf e7 ae 8c bf 1c c9 35 3d be 4d e0 3f
       -0.85005367 -1.0990876 0.044381246 1.7523725
000350 26 0a d9 bf 3d f3 b3 bf 5d 76 c9 3f 61 c9 dd be
       -1.6956222 -1.4058605 1.5739247 -0.43317702
000360 52 e2 2d 3f 70 54 1f 40 2c 16 6c bf f3 fc 17 3f
       0.6792346 2.4895287 -0.9222133 0.59370345
000370 98 f1 e2 be b8 50 81 3f ca dd 45 3c e6 64 29 3e
       -0.44324946 1.0102758 0.012076804 0.16542396
000380 c7 cd 1a 3f 9c 75 2f bf 08 83 57 3f 06 81 8d bf
       0.6047024 -0.6853883 0.8418431 -1.1055
000390 f8 d9 b7 3f 60 35 85 3f 60 da 90 3d 80 b0 81 3d
       1.4363394 1.0406914 0.07072902 0.06332493
0003a0 d5 88 e9 3e 94 66 e7 be b3 72 58 3f ed de 35 bf
       0.45612207 -0.45195448 0.8455002 -0.7104328
0003b0 5e 5e f7 be 14 43 70 be 8f 79 68 3e ac 9c ce 3f
       -0.48314184 -0.23463088 0.22702621 1.6141562

nconvs.0.modlist.0.lin_l.weight f4 [48, 48]
000000 7d 8b 25 bc 7d b2 57 3f c4 63 6c bf ba 7d 36 c0
       -0.010104057 0.84256727 -0.9233973 -2.8514237
000010 1e 13 80 40 49 54 85 c0 4d 8c 79 c0 07 aa 9f c0
       4.0023336 -4.1665387 -3.8991883 -4.9895053
000020 c4 34 2d 3e 49 9b fa bf af 04 99 c0 3c 66 93 c0
       0.1691466 -1.9578639 -4.7818217 -4.60623
000030 da 43 6e c0 70 94 07 3e 3f 20 cc bf 0b ec 0c 3f
       -3.7228913 0.13240218 -1.5947341 0.55047673
000040 60 e7 a1 40 9f 3d 22 3f fd 2f 54 40 8e 92 06 3f
       5.059494 0.63375276 3.315429 0.52567375
000050 2c 73 4e 40 cc fb 60 3f 90 57 9c 40 bb fd 89 40
       3.2257795 0.8788421 4.885689 4.312223
000060 b7 5e 5f c0 a1 a0 89 c0 99 af 2b bf dd da b3 3e
       -3.490156 -4.300858 -0.67064816 0.35127917
000070 f3 32 52 3f c2 ff 78 c0 41 22 92 3f b3 1f cb bf
       0.8210899 -3.8906102 1.1416703 -1.5869049
000080 47 ba 61 40 bf 51 85 bf 61 e4 8e bf 05 49 01 c0
       3.5269945 -1.0415572 -1.1163446 -2.0200818
000090 7a af 79 c0 0b 5c 58 3f 1f dc 4c 40 e4 de 92 c0
       -3.9013352 0.84515446 3.2009351 -4.5897083
0000a0 8b 6b 54 3f 24 8b 6e 3f d6 2c 34 40 57 15 ea bf
       0.829766 0.9318106 2.8152366 -1.8287762
0000b0 21 48 26 3f c6 21 0a 40 f0 e4 e1 3f 78 47 84 bf
       0.6495381 2.1583114 1.7647991 -1.033431
0000c0 e1 b7 24 c0 15 89 9a bf 3e 13 69 3f 82 3b 07 bf
       -2.573723 -1.2073084 0.91044986 -0.52825177
0000d0 60 f7 58 bf 41 80 c2 be 34 b9 c0 bf c7 d6 95 3d
       -0.84752464 -0.37988475 -1.505652 0.07316356
0000e0 39 27 2d 40 e0 4b f6 be 57 cd f5 3e d9 2a 1d bf
       2.705519 -0.48104763 0.48008224 -0.61393505
0000f0 13 85 c0 bf d4 f7 e6 3e 6b da 34 bf dc 24 98 be
       -1.5040611 0.45110953 -0.7064578 -0.2971562
000100 30 e7 d5 3f 11 7c 8a bf 46 d2 2e 3f b3 e6 af bf
       1.6711178 -1.0819112 0.682896 -1.3742279
000110 56 80 f8 be 23 8c ac bf 57 a1 41 40 1d 1d 10 3f
       -0.48535413 -1.3480266 3.0254724 0.56294423
000120 32 d4 7b 3d 8c 0a 30 bf 72 0f e5 3e f2 62 01 c0
       0.061481662 -0.68766093 0.44738346 -2.0216641
000130 de 8a 3e bf 4f a7 14 bf 15 dd 01 3e 97 80 2a 40
       -0.74430645 -0.5806779 0.12681992 2.6640985
000140 7f 81 b8 be 14 d2 ab 3e 92 9d b0 be a3 05 ac bf
       -0.36036298 0.33558714 -0.34495217 -1.343922
000150 f0 90 ce be 3b ff 3e bf 9e 9c 6f 40 47 bf 7a 3f
       -0.40344954 -0.746082 3.7439342 0.97948116
000160 7c 10 15 c0 de 5a f8 bf ae 76 5a 40 98 a1 d4 3d
       -2.3291311 -1.940273 3.4134936 0.10382384
000170 79 9f 95 bf 8f 66 d9 3f 5a f4 4b 40 12 34 ac 3f
       -1.1689292 1.6984423 3.186789 1.3453391
000180 14 55 e6 c0 d0 98 a3 3e 46 86 37 be 5f d8 1a c0
       -7.1978855 0.31952524 -0.17922315 -2.4194562
000190 d3 0c 96 40 b9 cb 4b c0 a1 70 3e c0 30 51 26 c0
       4.6890655 -3.1843092 -2.9756243 -2.5987053
0001a0 27 03 10 41 4c b8 70 bf b8 89 d4 bf 66 9a 86 c0
       9.00077 -0.94031215 -1.6604528 -4.2063475
0001b0 f2 ef 20 c0 c2 9f c7 be c2 0c a7 bf 0c e5 c8 be
       -2.514645 -0.38989073 -1.3050768 -0.3923725
0001c0 3c 55 88 40 03 3d 04 bf 69 de 23 40 a8 3c f9 3d
       4.2604046 -0.51655596 2.5604498 0.121697724
0001d0 7d 7a 90 40 4e f0 3e 3e 72 0c 2a 40 75 9c 37 40
       4.514952 0.18646356 2.6570096 2.8689244
0001e0 db 48 40 c0 dd 3f 00 c0 e1 44 27 bf 2a 45 24 be
       -3.0044467 -2.003898 -0.65339476 -0.16042009
0001f0 44 58 6c 3f 75 b7 1a c0 85 2b a1 3f 3b b3 28 bf
       0.9232218 -2.4174473 1.2591406 -0.65898484
000200 20 c6 65 40 3f 19 ec 3e 14 e3 33 bf 84 0a ea bf
       3.5902176 0.4611301 -0.7026837 -1.8284459
000210 d8 1a cf bf de cb 0b 3e e0 06 40 40 67 4f 24 c0
       -1.6180067 0.13651988 3.0004196 -2.5673463
000220 35 c3 db 3e 0f 40 81 be 18 3b 08 40 af 71 af bf
       0.4292237 -0.25244185 2.1286068 -1.3706568
000230 ae 13 24 be 88 f2 d7 3f 60 dc c5 3f c7 f7 02 bf
       -0.16023132 1.687089 1.5457878 -0.5115933
000240 6b 9a 9a 3e 3e 12 84 3f 00 da 8e be 82 12 87 bf
       0.30195937 1.0318067 -0.27900696 -1.0552523
000250 5c cd a9 3d 24 b0 03 bf 08 6d 1f bf 7a 69 06 bf
       0.08291122 -0.51440644 -0.62275743 -0.52504694
000260 dd f2 97 3f a4 e7 b6 bf f8 82 67 be ed 57 a6 3e
       1.1870991 -1.4289441 -0.22608554 0.32488957
000270 bc 70 f2 be ef 41 98 3e c4 fe 8b bf fd bb 36 3e
       -0.47351635 0.29737803 -1.0937123 0.1784515
000280 78 9a b6 3e 54 d2 24 3f b0 34 26 3e 1f 12 46 bf
       0.35664725 0.64383435 0.16231036 -0.773714
000290 76 56 a5 3d f3 fa 5d 3f fb e8 f9 3d 49 c4 08 bd
       0.08073132 0.86711043 0.122026406 -0.033390317
0002a0 46 1f a5 3e fa 58 85 bf bb e3 ef 3f 32 c8 1e 3e
       0.32250422 -1.0417778 1.8741373 0.15506056
0002b0 c3 69 f0 be 47 64 a8 bf 0d 91 39 3f ab e2 70 bf
       -0.4695569 -1.3155602 0.72486955 -0.9409587
0002c0 31 4a 5f 3f 98 9d e0 be 47 86 16 bf 5a 08 a5 40
       0.8722258 -0.43870234 -0.5879864 5.1572695
0002d0 96 59 16 3f 4a 69 83 3f d2 0d b9 3e c7 51 7d be
       0.5873045 1.0266507 0.36143357 -0.24738227
0002e0 7c b0 71 3e 33 67 05 3f 22 6a db 3d 6d d9 a0 bf
       0.2360248 0.52110595 0.107136026 -1.2566353
0002f0 60 1a 33 3f c9 3c e8 be b4 dd 8c 3f 07 3f 8e bf
       0.6996212 -0.45358875 1.1005158 -1.1112984
000300 c4 f9 4e bc aa 59 29 3e ea 28 06 bf fb 04 c9 bd
       -0.012632791 0.1653811 -0.5240618 -0.09815403
000310 6c c4 19 bf b0 23 20 3f 44 9e c1 3e 1a 86 42 3e
       -0.6006534 0.62554455 0.3781606 0.18996468
000320 a1 f2 f7 bd 3e 77 0b bf 3b 0b 92 3e cf 39 d1 bc
       -0.12106825 -0.54478824 0.28524193 -0.02554026
000330 9f 9b dc 3e 98 f1 40 bf 98 ee 31 3e 0a 2a a5 3e
       0.4308748 -0.7536864 0.17376173 0.32258636
000340 0b ee 08 bf ed 67 8c 3d 7c 54 aa be bf c8 86 3f
       -0.53488225 0.0685576 -0.3326758 1.0530013
000350 76 1e 66 bd de cd 13 3e 6e b3 02 bf e9 84 ed be
       -0.056181394 0.14434001 -0.5105504 -0.46390465
000360 f3 bc 40 3e ad c1 a6 3e 8b b9 04 be 05 69 32 3f
       0.18822078 0.32569638 -0.12961404 0.696915
000370 52 56 79 3d a1 d8 6a 3f 4b 35 c5 3e b4 14 ab bf
       0.060873337 0.917368 0.38517222 -1.3365693
000380 3c 6d 5b bf 66 fd 93 be 0e 3b 26 3e 05 0c 05 3e
       -0.85713553 -0.28904265 0.16233465 0.12992866
000390 ad db 63 3d f1 58 07 3f 2e 83 2a bf 9d 90 e9 3e
       0.05562942 0.5287009 -0.66606414 0.45618144
0003a0 b4 e1 c3 bd d6 66 ee 3e b0 02 c8 be d2 c2 09 bf
       -0.09564534 0.46562833 -0.3906455 -0.538129
0003b0 19 e8 05 3f 3d 9c 5c 3d e7 79 09 bf 15 b1 99 bf
       0.5230728 0.053859938 -0.53701633 -1.2007166
0003c0 55 81 80 bf 8d ac 12 c0 c5 94 06 3f 66 a1 a0 be
       -1.0039469 -2.2917817 0.52570754 -0.31373137
0003d0 0c 5d 93 bd 4f d0 cd 3e bb 3d e8 be 6c 48 e5 3d
       -0.07195482 0.4019799 -0.45359597 0.11195454
0003e0 2a 99 95 be 52 32 8c 3e 9c 10 ce 3e b6 c4 89 bf
       -0.29218417 0.2738214 0.40247047 -1.0763156
0003f0 ea dd c7 be 40 9f 97 be ba 36 d7 3e f8 9b 75 bf
       -0.39036494 -0.29613686 0.4203394 -0.95941114

nconvs.0.modlist.0.lin_l.bias f4 [48]
000000 25 25 bc 3d 54 cc 6b be 6f 36 66 40 1d a6 65 c0
       0.09186772 -0.23027164 3.5970724 -3.5882638
000010 53 5d a4 40 40 46 46 40 35 18 65 40 ad c0 8f bf
       5.136392 3.0980377 3.5796025 -1.1230675
000020 09 2e 0e 3f 99 ad 86 40 50 8f 37 40 5a 1f ec be
       0.55538994 4.208691 2.868122 -0.4611767
000030 5e 44 99 40 46 74 3a 40 e3 27 13 40 93 fa 8b c0
       4.7895956 2.9133468 2.2993095 -4.3743377
000040 68 07 4a 40 10 c4 97 40 45 d8 46 40 99 6b 0b 40
       3.156702 4.7426834 3.10695 2.1784422
000050 02 ed a0 bf c8 c7 46 3e 4f f6 f4 3e 0b 07 d3 3f
       -1.2572329 0.19412148 0.4784417 1.6486524
000060 23 43 ad 3f 3c a7 9d 40 4f 93 4f 40 8a 26 d4 3f
       1.3536114 4.9266644 3.243366 1.6574261
000070 64 46 77 c0 dc 56 89 c0 19 5a 0a 40 2b e7 8d 40
       -3.8636713 -4.291853 2.1617491 4.4344687
000080 8e 98 1b bf 8e e6 fd be 02 69 5b bc 5d ff 2d 40
       -0.60779655 -0.49589962 -0.013391735 2.7187111
000090 c2 de 9d 40 77 7e 61 3f ae 91 c9 3f 8f e3 8c 40
       4.933442 0.88083595 1.5747583 4.402778
0000a0 a2 d3 07 40 c0 bb 79 bf 01 37 55 40 5a cd 69 40
       2.122292 -0.9755211 3.3314822 3.6531587
0000b0 48 0c da 3f fa 54 ea 3f ee 7d be 3f ea 1a d5 3f
       1.7034998 1.8307183 1.4882181 1.6648839

nconvs.0.modlist.0.lin_r.weight f4 [48, 48]
000000 f9 ae a3 3d c7 2b 46 bd 26 a5 ff be b6 0e 97 be
       0.07992358 -0.048381593 -0.49930686 -0.2950341
000010 91 8c 2e be 98 13 b6 be 96 92 02 3f bf 22 05 bd
       -0.1704581 -0.35561824 0.5100492 -0.03250384
000020 ba 8e 43 3e 18 c5 00 be 71 97 b6 be 50 ea ae 3d
       0.19097415 -0.12575185 -0.35662416 0.08540785
000030 f1 7d 98 3d b1 9a ba be a7 83 78 3d 7b 29 11 3e
       0.074458964 -0.36446145 0.06067243 0.1417598
000040 85 19 8f be d0 e8 94 be 3f 18 f2 3b de 44 79 3e
       -0.27949157 -0.29083872 0.0073881443 0.24342677
000050 b3 14 a2 bd e5 d7 8b 3e a0 b8 cf be 23 87 48 3e
       -0.07914104 0.27313152 -0.40570545 0.195828
000060 55 08 8c bd b1 91 53 3b d5 d8 17 be 37 b6 51 bd
       -0.06837527 0.0032282884 -0.14828809 -0.051199164
000070 1b 78 0c be ab 77 b3 bd ac 78 22 3e c3 28 2a 3f
       -0.13717692 -0.08763059 0.15866345 0.6646845
000080 16 27 c0 be b0 9b 0c bf 7d 1f 17 be 0d 9c 2b bd
       -0.3752982 -0.5492506 -0.14758106 -0.04189687
000090 f6 02 27 bb 14 f8 b3 3e 6a c4 cd 3c a6 49 92 be
       -0.0025483943 0.35150206 0.025118072 -0.28571814
0000a0 59 39 9b 3e e8 74 31 bd cc f8 d8 3b 89 8b d1 bd
       0.3031719 -0.04332438 0.006621456 -0.10231692
0000b0 7c 38 99 3e 90 8b b6 3c a7 29 1f bd 51 20 00 be
       0.29925907 0.022283345 -0.038858082 -0.12512328
0000c0 bc 01 6b 3d c7 10 1d be 80 96 57 3c ef 69 a1 bf
       0.0573747 -0.15338431 0.013158441 -1.2610453
0000d0 db a0 15 3f b5 5e 08 bf 6e 80 33 3f 23 9f 9e bf
       0.5844857 -0.5326951 0.70117843 -1.2392315
0000e0 92 14 74 3f 15 14 c3 3d ba 9d 19 bf a8 e7 40 3e
       0.9534389 0.09525315 -0.60006297 0.1883837
0000f0 22 dc 79 3e 35 8c 67 3f 41 d5 96 3f bf ec be be
       0.2440038 0.90448314 1.178383 -0.37289998
000100 6b 80 d4 3f 2f 07 e8 be a0 07 19 be fd cf d2 bf
       1.660169 -0.4531798 -0.14944315 -1.6469723
000110 fe b6 13 3e 17 15 a4 3f 37 58 0b 3e b5 71 ac 3f
       0.14425275 1.2818936 0.1360787 1.3472201
000120 bb 17 9c be 59 be 8d be 92 61 ab be fa 18 cb be
       -0.30486855 -0.27684286 -0.33472878 -0.39667493
000130 af 33 6f 3f f5 e7 28 be 74 7e 7b 3f 91 29 69 bf
       0.9343824 -0.16494735 0.9823983 -0.9107905
000140 1c 24 22 bf 80 80 a9 3e 30 45 e4 be 8e 3e ec bc
       -0.6333635 0.3310585 -0.44584036 -0.028838422
000150 ca f8 cf be cd 82 81 bf bd 1b 9a 3e 71 74 d3 bf
       -0.40619498 -1.0118042 0.30099288 -1.651991
000160 18 ef f5 3e 72 0c a2 3e 62 85 82 be 66 9a c3 3b
       0.48033977 0.3165012 -0.25492388 0.0059693335
000170 ca 6a b9 bf 04 65 85 bf 7a e3 c7 3f 35 29 3f bf
       -1.4485714 -1.0421453 1.5616295 -0.7467225
000180 65 16 87 bd f5 58 ca be 55 dd ef 3e 2b ed 27 be
       -0.06596068 -0.39520994 0.4684855 -0.16399066
000190 a8 9c 06 be 35 88 09 3f c9 f0 82 3e 9d 4c c9 be
       -0.13145697 0.5372346 0.2557433 -0.39316264
0001a0 68 d0 f5 bd c0 f8 ae 3e 33 ff b7 3e f3 d1 2d 3c
       -0.12002641 0.34174156 0.3593689 0.010609138
0001b0 5a 14 ee be de a7 8f 3e 69 b3 32 bf b4 19 f6 3e
       -0.46499902 0.2805776 -0.6980501 0.48066485
0001c0 58 d3 e8 be 03 57 22 3d c9 33 57 3d cd dd ba 3f
       -0.45473742 0.039633762 0.05253962 1.4598938
0001d0 db d2 d4 be d0 64 a0 3e f0 07 a5 be f4 ab 74 3e
       -0.4156712 0.31326914 -0.32232618 0.2389372
0001e0 82 9a 00 bf 64 89 8d 3d 9c bb 8a be 82 4c a4 3e
       -0.5023576 0.06910971 -0.2709626 0.3208962
0001f0 11 b4 75 be 03 bc 0d bf dc ca be be 62 c3 f5 3e
       -0.23994471 -0.5536501 -0.37264144 0.48000628
000200 50 51 8e be 05 0d bd be 6f 7b b9 3e 2f 40 2e 3b
       -0.27796412 -0.36923996 0.36226985 0.002658855
000210 69 61 85 be 2f 80 c2 3e ab a1 35 be 1b 2e b9 be
       -0.2605088 0.3798842 -0.17737453 -0.36167988
000220 d0 f6 57 be dc 2b 01 3f f7 4b c6 3d 74 41 c9 3e
       -0.21090245 0.5045755 0.09682458 0.3930775
000230 df 8d b8 3e 1a 98 e5 3d d0 8a d5 3c d1 a1 f1 3e
       0.3604574 0.11210652 0.026067168 0.4719377
000240 2d 1c 5c 3b bb e6 f8 bc 9b 60 67 be 07 50 d3 be
       0.003358613 -0.030383458 -0.22595446 -0.41271994
000250 5e 44 0b bd 3a f8 0b bc b4 bc 83 3e e2 5a 12 3e
       -0.034000747 -0.008543069 0.25729907 0.14292482
000260 1c f2 07 3d 7e 18 ab be 3e fb ff 3d a4 1b e2 bd
       0.033189878 -0.33417124 0.124990925 -0.11040428
000270 cc ca 3a be 4d 20 8f be 1e 0a f0 bd 41 59 97 be
       -0.18241423 -0.2795433 -0.1172068 -0.29560283
000280 19 ef 69 3e aa 7c b9 bd e8 00 8b 3e f1 e1 d3 be
       0.22845115 -0.09056981 0.2714913 -0.41383317
000290 04 05 03 3e e2 dd 13 bd d8 60 bd 3e 7f a4 cc 3d
       0.12794882 -0.036100276 0.36987948 0.09992313
0002a0 db 81 44 be c2 61 e0 3d d3 62 04 bb 47 0a 8a be
       -0.19190161 0.10956146 -0.0020200505 -0.26960966
0002b0 8a e0 1a be 56 48 18 be f5 4d 28 be 37 2b 17 3f
       -0.15124717 -0.14871344 -0.16435988 0.59050316
0002c0 09 d0 a5 3d 0a 98 52 3e 8b 8b 22 bf a3 39 74 bc
       0.0809632 0.20565811 -0.63494176 -0.01490632
0002d0 42 bc 0c 3c db 73 97 be 28 3b 20 3d aa 40 c4 bd
       0.008589806 -0.29580578 0.039118916 -0.09582646
0002e0 89 0f 13 be 3a cb 01 bd 78 02 b7 3d 97 22 8a 3d
       -0.14361395 -0.031687953 0.08936018 0.06744879
0002f0 67 47 83 3c 34 1e 32 3d 0b 93 64 be f5 19 b3 3d
       0.016025258 0.043485835 -0.22321717 0.08745185
000300 42 d1 79 3e 00 ab 31 3f 33 6d 2c bf 31 a2 9e bf
       0.24396232 0.6940155 -0.67354125 -1.2393247
000310 aa 1a c3 3f c5 e5 9c bf 84 83 ad bf a5 a8 10 c0
       1.5242512 -1.225762 -1.355576 -2.2602932
000320 04 56 75 40 fd fb 29 bf aa 4b c2 bf da 6f fb bf
       3.833375 -0.6640013 -1.5179341 -1.9643509
000330 7e a7 a6 bf 28 3d 5f bf a0 f0 36 bf d6 17 8c 3f
       -1.3019865 -0.8720269 -0.71460915 1.0944774
000340 d3 4c 01 40 24 56 12 3e 2a fd f6 3f 86 c3 49 3f
       2.020314 0.14290673 1.929601 0.7881397
000350 ed fd b8 3f c0 4b 97 3e d4 c4 ec 3f 0a 68 18 40
       1.4452492 0.2954998 1.8497567 2.38135
000360 90 ab fc bf ba 64 c3 bf f3 cc 76 be 3d fa 58 3f
       -1.9739857 -1.5265114 -0.2410162 0.84756833
000370 c1 75 d3 3e 86 8e d4 bf 3e 63 41 3f b9 95 4d bf
       0.41300777 -1.6605995 0.75542057 -0.80306584
000380 dc 0d f6 3f 3d 94 30 bf 51 c6 67 bf 7f ea 54 c0
       1.922298 -0.68976194 -0.9053698 -3.3268125
000390 00 2b 1a c0 a7 56 00 3f ee 3c 0e 40 71 1c 0b c0
       -2.4088745 0.5013222 2.2224689 -2.173611
0003a0 0b a3 04 3f 14 e9 17 3f 4c b2 f0 3f 3d e3 8d bf
       0.51811284 0.59340024 1.8804412 -1.1084973
0003b0 b3 16 25 3f 10 ef 14 40 1d 27 7b 3f a7 72 78 be
       0.6448776 2.3270912 0.9810656 -0.24262486
0003c0 68 2d 91 bd 2c fd c8 3d ca 14 3a bf b0 5a 66 bd
       -0.07088739 0.09813914 -0.7268797 -0.05623883
0003d0 dd 78 97 3f d4 15 e1 39 ce 1f a2 be 30 e4 90 bf
       1.183376 0.00042931607 -0.3166489 -1.1319637
0003e0 64 18 89 bc 28 bc 6a bf 5d f4 71 bd 2c 3e f9 bf
       -0.016735263 -0.91693354 -0.059070934 -1.9472098
0003f0 07 77 43 bf 5b 7c 75 3f c6 c6 dc be a0 04 f1 be
       -0.76353496 0.95892876 -0.43120402 -0.4707384

nconvs.1.modlist.0.lin_l.weight f4 [48, 48]
000000 fd eb 08 bd 48 3e ee bc b1 75 35 3d 77 34 8f 3e
       -0.03342818 -0.029082432 0.044301692 0.27969715
000010 38 b4 b3 bf cf af c3 be 2d 77 c1 3d 73 ed df be
       -1.4039373 -0.3822007 0.09446559 -0.43735847
000020 4f f6 19 3e 87 39 b6 bd a5 29 1f bf 04 4e 07 bf
       0.15035366 -0.08897691 -0.6217292 -0.5285342
000030 6f 6f 0f 40 ab f7 87 bf e3 55 33 3e a3 b8 f7 3c
       2.2411764 -1.0622457 0.17513232 0.030239409
000040 97 90 ab 3e ac 3d df 3f f9 86 cd bd c9 c8 4e 3e
       0.3350875 1.7440696 -0.100355096 0.20193781
000050 f9 ee af 3f c2 e5 6e bc 3b cc ee 3e b5 12 01 bf
       1.3744804 -0.014581146 0.4664019 -0.5041917
000060 cd 8c a2 3e 0d cb 63 bf 00 84 0a bf a8 52 bd 3d
       0.31748047 -0.88981706 -0.54107666 0.09244281
000070 a6 e8 c5 bd 83 31 ae be bf eb 96 3e c9 37 08 be
       -0.09663515 -0.3402215 0.29476735 -0.1330253
000080 5d 84 d2 bd 5a 2b 9b 3f d5 15 94 bf 03 44 c7 bd
       -0.102791525 1.2122605 -1.1569163 -0.09729769
000090 86 88 26 bf 06 2f 3e bf 6a dc 73 be fe 6c 56 bf
       -0.6505207 -0.742905 -0.2381455 -0.8376006
0000a0 f2 96 1f 3f a9 2b 22 be e2 38 af bd 36 ff 78 3f
       0.623397 -0.15836968 -0.085557714 0.9726442
0000b0 89 0c e1 be d2 d3 a2 be f3 fc 46 bf 77 fe 0b bd
       -0.43954876 -0.3180223 -0.7772972 -0.034178223
0000c0 dd 4b 45 3e 5d 94 65 3f 58 5d 73 bf db 17 f5 be
       0.19267221 0.8967951 -0.95064306 -0.47869763
0000d0 f1 d7 df bc 80 ac c7 bf 81 e8 88 be 76 a1 a3 3f
       -0.027324649 -1.5599518 -0.26739886 1.2783649
0000e0 8e 77 e8 bc dc 43 09 bf d4 d0 db bb 0d 1a e2 be
       -0.02837732 -0.5361917 -0.006708244 -0.441605
0000f0 d0 7d 06 3e a2 98 9e be 11 be 21 be 80 d9 00 3f
       0.13133931 -0.30975825 -0.15795161 0.5033188
000100 ca 76 08 bf 65 73 c0 3c ce d4 6b bd 3c 6f 1b be
       -0.5330626 0.023492524 -0.057575993 -0.15179151
000110 6d c3 97 3d b4 48 98 3e 00 4d 85 3f 02 9c 14 3e
       0.074103214 0.29742968 1.0414124 0.14512637
000120 95 5a c5 3e eb 1b 80 be 63 d0 17 be 41 16 96 be
       0.3854567 -0.250213 -0.14825587 -0.29313853
000130 fb 9e bd be a4 e9 da 3e 95 91 a8 bd 2e e6 32 be
       -0.37035355 0.4275638 -0.082308926 -0.17470619
000140 2e 04 10 be d4 09 98 be 1c 13 f4 3e ed 37 57 be
       -0.14064094 -0.29694998 0.4767083 -0.21017428
000150 c3 25 ee bc bb d9 99 bf c8 2a 6f bf cc e9 64 bd
       -0.02907074 -1.2019571 -0.93424654 -0.05588703
000160 98 fa 80 3f 22 e6 73 be 67 da 88 bc c9 64 12 bf
       1.0076475 -0.23818257 -0.016705705 -0.57185036
000170 20 f4 06 be 4c 6c 52 be a4 50 2b 3f ae fc 11 bf
       -0.13179064 -0.20549124 0.6691992 -0.57026184
000180 2d 6d c1 3d 63 38 65 3f 6d 73 25 be 2f 94 92 3e
       0.09444652 0.89539164 -0.16157313 0.2862868
000190 85 49 0b 3e 63 10 11 bf 04 8f 88 bf 6b db 5b bf
       0.13602264 -0.5666563 -1.0668645 -0.8588168
0001a0 2f 75 2d bf 67 ab a0 bd f0 16 1f 3f 10 ad 20 bf
       -0.6775693 -0.078451924 0.62144375 -0.6276407
0001b0 a3 67 e6 3e c0 a7 08 3f 05 2d 4d 3f 1b b9 06 3c
       0.45000944 0.53380966 0.8014682 0.0082228435
0001c0 ee 8f 8c 3d 3d b2 52 be 78 d9 38 3e b5 78 cc bd
       0.0686339 -0.20575805 0.18051708 -0.099839605
0001d0 72 21 3d be 21 db 78 bd 6d 73 c5 be 99 02 b7 3e
       -0.1846979 -0.060755853 -0.38564625 0.3574417
0001e0 14 27 dd be 13 95 d3 3e 6f 7c 22 3e d0 4f 62 be
       -0.43193877 0.41324672 0.1586778 -0.22100759
0001f0 b7 3c cf 3c 47 13 13 3f bf cb 09 be 68 4f 23 3f
       0.025297506 0.5745129 -0.13456629 0.6379304
000200 6a 10 1a bf ba 16 11 3c 23 c6 f5 3c 58 8c 9e bf
       -0.60181296 0.008855516 0.030001706 -1.238658
000210 0a 7a 86 3d 80 09 b9 3e 96 a0 97 be 06 1d ea 3e
       0.06566246 0.3614006 -0.29614705 0.45725268
000220 e9 6c e9 be f4 b4 7c 3f f7 78 8f bf 7d d8 ef 3e
       -0.45590904 0.9871361 -1.120879 0.46844855
000230 43 b5 59 3e 45 86 a1 be fb e2 ae bf 6d 09 c8 be
       0.21260552 -0.31547752 -1.3663019 -0.3906969
000240 79 16 c6 3e da a7 89 bf f1 4e 80 bc db d1 57 3e
       0.3868902 -1.0754349 -0.015662642 0.21076147
000250 c5 8c e2 3e 4c 70 94 3c f8 91 03 3e 0b 60 9d 3e
       0.44248024 0.018119954 0.12848651 0.30737337
000260 92 ff 38 bf a5 df f1 3e bf fb 7d bf e1 06 30 3f
       -0.7226497 0.4724094 -0.9921226 0.68760496
000270 4e c4 01 bf 1e 50 0c bf a8 31 f4 3e d3 0d b5 3e
       -0.5069016 -0.5480975 0.47694135 0.3536211
000280 6e 9d 99 3e 78 0b e3 3e 70 8b 60 3f 33 b3 73 3f
       0.30002922 0.44344687 0.87712765 0.9519531
000290 ae 82 2f 3e d1 4c 1b 3f 55 6f 14 3f 1f b8 80 3f
       0.17139694 0.6066409 0.5798238 1.0056189
0002a0 0d f0 7a be 98 1c ab be e6 60 fc bd a4 df 98 3e
       -0.24505635 -0.33420253 -0.123231694 0.29858124
0002b0 54 e9 ac 3e 70 f0 82 3f f6 3e 7c 3e a0 5d 22 bf
       0.33771765 1.0229626 0.24633393 -0.6342411
0002c0 51 c2 a0 3f f3 ab 94 3f 0f 24 8c bf 21 f3 4d 3f
       1.2559301 1.1614975 -1.0948504 0.8044911
0002d0 99 d3 6d 3e 11 79 35 bf 52 78 6b 3f a0 3a a8 be
       0.2322525 -0.7088786 0.9198047 -0.32857227
0002e0 60 15 8e 3d 8e 98 2e 3f 05 e9 06 3f 8b a3 3f bf
       0.06937671 0.6820153 0.5269931 -0.7485892
0002f0 c7 1b 25 bf 27 51 de 3f 9b bf 75 3f 27 cb 41 3f
       -0.6449551 1.7368516 0.9599549 0.7570061
000300 32 c9 73 3e bc 7e f8 be df 21 b0 3f 6d 8c 53 3e
       0.23807219 -0.4853419 1.3760337 0.20659037
000310 9e cb 1a bf 4f c1 36 be 68 56 0b 3f f0 40 76 bf
       -0.60466945 -0.17847179 0.5442872 -0.96192837
000320 8b c7 ed 3e 02 be 67 3f 66 c8 cd bd de c2 0f bf
       0.46441302 0.90524304 -0.100479886 -0.5615672
000330 14 ca 2c 3e 1e 99 d7 3e 9b 0b 5a 3f 4d c5 60 3e
       0.16873962 0.42109007 0.8517396 0.21950264
000340 9e 02 5c 3f 78 c3 ce 3e 1d 6a 7a 3f 2c 9c 68 3e
       0.85941494 0.40383506 0.97818166 0.22715825
000350 c4 93 8e be cf e4 65 3e a6 0f 8d bd 45 8d 25 3f
       -0.2784711 0.22450565 -0.0688775 0.64668685
000360 47 17 22 3e 5b 1d 47 bf f0 0b 9a 3f 2e 58 8f 3f
       0.15829192 -0.7777917 1.2034893 1.1198785
000370 5c 28 43 bd 7b bf 10 bd 2e 01 8a bd d5 da 80 bf
       -0.04764591 -0.03533886 -0.06738506 -1.0066782
000380 73 e7 04 3f 74 b4 03 bf f3 77 08 bf 42 be 06 3f
       0.51915663 -0.51447225 -0.5330803 0.5263406
000390 bf ee e8 be 35 6f 31 bf de 5c 82 3f 3e 2b 5c 3e
       -0.4549465 -0.69310313 1.0184591 0.2150087
0003a0 2d c1 79 be f9 f2 e3 be a2 9b 02 3f bd 84 f1 3d
       -0.24390097 -0.4452131 0.51018727 0.11792896
0003b0 f3 48 65 3f c2 df fa 3e 39 32 e2 3e c1 dd c8 3e
       0.89564437 0.4899884 0.44178942 0.39231685
0003c0 89 7f 74 bd 19 86 7e bf d7 18 02 bf a3 8c 89 be
       -0.05969194 -0.99423367 -0.5081915 -0.2686511
0003d0 32 d5 9f bd 8e eb 78 3f ed 3d 38 be 26 5c a2 bf
       -0.07804336 0.9723443 -0.17992373 -1.2684371
0003e0 40 93 89 be 84 e0 c5 be bb b7 77 be ee 40 e1 3e
       -0.26870155 -0.38647854 -0.24191181 0.4399485
0003f0 27 b2 b6 3e 35 b7 cd bd 87 79 82 3e ba b3 4e 3f
       0.35682794 -0.100447096 0.25483343 0.8074299

nconvs.1.modlist.0.lin_l.bias f4 [48]
000000 de 4d 3b 3f 04 34 97 3e c6 c5 1d be 47 ed fd 3c
       0.7316569 0.29531872 -0.15407476 0.030996932
000010 d3 ba 75 bf 10 5c c9 3b b6 f5 43 be b6 11 0e be
       -0.95988196 0.006145008 -0.191367 -0.13873944
000020 b5 bc c7 3d ea 90 c6 bd 96 47 cd bf 4b 98 cb 3e
       0.0975279 -0.09695609 -1.6037471 0.39764628
000030 0c bd 4a 3e 32 ad b6 bf 81 0d 2c 3e db 6f e3 3d
       0.19798678 -1.4271605 0.16802026 0.11105319
000040 81 65 04 3d 37 0b a5 bf fd 87 d0 3d f0 a7 04 bd
       0.032323364 -1.2894047 0.10182188 -0.03238672
000050 3d c6 c0 3e 29 35 9c 3e 9d a0 0a 3d 8c e1 4d be
       0.37651244 0.30509308 0.03384458 -0.2010557
000060 3a 3a 98 be 17 f5 ba 3d 59 93 f2 bc 24 eb 39 bd
       -0.29731923 0.091287784 -0.029611276 -0.045390263
000070 58 33 ac be 8b 1b b6 3d b5 d1 fa bd b2 88 d9 be
       -0.33632922 0.08891972 -0.1224703 -0.42487103
000080 e5 cb 74 bf 59 f8 3e be 10 67 00 be c6 85 c4 3d
       -0.9562362 -0.18649425 -0.12539315 0.09595828
000090 f2 29 53 3e 6b c2 b5 be e9 63 6a 3d 2e f6 4b 40
       0.2062147 -0.35499892 0.057224188 3.1869006
0000a0 79 65 10 3f 16 3f 2c 3f ef 2b 4c be e1 51 c8 bf
       0.56404835 0.6728376 -0.19938634 -1.5649987
0000b0 5c 7a 79 bf d5 2c 87 bd d4 c5 b9 bc 5d 09 82 3d
       -0.9745233 -0.06600348 -0.02267734 0.06349442

nconvs.1.modlist.0.lin_r.weight f4 [48, 48]
000000 22 50 b4 3f a5 52 2d bf 68 89 40 3f 60 36 ca bd
       1.4086955 -0.6770423 0.75209665 -0.098736525
000010 57 eb ae 3d 7d bd 03 3e fe ce be 3e cd 92 d9 3e
       0.08540981 0.12865253 0.37267298 0.42494813
000020 31 ef fa be dc 08 7a be f5 22 dc 3d f5 10 be 3e
       -0.49010614 -0.24417442 0.10748855 0.37122312
000030 30 12 91 3e 80 cb 5a 3f 5d 57 7a be f5 99 0a bf
       0.28334188 0.85466766 -0.24447389 -0.5414117
000040 58 93 a7 3c 67 b0 da 3e 70 25 80 be d7 8d 2b bf
       0.020456001 0.4271271 -0.25028563 -0.67013305
000050 7a cc 74 bf 0a 85 a4 3f c5 e5 9d 3e 5e d0 06 bf
       -0.95624506 1.28531 0.30839363 -0.52661693
000060 3e 54 fa 3e 04 cc 9e 3d 05 e3 a5 3f db ab ea be
       0.48892397 0.07753757 1.2959906 -0.4583424
000070 ea eb 1b be d5 88 6b bd 66 53 be 3d 7b 5b 6a 3e
       -0.15226713 -0.05750354 0.09293251 0.2288646
000080 32 c7 d1 bd 62 39 d9 3f 0b 12 28 3e f7 47 99 3e
       -0.102430716 1.6970637 0.16413133 0.29937717
000090 e8 84 8d 3e 5d 1c 6b 3f a1 45 1d bf 11 64 c0 bd
       0.27640462 0.91840154 -0.6143437 -0.09394086
0000a0 cf e1 e8 3e c7 96 80 3f f9 af 3f bf 6a 29 ba be
       0.45484778 1.0046014 -0.7487789 -0.3635972
0000b0 57 b6 64 be b0 33 1f bf 80 66 6a bf e0 65 80 3c
       -0.22335182 -0.62188244 -0.9156265 0.015673578
0000c0 7a 31 21 3f 35 60 51 be 94 db 7d be 21 d1 75 3e
       0.6296612 -0.20446856 -0.24790794 0.24005558
0000d0 f5 cb 68 3e 92 11 c8 3e 70 8a ec 3f 8e ce 95 3e
       0.22734053 0.39075905 1.8479748 0.2925915
0000e0 8e 32 86 3e 95 b0 1e be 4a 0c 56 bf eb 3f e2 be
       0.26210445 -0.15497048 -0.836125 -0.4418939
0000f0 27 0e 16 3e 50 4b 3b 3f a4 25 3d bf b4 07 20 3f
       0.14653836 0.7316179 -0.7388556 0.62511754
000100 fe 9c ba be f2 6f a8 bd 11 b1 3a be bf 0c 19 be
       -0.364479 -0.08224477 -0.18231608 -0.14946268
000110 1c 3d 97 3f c5 55 f8 3e 77 04 83 bf ae 33 4b 3e
       1.1815524 0.48502937 -1.0235738 0.19843933
000120 3e 5c a4 3e 86 96 e0 3e ac 14 78 3e 8a fe 09 bf
       0.32101625 0.4386484 0.24226636 -0.5390402
000130 c7 80 17 bf 85 0b 26 bf b5 76 5a 3e cc 3e 10 3f
       -0.59180874 -0.6486133 0.21334346 0.5634582
000140 59 ea 4d bc 72 4a 4e be 4b de c9 bf 92 eb 81 3e
       -0.01256808 -0.20145586 -1.5770963 0.25375038
000150 b2 1d 17 bf bb d3 a9 bf 19 1b ad be 59 ff 07 3f
       -0.59029686 -1.326774 -0.33809736 0.53124005
000160 70 b5 11 bf 0f f4 97 be d4 f7 a3 3e fe a1 54 be
       -0.56917477 -0.2967839 0.32025015 -0.2076492
000170 3e bc 95 be 28 be 03 3f b7 d4 8c 3f 5f ac 13 3e
       -0.2924518 0.5146203 1.1002415 0.14421223
000180 4d ee 95 3d 54 49 06 3e 55 3c 29 bf 30 9e 0c 3e
       0.07320843 0.1311391 -0.66107684 0.13732219
000190 f9 d4 76 be 50 26 15 3f 51 a2 73 3e 05 69 84 3d
       -0.2410468 0.58261585 0.23792388 0.064653434
0001a0 b2 12 e4 3d 22 70 37 3e b7 a2 45 3f 82 df 06 bd
       0.11136378 0.17913869 0.7720141 -0.032927997
0001b0 2d d9 43 be dd 06 76 be 34 e0 45 be 73 a9 b8 3b
       -0.19125815 -0.24026056 -0.19323808 0.0056354343
0001c0 43 27 f7 3e 8f cd 8a 3e 27 86 ae bd 7d 46 93 3e
       0.48272142 0.27109954 -0.08521681 0.28764716
0001d0 1b 1f c2 3e 8b 24 db bd 7c 88 c6 be b0 8e 12 bf
       0.37914357 -0.107003294 -0.38776004 -0.57248974
0001e0 b5 8b 03 3f 0d 65 4c 3e 97 77 dd 3d 95 4c 68 bf
       0.5138505 0.19960423 0.108138256 -0.90741855
0001f0 7b f3 76 3e 76 b7 9d 3e 0d 55 8b bd d6 49 bb 3e
       0.24116318 0.30804032 -0.068033315 0.3657977
000200 01 30 40 3f f4 50 bc 3c 03 9a 74 bf 7b 57 c9 3e
       0.7507325 0.02298782 -0.95547503 0.39324555
000210 1f 72 c6 be 4f db 86 bd d7 2a 7e bd dd b3 ef 3d
       -0.38758942 -0.065847985 -0.062052574 0.11704228
000220 fd 5e ae 3e be 00 15 c0 fe 72 89 be e3 fd 12 3e
       0.34056845 -2.3281703 -0.26845545 0.14354663
000230 2f f9 8f 3e 1b 2d b3 bf 61 31 24 3e 2e f4 e9 be
       0.281198 -1.399814 0.16034462 -0.45694107
000240 88 b7 8b bc 1d 88 07 3f 81 ac 65 bf 71 6d 52 3e
       -0.017055288 0.5294207 -0.89716345 0.20549561
000250 fa eb 04 bf 42 18 87 bf ed 34 2e bf fc 54 84 3f
       -0.5192257 -1.0554278 -0.6804951 1.0338435
000260 47 cd 18 3e 06 de 91 be 54 68 87 be 18 e4 d0 3e
       0.14922057 -0.28489703 -0.26446784 0.40799022
000270 a1 da a8 bd 12 48 33 bf 04 e7 cc bd 77 b8 f6 be
       -0.08244825 -0.70031846 -0.10005 -0.4818761
000280 c5 e1 7e bf 9f cf ef be 5b cb 3f 3f a0 32 0c bf
       -0.99563247 -0.4683809 0.7491967 -0.5476475
000290 a1 2a b0 3f 5e c4 51 be 8c e5 3c bf 0b 2c 82 bd
       1.3763009 -0.20485064 -0.7378776 -0.06356057
0002a0 26 f3 b5 3e e7 54 11 3e 4a 28 4a 3f 62 07 4e bf
       0.3553707 0.14192544 0.78967726 -0.80480015
0002b0 bd 77 18 3e d9 6a 24 be b1 97 03 3e 65 37 dd 3d
       0.14889427 -0.16056384 0.12850834 0.10801581
0002c0 0c f7 55 3e 7d 2c 3b bf 94 5a e1 bf fd 46 83 bf
       0.20895022 -0.7311476 -1.7605767 -1.0256039
0002d0 46 0a 76 3e 37 5f 24 be 60 75 25 3e e6 22 3d be
       0.24027357 -0.16051947 0.16158056 -0.18470344
0002e0 58 01 fc 3d 6a 88 74 3e 2f e6 fa 3e 1b 68 b3 be
       0.12304944 0.23880163 0.4900374 -0.35040364
0002f0 fe 3e 1d bf 15 7f da 3e 5d 63 0d bf b4 84 47 3f
       -0.61424243 0.4267508 -0.5522974 0.77936864
000300 91 ea 71 3f de 1e 74 3f 88 0f 08 3f ad 84 86 3f
       0.94498545 0.953596 0.531487 1.050924
000310 f0 04 b5 be 33 e6 1c 3f e4 ab fc 3e ee 53 23 bf
       -0.3535533 0.61288756 0.49349892 -0.6379994
000320 8a a7 7e 3f 89 47 ea be ff 1e 8f be 44 55 b9 bd
       0.99474394 -0.45757702 -0.27953336 -0.09049466
000330 b7 46 44 be cf e5 a5 be 68 f2 cf be 47 af 83 3f
       -0.191676 -0.32401893 -0.4061463 1.0287865
000340 3b 5d a9 be d2 89 16 bf b3 4e c1 3d a3 3e c2 3e
       -0.33078942 -0.5880405 0.09438839 0.37938413
000350 a0 6c 0f 3f 35 6d 45 3f 58 b4 3c bf 65 6b e0 bd
       0.56025124 0.7711976 -0.7371268 -0.10957984
000360 8e d3 31 3e 36 3f 50 be f4 e0 41 3f b5 5e de 3c
       0.17365858 -0.20336613 0.75733876 0.02714477
000370 83 83 41 be 6b 86 91 be b1 8e 0a 3e 22 fc f8 bd
       -0.18897824 -0.28422865 0.13530995 -0.121574655
000380 3a 2a 41 3f d7 4d f3 bd 4c 93 bb bd 9c e8 15 bf
       0.7545506 -0.11880081 -0.09158954 -0.5855806
000390 50 e2 95 be d2 d6 6d bf a2 e2 a6 be 36 64 52 be
       -0.29274225 -0.92905915 -0.32594782 -0.2054604
0003a0 ef 2d 08 bf aa 9f b1 bf eb 69 a3 3f 9d 59 73 bf
       -0.5319509 -1.3876851 1.2766699 -0.95058614
0003b0 b7 80 0e be 83 78 05 3d a4 5a db be fc fa 98 bd
       -0.13916288 0.032585632 -0.4284259 -0.074697465
0003c0 d1 7e 21 3d a9 91 9e 3f 74 ff 32 3f 4f 89 10 bc
       0.039427582 1.2388202 0.6992104 -0.008821799
0003d0 c2 5a e5 3e da 12 b7 be a9 1c 59 bf bd 7b 13 3f
       0.44795805 -0.3575657 -0.84809357 0.57610685
0003e0 bd 05 04 be d9 71 7a 3e 1c 4a de 3e e4 a6 87 3e
       -0.12892814 0.24457492 0.43415916 0.26494515
0003f0 55 2a 43 3e 65 00 25 3f 28 ae 8f 3f 29 c7 43 bd
       0.19059117 0.64453727 1.1225023 -0.047797356

h_1.modlist.0.modlist.0.weight f4 [18, 49]
000000 78 18 5f bf 1e c4 18 3e 5c 00 85 be 0e 1a bf be
       -0.8714671 0.14918563 -0.25976837 -0.37324566
000010 3d df c9 3e e0 ec 81 3e 7f c8 de be c7 31 c6 be
       0.3942813 0.25376034 -0.4351234 -0.38709852
000020 ed 4e b6 3d 6c 72 be be 7f 1d 73 bf 0c a9 34 bf
       0.08901773 -0.37196672 -0.9496688 -0.70570445
000030 d9 f3 5b 3e e5 d6 33 c0 0c ea 93 be b5 c0 86 3e
       0.21479739 -2.8099911 -0.288895 0.263189
000040 61 e4 97 3e e9 9c 00 bf 1d 79 41 be 27 77 b8 3e
       0.29666427 -0.50239426 -0.18893857 0.36028406
000050 64 67 9d bd cf 34 43 bd 32 4b 07 bf b2 65 21 bf
       -0.07685736 -0.047657784 -0.52849114 -0.630458
000060 92 6c 0a be 41 93 c0 be 40 a6 e3 bd 49 b8 c3 bd
       -0.13517979 -0.37612346 -0.11115694 -0.09556634
000070 56 97 0a 3f 1b 93 ef 3d 72 05 df be c5 0d 73 be
       0.5413717 0.1169798 -0.43558842 -0.23735721
000080 19 bf 1c c0 e4 c9 03 bf 45 34 10 bf e7 a5 79 3e
       -2.4491637 -0.51479936 -0.56329757 0.24379693
000090 69 d5 9c be 4e c7 1c 3f 8d 77 68 be 08 03 62 bf
       -0.3063157 0.61241615 -0.22701855 -0.88285875
0000a0 7e 4e d0 bd 3b 05 e2 3b ad 90 4f be a3 02 26 c0
       -0.10171221 0.006897596 -0.20270033 -2.593911
0000b0 a6 f0 87 3d 8c cf b5 be 5d 4b 4e be 4a 05 e4 be
       0.06637697 -0.35509908 -0.20145936 -0.44535285
0000c0 f8 44 3d c0 5f f4 c6 3e 8e d8 e8 3d 6c 68 97 3d
       -2.9573345 0.38858315 0.113694295 0.07392964
0000d0 b7 53 c5 3e 1b d6 98 be b9 21 e9 3d 42 1c 2c 3f
       0.38540432 -0.2985085 0.11383385 0.6723062
0000e0 95 26 db bc 4f b8 a6 bd c2 11 b1 bd c7 d6 08 3f
       -0.026751796 -0.08140623 -0.08645965 0.53452724
0000f0 16 82 81 3e 96 3a 2a 3e 2a d5 11 3f 1e 88 3f 3e
       0.2529456 0.16623911 0.5696589 0.18704268
000100 33 52 9d 3e 76 c2 1e 3e ee 4a 05 3f ac 18 12 3d
       0.30726776 0.15503868 0.5206746 0.03566806
000110 11 1e 82 bd 6d 21 04 3d 5d f7 5a bd a4 3c 3d 3d
       -0.06353391 0.03225844 -0.05345856 0.04620041
000120 26 78 52 3f 1d 0c 2f be 4f f1 a8 3e 41 37 9d 3e
       0.8221458 -0.17094465 0.32996604 0.30706218
000130 5d cb 68 3e 4a 00 8b be e4 dd 93 3e 99 83 d2 3d
       0.22733827 -0.27148658 0.28880227 0.102790065
000140 23 f9 8f 3b 26 18 19 40 e0 f3 07 3f f6 42 b8 3d
       0.004393713 2.392099 0.531065 0.08997147
000150 9f 69 a9 3c 13 bc 3f 3f 0d 79 d2 3e 21 58 37 3e
       0.020680247 0.74896353 0.4110798 0.17904712
000160 79 f4 62 3f 42 50 49 bd 32 b0 4c 3b cd ff 54 3e
       0.88654286 -0.049148805 0.003123295 0.20800705
000170 ac f4 7f 3f 4e d5 e6 3e 40 49 da 3d cf 4c 9f bc
       0.99982715 0.45084614 0.106585026 -0.019445805
000180 ce d6 51 3d 3d 91 c3 40 9c c5 57 bf 19 28 64 3d
       0.051230244 6.1114793 -0.842859 0.055702303
000190 13 59 17 bc 21 95 b4 be 5a 3a ad 3e a6 6e 4f 3e
       -0.009237546 -0.35270026 0.3383358 0.20257053
0001a0 f7 eb 8b be 99 04 5f bd 66 44 98 3e bb 0a 7e 3e
       -0.27328464 -0.054447744 0.29739684 0.24808781
0001b0 22 b7 c8 be a7 fc 46 be cb f7 49 3e cd ff 81 bf
       -0.3920222 -0.19432317 0.19723432 -1.0156189
0001c0 dc 88 ba be 0f b4 6d 3e 44 65 8c 3e c3 66 2a be
       -0.3643254 0.23213218 0.2742101 -0.16640763
0001d0 f4 f3 fb bb b4 8d fa 3e 72 07 8d 3d 82 df 0a 3f
       -0.0076889936 0.48936236 0.06886186 0.54247296
0001e0 d2 a7 8e be b2 3a 32 bf e2 2a 9e 3e a6 7b 48 be
       -0.27862412 -0.6962081 0.30892092 -0.19578418
0001f0 ec 26 67 be 56 f9 4a be 55 a1 b3 3e 04 d3 b9 3d
       -0.22573441 -0.19821677 0.35084024 0.09073451
000200 4d e6 07 be d4 3c 88 bd 87 bc 33 c0 f9 c0 03 bf
       -0.13271447 -0.06652227 -2.8083818 -0.5146633
000210 96 1e c8 be 78 5c 5d 3d 01 8b 63 bf 1c 0a bb 3d
       -0.39085835 0.054043263 -0.8888398 0.091327876
000220 8e ea 0a be b8 df 84 be fd d1 a8 be 14 ce 37 be
       -0.13566038 -0.25951934 -0.32972708 -0.17949706
000230 da 04 e8 3d 5e 77 8b bf 14 73 3d 3e b4 ec 20 bd
       0.1132905 -1.0895803 0.1850093 -0.039288238
000240 19 1f 68 be 6b 80 97 3d 78 7e eb c0 26 cd 85 3f
       -0.22668113 0.07397541 -7.359188 1.0453231
000250 70 d4 8a 3e e2 d6 52 be 52 14 36 bd de b7 32 3e
       0.27115202 -0.20589784 -0.044452973 0.17452952
000260 f6 1e 2a be 85 0d 3d 3e e9 28 2d be 38 5f 43 3d
       -0.16613373 0.18462189 -0.16910137 0.04769823
000270 98 cb b3 3e b1 72 1e 3f f1 12 4c bf 13 31 22 3e
       0.35116267 0.61893755 -0.797164 0.15839033
000280 51 51 05 c0 36 45 c9 be 1e 3b a7 bd be 6d 0f 3f
       -2.0830882 -0.39310616 -0.081655726 0.5602683
000290 31 0e c4 3f a9 d6 51 be 53 b1 53 ba d1 e7 3d be
       1.5316831 -0.20492043 -0.00080754346 -0.18545462
0002a0 d6 b0 a4 bd ff fe 9a bd 5f b3 9a be fc 83 05 3e
       -0.08041541 -0.07568168 -0.30214974 0.1303863
0002b0 7f 2c e6 3d bf dc 54 be 7f 4d 68 be b6 52 d8 3e
       0.11238956 -0.20787333 -0.22685812 0.42250603
0002c0 ec 1e dd be be 14 02 be 92 c9 2f 3e d3 de c8 bf
       -0.43187654 -0.12703225 0.17166737 -1.5693
0002d0 0b 07 65 be 07 7e dd be 44 f6 87 3c 22 ff 94 40
       -0.22365968 -0.43260214 0.01659692 4.656144
0002e0 5f 5e af bd 2c a6 f1 bc 49 a8 90 3f b9 63 d1 be
       -0.08562922 -0.029498182 1.1301357 -0.40896395
0002f0 2a ab cc 3d b0 2d e4 3d 42 2c 9c bf 01 e6 17 40
       0.099935845 0.11141527 -1.2201006 2.3734133
000300 7e d7 38 bd da d5 42 be 92 ca 39 3e 4d 21 43 c0
       -0.045127384 -0.1902689 0.1814368 -3.0489075
000310 ae ad 16 3f e6 78 b7 3d 59 bd 2d 3e b8 e5 93 3e
       0.58858764 0.089586064 0.16966762 0.288862
000320 be 18 70 be dd eb 65 3e b6 9e 13 be ef be f1 3d
       -0.23446938 0.22453256 -0.14416012 0.11803996
000330 7c 33 09 bf 71 02 b0 bd c9 e3 f4 be 68 c1 cd bb
       -0.53594184 -0.08594216 -0.47830036 -0.0062791593
000340 f9 48 8b 3e 53 dc 12 c0 08 79 7c 3e ac a0 5d 3e
       0.2720411 -2.2946975 0.24655545 0.21643323
000350 ca ff 32 3d 05 4c 34 bf c8 c5 d4 3d e4 49 55 3e
       0.04370097 -0.70428497 0.10389286 0.20828968
000360 2f 37 f2 3b f6 13 3d 3d 3b 38 66 be 11 c3 ee 3e
       0.0073918323 0.046161614 -0.22482388 0.466332
000370 0b ef a4 be 0c 36 d0 3d c7 1d 29 3e e4 aa 53 bd
       -0.32213625 0.101665586 0.16515265 -0.051676646
000380 bd b6 d3 3e 4f 31 5e 3e 4a eb a8 be e0 39 c8 3e
       0.41350356 0.21698497 -0.3299201 0.39106655
000390 c4 f4 c0 3f ae 6a 7c 3e 80 3b 46 3d 81 8c ba 3a
       1.5074697 0.2465007 0.048396587 0.0014232547
0003a0 51 26 2e 3e 06 2f ab 3e 42 3d 36 3e 8b 72 f3 bf
       0.17006804 0.33434314 0.17796806 -1.9019331
0003b0 eb 84 5b 3e 30 4b 9d bd 80 7e ad 3d 61 dd 03 c0
       0.21437423 -0.076803565 0.084713936 -2.060387
0003c0 f7 05 a4 bc eb 83 93 3d b9 19 4d 3e 8f 85 06 bf
       -0.020022376 0.07202896 0.20029344 -0.52547544
0003d0 1d 8d f8 40 5d f9 e2 bf 95 db 87 bc cf 9e 0c 3e
       7.7672257 -1.773235 -0.016584197 0.13732456
0003e0 77 60 00 bf ec 22 13 3e 31 62 58 bd 0b f2 8e be
       -0.50147194 0.1436879 -0.052828018 -0.2791904
0003f0 54 b0 ad be 9b f6 47 bd 1d e1 a3 3e 14 ab 12 be
       -0.3392359 -0.048819166 0.32007685 -0.14323074

h_1.modlist.0.modlist.0.bias f4 [18]
000000 da fb bf bf 0c 3f ae 3f aa da 13 c0 b1 f0 03 c0
       -1.4998734 1.361299 -2.3102212 -2.0615656
000010 25 62 35 40 78 48 91 c0 dc 57 60 3d c7 cb 01 3f
       2.8341153 -4.5400963 0.05477129 0.50701565
000020 1e 85 c1 3f 25 f5 88 3f e8 14 10 3f 3b db 21 c0
       1.5118749 1.0699812 0.562819 -2.5290058
000030 1b 07 89 3f 9b 62 bd 3e d5 d3 28 40 d2 4c fc 3f
       1.0705293 0.36989293 2.6379292 1.9710944
000040 2e e0 1f bf 5a d5 e3 be
       -0.62451446 -0.44498712
