2WL_link_pred/checkpoint/20221214_50_20/2WL_dict_50_20_9.pt (torch, 79276 bytes, 16 tensors)

weight f4 [48, 3]
000000 47 75 8e be fb 1a d6 bd 7e 6d fe bd b2 fc 71 be
       -0.2782385 -0.10454365 -0.12423228 -0.23631552
000010 cb 86 c7 be 8a a4 80 3e cc cb 89 bd 0c bf b4 3e
       -0.38970026 0.25125533 -0.06728324 0.35302007
000020 10 45 fa 3d 9f f5 b7 3e 51 44 22 3f ee 8a 3b 3f
       0.12220204 0.35929582 0.6338549 0.73258865
000030 d9 7b 7c bf 65 d4 25 bf f1 94 08 bd 0b b2 c8 3e
       -0.98626477 -0.64777213 -0.033345167 0.39198336
000040 e7 3c 47 3f 89 04 63 3f 63 5d 80 3e 8b 5b 63 3f
       0.77827305 0.88678795 0.25071248 0.8881156
000050 73 85 63 3f 0f 11 aa 3e 0d aa 62 3f 8c 5d 77 3f
       0.888755 0.3321614 0.88540727 0.96627116
000060 fc a4 d4 bd 0e bc 63 3e 42 8b a2 3e 10 1d 87 3e
       -0.10383031 0.22239706 0.3174687 0.2638936
000070 a0 aa 67 3e 93 13 e8 3e 6a 28 39 3f 50 35 6a 3f
       0.22623682 0.45327434 0.7232729 0.914876
000080 51 4d 84 3f 34 0b ff 3f 6f dc 24 40 1f 66 1d 40
       1.0336095 1.9925294 2.5759542 2.459358
000090 6c 02 03 3f 7c 38 87 3f 92 bd 53 3f 7e c4 e9 be
       0.5117557 1.0564113 0.82711136 -0.45657724
0000a0 73 8e 3d bd ee 1c 19 3e 67 92 b9 3b 5e 4d ab 3e
       -0.04627843 0.14952442 0.0056632045 0.33457464
0000b0 21 c3 97 3e 60 2e bc be e5 51 20 be 51 07 48 bd
       0.2964106 -0.3675413 -0.1565624 -0.048835102
0000c0 51 e8 99 bf 8a fc 5b bf 62 da e5 be 7c 51 84 be
       -1.2024022 -0.8593222 -0.44893175 -0.25843418
0000d0 47 e4 a3 3c f7 bb 96 bd b5 38 8b c0 74 bf 74 c0
       0.020006312 -0.0736007 -4.3506722 -3.8241854
0000e0 fb 05 e3 3d 6e ca 88 3b be de bc 3d 8a 0f 51 3e
       0.11085125 0.004174522 0.09222172 0.20416084
0000f0 fd b5 84 c0 8c 7f 0a 3e b1 e2 41 c0 2b 18 f5 be
       -4.1472154 0.13525218 -3.0294611 -0.4787
000100 e7 f9 d3 bb c8 91 05 be c2 1a 8f bf 52 79 0c bf
       -0.0064689997 -0.13043892 -1.1180041 -0.5487262
000110 62 76 91 3d f6 87 2b bf 07 d3 0f bf 09 f8 1e bf
       0.07102658 -0.67004335 -0.5618138 -0.6209722
000120 3a 5e 5c 40 64 f1 5a 40 03 87 51 40 b6 26 b8 3e
       3.4432511 3.4209833 3.2738655 0.35967034
000130 09 45 10 3f a8 5a 8b 3f 68 10 ab bd 2b b6 09 3e
       0.5635534 1.0887041 -0.083527386 0.13448398
000140 a5 80 b7 3e 50 12 1b 3e c8 5e b8 3d 2a a1 b4 3e
       0.35840335 0.15143704 0.09002453 0.35279208
000150 ae bf a6 be e2 47 f2 3d e7 f0 0d be 9b 22 4d 3d
       -0.32568115 0.11830117 -0.13861428 0.05008183
000160 8e 00 86 3f f9 f6 60 3f 96 a3 ef be 30 bf e8 be
       1.0468919 0.8787685 -0.46804494 -0.45458364
000170 bc 29 04 be ae ff 87 3e f2 6d c4 3e 13 f1 da 3e
       -0.12906545 0.26562256 0.38365132 0.4276205
000180 2c d5 6b bf 35 dd 48 bf cb d1 c6 be cb c1 95 bc
       -0.9212215 -0.78462535 -0.38831934 -0.018280884
000190 88 7a 0e 3e 5f d4 d0 3e 07 cd 99 3d 5c 11 42 3e
       0.1391393 0.40787026 0.07509809 0.18951935
0001a0 7c 01 df 3e b4 69 f0 40 00 c8 11 3e eb fc 92 3d
       0.4355582 7.512903 0.1423645 0.071771465
0001b0 8c de 3c 40 d1 ac 3a 40 53 8e 2a 40 2e 54 7b be
       2.9510832 2.9167979 2.6649368 -0.24543831
0001c0 21 e8 42 be ec e6 83 bd fe 56 63 bf 1b d6 ab be
       -0.19033863 -0.06440529 -0.88804615 -0.33561787
0001d0 a3 2b 9b bd 93 69 ed 3e cb 7b 6a 3f 9b 09 72 3f
       -0.075766824 0.4636961 0.91595143 0.94545907
0001e0 92 6d 99 be 88 ef f2 3c aa f1 fe bd 02 7c c4 be
       -0.29966408 0.029655233 -0.124484375 -0.3837586
0001f0 78 ae f5 3c 96 d2 0f 3e a7 a0 a7 c0 16 5b 74 3e
       0.02999042 0.14045176 -5.238361 0.23862872
000200 2b c1 79 c0 3d d0 ac bd f0 5e 61 3e 4c 29 e5 3e
       -3.902415 -0.08438156 0.22008872 0.4475807
000210 f5 04 7f be 1e 46 41 bd 8c 19 5e 3d 69 50 cf bd
       -0.24904235 -0.04718601 0.054223582 -0.10122759
000220 4f 30 05 c1 f9 58 fc c0 fd 1b 8d be 27 c2 1f be
       -8.324294 -7.885861 -0.27560416 -0.15601407
000230 57 4f 30 be 64 95 c5 bd 0e 2c c7 3e 8e 94 0a 3f
       -0.17217766 -0.096476346 0.389008 0.54132926

bias f4 [48]
000000 c7 11 ca 40 11 e8 11 3f f0 7d 98 be 42 07 1f be
       6.31467 0.5699473 -0.29783583 -0.15530112
000010 1e 2c fe 3d 01 c5 3a bd a6 a2 ed 3c 46 78 7e 3c
       0.124107584 -0.045598034 0.02900822 0.015531605
000020 5a c0 a2 c0 0c 15 05 be b7 a8 7f 3c 75 2b 0f 3d
       -5.0859804 -0.1299631 0.01560419 0.034953553
000030 2e 1c 7c bd 82 af 38 bd b3 34 f4 bd 89 53 ed 3e
       -0.06155031 -0.045089252 -0.11924114 0.46352795
000040 77 f7 a0 3d 5e 9b 23 3f 0c 6e 4e 3e 7d a3 0c 3f
       0.078597 0.63908947 0.20159167 0.54936963
000050 f2 1f d9 3d e9 d0 06 3f 89 38 d0 3d ea d8 f2 bc
       0.10601796 0.5266252 0.10167033 -0.029644448
000060 a6 6a 02 ba 1e a3 c2 bd 72 b3 8f c0 93 97 ab 3e
       -0.00049749983 -0.095037684 -4.490655 0.3351408
000070 95 e0 01 3f b4 e8 b5 3c f3 a5 8f 3e 17 58 82 be
       0.5073331 0.022205688 0.28056297 -0.25457832
000080 de 62 af 3d e0 7d df be 0f 12 8e be 81 32 0f bd
       0.08563779 -0.43650723 -0.27748153 -0.034960274
000090 d4 bb a5 3d 3a 9b 2a 3f b8 97 27 3e 11 88 0f be
       0.08092466 0.66643107 0.1636647 -0.14016749
0000a0 a5 65 f7 3e 85 aa 00 3f 34 d3 71 3d 78 0e 2a 3d
       0.48319736 0.5026019 0.05903931 0.041517705
0000b0 7f 0d 40 3f e1 a8 18 3e e7 61 2d 3e 6c b8 af be
       0.75020593 0.14908172 0.16931878 -0.3432039

weight f4 [5, 48]
000000 dd 2d 09 3e 81 4e e9 be 36 a2 0a 3e e4 47 da bc
       0.13396402 -0.45567706 0.13538441 -0.026645608
000010 bd ce f6 bd 39 dc 72 3f 28 8d bf 3e 45 6a 09 3f
       -0.12051151 0.94867283 0.3741238 0.5367778
000020 ac 18 f2 3e 26 fd e8 3d b6 6c 54 3f e4 7e 6f 3f
       0.47284448 0.11376409 0.8297838 0.93552995
000030 95 0a db 3f ce ce 28 3f 9e 98 22 3f 96 f0 75 3f
       1.7112604 0.6594056 0.63514125 0.9607023
000040 42 99 7c bf b7 8b 03 bf e4 0f b1 3e 6f ca 84 be
       -0.9867135 -0.5138506 0.34582436 -0.25935695
000050 99 df 56 3f f1 6c 24 bf a3 ab f0 3d b3 36 0d be
       0.8393493 -0.6422873 0.11751487 -0.13790397
000060 d0 18 f4 3e 0b 8e 9c 3b e0 3d 3f bf 3d 37 6c 3e
       0.4767518 0.004777675 -0.7470379 0.23067947
000070 0b c9 c0 bf ac d1 ac bd b8 ee a0 bf 55 e2 ca 3f
       -1.5061353 -0.08438429 -1.2572851 1.5850321
000080 e0 b5 39 bf 46 18 d4 be 50 78 0e bf 96 91 c4 3f
       -0.72543144 -0.4142477 -0.5565233 1.5356929
000090 dc 4b 3c 3e 75 7f c0 3f 97 c6 54 3f 2c 5f 18 bf
       0.18388313 1.5038897 0.83115524 -0.5952022
0000a0 fa 45 bb bc 55 2d 54 3f f0 7f 9c bf 0b 1e f3 3c
       -0.022860516 0.8288167 -1.2226543 0.029677412
0000b0 0a c1 bd 3d 17 9f 61 bf ae 2a 9f be 24 37 01 40
       0.09265335 -0.88133377 -0.3108725 2.0189905
0000c0 26 86 0e c0 a9 63 16 3f 84 f8 d6 bd 29 e4 2f 3f
       -2.2269378 0.5874582 -0.10496619 0.6870752
0000d0 e1 6b 33 bf 6b 05 48 bf df cc 99 bf 1c 04 de 3e
       -0.70086485 -0.7813327 -1.2015647 0.4336251
0000e0 1f d6 86 be 6f c5 79 3f 24 56 d6 3f aa 58 e5 3e
       -0.26335236 0.97566885 1.6745038 0.44794208
0000f0 09 4e 14 c0 e9 c8 d2 3e b9 e1 b4 bd 51 d9 a8 3f
       -2.317263 0.41168907 -0.08832116 1.319132
000100 f2 34 e6 3f c1 88 60 bf bc f3 ab 3e e5 99 99 bf
       1.7984908 -0.8770867 0.33584392 -1.200009
000110 fb 25 fa 3e 3a ac ec bc bf 65 55 be 64 46 a0 3e
       0.48857102 -0.028890718 -0.20839594 0.31303704
000120 e7 50 84 bf 87 dc bd 3f 11 af 7b bf 87 aa 90 3f
       -1.033719 1.4832925 -0.98314005 1.1302041
000130 95 76 90 bf 09 b3 c8 bf bb 69 3a 3f f7 5f f6 be
       -1.1286188 -1.5679637 0.7281758 -0.4812009
000140 08 ea d8 bf 22 6a 64 3f 1b b3 0f 40 73 44 fb 3e
       -1.6946421 0.89224446 2.2453067 0.4907566
000150 15 17 8f bf 46 dd 31 3f 1d 2e 9b bf 0f b4 17 c0
       -1.1178919 0.6947826 -1.2123448 -2.370365
000160 ca 34 47 3f 9c d4 b8 be 5e 1b 13 c0 01 8b 86 bf
       0.77814925 -0.36099708 -2.2985454 -1.0511171
000170 5a 11 25 be ab dc 31 3e e0 e0 65 3f b9 e0 2b 3d
       -0.161199 0.17369334 0.89796257 0.04196236
000180 d6 b5 1f be 3d 18 9b 3c 2e 1a b6 3e fb ec ff 3e
       -0.15596709 0.018932456 0.3556685 0.4998549
000190 81 28 54 3f 98 9d d9 be c5 11 62 3f bf aa 9d bd
       0.82874304 -0.42503047 0.88308364 -0.07698583
0001a0 ed 7b 2d bf 00 d9 01 3e ba 7d d5 3f f9 99 81 3f
       -0.6776722 0.12680435 1.6678994 1.0125114
0001b0 5d 30 2d bf 20 63 d5 bf 76 a6 85 bf 3d e7 5c bf
       -0.6765192 -1.6670876 -1.0441425 -0.8629034
0001c0 e2 2e a7 3d 15 ef 28 be bd 81 90 bf 4d ce 63 bf
       0.08163239 -0.16497453 -1.1289593 -0.88986665
0001d0 55 9f 93 3f c3 2b c3 3f 3a bf 92 3f 1f 5f d0 bf
       1.1532999 1.524773 1.1464608 -1.6279029
0001e0 fd f5 a3 3f 7f 6f 1d bf 72 f2 05 bb 68 f9 ad be
       1.2809445 -0.61498255 -0.0020438698 -0.33979344
0001f0 cd 66 06 3f 07 91 43 3f 1d 22 b4 3f f1 90 87 3e
       0.5250061 0.7639317 1.407291 0.2647777
000200 4d 26 49 3f ad 34 82 3f 2d 63 96 bf 31 78 fc 3e
       0.7857407 1.0172325 -1.1749016 0.4931045
000210 ab 33 17 3f 6c 97 79 3f 7d 73 a0 3f 3e e0 6a 3f
       0.59063214 0.97496676 1.2535244 0.91748416
000220 95 9b 9a bc bb 4e 2e c0 aa 31 e6 3f bc 90 c4 3e
       -0.018873015 -2.7235553 1.7983906 0.38391674
000230 3c 70 df 3e 76 8c a1 bf d4 78 91 bd 78 aa cc 3e
       0.43640316 -1.262099 -0.07103124 0.39973807
000240 77 f8 e0 be 73 60 ad be 7f ed 28 3f 72 bc d2 3e
       -0.43939564 -0.33862647 0.6598739 0.41159397
000250 00 41 60 3f 09 04 67 be 78 e2 a3 3f 2f d6 14 c0
       0.8759918 -0.22560133 1.2803488 -2.3255727
000260 5a ad 23 bf 84 15 58 3f ca ce 82 bd 61 01 0a bf
       -0.6393639 0.8440783 -0.06387098 -0.53908354
000270 20 3d 4b 3e 9a ef f3 be f1 57 91 be 43 08 42 3f
       0.19847536 -0.4764374 -0.28387406 0.75793856
000280 75 cf 3d 3f ec 85 6f 3e 1b 64 da 3f 59 09 a0 bf
       0.7414468 0.23390931 1.70618 -1.2502853
000290 ec ae 87 3c 18 2f 15 3f 79 5b c1 3f 55 e5 57 be
       0.016562901 0.58274984 1.510604 -0.21083577
0002a0 98 eb 5e bf ef 88 b4 3e 17 48 9c 3f 71 8c 35 3e
       -0.8707824 0.35260722 1.22095 0.17729355
0002b0 33 11 30 40 d5 2d 6f 3f 1a 07 a3 3f e9 1e 15 40
       2.7510498 0.9342931 1.2736542 2.3300116
0002c0 78 25 06 c0 8c b1 fd bf f4 f2 b3 3f a5 de 33 3f
       -2.096037 -1.9819808 1.4058518 0.70261604
0002d0 6f 6a f6 3e 93 2d 1f 3e fd 95 6b bf 7c c8 2a 3f
       0.48128077 0.15544729 -0.9202574 0.66712165
0002e0 06 96 6b bf 64 e0 12 40 d5 6c 13 3f 8d 38 e7 3f
       -0.9202579 2.2949457 0.5758794 1.8064133
0002f0 55 33 35 3f 5a 67 c6 3e 4b 96 30 3e 22 83 ba 3e
       0.7078145 0.38750726 0.17244832 0.3642817
000300 85 dc a4 3f 4f ac d3 bf 7f 46 2b 3c 39 a7 84 be
       1.2879797 -1.653696 0.010453819 -0.2590883
000310 84 7f ce bd da 82 8d 3e ca f7 5f bb aa ef 1e be
       -0.100829154 0.27638894 -0.0034174793 -0.15521112
000320 8d a9 cf 3f 3c 26 3f bf 26 0c ed bd d8 f6 4d 3e
       1.6223618 -0.74667716 -0.11574583 0.20113695
000330 16 79 34 bf 69 57 cd 3f 1d 70 63 bf 52 75 13 3f
       -0.7049726 1.60423 -0.88842946 0.5760089
000340 1e 9d 59 bf e7 ae 8c bf 1c c9 35 3d be 4d e0 3f
       -0.85005367 -1.0990876 0.044381246 1.7523725
000350 26 0a d9 bf 3d f3 b3 bf 5d 76 c9 3f 61 c9 dd be
       -1.6956222 -1.4058605 1.5739247 -0.43317702
000360 52 e2 2d 3f 70 54 1f 40 2c 16 6c bf f3 fc 17 3f
       0.6792346 2.4895287 -0.9222133 0.59370345
000370 98 f1 e2 be b8 50 81 3f ca dd 45 3c e6 64 29 3e
       -0.44324946 1.0102758 0.012076804 0.16542396
000380 c7 cd 1a 3f 9c 75 2f bf 08 83 57 3f 06 81 8d bf
       0.6047024 -0.6853883 0.8418431 -1.1055
000390 f8 d9 b7 3f 60 35 85 3f 60 da 90 3d 80 b0 81 3d
       1.4363394 1.0406914 0.07072902 0.06332493
0003a0 d5 88 e9 3e 94 66 e7 be b3 72 58 3f ed de 35 bf
       0.45612207 -0.45195448 0.8455002 -0.7104328
0003b0 5e 5e f7 be 14 43 70 be 8f 79 68 3e ac 9c ce 3f
       -0.48314184 -0.23463088 0.22702621 1.6141562

weight f4 [48, 48]
000000 4f 96 e1 bd 97 bf 8e 3f 17 1a 6b bf e2 2e 37 c0
       -0.11014997 1.1152219 -0.91836685 -2.8622365
000010 02 d4 9a 40 5d f0 98 c0 53 47 a5 c0 b3 4e 9b c0
       4.83838 -4.779341 -5.1649566 -4.853357
000020 f6 68 ca bc 98 66 07 c0 1d a9 a4 c0 1a 87 98 c0
       -0.024708252 -2.1156368 -5.1456437 -4.766492
000030 d0 d7 98 c0 a9 61 71 3e 59 3f ca bf 0d e1 5f 3f
       -4.7763443 0.2357241 -1.5800582 0.87452775
000040 b5 0f a8 40 b6 06 88 3f 96 94 7d 40 ff 6f 81 3f
       5.2519174 1.0627048 3.962194 1.0112303
000050 9e 3a 52 40 a0 b8 ac 3f 67 44 9f 40 ff 00 a8 40
       3.2848277 1.3493843 4.9771 5.2501216
000060 8c 0e 81 c0 5a 1b a8 c0 ef 4b 89 be cc 24 2a 3f
       -4.0330257 -5.253339 -0.26815745 0.664624
000070 c1 b9 8d 3f e4 06 8f c0 fe c2 dc 3f ed 50 08 c0
       1.1072313 -4.469591 1.7247007 -2.1299393
000080 d5 73 82 40 70 d5 c5 bf 76 1b d9 bf 00 c8 ff bf
       4.0766397 -1.5455761 -1.6961505 -1.998291
000090 59 a5 a1 c0 27 76 6f 3f c1 22 7f 40 32 23 ae c0
       -5.051434 0.9353966 3.9864962 -5.4417963
0000a0 70 50 91 3f be c0 42 3f 8a 7e 4c 40 d6 27 fd bf
       1.1352673 0.7607535 3.1952233 -1.9777782
0000b0 2a 20 44 3f 4c 74 0d 40 30 5b ad 3f c4 5e 9c bf
       0.7661158 2.2102232 1.3543453 -1.221642
0000c0 6e 7d ef bf ea af 1c c0 99 fa 89 bf 83 58 69 be
       -1.8710153 -2.448237 -1.0779601 -0.22787671
0000d0 34 aa 66 bf 7a 97 93 bf 15 de 46 bf 8b 8e 8f 3e
       -0.9010346 -1.1530602 -0.7768262 0.2803844
0000e0 1f bb 07 40 3e 3d 3f bf e5 95 f9 be f3 e6 1a bf
       2.120796 -0.74702823 -0.48747173 -0.6050865
0000f0 b9 ac c4 bf f9 6a 15 3f 3c 5f d9 3e bb b0 31 bf
       -1.5365211 0.5836635 0.4245547 -0.69410294
000100 43 92 2a 40 c9 96 23 c0 a0 56 28 bf d2 5f 9e bf
       2.665177 -2.5560782 -0.6575718 -1.2372992
000110 66 00 fc be 29 30 1f c0 17 22 70 40 92 27 d2 3c
       -0.49219054 -2.4873145 3.7520807 0.025653634
000120 77 99 c8 be f7 73 14 bf 9c f1 1c 3f 07 41 2b c0
       -0.39179584 -0.5798945 0.61306167 -2.675844
000130 d0 c3 9d bf 69 70 6f bf cf dd 0f 3f b9 27 f8 3f
       -1.2325382 -0.935309 0.5619783 1.9387122
000140 c3 d5 c6 bf 66 4e 0e 3f 28 0f 6e 3e f3 ea 78 bf
       -1.5533985 0.55588377 0.23247969 -0.97233504
000150 6e 1b c7 bc b5 d7 ea bf 62 f7 3a 40 13 1c 55 3f
       -0.024305072 -1.8347079 2.921349 0.8324596
000160 1c ae 25 c0 17 d1 24 c0 38 61 3d 40 7e 7f 65 3f
       -2.5887518 -2.5752618 2.9590588 0.8964766
000170 a1 75 82 bf 29 f3 3b 40 cc b1 69 40 ae 25 9f 3f
       -1.0192147 2.9367163 3.6514769 1.2433374
000180 82 e6 04 c1 88 ed de bd 24 11 ef be 43 c7 33 c0
       -8.306276 -0.10885149 -0.46692765 -2.809037
000190 aa a6 8b 40 44 7a 68 c0 28 b5 63 c0 fe 6d 43 c0
       4.3640947 -3.6324625 -3.557932 -3.0535884
0001a0 ed c0 23 41 49 91 b3 bf 60 c9 9c bf d6 fc 85 c0
       10.234601 -1.4028713 -1.2248955 -4.187114
0001b0 df a8 15 c0 19 20 80 3f f3 07 e1 bf db 08 05 3d
       -2.338432 1.0009795 -1.7580551 0.03247915
0001c0 3d 36 c6 40 54 d0 8d be 1d e4 50 40 28 ca 13 3e
       6.194121 -0.27698004 3.263923 0.14432585
0001d0 5a 32 ab 40 64 99 cc 3d 46 59 44 40 74 b0 89 40
       5.3498964 0.099901944 3.0679488 4.3027897
0001e0 54 b4 74 c0 d9 d6 46 c0 f7 91 b4 bf 84 ac 2b bf
       -3.8235064 -3.1068633 -1.4107045 -0.6706011
0001f0 9c bc d5 3e c7 e7 4e c0 44 f1 a2 3f fa 59 11 bf
       0.4174546 -3.2328966 1.2729878 -0.5677792
000200 90 d4 87 40 5f f7 8c 3e be d8 72 bf 87 b7 a6 bf
       4.2446976 0.2753248 -0.9486197 -1.3024758
000210 bc ea 89 bf 5a 88 60 3f 9e 96 68 40 1d 81 84 c0
       -1.077476 0.87708056 3.634193 -4.140761
000220 ab 57 6f 3f c8 1b 1c 3e c7 f9 15 40 28 03 79 bf
       0.93493146 0.15244973 2.3433702 -0.9727044
000230 f3 84 2c bd a5 f6 d7 3f ca 11 d0 3f de ce 3b bf
       -0.042118978 1.6872145 1.6255429 -0.7336253
000240 1b 33 b2 3e 53 1c 16 3f 80 c7 f3 be 71 ce 78 bf
       0.34804615 0.5863697 -0.47613144 -0.97190005
000250 a0 ac 99 3f 77 b0 38 bf 66 6d 02 bf 77 1b 0c bf
       1.2005806 -0.72144264 -0.5094818 -0.5472941
000260 51 e4 6f 3f 8b 72 b4 bf 8a 16 72 bf ed 88 5e 3e
       0.9370776 -1.4097456 -0.9456564 0.2173192
000270 24 57 92 bf 30 20 7e 3f 42 fb ad bf 15 28 4e 3e
       -1.1432843 0.99267864 -1.3592303 0.20132478
000280 04 58 ad 3f c0 0e 52 3f 30 7f 05 bf 34 e2 11 bf
       1.3542485 0.82053757 -0.521472 -0.56985784
000290 fa 46 35 3e 2a 9c b0 3f d9 8c d1 3e b2 f5 a6 3e
       0.17702857 1.3797657 0.4092777 0.32609326
0002a0 fd da b5 3e 9f 87 b5 bf 7d 87 06 40 59 9e 4e 3e
       0.35518637 -1.4182013 2.1020195 0.20177592
0002b0 35 18 b3 3e da c4 9a bf 1d 6f 99 3f c2 72 a4 bf
       0.34979406 -1.2091324 1.1987034 -1.2847521
0002c0 5d 7f 39 3f 5f 24 3d bf 30 77 00 bf 4d 9e b1 40
       0.72459966 -0.7388362 -0.50181866 5.550574
0002d0 2d b2 0c 3f 9d 9e 8d 3f 75 53 8f 3f c0 19 0d bf
       0.54959375 1.106403 1.1197344 -0.55117416
0002e0 5f e0 3b 3f 1b 02 29 3f cf 3b f7 3d 4d 1f 32 bf
       0.7338924 0.6601884 0.120719545 -0.6957901
0002f0 a3 34 40 3f eb 51 e7 be 76 2d 62 3f f5 c7 54 bf
       0.7508032 -0.45179686 0.8835062 -0.8311761
000300 6c 4c fe 3d 0d d5 5a 3f 9f 54 44 bf 02 d4 03 3f
       0.1241692 0.8548134 -0.7669162 0.51495373
000310 26 36 05 bf 58 b6 87 3e 48 2a 0f be 6e 3b 29 be
       -0.5203575 0.26506305 -0.13980973 -0.16526577
000320 94 f9 48 be 86 ef 38 bd ba b4 44 3f e4 14 10 3e
       -0.19626456 -0.045150302 0.76838267 0.14070469
000330 be 07 b5 3e d0 9b 3c bf cf b0 86 3d 0f 48 e7 3e
       0.3535747 -0.7367525 0.06576692 0.45172164
000340 23 ef 06 bf 82 cf 8c 3e 0b 8d 46 be b6 96 a3 3f
       -0.52708644 0.27502066 -0.19389741 1.2780368
000350 ae 63 20 be ac 14 ba bd 41 bd 3a bf b5 a6 5f be
       -0.15663025 -0.09085974 -0.7294503 -0.21840937
000360 3f 46 4e 3d 2e db e9 3e 30 c8 8f bd b4 5a 40 3f
       0.05035996 0.45675033 -0.070206046 0.751384
000370 94 4e 3d 3f f3 e5 7c 3f 95 73 a3 3e 8f 92 3a bf
       0.73948026 0.98788375 0.3192412 -0.7287988
000380 6f 2e 2d bf 8c d2 b5 be d0 a0 54 3d a2 e6 dd bd
       -0.6764898 -0.35512197 0.051911175 -0.10835005
000390 ac ea f1 bc 7f da a0 3e 4b aa 54 bf 77 a1 1a 3f
       -0.029530846 0.314167 -0.83072346 0.60402626
0003a0 f2 da 10 3f 61 31 05 3f 9b cc b6 be 14 82 15 3e
       0.56584084 0.5202847 -0.35702977 0.14600402
0003b0 fe 00 06 3f 68 18 68 bd 2c 71 3d be 7a 95 35 bf
       0.52345264 -0.0566639 -0.18500203 -0.7093121
0003c0 de 46 47 bf 7f 2a 30 c0 5c 1c 28 3f 8e 32 80 be
       -0.7784251 -2.7525938 0.6566827 -0.2503857
0003d0 dd e9 93 bd 5d 33 d1 3e 9d 68 71 3e 59 5c 01 bf
       -0.0722234 0.408595 0.23575063 -0.50531536
0003e0 c3 4e e1 3e d4 e8 07 3f 5a b2 25 3f ee 30 89 bf
       0.44005403 0.5308964 0.6472527 -1.0718057
0003f0 21 a3 1f bf 3a c6 a7 bf 1e 25 dd 3e 52 08 8c bf
       -0.6235829 -1.3107369 0.4319238 -1.0940039

bias f4 [48]
000000 dd 5c 5a 3e b2 0f 1d bf 95 08 80 40 99 88 9e c0
       0.21324487 -0.61352074 4.0010476 -4.9541745
000010 9c 70 d0 40 27 5c 7e 40 e7 ed 85 40 9c 2c 23 bf
       6.5137463 3.9743745 4.185291 -0.63739944
000020 f0 b2 1d be cb ab a0 40 13 96 6a 40 0a ea 25 bf
       -0.1540029 5.020971 3.6654098 -0.6481024
000030 8f fc c3 40 75 5e 6d 40 92 09 0f 40 28 8d b5 c0
       6.12458 3.7088902 2.2349591 -5.673481
000040 32 b7 89 40 86 bf c3 40 09 6a 83 40 b2 ef 2a 40
       4.3036127 6.1171293 4.1066937 2.6708798
000050 0b 75 0a c0 13 4f 11 3e 76 e7 7e 3f 30 eb 27 40
       -2.1633937 0.1419032 0.9957193 2.6237297
000060 52 cc b0 3f a5 69 be 40 47 45 72 40 20 2b 2f 40
       1.3812354 5.950396 3.7854784 2.7370071
000070 02 1e 9c c0 ee b7 b8 c0 c6 ae 0b 40 3e 1a 85 40
       -4.878663 -5.7724524 2.1825423 4.1594534
000080 72 44 28 bd d4 21 b1 bf 78 ee 26 bf af e4 5d 40
       -0.0410809 -1.3838449 -0.65207624 3.4670827
000090 df 30 c8 40 58 7b 97 3f d1 08 b8 3f 96 d0 b5 40
       6.2559657 1.1834517 1.437769 5.681712
0000a0 8c ec e2 3f f9 51 fe bf 53 60 7a 40 59 2a 82 40
       1.7728438 -1.9868766 3.9121292 4.0676694
0000b0 12 1a 04 40 17 22 04 40 65 19 07 40 81 1d e6 3f
       2.0640912 2.0645807 2.110925 1.7977754

weight f4 [48, 48]
000000 35 89 71 3e b9 ed 0d be f6 4d b9 be c1 a8 b8 be
       0.23587497 -0.13860215 -0.36192292 -0.3606625
000010 af 49 f5 bd 3f cf 00 bf de c4 da 3e 5c 59 45 3e
       -0.11976945 -0.5031623 0.42728323 0.19272369
000020 21 a4 bd bd a8 77 10 3e 21 61 e3 3d 15 c8 6b 3e
       -0.09259821 0.14108145 0.1110251 0.23025544
000030 8a b3 19 bd 4b bd ce bd ef 11 ee be 03 04 c5 3e
       -0.037524737 -0.100946985 -0.46498057 0.38479623
000040 70 b0 67 3e 81 dd ea 3d 9a 26 80 be ff 76 de 3e
       0.226259 0.1146803 -0.2502945 0.43450162
000050 47 64 bb 3e 05 10 0c bf 34 be 11 3e 77 4d 60 be
       0.36599943 -0.54711944 0.14232713 -0.2190455
000060 bc 6a 0a ba 85 73 4e 3e dc 88 56 3e 7a f5 fe 3e
       -0.0005280187 0.20161255 0.20950645 0.4979666
000070 5e fd 1a bc 3d 6f 78 3e 0d 6b 9e be e4 67 01 3f
       -0.0094598215 0.24261184 -0.30941048 0.5054915
000080 ea bd d4 be cc 67 89 be 3e 65 3b 3e ce f5 1c 3e
       -0.41551143 -0.26837003 0.1830034 0.15328142
000090 e7 85 e2 3d e9 58 6f be be 78 62 bf a5 d9 2b bf
       0.11060696 -0.2337376 -0.8846549 -0.67128974
0000a0 c2 a0 a1 3d f0 ae 5c 3d 16 1b dc bd 7c f8 a5 3e
       0.0789199 0.05387777 -0.10747354 0.3241614
0000b0 d6 df b6 3e 53 1b 72 bd e4 5d a9 3d 3a 06 40 3d
       0.35717648 -0.05910809 0.08269861 0.046880938
0000c0 b3 b8 98 3e d1 a6 1f 3f c9 c7 80 be 3c 66 cc bf
       0.29828414 0.62363917 -0.25152424 -1.59687
0000d0 1b 37 7f 3e a5 1b 5b be d4 cc 54 3e 96 c7 06 c0
       0.24923365 -0.21397264 0.2078126 -2.1059318
0000e0 b5 26 b8 3f 93 3e 3c 3f 26 2f c2 bf 26 6e d2 be
       1.4386812 0.7353298 -1.5170639 -0.41099662
0000f0 f7 37 d6 be e3 f0 a6 3f b9 9c d9 3f e3 00 f3 be
       -0.41839573 1.3042263 1.7000953 -0.47461614
000100 43 8d 08 40 3c ff dc bf 27 d0 14 be a6 e4 58 c0
       2.133622 -1.7265391 -0.14532529 -3.3889556
000110 e6 b9 9c bd 75 8e 16 40 d1 e0 81 3e 74 de 40 40
       -0.07652645 2.352445 0.25366834 3.0135775
000120 61 94 03 bf cf d7 9e be 8c 2b 77 3f 9a 38 82 bf
       -0.51398283 -0.31024024 0.9655082 -1.0173523
000130 29 92 69 3f 91 5a 11 bf e2 b5 6d 3f 80 55 51 bf
       0.9123865 -0.5677882 0.92855656 -0.8177109
000140 e4 cd 9e be 1c 25 18 3f 94 91 e5 bf bc db 52 bf
       -0.31016457 0.59431624 -1.7935052 -0.8236654
000150 ba 07 1e bf 10 35 fe bf 39 af 19 3f 9a 0f 80 bf
       -0.6173054 -1.9859943 0.60032994 -1.0004761
000160 80 1e 6a 3f 31 ec 8a 3f 28 d5 64 bf 28 14 1a be
       0.9145279 1.085333 -0.8938775 -0.15046751
000170 17 cb 62 bf 6e fa 22 bf 41 1e e4 3f cc 99 aa bf
       -0.8859114 -0.63663375 1.7821733 -1.3328185
000180 c4 64 3e be 81 e3 40 bf 3f 80 ae 3c 8e 93 0a 3d
       -0.18593127 -0.75347143 0.021301387 0.033832125
000190 9e 51 13 bf c4 0d 0b 3f a0 21 f6 3e 75 c0 1c bf
       -0.5754641 0.5431788 0.4807253 -0.61231166
0001a0 d1 ba 02 3d 61 ab 5f 3e f4 a7 9a 3d e7 cf 10 bf
       0.031916443 0.2184272 0.07551566 -0.56567234
0001b0 0c 54 e5 be 5f 54 42 3e 05 62 6f bf fb 29 35 3f
       -0.44790685 0.18977498 -0.9350894 0.7076718
0001c0 4c 91 32 bf ce e5 4a be 95 3f 3c 3d ae 9e 3e 3f
       -0.69752955 -0.19814226 0.045959074 0.74460876
0001d0 63 8c cf 3c 7a 10 9d be 2f 21 e7 be 21 e9 1b bd
       0.025335496 -0.30676633 -0.45142505 -0.038064126
0001e0 05 83 e7 be 65 e9 90 3e e0 c5 01 3e b9 80 93 3f
       -0.45217147 0.28303066 0.1267314 1.1523658
0001f0 71 09 de 3c 08 50 c4 bb 8c 73 cd be 41 ab 35 3f
       0.027104111 -0.005990986 -0.40127218 0.7096444
000200 d0 93 e5 bd 11 16 11 be 82 ef 07 3f 60 6e a1 be
       -0.112098336 -0.14168574 0.53099835 -0.31529522
000210 11 20 61 be 7e 2d 68 3e 4a f2 2f be 0b f9 6e be
       -0.21984889 0.22673604 -0.1718227 -0.2333719
000220 15 a5 96 bf 23 71 86 3d ac 96 3a be 0e 8b d1 3e
       -1.1769129 0.06564548 -0.1822154 0.40926403
000230 0d e6 c0 3e b3 3d b2 bd 70 fa 8c 3c 9f 11 ce 3e
       0.37675515 -0.087031744 0.017209262 0.4024782
000240 e9 c1 29 bc 90 c6 3c 3e 1b 78 73 be cf f8 0f bf
       -0.010361173 0.1843512 -0.23776285 -0.56239027
000250 a0 4b fd 3e d9 99 ff be 8b 09 1a 3e c8 5c 92 bd
       0.4947176 -0.49922064 0.15042703 -0.07146603
000260 17 d8 fc 3d 27 5f 56 be fa c2 97 be 02 ec 5c be
       0.12345903 -0.20934735 -0.29640943 -0.21574405
000270 16 90 57 be 8b 99 04 be 5c 72 68 3e 13 01 41 3d
       -0.21051058 -0.12949197 0.22699875 0.047120165
000280 44 68 66 3d 50 5f 9b be a6 ab 23 be 80 41 8b bc
       0.05625178 -0.30346155 -0.15983447 -0.016999006
000290 de a8 f9 3d 80 f1 d0 be 5d ce 62 3e c9 ff 1f 3f
       0.12190412 -0.4080925 0.22149034 0.6249967
0002a0 12 6e fb bd cf 4f 3c be 0f aa ab 3d e2 71 97 be
       -0.122768536 -0.1838982 0.083820455 -0.29579073
0002b0 7d 9d 36 3d dd 9d 3c be 79 93 ff 3d 17 0c f2 3e
       0.044583786 -0.18419595 0.124793 0.4727485
0002c0 c8 cf 63 be f3 81 41 3e 45 b9 f3 3d ed d5 2c be
       -0.22247231 0.18897228 0.11900572 -0.16878481
0002d0 56 09 a4 be 98 cb a2 be ca 29 01 3f 59 b9 86 3c
       -0.32038373 -0.31795955 0.5045439 0.016445803
0002e0 27 fa 3c 3e 89 f7 c9 3d 25 c8 b1 3c 2c 37 a2 3d
       0.184548 0.09861667 0.021701882 0.079206795
0002f0 31 d6 d2 be 26 89 7d 3d 9b 65 db 3e de b5 b9 3e
       -0.4117904 0.061898373 0.42850956 0.36271566
000300 50 e0 68 3e 58 8f 14 3f 33 82 43 bf 1f 6f a9 bf
       0.22741818 0.58031225 -0.76370543 -1.3237036
000310 cd 17 00 40 2c 29 d9 bf ed f0 db bf 79 52 20 c0
       2.0014527 -1.696569 -1.71829 -2.5050337
000320 b3 ec 5e 40 36 e9 ea be d1 ad 08 c0 c8 ed 07 c0
       3.483197 -0.4588105 -2.135609 -2.123888
000330 61 9d f9 bf 66 33 d5 be 3b 74 86 bf d6 cf 14 3f
       -1.9501153 -0.41640776 -1.0504221 0.5812963
000340 7d 37 2c 40 ab 82 0b 3f 5d d6 18 40 a9 3c 47 3f
       2.6908867 0.5449626 2.3880837 0.77826935
000350 38 c0 d2 3f 1a 99 09 3f bd 2f eb 3f d3 c9 37 40
       1.646491 0.5374924 1.8373944 2.8716934
000360 5a 7f 0f c0 48 82 ba bf cf 34 78 be 58 79 b4 3f
       -2.242148 -1.4571009 -0.24238895 1.4099531
000370 6f 4e 30 3f 95 22 f0 bf 7b 0f 6c 3f b5 5e 87 bf
       0.6886968 -1.8760554 0.9221112 -1.0575777
000380 0b aa 06 40 4d f5 ca be 94 da 92 bf 8a c4 5d c0
       2.1041286 -0.39640275 -1.1472955 -3.4651208
000390 81 8c 22 c0 da d1 36 3f 9d 3f fd 3f a6 76 b6 bf
       -2.5398257 0.7141396 1.9785038 -1.4254959
0003a0 57 05 2e 3f 6a 13 28 3f 26 a4 0a 40 1e ca c0 bf
       0.679769 0.65654624 2.1662688 -1.5061681
0003b0 51 6d 07 3f 0d e5 eb 3f d3 d0 7e 3f d9 c5 eb be
       0.5290118 1.8429276 0.9953739 -0.46049383
0003c0 4f fe dc bd 66 e4 ff 3e 40 06 6e bf 09 f3 e5 bd
       -0.10790693 0.49978942 -0.92978287 -0.11227996
0003d0 4c 77 9b 3f d8 2e 92 bd f9 81 a5 bf 96 50 b3 bf
       1.2145782 -0.07137841 -1.293029 -1.4008968
0003e0 80 69 58 3e 9e 3f c5 bf 48 cb b6 bd be c4 c4 bf
       0.21133995 -1.541004 -0.089254916 -1.5372541
0003f0 d2 13 5d bf 4f f8 98 3e 48 4f a2 bf 32 31 27 bf
       -0.8635837 0.29876944 -1.2680445 -0.6530944

weight f4 [48, 48]
000000 09 a8 dc be 34 8a 8f 3f bc 21 c5 be 48 b7 f7 bc
       -0.4309695 1.1214051 -0.385023 -0.030238762
000010 45 72 d1 bf 61 fb db bc 03 0e 43 bc 4c 5c 51 be
       -1.6362997 -0.026853265 -0.011905196 -0.20445365
000020 1f 09 9a 3d 57 29 cd be b3 f2 14 bf 58 da f9 be
       0.07521271 -0.40070602 -0.5818283 -0.48799396
000030 a2 f8 2c 40 7e 8c 46 bf 6b f4 00 be 79 b4 7a be
       2.7026753 -0.77558124 -0.12593238 -0.24482907
000040 3a 0e 95 bd dc 00 1b 40 cc 51 b7 3d 2d 19 b2 bd
       -0.07278104 2.4219275 0.089511484 -0.08696208
000050 4b f8 dc 3f 0f d0 07 bf 32 0f 3d be f5 7d dc bc
       1.7263273 -0.5305185 -0.18462828 -0.02691553
000060 86 c4 0f 3f ce 38 7b bf 0d 0f fd be 18 bf 51 be
       0.56159246 -0.9813355 -0.49425545 -0.20483053
000070 8e 5a 29 3e ec 84 ff be 5d 3d 79 3e bc d4 c0 3d
       0.1653845 -0.499061 0.24339814 0.09415576
000080 07 c2 a7 be 12 9a 9b 3e 35 49 b8 bf 56 7a 88 3c
       -0.3276522 0.30390984 -1.4397341 0.016659897
000090 f5 14 46 bf c4 aa 4b bf f4 96 04 be 76 c8 51 bf
       -0.7737573 -0.7955744 -0.12948209 -0.81946504
0000a0 18 ea 50 3f 24 85 6b bd a3 37 c0 bd 3f a6 89 3f
       0.816072 -0.05750002 -0.09385612 1.0753859
0000b0 f8 39 3d bf 48 5d ad bf 65 34 a5 be a1 ae 1c be
       -0.7391658 -1.3544092 -0.32266536 -0.1530099
0000c0 17 42 de 3e db e6 18 3f 04 a2 0a bf 19 76 a0 3e
       0.43409798 0.5972726 -0.54153466 0.313401
0000d0 f7 86 8c 3e 0d 1d b7 bf 20 39 ac be 26 55 b0 3f
       0.2744672 -1.430574 -0.33637333 1.3775985
0000e0 e5 b9 40 be 15 44 10 bf fc 47 21 bf 39 ff 72 bf
       -0.18820913 -0.56353885 -0.63000464 -0.9492069
0000f0 50 b0 08 3d de 52 b4 be 6e 3d 40 3f d1 04 45 3f
       0.03337127 -0.35219473 0.75093734 0.76960474
000100 d4 c6 04 bf d5 1b b9 3e 7f 0d 1d be b4 d4 6c be
       -0.5186589 0.36154047 -0.1533718 -0.23128015
000110 31 44 bc bd 3d aa db 3e 69 8c 13 3f d0 b9 d3 3e
       -0.09192694 0.4290332 0.57636124 0.413527
000120 af 80 75 3f d6 49 aa bd b7 0d 36 bf aa ab 27 bf
       0.9589948 -0.08314864 -0.7111468 -0.65496314
000130 22 0e 4e bf e4 03 12 3f 2a 1e c2 be c6 52 3c be
       -0.80490315 0.57037187 -0.37913638 -0.1839095
000140 1c a2 cf 3e 2d 7f a1 be c1 bd 1b 3f 74 a3 70 be
       0.40553367 -0.3154234 0.60836416 -0.23499852
000150 4c da 22 be c5 04 c4 bf f5 22 45 3d b7 31 8d bd
       -0.15903586 -1.5313956 0.04812904 -0.06894248
000160 37 55 72 bf 4c 7c ab be fc c5 6d 3e e4 6a 89 bf
       -0.9466128 -0.33493268 0.23220056 -1.0735745
000170 f8 4b 5e 3e 56 a1 1b bf 81 4f a4 3e 34 2c 99 bf
       0.21708667 -0.60793054 0.32091907 -1.1966615
000180 06 1b cd bd bd 0a a4 3f c8 b2 b0 3f 50 bd 6b 3e
       -0.1001492 1.2815777 1.380456 0.23021436
000190 4c 03 a9 3d e4 a5 97 be a4 68 0b 3f 61 44 c4 bf
       0.08252582 -0.29618752 0.54456544 -1.5333368
0001a0 57 0e 88 3e bb 7a b3 3e 0e b3 04 40 6d 22 83 bf
       0.2657344 0.35054573 2.0734286 -1.0244881
0001b0 29 3f 98 3e e9 59 0a 40 46 51 f8 3e 9e a9 7d 3e
       0.29735687 2.1617377 0.48499507 0.24771735
0001c0 51 91 0a bf 5e 07 c1 3d cd 0c 22 bf 89 60 00 bf
       -0.54127985 0.09425233 -0.6330078 -0.501473
0001d0 2b 86 07 3f 57 9a 95 be aa 46 8b be 52 c7 fe 3e
       0.529391 -0.29219314 -0.2720235 0.49761444
0001e0 2c a7 18 bf dd 94 04 3e 61 6d 44 bd 28 05 f8 bd
       -0.59630084 0.12947412 -0.047955874 -0.121103585
0001f0 c6 21 82 3d 3b 9c 61 b9 d6 b0 04 bf ff d0 54 3e
       0.06354098 -0.00021515873 -0.5183233 0.2078285
000200 2a f4 3d bf c3 bd 97 be 1c 5f 1f 3e 76 7b ca bd
       -0.7420069 -0.29636964 0.15563625 -0.098868296
000210 a2 6a f6 3e 45 83 66 3f f1 fe 34 bf 29 f7 dc 3e
       0.4812823 0.9004405 -0.7070151 0.43157318
000220 d9 4f 9d bf 43 54 83 3f 8c 76 f1 be 99 58 5b be
       -1.2289993 1.026009 -0.47160757 -0.21420516
000230 6b e2 bb bf 66 6f df 3e 01 30 59 bf cc 69 0f 3f
       -1.4678472 0.43639678 -0.84838873 0.5602081
000240 54 03 c1 3d e3 34 4c bf d2 ed 01 3f 56 f1 88 3f
       0.09424463 -0.797682 0.5075351 1.069865
000250 17 7c 66 3f 13 e4 87 3e 8a f8 94 3e e3 35 b1 bd
       0.90033096 0.26541194 0.2909587 -0.08652856
000260 64 34 0d bf 3a a2 7e 3f 7c 42 38 bf b7 f2 d2 3e
       -0.55158067 0.9946629 -0.7197645 0.41200802
000270 98 36 c1 be 2c 1d 05 bf 7b 46 a3 3f e3 c6 88 3f
       -0.37736964 -0.5199764 1.2755884 1.0685695
000280 90 d9 85 3e c8 78 18 3f 70 90 88 3f 8c 48 a0 3f
       0.2614255 0.595593 1.0669079 1.252214
000290 3a 0f 9d 3e 0a 28 be 3e 42 d9 56 3f 17 74 4b 3f
       0.3067568 0.37139922 0.8392526 0.79474014
0002a0 af 7f 9e 3c 88 f2 17 bf 7d e3 bd ba 63 2c a4 3d
       0.019347994 -0.5935445 -0.0014487352 0.080162786
0002b0 c5 b2 53 3e f1 20 e5 3e 2c 37 c3 3e 25 0b 42 bf
       0.20673664 0.44751695 0.3812803 -0.75798255
0002c0 ae 75 7f 3f 43 f9 00 40 64 b5 30 bf a8 97 35 3f
       0.9978894 2.0152137 -0.6902678 0.70934534
0002d0 33 74 26 3f 38 82 4a bf 58 78 a4 3f a3 67 b5 be
       0.65021056 -0.7910495 1.2849226 -0.3543063
0002e0 b6 48 54 3e a8 4c ea 3e c8 a6 92 3d 9a 19 0b bf
       0.20730862 0.4576161 0.07160717 -0.5433594
0002f0 f4 07 d5 be 6a a7 e2 3f 48 be 10 3f 9f 56 1d 3d
       -0.4160763 1.7707341 0.56540346 0.038412686
000300 b8 52 e0 3e c0 51 6b bf 15 11 ba 3f 5d a6 c1 3d
       0.4381311 -0.91921616 1.4536463 0.094555594
000310 52 ea 40 be 03 ce a3 bf 2b c4 df 3e 31 42 36 c0
       -0.18839386 -1.2797245 0.43704352 -2.84779
000320 c3 67 e1 3e a1 76 1b 3f 00 84 48 bf 54 c5 71 bf
       0.44024476 0.6072789 -0.78326416 -0.94441724
000330 63 11 b8 bd 00 38 80 3f 5e 71 94 3f cc 0c c9 3e
       -0.08987691 1.001709 1.1597097 0.39267576
000340 e1 16 37 3e 44 a6 0d 3f 98 58 7e 3d 29 e2 07 3d
       0.17879821 0.55331826 0.06209621 0.033174668
000350 6b 6d 57 bf 08 81 e7 3e fc 0f 94 bd 1f 5f 3b 3e
       -0.84151334 0.4521563 -0.07229611 0.18298005
000360 01 69 19 3e cc 3d 28 bf 33 8a f0 3e 1f 32 ca 3e
       0.14981462 -0.65719295 0.46980438 0.39491364
000370 10 ef 0e bf 41 ba d8 3e d5 70 66 3e 95 8c ee be
       -0.5583353 0.423296 0.2250398 -0.4659163
000380 62 d5 d0 bc 47 4f c2 3e 12 9f 03 3e 9d ee 14 bf
       -0.025492374 0.3795111 0.1285365 -0.58176595
000390 be f4 42 bf a9 f7 02 bf 01 e9 48 3f 3b 51 91 be
       -0.76154697 -0.5115915 0.78480536 -0.28382286
0003a0 de d1 90 3f 62 ea 6f be 7e 35 b5 be c3 c1 4d be
       1.1314046 -0.23429254 -0.35392374 -0.20093445
0003b0 1d 0e 48 bf b6 60 58 be e5 67 2b bf cb 53 65 3f
       -0.78146535 -0.21130642 -0.66955405 0.8958098
0003c0 78 ba 93 3d da 64 e1 bf e1 12 b5 bf 07 78 54 bf
       0.072133005 -1.7608902 -1.4146386 -0.8299565
0003d0 6c a9 ed be a1 ed 59 bc d9 fc 25 bf 38 07 bf bf
       -0.4641832 -0.013301284 -0.6483894 -1.4924078
0003e0 52 e1 8d bf 59 8c 79 bd 52 15 2c bf 05 f6 bc 3e
       -1.1084387 -0.06092486 -0.6722003 0.36906448
0003f0 7d 0f f9 3d ed 74 2f 3f a3 98 9d be de 6c d0 bd
       0.12161157 0.6853779 -0.30780515 -0.10177015

bias f4 [48]
000000 60 54 a6 3f 75 46 72 3e b4 61 c9 be 1e d7 62 bd
       1.2994499 0.2365969 -0.39332354 -0.055380933
000010 e5 70 77 bf d7 ad e5 3d 51 a5 52 be 8b 8f 23 be
       -0.9665664 0.11214798 -0.20570876 -0.15972726
000020 8b 25 11 3e a3 9c 96 bd 7a 8f 11 c0 6b f7 7a 3e
       0.14174478 -0.07354095 -2.274382 0.24508445
000030 4f f8 89 3e 0d 71 fb bf 53 25 9a 3c ff aa da 3c
       0.26947257 -1.9643875 0.018816626 0.026692865
000040 7e 91 3d 3e e0 00 fd bf 54 9d 09 3d 36 25 1b 3e
       0.18512532 -1.9765892 0.033597305 0.15150914
000050 ba 28 f6 3e d6 1c 5e 3e a0 ff 09 3e ea ca a1 be
       0.48077947 0.21690688 0.1347642 -0.31600124
000060 21 d0 30 be 82 57 e7 3d a5 fe 09 be 32 17 09 3b
       -0.17266895 0.11295988 -0.13476045 0.0020918366
000070 65 86 40 be 10 04 4a 3e d2 a8 fb bd 5e 3b ce be
       -0.18801267 0.19728112 -0.12288059 -0.4027967
000080 e4 1a de bf 3e a8 83 be e1 49 83 bd 70 43 5c bd
       -1.7351956 -0.25714296 -0.06410576 -0.05377525
000090 c2 63 22 3e 80 97 ec be aa 1b 83 3e 23 2a 86 40
       0.15858367 -0.46209335 0.25607044 4.1926436
0000a0 6f 28 5b 3f e1 fa df 3e 43 7e 9b be 20 c2 0e c0
       0.8560857 0.43746093 -0.30369768 -2.2305984
0000b0 59 fb 9b bf 45 a6 91 39 8a f7 04 3d 5a 27 77 3d
       -1.218608 0.00027780436 0.032462634 0.060340263

weight f4 [48, 48]
000000 0b 37 0e 40 9a 5a a3 bf 89 92 4d 3f a3 fd 53 bf
       2.2221096 -1.2762024 0.8030172 -0.82808894
000010 0c ac e3 3e 31 05 62 be 6f e3 26 3d 1b d8 6d bf
       0.444672 -0.22072293 0.04074424 -0.92907876
000020 77 73 f6 be e6 52 b4 be 29 39 b0 3e 01 c5 0d 3f
       -0.48134968 -0.35219496 0.3441861 0.5537873
000030 b4 3a 99 3e 2f 4a 79 3f 6e 51 99 bf 8d ab 8a bf
       0.299276 0.9737882 -1.1977975 -1.0833603
000040 0b a3 9b be 21 53 ae 3e 20 e1 c9 be c3 31 a2 be
       -0.3039783 0.34047797 -0.3942957 -0.3167859
000050 96 76 a7 be b9 c0 0f 40 9a bf 00 3f a7 ef 2b bf
       -0.3270766 2.2461379 0.5029236 -0.67162555
000060 c6 72 be be 36 b7 c4 3e 2c 29 34 3f 09 fb 86 bc
       -0.3719694 0.3842103 0.70375323 -0.016477125
000070 e8 ae ef bb 72 4e 01 bf bf 08 7c 3e 1a eb 33 3e
       -0.0073145516 -0.50510323 0.24612711 0.17570153
000080 95 77 f0 bf 63 40 0b 40 f8 f9 8e 3c 1d 9b 79 3f
       -1.8786494 2.1758049 0.017453179 0.9750231
000090 12 9f 92 3e 0c 1f d2 3e e3 ac 9d bf 90 99 bb 3e
       0.28636986 0.41039312 -1.2318386 0.36640596
0000a0 73 e3 b9 3e ef 5b 7f 3f 6e d0 4e bf c2 e7 ec 3e
       0.36306342 0.99749655 -0.8078679 0.46270567
0000b0 1e 82 22 bf f5 05 d2 be 8f d4 64 bf f4 31 20 3f
       -0.63479793 -0.4102017 -0.8938684 0.6257622
0000c0 77 33 86 3d 80 d5 cb 3d 51 f3 2e bf fd a9 ac bd
       0.06552785 0.09952831 -0.6834002 -0.0843086
0000d0 52 e6 26 bd 58 b6 a7 3d 96 e4 36 3f ab 06 47 3f
       -0.040746994 0.08189076 0.71442544 0.7774455
0000e0 94 4a d4 be ea 6f 72 3e 97 5b 31 3f 90 cd 7b be
       -0.4146315 0.23675504 0.6928038 -0.24590135
0000f0 1b 94 6d 3e 3e cf fa 3e ba fa a4 bf dd 0f b3 3e
       0.23201029 0.48986238 -1.2889016 0.3497304
000100 80 7f 66 bc 9d 0b 09 3f 87 b1 ca be c1 48 4c 3e
       -0.014068484 0.53533345 -0.39588568 0.19949628
000110 f0 9e 55 3f 92 c4 63 3e 5a 3e 7a bf 54 6c d5 3e
       0.83445644 0.22242954 -0.9775139 0.4168421
000120 04 f9 f4 bc 3a d9 ab bd bb d5 91 bd e0 5f 1d bf
       -0.029903896 -0.08391042 -0.07120844 -0.6147442
000130 44 cb 73 bf e4 b0 01 be 1c 62 e6 bd 88 b8 4a 3e
       -0.95232034 -0.12665135 -0.11249182 0.19796956
000140 0b b9 ef 3f f4 23 3f bf 43 a5 a3 bd 9a e0 81 be
       1.8728346 -0.74664235 -0.079905055 -0.2536667
000150 f4 21 1c 3f 55 1a c9 bf c7 41 00 bf 5b fb db 3e
       0.6098931 -1.5711161 -0.5010037 0.42965207
000160 ce 9b e2 3e e8 5c db be a1 20 63 3e 24 3f d9 be
       0.44259495 -0.4284432 0.22180416 -0.42430985
000170 38 40 99 bd eb 07 26 3f 98 34 d7 3d 87 1f fe be
       -0.07482952 0.6485583 0.10508078 -0.49633428
000180 91 d2 bd 3e 2f b7 c7 bf d5 7f d3 be a4 2c 0d be
       0.37074712 -1.5602778 -0.41308466 -0.1378656
000190 ee 9a 89 be 53 2b ad be dd 0b 08 3f e5 f1 cc bd
       -0.26876014 -0.33822116 0.531431 -0.10007075
0001a0 70 d0 50 3e 93 4e 7e 3e 0a e1 55 3f 8a ca 3e be
       0.20392013 0.24834661 0.8354651 -0.1863195
0001b0 d6 3d 39 be b5 4e 55 3f 12 4a e5 be 67 47 41 be
       -0.18089995 0.8332322 -0.44783074 -0.18874894
0001c0 b9 9c 45 3f 3e 5d b3 be f9 3c a4 3e 46 7e 03 3f
       0.77192265 -0.35032076 0.32077768 0.5136455
0001d0 c1 7a 6b bf a8 d6 85 3e 73 e0 94 be 8b 47 14 bf
       -0.9198418 0.26140332 -0.2907749 -0.57921666
0001e0 9d 61 db 3e 01 bc d9 be a0 4d 8a bf d5 e5 bd be
       0.4284791 -0.42526248 -1.0804939 -0.3708941
0001f0 cc 24 a1 3d 70 d2 4e 3f 14 95 3c be 1d 20 dc 3e
       0.078683466 0.8078985 -0.18416244 0.4299325
000200 c3 e6 ba 3f e2 dd 5d bd f5 44 fb bf 4a af 90 be
       1.4601673 -0.054166682 -1.9630419 -0.28258735
000210 84 1a 3e 3e 69 69 9e 3e c5 13 18 3f a0 8e 52 bf
       0.18564802 0.30939797 0.59405166 -0.8224888
000220 3f ba c6 3f e4 e1 ef bf 75 1b e5 3c 6d 00 cb 3e
       1.5525588 -1.8740811 0.027967194 0.39648762
000230 a1 06 42 bf 9b b1 96 bf d9 a1 5a bf eb f2 ef 3e
       -0.75791365 -1.1772951 -0.8540321 0.4686502
000240 8f ce 5f be a0 93 8e bf 54 f4 04 bf 79 6f 40 3e
       -0.2185614 -1.1138802 -0.51935315 0.18792523
000250 34 e2 06 bf fa cb a1 bf c9 e2 81 bf 18 b1 b6 3f
       -0.5268891 -1.2640374 -1.0147334 1.4272795
000260 60 c8 7f 3f f0 c0 17 bf 1d 8d 48 3f 5e 8c 11 3e
       0.99915123 -0.59278774 0.7834032 0.14213702
000270 72 dd a0 be 67 60 17 bf 3c 74 26 3f 39 e0 f8 be
       -0.3141895 -0.59131473 0.6502111 -0.48608568
000280 6c 36 4a bf 99 06 23 bf 00 5e 60 3e 15 72 8b bf
       -0.7898929 -0.6368194 0.21910858 -1.089419
000290 91 30 e8 3f ad 93 16 bf a7 4a a8 bf 0a 7e 02 bf
       1.8139821 -0.58819085 -1.3147782 -0.5097357
0002a0 69 c7 d4 bd a6 86 2d 3e 2c b5 74 3f 19 65 1e bf
       -0.10389597 0.16945896 0.95588946 -0.6187301
0002b0 40 d4 f6 be d8 1b 72 bf 07 84 d7 3e 74 f1 60 3f
       -0.4820881 -0.94573736 0.42092916 0.8786843
0002c0 3c 03 15 bf 42 8d 32 bf 63 59 d7 bf 5c 0e 6a bf
       -0.5820806 -0.6974679 -1.6824154 -0.9142816
0002d0 10 27 a2 3d a7 d3 99 bf aa 5c 42 be 1f 5f 3b 3d
       0.07917607 -1.2017716 -0.18980661 0.04574501
0002e0 52 a3 ad be e3 a6 52 3e 16 78 d5 3e 30 66 82 be
       -0.33913666 0.20571475 0.4169318 -0.25468588
0002f0 de 38 b8 bf 5a 32 b3 3f 9e 09 c4 be 35 e5 3d 3f
       -1.4392354 1.3999741 -0.38288587 0.7417787
000300 8e a2 72 3f ba 22 71 3f 32 d9 65 3f cc 1c a2 3e
       0.9477929 0.94193614 0.8978454 0.31662595
000310 66 c9 d8 bb 3b f9 d4 3d 7f 5c de 3e da a8 aa bd
       -0.0066158054 0.103990994 0.43429944 -0.08332987
000320 b2 62 42 3f 9a f1 68 bf 07 2c 25 bf 9b 95 60 be
       0.7593185 -0.90993655 -0.64520305 -0.2193207
000330 51 22 51 be 61 42 43 bf e6 76 bc be 32 40 0f 3f
       -0.20423247 -0.7627316 -0.36809462 0.5595733
000340 18 42 75 3e cc 8b 0a bf cd b1 f6 be aa 82 66 3e
       0.23950994 -0.54119563 -0.48182526 0.22510782
000350 bc d2 59 3c 05 f9 6d 3f 4d 1e 55 bf ea 5b 51 be
       0.013294872 0.929581 -0.8324936 -0.20445219
000360 b7 e6 94 3e e1 bb 24 3e d8 26 5d 3f 20 1a 38 3f
       0.2908227 0.16087295 0.86387396 0.71914864
000370 b9 70 a6 be 97 17 57 3e 08 e3 a7 3e 02 2f 1c be
       -0.32507876 0.21005093 0.327904 -0.15252307
000380 b7 92 ef 3e 68 9a 5f 3e ae 75 c7 3f 98 5e 79 bf
       0.46791622 0.21836245 1.5582788 -0.97409964
000390 db 12 df be 3a 3c 22 be 9c 09 8c bf 3a 02 33 bf
       -0.43569073 -0.15843287 -1.0940433 -0.6992527
0003a0 bf 31 1c bf fd ed 90 bf 5a 3b 3a 3f 89 d5 80 bf
       -0.61013407 -1.1322628 0.72746813 -1.0065166
0003b0 50 dd 85 3e ee c3 86 3e 4b 86 62 bf b9 d8 c0 3e
       0.2614541 0.26321357 -0.88486165 0.37665346
0003c0 10 73 28 be 15 a6 4b 3f 87 c0 82 3d 61 bb 52 be
       -0.16450143 0.79550296 0.06384378 -0.20579292
0003d0 9d 56 c2 3e 81 29 0b bf ef af 20 bf 04 20 83 3e
       0.37956706 -0.54360205 -0.62768453 0.25610363
0003e0 a0 9f 23 bf 29 75 e0 3e 2b c6 13 bf a9 1c fc be
       -0.63915443 0.43839386 -0.57724255 -0.49240616
0003f0 7c ff 0c 3e 5c 74 bc be 80 4e c3 3f 7d e0 d7 3d
       0.13769335 -0.36807525 1.5258331 0.105408646

weight f4 [18, 49]
000000 31 55 a6 be 27 c5 ff 3d 55 0b 28 3e 03 e8 19 bf
       -0.3248687 0.12488776 0.16410573 -0.60119647
000010 e6 84 4f 3d a3 2d aa be a3 06 f1 be a2 37 85 be
       0.05066385 -0.33237943 -0.47075376 -0.26019007
000020 c7 9c 79 be e9 32 69 bd 6b ef 8a bf 6f 77 98 be
       -0.24376212 -0.056933317 -1.0854315 -0.2977862
000030 32 cd 1e 3e a3 9c 57 c0 e5 06 d1 be 1d 40 a5 3d
       0.15507963 -3.3689353 -0.40825573 0.08068869
000040 0b f9 b4 3d e8 45 2e bf 1f ee 8e be 1c 6f 39 3e
       0.08836564 -0.6807542 -0.27916047 0.18108791
000050 12 37 99 3e 73 1e a6 be e8 99 4d bf 5d a5 0c bf
       0.29924828 -0.32445106 -0.8031297 -0.54939824
000060 5b 06 1a bf fb 69 18 bf 8a 23 09 3e f0 d3 a2 3e
       -0.6016595 -0.59536713 0.13392463 0.3180232
000070 6b 00 84 3e 7f c3 2f 3d 13 b8 b8 be da 4a 29 be
       0.2578157 0.04291105 -0.36077937 -0.1653246
000080 54 ad 36 c0 65 64 3e bf a1 68 24 bf 8d 63 bd 3e
       -2.854329 -0.7437194 -0.6422215 0.36990014
000090 d7 76 fb be 8d 89 f0 3d 9e bd 0f be c6 d8 91 3d
       -0.49114105 0.11744986 -0.14037177 0.071214244
0000a0 12 7e 73 3d a2 8f 79 3d 5a 0a 6f be a6 66 1e c0
       0.059446402 0.060927995 -0.23343793 -2.4750152
0000b0 9f 1d 84 be e0 42 9a be ff da c7 be 18 27 17 bf
       -0.2580385 -0.30129147 -0.39034268 -0.5904403
0000c0 80 48 55 c0 20 e8 83 3e 71 83 da 3d 47 42 14 be
       -3.33255 0.25763035 0.10669602 -0.14478408
0000d0 06 8a 32 3f c3 9d 51 bd a7 74 31 3f d1 2e 16 3f
       0.6974186 -0.051175844 0.6931862 0.58665186
0000e0 30 6b 27 3e 1c 57 a0 3e 83 e1 e3 be e3 3a 21 3f
       0.16349483 0.3131646 -0.4450799 0.6298048
0000f0 b6 62 19 3f 10 79 a2 bc 86 6b 3d 3f a8 06 84 3d
       0.59916246 -0.019833118 0.7399219 0.06446582
000100 67 04 34 3d 67 3e ac 3e 9c 52 3b 3f 0f a4 95 bd
       0.04394951 0.3364136 0.73172927 -0.07306682
000110 f0 ff e7 bd 88 1c 7c bd 1b 27 c4 3e 76 69 00 3e
       -0.11328113 -0.061550647 0.38311085 0.1254023
000120 6b b3 ab 3e 12 3f 31 3f 03 48 0c 3f e3 1f 73 3d
       0.33535323 0.6923686 0.5479738 0.05935658
000130 d1 67 ec bd c2 d7 1b be 27 a9 4f 3e e2 69 28 3e
       -0.11543239 -0.15219024 0.2027937 0.16446641
000140 cf 20 3a 3e be cc 42 40 23 94 f8 3e 61 cb cc 3c
       0.18176578 3.0437465 0.4855052 0.024999322
000150 26 aa 5a 3d 4d 18 92 3f 3d 92 c7 3e 39 76 26 3e
       0.053384922 1.1413666 0.38978758 0.16256036
000160 86 dc f8 3e 75 cd da bd fa b4 45 bd 53 4f af bc
       0.48605746 -0.10683719 -0.048268296 -0.02140013
000170 b2 db 71 3f b6 5b 1a 3f bb 4a 2e 3e c0 bc bb 3e
       0.94475853 0.6029619 0.17020695 0.36667442
000180 bb 0a 63 bd 70 29 dd 40 8e 68 3d bf 6f 2b 0b 3e
       -0.055430155 6.9113083 -0.7398766 0.13590787
000190 bb 29 47 3e 61 e6 ea be 4e 05 24 3d b7 2f e5 be
       0.19449513 -0.4587889 0.04004412 -0.44762966
0001a0 ee 1d e0 be 1d 23 66 be dd 62 55 be 32 34 f7 3e
       -0.43772835 -0.22474332 -0.20838495 0.4828201
0001b0 43 36 12 bf 78 4d a9 be 21 e8 bf 3e 24 74 ab bf
       -0.57114047 -0.33066916 0.37481788 -1.3394818
0001c0 60 0a b4 be ef 50 e3 3d f2 b4 e5 bd 21 09 ae be
       -0.35164165 0.11099421 -0.11216153 -0.3399134
0001d0 76 37 45 3e 84 e4 ae 3e 67 8d 93 3e ca f8 0e 3e
       0.19259438 0.3415872 0.2881882 0.13962093
0001e0 b9 e4 88 be f9 af 8b be cf d7 17 bf be e9 00 bf
       -0.26737002 -0.27282694 -0.5931367 -0.5035666
0001f0 b9 4a 35 3e 54 50 a0 3e 17 eb fb 3d 54 9e fa 3c
       0.17704286 0.31311285 0.12300699 0.030593075
000200 27 35 21 be 01 5b 5d be 57 a6 5d c0 92 3d 05 bf
       -0.15742932 -0.21616746 -3.4632776 -0.52047074
000210 04 da 76 be 31 31 7f 3d fa be 9b bf 89 bd a4 3d
       -0.24106604 0.062302772 -1.2167656 0.080439635
000220 dd 0f 5b bb 8e fb e6 3e 81 4b cf 3b 25 46 75 be
       -0.0033426203 0.45113796 0.0063261394 -0.2395254
000230 96 0c bd 3d 2c 4b 92 bf 5e 1e 4a be aa f8 8a bc
       0.09230916 -1.1429191 -0.19738147 -0.016964275
000240 54 1b c2 be 6d 57 a8 bc ab 96 00 c1 2f 67 9f 3f
       -0.37911475 -0.0205495 -8.036784 1.2453364
000250 9d 88 24 3e fa b3 0e be 1d 38 87 bd 80 50 19 be
       0.16067739 -0.13935843 -0.066025 -0.14972115
000260 7e ee 57 be 37 c6 6b be 70 77 88 be f8 9b 63 bd
       -0.21087071 -0.23024832 -0.26653624 -0.055568665
000270 29 ec 4a 3e 9c a4 00 3f 8c 91 f5 be ee e5 25 bd
       0.1981665 0.50251174 -0.47962606 -0.04050248
000280 5b a9 2a c0 16 80 03 be 57 c2 97 be e5 82 0b 3e
       -2.6665866 -0.1284183 -0.29640457 0.13624151
000290 8e 1e c0 3f d1 b1 da 3d 9c 92 65 be 7d 25 ff bd
       1.5009325 0.10678447 -0.22419208 -0.12458322
0002a0 cf be bb bd a7 13 fc 3d aa 21 15 bf a5 e5 fe 3d
       -0.09167253 0.12308436 -0.5825449 0.12446145
0002b0 bb 21 1b be 43 c4 00 be 18 1b b1 3e 69 ac 30 3d
       -0.15149586 -0.12574868 0.34590983 0.043133173
0002c0 67 e5 aa be 09 5a 8d 3d 17 ac 61 3c e5 85 e7 bf
       -0.33378145 0.069019385 0.01377394 -1.8087736
0002d0 f6 34 1c 3e 2e ad 13 bf 1a d8 5f 3d 89 7b b5 40
       0.15254578 -0.57686126 0.05464945 5.67133
0002e0 19 7f dd bd b9 17 57 3e 6d 11 d8 3f c0 f5 0d 3d
       -0.108152576 0.21005143 1.6880318 0.034658194
0002f0 5d 58 14 bf 53 7e 0e be 36 17 bb bf b6 92 00 40
       -0.5794733 -0.13915376 -1.4616458 2.0089545
000300 9e 89 bb bd 0b 60 2e 3e ed 69 c4 be d2 d2 58 c0
       -0.09157108 0.17028825 -0.38362065 -3.3878675
000310 b8 55 8d 3f c8 bd 80 be 0c ad 7a 3e 4d 2e 91 bc
       1.1041784 -0.25144792 0.24480075 -0.017722273
000320 b2 37 84 be 5b 05 97 3e 19 b3 aa bc 47 4d 22 3f
       -0.25823742 0.29496273 -0.020837354 0.63399166
000330 0b e7 74 3e 7b ed ee bb 31 5a fd be 11 74 1e 3f
       0.23916261 -0.0072914935 -0.49482873 0.61895853
000340 f3 80 c8 bc d5 b9 34 c0 8d 91 3b 3d be 15 9c 3e
       -0.02447555 -2.8238423 0.045793105 0.30485338
000350 4b 49 43 3f e9 47 70 bf 42 32 57 be 9c aa 48 3e
       0.7628371 -0.93859726 -0.21015266 0.19596332
000360 1b 86 d0 3d 05 bc e3 3e 44 76 f9 be d5 8d 36 3e
       0.101818286 0.44479385 -0.48723042 0.17827542
000370 65 eb ac bc 36 34 10 3f fa e6 94 3d 41 12 85 be
       -0.021108339 0.5632967 0.07270618 -0.2599049
000380 5f 93 70 3f 54 48 80 3e 6e 94 31 be 4c 7a 94 3e
       0.9397487 0.25055182 -0.17341778 0.28999555
000390 d5 2e 00 40 6c d9 3b be bd f8 5c 3e f4 15 13 be
       2.0028584 -0.18344659 0.21579261 -0.14363843
0003a0 6c bb c8 3e 4f 0a 40 3e 20 6e 1c 3b 84 c5 fa bf
       0.39205492 0.18753932 0.002386935 -1.9591527
0003b0 11 f0 20 be fc 7f b6 3e 77 d1 50 3c 8e 64 0a c0
       -0.15716578 0.3564452 0.012745253 -2.1623874
0003c0 11 fd 7c 3d 9d 00 2b 3e ad 2f 75 be 65 1e 87 be
       0.06176478 0.16699453 -0.23943968 -0.26390377
0003d0 b8 3e 09 41 c8 55 04 c0 47 88 8a 3e d4 36 e3 bd
       8.577812 -2.0677357 0.27057096 -0.11094442
0003e0 f0 61 c7 3a 00 14 71 bd fc 61 e0 3d ea 43 a9 be
       0.0015211683 -0.058856964 0.10956189 -0.33059627
0003f0 27 44 1c bf e5 39 ef be 32 d4 32 3e 56 7a a1 be
       -0.6104149 -0.46723858 0.17463759 -0.31538647

bias f4 [18]
000000 20 5e 3b c0 35 66 22 40 69 b4 83 c0 0d 66 39 c0
       -2.92762 2.5374882 -4.1157727 -2.8968537
000010 2a 17 88 40 33 a9 c7 c0 e7 cd 6a bd b4 f6 83 3f
       4.2528276 -6.239404 -0.05732527 1.0309663
000020 a4 56 02 40 fb 53 f8 3f ca 86 c8 3e 1b d4 81 c0
       2.0365381 1.9400629 0.39165336 -4.057142
000030 19 39 c9 3f 1c 3c 73 3f 2a 9c 64 40 6f 82 5e 40
       1.572055 0.95013595 3.5720315 3.476711
000040 0e a6 96 bf 8a 17 64 bf
       -1.1769426 -0.8909842
