2WL_link_pred/checkpoint/20221214_50_20/2WL_state_dict_50_20_3.pt (torch, 56754 bytes, 16 tensors)

lin1.1.modlist.0.weight f4 [48, 3]
-0.14284836 -0.07333689 -0.07754403 -0.34311527 -0.031049384 0.026125917 0.13327321 0.31638917
0.14952779 0.07291132 0.43607876 0.32861432 -0.6433455 -0.4191727 -0.21249242 0.096932374
0.6822047 0.654053 0.2566713 0.5773218 0.5542684 0.33010608 0.43059728 0.5677366
0.019449033 0.09969579 0.21630774 0.05391315 0.50741243 0.31020823 0.33658904 0.36897394
0.5783629 1.503868 1.7640575 1.7512723 0.4381956 0.5525961 0.5581277 -0.58483887
-0.20162302 0.10724703 0.18795423 0.19676109 0.1995962 -0.23116627 -0.12698948 -0.02442381
-0.7231768 -0.5223388 -0.44570833 -0.0816683 -0.13326077 0.087508835 -1.5423769 -2.4736977
-0.023778664 0.1301802 0.22175516 0.30416948 -2.5008225 0.18038209 -1.9287465 -0.28710097
-0.08540074 -0.12300289 -0.6958635 -0.69520634 -0.49193633 -0.59189975 -0.3787497 -0.26075897
0.8990582 1.4340405 1.5529559 0.3548764 0.60193974 0.52702355 0.13440287 0.24425064
0.21471764 0.14517654 0.32761976 0.12060518 -0.20735647 -0.0018418627 -0.03677506 0.36102518
0.45159334 0.69663304 -0.40596297 -0.27074912 -0.18320794 -0.03064381 0.1379096 0.17469396
-0.38643664 -0.344544 -0.13207331 0.13756125 0.26634833 0.15295132 0.16901363 0.13228598
0.3816507 4.25041 0.13869175 0.09784122 1.9263709 1.9153645 2.1409173 -0.33299142
0.04028234 -0.09384636 -0.83391327 -0.17188154 -0.16027422 0.37744176 0.7606146 0.8328689
-0.28391913 -0.03202182 0.019515628 -0.22142062 -0.1929949 -0.1536067 -2.721112 0.09557622
-2.1018322 0.073577136 0.25165606 0.20632179 -0.19734254 0.04496312 -0.0067414795 -0.06891109
-4.3102 -4.11943 -0.63328636 -0.5543673 -0.033518903 -0.07930262 0.25248587 0.21649283
00000000: d746 12be a731 96bd 68cf 9ebd ceac afbe
00000010: 475b febc 0506 d63c c678 083e c3fd a13e
00000020: d01d 193e 8852 953d b745 df3e 2340 a83e
00000030: 4ab2 24bf ce9d d6be 9d97 59be 7b84 c63d
00000040: f8a4 2e3f 0470 273f 6c6a 833e 5dcb 133f
00000050: 89e4 0d3f aa03 a93e 3f77 dc3e 3057 113f
00000060: 9453 9f3c 4e2d cc3d c77f 5d3e 09d4 5c3d
00000070: c8e5 013f 9dd3 9e3e 6655 ac3e 27ea bc3e
00000080: 970f 143f bf7e c03f a3cc e13f b129 e03f
00000090: 2c5b e03e f076 0d3f 75e1 0e3f 00b8 15bf
000000a0: 4476 4ebe 55a4 db3d 1377 403e bd7b 493e
000000b0: f262 4c3e dab6 6cbe 8809 02be 7114 c8bc
000000c0: 1d22 39bf ffb7 05bf e233 e4be b641 a7bd
000000d0: 8375 08be d537 b33d 9b6c c5bf 1051 1ec0
000000e0: 79cb c2bc f54d 053e c913 633e 1abc 9b3e
000000f0: 7a0d 20c0 15b6 383e 2ae1 f6bf e6fe 92be
00000100: 95e6 aebd f0e8 fbbd 1c24 32bf 0bf9 31bf
00000110: 14df fbbe be86 17bf 7beb c1be 3382 85be
00000120: ae28 663f a48e b73f 42c7 c63f 5cb2 b53e
00000130: b918 1a3f 04eb 063f e8a0 093e d71c 7a3e
00000140: f1de 5b3e 29a9 143e c7bd a73e d9ff f63d
00000150: 4155 54be a86a f1ba 72a1 16bd 4bd8 b83e
00000160: 3e37 e73e 8b56 323f 61da cfbe a19f 8abe
00000170: dd9a 3bbe ba08 fbbc 2d38 0d3e f9e2 323e
00000180: 06db c5be 1268 b0be 3a3e 07be dbdc 0c3e
00000190: cf5e 883e 459f 1c3e e911 2d3e fa75 073e
000001a0: b867 c33e 5c03 8840 3605 0e3e fa60 c83d
000001b0: 5293 f63f aa2a f53f ca04 0940 da7d aabe
000001c0: 18ff 243d 8532 c0bd 577b 55bf b701 30be
000001d0: ed1e 24be 0c40 c13e a3b7 423f e536 553f
000001e0: d95d 91be 5029 03bd 3ddf 9f3c 16bc 62be
000001f0: 74a0 45be 134b 1dbe b326 2ec0 77bd c33d
00000200: 6b84 06c0 9caf 963d 10d9 803e 0546 533e
00000210: 2a14 4abe 402b 383d a1e7 dcbb 4221 8dbd
00000220: 29ed 89c0 5fd2 83c0 0e1f 22bf 04eb 0dbf
00000230: 1e4b 09bd 6969 a2bd d445 813e 4cb0 5d3e

lin1.1.modlist.0.bias f4 [48]
3.7470484 0.3840428 -0.14249524 -0.0781245 0.11325204 0.0041617816 -0.072280504 -0.07580385
-3.2626462 -0.038583968 0.02585129 0.048289087 -0.09926998 0.0037680054 -0.16584234 0.4060648
0.058619417 0.4245063 0.11602433 0.24273086 0.0942645 0.39250195 0.113788724 0.16730264
-0.023914149 -0.082836516 -2.7584267 0.3032671 0.5032687 -0.02442618 0.34679422 -0.24156854
0.16685683 -0.32708034 -0.24924594 -0.042584807 -0.056461588 0.42558983 0.14573328 0.047971554
0.30625308 0.7161547 0.12117823 -0.14632434 0.46385115 0.03395412 0.26402655 -0.2904439
00000000: a4cf 6f40 42a1 c43e 46ea 11be bdff 9fbd
00000010: b0f0 e73d 8e5f 883b cd07 94bd 0d3f 9bbd
00000020: 32cf 50c0 390a 1ebd 16c6 d33c c7ca 453d
00000030: 0f4e cbbd a4f0 763b 93d2 29be bae7 cf3e
00000040: ea1a 703d e458 d93e 2a9e ed3d 708e 783e
00000050: bf0d c13d 04f6 c83e 100a e93d 6251 2b3e
00000060: 9be7 c3bc 31a6 a9bd 108a 30c0 d345 9b3e
00000070: 38d6 003f 6a19 c8bc 038f b13e be5d 77be
00000080: 84dc 2a3e 1377 a7be 543a 7fbe 686d 2ebd
00000090: 4444 67bd e9e6 d93e 1b3b 153e d27d 443d
000000a0: 34cd 9c3e ea55 373f 4b2c f83d 0cd6 15be
000000b0: e67d ed3e 7a13 0b3d 7d2e 873e 10b5 94be

embedding.0.weight f4 [5, 48]
0.13396402 -0.45567706 0.13538441 -0.026645608 -0.12051151 0.94867283 0.3741238 0.5367778
0.47284448 0.11376409 0.8297838 0.93552995 1.7112604 0.6594056 0.63514125 0.9607023
-0.9867135 -0.5138506 0.34582436 -0.25935695 0.8393493 -0.6422873 0.11751487 -0.13790397
0.4767518 0.004777675 -0.7470379 0.23067947 -1.5061353 -0.08438429 -1.2572851 1.5850321
-0.72543144 -0.4142477 -0.5565233 1.5356929 0.18388313 1.5038897 0.83115524 -0.5952022
-0.022860516 0.8288167 -1.2226543 0.029677412 0.09265335 -0.88133377 -0.3108725 2.0189905
-2.2269378 0.5874582 -0.10496619 0.6870752 -0.70086485 -0.7813327 -1.2015647 0.4336251
-0.26335236 0.97566885 1.6745038 0.44794208 -2.317263 0.41168907 -0.08832116 1.319132
1.7984908 -0.8770867 0.33584392 -1.200009 0.48857102 -0.028890718 -0.20839594 0.31303704
-1.033719 1.4832925 -0.98314005 1.1302041 -1.1286188 -1.5679637 0.7281758 -0.4812009
-1.6946421 0.89224446 2.2453067 0.4907566 -1.1178919 0.6947826 -1.2123448 -2.370365
0.77814925 -0.36099708 -2.2985454 -1.0511171 -0.161199 0.17369334 0.89796257 0.04196236
-0.15596709 0.018932456 0.3556685 0.4998549 0.82874304 -0.42503047 0.88308364 -0.07698583
-0.6776722 0.12680435 1.6678994 1.0125114 -0.6765192 -1.6670876 -1.0441425 -0.8629034
0.08163239 -0.16497453 -1.1289593 -0.88986665 1.1532999 1.524773 1.1464608 -1.6279029
1.2809445 -0.61498255 -0.0020438698 -0.33979344 0.5250061 0.7639317 1.407291 0.2647777
0.7857407 1.0172325 -1.1749016 0.4931045 0.59063214 0.97496676 1.2535244 0.91748416
-0.018873015 -2.7235553 1.7983906 0.38391674 0.43640316 -1.262099 -0.07103124 0.39973807
-0.43939564 -0.33862647 0.6598739 0.41159397 0.8759918 -0.22560133 1.2803488 -2.3255727
-0.6393639 0.8440783 -0.06387098 -0.53908354 0.19847536 -0.4764374 -0.28387406 0.75793856
0.7414468 0.23390931 1.70618 -1.2502853 0.016562901 0.58274984 1.510604 -0.21083577
-0.8707824 0.35260722 1.22095 0.17729355 2.7510498 0.9342931 1.2736542 2.3300116
-2.096037 -1.9819808 1.4058518 0.70261604 0.48128077 0.15544729 -0.9202574 0.66712165
-0.9202579 2.2949457 0.5758794 1.8064133 0.7078145 0.38750726 0.17244832 0.3642817
1.2879797 -1.653696 0.010453819 -0.2590883 -0.100829154 0.27638894 -0.0034174793 -0.15521112
1.6223618 -0.74667716 -0.11574583 0.20113695 -0.7049726 1.60423 -0.88842946 0.5760089
-0.85005367 -1.0990876 0.044381246 1.7523725 -1.6956222 -1.4058605 1.5739247 -0.43317702
0.6792346 2.4895287 -0.9222133 0.59370345 -0.44324946 1.0102758 0.012076804 0.16542396
0.6047024 -0.6853883 0.8418431 -1.1055 1.4363394 1.0406914 0.07072902 0.06332493
0.45612207 -0.45195448 0.8455002 -0.7104328 -0.48314184 -0.23463088 0.22702621 1.6141562
00000000: dd2d 093e 814e e9be 36a2 0a3e e447 dabc
00000010: bdce f6bd 39dc 723f 288d bf3e 456a 093f
00000020: ac18 f23e 26fd e83d b66c 543f e47e 6f3f
00000030: 950a db3f cece 283f 9e98 223f 96f0 753f
00000040: 4299 7cbf b78b 03bf e40f b13e 6fca 84be
00000050: 99df 563f f16c 24bf a3ab f03d b336 0dbe
00000060: d018 f43e 0b8e 9c3b e03d 3fbf 3d37 6c3e
00000070: 0bc9 c0bf acd1 acbd b8ee a0bf 55e2 ca3f
00000080: e0b5 39bf 4618 d4be 5078 0ebf 9691 c43f
00000090: dc4b 3c3e 757f c03f 97c6 543f 2c5f 18bf
000000a0: fa45 bbbc 552d 543f f07f 9cbf 0b1e f33c
000000b0: 0ac1 bd3d 179f 61bf ae2a 9fbe 2437 0140
000000c0: 2686 0ec0 a963 163f 84f8 d6bd 29e4 2f3f
000000d0: e16b 33bf 6b05 48bf dfcc 99bf 1c04 de3e
000000e0: 1fd6 86be 6fc5 793f 2456 d63f aa58 e53e
000000f0: 094e 14c0 e9c8 d23e b9e1 b4bd 51d9 a83f
00000100: f234 e63f c188 60bf bcf3 ab3e e599 99bf
00000110: fb25 fa3e 3aac ecbc bf65 55be 6446 a03e
00000120: e750 84bf 87dc bd3f 11af 7bbf 87aa 903f
00000130: 9576 90bf 09b3 c8bf bb69 3a3f f75f f6be
00000140: 08ea d8bf 226a 643f 1bb3 0f40 7344 fb3e
00000150: 1517 8fbf 46dd 313f 1d2e 9bbf 0fb4 17c0
00000160: ca34 473f 9cd4 b8be 5e1b 13c0 018b 86bf
00000170: 5a11 25be abdc 313e e0e0 653f b9e0 2b3d
00000180: d6b5 1fbe 3d18 9b3c 2e1a b63e fbec ff3e
00000190: 8128 543f 989d d9be c511 623f bfaa 9dbd
000001a0: ed7b 2dbf 00d9 013e ba7d d53f f999 813f
000001b0: 5d30 2dbf 2063 d5bf 76a6 85bf 3de7 5cbf
000001c0: e22e a73d 15ef 28be bd81 90bf 4dce 63bf
000001d0: 559f 933f c32b c33f 3abf 923f 1f5f d0bf
000001e0: fdf5 a33f 7f6f 1dbf 72f2 05bb 68f9 adbe
000001f0: cd66 063f 0791 433f 1d22 b43f f190 873e
00000200: 4d26 493f ad34 823f 2d63 96bf 3178 fc3e
00000210: ab33 173f 6c97 793f 7d73 a03f 3ee0 6a3f
00000220: 959b 9abc bb4e 2ec0 aa31 e63f bc90 c43e
00000230: 3c70 df3e 768c a1bf d478 91bd 78aa cc3e
00000240: 77f8 e0be 7360 adbe 7fed 283f 72bc d23e
00000250: 0041 603f 0904 67be 78e2 a33f 2fd6 14c0
00000260: 5aad 23bf 8415 583f cace 82bd 6101 0abf
00000270: 203d 4b3e 9aef f3be f157 91be 4308 423f
00000280: 75cf 3d3f ec85 6f3e 1b64 da3f 5909 a0bf
00000290: ecae 873c 182f 153f 795b c13f 55e5 57be
000002a0: 98eb 5ebf ef88 b43e 1748 9c3f 718c 353e
000002b0: 3311 3040 d52d 6f3f 1a07 a33f e91e 1540
000002c0: 7825 06c0 8cb1 fdbf f4f2 b33f a5de 333f
000002d0: 6f6a f63e 932d 1f3e fd95 6bbf 7cc8 2a3f
000002e0: 0696 6bbf 64e0 1240 d56c 133f 8d38 e73f
000002f0: 5533 353f 5a67 c63e 4b96 303e 2283 ba3e
00000300: 85dc a43f 4fac d3bf 7f46 2b3c 39a7 84be
00000310: 847f cebd da82 8d3e caf7 5fbb aaef 1ebe
00000320: 8da9 cf3f 3c26 3fbf 260c edbd d8f6 4d3e
00000330: 1679 34bf 6957 cd3f 1d70 63bf 5275 133f
00000340: 1e9d 59bf e7ae 8cbf 1cc9 353d be4d e03f
00000350: 260a d9bf 3df3 b3bf 5d76 c93f 61c9 ddbe
00000360: 52e2 2d3f 7054 1f40 2c16 6cbf f3fc 173f
00000370: 98f1 e2be b850 813f cadd 453c e664 293e
00000380: c7cd 1a3f 9c75 2fbf 0883 573f 0681 8dbf
00000390: f8d9 b73f 6035 853f 60da 903d 80b0 813d
000003a0: d588 e93e 9466 e7be b372 583f edde 35bf
000003b0: 5e5e f7be 1443 70be 8f79 683e ac9c ce3f

nconvs.0.modlist.0.lin_l.weight f4 [48, 48]
0.013955987 0.78253794 -0.48439932 -1.7049718 2.8639157 -2.3206537 -2.7344844 -3.237405
0.28421572 -1.228238 -3.636739 -3.3344395 -2.4474034 0.3221975 -1.1765825 0.35121384
4.119683 0.6593593 2.8127196 0.045253366 2.1601906 0.8817166 3.1073864 3.5302174
-3.3514051 -3.6426973 -0.801134 0.3628247 0.62512034 -2.4605043 1.0741833 -1.1721847
1.7404141 -0.7454678 -1.3120279 -1.9085196 -3.1663833 0.56552035 2.6699724 -3.532285
0.25450864 0.6478176 2.827264 -1.1629167 0.5847376 1.7284704 1.3795522 -0.81176054
-1.9998101 -0.89312756 0.75812876 0.040077657 -1.3645566 -0.64949065 -0.87044895 0.98845845
1.3945068 0.264931 0.12742904 -0.7060557 -0.33060643 0.44889346 -0.089047655 -0.34531087
0.41248524 0.61342394 0.038026154 -0.6651494 -0.8448879 -0.60623944 1.0940158 -0.24581562
0.27233785 0.46969455 -0.17514282 -0.7578792 -0.61651033 -0.6075798 -0.016004313 1.2240009
0.64428896 -0.054560643 -0.5687199 -1.9715457 0.047273826 -0.2715786 1.9082577 0.56119865
-0.26897693 -0.50325996 3.2150388 -0.39094165 -0.054320972 0.98439294 2.464973 1.6174945
-6.469014 0.8511269 -0.17566 -1.7065127 1.9599113 -2.0044663 -1.7863 -0.34602663
6.861426 -0.91089004 -0.5294288 -3.1082475 -0.7496954 -0.4481929 -1.573388 -0.26975623
2.546983 0.04361218 1.7613007 -0.13644819 2.818555 0.3557183 1.6107031 1.3295783
-1.2982658 -1.0634949 -0.591483 0.042268902 0.32291496 -0.84247696 1.1947026 -0.6818105
2.393215 -0.018774634 -0.8344348 -1.0988846 -0.86164963 0.3006193 1.185386 -1.4696602
0.48337564 -0.03287759 1.827795 -0.95588785 -0.4209942 1.7084699 1.0300137 -0.95454776
0.064247616 -0.20275667 -0.10371756 -0.7269219 0.22371669 -0.35869515 -0.76797515 -0.6373075
1.0159438 -0.76978874 -0.46210873 0.10839385 -0.23108457 0.3611056 -0.5789479 -0.18892817
0.4572211 0.31851462 0.30132005 -0.7140893 -0.2800013 0.17979436 -0.06346717 -0.13046719
-0.36311087 -0.27456883 0.9625194 -0.41351432 -0.037911154 -0.84243226 0.725118 -0.34529272
0.38011852 0.15093112 -0.9235375 4.42556 0.17445917 1.113669 0.46012565 -0.27277282
0.37160614 0.0856735 -0.024668599 -0.83743906 -0.09118964 -0.34083647 0.60396576 -0.16829056
0.19223352 0.23420209 -0.2747756 0.17538267 -0.7126545 0.33161357 0.29430586 0.12998538
-0.13494915 -0.035734978 0.83803916 0.36332923 0.029197518 -0.5511999 0.02936975 0.430651
-0.62834424 0.005252931 0.046982393 1.0093017 -0.39588034 0.5297804 -0.59753764 -0.3570373
0.044123605 0.26471412 -0.16901864 0.7186189 0.90528935 0.23107937 0.4392423 -0.88793415
0.079390824 -0.5126746 -0.27360994 0.17698681 0.12987818 0.81360453 -0.2521043 0.7798797
0.7122363 0.91465086 -0.09057032 -1.3393288e-05 0.58824956 -0.0971663 -0.1848432 -0.4758172
-0.6890563 -0.69073707 -0.16307071 -0.054943044 -0.04704392 -0.26627323 -0.019395543 -0.6730196
0.3659634 0.41966525 -0.2088955 -0.49569002 -0.0033435428 -0.09192675 -0.23679096 -0.28466213
00000000: a7a7 643c 6854 483f 3003 f8be 843c dabf
00000010: 654a 3740 9785 14c0 cb01 2fc0 a531 4fc0
00000020: b984 913e e736 9dbf 55c0 68c0 7567 55c0
00000030: 42a2 1cc0 12f7 a43e 419a 96bf 4dd2 b33e
00000040: 71d4 8340 c5cb 283f 9903 3440 985b 393d
00000050: 9040 0a40 2eb8 613f 6bdf 4640 15ef 6140
00000060: 6c7d 56c0 f421 69c0 1e17 4dbf 29c4 b93e
00000070: e307 203f e778 1dc0 d77e 893f 260a 96bf
00000080: e4c5 de3f fad6 3ebf 88f0 a7bf 5f4a f4bf
00000090: 06a6 4ac0 f1c5 103f d4e0 2a40 f510 62c0
000000a0: f54e 823e 60d7 253f e5f1 3440 74da 94bf
000000b0: 5db1 153f 853e dd3f 2b95 b03f 8acf 4fbf
000000c0: c7f9 ffbf 02a4 64bf ba14 423f 7828 243d
000000d0: caa9 aebf 0545 26bf bed5 5ebf 9d0b 7d3f
000000e0: 337f b23f 09a5 873e c27c 023e 11c0 34bf
000000f0: 3f45 a9be 5dd5 e53e 9e5e b6bd 96cc b0be
00000100: 4431 d33e 5a09 1d3f 50c1 1b3d 3b47 2abf
00000110: 934a 58bf 8232 1bbf b608 8c3f 17b7 7bbe
00000120: de6f 8b3e ce7b f03e a458 33be 5f04 42bf
00000130: 9fd3 1dbf 5a8a 1bbf 7a1b 83bc 10ac 9c3f
00000140: 1ff0 243f fb7a 5fbd a197 11bf 9c5b fcbf
00000150: 33a2 413d 5a0c 8bbe ca41 f43f b7aa 0f3f
00000160: 58b7 89be a5d5 00bf 32c3 4d40 8129 c8be
00000170: ab7f 5ebd 2d01 7c3f 1ec2 1d40 0f0a cf3f
00000180: 2a02 cfc0 74e3 593f 37e0 33be 026f dabf
00000190: 60de fa3f 2d49 00c0 7aa5 e4bf 672a b1be
000001a0: cd90 db40 1730 69bf a588 07bf 87ed 46c0
000001b0: 0aec 3fbf 8a79 e5be c764 c9bf 7d1d 8abe
000001c0: c501 2340 afa2 323d 4d72 e13f 13b9 0bbe
000001d0: 3563 3440 b620 b63e 852b ce3f 9f2f aa3f
000001e0: 932d a6bf 9a20 88bf 6e6b 17bf 2822 2d3d
000001f0: 1c55 a53e 92ac 57bf 04ec 983f 228b 2ebf
00000200: 6f2a 1940 43cd 99bc 859d 55bf 40a8 8cbf
00000210: 1295 5cbf c6ea 993e baba 973f d31d bcbf
00000220: 037d f73e a7aa 06bd 30f5 e93f 11b5 74bf
00000230: 8d8c d7be 24af da3f 7dd7 833f 3e5d 74bf
00000240: 4194 833d 729f 4fbe df69 d4bd 8e17 3abf
00000250: fd15 653e e4a6 b7be 059a 44bf 9626 23bf
00000260: 720a 823f e010 45bf 8499 ecbe 98fd dd3d
00000270: 6fa1 6cbe d5e2 b83e ee35 14bf 6376 41be
00000280: e218 ea3e 5914 a33e 9f46 9a3e 8ece 36bf
00000290: 555c 8fbe 031c 383e 13fb 81bd 3199 05be
000002a0: abe9 b9be 4994 8cbe ac67 763f 26b8 d3be
000002b0: ba48 1bbd a4a9 57bf 55a1 393f 35ca b0be
000002c0: e59e c23e b08d 1a3e f46c 6cbf 309e 8d40
000002d0: 6da5 323e b58c 8e3f 9795 eb3e e1a8 8bbe
000002e0: 2943 be3e 9775 af3d cd15 cabc 6862 56bf
000002f0: a2c1 babd 1e82 aebe 809d 1a3f 5c54 2cbe
00000300: ddd8 443e acd2 6f3e 63af 8cbe 8497 333e
00000310: 8670 36bf 41c9 a93e 42af 963e e31a 053e
00000320: 1c30 0abe d75e 12bd bc89 563f 4a06 ba3e
00000330: a22f ef3c 701b 0dbf d498 f03c 4a7e dc3e
00000340: 2bdb 20bf c720 ac3b 9c70 403d cc30 813f
00000350: d4b0 cabe b09f 073f 3af8 18bf 98cd b6be
00000360: f4ba 343d 9c88 873e 3913 2dbe 69f7 373f
00000370: 0bc1 673f 12a0 6c3e 5ee4 e03e a74f 63bf
00000380: a897 a23d a53e 03bf 9a16 8cbe 083c 353e
00000390: c9fe 043e 6348 503f d113 81be 32a6 473f
000003a0: 1e55 363f 8f26 6a3f ef7c b9bd bcb3 60b7
000003b0: 8697 163f 20ff c6bd 8947 3dbe 509e f3be
000003c0: fe65 30bf 25d4 30bf 02fc 26be f50b 61bd
000003d0: 20b1 40bd f754 88be 67e3 9ebc 034b 2cbf
000003e0: 8e5f bb3e 5dde d63e b4e8 55be 15cb fdbe
000003f0: 571f 5bbb 1844 bcbd 5479 72be 3cbf 91be

nconvs.0.modlist.0.lin_l.bias f4 [48]
-0.35418493 0.18258469 2.5590858 -2.1665416 3.4633234 2.3262472 2.2289019 0.033029165
0.15542032 2.7891104 1.7264981 -0.37048414 3.1917453 2.268553 1.6366365 -2.5223553
2.1985736 2.9012036 1.4572345 1.1607027 -0.4865406 -0.28102732 0.21626519 0.30417204
1.1545419 3.5322678 2.5801055 0.9554902 -2.66513 -2.9244053 2.1135833 3.1794767
-0.5900406 -0.17026606 -0.075728655 2.0209746 3.1986136 1.6803073 0.84798336 2.74656
2.4143536 -0.007829799 2.2960138 2.7433252 0.94129777 2.0949814 0.76814306 1.8656102
00000000: ba57 b5be 7bf7 3a3e 10c8 2340 9ea8 0ac0
00000010: 17a7 5d40 3ce1 1440 54a6 0e40 9749 073d
00000020: 8126 1f3e c980 3240 e4fd dc3f 19b0 bdbe
00000030: 8e45 4c40 f92f 1140 4e7d d13f 456e 21c0
00000040: 6eb5 0c40 52ad 3940 a986 ba3f e891 943f
00000050: d91b f9be d0e2 8fbe 9f74 5d3e 70bc 9b3e
00000060: 07c8 933f ad10 6240 7320 2540 019b 743f
00000070: 7d91 2ac0 7529 3bc0 f344 0740 8c7c 4b40
00000080: e70c 17bf 3a5a 2ebe a017 9bbd a657 0140
00000090: 16b6 4c40 4f14 d73f 7015 593f a4c7 2f40
000000a0: c584 1a40 8f48 00bc e4f1 1240 a492 2f40
000000b0: e4f8 703f 2d14 0640 06a5 443f 51cc ee3f

nconvs.0.modlist.0.lin_r.weight f4 [48, 48]
0.05776862 -0.04336126 -0.58312446 -0.04230237 -0.1661192 -0.20739628 0.20225397 0.21345523
-0.052037537 -0.042982984 -0.03482378 0.019598367 -0.2230971 0.16489585 0.0619773 0.28199148
0.01964235 0.12398397 -0.064853735 0.55993956 -0.035989214 0.0154819535 -0.067158915 -0.043074295
0.036574908 0.21908891 -0.011559255 -0.2218505 0.040765177 0.24652168 0.093425974 0.10017616
-0.33243662 -0.35934263 -0.3037968 0.0814805 0.100829035 -0.16001841 0.21497573 -0.24049622
-0.19372404 0.12096372 -0.012374703 -0.32104838 0.14060926 -0.038653176 -0.22223142 0.050820358
0.06334663 0.14130975 -0.7165781 -0.92763555 0.5266032 -0.633129 -0.01345074 -1.0498857
0.2711603 0.31399342 -0.3425572 -0.6133633 -0.15158051 -0.17189322 0.09135271 -0.6970509
0.7742152 -0.1295983 0.4705552 -0.25835514 -0.108162746 0.4690767 0.32333726 0.4883222
-0.8089871 -0.6888091 0.18419066 -0.14886764 0.5151698 -0.5085098 0.39837205 -0.16082641
1.1264113 -0.14489752 -0.110330485 0.18304285 -0.34880945 -0.6234396 0.25688937 -1.2850419
0.6812196 -0.6116816 0.55852973 -1.0393221 -0.035659518 0.33701384 0.5289265 -0.60625994
0.10834257 0.032463454 -0.04838342 -0.11243431 -0.24860036 0.10845085 0.40746537 0.48542383
-0.13191134 0.023181772 0.57617223 0.038772088 -0.2970783 -0.20270652 -0.036485713 0.3052952
-0.39084876 0.4982494 -0.2346541 0.5519383 -0.09377878 -0.20591676 -0.66362226 0.34490308
-0.28195104 0.22126935 -0.033409644 0.19203511 -0.062388532 0.09280712 0.03339823 0.20931286
-0.49207136 0.2466763 0.13603091 -0.15237834 -0.13678485 0.0041146977 -0.16954836 -0.15915543
-0.5885352 -0.27527767 -0.19086404 0.65358573 -0.27087417 -0.022454375 -0.38440016 -0.040348064
-0.07947761 -0.22260015 0.069535 0.14721635 0.048025314 -0.112161145 -0.0395347 -0.2805882
0.16991533 -0.26746765 -0.15174265 0.05986516 -0.37556404 -0.08684943 -0.25567475 -0.2221495
0.15973954 -0.19933909 0.20458189 -0.23742871 -0.22272955 0.07027772 0.09758503 0.045455176
-0.22898848 -0.2125914 0.14229034 -0.1714439 0.028038548 -0.2712556 0.0152485985 0.2003175
-0.06609382 -0.31518757 0.16258644 -0.1474752 -0.1943595 -0.003912845 -0.36815655 -0.1864709
-0.2002837 -0.2509053 0.27915755 0.31805944 -0.12676881 0.15364301 -0.22700605 -0.4353503
0.26560605 0.8006422 -0.67722154 -0.90913063 1.4525717 -1.3364372 -1.3148886 -1.6379739
3.5537248 -0.62588865 -1.4083601 -1.6552066 -1.5631288 -0.5743365 -0.8652165 0.9200314
1.7501323 0.5455363 1.7408808 0.5146475 1.3859811 0.26715037 1.957736 1.7015097
-1.3019285 -1.6447077 -0.48227367 0.70509 -0.025339652 -1.1648254 1.0462986 -0.725512
1.2010562 -0.706339 -1.3116899 -2.5210917 -1.9881039 0.22436278 1.1390045 -1.7592871
0.5044148 0.37815246 1.4572853 -0.78812903 0.40151995 2.6421123 1.5795726 -0.42076656
-0.015473811 -0.17205574 -0.0044026393 -0.17824799 0.26685962 -0.47695813 -0.37779477 -1.0081265
0.29517704 0.16330881 -0.45976493 -1.1516229 -0.62991905 0.12908515 0.15354963 0.13122882
00000000: ca9e 6c3d 949b 31bd a547 15bf 4045 2dbd
00000010: 271b 2abe b15f 54be aa1b 4f3e 0294 5a3e
00000020: 5025 55bd ed0e 30bd 61a3 0ebd c18c a03c
00000030: 9173 64be 75da 283e e9db 7d3d 3061 903e
00000040: fee8 a03c 4feb fd3d 09d2 84bd 3358 0f3f
00000050: 6d69 13bd 05a8 7d3c 9d8a 89bd ac6e 30bd
00000060: 92cf 153d d858 603e 0863 3dbc c72c 63be
00000070: 63f9 263d 2e70 7c3e 1e56 bf3d 2929 cd3d
00000080: 2235 aabe c2fb b7be 418b 9bbe 40df a63d
00000090: 747f ce3d dedb 23be 9922 5c3e a444 76be
000000a0: 985f 46be d4bb f73d 44bf 4abc 7460 a4be
000000b0: e0fb 0f3e cb52 1ebd a290 63be 0229 503d
000000c0: e1bb 813d 81b3 103e aa71 37bf 8679 6dbf
000000d0: 78cf 063f be14 22bf 7e60 5cbc a862 86bf
000000e0: 86d5 8a3e bfc3 a03e a863 afbe 6105 1dbf
000000f0: ec37 1bbe c704 30be 2117 bb3d ee71 32bf
00000100: f832 463f 6bb5 04be 9cec f03e 2047 84be
00000110: 6e84 ddbd d22a f03e 768c a53e 5e05 fa3e
00000120: c719 4fbf cb55 30bf 7a9c 3c3e c270 18be
00000130: 2be2 033f b32d 02bf 6cf7 cb3e aeaf 24be
00000140: 3f2e 903f 0460 14be f3f4 e1bd 966f 3b3e
00000150: 2797 b2be bd99 1fbf 0187 833e 417c a4bf
00000160: 6864 2e3f 2a97 1cbf cefb 0e3f 8208 85bf
00000170: b70f 12bd 148d ac3e ba67 073f da33 1bbf
00000180: b6e2 dd3d 66f8 043d b12d 46bd f643 e6bd
00000190: 1891 7ebe 7b1b de3d 4d9f d03e 7989 f83e
000001a0: c413 07be b3e7 bd3c 0680 133f 7bcf 1e3d
000001b0: a61a 98be 4c92 4fbe 0b72 15bd a74f 9c3e
000001c0: 541d c8be 8c1a ff3e 2a49 70be d44b 0d3f
000001d0: 170f c0bd d8db 52be 26e3 29bf 2397 b03e
000001e0: e35b 90be 6f94 623e 8dd8 08bd daa4 443e
000001f0: 1e8b 7fbd a911 be3d 95cc 083d 1c56 563e
00000200: c7f0 fbbe b698 7c3e b04b 0b3e 1109 1cbe
00000210: 5411 0cbe 96d4 863b 169e 2dbe a4f9 22be
00000220: 3eaa 16bf 32f1 8cbe dd71 43be 6551 273f
00000230: 05b0 8abe 3df2 b7bc 19d0 c4be 0344 25bd
00000240: 28c5 a2bd 4bf1 63be 5e68 8e3d e2bf 163e
00000250: 31b6 443d beb4 e5bd 23ef 21bd 42a9 8fbe
00000260: 49fe 2d3e 85f1 88be 6d62 1bbe 2c35 753d
00000270: ee49 c0be 1dde b1bd cde7 82be 297b 63be
00000280: c392 233e 8c1f 4cbe ea7d 513e 8320 73be
00000290: 3713 64be c4ed 8f3d a9da c73d 352f 3a3d
000002a0: f57b 6abe 8fb1 59be 8fb4 113e fd8e 2fbe
000002b0: 19b1 e53c 04e2 8abe 42d5 793c 0820 4d3e
000002c0: 325c 87bd 4460 a1be 0f7d 263e bd03 17be
000002d0: 2d06 47be 5337 80bb 047f bcbe 3af2 3ebe
000002e0: 2c17 4dbe a976 80be bded 8e3e b0d8 a23e
000002f0: afcf 01be 9854 1d3e 4674 68be 3ce6 debe
00000300: 84fd 873e e3f6 4c3f 645e 2dbf c9bc 68bf
00000310: dfed b93f 6010 abbf 454e a8bf 21a9 d1bf
00000320: 3a70 6340 3d3a 20bf 2545 b4bf cfdd d3bf
00000330: 9b14 c8bf b807 13bf d47e 5dbf 2e87 6b3f
00000340: 5604 e03f 44a8 0b3f 2fd5 de3f f0bf 033f
00000350: d467 b13f efc7 883e 1897 fa3f 12cb d93f
00000360: 98a5 a6bf c885 d2bf 93ec f6be c780 343f
00000370: 1a95 cfbc 0019 95bf 1ded 853f 28bb 39bf
00000380: 36bc 993f a2d2 34bf 74e5 a7bf 9159 21c0
00000390: 307a febf 5bbf 653e e6ca 913f 5230 e1bf
000003a0: 5421 013f 339d c13e 5388 ba3f d3c2 49bf
000003b0: 0694 cd3e 5e18 2940 6f2f ca3f b76e d7be
000003c0: de85 7dbc 612f 30be 0444 90bb a486 36be
000003d0: d3a1 883e db33 f4be 516e c1be 4a0a 81bf
000003e0: 7221 973e 6d3a 273e 4f66 ebbe 6168 93bf
000003f0: 6042 21bf e62e 043e 1d3c 1d3e d960 063e

nconvs.1.modlist.0.lin_l.weight f4 [48, 48]
0.0096653225 -0.61471593 -0.46630025 0.53222 -0.9885481 0.0074637113 0.071163364 0.7187215
0.27790454 0.40168017 -0.13307017 0.21597274 1.347264 -0.15903549 0.43913257 -0.03798909
0.62072974 1.098313 0.21229035 0.18516628 0.22535601 0.040350202 0.6096491 -0.35253644
0.22642066 -0.5764494 -0.10969038 0.27483317 -0.013987457 -0.430237 0.33814076 -0.29756606
-1.2855405 0.35245085 -0.6974648 -0.36833063 -0.4522202 -0.37531617 0.3285735 -0.5939277
-0.13417359 -0.16140506 -0.24933842 0.48820674 0.06863952 0.29880464 -0.108842246 0.6761732
-0.25767297 0.4770161 0.2779639 0.27301764 0.17978242 0.05794291 0.37188303 0.6257755
0.3236758 0.25298527 -0.66145 -0.5011019 0.07258447 0.30833185 0.66379887 0.2706903
0.33602002 0.030814655 -0.0031796566 0.16883129 -0.0961541 -0.11182742 0.5668282 -0.13995653
0.56468946 -0.26631805 -0.12855963 -0.00537397 -0.44842297 0.6030944 -0.2934748 -0.25800395
0.19538468 -0.10816377 0.3063215 0.41732654 -0.018697925 -0.20412701 -0.3392197 0.42296728
0.25591704 -0.029250817 0.19743562 -0.33677074 -0.38275102 -0.38821623 0.7344952 -0.23307306
0.47853073 0.77813 -0.31802788 -0.61834127 0.18975265 -0.020205952 -1.7071624 -1.1775442
-0.16620937 -0.54475516 0.9714017 -0.60983676 0.30904868 0.055993523 0.30771714 0.116589054
0.89611804 0.13493487 0.3056436 0.18507472 -1.0738971 0.31136706 -0.51344305 0.8174208
-0.042198904 0.13490783 0.1307362 -0.17525353 0.2818934 -0.12907554 -0.35044697 0.30269608
0.19269308 -0.009859626 0.45507613 -0.29770276 0.2567537 0.040007744 -0.23212102 0.28828716
-0.048727468 1.0497049 -0.29854137 0.053845186 -0.0907836 0.36936778 0.16490899 -0.19127022
0.3190964 0.10216444 0.54603064 0.30869722 0.13282423 0.05313441 -0.5589146 -0.21421173
-0.011036682 0.060649797 -0.11873557 0.26870194 -0.41194898 -0.3911327 0.8147339 0.21840012
-0.14432164 0.24213487 0.43897036 0.54880786 0.11477275 0.4654776 0.9109516 0.34654948
0.08845667 -0.21793279 -0.23260444 -0.10347794 -0.086997 0.29676467 0.2890636 0.017433584
0.65386856 0.41948366 -0.75723606 0.7772114 -0.23642993 -0.49809086 0.66110647 -0.22789876
-0.12874268 -0.034162384 -0.00073186896 -0.4233615 -0.50077605 0.16857404 0.82880884 0.27906013
0.19185075 -0.2873563 0.63211244 -0.02508295 -0.8049712 -0.19197443 -0.106981754 -0.25007126
-0.41227642 0.29313174 -0.26208374 0.5201782 0.40927625 0.22504422 0.42340067 -0.32669896
0.34894952 0.30486882 1.0340291 0.17839982 0.012503227 0.2191622 0.027938237 0.9942932
-0.27190533 -0.38501418 0.9410259 0.6389085 0.18297507 0.35836378 -0.13765177 -0.38559484
0.47429496 0.5545578 -0.05337122 0.38788706 -0.9048395 -1.0023528 -0.31366768 0.065196544
-0.28594813 -1.4940926 0.07189137 0.1815223 -0.028146008 0.359926 0.16424221 0.12659457
-0.2786774 -0.26238742 -1.1128054 -0.52181923 0.011146853 0.38531557 -0.023402812 -0.37156826
-0.022964148 -0.12325757 -0.17293209 -0.61730367 0.08385291 -0.3832007 -0.7498136 0.9376817
00000000: 4d5b 1e3c 065e 1dbf e8be eebe 923f 083f
00000010: 7d11 7dbf 2692 f43b 19be 913d 22fe 373f
00000020: 8149 8e3e 06a9 cd3e 8c43 08be f527 5d3e
00000030: 2673 ac3f 33da 22be fcd5 e03e 739a 1bbd
00000040: 25e8 1e3f 8595 8c3f a462 593e 3b9c 3d3e
00000050: bac3 663e 4146 253d f711 1c3f a87f b4be
00000060: d1da 673e 3092 13bf 5aa5 e0bd efb6 8c3e
00000070: a62b 65bc 0648 dcbe c920 ad3e 945a 98be
00000080: 978c a4bf 7074 b43e 0e8d 32bf d595 bcbe
00000090: 6889 e7be 7129 c0be c93a a83e a50b 18bf
000000a0: cd64 09be 5e47 25be 9252 7fbe 3cf6 f93e
000000b0: e092 8c3d ecfc 983e afe8 debd b019 2d3f
000000c0: b6ed 83be 743b f43e 4951 8e3e f8c8 8b3e
000000d0: e218 383e 8b55 6d3d 7467 be3e d332 203f
000000e0: d6b8 a53e 4987 813e ca54 29bf 3748 00bf
000000f0: 2ba7 943d acdd 9d3e b9ee 293f eb97 8a3e
00000100: d10a ac3e 046f fc3c c961 50bb 1ce2 2c3e
00000110: 71ec c4bd c605 e5bd a71b 113f c450 0fbe
00000120: 7d8f 103f d75a 88be 23a5 03be 2118 b0bb
00000130: b297 e5be 6564 1a3f 5442 96be 1819 84be
00000140: ec12 483e f784 ddbd 2cd6 9c3e d3ab d53e
00000150: 642c 99bc ac06 51be 34ae adbe 2b8f d83e
00000160: 8f07 833e 699f efbc 902c 4a3e 376d acbe
00000170: f1f7 c3be 47c4 c6be e107 3c3f b4aa 6ebe
00000180: fb01 f53e 8733 473f 8dd4 a2be 9d4b 1ebf
00000190: 854e 423e f486 a5bc 4c84 dabf c5b9 96bf
000001a0: ca32 2abe 1375 0bbf c8ad 783f 431e 1cbf
000001b0: a13b 9e3e 7759 653d 1a8d 9d3e 3ec6 ee3d
000001c0: fe67 653f 5e2c 0a3e 517d 9c3e 3a84 3d3e
000001d0: 7675 89bf 816b 9f3e 0171 03bf 7d42 513f
000001e0: c2d8 2cbd 4725 0a3e b6df 053e a975 33be
000001f0: 5554 903e 612c 04be c96d b3be fbfa 9a3e
00000200: 5651 453e 458a 21bc bdff e83e 7f6c 98be
00000210: 3975 833e 29df 233d 22b1 6dbe 609a 933e
00000220: 7496 47bd bb5c 863f 6ada 98be c58c 5c3d
00000230: c1ec b9bd c61d bd3e e7dd 283e 57dc 43be
00000240: 9a60 a33e 973b d13d aac8 0b3f 900d 9e3e
00000250: 1303 083e 78a3 593d 0715 0fbf 525a 5bbe
00000260: 33d3 34bc ec6b 783d a22b f3bd 4d93 893e
00000270: faea d2be 8c42 c8be 6792 503f 48a4 5f3e
00000280: 0dc9 13be 34f2 773e b9c0 e03e ac7e 0c3f
00000290: fa0d eb3d 1453 ee3e 2034 693f ef6e b13e
000002a0: c528 b53d c629 5fbe dc2f 6ebe 3eec d3bd
000002b0: 7c2b b2bd 8af1 973e 2500 943e e0d0 8e3c
000002c0: ee63 273f 90c6 d63e 39da 41bf 54f7 463f
000002d0: b01a 72be c405 ffbe 463e 293f 4b5e 69be
000002e0: 1fd5 03be dbed 0bbd e5da 3fba d7c2 d8be
000002f0: dc32 00bf ac9e 2c3e d12c 543f f8e0 8e3e
00000300: 8674 443e 5d20 93be 1fd2 213f c27a cdbc
00000310: 9812 4ebf f294 44be 4019 dbbd 5709 80be
00000320: e515 d3be 5d15 963e d72f 86be 662a 053f
00000330: a88c d13e fe71 663e f9c7 d83e 1645 a7be
00000340: 83a9 b23e c417 9c3e 115b 843f 71ae 363e
00000350: 56da 4c3c 0e6c 603e bbde e43c 008a 7e3f
00000360: 2d37 8bbe 9420 c5be 13e7 703f 828f 233f
00000370: d15d 3b3e 757b b73e 96f4 0cbe b06c c5be
00000380: cad6 f23e 80f7 0d3f c89b 5abd 2299 c63e
00000390: 90a3 67bf 194d 80bf 0d99 a0be c485 853d
000003a0: cb67 92be 6d3e bfbf c83b 933d fbe0 393e
000003b0: 7592 e6bc 3848 b83e 1c2f 283e 02a2 013e
000003c0: ceae 8ebe a557 86be 6870 8ebf f295 05bf
000003d0: 4aa1 363c 1548 c53e 41b7 bfbc 323e bebe
000003e0: 4f1f bcbc 776e fcbd 1c15 31be 9d07 1ebf
000003f0: 13bb ab3d e232 c4be c9f3 3fbf e80b 703f

nconvs.1.modlist.0.lin_l.bias f4 [48]
0.06196149 0.03522348 -0.28734562 0.16084209 -0.506749 -0.028113712 0.03966716 0.1149083
0.021600612 -0.17883997 -0.96262467 0.5039881 0.28217447 -0.91129166 0.07416265 -0.07200057
0.16293691 -0.6184669 0.0650962 0.011915858 0.3469893 -0.0025169987 -0.07769052 -0.14429477
-0.18938152 -0.107500255 0.16174705 -0.020594146 0.023133866 0.17563155 0.044753443 -0.17907505
-0.20552218 -0.13142523 0.092786625 0.15663648 0.32301432 -0.27146405 0.13187796 1.9552674
0.41631618 0.46584207 -0.2596288 -0.7380124 -0.7327506 -0.02940744 -0.18628523 -0.05784426
00000000: 55cb 7d3d 7f46 103d f71e 93be cab3 243e
00000010: 4dba 01bf ba4e e6bc 087a 223d 0b55 eb3d
00000020: c4f3 b03c d321 37be 926e 76bf 5d05 013f
00000030: 2c79 903e 694a 69bf 96e2 973d 0975 93bd
00000040: efd8 263e d953 1ebf 2851 853d bb3a 433c
00000050: 95a8 b13e 3bf4 24bb 351c 9fbd 02c2 13be
00000060: 3bed 41be 1829 dcbd 05a1 253e 0eb5 a8bc
00000070: 3c83 bd3c c2d8 333e 634f 373d 735f 37be
00000080: 6874 52be 5694 06be ea06 be3d 5065 203e
00000090: 2262 a53e 56fd 8abe 040b 073e 3446 fa3f
000000a0: 6527 d53e da82 ee3e 11ee 84be 61ee 3cbf
000000b0: 8b95 3bbf dfe7 f0bc 8ec1 3ebe 1aee 6cbd

nconvs.1.modlist.0.lin_r.weight f4 [48, 48]
0.6598405 0.2794115 0.37607542 0.08302597 -0.063449584 -0.22584644 -0.425336 0.4171659
-0.25656202 -0.34705883 0.50350326 0.03855709 0.09251687 0.48392653 -0.5990151 0.0011778285
-0.12512518 -0.10230248 0.31157848 -0.16808558 -1.1215025 0.7270942 0.10951793 -0.5517167
0.034547616 -0.03313861 0.07869175 0.22079457 -0.43392143 -0.2824767 -0.09178243 0.1219153
0.33801472 0.3909171 0.022995135 -0.13504915 0.069395766 -0.36068168 -0.6583289 0.056280173
0.3082333 0.50186646 -0.21895899 -0.12532544 -0.2612418 -0.03664432 0.095454715 -0.13617876
0.504683 -0.27338472 -0.23018566 0.16883518 0.19348682 0.10444346 0.8665604 0.2066866
-0.6655339 0.18410508 -0.73983216 0.15689433 -0.09376064 0.2731944 -1.0127366 0.5155034
-0.62072486 0.05696113 -0.23044151 -0.92342275 0.84341025 0.31030107 -0.36837053 -0.14251156
0.62837726 0.10521585 0.591013 -0.95365775 -0.7335932 -1.1964988 0.19809535 -0.009667532
-0.446507 -0.417743 -0.7043695 -0.13891329 -0.3103848 -2.0316033 -0.21908489 0.20690092
-0.12096891 -0.3034114 0.47686592 -0.29104072 -0.9219151 0.10953704 0.88371027 -0.017895177
0.09724367 0.49292794 -0.0069608283 -0.18730943 -0.3857657 0.03387127 0.49487257 0.112051554
-0.33608216 0.13778816 0.54700184 0.022434372 -0.17143959 -0.11033528 -0.3386364 -0.28084245
0.732038 -0.09768542 -0.1099955 0.27879307 0.12488723 -0.0841399 0.118166454 -0.73781806
0.4949541 -0.109356575 0.46872258 -0.2458726 -0.1596868 0.2349325 -0.3156588 -0.0954502
-0.6936191 -0.76135397 -0.14417835 0.30364698 -0.16679977 0.89104515 -0.801144 -0.26635796
0.14645514 -1.6708937 0.019572802 -0.21600424 0.21890242 0.20537321 0.1267165 -0.5752465
-0.2849679 -0.12541209 -0.62463826 0.35104164 -0.1311566 0.26132667 -0.77336884 0.42638418
0.075673595 -0.46518037 0.27069715 0.5195544 0.1873013 0.25906324 -0.25880045 -0.1984445
-0.12084144 -0.27475736 0.39370984 0.019242054 1.2353761 -0.43079656 -0.6536063 0.74441195
-0.3111505 0.11348434 0.121365644 -0.7736669 0.07041479 -0.1367116 0.1102814 0.13026431
-0.014780768 0.12496288 -0.58921623 -0.9321373 0.21718284 0.6143678 -0.15497419 0.07682215
0.03651772 -0.0099378545 0.21945779 0.18216567 -0.08068391 0.3531777 -0.5701593 0.14559871
1.2295563 0.86000496 0.59160435 1.6206814 -0.31051052 -0.19423197 0.02305219 -0.09619147
-0.07476112 -0.25305074 -0.70641094 -0.25584808 -0.195583 -0.09774139 0.44664636 1.3847345
0.015811097 -0.090755425 -0.12933356 0.70479757 0.17264426 1.2358427 -0.6856213 -1.0640264
0.21594514 -0.19389825 0.38520724 -1.1419954 0.10545733 -0.15063684 0.47889182 0.020828096
0.27223572 0.43804535 -0.006472943 -0.5174627 -0.06689479 -1.8189957 -0.28172025 -0.46686122
-0.12069552 -1.67667 0.5122232 -0.505691 -1.0519578 -0.18811631 0.09514528 -0.14338678
-0.17059319 0.6295642 0.17485878 -0.121604264 -0.052319236 -0.073199905 -0.76937705 -0.053861372
0.2381425 0.5825425 0.059407827 -0.21341585 -0.036244538 0.30918798 0.33621433 -0.2710483
00000000: 4feb 283f 060f 8f3e f58c c03e 8509 aa3d
00000010: dbf1 81bd 4a44 67be a4c5 d9be c596 d53e
00000020: 195c 83be b2b1 b1be 97e5 003f 0aee 1d3d
00000030: 7c79 bd3d 38c5 f73e 0e59 19bf 5e61 9a3a
00000040: d120 00be f683 d1bd 3787 9f3e a01e 2cbe
00000050: 658d 8fbf d822 3a3f f04a e03d 4e3d 0dbf
00000060: cd81 0d3d 5abc 07bd 2429 a13d f917 623e
00000070: f32a debe c9a0 90be 6df8 bbbd bbae f93d
00000080: 4410 ad3e 4926 c83e 4b60 bc3c 534a 0abe
00000090: 5e1f 8e3d 45ab b8be 3e88 28bf 0a86 663d
000000a0: c1d0 9d3e 527a 003f c936 60be 5055 00be
000000b0: 7cc1 85be 5b18 16bd c37d c33d 7272 0bbe
000000c0: e832 013f 15f9 8bbe cab5 6bbe 21e3 2c3e
000000d0: 6921 463e 74e6 d53d e7d6 5d3f a7a5 533e
000000e0: 6e60 2abf 0b86 3c3e a465 3dbf e8a8 203e
000000f0: 9405 c0bd 23e0 8b3e 5aa1 81bf 08f8 033f
00000100: d3e7 1ebf 1350 693d dcf8 6bbe 6f65 6cbf
00000110: bce9 573f c8df 9e3e 109b bcbe 8dee 11be
00000120: 55dd 203f 687b d73d a14c 173f ea22 74bf
00000130: c4cc 3bbf df26 99bf 82d9 4a3e 9164 1ebc
00000140: 919c e4be 69e2 d5be 8f51 34bf 493f 0ebe
00000150: c2ea 9ebe ca05 02c0 ca57 60be d6dd 533e
00000160: 8cbe f7bd bd58 9bbe c527 f43e 4a03 95be
00000170: a102 6cbf f554 e03d d63a 623f e898 92bc
00000180: b027 c73d 0d61 fc3e a917 e4bb 0bce 3fbe
00000190: 1583 c5be 9abc 0a3d f05f fd3e 497b e53d
000001a0: f612 acbe 5718 0d3e 5008 0c3f 4ac8 b73c
000001b0: dc8d 2fbe 77f7 e1bd c061 adbe 95ca 8fbe
000001c0: d866 3b3f 4b0f c8bd 5245 e1bd f7bd 8e3e
000001d0: e0c4 ff3d 8a51 acbd 4101 f23d a5e1 3cbf
000001e0: a06a fd3e 57f6 dfbd 68fc ef3e 07c6 7bbe
000001f0: f084 23be 2592 703e 089e a1be 657b c3bd
00000200: 0591 31bf 18e8 42bf 7da3 13be 9e77 9b3e
00000210: 8fcd 2abe 891b 643f c617 4dbf 1260 88be
00000220: 56f8 153e d8df d5bf 2457 a03c 3730 5dbe
00000230: f527 603e 5b4d 523e f8c1 013e 5b43 13bf
00000240: 50e7 91be 076c 00be 4be8 1fbf bbbb b33e
00000250: ea4d 06be 9ccc 853e 80fb 45bf 074f da3e
00000260: c2fa 9a3d 1f2c eebe d198 8a3e 8401 053f
00000270: e9cb 3f3e f0a3 843e 7e81 84be 0935 4bbe
00000280: b87b f7bd ffac 8cbe 5694 c93e 83a1 9d3c
00000290: ce20 9e3f 5e91 dcbe be52 27bf c891 3e3f
000002a0: 1e4f 9fbe 7a6a e83d 8d8e f83d 090f 46bf
000002b0: a135 903d 20fe 0bbe 37db e13d 0264 053e
000002c0: 092b 72bc 8aec ff3d e0d6 16bf 8da0 6ebf
000002d0: 2e65 5e3e 3547 1d3f 8eb1 1ebe ee54 9d3d
000002e0: 9b93 153d 62d2 22bc 8bb9 603e a389 3a3e
000002f0: 9b3d a5bd b5d3 b43e f6f5 11bf d417 153e
00000300: 1a62 9d3f 4929 5c3f 6273 173f 7d72 cf3f
00000310: 3cfb 9ebe bfe4 46be f2d7 bc3c 0900 c5bd
00000320: 5c1c 99bd de8f 81be 59d7 34bf 85fe 82be
00000330: e946 48be a32c c8bd d5ae e43e fb3e b13f
00000340: 4686 813c fbdd b9bd 0470 04be 9d6d 343f
00000350: a8c9 303e 1830 9e3f e184 2fbf 0432 88bf
00000360: b920 5d3e 438d 46be e239 c53e e82c 92bf
00000370: 03fa d73d 8b40 1abe 4f31 f53e af9f aa3c
00000380: 7b62 8b3e 7b47 e03e fb1a d4bb 6f78 04bf
00000390: 2300 89bd dad4 e8bf a33d 90be 6f08 efbe
000003a0: 362f f7bd 1f9d d6bf 0f21 033f f774 01bf
000003b0: 8ea6 86bf 90a1 40be 87db c23d fcd3 12be
000003c0: fbaf 2ebe 1f2b 213f 2e0e 333e a80b f9bd
000003d0: b24c 56bd d5e9 95bd e5f5 44bf be9d 5cbd
000003e0: a1db 733e 8121 153f 9f55 733d af89 5abe
000003f0: 2775 14bd e34d 9e3e 4924 ac3e d8c6 8abe

h_1.modlist.0.modlist.0.weight f4 [18, 49]
-0.412955 -0.06483334 -0.15215121 -0.15265064 0.043586385 -0.0019173564 -0.1378591 0.0041164407
0.18419491 -0.0677282 -0.2807302 -0.36640835 -0.1942564 -2.3909829 0.102027126 0.1837209
0.19975579 -0.31685424 -0.0074852486 0.4452467 0.0003369075 -0.042435344 -0.74417835 0.30317807
-0.20555608 -0.11213731 0.031725373 -0.11237747 0.1565909 0.14251933 -0.1454625 0.11926627
-2.1613758 -0.30505687 -0.52567965 -0.19753924 -0.1927469 -0.09386983 0.013218933 -1.3554941
0.06258235 -0.1323037 -0.12444484 -2.3029666 0.00020503366 -0.15029542 -0.05110987 -0.09881772
-2.3242366 0.2111796 0.19523938 -0.18471049 0.0034989808 -0.21911961 -0.2685464 0.30080214
-0.057282344 0.117146134 -0.17072037 0.23041816 0.2630122 0.31032726 0.29508972 0.09810432
0.1687496 -0.0602978 0.36454454 0.19504347 -0.23036392 -0.2148973 -0.005038924 0.17599818
-0.07946845 -0.049362358 0.1946987 0.19399521 0.5399391 0.006332423 0.31769 -0.03772661
-0.51640344 1.7002202 0.25241965 -0.1759482 0.16730413 0.08552284 0.51740605 -0.01566068
0.80249614 -0.26317817 -0.14222501 0.3382614 0.7772939 0.30043027 -0.0035774272 0.090744086
-0.013917057 4.5555773 -0.42138797 -0.1829151 0.37538984 0.09523923 0.04542875 0.38467523
0.025233231 0.17432208 0.13677365 0.27133688 -0.037861925 -0.06569249 -0.045969885 -0.71847826
-0.09651965 0.4198555 0.2735517 -0.10624078 -0.13417687 0.4404028 0.3109921 0.27906692
-0.3357766 0.38637102 -0.032334495 -0.15336722 -0.038015466 -0.5215657 0.07638446 -0.105267696
-0.008580593 0.27560997 -2.088409 -0.35690382 -0.2984817 -0.13092096 -0.21745412 -0.199949
0.09460649 -0.6083225 -0.12892984 -0.1499692 -0.014750329 -0.7720323 0.31332618 0.19460201
-0.21717176 0.25639647 -5.948054 0.6293338 0.15820329 -0.1629702 -0.017327374 0.5662283
-0.19607407 -0.066542916 0.25013185 -0.19402239 0.07442881 0.64518994 -0.9220421 -0.07444008
-1.4972746 0.15331618 0.071566105 0.1427249 1.3746334 0.26209542 0.00077513384 -0.06873857
-0.23348871 -0.21150392 -0.10820219 0.12667802 0.07041444 -0.15955828 -0.07921947 0.47142297
-0.27606577 -0.06578871 0.3233912 -1.1352667 0.036303017 -0.5083404 0.0013360303 3.0332596
0.1784748 -0.0052059856 0.5397286 -0.3832081 -0.12968174 0.13759756 -0.5396853 1.6002316
0.02690876 0.26585984 0.14355908 -2.1018763 0.16738795 0.35018763 0.2039709 0.1740725
-0.20369646 0.13557158 -0.23523353 0.20088191 0.043706648 0.11636852 -0.32166612 0.046962135
-0.08868069 -1.8336489 -0.13369988 0.1894428 0.37357044 -0.56045234 0.13113305 0.084968686
-0.067935355 0.36087158 0.0061509837 -0.09814819 -0.0417739 0.06525759 0.04946851 0.16484195
0.2561933 0.020428816 -0.23101284 0.24466018 1.0640731 0.21101943 -0.017898997 -0.17346084
-0.5256862 0.17457521 0.19888097 -1.772386 0.03231986 -0.007016701 0.09212362 -1.6762484
0.027501736 0.081171356 0.116337165 -0.32405305 5.742551 -0.728269 -0.7569092 0.1477769
0.18811525 -0.1969845 0.0010666372 0.20492038 0.19145168 -0.6541702 0.41773915 0.013019551
00000000: d66e d3be 58c7 84bd 87cd 1bbe 7350 1cbe
00000010: a387 323d ce4f fbba f02a 0dbe 35e3 863b
00000020: 979d 3c3e 15b5 8abd debb 8fbe e099 bbbe
00000030: 26eb 46be dd05 19c0 99f3 d03d 5521 3c3e
00000040: c88c 4c3e b83a a2be d146 f5bb 60f7 e33e
00000050: f6a2 b039 afd0 2dbd 7982 3ebf 283a 9b3e
00000060: 4b7d 52be 3fa8 e5bd 77f2 013d 2926 e6bd
00000070: 5d59 203e 96f0 113e 1ff4 14be e041 f43d
00000080: fb53 0ac0 6a30 9cbe f192 06bf ba47 4abe
00000090: 715f 45be d33e c0bd 3994 583c d580 adbf
000000a0: 2d2b 803d 9f7a 07be f0dc febd ce63 13c0
000000b0: 4efe 5639 0be7 19be 9558 51bd f260 cabd
000000c0: 4bc0 14c0 773f 583e d5ec 473e bf24 3dbe
000000d0: 284f 653b e460 60be ea7e 89be bd02 9a3e
000000e0: e4a0 6abd 50ea ef3d 52d1 2ebe bdf2 6b3e
000000f0: 89a9 863e 37e3 9e3e 0016 973e ebea c83d
00000100: b2cc 2c3e d3fa 76bd 95a5 ba3e 7ab9 473e
00000110: 85e4 6bbe 0a0e 5cbe 8f1d a5bb de38 343e
00000120: 5bc0 a2bd 2f30 4abd 195f 473e aea6 463e
00000130: 7339 0a3f 3780 cf3b 44a8 a23e 3887 1abd
00000140: 0433 04bf d1a0 d93f 263d 813e c42b 34be
00000150: c651 2b3e 9926 af3d b974 043f d44a 80bc
00000160: 6370 4d3f 4abf 86be 6fa3 11be 9930 ad3e
00000170: bcfc 463f ffd1 993e 4573 6abb 09d8 b93d
00000180: 5e04 64bc 4ac7 9140 2ac0 d7be 194e 3bbe
00000190: 1933 c03e c90c c33d 7f13 3a3d 27f4 c43e
000001a0: ecb5 ce3c 7d81 323e 640e 0c3e abec 8a3e
000001b0: 1b15 1bbd c989 86bd eb4a 3cbd 31ee 37bf
000001c0: 18ac c5bd 4df7 d63e f80e 8c3e c494 d9bd
000001d0: a965 09be 7a7c e13e 5b3a 9f3e dce1 8e3e
000001e0: e9ea abbe 6cd2 c53e 2d71 04bd 4c0c 1dbe
000001f0: 1bb6 1bbd 5485 05bf 756f 9c3d 9796 d7bd
00000200: 9e95 0cbc c01c 8d3e 7ea8 05c0 19bc b6be
00000210: 98d2 98be 2510 06be 4bac 5ebe 6ebf 4cbe
00000220: 0cc1 c13d 06bb 1bbf 2f06 04be 8791 19be
00000230: 5dab 71bc e9a3 45bf 4a6c a03e c045 473e
00000240: 4662 5ebe 6646 833e 7556 bec0 051c 213f
00000250: 0b00 223e a9e1 26be 23f2 8dbc 56f4 103f
00000260: a4c7 48be a747 88bd 4811 803e cead 46be
00000270: 226e 983d 2b2b 253f f30a 6cbf 0a74 98bd
00000280: b2a6 bfbf ebfe 1c3e 4091 923d 7a26 123e
00000290: fdf3 af3f 5f31 863e 5a32 4b3a cfc6 8cbd
000002a0: aa17 6fbe 7c94 58be 1c99 ddbd e2b7 013e
000002b0: 7235 903d 3f63 23be d13d a2bd 5a5e f13e
000002c0: 7e58 8dbe 3bbc 86bd 8893 a53e 6b50 91bf
000002d0: 79b2 143d 9922 02bf bd1d af3a ed20 4240
000002e0: 19c2 363e f996 aabb a72b 0a3f da33 c4be
000002f0: 4acb 04be 60e6 0c3e d128 0abf 64d4 cc3f
00000300: c36f dc3c c81e 883e 2701 133e 2485 06c0
00000310: bf67 2b3e cb4b b33e bfdd 503e 1040 323e
00000320: ce95 50be 47d3 0a3e 0fe1 70be fdb3 4d3e
00000330: be05 333d 9e52 ee3d 6cb1 a4be 5e5b 403d
00000340: 399e b5bd 02b5 eabf 9fe8 08be 4bfd 413e
00000350: a044 bf3e ce79 0fbf be47 063e 1004 ae3d
00000360: b121 8bbd 29c4 b83e 318e c93b eb01 c9bd
00000370: 1c1b 2bbd c5a5 853d 7e9f 4a3d 54cc 283e
00000380: c52b 833e 555a a73c a18e 6cbe 3388 7a3e
00000390: 8c33 883f 7a15 583e eba0 92bc b89f 31be
000003a0: 5f93 06bf d8c3 323e 74a7 4b3e 8bdd e2bf
000003b0: d461 043d 5bec e5bb 4fab bc3d 4f8f d6bf
000003c0: 524b e13c 2b3d a63d 2e42 ee3d 48ea a5be
000003d0: fac2 b740 d66f 3abf cdc4 41bf d452 173e
000003e0: 49a1 403e 4eb6 49be 68ce 8b3a a6d6 513e
000003f0: e90b 443e b377 27bf e8e1 d53e f44f 553c

h_1.modlist.0.modlist.0.bias f4 [18]
-0.43087104 0.22572415 -0.60752 -1.0942852 1.3266865 -2.3918173 0.24495648 0.17150524
0.7863074 0.38260248 0.4459166 -0.9794843 0.34249902 0.013807311 1.4741355 0.6176548
-0.0013934812 -0.19853264
00000000: 219b dcbe 3b24 673e 6e86 1bbf 8a11 8cbf
00000010: ddd0 a93f 8913 19c0 dfd5 7a3e 129f 2f3e
00000020: 714b 493f 79e4 c33e 2e4f e43e 7cbf 7abf
00000030: 085c af3e 0f38 623c 79b0 bc3f a01e 1e3f
00000040: 78a5 b6ba 244c 4bbe

g_1.modlist.0.modlist.0.weight f4 [18, 85]
-0.0170495 0.54885983 -0.367972 0.31990242 0.23263744 -0.33364707 0.54702425 0.4268827
0.17302307 0.27061343 1.1614723 0.8261953 0.11174716 0.9176179 -0.22971344 0.43005714
0.4618133 0.52438605 -0.5863524 0.38490006 0.06849022 -0.08651878 0.4248915 0.7369074
0.08840661 0.18131399 0.022328205 0.7772303 -1.4702946 0.49297586 0.022784589 -0.44204414
-0.23674667 0.3600581 -0.047185555 0.10780352 0.662385 0.22494197 0.0056709987 2.3865755
0.3268828 1.0605572 0.028327212 0.51176506 0.08819373 -0.128449 -0.10939838 -0.14291114
-0.0050016567 0.43287107 -1.6085488 1.2673395 -0.46978906 -1.0917315 0.57227695 2.161715
-0.5301435 0.7054722 -1.7486744 0.6079209 1.2722726 0.28200868 0.5555616 1.4446845
-1.8091419 0.002639301 -0.7258227 1.3341074 -2.3755941 1.9600623 -0.08528007 -0.25954142
0.2484311 1.9660647 -0.29819903 0.5536526 -2.017499 0.48110926 0.70549434 0.2763344
-0.30835107 1.3996205 -2.2542467 -0.9648073 -0.10983869 0.44207665 -0.3127116 0.5081406
0.051615335 0.07201813 0.14459023 -0.17994577 0.42833993 -0.20642221 0.27168077 0.16420354
-0.83109784 0.061714534 0.13050607 0.5841104 0.032901376 0.34833327 2.439236 0.17128776
0.01223227 0.3913692 -0.5959812 0.5922884 0.30639854 0.17179342 0.19865105 0.15349181
0.3515181 0.544599 -0.3239174 0.615609 0.21372098 0.13767554 0.5571907 0.33832082
-0.054117933 0.35442045 0.046988923 -0.62558204 -1.1782697 0.2970539 -0.18503958 0.037674792
0.4808313 0.24647129 -0.029296903 -0.18564293 0.230092 -0.08488772 -0.7812005 0.48291326
-0.35376352 -0.040906247 -0.5147059 -0.44367075 -0.03071859 0.6028612 -0.1982831 0.32393232
-0.41577518 0.3360496 0.11670309 0.5714388 0.74449545 0.44332162 0.5251259 -0.84064
-0.005908934 0.12164917 -0.29880613 -0.41403073 0.07661617 0.16938846 0.05292827 -0.18699865
0.2294053 -0.22018653 0.47019973 0.21831143 0.30046353 0.40236133 -0.28910512 -0.159796
-0.12693816 -0.25043508 -1.2129184 -0.73704123 0.5347369 0.1702808 -0.6260911 -0.087000154
-0.41865265 0.6892493 -0.0313826 -0.14937893 -0.37802932 -0.16222058 0.32433167 -0.14325066
-0.06639704 0.19708715 -0.42452636 -0.16895807 0.096012205 0.46473685 -0.30040526 0.29420686
0.21218285 -0.04587114 -0.4588534 0.14648697 0.21652384 -0.38719946 -0.3509771 0.010641006
0.07258104 -0.29898888 1.4693211 -0.22126335 0.16267894 0.77201253 0.16039567 0.24647689
0.37059385 1.5290457 0.3361456 -0.14746769 -0.16158955 -0.24661832 -0.28451547 0.28611588
0.38396326 -0.23627365 -0.2651771 1.5187405 -2.1667237 2.3050709 0.74684435 -2.2702305
1.5459993 1.9096203 -0.48255134 -0.44142053 -1.2337463 -0.024445819 2.7266586 -0.40352136
-0.061993305 0.13532616 -3.269442 0.8093613 -1.2112312 0.527925 -1.3476052 0.72073
-0.22392079 -0.5225179 0.10649295 1.8971238 -0.35883656 0.27051824 -0.8382107 0.105840765
0.9191329 0.25963894 0.5498909 1.2028854 -0.97890556 -0.004982804 -1.575829 -1.8475239
00000000: 65ab 8bbc 1482 0c3f d366 bcbe 40ca a33e
00000010: 8238 6e3e cad3 aabe c809 0c3f 5f90 da3e
00000020: f62c 313e d88d 8a3e 20ab 943f 8981 533f
00000030: b2db e43d 02e9 6a3f 003a 6bbe 7330 dc3e
00000040: cb72 ec3e 2a3e 063f 311b 16bf 9f11 c53e
00000050: 9a44 8c3d c230 b1bd 618b d93e f7a5 3c3f
00000060: 860e b53d 60aa 393e a4e9 b63c 91f8 463f
00000070: 9d32 bcbf 5567 fc3e bfa6 ba3c 9c53 e2be
00000080: b86d 72be 8959 b83e a445 41bd 18c8 dc3d
00000090: 1092 293f 3057 663e c9d3 b93b a7bd 1840
000000a0: 2f5d a73e 57c0 873f 780e e83c 0903 033f
000000b0: ea9e b43d 2288 03be 420c e0bd 4c57 12be
000000c0: f0e4 a3bb 47a1 dd3e ede4 cdbf 2e38 a23f
000000d0: 3188 f0be dcbd 8bbf be80 123f 8a59 0a40
000000e0: 7cb7 07bf d399 343f 90d4 dfbf b4a0 1b3f
000000f0: d4d9 a23f 7163 903e 4939 0e3f 6ceb b83f
00000100: f691 e7bf 1ff8 2c3b 84cf 39bf 08c4 aa3f
00000110: bc09 18c0 52e3 fa3f 51a7 aebd 9de2 84be
00000120: b964 7e3e 02a8 fb3f 8bad 98be 2dbc 0d3f
00000130: b41e 01c0 f453 f63e 479b 343f b47b 8d3e
00000140: 31e0 9dbe c426 b33f 9445 10c0 9cfd 76bf
00000150: 1bf3 e0bd df57 e23e bc1b a0be 8115 023f
00000160: 9a6a 533d 3e7e 933d 760f 143e b443 38be
00000170: 5f4f db3e 5860 53be be19 8b3e f924 283e
00000180: d4c2 54bf 61c8 7c3d 62a3 053e 4288 153f
00000190: 98c3 063d bd58 b23e 711c 1c40 0f66 2f3e
000001a0: dc69 483c 8b61 c83e 3992 18bf 36a0 173f
000001b0: 45e0 9c3e 9dea 2f3e 2e6b 4b3e f52c 1d3e
000001c0: 2efa b33e d76a 0b3f 80d8 a5be 8d98 1d3f
000001d0: acd9 5a3e d1fa 0c3e 0da4 0e3f 6338 ad3e
000001e0: c4aa 5dbd 9976 b53e 7577 403d 2526 20bf
000001f0: 8bd1 96bf 7317 983e 047b 3dbe e250 1a3d
00000200: 852f f63e f862 7c3e 0f00 f0bc 2e19 3ebe
00000210: 3d9d 6b3e 9dd9 adbd c2fc 47bf 6840 f73e
00000220: 7e20 b5be 4f8d 27bd c4c3 03bf d028 e3be
00000230: 8da5 fbbc 1d55 1a3f ba0a 4bbe 75da a53e
00000240: 7ce0 d4be b10e ac3e 0802 ef3d d049 123f
00000250: 4197 3e3f 0dfb e23e a76e 063f 2f34 57bf
00000260: bb9f c1bb 3323 f93d 1efd 98be d6fb d3be
00000270: f0e8 9c3d 2b74 2d3e 50cb 583d 937c 3fbe
00000280: 39e9 6a3e 9478 61be 05be f03e 088d 5f3e
00000290: 5bd6 993e 4e02 ce3e 9605 94be 90a1 23be
000002a0: 14fc 01be 0739 80be e940 9bbf bcae 3cbf
000002b0: 84e4 083f 175e 2e3e 8247 20bf 232d b2bd
000002c0: a459 d6be a472 303f 0b8b 00bd caf6 18be
000002d0: 0f8d c1be 271d 26be cd0e a63e 4db0 12be
000002e0: 2cfb 87bd 37d1 493e 855b d9be 5803 2dbe
000002f0: 0ca2 c43d fdf1 ed3e b8ce 99be 48a2 963e
00000300: 7646 593e 60e3 3bbd d5ee eabe ae00 163e
00000310: 6db8 5d3e 023f c6be 45b3 b3be 9d57 2e3c
00000320: 5ea5 943d 1215 99be b712 bc3f dc92 62be
00000330: 4f95 263e 9da2 453f c33e 243e 7064 7c3e
00000340: 7abe bd3e c5b7 c33f 471b ac3e c501 17be
00000350: bb77 25be 8389 7cbe 03ac 91be c87d 923e
00000360: d596 c43e b8f1 71be 4bc5 87be 1766 c23f
00000370: 9aab 0ac0 4886 1340 3131 3f3f 754b 11c0
00000380: 4ee3 c53f 706e f43f f810 f7be df01 e2be
00000390: 66eb 9dbf 9942 c8bc 9381 2e40 5a9a cebe
000003a0: b1ec 7dbd f192 0a3e 8a3e 51c0 4d32 4f3f
000003b0: a009 9bbf 1826 073f 547e acbf c381 383f
000003c0: 7e4b 65be bcc3 05bf fa18 da3d f4d4 f23f
000003d0: 6db9 b7be 5e81 8a3e fa94 56bf 0bc3 d83d
000003e0: 4b4c 6b3f 65ef 843e a6c5 0c3f 26f8 993f
000003f0: 8e99 7abf ca46 a3bb c4b4 c9bf aa7b ecbf

g_1.modlist.0.modlist.0.bias f4 [18]
-1.2869302 -0.29609174 -0.791092 -0.45253438 0.2912877 0.83085054 -0.52775025 -0.7694888
1.1444046 0.38467535 0.11062976 0.55724406 0.15830933 0.4482627 -0.6497926 -0.7402315
0.3675116 0.11898591
00000000: 21ba a4bf 5699 97be 0185 4abf 96b2 e7be
00000010: a923 953e 9fb2 543f a41a 07bf 38fd 44bf
00000020: da7b 923f 2bf4 c43e db91 e23d 8ca7 0e3f
00000030: d71b 223e b082 e53e cf58 26bf d07f 3dbf
00000040: 7b2a bc3e e3ae f33d
