2WL_link_pred/checkpoint/archive/20221214_020541/2WL_state_dict_100_20_0.pt (torch, 56754 bytes, 16 tensors)

lin1.1.modlist.0.weight f4 [48, 3]
000000 ee b3 9a bd 5b b4 8c be 53 f5 1b be 1e 69 2a 3e
       -0.0755385 -0.2748135 -0.15230303 0.16641662
000010 7f 03 8d 3e 52 e4 87 be 62 51 e8 3d 5c 60 5a 3c
       0.2754173 -0.26541382 0.113436475 0.013328638
000020 09 c3 32 3e a5 a0 77 be 17 2b 2e 3e 90 c4 93 be
       0.17457213 -0.24182375 0.17008625 -0.28860903
000030 e4 ab 68 3e ca 64 85 3c 35 e3 6c bd 18 92 3c be
       0.22721821 0.016283412 -0.05783387 -0.18415105
000040 b2 fd 3c 3e 06 6e fd be 24 38 ec 3e 1d 06 41 3e
       0.18456152 -0.49498004 0.46136582 0.18849988
000050 2e ed d6 3d 44 42 a4 3e f6 ae ae be e5 4e ae bd
       0.10494457 0.32081807 -0.3411786 -0.08511142
000060 f4 1e f1 be a4 6a 27 be 64 b2 ca 3b 16 85 07 bd
       -0.47093928 -0.16349274 0.0061858166 -0.033085905
000070 2e f5 64 be 02 09 2f 3d a8 b5 03 be eb 12 2b 3e
       -0.22359154 0.0427332 -0.12862265 0.16706435
000080 ee 41 51 3e e8 cd 2c be d0 53 8a 3e 39 49 03 3e
       0.20435306 -0.16875422 0.2701707 0.12820901
000090 2c 32 2c 3e 72 5e 5a 3d 92 69 a8 3e af 45 21 3e
       0.16816014 0.053312726 0.32893044 0.15749238
0000a0 e7 4a 50 be c4 bf f4 be 5d 55 8f 3e a8 d7 52 3e
       -0.20341073 -0.47802556 0.27994815 0.20590079
0000b0 42 6f c1 be e0 1d b1 bb 00 b1 79 bd 8c fb 1d bf
       -0.37780195 -0.0054051727 -0.060959816 -0.61711955
0000c0 62 fa d5 3e d9 89 63 3e 6d 9d 08 bd a8 c6 81 bb
       0.4179259 0.22220553 -0.033353258 -0.0039604492
0000d0 39 ec 6d 3d 04 12 f0 3b f7 2d ac bc 5d ab ee be
       0.058086608 0.0073263664 -0.021018011 -0.46615115
0000e0 78 f1 0f be ea d1 61 3d 08 bb e8 3d d0 5a 5f be
       -0.14056957 0.05513183 0.113637984 -0.21811986
0000f0 31 02 5e 3e d0 d2 16 be 62 89 03 3e 77 41 88 be
       0.21680523 -0.14728856 0.12845376 -0.26612446
000100 4b 69 6f be 55 87 dc 3d 80 c8 47 3e fb 82 b0 bd
       -0.2338001 0.10768 0.19510078 -0.086187325
000110 48 1e c9 3e f9 04 57 be 52 d8 ec bd 72 dd d6 bd
       0.39280915 -0.2099799 -0.11564697 -0.10491456
000120 b3 5a e8 bd 18 56 ba be cc fa 0b bc a7 51 bd bd
       -0.113454245 -0.3639381 -0.008543681 -0.092440896
000130 c0 29 91 3c 34 5a b0 3c d1 4d d9 3d 03 bf dd 3d
       0.017720103 0.021527387 0.106105454 0.10827448
000140 ff 57 8c 3d 2e f8 2f 3e 62 06 6d bb 4c f9 49 3e
       0.068527214 0.17184517 -0.0036167135 0.19724005
000150 0f 11 12 3d 44 ae 96 be b2 75 88 3d 7f e7 b4 3e
       0.0356608 -0.2942983 0.066630736 0.35332868
000160 ec 50 65 3d ca a0 40 3d f1 d7 3c be 70 b2 26 bc
       0.055985376 0.04702834 -0.1844175 -0.010174379
000170 f5 c1 77 bd b0 e6 5a 3e f2 81 6b 3c 0d 23 00 3e
       -0.060487706 0.21377063 0.014374243 0.12513371
000180 c0 1d 0a be 71 34 eb bd bb ce 9a be 79 51 01 bd
       -0.13487911 -0.11484612 -0.30235848 -0.03157184
000190 77 db 16 bd 30 04 7f 3e 5e 2e d0 3e 8b bd 1a be
       -0.03683039 0.24903941 0.40660375 -0.15111367
0001a0 35 08 10 bd a5 47 a5 3d 6d 1a 72 3d 54 d1 69 3c
       -0.035164077 0.08070306 0.059107233 0.014271099
0001b0 3f 36 41 be 8a 37 c2 3e df c7 af bd 9b 36 89 3e
       -0.1886835 0.37932998 -0.08583044 0.26799473
0001c0 27 39 95 3e 55 86 f3 bc 51 33 3e 3c 6a 8b e3 3e
       0.29145166 -0.02972714 0.0116089145 0.44442302
0001d0 5a b7 f1 be 8d 05 3d 3e 69 b9 ea bc b9 8e 9f 3e
       -0.472102 0.18459149 -0.028652864 0.31163576
0001e0 fe 35 89 3d f6 96 43 be fb c2 8b be b2 5d e7 bc
       0.06699751 -0.19100556 -0.27297196 -0.02824292
0001f0 e7 bb 89 bd 22 03 21 be 1d b6 38 be 09 7e 3c 3e
       -0.06725293 -0.15723851 -0.1803822 0.18407454
000200 37 64 d7 3d 31 26 b2 3e 33 7f 52 be 9a cf bf 3c
       0.10517161 0.34794763 -0.20556335 0.023414422
000210 39 08 d5 be 8d 17 8e 3d fd fd 3d be 7c b1 cf be
       -0.41607836 0.06938086 -0.1855392 -0.40565097
000220 9f a7 8f 3e 96 c2 12 3d 61 04 87 3b 51 38 39 be
       0.28057572 0.035830103 0.004120395 -0.18087889
000230 74 49 54 3e 58 53 78 3e e6 63 95 be 65 36 c4 bd
       0.20731145 0.24250543 -0.2917778 -0.095806874

lin1.1.modlist.0.bias f4 [48]
000000 20 1d 39 bd aa 48 fd 3d 97 79 95 3e 46 e8 64 3e
       -0.04519379 0.12367375 0.29194328 0.2235423
000010 6e db 9c 3e 23 62 be 3e e6 22 1f 3d ed 18 02 3f
       0.30636162 0.37184247 0.03885164 0.50819284
000020 4e f4 1a bf b8 40 39 3e f8 13 bf bb 89 cc b6 3c
       -0.6052903 0.18091094 -0.005831238 0.022314327
000030 8a b1 f7 be 1a be b7 be 1d c1 c2 3e 23 0a 86 be
       -0.4837764 -0.35887223 0.3803796 -0.2617961
000040 6e c2 06 bf 0a 16 48 bd 2d f1 d4 3d 94 c2 3d be
       -0.52640426 -0.048849143 0.10397563 -0.18531257
000050 e2 fd 17 3f ec ef 14 bf 36 3d e1 3e 75 79 25 be
       0.5937177 -0.5817859 0.43992013 -0.16159613
000060 b0 27 bc 3d 04 fd 02 be c8 b9 45 3e f0 91 1c 3f
       0.09187257 -0.1279183 0.19309151 0.6116018
000070 1d ef 51 be e7 ba 45 be bd b5 8e 3e 8a 6c d8 3c
       -0.2050137 -0.19309579 0.2787303 0.026418943
000080 59 1b bb 3c d4 6c ad be 00 02 b3 3e 42 e4 db 3e
       0.022840189 -0.33872092 0.34962463 0.42947584
000090 65 b1 0e bf f1 f0 af be 94 5d db 3e d1 57 fb be
       -0.5573943 -0.3436351 0.42844832 -0.49090436
0000a0 df 9a 9d 3e e1 35 ab be 2e c7 e3 be 58 17 77 be
       0.3078222 -0.33439544 -0.444879 -0.24129999
0000b0 01 c0 a6 3e 10 3a 91 3e 26 c2 b8 3e 5e 76 c8 bd
       0.32568362 0.2836461 0.36085624 -0.09788202

embedding.0.weight f4 [5, 48]
000000 bc 14 cc 3f ff a0 e8 be 9d c7 df be d4 fc ea 3e
       1.5943828 -0.4543533 -0.4370698 0.45896018
000010 bc 63 21 c0 ec 38 23 3f 15 86 64 be 55 b8 dd bf
       -2.5217123 0.6375873 -0.22316773 -1.7321879
000020 08 40 21 3f 45 d8 e4 bf a0 a0 1d 3f ec 84 f0 be
       0.6298833 -1.78785 0.6157322 -0.4697641
000030 fc 0d 2f 3e cd 9e c8 bf 01 79 e6 be 67 b2 05 bf
       0.17095178 -1.5673462 -0.45014194 -0.52225345
000040 37 ca 1b 3f 82 0c 63 3e ae f7 af 3f 92 26 ad 3e
       0.6085543 0.2217274 1.3747461 0.3381849
000050 0a 5f 66 3e 45 ba 64 3f fd 6a c5 3e 61 78 55 3f
       0.22497192 0.89346725 0.38558188 0.8338681
000060 aa 86 7e 3f 99 21 d2 3f ba 2f e0 3e c7 1c 7d 3e
       0.9942423 1.6416503 0.43786412 0.24718009
000070 87 0f 95 bc 1b c4 4d bf 92 09 d2 bf 9a d8 ef 3e
       -0.01819588 -0.8037736 -1.6409171 0.4684494
000080 8b 43 54 bf 16 58 96 3f ce 42 b2 3e 81 11 1d be
       -0.8291556 1.1745632 0.34816593 -0.15338708
000090 88 b2 90 bf f5 85 19 c0 21 6a 37 bf be e3 fb bf
       -1.1304483 -2.398801 -0.71646315 -1.9678876
0000a0 95 44 17 bf 29 3b dc 3e 3b c5 a9 3f fc 98 42 bf
       -0.5908902 0.43013886 1.3263315 -0.76014686
0000b0 d5 95 76 bf 10 3f ba be 23 f9 b6 bf 5d cd e8 be
       -0.96322376 -0.36376238 -1.429478 -0.4546918
0000c0 ed e7 a4 bf b3 53 7c bf 86 5e 46 bf 45 a0 5b 3f
       -1.2883278 -0.98565215 -0.7748798 0.85791427
0000d0 c6 d0 e2 bf 13 1b a3 3f ac 65 6c 3f 37 8e 01 40
       -1.7719963 1.2742637 0.9234264 2.024305
0000e0 47 40 1f be df 58 48 bf f5 6a 1c 3f ca 07 1a 3f
       -0.15551864 -0.78260607 0.61100703 0.60168135
0000f0 0f d1 6c 3f fd 0c 89 3e 24 14 80 3f ca 67 44 bf
       0.925065 0.26767722 1.0006146 -0.7672087
000100 6f 3b 01 3f c5 14 89 bf 13 4f 66 3f a4 2b c2 3e
       0.50481313 -1.0709463 0.8996441 0.3792392
000110 27 36 e4 3f cc 40 28 c0 f4 de 48 bf 43 a9 ad bf
       1.7829026 -2.628955 -0.784652 -1.356728
000120 0e 39 da bd 62 52 8e 3f c1 e3 34 bf 0a 85 97 3f
       -0.106554136 1.1118891 -0.70660025 1.1837475
000130 61 80 a7 3e f4 99 7d bf 72 97 58 be 47 a5 ca be
       0.32715133 -0.9906304 -0.21151522 -0.39579222
000140 29 29 9b bf 1e f9 89 3e 69 b6 a6 3e 46 b4 1c bf
       -1.2121936 0.26947874 0.32561043 -0.61212575
000150 e9 29 5b bf ac 30 bd bf 9a 1c 08 3e 1b e9 98 bd
       -0.85610825 -1.4780478 0.1329216 -0.07466336
000160 a8 a9 22 bf c8 65 a8 be 2d 6d f7 3e 9d b9 0c 3e
       -0.63540125 -0.32890153 0.48325482 0.13742681
000170 d1 46 1e bf 20 6f 33 bf e6 0a 02 bf 72 b7 e6 bd
       -0.6182681 -0.7009144 -0.5079788 -0.11265458
000180 be 7e 02 40 e8 14 77 be 3e f8 94 bf f5 f2 de 3e
       2.0389857 -0.24129069 -1.1638258 0.43544737
000190 a0 35 14 3e f9 13 57 3b 03 c4 3f bf 2c ca 9a 3f
       0.14473581 0.00328183 -0.74908465 1.2092948
0001a0 5c 38 7c 3e 16 6f 05 3f 0d 77 fd 3e 7e a5 1b bf
       0.24630874 0.5212263 0.4950489 -0.60799396
0001b0 d9 60 01 40 ad 53 ba bf 9a b4 1f bf f3 eb 8a bf
       2.021536 -1.4556786 -0.6238495 -1.0853256
0001c0 cc 1a 80 bf a3 9d 24 3f 52 5f 9a 3f 9e 33 b0 be
       -1.0008178 0.64303035 1.206034 -0.3441438
0001d0 c7 9f 6a be 45 75 99 be bd 00 28 3d eb 85 94 3f
       -0.22912513 -0.29972282 0.04101633 1.1603369
0001e0 6f 01 24 40 fc 2a a1 3e 69 af d6 3f da f0 e1 3b
       2.5625875 0.31478107 1.6772281 0.006895167
0001f0 e2 09 20 3f c4 df b7 bf 13 f7 7a bf 7a 5b a0 3f
       0.6251508 -1.4365163 -0.98033255 1.2527916
000200 66 74 3c 3f de f5 cf 3e c9 92 c9 bd 02 2b e4 be
       0.7361511 0.4061727 -0.0984245 -0.44564062
000210 4b b0 6e 3f f2 b0 0b bf 24 10 3d bf 17 a2 df 3e
       0.9323775 -0.5456687 -0.73852754 0.43678352
000220 50 19 dc 3f ac 07 ac 3f 94 f7 5b bf 68 9f 21 c0
       1.7195225 1.3439841 -0.8592465 -2.5253544
000230 bc ac f6 3f dc d7 2a bf 79 6c b7 be 3a 82 ba bf
       1.9271464 -0.66735625 -0.35824946 -1.4570992
000240 0d ef 60 3e 0c fe 8b bf 80 8c 40 3e 81 c2 48 bf
       0.2196619 -1.0936904 0.18803596 -0.7842179
000250 01 3d b2 be e1 94 4e bf 59 58 dd 3d 14 a8 53 3d
       -0.34812167 -0.8069592 0.108078666 0.051673964
000260 0a 93 e1 be 84 a5 07 bf 00 38 ad 3e cf 3f 55 bf
       -0.44057494 -0.5298693 0.33831787 -0.8330049
000270 83 cd a7 3f 69 05 09 bf b3 72 ae 3f 1e 19 4b be
       1.3109592 -0.5352388 1.3628753 -0.198338
000280 9a a3 2d bf 1f 19 c6 3e 4f 33 14 3f c4 0c 5d 3f
       -0.6782776 0.3869104 0.5789079 0.86347604
000290 f0 77 76 3e d3 fc 1d be 42 72 7b 3f d9 06 e6 be
       0.2406919 -0.15428476 0.9822122 -0.449271
0002a0 c1 7f 89 3f 73 24 42 bf cd 2b 08 c0 95 60 9c bf
       1.0742112 -0.7583687 -2.1276734 -1.2216974
0002b0 bb 36 22 bf ac cc 3b 3f 29 83 83 3f e4 82 1b bf
       -0.6336476 0.7335918 1.0274402 -0.607466
0002c0 85 ed 69 3e 6f ed 8a bf d7 a7 04 3f 5b a8 cb 3f
       0.22844513 -1.0853709 0.51818603 1.5910753
0002d0 26 f6 24 bf 55 1e fa 3e 84 97 1f 40 4b 53 3d 3f
       -0.6443809 0.48851267 2.4936228 0.7395522
0002e0 98 6b ba 3f 42 8c d8 3d 34 63 6f 3f 3b 2d 6f 3d
       1.4564085 0.10573627 0.93510747 0.058392745
0002f0 38 0c 27 3d cf 44 ea be 84 83 f3 bd ad 4a 54 3e
       0.040783137 -0.45755622 -0.11890319 0.20731612
000300 33 67 56 3e ac 83 31 bf 38 9f a8 3f 4f 07 87 bf
       0.20937805 -0.6934154 1.317359 -1.0549105
000310 c5 f2 e2 bf 5f 77 b9 3d 5f 25 a9 3f 1c af 04 bf
       -1.7730337 0.09055971 1.321453 -0.51829696
000320 37 82 96 3e 16 24 db 3f 65 a0 9b 3e b3 c1 6b bf
       0.2939622 1.7120388 0.3039581 -0.92092437
000330 3f ed 9b 3d ba ca 81 3f 9b fa 2e c0 58 f0 d7 3f
       0.076136105 1.0139992 -2.7340457 1.6870222
000340 f3 18 57 3e 60 9d d9 3e 15 fe ba be 40 e7 a6 bd
       0.21005611 0.4250288 -0.36521974 -0.08149576
000350 dc 63 dd 3f b4 ed d0 bf c4 39 b3 bf 3e 8e 8c 3f
       1.72961 -1.6322541 -1.4002004 1.0980909
000360 50 52 39 be e0 02 39 bd 93 ec f1 be f2 e4 76 be
       -0.18097806 -0.045168757 -0.47250804 -0.24110773
000370 b0 48 da be 3a b6 9e bd 75 2d cb 3e 90 73 17 bd
       -0.4263358 -0.07749601 0.39683118 -0.036975443
000380 03 f1 d9 3f 81 bd 8d 3f f2 38 f9 be 3c 9d 3f bf
       1.7026676 1.1073457 -0.48676258 -0.74849296
000390 cc a5 3b bf 89 17 84 bf f0 98 82 3e a6 e4 84 3e
       -0.7329986 -1.0319682 0.25507307 0.25955695
0003a0 fc cc 94 bf 2c 41 0c 40 3d 7c bc be 9a 4e b0 3f
       -1.1625056 2.1914778 -0.36813536 1.3773987
0003b0 b4 36 a2 bf a4 61 01 40 8b fc b3 3f dd e5 56 3d
       -1.2672944 2.0215845 1.4061445 0.05246531

nconvs.0.modlist.0.lin_l.weight f4 [48, 48]
000000 5c 56 e2 ba 8d 54 8f bd 57 b1 6c bc 5a 77 aa 3d
       -0.0017268169 -0.06998549 -0.014446578 0.08323546
000010 27 80 ba bd 40 3a 11 be e6 ce 35 bd 75 88 b6 bd
       -0.09106474 -0.14182377 -0.044386767 -0.08912746
000020 2c 70 38 3e 6c 85 a2 bd 45 62 80 bd 1e 24 8a 3d
       0.1801154 -0.079356045 -0.062687434 0.0674517
000030 98 7a c9 bd 2c 62 de 3d bb 8c f2 bb 63 d0 b2 bd
       -0.09837836 0.108585685 -0.0074020303 -0.08731153
000040 d8 29 27 3d d5 03 16 3e cd 26 45 bd ee a5 c7 bd
       0.04081139 0.146499 -0.048132706 -0.097484455
000050 23 d5 25 be e8 2f a9 3d b8 81 f3 3c db d0 bd 3d
       -0.16194586 0.082610905 0.02972494 0.09268352
000060 0d d4 16 3e 50 3f 18 3e 0d 36 31 bd b2 90 48 bd
       0.14729328 0.14867902 -0.043264437 -0.048966117
000070 70 43 2e 3d 01 e7 4c bd 4b 98 69 bd d6 79 0c be
       0.042544782 -0.05002499 -0.057030004 -0.13718352
000080 4c 27 74 bd e5 38 ca 3d a3 c7 21 bd 77 4f 2f 3d
       -0.05960779 0.09874133 -0.03949703 0.042800393
000090 33 00 14 3d cb 76 5d bd 14 cd 0c bd ca 36 a4 3c
       0.036133002 -0.054068368 -0.034375265 0.020045657
0000a0 20 9f 2e bd b9 e8 01 3e f0 8c c1 3d 42 2e 15 3e
       -0.042632222 0.12686433 0.0945071 0.14568427
0000b0 5b b5 07 bd 13 b1 da bc de e1 cf b8 51 e5 8e bc
       -0.03313194 -0.026695764 -9.9126e-05 -0.017443331
0000c0 7b b8 2f bd 38 3c ef bd 35 54 33 be 66 bd b4 3c
       -0.042900544 -0.11681408 -0.17512591 0.022062968
0000d0 8b 40 cd b9 73 b8 82 3d 60 35 16 be fd 4c ab bd
       -0.00039148735 0.06382837 -0.14668798 -0.08364294
0000e0 57 17 17 3c e6 3d b5 bc e1 b7 a0 bd c5 c7 b4 bd
       0.009221873 -0.022124242 -0.07847572 -0.088271655
0000f0 df 7c 23 3e 39 cd 39 3b a0 26 2a be 6e e7 02 3d
       0.15965603 0.0028351082 -0.16616297 0.03195899
000100 f4 9a db 3c 57 b8 fe bc c9 5d 88 bd c4 ef b6 3d
       0.026807286 -0.03109376 -0.06658513 0.089324504
000110 31 d7 5c bd 89 7b 5b bd 8a ab 21 be cc 22 3e 3e
       -0.05391616 -0.05358461 -0.15788093 0.18567961
000120 4f 26 c3 3c d8 b0 2d 3d 0d 75 3a be 2e d2 34 37
       0.023821978 0.04240498 -0.18208714 1.0777772e-05
000130 f0 a5 af bd b2 35 11 3e 27 8d a8 3d 2d 4d d7 bd
       -0.08576572 0.1418064 0.08230048 -0.10512767
000140 b2 e6 36 3e ea 87 aa 3d 66 ea 9c 3d d3 80 1a be
       0.17861441 0.08326705 0.076618955 -0.15088205
000150 6c 08 4d 3d 38 fe 45 3c 1e 07 1b bc e9 15 39 3e
       0.05005686 0.012084536 -0.009462146 0.18074764
000160 99 f7 32 ba fe 8f 5c bd 31 94 36 bc 0f 32 b0 3b
       -0.0006827056 -0.05384826 -0.01114373 0.005377061
000170 3a ed d8 3b 0d ac 3d bd 98 ee 3a be 5b 6b 71 3d
       0.0066200765 -0.04630666 -0.18255079 0.058940273
000180 b2 20 64 bd 0f d1 1a 3e 09 01 af 3d f8 14 c4 bd
       -0.055695243 0.15118812 0.08545119 -0.09574312
000190 3f bc 68 3d 73 f7 5c 3d d0 36 af 3d 43 0a fb bd
       0.05682015 0.053946923 0.085553765 -0.12257817
0001a0 dc 42 2d 3e 6b b5 9d bc af 46 a7 bd 9b 01 b7 3d
       0.16920036 -0.019251546 -0.08167779 0.08935853
0001b0 c7 2b 84 bd 97 b7 9c 3a 56 ee 96 bd 0f 90 86 3d
       -0.06453662 0.001195657 -0.07369678 0.06570446
0001c0 af 9a 70 bd da 3c e5 3c 55 6e 29 3e 6c e7 1f bb
       -0.058741268 0.027983118 0.16545995 -0.0024399413
0001d0 fd a4 21 be a3 55 cd 3d 4a 24 d5 bd ad 39 02 3e
       -0.15785594 0.100260995 -0.10407312 0.12717314
0001e0 1c dd a9 3d aa c9 3b bd ec 0b d8 bd a0 69 33 be
       0.082941264 -0.04584662 -0.10549149 -0.17520761
0001f0 e8 d2 4c bc e7 c0 c1 bd ea c0 7e bd 09 2b c0 3d
       -0.012501456 -0.09460621 -0.062195696 0.09383208
000200 8c 04 c9 bd 85 75 51 3d 2c 2f 29 be 77 2a 0c 3d
       -0.098153204 0.051137466 -0.16521901 0.034220185
000210 d0 9e f9 bd f9 28 06 3e e2 45 bf bd 36 ef 2d bd
       -0.12188494 0.13101567 -0.09339501 -0.042464457
000220 5d 94 10 3e 11 d9 ef 3c c2 97 1a 3e a4 aa b9 bd
       0.14119096 0.02927831 0.15096954 -0.0906575
000230 c1 68 1b 3e bf e7 2c be 53 ea e5 bd 4b 04 7c bd
       0.15176679 -0.16885279 -0.112263344 -0.06152753
000240 32 6e 37 3e 79 9f eb 3c 56 b5 14 bc 9d 1c 16 be
       0.1791313 0.028762566 -0.009076437 -0.14659353
000250 67 a4 27 bd 98 8a 70 3c 2b 5d 9d bd 1a 75 a5 bd
       -0.04092827 0.014681481 -0.07683786 -0.08078976
000260 8f d8 95 bd d9 c8 5f bd 54 9f dc 3d 2d 50 ed 3d
       -0.07316696 -0.054634903 0.10772577 0.11587558
000270 63 4c a5 3d b1 00 a5 bd 2b aa 0d be 42 10 b3 3d
       0.0807121 -0.080567725 -0.13834445 0.08743335
000280 cf 06 85 bd 32 f8 a5 bd b6 32 b3 3b 8e aa 8d 3d
       -0.06495439 -0.0810398 0.0054686917 0.06917296
000290 e5 bf 86 3d 0c 80 37 3e 79 60 97 bd 02 49 60 3d
       0.0657957 0.1791994 -0.073914476 0.054757126
0002a0 d3 d5 0b 3d 5f 3f 56 3d fa e8 20 bd 81 7b e4 bd
       0.034139466 0.05230653 -0.039284684 -0.11156369
0002b0 10 5e cc bc 04 67 61 bd 4b 73 6c 3d ac b7 b4 3d
       -0.024947196 -0.055029884 0.05772714 0.08824095
0002c0 ff 37 fb 3b 25 fd 7e 3d b9 3b 85 3b cb e7 16 be
       0.0076665874 0.062253136 0.0040659574 -0.1473686
0002d0 88 f9 12 3e 8f 5c 39 bc 1b af 28 be f4 e1 01 3d
       0.14353001 -0.011313572 -0.16473047 0.031709626
0002e0 0a 8e cd bd 82 32 f7 3d c9 ce c5 3d 49 15 3e 3c
       -0.100368574 0.120701805 0.09658582 0.011601754
0002f0 b0 36 86 3d 80 6a 41 bd 9c d3 5a 3c ae 2d cb bd
       0.065533996 -0.047220707 0.013356116 -0.09920822
000300 fa 20 1e 3e a6 81 96 bc ef 91 b3 bd 20 fb a1 bd
       0.15442267 -0.018372368 -0.08768069 -0.079092264
000310 24 49 3a be 20 42 f2 3c 45 62 b8 bd e3 18 07 be
       -0.18191963 0.029572546 -0.090031184 -0.13193087
000320 dd bb 20 3e 8d 64 af bd 1b 61 73 bd af f6 37 3e
       0.15696664 -0.085641004 -0.05941878 0.17965196
000330 10 1e ce bd d3 e7 0c 3d 10 4e c4 bd 66 50 ca bd
       -0.10064328 0.034400772 -0.09585202 -0.09878616
000340 2b 31 e2 3d f4 1c 36 3e 41 77 0c 3e 87 8f 86 3d
       0.11044534 0.17784482 0.13717367 0.065703444
000350 5f bb 76 bc 0c 69 b3 bd 1f 38 90 bd 01 79 2f bd
       -0.015059321 -0.087602705 -0.07041954 -0.042840008
000360 9c 8f 1d bc 7b c0 2f 3d 5d fa cd bd 0a 74 8a 3d
       -0.009616759 0.042908173 -0.10057519 0.06760414
000370 12 eb e6 3b a4 a9 92 bc d4 82 0c be 87 b3 28 be
       0.0070470655 -0.017903157 -0.13721782 -0.16474734
000380 8f ac 1c 3e 51 38 0e bd f4 61 d1 3d 33 fe e3 bb
       0.15300201 -0.034721676 0.10223761 -0.006957793
000390 65 06 ba ba 64 a5 f8 3d aa 03 15 be bb 17 a0 3d
       -0.001419258 0.12140921 -0.14552179 0.07817026
0003a0 d0 fe 14 be 67 ed 39 3e 61 e3 fa 3c 11 23 c6 bd
       -0.14550328 0.18156968 0.030626 -0.09674657
0003b0 d3 23 9d 3d 06 d8 91 3d 95 4f 4d bd 80 ab 7a 3d
       0.076728486 0.07121281 -0.050124723 0.06119871
0003c0 c2 e2 38 be fe eb 06 3e 5d c5 cc bd 76 c2 12 3c
       -0.18055251 0.13175961 -0.099985816 0.008957496
0003d0 a6 7e 06 3e 81 de 10 3e 54 6d 26 3e e7 7d bf bc
       0.1313425 0.14147379 0.16252643 -0.023375465
0003e0 8a 8c 45 3d 17 c7 26 3d e6 8d 4d bc e1 84 84 bd
       0.04822973 0.04071721 -0.012546038 -0.06470657
0003f0 0f 5b d7 3a 16 24 af 3d 6d 3a 1d 3e 37 a3 e5 bd
       0.0016430336 0.08551805 0.15354319 -0.112127714

nconvs.0.modlist.0.lin_l.bias f4 [48]
000000 e7 4d b8 3d 7c 04 40 3d ea 79 c9 3c d3 66 af bd
       0.08999234 0.046879277 0.024594266 -0.08564534
000010 5c b5 f4 bd 5c 2c 7d 3d f8 4c 80 3d 4a 8c 6b bd
       -0.11948654 0.061809883 0.062646806 -0.057506837
000020 2c 5e 0f 3d 67 fb ba bd 48 7b c8 bd 60 03 30 3e
       0.03500192 -0.091299824 -0.09789139 0.17188787
000030 75 c6 44 bd 6a d3 c5 bd f6 50 8a 3d a9 13 49 3c
       -0.048040826 -0.09659465 0.06753723 0.012272754
000040 76 60 03 bd 97 21 cc bd 47 8c 0a 3d 49 59 1d 3c
       -0.032074414 -0.09967344 0.033825185 0.009603807
000050 51 35 cb 3d 4b 23 29 3d d6 4b d5 bd d3 66 0e be
       0.09922279 0.041293424 -0.10414855 -0.13906412
000060 32 2d 8b bd eb a2 06 be f1 2f ff bd 84 ed 2d 3d
       -0.0679573 -0.13148086 -0.12460316 0.04246284
000070 77 cb b8 bd 19 1a 03 be 9b 73 2e 3e ec a2 96 3d
       -0.09023183 -0.12802924 0.17036287 0.07355294
000080 63 ed 1e 3e b7 16 53 3d d6 54 dc 3d d1 92 0e bb
       0.15520243 0.051535334 0.10758369 -0.002175499
000090 81 7a 16 bd fd d0 b4 bd 08 11 35 3e 24 b1 18 3c
       -0.036737923 -0.08828924 0.17682278 0.009319577
0000a0 bb a1 32 3e 6f c6 63 3d 0b 65 c9 3c c9 b2 05 3e
       0.17444508 0.055609163 0.024584314 0.13056482
0000b0 4b 4f 35 be bd b3 26 be b8 90 27 3e 3e 08 94 3d
       -0.17706029 -0.16279502 0.163638 0.072281346

nconvs.0.modlist.0.lin_r.weight f4 [48, 48]
000000 d0 32 08 3d 99 71 1c be 3d 23 a5 3c 67 d5 27 be
       0.033251584 -0.15277709 0.020158404 -0.1639
000010 83 43 f0 bd 23 88 1b 3c 6e 38 22 bd 2a b2 dc bd
       -0.11731627 0.009492907 -0.039604597 -0.107761696
000020 c7 eb c2 bc 09 2e 19 3c 73 8a 10 3d 66 d6 cf bd
       -0.023794068 0.009349355 0.035288285 -0.10148315
000030 76 6a 8f bc 46 39 d5 3c 59 7d b3 bd 92 93 31 3e
       -0.01750682 0.026028287 -0.087641425 0.1734145
000040 55 0d 08 3d e0 9b 28 3d 13 fc ca bd 1a ac 65 3d
       0.03321584 0.04116428 -0.099113606 0.056072332
000050 a6 46 96 3d 46 9a 3c bd 46 33 24 be da 92 c7 3d
       0.07337694 -0.046045564 -0.16035184 0.097448066
000060 af f9 00 3e e2 8c 7e bd 07 e7 01 be f6 06 d3 bd
       0.12595247 -0.062146075 -0.12685786 -0.10304062
000070 a0 0c 03 3e b9 c7 ae bc 56 0b c1 3c de 02 79 3d
       0.12797785 -0.02133547 0.023564976 0.06079375
000080 84 82 8e 3d 2e 7f a0 3d c9 64 2d be 54 ab 98 bd
       0.06958488 0.078367576 -0.16932978 -0.07454553
000090 bc ad c2 3d 11 cd 8d 3c ab 80 97 3d c2 45 8a bd
       0.095057935 0.017309697 0.07397588 -0.067515865
0000a0 be d2 70 3c 9f f2 2a 3d c8 2c 0d 3e 4f b6 0d bd
       0.014698682 0.041735288 0.13786614 -0.03459769
0000b0 73 82 1d 3d de e8 9f 3d 25 a1 60 3b 27 d1 7b 3d
       0.038454484 0.07808088 0.0034275737 0.06147876
0000c0 06 09 34 3e ae 4e 41 3d 72 6b 80 3d d2 f3 d7 bd
       0.17581567 0.047194175 0.062704936 -0.10544552
0000d0 82 cf be 3d b7 8c 27 3e 7c 18 34 ba f0 e0 20 be
       0.09316923 0.16362272 -0.00068701035 -0.15710807
0000e0 62 d7 6a bd c7 c8 20 bd 46 7f a4 3d cf 9c 16 3e
       -0.05733431 -0.039253976 0.08032088 0.14708255
0000f0 03 b9 0e bd 48 37 d0 3d 31 18 fd 3b f2 a8 86 bd
       -0.03484441 0.10166794 0.007723831 -0.065751925
000100 84 a9 c7 bd f1 68 0b 3e f2 dc 82 3d 80 74 6a 3d
       -0.097491294 0.1361425 0.06389798 0.05724001
000110 3f d0 36 3c 26 bd dd 3d b5 7a 39 bd b0 30 be bd
       0.011158048 0.10827093 -0.04528304 -0.0928663
000120 87 2e 65 bc dd ce 25 3e 8f b0 83 3d 05 9a d8 bd
       -0.013988144 0.16192193 0.0643016 -0.10576252
000130 0e b9 2b 3e 61 fd be bd cf 15 6f bc 46 74 f9 bd
       0.16769812 -0.09325672 -0.014592602 -0.121803805
000140 e2 4b 3e 3d 8d 2f 69 3b 5c 36 b1 bd d1 ce 02 3d
       0.046459086 0.003558132 -0.08652946 0.031935517
000150 62 06 b9 3b 0d 59 01 3d 15 e4 52 bc 87 ff 18 3e
       0.005646513 0.031579066 -0.012871762 0.14941226
000160 df 6c da 3d fb d2 27 3c f0 34 3a 3d 1f 44 27 be
       0.10665297 0.010243173 0.04546064 -0.1633458
000170 89 91 8b bd 0c 49 4f bd 10 47 cc bd 39 4b 3c 3e
       -0.06814868 -0.050606772 -0.099744916 0.1838807
000180 4d 28 04 bd 10 16 21 be 1f ff 72 bc 8f c3 34 be
       -0.032264996 -0.15731072 -0.014831333 -0.17652725
000190 18 00 30 be a2 07 61 3d 3b 4f ea bd f0 11 2c be
       -0.17187536 0.05493892 -0.11440893 -0.16803718
0001a0 70 3c 4e bd d3 3f 48 3c b9 d9 b0 3b 4b c3 bb 3c
       -0.050350606 0.012222248 0.0053970483 0.022920271
0001b0 96 e4 7d bd a1 2f 19 3e 19 16 12 bd 1e 93 9c 3d
       -0.061985575 0.14959575 -0.035665605 0.07645248
0001c0 50 59 83 3c 0e d2 c2 bd 5e a1 d0 3d b4 3c f2 3c
       0.016033798 -0.09512721 0.10187028 0.029569961
0001d0 ea 2c 30 be f2 93 10 3e f0 49 84 bd 5d a2 a8 bc
       -0.17204633 0.14118937 -0.06459415 -0.020585233
0001e0 94 bc af 3d c9 44 9b 3c f2 06 c1 bc b2 a0 b8 bd
       0.0858089 0.018953698 -0.023562882 -0.09015025
0001f0 26 ea 6e bd e3 52 ad 3d 75 a2 b0 bd f8 55 32 bd
       -0.05832877 0.08463075 -0.08624736 -0.043539017
000200 ce 76 61 3d ed 73 4d 3d 53 68 d8 3c 53 4c cd 3d
       0.05504494 0.050159384 0.026416933 0.10024323
000210 e5 4c 97 bd d6 6c 42 3c b4 f5 f2 bd cb 86 93 bd
       -0.07387713 0.011866769 -0.118632704 -0.07203444
000220 87 e2 bb 3d db b8 91 3d cb 02 4f bc 1c 1f ee bd
       0.09174066 0.071153365 -0.012634943 -0.116270274
000230 41 4d 6f 3d b1 20 66 bd e5 26 a3 3d 8c 8c 18 bd
       0.058423284 -0.05618352 0.07966403 -0.03724341
000240 45 b4 2e 3e 88 f7 88 3d fb 20 4d 3b 79 87 da bc
       0.17060955 0.06687838 0.0031300175 -0.026675927
000250 47 e1 f3 3c 99 e5 be 3d cb b5 f8 bd 97 e6 a4 3c
       0.029770507 0.09321136 -0.12144049 0.020129485
000260 ba 7c 36 3d 7d 15 99 bd cb 0f ba bc f0 4b a2 3d
       0.044552542 -0.07474802 -0.022712609 0.0792464
000270 b8 c9 d5 3d 31 ed 28 3e a2 23 31 bd e8 18 ac bd
       0.104388654 0.16496731 -0.043246873 -0.08403188
000280 be f3 05 3e f9 04 89 bd 8b 9e 6d 3d 44 6b 07 3d
       0.13081262 -0.066904016 0.058012526 0.03306128
000290 aa 0f 33 bd 1a f2 20 3e da 69 31 bd 8a e6 05 3e
       -0.04371611 0.15717354 -0.04331384 0.13076225
0002a0 4b 99 6b bd 8c de af 3d 40 a3 97 bc dc 21 de bd
       -0.05751924 0.08587369 -0.01851046 -0.10846302
0002b0 c0 46 ea 3d 55 44 01 3e b5 19 0a 3c f1 27 2d be
       0.11439276 0.12623723 0.008428981 -0.16909768
0002c0 a9 d6 98 bd ed 28 23 3d e3 e5 7e 3d 15 5c 2a be
       -0.07462818 0.03983395 0.062230956 -0.16636689
0002d0 5d 46 9d bc 8a e0 6f 3d e4 c3 ae bd a9 ff bb bd
       -0.01919859 0.058563747 -0.08533457 -0.09179623
0002e0 fd cf c9 bd 02 9d 55 bc 4a da d7 3d 8d e0 78 bb
       -0.09854124 -0.013037922 0.10539682 -0.003797564
0002f0 2f 42 24 3e b7 84 9e 3d 48 29 e4 bd 1f 42 18 3e
       0.16040872 0.07740157 -0.11140686 0.14868973
000300 da 2a 4e 3d 34 3e 9b bd 61 8b c5 3d c2 82 39 3b
       0.050333835 -0.07580224 0.09645725 0.0028306697
000310 7f 5f 99 3d 2d 55 8e bd 71 b3 38 bb d9 4f ac 3d
       0.074889176 -0.0694984 -0.0028183127 0.08413667
000320 0d d7 bc 3d 4b 9c 09 be 30 64 95 3c c2 50 95 3d
       0.09220705 -0.13438527 0.01823625 0.07290794
000330 36 5e 9c bd f5 69 2e 3d 9f e1 9e bc 7c d4 80 3d
       -0.07635157 0.042581517 -0.019394694 0.06290528
000340 a7 ab 85 3d 16 d2 33 3e 1e 8f a5 3d 2b d3 6c 3d
       0.06526881 0.1756061 0.08083938 0.057818573
000350 0f 73 df bd f5 a5 02 3e 84 60 ce bd f9 fb 76 bd
       -0.109106176 0.1275862 -0.10077003 -0.060298894
000360 e9 2e c9 bd 82 9e 96 bd 22 0f 06 be b1 60 d9 bd
       -0.098234005 -0.07354452 -0.1309171 -0.106141455
000370 05 35 0d 3d 29 52 fb 3d e1 3d 1c bd 5b 99 25 3d
       0.03447439 0.1227153 -0.03814495 0.040429454
000380 77 c6 b1 3c 26 4c 60 bb e3 b4 3b bd c4 87 0e 3d
       0.02170108 -0.0034225076 -0.045826804 0.034797445
000390 da 55 86 3d d1 4f c4 bd 3a 28 31 bd 02 5d 34 bd
       0.06559344 -0.09585536 -0.043251254 -0.04403401
0003a0 a6 fc 0d bd 9f bb bd bd 88 81 a3 bd 2a 4e 64 bb
       -0.034664772 -0.092643015 -0.079836905 -0.0034836628
0003b0 41 9d 9d 3d 7e cc db bd 75 f9 37 be 3a 85 70 bc
       0.076960094 -0.10732363 -0.17966254 -0.014680201
0003c0 5a 98 11 be d7 cb 2f bd e2 dc 47 3d dc 18 54 bd
       -0.14218274 -0.042919006 0.048794635 -0.05178152
0003d0 4d bc 0e 3e 26 8b 41 3b eb 8c 77 bd 4f ba a0 bd
       0.13939019 0.0029532402 -0.060437124 -0.078480355
0003e0 78 3b ca 3d a6 39 8e 3d 26 a3 a0 bd 0d 99 c9 bd
       0.09874624 0.06944589 -0.07843618 -0.09843645
0003f0 85 11 1f be 6a 72 b1 3d 36 37 a2 3d f9 e8 e6 bd
       -0.15534027 0.08664401 0.07920687 -0.11274905

nconvs.1.modlist.0.lin_l.weight f4 [48, 48]
000000 bc 15 1f 3e ad 41 24 bd b8 27 c0 bd ab d1 aa 3c
       0.15535635 -0.040101696 -0.09382576 0.02085193
000010 a8 ac 3c 3e 7a 7f db 3d 7f 74 25 3e 90 e1 ef bc
       0.18425238 0.107176736 0.16157721 -0.029282361
000020 8c d2 51 3d a7 8b 94 3d 91 5f 53 bb 3a 8e ab bb
       0.051226184 0.07253199 -0.0032253007 -0.0052354606
000030 ac ef ef 3d 9f 25 c2 3d 10 72 13 3e 1c ea 4e 3d
       0.11715636 0.09479832 0.1439898 0.050516233
000040 98 6e 2a 3e 04 af a3 3d c9 69 43 3e 15 3c 31 3d
       0.1664375 0.07992366 0.19083323 0.04327019
000050 dc bd 45 bd 54 2e e9 3b 9d 4f ed 3c a8 a6 f8 3c
       -0.048276767 0.0071161184 0.028968627 0.030352905
000060 27 eb 54 3d cd ea b4 3d 9e 83 8d bd 64 a2 12 3e
       0.05198207 0.08833847 -0.069098696 0.1431976
000070 9d 90 a7 bc fe e1 80 bd 5e d9 59 3d 3b 2d a7 3d
       -0.0204547 -0.062931046 0.053185813 0.08162924
000080 29 ee 7c bd 37 48 7f 3d 0a 60 25 3d e9 97 26 3e
       -0.061750565 0.06232473 0.040374793 0.16268887
000090 5d af 8c 3d ec e1 0e 3e 9a f5 1c 3e 64 49 bd 3d
       0.068693854 0.1395337 0.15328065 0.09242514
0000a0 69 b0 33 3d f0 58 23 3e 77 ea 22 bd 4a b3 24 3e
       0.04386941 0.15951896 -0.039774384 0.16084018
0000b0 15 90 aa 3d 3d a9 5f bd c0 b4 00 3e e9 8b ab bd
       0.08328263 -0.054604758 0.1256895 -0.08376295
0000c0 c5 a1 78 3b d9 4f 39 3e c6 8a a3 bd 73 53 a3 bd
       0.003793822 0.18096866 -0.07985453 -0.07974901
0000d0 cc e4 33 3d 3e 96 a1 3d 9d ca 20 3e c9 f9 e6 3d
       0.04391937 0.078899845 0.15702291 0.112781115
0000e0 ab b6 d4 3b 24 4c bd 3d e8 92 38 3e 12 23 3a bc
       0.0064915023 0.09243038 0.1802479 -0.0113609005
0000f0 78 5e bf bd a4 4e 05 bc cd a5 6d 3c c8 70 2a bd
       -0.0934419 -0.008136425 0.014504862 -0.041611463
000100 a7 bb 5d bc 82 5c c3 3d 0d c7 48 3d 38 e4 68 bc
       -0.013533509 0.09539129 0.049017955 -0.014214568
000110 06 c8 4f 3d 4e 17 49 bb 38 73 c2 3d 49 8b b5 bd
       0.050727867 -0.0030684057 0.094946325 -0.08864457
000120 8c 08 99 3c 60 02 bd bd 78 2e 0a 3e e6 22 12 3d
       0.018680833 -0.092289686 0.13494289 0.035677813
000130 ec 2f c5 bd 1e 0f 1c bd fd d8 db 3d 17 22 a5 bd
       -0.09628281 -0.038100354 0.107347466 -0.08063143
000140 16 e2 86 bd e3 67 b0 3c a0 ce 5c bb a7 f9 07 3d
       -0.06586091 0.021533912 -0.0033692494 0.03319707
000150 54 25 2d 3e 30 90 79 bd e5 47 38 3d 13 29 cc 3c
       0.16908771 -0.060928524 0.04499044 0.02492193
000160 66 ed 13 3e f5 ba 2f be 39 e0 01 3e e9 7d 36 3e
       0.14446029 -0.17161162 0.1268319 0.17821468
000170 13 eb dd 3d 3f dc 17 be 59 d1 0e 3e 71 e2 dc 3c
       0.108358525 -0.14830111 0.13947047 0.026963444
000180 49 03 9b bd 72 03 a5 bd fa bb 48 3d 18 36 dc bd
       -0.07568986 -0.08057298 0.049007393 -0.10752505
000190 b1 2b 0c be 17 42 36 be 88 78 f5 3c 4d 8b 2b be
       -0.13688542 -0.17798649 0.0299647 -0.16752358
0001a0 eb 1e 86 bd bb 3e 5a 3c eb 31 aa bb 48 5c 4a bd
       -0.06548866 0.01332062 -0.005193939 -0.049404413
0001b0 23 2e 9c 3d df 10 a5 3d ff 5e c1 bd f0 a5 35 bd
       0.076259874 0.080598585 -0.09441947 -0.044347703
0001c0 de 12 ca bd fd 3a 85 bc cb 73 17 3d ab 58 e5 3b
       -0.0986688 -0.01626348 0.036975663 0.0069990954
0001d0 20 2c e4 bd ae e3 ae 3d 4d a3 11 3d e8 81 a2 3d
       -0.11141229 0.0853952 0.035556126 0.07934934
0001e0 d0 4b ef bd e0 52 1f be 03 17 ab 3d 05 52 c6 bd
       -0.11684382 -0.15558958 0.083539985 -0.09683613
0001f0 de b2 c6 bd b6 b0 1c 3d d0 31 b8 3c d1 4a d6 bd
       -0.09702085 0.038254462 0.02248469 -0.10463489
000200 84 17 cf bd 68 3a b1 3d e7 a6 4a bd 76 e1 f8 bc
       -0.10111907 0.08653718 -0.049475577 -0.030380946
000210 d0 91 ab bd 6b 59 80 bc 94 68 dc bc ca 89 ef bd
       -0.08377421 -0.015667638 -0.026905335 -0.11696203
000220 72 5c 70 bd cf 53 ab bd c8 d4 0b bc fa 0f 20 be
       -0.058681913 -0.083655946 -0.008534618 -0.15631095
000230 6d 89 5b 3d 2e d1 76 bd 77 10 33 be 6f 14 99 bc
       0.053597856 -0.060258083 -0.1748675 -0.018686501
000240 34 4d ec 3c 47 36 9f bd 6d 2a 70 3d 23 6f b9 bd
       0.028845407 -0.077740245 0.05863421 -0.09054401
000250 04 55 0b 3c 54 bb 81 3c 2c 42 05 be 38 d0 9a 3c
       0.008504156 0.015836395 -0.13013524 0.018898115
000260 c5 1d ed bd 39 e9 49 bc 49 4c 8c bd bb eb b9 3d
       -0.11577944 -0.012323671 -0.06850488 0.09078165
000270 b8 f9 28 be a4 f8 3d be f4 55 9b 3d 01 7e 2c be
       -0.1650151 -0.1855188 0.07584754 -0.16844942
000280 26 dc ae bd 9a 51 d2 bd 6a 0d 5e 3d 3c 3d 23 be
       -0.08538084 -0.102694705 0.05421201 -0.15941328
000290 fe b0 12 be 25 f3 a0 bd 4d 46 d1 3c 87 24 ca 3d
       -0.1432533 -0.07858876 0.025546217 0.09870248
0002a0 57 91 cc bc 32 3c 20 be 7f 1c 3e bd e6 85 f0 bc
       -0.024971647 -0.15647963 -0.046413895 -0.029360723
0002b0 a5 3b 8b bd 16 a6 62 3d f9 34 21 be 0b 34 a5 3d
       -0.06798486 0.055334173 -0.15742864 0.08066567
0002c0 5e b0 83 3d 22 c8 50 3d 93 5b 59 3d 27 4f 34 be
       0.06430124 0.05097211 0.053065848 -0.17608319
0002d0 a5 c9 24 be 43 bf f4 bd 5a 97 e2 bd da 78 8e bd
       -0.16092546 -0.11950543 -0.11064024 -0.06956644
0002e0 ea d3 36 3d a8 7a 16 3d ba 74 8a bc b2 99 8e bd
       0.04463569 0.036738068 -0.016901363 -0.06962909
0002f0 36 f3 f3 3c fe 58 6f 3d 8c e8 80 bd 46 5b 13 bd
       0.029779058 0.05843448 -0.06294355 -0.035975717
000300 a3 ee 83 3d b0 fc d5 bd 4f 5c 32 be 55 36 fb bd
       0.06442001 -0.10448587 -0.17418025 -0.122662224
000310 bd 68 cd bd 97 9c 80 3d 59 33 99 3d 84 b5 8e 3d
       -0.10029743 0.06279867 0.07480497 0.06968215
000320 c2 30 bc bd dc a5 3b 3d 1b b9 a0 3d 62 bf 05 3b
       -0.09188987 0.045812473 0.07847806 0.0020408262
000330 59 cc be 3d 13 b4 98 bc bb 86 34 bd e0 d0 c5 3d
       0.0931632 -0.018640554 -0.0440738 0.0965898
000340 a2 bf 98 3d 14 f7 86 3d 67 80 3f bc 9a c9 9c bd
       0.07458426 0.06590095 -0.011688328 -0.0765564
000350 51 55 8b bd 15 56 3b be 3e 54 a1 3b 1d 3d 25 bc
       -0.06803382 -0.18294556 0.0049233725 -0.010085371
000360 44 a4 7b bd 08 a5 35 be b4 39 c4 3d 91 e7 2c be
       -0.061435953 -0.17738736 0.095813185 -0.1688521
000370 3f 51 24 be 1f 4a 2f be 8e a6 c8 bd 72 2e b0 3d
       -0.16046618 -0.17118119 -0.09797393 0.08602609
000380 5b 53 d5 bb 37 88 99 bd 76 07 c7 3b f1 7b c5 bd
       -0.006510181 -0.07496684 0.0060738875 -0.096427806
000390 0c fa 88 3c 9e bc d4 ba 65 25 51 bc 3d 98 ad bd
       0.016720794 -0.0016230529 -0.012765263 -0.08476303
0003a0 6b d6 fb bc 0e 7b aa bd 8a 67 96 bc 43 3f 11 be
       -0.03074189 -0.08324252 -0.018359918 -0.14184289
0003b0 d4 c0 e3 3c 8f 5f b4 bc ce f4 01 bc 58 bd 17 be
       0.027801909 -0.022018222 -0.007931901 -0.14818323
0003c0 eb 08 18 3c 7e e6 06 bd 65 df 05 bd a6 3d 46 bd
       0.00927947 -0.03293466 -0.03268375 -0.048398636
0003d0 48 48 cf 3d c8 76 ae 3d 78 a0 dc bd 2b 61 27 be
       0.101212084 0.085187495 -0.107727945 -0.1634566
0003e0 3a da 7b bc 88 a7 75 bd c0 f6 28 be a6 49 8a bd
       -0.0153718535 -0.059974223 -0.16500378 -0.067523286
0003f0 c3 af 8c 3c 95 38 a3 bd 4d 3c 35 3d 5b 20 50 bd
       0.017173653 -0.079697765 0.04424696 -0.050812107

nconvs.1.modlist.0.lin_l.bias f4 [48]
000000 a7 98 1b 3e d1 98 cc bd fe 45 12 bc 5a 5c 06 3d
       0.15194951 -0.09990085 -0.00892782 0.032802917
000010 13 06 26 be e2 f1 9d 3d c3 92 d6 3d 65 65 1c 3d
       -0.16213255 0.07712151 0.10477211 0.038182635
000020 80 f9 29 3c 28 17 18 bc 2a aa 9a 3d 8f 56 ef bd
       0.010374427 -0.009282865 0.075519875 -0.116864316
000030 51 b9 07 be 65 24 9c bc d8 82 9f bd a7 f7 24 3d
       -0.13254286 -0.019060323 -0.07788628 0.040275242
000040 78 9c c6 bd e6 4f 10 bd 35 85 69 3d af 23 26 3d
       -0.09697813 -0.035232447 0.0570118 0.040561374
000050 58 16 dd bd 0f 06 b8 bd e4 0e 8e bd eb 54 d6 bd
       -0.10795277 -0.089855306 -0.06936434 -0.104654156
000060 d7 6b 15 3d b6 8b e7 3d 7b a0 01 bd 33 41 42 3e
       0.036479797 0.113059446 -0.031647187 0.18970184
000070 d3 5f 16 3e c8 3f 28 3d 54 b6 24 3c 1d 0b 3e be
       0.14684992 0.04107645 0.010053236 -0.18558927
000080 ac 4f 06 bd 51 71 ad bc 3e ab b4 bc 77 5c 2d bd
       -0.032790825 -0.021172198 -0.02205431 -0.04232451
000090 8a 98 09 bd 36 04 06 3e 0d c4 7c 3d b2 28 d5 bd
       -0.03359274 0.13087544 0.061710406 -0.10408153
0000a0 f9 4b 70 3d d1 68 0a 3d 6e 91 14 be b3 08 29 be
       0.058666203 0.033791367 -0.14508602 -0.16507225
0000b0 3e ea 2e bd 4b a4 2b 3e 02 85 01 3d 1b 8d e1 3d
       -0.04270386 0.16761892 0.031620987 0.11013242

nconvs.1.modlist.0.lin_r.weight f4 [48, 48]
000000 1f a4 3c 3d f6 6e f1 3d d0 16 3e bd 56 91 0e 3e
       0.046054956 0.11788742 -0.046408474 0.13922629
000010 af b4 a7 3c 7b 87 f3 3c a3 e2 f3 bb 33 94 d8 bd
       0.020471899 0.029727688 -0.0074427887 -0.10575142
000020 fb ca 43 bd 7f 5b 16 bd d6 18 9f bd e0 8e 33 3d
       -0.047801 -0.03670835 -0.07768409 0.043837428
000030 1b ee a8 3d 0b 1f f8 3d f5 f6 9d 3c e2 9c 3f 3d
       0.0824854 0.12115296 0.019282797 0.046780474
000040 b7 ce c1 3d af 49 c7 bc f4 b3 a3 3d 45 c6 1a bd
       0.09463256 -0.024327127 0.07993308 -0.03778674
000050 4c 16 10 bb c3 c5 1d bd 6a 70 1a 3e 53 28 05 3e
       -0.0021985946 -0.03851868 0.15081945 0.13003664
000060 cb 45 9f bd 91 a4 82 3d 28 9d 9f 3c 45 3b 2a bd
       -0.07776984 0.06379045 0.019484118 -0.04156043
000070 2c 3f 0a 3d 24 66 4b 3d 3c 2b 26 3e 40 55 ae bd
       0.03375165 0.049657956 0.1622743 -0.08512354
000080 74 d8 11 3d df 6f 2e bd 25 65 aa bd 33 32 58 3d
       0.035606816 -0.042587157 -0.08320073 0.05278225
000090 c5 64 07 3e 87 0f c0 3d 91 42 82 3d f6 1e a0 3d
       0.13222034 0.093779616 0.06360353 0.07818405
0000a0 22 8e 41 bd 57 b5 1f 3e fa a1 29 3e 92 54 aa ba
       -0.04725469 0.1559652 0.16565695 -0.0012995175
0000b0 aa f4 4d bc 2f fa bf 3d c2 46 1f 3d 66 af e2 3d
       -0.0125705395 0.093738906 0.03888584 0.11068611
0000c0 bf d3 74 bd 1a 7f 15 3e 0e 07 be 3d 53 48 f5 bb
       -0.05977225 0.14599267 0.09278689 -0.0074854284
0000d0 28 c5 c5 3d c1 01 0e be 43 87 f6 3c df 4c 0a 3e
       0.09656745 -0.13867857 0.030093795 0.13505886
0000e0 ba 79 9a 3d 33 54 43 3c 72 e5 3a bd 11 30 90 3d
       0.07542749 0.01192193 -0.045628972 0.07040418
0000f0 c2 76 0e bd d4 cf 0b 3d 57 66 c4 3d 2a da bf bc
       -0.034781225 0.034133747 0.09589832 -0.023419458
000100 45 98 94 3c dc 43 2b 3d 01 c7 22 3e c9 2f df 3d
       0.018139014 0.041812763 0.15896226 0.10897786
000110 a0 83 fc bc dd fe 1b bd a0 e9 74 bd e2 43 ef bd
       -0.030824482 -0.038084853 -0.059793115 -0.116828695
000120 4c ff 4e 3d d0 0d 88 3d 93 20 a3 3d 83 a6 aa bd
       0.05053644 0.066432595 0.079651974 -0.08332541
000130 e6 cc 01 3b 34 e5 09 bc d5 c2 57 3d 83 48 24 3d
       0.0019805967 -0.008416463 0.05267604 0.040108215
000140 0a 3e 89 3d d5 0b 10 3e 0d 99 aa 3d 0c d1 66 bd
       0.06701286 0.14067014 0.08329973 -0.056351706
000150 6e 06 d1 bd 87 5e 14 3c 70 73 2e 3d 17 39 ef 3c
       -0.102063045 0.00905574 0.04259056 0.029202027
000160 c0 be 36 bd a1 b9 13 3d 79 18 67 3d 06 53 d1 3d
       -0.044615507 0.0360657 0.056419823 0.102209136
000170 64 9c af bd 92 2b fb bc f3 c8 43 be e4 44 29 bd
       -0.08574751 -0.030660424 -0.19119625 -0.041325465
000180 8c e1 1f be cf e6 a7 3d 8f 5a 67 3d c8 a0 c7 bc
       -0.15613383 0.0819832 0.056482848 -0.024368659
000190 31 04 bd 3d 24 7f c7 3d d5 79 1d 3b 78 d5 26 be
       0.09229315 0.09741047 0.0024028916 -0.1629237
0001a0 e1 d8 24 3c 1e e7 9a 3d 32 28 e8 3c 28 1b 0e be
       0.010061474 0.07563613 0.02833948 -0.13877547
0001b0 d6 04 1a be 48 c7 a2 3d f0 7d b2 bb 1d 42 59 bc
       -0.15040907 0.07948166 -0.005447142 -0.013260392
0001c0 3b 16 a9 bd 29 aa 27 be 6e 32 90 bb 5a 75 54 bd
       -0.08256193 -0.16373505 -0.004400543 -0.051869728
0001d0 a8 a3 7d bd 9d 4e 1f be 23 3e 22 be 96 76 10 be
       -0.061923653 -0.15557332 -0.15844016 -0.14107737
0001e0 3a 9d fa bd e8 32 33 bd 8a 8b 3c 3d 43 90 7a 3c
       -0.1223702 -0.04374972 0.046031512 0.015293184
0001f0 2a 07 24 be c2 25 ba bc bb 82 7b 3a 02 32 33 bd
       -0.16018358 -0.022723082 0.00095943705 -0.043748863
000200 5a a8 b3 bd d0 2c 1a be 13 5c 2e be 87 85 06 be
       -0.08772345 -0.15056157 -0.17027311 -0.13136874
000210 1a d8 46 3b 8e c8 82 bd e6 4b 35 be 01 e2 31 bd
       0.003034121 -0.06385909 -0.17704734 -0.043428425
000220 38 4e 63 3d 88 a1 1c bd 2f fe 63 3d 1e 6d 15 be
       0.055494517 -0.038239986 0.05566233 -0.14592406
000230 8b 85 51 bd bc 3c 03 3d f2 be ab bd 67 7d cd bd
       -0.051152747 0.032040343 -0.08386029 -0.10033684
000240 9e 59 1a bd 8d 14 0a be 1a df 3a 3c 72 86 ac 3d
       -0.03768312 -0.13484402 0.011405731 0.08424081
000250 cd 0c 30 bd bd 86 9d 3d 21 40 07 3d 6f 2a 3a be
       -0.042980958 0.07691715 0.033020142 -0.1818025
000260 42 e2 0b be c8 78 3e be 0d 6d 91 bd 19 e4 bd 3d
       -0.1366053 -0.18600762 -0.07100878 0.09272022
000270 a8 e5 a5 bd 65 6f 5b bc 84 ae c3 bd 9c 78 1a bd
       -0.08100444 -0.013393258 -0.095547706 -0.03771268
000280 70 12 38 be 2e 2e 0d be 57 34 23 be 18 4e 0f bd
       -0.17975783 -0.13787147 -0.15937935 -0.034986585
000290 f9 d4 0a be 84 80 0d be 3e 01 cc bd 48 16 f8 bd
       -0.13557805 -0.13818556 -0.099611744 -0.12113625
0002a0 8a 36 89 bd 28 98 c6 bc 98 ef 6b 3d 55 b2 3d be
       -0.066998556 -0.024242476 0.05760154 -0.1852506
0002b0 ab 84 17 bd fe fa 17 3d 1d 9c 2d bc 73 59 e7 bd
       -0.036991756 0.0371046 -0.010596302 -0.11296358
0002c0 07 8f 5f 3d 06 51 f9 bd 6e 88 35 be 15 f9 d3 bd
       0.05457976 -0.12173657 -0.17727825 -0.10350243
0002d0 e6 61 8e bd c7 a5 1b be cc 0d 69 3d 14 47 0d be
       -0.069522664 -0.15199958 0.056897923 -0.13796645
0002e0 08 ad 86 bc a2 7c 11 3d 63 cc d8 bd 2f ff ca 3d
       -0.01643993 0.03551925 -0.10585859 0.09911954
0002f0 90 d4 0c bd 12 b5 82 3d 2d ee fe bc 75 7f ae bd
       -0.034382403 0.06382193 -0.03111943 -0.08520404
000300 00 50 39 3d 46 82 f9 bc 56 47 ba 3d 40 99 d1 bc
       0.04524231 -0.030457627 0.090956375 -0.02558577
000310 9f e0 96 3d 1a 07 bf bd e6 ce ce bd a5 e0 17 3d
       0.07367062 -0.093275264 -0.100980565 0.037079472
000320 7f 15 22 be 59 89 5d bd 3a b8 95 3c e2 5a 80 bd
       -0.15828513 -0.054086063 0.018276323 -0.062673345
000330 3c 66 41 3d 21 a0 95 3d 0e 3f a6 3d f7 0d 9e bd
       0.04721664 0.07305933 0.081174955 -0.07717507
000340 db d1 19 be 9c 03 de 3c 22 c7 38 be ee 5e ca 3d
       -0.1502146 0.02710133 -0.18044713 0.09881388
000350 67 50 cf 3c 40 3a d0 bd 22 18 33 3d 12 46 57 3d
       0.025306894 -0.1016736 0.043724187 0.05255706
000360 be 27 93 3d dd f2 f3 3c 87 b3 f7 3c ff 63 3a bd
       0.071853146 0.029778892 0.030236972 -0.04550552
000370 86 e1 4d bc 10 f0 28 be c1 b2 12 be 03 22 3e be
       -0.012565976 -0.16497827 -0.14326002 -0.18567662
000380 43 9d 70 3d db ea 6c 3c eb ed 9b bc 93 72 80 3d
       0.058743726 0.014460291 -0.019034347 0.06271853
000390 ce 8c 90 3d ab 76 c5 bd 15 f7 d9 bd 51 56 e7 39
       0.07058106 -0.09641775 -0.1064283 0.00044124064
0003a0 59 00 a3 3c 3d bb a1 bc c3 5a be bd d0 18 0a be
       0.019897627 -0.019742602 -0.09294655 -0.13486028
0003b0 01 4c f4 3c 7b 0a 89 3d e5 83 1b 3d d4 c8 a3 3c
       0.029821398 0.06691452 0.03796758 0.019993223
0003c0 cb 34 ce bd 62 f3 2a be 9c 19 4c 3d bb d9 2c be
       -0.10068663 -0.16694406 0.04982911 -0.16879933
0003d0 69 fa 62 bc af ea c1 3d 3e d6 a3 bc 54 44 97 bd
       -0.013853648 0.094685905 -0.01999962 -0.073860794
0003e0 14 a0 15 3d 19 60 9f 3d 21 43 b5 3d b5 37 70 bd
       0.036529616 0.07782001 0.088506944 -0.058646876
0003f0 3e ce 56 3d 63 46 0a be bb 18 21 be 26 f3 09 be
       0.05244278 -0.13503413 -0.1573209 -0.1347166

h_1.modlist.0.modlist.0.weight f4 [18, 49]
000000 1a f7 49 be 14 7e 13 be 95 6d 9a 3e e6 94 a2 3e
       -0.19723168 -0.14403564 0.3016173 0.31754225
000010 f6 6c 69 be 61 03 15 be 1f b4 f8 bd 6d 37 70 be
       -0.22795472 -0.1455207 -0.1214373 -0.23458643
000020 24 ba 82 3d 69 98 a0 be ed 99 49 3e 7e 23 e1 3d
       0.0638316 -0.3136628 0.19687624 0.10993098
000030 40 cf 99 bd 12 e6 86 be 03 34 28 3e e5 d7 e8 bc
       -0.07510233 -0.26347405 0.16426091 -0.028423259
000040 8f 69 90 3d c4 a8 db bb bb 84 4e 3e b1 c4 2a 3d
       0.07051384 -0.006703468 0.2016782 0.041691486
000050 4a 1b 0c 3f 87 d4 24 be 13 3d be 3e 06 5f b5 be
       0.5472914 -0.16096698 0.3715597 -0.3542406
000060 70 b3 5c be ed 92 a4 bc f0 5b 84 bd 0c 74 2e 3c
       -0.21552825 -0.02008959 -0.06462848 0.010647785
000070 39 93 ac bc 9d 76 af 3c 83 66 fa 3d 85 18 b2 3d
       -0.021066295 0.021418864 0.12226584 0.08696083
000080 7d 74 30 3c df 0b a2 be 60 25 b5 be 1b 08 9b be
       0.0107699605 -0.31649682 -0.35380077 -0.3027962
000090 f1 36 10 be 05 53 87 bd 2c 27 05 3e e4 a6 0e 3e
       -0.14083458 -0.066076316 0.13003224 0.13930851
0000a0 9e e4 7e 3d 4f 95 d9 bd 18 ff 15 bb f3 f3 57 3e
       0.062229745 -0.106241815 -0.0022887643 0.21089153
0000b0 9d 66 a7 3c a5 f4 44 3d 71 25 05 be b4 4c 89 3e
       0.020434672 0.048084874 -0.13002564 0.26816332
0000c0 2d 1c c9 bd 89 49 47 3a 31 36 bd 3d 44 10 5a bd
       -0.09819827 0.0007602205 0.09238852 -0.05323817
0000d0 ea 7f 12 3d c2 bc 11 be 05 d5 a5 be 6f 41 63 3d
       0.03576652 -0.14232162 -0.32389084 0.055482324
0000e0 a5 6a 5e 3e 9b 06 99 be 61 21 fc 3d 26 d0 ad 3c
       0.21720369 -0.29887852 0.12311054 0.021217417
0000f0 49 ef 72 3d be fe b4 3d b1 86 9e bd 47 a5 f5 bc
       0.05931023 0.08837651 -0.07740534 -0.029986037
000100 c1 bc 67 3e a8 09 25 3e 16 ab ce 3d 31 48 7a 3c
       0.22630598 0.16116965 0.10091226 0.015276001
000110 dc 53 8a 3e 97 66 da 3e 80 b2 2f 3e b5 37 45 3e
       0.27017105 0.42656395 0.17157936 0.19259532
000120 1a 3b 90 3e 37 41 e3 3d f5 08 92 3d 73 f7 3f be
       0.2817009 0.11096423 0.07130615 -0.18746738
000130 35 82 4c 3e 95 28 8e bd e2 30 d8 3d d0 19 72 3d
       0.19971545 -0.06941334 0.10556199 0.059106648
000140 f6 76 16 be 97 40 f0 bd c8 f0 16 be 30 76 74 3c
       -0.14693817 -0.117310695 -0.14740288 0.014920756
000150 53 b0 d5 bd 12 0f 59 be c6 a3 2f 3d 32 28 d5 bb
       -0.10434022 -0.21197155 0.042880796 -0.006505036
000160 03 c4 a1 3c eb b9 36 3c 13 e0 be 3d a9 7b 11 3b
       0.019746786 0.011152725 0.093200825 0.0022198951
000170 85 3e 8b be cd 4b d7 bd 3c b1 14 3e de 98 1f bc
       -0.27196136 -0.10512505 0.14520735 -0.009741036
000180 0a 4f 93 3e 91 ad 39 3c 18 89 b2 3e 15 ae 9f 3e
       0.2877124 0.011332885 0.3487022 0.31187502
000190 6b 03 40 bd 26 26 52 be 5c 3e 48 3d cb 45 19 3e
       -0.04687826 -0.20522365 0.048887596 0.1496803
0001a0 9a 7f 19 3d 8a 7b 31 3c a0 b3 1d 3e 6e ad 40 be
       0.037475206 0.010832677 0.15400553 -0.18816158
0001b0 d4 9f a1 3e d3 7c af bc 25 af fe 3d 1f 32 08 bf
       0.31567252 -0.021421826 0.1243575 -0.5320148
0001c0 a8 ff da bd 45 8d 2a 3e 92 4f 3c bd 48 89 d1 be
       -0.10693294 0.16655453 -0.04597432 -0.4092505
0001d0 7a 9a 3b 3e 0e 9d 13 3e 9a ae 43 3e 70 55 5f 3d
       0.18320647 0.1441538 0.19109574 0.05452484
0001e0 a2 16 02 be 1c d1 07 3e 3d 78 77 3d 7c ce fc bd
       -0.12703946 0.13263363 0.060417403 -0.12344071
0001f0 95 58 08 3d a7 d2 43 3e 78 7a 20 bd 48 ca 23 be
       0.033287603 0.19123326 -0.039179295 -0.15995133
000200 d1 d8 65 bd 06 42 5b be fe e0 c6 3d bf 23 a3 3d
       -0.056114975 -0.21411905 0.097108826 0.079658024
000210 d5 eb 20 3e 20 ca 53 be 13 12 25 be 02 92 a3 3b
       0.15714963 -0.20682573 -0.16120176 0.0049917707
000220 9a 21 a0 be c1 94 2c be 53 4d b1 bd e2 b2 12 be
       -0.31275636 -0.1685362 -0.086573265 -0.14326051
000230 75 b4 1f 3c ac b1 ed 3b 02 10 9e bd 9b 6d f2 bb
       0.009747614 0.007253846 -0.07717897 -0.00739832
000240 95 8b 0f b9 16 d5 49 be c2 4a b3 3c a1 1e c0 3d
       -0.00013689541 -0.19710192 0.021886233 0.09380842
000250 93 04 64 bd f7 4f 1c be af 53 43 be b0 75 a8 be
       -0.055668425 -0.15264879 -0.19074892 -0.32902288
000260 3f 35 9c be 95 4d a3 3e dd c4 36 be bc 57 8b be
       -0.30509374 0.31895128 -0.17848535 -0.27215374
000270 bb dd f0 3e 32 a4 33 3d 5e 78 a3 3e 51 88 8e bb
       0.47044167 0.04385776 0.3192777 -0.0043497463
000280 44 b6 15 3e 1d 4b 27 bd 8c 21 ee bd 8c b7 a7 3e
       0.1462031 -0.040843118 -0.11627492 0.32757223
000290 40 8c c4 3d 78 58 0a 3e ee 9f da 3d 9e 24 00 be
       0.09597063 0.1351031 0.106750354 -0.12513968
0002a0 c0 b5 9b 3e 2d 80 a3 bd aa 73 09 3d 11 5d 4c 3e
       0.30412102 -0.07983432 0.03355757 0.19957377
0002b0 65 43 17 bd f3 b8 38 3c 69 83 1d be 4d 24 3e bd
       -0.036929507 0.011274564 -0.1538216 -0.046421338
0002c0 a9 44 26 3e 99 41 03 3e 54 92 f1 3d 00 c2 83 be
       0.1623713 0.12817992 0.11795488 -0.25733948
0002d0 c0 a3 76 bd 9d 9c 1c bd df 29 5f 3d f6 49 c3 3d
       -0.060214758 -0.038235296 0.05448329 0.09535591
0002e0 32 b8 8f bd 48 54 17 3e c3 7a 83 bd 2b ed 6d 3d
       -0.07017554 0.14778244 -0.06419899 0.05808751
0002f0 7b eb 24 bc 68 5c a1 bd 24 eb 18 3d 72 bb 81 bc
       -0.010065909 -0.07878953 0.037333623 -0.015836451
000300 27 ca 39 3e 17 a4 3e bd 44 35 2a be cc e0 73 be
       0.18143521 -0.046543207 -0.16621882 -0.23816222
000310 83 4b 91 3d 0d 16 be be 03 a9 1c 3c 55 5b d3 bc
       0.07094481 -0.37126198 0.00956178 -0.025800386
000320 b0 8c c6 bd a9 cb 90 be ac f4 11 3e f7 d0 d0 be
       -0.09694803 -0.2828038 0.14253491 -0.40784428
000330 01 f7 f3 bd 7d 9e 0f 3d 09 b6 9b bd d4 e7 8c bd
       -0.11912347 0.035063256 -0.0760308 -0.06880155
000340 fa 91 04 be 4d 8f ef bd 38 98 76 3e 88 01 ca 3d
       -0.1294631 -0.11697254 0.24081504 0.09863573
000350 e0 28 80 3a 19 01 a9 3e 1a 5b 9a 3d 7c b2 16 be
       0.0009777807 0.3300865 0.075369075 -0.14716524
000360 a2 fc 93 3d e7 b5 97 3d 58 bc 68 be 65 a1 18 be
       0.0722592 0.07407742 -0.22728097 -0.14905317
000370 62 9a 8d be 7a bd 2f 3c 6e 52 b1 3d 8b d3 a7 3d
       -0.27656847 0.010726327 0.086583 0.081946455
000380 2a 11 00 be 39 98 90 3d 35 ce 70 bd d5 84 21 be
       -0.12506548 0.07060284 -0.058790404 -0.15773328
000390 ed 12 56 be c1 5b 99 be 04 e5 86 3d 6a 03 66 3e
       -0.20905657 -0.29952815 0.0658665 0.2246224
0003a0 e4 c4 48 be 9a 8c 00 be 30 fd 62 be f8 a3 67 be
       -0.19606358 -0.12553635 -0.22166896 -0.22621143
0003b0 cd 74 95 3e 4b 4e 00 be 4b 2a 1b bd 2b 38 7d be
       0.29190674 -0.12529866 -0.03788213 -0.24728458
0003c0 f0 ff 24 3e 58 8c 97 bd 78 ee 46 3d b5 bb 05 3e
       0.16113257 -0.07399815 0.048567265 0.13059886
0003d0 25 34 1f be ba 96 c5 3e 79 86 20 3d 26 09 96 3e
       -0.15547235 0.38591558 0.039190743 0.29303855
0003e0 f2 79 a9 be ab 65 49 3e e6 d0 0f be 28 61 d1 bc
       -0.3310085 0.1966769 -0.14044532 -0.025559023
0003f0 95 e3 7f 3e 48 ad 25 3e e3 b7 80 3d 49 ba 60 bd
       0.2498916 0.16179383 0.062850736 -0.054865155

h_1.modlist.0.modlist.0.bias f4 [18]
000000 aa a2 14 bb 30 0d 80 3d 2b 63 46 bd 0d 8b 26 3e
       -0.0022679963 0.06252515 -0.048434418 0.16263981
000010 a9 4a 59 3d 9d 8d 3b be 14 f5 a6 3d 43 e2 85 3c
       0.053049717 -0.1831574 0.08152214 0.016343242
000020 10 73 91 bd e0 69 47 3d 10 60 85 bc c6 bf 7e 3d
       -0.071020246 0.048684955 -0.016281158 0.06219461
000030 a5 26 70 3d 19 bc 8d 3d 56 01 88 bb c2 9f 23 bb
       0.058630604 0.069206424 -0.00415055 -0.002496705
000040 5e 69 21 3d 7d 89 b3 bd
       0.039407127 -0.08766458
