2WL_link_pred/checkpoint/archive/20221214_110904/2WL_dict_50_20_8.pt (torch, 79276 bytes, 16 tensors)

weight f4 [48, 3]
00000000: 876c cabf 842f 393d 9d93 3a3d d15d 1bbe
00000010: d0c9 0a3e 2be9 db3e 8d10 8cbf b793 f73d
00000020: c22b f63c 8d0b 803e 954e 883d da33 413e
00000030: cee2 97bf 28f7 50bd 3545 333e 75a4 663e
00000040: 6aa5 76be d877 a4be 8b23 993e 3ce8 a6be
00000050: 146a 9ebe a4ec bbc0 70f9 2cc0 40d8 7bc0
00000060: dbc1 bd3e f198 f5be 7549 4bbf dd91 8f3e
00000070: 6c58 00be 08ce 00bf 099a b040 bb67 3340
00000080: 8378 7940 17f1 8e40 95be 4cbd cf14 a53e
00000090: c89d da3e acae 6cbe 36d6 89bc 157b a03e
000000a0: 3813 40c0 3196 97c0 d3eb 0d3e 8bc1 8ebe
000000b0: a676 d9be 8f1c 64be de0c a63e 559a 0f3f
000000c0: 479d ccbf cb1f 523d 91bd 3c3d 9cc9 bbbe
000000d0: 1f5d ff3e 3a9a 3e3f b9f2 d1bd 067f dc3d
000000e0: bbb0 1b3b a195 0dbe 86dd dbbc 68fb 11bd
000000f0: 77ed 31c0 4976 0bbe 170e c13d 4acd d240
00000100: f372 55bd b167 11be fdce 08c0 5093 febd
00000110: 581e 11bf 4cc7 5d3e b54e bcbe 0542 0ebf
00000120: 9d83 a23f 14ab 0d3e 3f5b 993e ae42 53be
00000130: 7396 a63e c5c6 e83e b54c 8bc0 bd99 2a3d
00000140: fc3c 353e c68b 1540 bc71 ef3d 4a8c 0339
00000150: bd22 86be 9c5d 503e b818 d73e 022d 8a3d
00000160: 4cf4 673c 6ad7 0f3e 083f 82be 1b90 fd3d
00000170: 07c4 b73e 03a8 9e3e 15e7 f6ba 2b9f 34bf
00000180: 3256 e0bd c4bf 7e3e a70a 1a3f 50f5 7b3e
00000190: 743a 28bf f32d dbbe af9b c1bf 0f1b 683d
000001a0: 75bd 04be 84dd 0d40 d124 a7bd 14a7 83bd
000001b0: e241 b03f 7a84 cabd 7967 6a3d d445 0fbe
000001c0: b917 833e 7dad d03e 1980 1e3f ca88 75be
000001d0: 7d7b 2abf 281e eabe 6a57 aa3e 8ce8 353f
000001e0: ca39 9dbd e4b4 8740 ec86 cb40 2ef9 c8bd
000001f0: b1ee 273d c20c 1a3e 1bd2 bcbf dce0 983c
00000200: c98a 093e 6c9f 423e a5b3 91be f994 32bf
00000210: 8941 05bd f8ec b03e cafb f43e d817 963e
00000220: 3ad2 dfbe 13fd 11bf b938 80be fd86 843e
00000230: 0c80 283f 831f b53d 7b3c 1a3c f9eb 2ebe
-1.581437 0.04521133 0.04555093 -0.15172507 0.13553548 0.4295133 -1.0942551 0.12088721
0.030050162 0.25008813 0.06655613 0.18867436 -1.186609 -0.051016957 0.17506869 0.22523673
-0.24086538 -0.32122684 0.2990993 -0.32599056 -0.30940306 -5.872637 -2.7027245 -3.9350739
0.37061962 -0.47968248 -0.7940896 0.28040972 -0.1253373 -0.5031438 5.518803 2.8032062
3.8979805 4.46693 -0.04998644 0.32242438 0.42698503 -0.23113507 -0.016825777 0.31343904
-3.001173 -4.737084 0.13859491 -0.27882037 -0.42473334 -0.22276519 0.32431692 0.56094867
-1.5985497 0.05129985 0.046079222 -0.36677253 0.49875733 0.7445408 -0.10251374 0.10766415
0.0023756463 -0.1382661 -0.026839029 -0.03564015 -2.7801187 -0.13619341 0.094265155 6.5875597
-0.052111577 -0.14199711 -2.1376336 -0.124304414 -0.56686926 0.21658057 -0.367788 -0.5556949
1.2696415 0.13834792 0.29952428 -0.20630905 0.3253666 0.4546415 -4.3531137 0.041650523
0.17699045 2.336656 0.11691615 0.00012545395 -0.26198378 0.20348209 0.42011046 0.06746866
0.014157366 0.14047018 -0.25438714 0.123810016 0.35891744 0.30987558 -0.0018837178 -0.7055537
-0.109539405 0.2487784 0.60172504 0.24605298 -0.6571419 -0.42808494 -1.5125636 0.05666643
-0.12962897 2.2166452 -0.08161319 -0.06428352 1.3770106 -0.09888549 0.057227585 -0.13991481
0.25604036 0.4075736 0.6191421 -0.23977962 -0.6659468 -0.45726132 0.33269817 0.71057963
-0.07677038 4.2408314 6.36022 -0.09813152 0.04099912 0.15043929 -1.4751619 0.018661909
0.13431849 0.19006127 -0.2845737 -0.69758564 -0.032533202 0.34555793 0.4784835 0.29315066
-0.43715078 -0.57026786 -0.25043276 0.25884238 0.65820384 0.08843901 0.009413834 -0.17082204

bias f4 [48]
00000000: 2fa3 bb3d a999 d23e 02a7 e13d fc3d 60c0
00000010: e3f9 003e 4e6d ecbe 3501 82be ca5a 88bc
00000020: 9c13 42bd 2a20 87be 2a97 10bd bfe2 06be
00000030: e332 16be 5567 e33d 1498 9ebe 7a25 c13e
00000040: 4837 393d 84dd 1fbc 2428 b13e 42a0 123f
00000050: d132 673d 272a 7a40 53e2 cb3e 3a02 3bbe
00000060: 125d 61be fbf2 a03e 5566 34c0 db86 b2bd
00000070: b461 003f dd5d 53c0 5a03 2d3f 2aa3 b2be
00000080: 3ce5 da3e 5591 0a3e c29e 4e3e bbf1 04be
00000090: 90be c9bd b537 023f bbc7 4c3e cad0 85bd
000000a0: 07cb 5d3d 3e0a 9140 aed7 4b3e 76d1 e1be
000000b0: e004 053f 1952 373d 55c7 803e 341e 9fbe
0.09161984 0.41132858 0.11018182 -3.5037832 0.12595324 -0.46177143 -0.25391546 -0.016644854
-0.047381982 -0.26391727 -0.03530041 -0.13172434 -0.14667849 0.111036934 -0.309754 0.37723905
0.045218736 -0.009757403 0.34600937 0.57275784 0.056444947 3.9088228 0.3982111 -0.18262568
-0.2200816 0.3143538 -2.8187459 -0.08717128 0.50149083 -3.302604 0.6758324 -0.3489011
0.42753017 0.13532002 0.20177749 -0.12982838 -0.098508 0.5086625 0.19998066 -0.06533964
0.0541487 4.5325003 0.19906494 -0.4410512 0.51960564 0.04475603 0.25152078 -0.3107773

weight f4 [5, 48]
00000000: dd2d 093e 814e e9be 36a2 0a3e e447 dabc
00000010: bdce f6bd 39dc 723f 288d bf3e 456a 093f
00000020: ac18 f23e 26fd e83d b66c 543f e47e 6f3f
00000030: 950a db3f cece 283f 9e98 223f 96f0 753f
00000040: 4299 7cbf b78b 03bf e40f b13e 6fca 84be
00000050: 99df 563f f16c 24bf a3ab f03d b336 0dbe
00000060: d018 f43e 0b8e 9c3b e03d 3fbf 3d37 6c3e
00000070: 0bc9 c0bf acd1 acbd b8ee a0bf 55e2 ca3f
00000080: e0b5 39bf 4618 d4be 5078 0ebf 9691 c43f
00000090: dc4b 3c3e 757f c03f 97c6 543f 2c5f 18bf
000000a0: fa45 bbbc 552d 543f f07f 9cbf 0b1e f33c
000000b0: 0ac1 bd3d 179f 61bf ae2a 9fbe 2437 0140
000000c0: 2686 0ec0 a963 163f 84f8 d6bd 29e4 2f3f
000000d0: e16b 33bf 6b05 48bf dfcc 99bf 1c04 de3e
000000e0: 1fd6 86be 6fc5 793f 2456 d63f aa58 e53e
000000f0: 094e 14c0 e9c8 d23e b9e1 b4bd 51d9 a83f
00000100: f234 e63f c188 60bf bcf3 ab3e e599 99bf
00000110: fb25 fa3e 3aac ecbc bf65 55be 6446 a03e
00000120: e750 84bf 87dc bd3f 11af 7bbf 87aa 903f
00000130: 9576 90bf 09b3 c8bf bb69 3a3f f75f f6be
00000140: 08ea d8bf 226a 643f 1bb3 0f40 7344 fb3e
00000150: 1517 8fbf 46dd 313f 1d2e 9bbf 0fb4 17c0
00000160: ca34 473f 9cd4 b8be 5e1b 13c0 018b 86bf
00000170: 5a11 25be abdc 313e e0e0 653f b9e0 2b3d
00000180: d6b5 1fbe 3d18 9b3c 2e1a b63e fbec ff3e
00000190: 8128 543f 989d d9be c511 623f bfaa 9dbd
000001a0: ed7b 2dbf 00d9 013e ba7d d53f f999 813f
000001b0: 5d30 2dbf 2063 d5bf 76a6 85bf 3de7 5cbf
000001c0: e22e a73d 15ef 28be bd81 90bf 4dce 63bf
000001d0: 559f 933f c32b c33f 3abf 923f 1f5f d0bf
000001e0: fdf5 a33f 7f6f 1dbf 72f2 05bb 68f9 adbe
000001f0: cd66 063f 0791 433f 1d22 b43f f190 873e
00000200: 4d26 493f ad34 823f 2d63 96bf 3178 fc3e
00000210: ab33 173f 6c97 793f 7d73 a03f 3ee0 6a3f
00000220: 959b 9abc bb4e 2ec0 aa31 e63f bc90 c43e
00000230: 3c70 df3e 768c a1bf d478 91bd 78aa cc3e
00000240: 77f8 e0be 7360 adbe 7fed 283f 72bc d23e
00000250: 0041 603f 0904 67be 78e2 a33f 2fd6 14c0
00000260: 5aad 23bf 8415 583f cace 82bd 6101 0abf
00000270: 203d 4b3e 9aef f3be f157 91be 4308 423f
00000280: 75cf 3d3f ec85 6f3e 1b64 da3f 5909 a0bf
00000290: ecae 873c 182f 153f 795b c13f 55e5 57be
000002a0: 98eb 5ebf ef88 b43e 1748 9c3f 718c 353e
000002b0: 3311 3040 d52d 6f3f 1a07 a33f e91e 1540
000002c0: 7825 06c0 8cb1 fdbf f4f2 b33f a5de 333f
000002d0: 6f6a f63e 932d 1f3e fd95 6bbf 7cc8 2a3f
000002e0: 0696 6bbf 64e0 1240 d56c 133f 8d38 e73f
000002f0: 5533 353f 5a67 c63e 4b96 303e 2283 ba3e
00000300: 85dc a43f 4fac d3bf 7f46 2b3c 39a7 84be
00000310: 847f cebd da82 8d3e caf7 5fbb aaef 1ebe
00000320: 8da9 cf3f 3c26 3fbf 260c edbd d8f6 4d3e
00000330: 1679 34bf 6957 cd3f 1d70 63bf 5275 133f
00000340: 1e9d 59bf e7ae 8cbf 1cc9 353d be4d e03f
00000350: 260a d9bf 3df3 b3bf 5d76 c93f 61c9 ddbe
00000360: 52e2 2d3f 7054 1f40 2c16 6cbf f3fc 173f
00000370: 98f1 e2be b850 813f cadd 453c e664 293e
00000380: c7cd 1a3f 9c75 2fbf 0883 573f 0681 8dbf
00000390: f8d9 b73f 6035 853f 60da 903d 80b0 813d
000003a0: d588 e93e 9466 e7be b372 583f edde 35bf
000003b0: 5e5e f7be 1443 70be 8f79 683e ac9c ce3f
0.13396402 -0.45567706 0.13538441 -0.026645608 -0.12051151 0.94867283 0.3741238 0.5367778
0.47284448 0.11376409 0.8297838 0.93552995 1.7112604 0.6594056 0.63514125 0.9607023
-0.9867135 -0.5138506 0.34582436 -0.25935695 0.8393493 -0.6422873 0.11751487 -0.13790397
0.4767518 0.004777675 -0.7470379 0.23067947 -1.5061353 -0.08438429 -1.2572851 1.5850321
-0.72543144 -0.4142477 -0.5565233 1.5356929 0.18388313 1.5038897 0.83115524 -0.5952022
-0.022860516 0.8288167 -1.2226543 0.029677412 0.09265335 -0.88133377 -0.3108725 2.0189905
-2.2269378 0.5874582 -0.10496619 0.6870752 -0.70086485 -0.7813327 -1.2015647 0.4336251
-0.26335236 0.97566885 1.6745038 0.44794208 -2.317263 0.41168907 -0.08832116 1.319132
1.7984908 -0.8770867 0.33584392 -1.200009 0.48857102 -0.028890718 -0.20839594 0.31303704
-1.033719 1.4832925 -0.98314005 1.1302041 -1.1286188 -1.5679637 0.7281758 -0.4812009
-1.6946421 0.89224446 2.2453067 0.4907566 -1.1178919 0.6947826 -1.2123448 -2.370365
0.77814925 -0.36099708 -2.2985454 -1.0511171 -0.161199 0.17369334 0.89796257 0.04196236
-0.15596709 0.018932456 0.3556685 0.4998549 0.82874304 -0.42503047 0.88308364 -0.07698583
-0.6776722 0.12680435 1.6678994 1.0125114 -0.6765192 -1.6670876 -1.0441425 -0.8629034
0.08163239 -0.16497453 -1.1289593 -0.88986665 1.1532999 1.524773 1.1464608 -1.6279029
1.2809445 -0.61498255 -0.0020438698 -0.33979344 0.5250061 0.7639317 1.407291 0.2647777
0.7857407 1.0172325 -1.1749016 0.4931045 0.59063214 0.97496676 1.2535244 0.91748416
-0.018873015 -2.7235553 1.7983906 0.38391674 0.43640316 -1.262099 -0.07103124 0.39973807
-0.43939564 -0.33862647 0.6598739 0.41159397 0.8759918 -0.22560133 1.2803488 -2.3255727
-0.6393639 0.8440783 -0.06387098 -0.53908354 0.19847536 -0.4764374 -0.28387406 0.75793856
0.7414468 0.23390931 1.70618 -1.2502853 0.016562901 0.58274984 1.510604 -0.21083577
-0.8707824 0.35260722 1.22095 0.17729355 2.7510498 0.9342931 1.2736542 2.3300116
-2.096037 -1.9819808 1.4058518 0.70261604 0.48128077 0.15544729 -0.9202574 0.66712165
-0.9202579 2.2949457 0.5758794 1.8064133 0.7078145 0.38750726 0.17244832 0.3642817
1.2879797 -1.653696 0.010453819 -0.2590883 -0.100829154 0.27638894 -0.0034174793 -0.15521112
1.6223618 -0.74667716 -0.11574583 0.20113695 -0.7049726 1.60423 -0.88842946 0.5760089
-0.85005367 -1.0990876 0.044381246 1.7523725 -1.6956222 -1.4058605 1.5739247 -0.43317702
0.6792346 2.4895287 -0.9222133 0.59370345 -0.44324946 1.0102758 0.012076804 0.16542396
0.6047024 -0.6853883 0.8418431 -1.1055 1.4363394 1.0406914 0.07072902 0.06332493
0.45612207 -0.45195448 0.8455002 -0.7104328 -0.48314184 -0.23463088 0.22702621 1.6141562

weight f4 [48, 48]
00000000: 88f5 0a3f aed7 a9be 2fa7 183f b680 debe
00000010: 0444 dc3e 7e92 b93e 28e5 d5be 88e2 9abf
00000020: d228 9dbf fb36 cebe 77e4 d03f 3456 5cbe
00000030: 6d75 363f 0f1e 5741 35d6 01be 85a1 9a3e
00000040: 3a5c 333e 71c3 0f40 2597 dbbe 8c43 95bf
00000050: 26f4 473c db95 fbbc 4dea c3bf 63a3 03bf
00000060: b1b6 be3f be8e d03f d7cc 78c0 6fc8 3d3f
00000070: a5fb 5fbe caa6 98bf 1063 c3bf 448d 3abf
00000080: 824d 1c3e b295 1ac0 edfe d13f 7805 14bf
00000090: 2067 b2bf c63e 4b3e 5d83 35c0 a09b 0640
000000a0: 44c9 813f d889 82bb b3dd c83f 9ac5 6abf
000000b0: ac73 843e d256 f6bf f96d 203f 3180 833e
000000c0: 5e50 1bbf 0f57 873f a2df 53bf 21e1 4a41
000000d0: 772d 29be d0c8 e2bf 2f28 f9be edf1 edbe
000000e0: b4eb a4bf fb6d 9fbe 28ea 083e 91fb 263f
000000f0: f298 f1be 1431 073f ec72 8fbf 143e ed3e
00000100: e619 453c 1cfe 53bf c98c e63b 047d 5a3f
00000110: 00cc 00bf 144f b43d 04f2 11be c51f 32bf
00000120: 9e59 07bf 01f1 f33e d0a9 03be a4a9 733d
00000130: 83aa 8d3f 3f04 b5be bcd1 2d3f 1135 5dbe
00000140: f8ae 9d3f f92c 713e 81cd c5bf a181 073e
00000150: e87b 28bf 2cda 7b3f 7e3a a53e 19f7 9d3e
00000160: abca 00c1 9339 493e d396 b73e 3a77 c1bf
00000170: 4ab9 263f 5957 9c3e 4d55 713f c0c7 36bf
00000180: c545 5d3f 2f33 9bbe 3cc3 0340 48d9 b33e
00000190: 0263 4fbe 451e 9dbe 228b 5ebe 919a f33e
000001a0: 52ce c1bf 0c4d 8ebd 36ef 71c0 c56a 893f
000001b0: 809a f53f 1028 fb3f 8889 a83f 357e 003f
000001c0: df3b 6d3d b9e6 31bf e095 75bf 0b39 6bbd
000001d0: dbdb 823f 4d9a 72c0 9e78 c23e 6c66 91be
000001e0: 04d9 a3bd a0cf a5be a3d0 163e 2880 c63e
000001f0: 89ce e4be 306a 9b40 0ec9 263f 7c06 3c3f
00000200: 1f01 2fbc 0c7e f63f 885e 743e 7fbb 09c0
00000210: 7793 64bf 8d0e cfbe 7c7f 00bf 20ca 013f
00000220: 613d 3ac0 8052 5cc0 4bc4 c8be 8531 cb3f
00000230: c068 dfbe d44a a5bd 7160 893f abff 1dbf
00000240: b557 60bf 7823 d3bf b905 79bf 0508 d340
00000250: e0c9 7bbf 6791 7a3f 1f70 0e3d 2443 903e
00000260: 56e5 26c0 1923 0dbd 885c 06be 1490 213f
00000270: e0a8 ca3f 8ca0 38bf 5731 223f cb22 f0be
00000280: 8463 19bf 0af9 1740 7d15 febf a216 52c0
00000290: 4b21 87bf e4ea 063f 91a0 e0bf 4efb 21be
000002a0: 8d32 b63f 65ed 1040 62fa 21be 8cba 233f
000002b0: 1898 8ebe f9f0 c140 86b8 15c0 373d 00c0
000002c0: c5f6 81bf 14e7 efbf 1608 e9be 91ca c13f
000002d0: 39aa 6c3f b237 07bf 41f8 a8bf dd5e 843f
000002e0: 33be b23e 1813 b9c0 b5a1 78bf d1f7 fd3d
000002f0: 11ff f5be a877 b0bf 1305 a13f 1602 853e
00000300: a025 c2be 7bd8 dc3e c644 ecbe a02a 903d
00000310: de1a 4b3f 64b4 b63e 21e6 9d3f a209 3c3f
00000320: 379e 14be 6856 943e 190a a1bf 0da2 32bf
00000330: 8aea 073f 58b3 943e 2fff 3a3f 3c24 32bf
00000340: 9104 4f3f 9a12 3f3f a933 bd3d 7008 65bc
00000350: 777d 0abd 8d91 fdbf 47af 6d3f 1c00 c93e
00000360: fa44 2abe b759 d13e cd4a 373f b8d8 5ebf
00000370: 4949 463f 241b 2b3f 089e b2be 0649 523e
00000380: a8b2 6ebd 94de 24bc 5bff 3fbe 4d2e 5fbf
00000390: c6da 2bbf beab 4b3e 352e 8e3f 8487 3dbc
000003a0: c8a4 38bd 96e7 9fbe 3bcb 55bc d543 3b3f
000003b0: 6383 20bf 1b2c 663c dd21 f5bd b51e 88bc
000003c0: d05d f1be f3ad d0be 194f 4cbf 44c6 3d40
000003d0: e1bf 24bf c4ad 173f 414f 0bbf 8809 de3f
000003e0: 600f 1dbf edad 4bbf 5513 93be eb18 3ac0
000003f0: 71ef 52bf ece8 9b3f 449c 853e 435d 323f
0.542809 -0.33172363 0.596301 -0.43457574 0.43020642 0.36244577 -0.41776395 -1.2100382
-1.2278082 -0.40276322 1.6319722 -0.21517259 0.7127293 13.444839 -0.1267937 0.30201355
0.1751565 2.2463038 -0.42888752 -1.1661239 0.012204206 -0.030711105 -1.5305878 -0.51421183
1.4899503 1.6293561 -3.8875024 0.7413396 -0.21873339 -1.19259 -1.5264606 -0.72871804
0.15263942 -2.4153867 1.6405922 -0.57820845 -1.3937721 0.19848165 -2.8361428 2.1032486
1.0139546 -0.0039837174 1.5692657 -0.91707766 0.258695 -1.9245245 0.62667805 0.2568374
-0.60669506 1.0573443 -0.8276311 12.679963 -0.1652125 -1.7717533 -0.4866347 -0.46473637
-1.2884431 -0.31138596 0.13370574 0.6522761 -0.47187 0.5280926 -1.1206946 0.46336424
0.0120301 -0.82809615 0.007035826 0.8534701 -0.5031128 0.088041455 -0.14252478 -0.69579726
-0.5287112 0.4764481 -0.12857747 0.059487954 1.1067661 -0.35354802 0.67898154 -0.21602274
1.2319021 0.23552312 -1.545334 0.13233043 -0.65814066 0.9837978 0.32271188 0.30852583
-8.0494795 0.19650869 0.35857257 -1.511451 0.6512648 0.3053539 0.94270784 -0.71398544
0.86434585 -0.30312487 2.0587912 0.3512671 -0.20252612 -0.30687156 -0.21732762 0.47578862
-1.5141089 -0.06948289 -3.7802253 1.0735708 1.9187775 1.9621601 1.3166971 0.50192577
0.057918426 -0.6949268 -0.95931816 -0.057427447 1.0223345 -3.7906678 0.3798265 -0.28398454
-0.08000377 -0.32384968 0.14728026 0.3876965 -0.44688824 4.8567123 0.65150535 0.73447394
-0.01068142 1.9257216 0.23864186 -2.1520689 -0.89287513 -0.4044079 -0.50194526 0.50699043
-2.9099963 -3.4425354 -0.3921226 1.5874487 -0.43634605 -0.08070913 1.0732557 -0.61718243
-0.8763383 -1.6495199 -0.9727436 6.594729 -0.9835491 0.97878116 0.034774896 0.28176224
-2.6077476 -0.0344573 -0.13121235 0.6311047 1.5832787 -0.72119975 0.63356537 -0.46901545
-0.59917474 2.3745751 -1.9850308 -3.2826314 -1.0557035 0.52702165 -1.7549001 -0.15818521
1.4234177 2.2644894 -0.1581817 0.6395652 -0.27850413 6.0606656 -2.3393874 -2.0037363
-1.0153433 -1.8742394 -0.45513982 1.5139943 0.9244724 -0.5281936 -1.3200761 1.034145
0.34910735 -5.783581 -0.97121745 0.12400783 -0.48046163 -1.3786516 1.2579674 0.25978154
-0.3791933 0.43133911 -0.4614622 0.0703938 0.7933787 0.35684502 1.2335855 0.734522
-0.14513479 0.28972173 -1.2581207 -0.6977852 0.53092253 0.29043078 0.7304563 -0.6958654
0.8086634 0.7463776 0.09238369 -0.013979062 -0.03381106 -1.9810044 0.92845577 0.39257896
-0.16627875 0.4088876 0.7159851 -0.87049437 0.77455574 0.6683829 -0.34886193 0.20535669
-0.05827585 -0.010062832 -0.18749754 -0.87180024 -0.67130697 0.19889733 1.1107851 -0.011567954
-0.045079023 -0.31231374 -0.013048942 0.7315038 -0.6270048 0.0140486015 -0.119693495 -0.016616205
-0.47141886 -0.40757713 -0.79808193 2.9652262 -0.64355284 0.5924952 -0.54417807 1.7346659
-0.61351585 -0.79562265 -0.28725687 -2.9077709 -0.8239661 1.2180457 0.26095784 0.69673556

bias f4 [48]
00000000: 15ba babf 351c 9340 eae7 8640 b45f 963f
00000010: ac13 0640 883a 6640 3f79 c740 6518 d13d
00000020: aa98 b6c0 f892 0840 ff66 bf40 8aff dc3e
00000030: a50e c940 41a4 7e40 925f 6ebf da5c 0140
00000040: ded1 c140 4829 013d 1f89 7b3f 653c 9840
00000050: f367 0b40 e10b 1a40 122b a23f 3563 e8be
00000060: 24d3 d73f 3427 a940 e8cc 5e40 ad72 d33d
00000070: 8bdc 2f3f e184 1940 8fd1 adc0 0578 1c40
00000080: 43ef bb3f baed 4540 cdc5 1340 dc0e 2a40
00000090: 431c 9540 ccd0 5240 4d2c f13f 6d54 4f3f
000000a0: 80f7 b840 ef61 4d3f 7292 d240 3407 ab40
000000b0: 8c42 5e3f 63fd a240 c534 99c0 6f00 2740
-1.4588038 4.5971932 4.21581 1.1747956 2.0949507 3.5973225 6.2335505 0.10209731
-5.7061357 2.1339703 5.981323 0.4316371 6.2830377 3.9787753 -0.9311458 2.0212922
6.0568686 0.03153351 0.98256105 4.7573724 2.1782196 2.406975 1.2669394 -0.4538819
1.686131 5.2860355 3.4812565 0.10324607 0.68695897 2.3987353 -5.431831 2.4448254
1.4682392 3.0926347 2.3089478 2.657157 4.6597 3.293994 1.8841645 0.809882
5.7802124 0.8022756 6.5803766 5.3446293 0.8682029 5.093431 -4.7876916 2.6094015

weight f4 [48, 48]
00000000: 55e4 c93e 887d d43d 50c7 59bc f4f4 ee3d
00000010: d2a2 34be 944b 473d 4501 17be dffe 1abb
00000020: bd50 913e 5cfa 11be 548e 2c3d 458b 0a3e
00000030: a631 773e f943 503b 59d0 f4bc 1fc8 7fbd
00000040: f083 263d a863 90be 8809 653c e7a2 8f3d
00000050: d3d5 29be d5e6 d93d 79c0 2cbc b9a0 92bc
00000060: f576 e33d a2bd 473e 8bb3 a7bd 94ad 823e
00000070: 324f edba 892b d0b7 e13c 4f3e cd93 8ebe
00000080: 83a8 773e bc21 2abe 2d1f c53d 52fc 973c
00000090: 120c 873d 1bec 0f3e 99c3 e2bd 2aaf 453e
000000a0: 57f3 6e3d 0de9 45bd 0696 f63d 85f3 f6bd
000000b0: d46f a13c 7eb1 083e e99c a53e 6711 073d
000000c0: 561a bdbd 16a6 2a3f 5392 46bf 7c93 a5be
000000d0: 5dd6 e7bd cc21 23bf 507a 23bf 93fe 563d
000000e0: e2f8 333c 72c1 8abd c342 793e 7fb4 ce3e
000000f0: d2db 27be e710 64be 76b6 92be 627f 4c3e
00000100: 48b5 883d 81c0 2eb7 1db8 ae3e 2fad 5abd
00000110: 418b d0be 2012 3d3d 3c38 12bd 682b 21be
00000120: a68d b33e dea8 093f fff0 d6bd 261a e83e
00000130: 3649 0e3f 3725 2bbd 7076 253e 5963 8dbe
00000140: c940 c43e 03a0 07be a57d 7ebe 1818 b33e
00000150: cf20 a13e 9c86 e53e 5a97 14be 0dea b83e
00000160: 76f6 87bd 394a a03d 1364 0f3e a98d 1cbf
00000170: aa08 eb3e 14bb 22bf 271e 003f e736 f3be
00000180: 011b 823e e6c2 24bf 1e07 9cbe 3682 45be
00000190: 3313 933d 3634 0b3f 612b f93e 6460 3dbe
000001a0: 41b6 783f 7a1a 0fbf 14c2 9f3e b63e d1be
000001b0: 874d 8e3f 6af6 d03e 110f 17bf 30a9 83bf
000001c0: ab89 05bf 4f53 6ebf ec4c 48bf 87f1 7e3e
000001d0: 3a26 02bf cf5a eb3e 258a 33bf 9b99 8b3f
000001e0: 267a f23e 0533 593f 1cbe 14bf c62b 00bf
000001f0: c46f 1dbf 6b54 1640 db9b 1b3f 6850 b53f
00000200: 198b d1bd d67e 263e 8a16 2cbf b799 b1be
00000210: 0b72 253e a879 dabe 0395 a53f 8085 ddbf
00000220: 8f6e 253f d965 543e 6b8f 84be f8cb 97be
00000230: 3ca4 943f 5434 ae3f 7401 d8be b1b1 efbe
00000240: 4b1c 9fbd 7519 ecbd 9899 9c3e 6790 be3c
00000250: e18b 42bf 48eb 883e 01b9 00be 7493 7abc
00000260: b962 23bd 9a67 c3bd c548 f03c cc58 643e
00000270: d9ab 76be 4d7b 01bd 6134 fe3e 4920 033f
00000280: 528d e3be 01fb 2f3d 7a33 a73e e80d 3b3c
00000290: e431 d0be 57f7 103d 74bf 963e 6736 6cbe
000002a0: 371c 643e 3549 543f 0b42 093e 4e55 693e
000002b0: 53bf 13bf b4b9 31bd 77e0 ab3e 40bc a43e
000002c0: 5a40 263e d99e 4ebd 9612 07bf d738 793e
000002d0: 144c 153e a4c7 a73e 999f fd3e e739 73bf
000002e0: ea5c 1b3e e4d0 a03e ec1d 943d 3180 c23e
000002f0: 9b97 5b3e 15fb 533e 64e9 613c 42f5 52be
00000300: 28f5 9a3f f8f7 45bc 8ee3 08bf a22c b13e
00000310: d7da 9e3e d561 293d 3035 e53e 387d 9440
00000320: e7fd 80bd a039 71be bb77 8ac0 b820 a4bf
00000330: cc50 fe3c ac23 4c40 cd65 fbbb e4c2 0ebf
00000340: c81d 5c3f f7ea f4bf 3cf3 0bbf 3d24 b93e
00000350: b0b6 b83f 8b15 313e 0b89 d73f 95bb 2d3e
00000360: 70b3 9cbf 31fc a2bf 1470 d4bc 78d8 14bf
00000370: 2196 f6bd 90c5 13bf 6ff7 37be db94 c8be
00000380: bdf2 dc3e e84c a53f 0402 8c3f e5cc 2cbe
00000390: 1088 e5bf 069c 9c3d 8b56 a33f 2c59 bebe
000003a0: b6e4 76c0 454b 3ac0 69eb 8e3f 599c 9a3d
000003b0: 6591 61be fda6 1a3f 8257 2bbe 4d88 4f3e
000003c0: 0387 e93e 4d5d 8abe 8e0f 753f 6453 c23e
000003d0: 6fdc 2c40 2678 c73f e0f1 9a3d f645 fabe
000003e0: 94fd 47be 5fbe 19bf 2292 64be 488a 8a3f
000003f0: 5ba7 a6bf 76de ad3e fe02 903f 24f5 893f
0.39432016 0.10375506 -0.013292149 0.11667815 -0.17640236 0.04865606 -0.14746578 -0.002365045
0.2838191 -0.14255661 0.042127922 0.1352969 0.24140033 0.0031778796 -0.029884504 -0.06244671
0.04065317 -0.28201032 0.013979323 0.07013493 -0.16585474 0.10639731 -0.010543936 -0.017898904
0.11106674 0.19505933 -0.08188542 0.25523055 -0.0018105267 -2.4815805e-05 0.20238067 -0.27847138
0.24185376 -0.16614431 0.09625087 0.018552933 0.06594099 0.14054911 -0.110724635 0.19305101
0.058337536 -0.048317958 0.120403334 -0.120581664 0.019706644 0.13348958 0.32346275 0.03297558
-0.09233539 0.6665968 -0.77567023 -0.32339084 -0.113201834 -0.63723445 -0.6385851 0.052488875
0.010984631 -0.06775178 0.24341874 0.40372083 -0.16392449 -0.22272073 -0.28654832 0.19970468
0.06675202 -1.0416029e-05 0.34124842 -0.053387817 -0.40731242 0.046159863 -0.03569816 -0.15739214
0.35069007 0.53773296 -0.10495185 0.4533245 0.5558046 -0.041783538 0.16158462 -0.2761486
0.38330677 -0.13244633 -0.24852617 0.3497932 0.31470343 0.4482926 -0.14510861 0.36116067
-0.066388056 0.07826657 0.14003019 -0.61153656 0.45905048 -0.6356671 0.5004601 -0.47502825
0.25411227 -0.6435989 -0.3047418 -0.19287953 0.07181396 0.5437654 0.48665908 -0.18493801
0.971531 -0.55899775 0.31202757 -0.40868157 1.111741 0.40813 -0.59007365 -1.0286007
-0.5216319 -0.9309587 -0.78242373 0.24896823 -0.5083958 0.4596772 -0.70132667 1.0906252
0.47358817 0.84843475 -0.58102584 -0.5006679 -0.61498666 2.3489025 0.6078469 1.4165163
-0.10231609 0.16259322 -0.6722189 -0.34687588 0.16156785 -0.4267094 1.29361 -1.7306366
0.64621824 0.20741977 -0.2589067 -0.29647803 1.161262 1.3609719 -0.4218861 -0.46815255
-0.07769068 -0.11528293 0.30585933 0.023262216 -0.7599469 0.26742005 -0.12570573 -0.015293945
-0.03988907 -0.09541245 0.029331574 0.22299498 -0.24088992 -0.03161173 0.49649337 0.5122114
-0.44443756 0.042963985 0.3265646 0.01141689 -0.40663064 0.03539213 0.29442942 -0.23067628
0.22276388 0.82924205 0.134041 0.22786447 -0.5771381 -0.04338999 0.3356969 0.32174873
0.16235486 -0.050444458 -0.52762735 0.24338089 0.14579803 0.327695 0.49535826 -0.95010227
0.15172163 0.3140937 0.0723227 0.37988427 0.21444552 0.20701249 0.013788555 -0.20601371
1.2106066 -0.012083046 -0.5347222 0.34604365 0.31026337 0.041353066 0.4476714 4.6402855
-0.06298428 -0.23557138 -4.3271155 -1.2822485 0.031044386 3.1896772 -0.0076720477 -0.5576613
0.8598294 -1.9134206 -0.5466802 0.3616046 1.4430752 0.17293374 1.6838697 0.16966088
-1.224226 -1.2733213 -0.02593235 -0.58142805 -0.120403536 -0.5772333 -0.17965482 -0.39176068
0.43153945 1.2914095 1.0938115 -0.16875036 -1.7932148 0.076469466 1.2760786 -0.37177408
-3.8577094 -2.910844 1.1165591 0.07549352 -0.2202812 0.60411054 -0.167326 0.20266838
0.45610818 -0.27024308 0.9572686 0.37954247 2.7009542 1.5583541 0.07565665 -0.488815
-0.19530326 -0.6005611 -0.2232137 1.082345 -1.3019823 0.33958787 1.1250913 1.0777936

weight f4 [48, 48]
00000000: 3787 803e 16d2 2b3f f304 15bf c194 e5be
00000010: cc55 52bf a969 3dbf e23c 0dbf 4008 2abf
00000020: 843f 1c3f 704f 4abf 5988 8bbe bda1 713f
00000030: 7b59 d33f 95d2 20bf 8215 153e a033 c5be
00000040: c1bc 1ebf ccdc 90bf 7dbd 1d3f be60 223f
00000050: 0d68 053f 6d11 8bbd 8452 f0be ab39 ff3e
00000060: 7176 debe f303 e5be b94b 0a3e c3bb 6fbe
00000070: 0990 ffbd 10f5 8b3f 9a0e 153f 17c9 423f
00000080: 23e8 5ebf 0328 70be 0d58 c23b ed80 89be
00000090: a553 94bf f99a 94bf 6557 623d 465d d23e
000000a0: 11e3 ffbe 1592 393e 2683 30bf f44c 2cbf
000000b0: d37b 2cbc 54f3 a8be a329 b33e acdf 7c3e
000000c0: 65a5 52bd 1f91 05be 1e22 0040 1d53 363f
000000d0: 993d 483f 0ff5 b73e 6661 953e 0d62 80bf
000000e0: 5e10 2dbe 3ef4 24be 8073 a53c 6e9e 033e
000000f0: c0bb 83be 84cb 363d 9cdd 503e 5a1d 4a3e
00000100: 2a33 0fbf 28fc f83e 85a4 8a3f 76ce 3fbe
00000110: fdff 41be 0c71 21be 9553 0e3e 8015 553f
00000120: 40ae c0be 8d88 15be f47b ffbf 84ba ffbe
00000130: 3230 d5bf 803f 3a3f c00c 633e d43a 3b3c
00000140: 4a87 a93f 3332 33be 0af6 e83d 688a a13e
00000150: 0d31 6ebe 4ee9 cebe 2066 2c3f 383f ff3e
00000160: e255 b23d 6984 b7bf 4578 c3bc 25cd 8ebe
00000170: 9026 1f3f a306 5abe 59f3 5f3f 92aa 4fbf
00000180: c29d 5d3e 2c8c cabe 544c f2be 4e68 51be
00000190: 577a 433f 9e4f 1340 044f a33e c042 cebd
000001a0: 967a 1dbf 30bd de3e 57de 393e e8c4 5dbf
000001b0: 74d6 e93e e4ee 28bd 7cfe 9bbd eb47 abbe
000001c0: 1567 10bf 7068 f13f 0f71 b33f 3bcf 68be
000001d0: b001 dfbe 00d9 753e 0f4e 2cbe d159 2bbf
000001e0: 0001 bebe 784f 463e 5a2c 98bf cb73 3abf
000001f0: 033b 283f 953a 583f f738 c2be 13d3 1d3f
00000200: 03c9 52bf fe68 e9bf bcb4 803f 9cbb 4f3d
00000210: 9805 fe3d fa03 753f 320c 293f 1b4f e93f
00000220: 36a8 ac3d 6da7 08bf c718 1a3f 826c 04be
00000230: e1a2 d03f 003b 7c3e f37f dabe ce07 35be
00000240: 8826 55bd 80ec 6fbf 630f d83e 3e5f 2fbf
00000250: 47b1 e33e 5232 573f 3552 313e 3079 1240
00000260: 2003 adbd 1463 463f fd37 f0bd c9e7 923d
00000270: 77d0 48bf 2b97 19be 010c cfbd b79b 263e
00000280: 0ce0 213f eb53 bdbf 7fce b93e 753b 303f
00000290: 633b 1abf 7a81 c53e 7cf5 7e3f 21c1 a7bf
000002a0: 6710 bbbd ac63 5cbe 103c 083f 3200 cdbe
000002b0: 5477 0c3f bdfd f4be 77db 32be 4013 c33e
000002c0: b2d4 303f f0a6 543f 4599 323f 343a a73d
000002d0: 3526 a93e eb7a 41be 66d5 cd3f 903f ee3e
000002e0: b2fe 1dbd d3e1 ee3e ebb1 113e a91c bb3d
000002f0: a1d2 77bf 2b0c f3bd 79e7 8dbd bef7 083e
00000300: e759 f33e 150a fb3d f08e b23e e623 5bbf
00000310: 26c1 97bf f113 0c3f e040 39bf c4e5 5a3e
00000320: e94d 1bbf 5753 6ebf 2cb0 8bbe a2da 15be
00000330: 1e5e a83e 53d4 a8bf fde6 aebc d12f 37bf
00000340: 57cd 2fbd e4b1 57bf 8626 91be a8b7 0abd
00000350: 60eb 7bbe ec73 cdbe 202b 293e c573 013f
00000360: 61b5 8d3d 946b 1bbf 5963 313f e336 8e3c
00000370: d283 f0be 3902 a43e c258 4a3e f1b5 413e
00000380: e376 f43f e713 83be 5c5a 53bc cf3d 7bbe
00000390: 1102 9fbf fabd b5bd fa4c 963e edc5 613f
000003a0: 1885 0abf 8e43 f7be 6fea 35bf fb0b 2bbf
000003b0: 452f f7be 261f 05bf 9398 afbc 1010 88bf
000003c0: 847f 74bd af73 76bd f4a0 6fbf cf04 413d
000003d0: 2e97 99be 25b7 05bc 0f98 133f 7ba5 ac3e
000003e0: 25a5 e2be 26b2 ae3e 6a25 fe3e 266b d1be
000003f0: 366f 99bf 1043 ee3e c3de 113f 3e0a dfbe
0.2510316 0.6711744 -0.58210677 -0.44840053 -0.82162166 -0.7398935 -0.55171025 -0.6641884
0.6103442 -0.7902746 -0.27252463 0.9438742 1.6511682 -0.6282132 0.14558986 -0.3851595
-0.62006766 -1.1317382 0.6161726 0.63428867 0.52111894 -0.06790433 -0.46937954 0.49848685
-0.4344974 -0.44729576 0.13505448 -0.23411469 -0.124786444 1.0934162 0.58225405 0.7608809
-0.8707296 -0.23452763 0.0059309066 -0.26856175 -1.1588026 -1.1609794 0.055259127 0.41086787
-0.49977925 0.18122132 -0.68950117 -0.6730492 -0.010527569 -0.32998145 0.34992704 0.24694699
-0.051427264 -0.1304364 2.0020823 0.7122057 0.7821899 0.35929152 0.29175872 -1.0029923
-0.16900775 -0.16108796 0.020196676 0.12853405 -0.2572918 0.04462768 0.20397037 0.19737759
-0.55937445 0.4862988 1.0831457 -0.18731102 -0.18945308 -0.1576578 0.13899072 0.8323593
-0.37632942 -0.14602871 -1.9959702 -0.49946988 -1.6655333 0.72753143 0.22172832 0.0114276
1.3244412 -0.17499618 0.11375053 0.31550908 -0.23260899 -0.40412372 0.6734333 0.4985292
0.08707787 -1.4337283 -0.02386106 -0.27890888 0.62168217 -0.21291594 0.87480694 -0.81119645
0.21642211 -0.39560068 -0.4732386 -0.20449945 0.7635855 2.3017344 0.31896222 -0.10071325
-0.61515176 0.43503714 0.18151222 -0.8662858 0.45671427 -0.04124345 -0.076168984 -0.33453307
-0.5640729 1.8859997 1.4018878 -0.22735302 -0.43555975 0.2400856 -0.16826652 -0.66933924
-0.37110138 0.19366252 -1.1888535 -0.72832936 0.65715045 0.8446439 -0.37934086 0.616502
-0.8233797 -1.8235166 1.0055156 0.050716028 0.12403411 0.9570919 0.66034234 1.8227266
0.08430521 -0.5338047 0.6019406 -0.12932017 1.6299707 0.24631882 -0.42675743 -0.17678759
-0.0520387 -0.93720245 0.4219924 -0.68504703 0.4447119 0.8406116 0.17316516 2.2886467
-0.08447862 0.7749493 -0.11729429 0.07173116 -0.7844309 -0.14999072 -0.101097114 0.16270338
0.63232493 -1.4791235 0.36290357 0.68840724 -0.60246867 0.38575345 0.9959333 -1.3105813
-0.09133988 -0.21522397 0.5321665 -0.40039212 0.5486958 -0.47849837 -0.17466532 0.38100624
0.6907455 0.83067226 0.6976512 0.08165398 0.33036962 -0.18894546 1.6080749 0.4653287
-0.038572975 0.46656665 0.14228027 0.09136326 -0.9680577 -0.11867555 -0.069289155 0.13375756
0.47529528 0.12257782 0.34874678 -0.8560165 -1.1855819 0.5471793 -0.72364616 0.21376711
-0.60665756 -0.93095917 -0.27282846 -0.14634183 0.32884306 -1.3189796 -0.021350378 -0.7155734
-0.042920437 -0.84255815 -0.28349704 -0.033866554 -0.24601507 -0.40127504 0.16520357 0.50567275
0.06919361 -0.60711026 0.6929222 0.017360156 -0.4697557 0.32032946 0.19760421 0.18917061
1.9098781 -0.25601122 -0.012899961 -0.24535297 -1.2422506 -0.08874126 0.29355603 0.88192636
-0.54109335 -0.48293728 -0.7106084 -0.66815156 -0.4827825 -0.52000654 -0.021435058 -1.0629902
-0.05969192 -0.06016892 -0.9360497 0.047123726 -0.29998153 -0.008161341 0.576539 0.33720002
-0.4426662 0.3412029 0.4963792 -0.4090206 -1.1987064 0.4653554 0.5698053 -0.43562502

bias f4 [48]
00000000: 291d a6bf 168e 82be cc30 ff3d 6075 883e
00000010: 900f e8be 57d6 fe3e 830a 9cbe e921 553e
00000020: 308d 93bd 13bf e33d 42db 3ec0 b5b4 843e
00000030: 83af 823d 2b13 8ec0 5bb8 913e c472 133b
00000040: dfd6 1fbd a9f4 f1bf 2f3b 86bd 7c4f 443e
00000050: 0c6e 2c3e c39f b7be f314 c4be d074 b1bc
00000060: 5845 d93d afcb 0bbe f0f8 ecbb a53d 08be
00000070: 2f72 103f a7f0 403e eb13 923e 9a3f 51be
00000080: 3b5d 24bf f14e 27be 35ec f0be edde b83d
00000090: f1f1 e33f 907e d63f 9eaa 23c0 434e 3a40
000000a0: 4696 c23e 1028 85bf bce8 d4bd 9953 17bf
000000b0: 3aa3 c23c c15b be3d 49a8 35bf 2a3f 983e
-1.2977649 -0.25499028 0.12460479 0.2665205 -0.45324373 0.49772903 -0.3047677 0.20813717
-0.07204664 0.11120429 -2.9821324 0.2591912 0.063811325 -4.43984 0.28460965 0.0022498826
-0.039023276 -1.8902789 -0.06554257 0.19170946 0.16838855 -0.35864076 -0.38297233 -0.021662146
0.106089294 -0.13651918 -0.007231824 -0.13304766 0.5642423 0.18841802 0.2853082 -0.20434418
-0.6420476 -0.16338708 -0.47055212 0.09026895 1.780821 1.6757374 -2.5572886 2.9110267
0.38005275 -1.0402851 -0.10395953 -0.59111935 0.023759473 0.092948444 -0.7095991 0.2973569

weight f4 [48, 48]
00000000: cd21 b83f 1612 433d 7741 afbe ebe9 1e3f
00000010: 874e cebe 1c31 7c3e 79a8 febb ffa3 55bf
00000020: 3eea e93e f3b3 1dbf 6e6e 1dbf d26e 603f
00000030: ec3f 783f 4043 1bbf f467 e43e ec10 603f
00000040: 45f4 5a3f 9eb7 8b3f 1392 573d 76dd 773f
00000050: 5db5 173f 5321 b1bf 35e1 c7be b7ef babf
00000060: 2d52 ab3f 4cdd bdbe 4480 18be 92cf 37bf
00000070: e8b1 45be f102 123e aebe 08be 1c87 8abe
00000080: 17c5 b2bc 1ea7 48be b636 0a3f fbc2 9f3e
00000090: 792b bdbe 0113 553f cbab f0be ece2 b4bd
000000a0: 7e5f 26be ef24 afbe e3cc 4bbe c477 83be
000000b0: 0173 403f d169 2cbf 7097 bf3e 2584 eb3f
000000c0: 90ab 063f 2c4e 1b3f fab0 e6be 9437 4c3e
000000d0: de1b 333f c14a b4be 3b6e d3bd 18ad 1cbc
000000e0: 2de3 1e3d 71fd 053e 92f4 41be a537 da3e
000000f0: d0ea 18bf 9df1 4fbe f3ca e4bd baf2 69bd
00000100: 3888 a7bc 335e 6f3f e9a7 84be 0150 69be
00000110: 3d79 d63e 77ba 01bf e0ca 0ebf eda9 753f
00000120: 5cab 0a3f e797 3d3c 420d 07c0 24c1 86be
00000130: 602d 1fbd 3a2d 563f 8b28 d23e a7f4 4240
00000140: 4389 0240 b668 a2be 9265 cdbe 168f 193f
00000150: ebf8 773d 5d0e c63e 2636 6abf 54bf 483e
00000160: 7138 03be c28e 533f 86c1 1ebe 99c7 f93e
00000170: 8133 ddbe 084a 7dbe a9b4 53be 7eb7 9b3d
00000180: 89e2 c2bd f90b 343f d6b1 dfbe 89c4 343f
00000190: 31a5 fc3e aaf1 16bf b22a 77ba 9328 2c3f
000001a0: 1a9a b3be 3092 8b3e 2e23 be3e d9ae 4e3e
000001b0: a32f 62be 2403 173c 8605 acbe 2b77 003e
000001c0: fcbd bfbe 9b30 b9bf dfdf 243f 723c 26bf
000001d0: 4eb9 d6be 4986 043f d546 e23d 9bbd 23bf
000001e0: 6b24 b0be e7ff 093e 5365 61bf 8200 debe
000001f0: 90f5 bd3f 6c06 30bf fbd3 123f 7e65 5d3f
00000200: 950b cdbe 85ac 00bf b75d 87be 3021 2d3f
00000210: 1938 fabd d891 b4be de20 143e 24dd e8bd
00000220: 7876 ccbc de61 50bf 8054 cebd 299d 9ebe
00000230: 33ce 82bf c75b 313e d24a 1c3e 22ae 3cbf
00000240: fa56 973c f048 e43e ea7d 213f 2d86 633e
00000250: 906c 703f 5984 29bf cad1 683e 3a3f c0be
00000260: 457c f13e 8ede 8b3e 5d68 193e 224b 61bc
00000270: 261c 3c3f d7cc a73e 5f20 22bf a8d2 1b3f
00000280: da5e fbbe 806a 1b40 71a3 d63e d28c 23bf
00000290: 0855 0ebe 2d39 a2bf 4d97 a93f 17cb 573f
000002a0: 19c1 7fbe 8716 9b3e ccf3 a3bf 6270 51bf
000002b0: 930e bdbe f0e8 843f d9a0 f93e 4895 71be
000002c0: d0cf 763d c141 d4be cfa5 e6be 9f90 fcbc
000002d0: 1742 3b3e d757 12c0 8ab2 cc3e e368 0440
000002e0: 0afa d43d 354b 2b3f afff d33e 1bfb 163f
000002f0: d450 c33f 812f 1d3e 615f c1be ef02 cdbe
00000300: d41d b93f 15d3 123f 7cfb 0d40 518e 1a3f
00000310: b6a7 62be 614d c13f edd0 bcbd b76e 643f
00000320: d801 193f 0b7a c7be 7dcf 9cbe 5da5 163f
00000330: 12ff 1f40 24ff 093e 51a0 a3bc 1d7e 533f
00000340: a268 2040 1ad6 583f 9de1 323f a22e 1440
00000350: 1d17 983f 5656 ecbf 5eff 493f 2faf 0540
00000360: 4354 983e 88ff 8fbe 4330 1c40 91fc c03f
00000370: 746d 733f d0a5 bf3f 1197 61bf 9cfc dcbe
00000380: 7a55 5b40 9cb0 bd3f f6bd b63f 87a4 be3f
00000390: 2742 fd3d e10e ed3f 4e34 ac3f 2574 0bbd
000003a0: c12c fc3b b1b9 073e 991a 7abe 2436 c63d
000003b0: a583 6c3e ad1c 9bbe e4a3 a93f 6178 3e40
000003c0: 7e17 69bf ab9e 6dbe 7145 c7bf 0863 afbe
000003d0: 6556 8a3f 1ef9 a7be dec8 14be 92c7 443f
000003e0: db1d 1bbf 2516 093e add2 143f 2724 dbbd
000003f0: ef11 49bf 1dba 053e 343b 423e 38f0 3ebe
1.4385315 0.04762467 -0.34229633 0.6207568 -0.40294287 0.24628109 -0.0077715483 -0.83453363
0.45686525 -0.61602706 -0.6149663 0.876691 0.9697254 -0.6064949 0.4461056 0.8752582
0.85528976 1.091541 0.05262954 0.968223 0.59261113 -1.3838295 -0.39039007 -1.4604405
1.3384453 -0.370829 -0.1489268 -0.718011 -0.19306147 0.14258935 -0.13353989 -0.27056205
-0.021822495 -0.19595 0.5398973 0.31203446 -0.3694723 0.8323212 -0.47006068 -0.088323444
-0.16247365 -0.34207866 -0.19902377 -0.2567731 0.7517548 -0.67348963 0.37420225 1.8399702
0.52605534 0.60666156 -0.45056897 0.19943076 0.69964397 -0.35213283 -0.10323759 -0.009562753
0.03879087 0.13084961 -0.18940952 0.42620578 -0.59733295 -0.20307012 -0.11171522 -0.057116248
-0.020450696 0.9350311 -0.25909355 -0.22784425 0.41889372 -0.5067515 -0.5577831 0.9596241
0.54167724 0.011571861 -2.1101842 -0.2631923 -0.038861632 0.8366276 0.41046557 3.0461824
2.0396278 -0.31720513 -0.40116554 0.59983957 0.06054012 0.38682833 -0.91488874 0.19604236
-0.128145 0.82639706 -0.15503511 0.48785093 -0.43203357 -0.24735272 -0.20674385 0.07603358
-0.095158644 0.7033077 -0.43690366 0.7061239 0.4934478 -0.589625 -0.00094286643 0.6724941
-0.35078508 0.2725997 0.37136215 0.20183887 -0.22088484 0.009217057 -0.33597964 0.12545459
-0.37449634 -1.4467958 0.644041 -0.6493598 -0.4193825 0.517674 0.110486664 -0.6396119
-0.34402785 0.13476525 -0.88045233 -0.43359762 1.4840565 -0.687598 0.57354707 0.8648299
-0.400479 -0.50263244 -0.26438686 0.67628765 -0.12217731 -0.3526752 0.14465663 -0.11370304
-0.024958834 -0.81399333 -0.10074711 -0.3097928 -1.0219177 0.17320167 0.15262917 -0.73703206
0.01847409 0.44586897 0.63082755 0.22219153 0.93915653 -0.6621757 0.22736278 -0.37548238
0.47165123 0.27318233 0.14981218 -0.013750823 0.7348045 0.32773468 -0.63330644 0.6086831
-0.49095803 2.4283752 0.4192157 -0.6388675 -0.13899624 -1.2673699 1.3249298 0.84294266
-0.24976005 0.30290624 -1.2808776 -0.8181211 -0.36925182 1.0383587 0.4875553 -0.23592103
0.06025678 -0.41456416 -0.45048377 -0.03083068 0.1828693 -2.2866113 0.39979964 2.0689018
0.10399254 0.6691163 0.4140601 0.58976907 1.5259042 0.15350153 -0.3776808 -0.400413
1.4462228 0.57353336 2.2184744 0.6037341 -0.22134289 1.5101739 -0.09219537 0.8923144
0.5976844 -0.389603 -0.3062705 0.58846074 2.4999433 0.13476235 -0.019973906 0.8261431
2.5063863 0.84701693 0.6987551 2.3153462 1.1882054 -1.8463848 0.78905284 2.0888174
0.29751787 -0.28124642 2.4404457 1.5077077 0.9508889 1.4972477 -0.88121134 -0.43161476
3.427092 1.4819522 1.4276721 1.489396 0.12366133 1.8520166 1.3453462 -0.03404631
0.007695765 0.1325443 -0.24424209 0.09678295 0.23097093 -0.30295315 1.325314 2.9760973
-0.9105147 -0.23205058 -1.5568067 -0.34255242 1.0807616 -0.3280725 -0.1452975 0.7686702
-0.6059243 0.13387354 0.58133966 -0.10700255 -0.7854299 0.13059278 0.18967897 -0.18646324

weight f4 [18, 49]
00000000: 772b 89be 1c50 353f ff50 0ebe 1053 76be
00000010: a0a2 d13f 112c ee3e fc20 813c 4e57 03be
00000020: c090 a73e e922 573e 3adb 313e 9c23 073f
00000030: 192c f73d 718e 6cc0 e315 933e 094b 8c3e
00000040: fb6e da3e b12d 0e3f e5e5 893e 9ba7 353f
00000050: fc31 da3e 1cfd 6fbd c89c c13d 245e 08be
00000060: b00b 0f3f 6705 683e edfd 38be de81 30bf
00000070: 04b8 5fbe 95c5 0ebf 21ca 533d 3650 f63c
00000080: b079 a3bf c285 323b 2d62 a4bd 43cc 0f3e
00000090: fc3f 40bf 522b a9bf a61b 6c3e a459 c03f
000000a0: 3128 e5be 98b3 83be 41e7 943d 300c 6fbf
000000b0: ea95 1ebd ec3b 36be 5e65 b33e 1025 10bf
000000c0: a12d 1fc0 cca3 47be 0c54 b0be 3fdc 983e
000000d0: 60f3 ef3e 52cc e4be c375 2a3e c7c3 aebe
000000e0: 0a6a 5f3e eb62 b23e ce3c 753e 8022 7b3e
000000f0: 43f6 c43e 2726 b4be 5c92 8040 e734 1b3e
00000100: 9157 ae3e d698 dd3e 02f9 d13e 3107 15be
00000110: 0a92 39be 1971 e8be 1b4c 9b3e aca5 153f
00000120: 94a8 4dbe f920 a23d 3b32 a53c a30e a6bc
00000130: 1d6e dd3e 0553 c83e 5b89 eb3e 0c40 593e
00000140: d4ca b43d e1cc 873f a7c1 283e c517 a0be
00000150: 5529 013e bf98 80be 5715 b63f 9d5b 153f
00000160: f814 00c0 bf38 0a3e b678 83be cd94 cc3d
00000170: 5a29 c43f c5ce f83d 3774 af3d b19d 3a3f
00000180: 41fc fe3e ebcd 5440 ea39 753d 2c5a 563e
00000190: d092 7bbe 8582 633e 0091 113f e45d 883e
000001a0: e31a 113c e77b 103e 2630 6c3d b593 8ebe
000001b0: f07b 3f3e e907 e83d 37e9 943e ba9e f73f
000001c0: d1a3 25bf f361 333f 0c6b e4bd 986a a73f
000001d0: 9ed0 01bf 8dc1 6e3d 969d 2b3f 975d ee3e
000001e0: 45df 1fbe 60d7 553e 1402 853e c981 5fbe
000001f0: d0fd 09bb e923 98be 37bc f2bd e46f 89be
00000200: 6747 8c3e 76cc e6be c549 36bf d5de 283e
00000210: 3151 2dbe d839 fc3d 6042 b93e 8abc abbf
00000220: 3a9f 59bf 5ddc 5d3f 2d54 213d 1f84 9c3e
00000230: 3d53 85bd 9de0 583e 3302 c4bd d28c 663c
00000240: e1bf 623e 03ca 19bf 05e7 8cbf 6adb 4ebe
00000250: 5c90 0a3e 1dad ce3d 359f 4a3f fa87 9ebd
00000260: aa8f b83e a437 01bf 6345 fd3e 4864 563e
00000270: 268b d93e 57a1 513e 7b58 e03d b4ac cbbe
00000280: 96a0 8740 bb1d 243e 352c 823e 072d 203f
00000290: d845 413f b706 d73d 7ec2 bcbe 18e9 0bbf
000002a0: f956 cd3d afe5 353f 8a40 18bf 0829 203f
000002b0: 54a5 493e 019b 20bd 3937 393e 6d95 e03e
000002c0: 46e8 cc3e 0200 333f fae8 783e 8344 2f3f
000002d0: 30a4 903e a528 a1be 4f24 49bd 91cc cebe
000002e0: fd34 803f dde5 683e ef7b d6bf 4f64 b53e
000002f0: e32c babe cebe 013f 8674 cc3f 851d 8c3e
00000300: 479e 973e e7e1 9a3f cfcf 283e 5445 4840
00000310: 0d5b c23e 6c51 733e c3f1 4cbd fc06 d43e
00000320: 2c8c 293f 1431 543f e44f 5bbe d40c 7f3e
00000330: 5e28 ff3c cdcc bf3e d11a c43f 307a cabe
00000340: c7f2 d23e a410 563e d886 523f 8028 2cbe
00000350: 516c 9a3e 2e40 743c 1a85 c23e 835a 773e
00000360: d5dc b5be e2bb 2d3f 72bf 9f3e 0bc6 343f
00000370: b728 1dbf 8008 803c 4063 5f3e 2a50 b33d
00000380: 06b9 c83e e849 523e a616 4a3e 3a9b dcbd
00000390: b525 653f 2e96 0e3e 75e5 5d3e 287d e73e
000003a0: 85df 2c3e 7c7f 603f 8c4c e73e bdc5 4ebf
000003b0: 5d59 3c3e b1b2 c73f 0ec2 1b3d bb5d d5bc
000003c0: b6f6 593f b02d 103f 29f5 e73e 17ac 663e
000003d0: 65c4 9c40 aee5 6fbe 2f21 013c c92d 38be
000003e0: 9e1f d7be fee7 753f b27f 2d3f b524 25be
000003f0: 8ce7 533d 8ca9 d2bd 9e93 1e3e cb35 573c
-0.26790974 0.7082536 -0.13898085 -0.24055123 1.6377754 0.46517995 0.015762798 -0.12826273
0.32727623 0.21009411 0.17368785 0.5278871 0.12068958 -3.696194 0.28727636 0.27400997
0.42662796 0.5553847 0.26933208 0.7095887 0.4261626 -0.058590993 0.09453732 -0.13317162
0.5587721 0.22658311 -0.18065615 -0.6894816 -0.2184754 -0.55770236 0.051706437 0.030067544
-1.2771511 0.002724037 -0.08026538 0.14042763 -0.7509763 -1.3216345 0.23057422 1.5027356
-0.44757226 -0.25722957 0.07270671 -0.9337797 -0.038717188 -0.17796296 0.35038275 -0.5630655
-2.48716 -0.19496077 -0.34439123 0.29855534 0.46865368 -0.44687134 0.16646485 -0.3413374
0.21817794 0.34841093 0.23948976 0.2452488 0.38469133 -0.35185358 4.017866 0.151569
0.34051183 0.43280667 0.4101029 -0.14553525 -0.18122116 -0.45398787 0.303315 0.5845592
-0.20083839 0.07916445 0.020165553 -0.020270651 0.43248072 0.3912584 0.4600323 0.21215838
0.08827749 1.0609399 0.16480123 -0.31268135 0.12613423 -0.25116536 1.4225262 0.58342916
-2.0012798 0.1349821 -0.25678033 0.09989319 1.532512 0.12148813 0.08567088 0.7289687
0.4980183 3.3250682 0.059869684 0.20932835 -0.24567723 0.22217758 0.5686188 0.26634133
0.008856508 0.14109765 0.057663105 -0.27847067 0.18699622 0.11329634 0.2908418 1.9345315
-0.6470309 0.70071334 -0.1115323 1.3079405 -0.5070895 0.058290053 0.6703733 0.46555778
-0.15612514 0.2088294 0.25978148 -0.21826853 -0.0021055825 -0.29714897 -0.118523054 -0.26843178
0.27398226 -0.45077866 -0.71206313 0.16491254 -0.16925503 0.1231572 0.36183453 -1.3416913
-0.85008585 0.8666437 0.039386917 0.3056955 -0.06510017 0.21179433 -0.09570732 0.01407166
0.22143508 -0.6007387 -1.1008002 -0.20200887 0.13531631 0.100916125 0.7914918 -0.07740779
0.36047107 -0.50475526 0.49467 0.20936692 0.42488974 0.20471703 0.10954376 -0.397802
4.238353 0.16026966 0.25424352 0.62568706 0.754972 0.10499328 -0.36867136 -0.5465255
0.10026354 0.71053594 -0.5947348 0.6256261 0.19691974 -0.039210323 0.18087472 0.43864003
0.4002096 0.69921887 0.24307624 0.68463916 0.28250265 -0.31476322 -0.049106892 -0.40390447
1.0016171 0.22743936 -1.6756572 0.35428092 -0.3636237 0.5068177 1.597306 0.27366272
0.29612944 1.210019 0.16485523 3.1292315 0.3796009 0.23761529 -0.05003525 0.4141158
0.6622951 0.8288739 -0.21417195 0.24907237 0.031147178 0.37460938 1.5320684 -0.39546347
0.4120085 0.20904785 0.82237005 -0.16812325 0.30160764 0.01490788 0.37992173 0.24155621
-0.35520044 0.6786481 0.3120075 0.7061469 -0.6139025 0.015629053 0.21815205 0.087555245
0.39203662 0.20536005 0.19735202 -0.107717946 0.8951066 0.13924477 0.21669562 0.45212674
0.16882141 0.87694526 0.45175588 -0.80770475 0.18393464 1.5601407 0.03802686 -0.02604567
0.85142076 0.56319714 0.4530423 0.22526585 4.898974 -0.2342746 0.007881447 -0.17986216
-0.4201631 0.96057117 0.6777297 -0.16127284 0.051734492 -0.10286245 0.15485999 0.013135384

bias f4 [18]
00000000: 544a 263e 1eaa e13f d1c3 fcbf 9f4f a63f
00000010: 5841 df3f c94a 5ec0 7a5e b3c0 cade c93f
00000020: 378d 20c0 2e58 8340 cfa9 3ac0 4037 bcbf
00000030: 09e4 84c0 b34e 5040 0c27 1140 27c2 af3f
00000040: 6552 aa3f 6209 803f
0.16239291 1.7630041 -1.9747258 1.2993048 1.7441816 -3.4733145 -5.605283 1.5771115
-2.508619 4.104514 -2.9166143 -1.4704361 -4.1528363 3.2548034 2.2680082 1.3731126
1.3306395 1.0002863

weight f4 [18, 85]
00000000: 1486 2abe 1292 61be 1e4c 9cbe 69ba 81bd
00000010: 8ff2 913f bae0 a3bb 48f4 16be b12f 0a3f
00000020: 0922 323e 9d14 613e 8d72 14bf 68f4 71be
00000030: d740 1f3f 2cff 683d e40a 3dbd 89b2 01be
00000040: dbb8 a33e 0c67 c0bf fe8e f43e 42e4 f03e
00000050: 49f6 d23e d51a 88bc e627 943e 6c64 233f
00000060: b0fb 6dbe 7622 9c3d f802 073e 53ac 08bd
00000070: 44b8 13be 924c bebc d1df ab3e eafa 613e
00000080: e72e 863e 8da8 ae3e 88a7 38be 2eb7 8e3d
00000090: 35c5 42bf 03f6 43bf 87c5 7bbe 67e9 c1bf
000000a0: 0fa8 55bd 6437 a23e d6c8 583f b3ca 0a3f
000000b0: 51a1 563e 263a aabe 0d92 38bf 496d f6bd
000000c0: f0e4 a3bb 32c7 dcbe 6dd9 c73d c193 3040
000000d0: 20c6 3f3f 9424 d5bf a1ab 543f b279 3d40
000000e0: 529a 23c0 524d 8340 3783 cdbf 8d60 3e40
000000f0: e8c3 bd3f ced2 9d3f ba97 29c0 b8e3 c8bf
00000100: 6202 98bf 1605 98bf c6e0 b6bf ce93 86bf
00000110: 92f3 953f 5bcb b7c0 e8f4 31bd 9af9 3940
00000120: 2450 25c0 ee55 84c0 73cf b340 6535 0fc1
00000130: 45c6 db3f 1cb4 16c0 4585 59c0 8e8a a6bf
00000140: b55f 6340 c679 5a40 f3cc 4540 5114 88be
00000150: fce5 1840 e861 aa3e a843 403e fac6 573e
00000160: b986 a9bd eda2 193f 4755 803e 31e4 94bd
00000170: 025b a03e 23b7 50bd e05b 343d 3030 adbe
00000180: 1da3 b7bd 941b 453f 9739 f53f 27bd 21be
00000190: 9ae8 cbbe afa6 7bbe ea7c 9a3f 1738 87be
000001a0: fc20 dd3e a52a 7d3e 4ed8 29be 3416 9e3e
000001b0: c9d0 9e3e afdf 163e ea79 0abe 9c0c d53e
000001c0: 4204 aebe 697c 813e 0623 393e d406 26bd
000001d0: bef0 c6be c3c1 1b3f 89b9 f53d 1ce1 e73e
000001e0: 1a43 a4be a47f 6ebf defd 61be 4ab2 a13e
000001f0: 464b b93e ab4b 3c3e c154 28bf 9da7 943b
00000200: 078a 913f d646 adbd 2a29 f3be e3fa cbbe
00000210: 9740 2f3f 9dd9 adbd f3f8 cc3e 97ed 98bf
00000220: d8e3 43c0 e7db cdbf 5df5 e0bf 8294 393f
00000230: 67bf 073e afdd 8b40 ec3a 86c0 fa14 433e
00000240: 2828 adbf 8215 b43f 80ba 6b40 c88b f43f
00000250: 2a5f 0640 62fc eebf 829f 333f d7cb 543f
00000260: d4e9 d23f f42c 21be 5a41 0f40 029f 433e
00000270: 64fe 5dc0 1fd7 0540 84df f63f 5af8 33bf
00000280: 0b1f 3b3d 676a 74be 8b6f 2dbe 7b2b 4c40
00000290: feb4 a73f 9f56 1ac0 4f69 d7bf ed4a 32c0
000002a0: 975a 5d3f 16a3 5cc0 37d8 02bf 27f4 47be
000002b0: b249 c6be 87d1 6b3f 7bae 383f 3d69 26bd
000002c0: 3c60 08bf c6f8 363f 6f2b 983e d765 8d3c
000002d0: 6f4a 123f 29a3 90bd d0e3 f23e 96cc 063f
000002e0: 9028 203f 7471 e03d 4a52 81be cd25 a83e
000002f0: d014 c4be fed2 99be 3e60 b63e 725d ed3e
00000300: 137c 0fbf d747 253f beb3 adbc a7bb 52be
00000310: e16b 653e cbe5 993e 40c6 8e3c 793a d83e
00000320: 81da 693c fa66 953e bf0d 8bc0 f28a eb3e
00000330: a9c1 8c3d 5cc7 ac3e ad9b 743e cd3a febe
00000340: e6a8 09be 2a6d 983f bc92 b0be 547b fbbe
00000350: c2b4 4d3f 5fe1 04c0 a105 89bd 35cb 8c3c
00000360: 4988 993e 2f70 1c3f 4bc5 87be b458 2ebf
00000370: eba9 c73e 2af5 75bf 9e07 633f d07a 57bf
00000380: a8cb 39bf 58ac 98bf 2b3b 873f db6e 31c0
00000390: 138f d23f e4d4 373e 18f8 b43e 2562 ca3c
000003a0: a840 dd3e d369 c03f b558 9abf 7ad3 bcbe
000003b0: 3eeb 53bf 7d55 a23f 9be2 69bf 764d c43f
000003c0: e03b 6a3e 299c 4ac0 8587 e23f b688 d93f
000003d0: 8da1 2bbf 26e8 e1be 132c 4e3f d823 b33d
000003e0: d117 6240 7bc6 5d3f 06fa e7bf 86e7 47be
000003f0: 5670 6ac0 e5dd 813f 1049 09c0 bf61 a63e
-0.16652709 -0.22028378 -0.30526823 -0.06334383 1.1402148 -0.0050011547 -0.14741623 0.5397902
0.17395796 0.2198052 -0.5798729 -0.2362839 0.6220831 0.056883976 -0.046152964 -0.12665762
0.3197697 -1.5031447 0.47765344 0.47049147 0.41203526 -0.016614357 0.2893669 0.63825107
-0.23240542 0.076237604 0.13184726 -0.033367466 -0.1442576 -0.023229871 0.33569196 0.22068372
0.2620766 0.3411297 -0.18032658 0.069685325 -0.76082164 -0.7654726 -0.2458707 -1.5149354
-0.052162226 0.31682885 0.8468145 0.54215544 0.20959975 -0.3324749 -0.72097856 -0.12032563
-0.0050016567 -0.43120724 0.097582676 2.7590182 0.7491169 -1.6651788 0.83074385 2.9605527
-2.556294 4.1031885 -1.6055669 2.974643 1.4825411 1.2329957 -2.6498857 -1.5694494
-1.1875727 -1.1876552 -1.4287345 -1.0513856 1.1714957 -5.7435737 -0.04344645 2.9058595
-2.5830164 -4.1354895 5.6190734 -8.950536 1.7169882 -2.354743 -3.3987591 -1.3011034
3.5527165 3.4136825 3.090634 -0.26578 2.3890371 0.33277822 0.18775809 0.21071997
-0.082776494 0.6001423 0.2506506 -0.072700866 0.31319433 -0.050955903 0.04403293 -0.33825827
-0.08966658 0.76995206 1.91582 -0.15794812 -0.39825898 -0.24575303 1.2069371 -0.2640998
0.43189228 0.24723299 -0.1658642 0.30876315 0.31018665 0.14733766 -0.13523069 0.41611183
-0.33987623 0.2529023 0.18079767 -0.040533856 -0.38855547 0.6084253 0.11998279 0.45288932
-0.32082444 -0.93163514 -0.22069499 0.31581336 0.36190242 0.1838824 -0.65754324 0.0045365826
1.1370248 -0.084607765 -0.47492343 -0.3983985 0.6845793 -0.08488772 0.40033683 -1.1947507
-3.0607815 -1.6082734 -1.7574879 0.7249223 0.13256608 4.370811 -4.1946926 0.1905097
-1.352788 1.4069064 3.683258 1.9105158 2.0995584 -1.8670771 0.70165265 0.83123535
1.6477609 -0.15739805 2.2383637 0.19103625 -3.4686518 2.091255 1.9286962 -0.7030083
0.0456839 -0.23868714 -0.16937082 3.1901538 1.310211 -2.411537 -1.6829013 -2.785823
0.86466354 -3.447454 -0.5111117 -0.1952673 -0.387281 0.9211659 0.72141236 -0.040627707
-0.5327184 0.7147335 0.29720637 0.017260475 0.57144827 -0.0706237 0.47439432 0.52655923
0.62561893 0.109591395 -0.25258094 0.3284134 -0.3829713 -0.30043787 0.35620302 0.46360356
-0.560487 0.64562744 -0.021203872 -0.20579396 0.22404434 0.3005813 0.017428517 0.4223211
0.014273287 0.29180127 -4.345428 0.46004444 0.06872875 0.3374585 0.2388751 -0.49654236
-0.13443336 1.1908314 -0.3448695 -0.4911753 0.8035394 -2.0762556 -0.06690527 0.01718674
0.2998679 0.6110868 -0.2651771 -0.681041 0.38996825 -0.96077216 0.886835 -0.8417177
-0.7257638 -1.1927595 1.0564932 -2.772391 1.6449913 0.17952305 0.3534553 0.024705002
0.4321339 1.5032295 -1.2058321 -0.36880094 -0.82780826 1.2682339 -0.913614 1.5336139
0.22874403 -3.1657813 1.7697607 1.6994846 -0.6704338 -0.44122428 0.80536 0.08747071
3.5327036 0.8663098 -1.8123176 -0.19521913 -3.6631064 1.0145842 -2.1450844 0.3249645

bias f4 [18]
00000000: 2405 8c3f 0a4b 21bf f092 f2bf bcb9 1ac0
00000010: a412 e6bf 947b be3f 5062 4ec0 786e 513f
00000020: 9091 e73f 1729 9cbe 218b a2bf 7b30 0fc0
00000030: af9f ac3e 922b 2dbd 8035 1640 4af7 dc3f
00000040: c1c6 ecbf db80 a73f
1.0939069 -0.63005126 -1.8951092 -2.4175863 -1.7974439 1.4881463 -3.2247505 0.81809187
1.8091297 -0.305001 -1.2698709 -2.237334 0.3371558 -0.04227788 2.3470154 1.7262967
-1.8498155 1.3086199
