2WL_link_pred/checkpoint/archive/20221214_110904/2WL_state_dict_50_20_4.pt (torch, 56754 bytes, 16 tensors)

lin1.1.modlist.0.weight f4 [48, 3]
0	0xbf99fc35	-1.2030092
1	0x3d1df983	0.03856803
2	0xbca3232d	-0.019914234
3	0xbe379d76	-0.1793116
4	0x3e9e272c	0.3088926
5	0x3e334243	0.17505746
6	0xbf50077e	-0.8126143
7	0x3e56155a	0.20906582
8	0x3d5bfd0f	0.053708132
9	0x3e44279d	0.19155736
10	0x3c8659da	0.016400266
11	0x3d90579e	0.07047962
12	0xbf80093d	-1.0002819
13	0x3d9a5974	0.07536593
14	0x3e20035d	0.15626283
15	0x3e67f701	0.22652818
16	0xbe19ed7a	-0.15031996
17	0xbe703080	-0.23456001
18	0x3e73d1f8	0.23810565
19	0xbe89dabb	-0.2692469
20	0xbea42b16	-0.32064122
21	0xc0819133	-4.0489745
22	0xc00c4fa3	-2.1923606
23	0xc043a90f	-3.0571935
24	0x3ec2bd94	0.38035262
25	0xbecb1e95	-0.3967177
26	0xbedbc03c	-0.429201
27	0x3e673949	0.22580446
28	0xbe6cc268	-0.23121035
29	0xbe568320	-0.20948458
30	0x406188fe	3.5239863
31	0x3ffd2809	1.9777843
32	0x4037877b	2.867644
33	0x4033b2d2	2.8077893
34	0xbd12a997	-0.035806265
35	0x3e102a52	0.14078644
36	0x3e9b6d33	0.3035675
37	0xbe822d54	-0.25425208
38	0xbe802899	-0.25030974
39	0x3ed26ef1	0.41100267
40	0xc00fd718	-2.2475033
41	0xc0623b3a	-3.534865
42	0x3eaa5b7f	0.3327293
43	0xbe4d8ece	-0.20074007
44	0xbee37efc	-0.4443282
45	0xbdea7799	-0.11448593
46	0x3ec8c1f6	0.3921048
47	0x3f037861	0.5135556
48	0xbfab54a3	-1.3385204
49	0xbcd02aa3	-0.025410956
50	0x3db76045	0.08953909
51	0xbf208bd0	-0.62713337
52	0x3ec62a49	0.38704136
53	0x3f397738	0.7244754
54	0xbf18e152	-0.5971881
55	0x3e71e275	0.23621543
56	0x3e6a87f9	0.22903432
57	0xbe31d9d6	-0.17368254
58	0x3db96b1a	0.09053631
59	0xbd6d2085	-0.05789234
60	0xbfd82231	-1.6885434
61	0x3e0a4097	0.13501202
62	0x3b2c420b	0.0026284482
63	0x407a4a10	3.9107704
64	0xbc38699d	-0.011255649
65	0xbe60b612	-0.21944454
66	0xbfee0393	-1.8594841
67	0xbef957ce	-0.48699802
68	0xbe8afc7d	-0.27145758
69	0x3ee3e8e6	0.44513625
70	0xbeaccb9e	-0.33749098
71	0xbcd9532b	-0.026528915
72	0x3fdc3067	1.7202271
73	0x3e8eb804	0.27874768
74	0x3dad0aed	0.084493496
75	0xbed92e56	-0.42418164
76	0x3ee1903d	0.44055358
77	0x3f39bab5	0.7255052
78	0xc0143f75	-2.316373
79	0xbcb402da	-0.021974016
80	0x3e25d016	0.1619266
81	0x4003c626	2.058969
82	0xbcb98cd9	-0.02265017
83	0x3d50983a	0.050926425
84	0xbe1e2a2a	-0.15445772
85	0x3e135d0d	0.14390965
86	0x3e878d3d	0.26474944
87	0x3dffde0a	0.124935225
88	0x3dfc5c44	0.12322286
89	0x3cc5a518	0.024126574
90	0xbe1167a2	-0.14199689
91	0x3d9eb451	0.077492364
92	0x3d521c93	0.05129678
93	0x3e93f783	0.28899774
94	0xbe48ea4a	-0.19620624
95	0xbead310d	-0.33826485
96	0xbe25a396	-0.16175684
97	0x3e065ffd	0.13122554
98	0x3efe3c9c	0.49655616
99	0x3eaf16d1	0.34197095
100	0xbf099c2c	-0.53753924
101	0xbf29f67c	-0.6639173
102	0xbfaf53b2	-1.3697417
103	0x3e335a45	0.17514904
104	0x3ea1858c	0.315472
105	0x3ff0177c	1.8757167
106	0x3e5b5912	0.21420696
107	0xbc0231ac	-0.007946413
108	0x3fc78331	1.5586911
109	0xbe195d6c	-0.14977044
110	0xbe237708	-0.15963376
111	0xbe4524d6	-0.19252333
112	0x3def090f	0.1167165
113	0x3e85bfc8	0.2612288
114	0x3ed6a106	0.41919726
115	0xbee4c9cc	-0.4468521
116	0xbf28a140	-0.6587105
117	0xbe9ef2a7	-0.31044504
118	0x3f35a954	0.709615
119	0x3f989c40	1.1922684
120	0xbcecc6bc	-0.028903358
121	0x4042ed7d	3.0457451
122	0x4090f82f	4.530296
123	0xbd1ebfc4	-0.0387571
124	0x3c95b6c3	0.018275624
125	0xbd4634fe	-0.04839038
126	0xbfdbd7e7	-1.7175263
127	0x3deb28a6	0.114823624
128	0x3e925b04	0.28585064
129	0x3e3a2013	0.18176298
130	0xbebed7e0	-0.37274075
131	0xbf0093a9	-0.5022531
132	0xbe33dde4	-0.17565113
133	0x3e6c6615	0.23085816
134	0x3ee7834e	0.45217365
135	0x3ed0b675	0.40764204
136	0xbee5ff59	-0.44921377
137	0xbf3ead81	-0.74483496
138	0xbe4aef13	-0.19817762
139	0x3e8fc951	0.2808328
140	0x3f09eb0b	0.5387427
141	0x3e3ab686	0.1823369
142	0xbd043400	-0.032276154
143	0xbe09a244	-0.13440806

lin1.1.modlist.0.bias f4 [48]
0	0x3d4fe442	0.050754793
1	0x3f279c16	0.65472543
2	0xbdb367ce	-0.087600335
3	0xc02dde0f	-2.7166784
4	0x3e66170b	0.22469728
5	0xbeb9312c	-0.36170328
6	0xbe9e4857	-0.30914566
7	0x3c2b8118	0.01046779
8	0x3c9b6584	0.018969305
9	0xbe714f36	-0.23565373
10	0xbd986cda	-0.07442637
11	0xbcb6dceb	-0.022322139
12	0xbed42034	-0.4143082
13	0x3e34261e	0.17592666
14	0xbea829f6	-0.32844514
15	0x3ed1adab	0.4095281
16	0x3df66878	0.120316446
17	0xbd9fef2f	-0.078092925
18	0x3e9032ba	0.281637
19	0x3ed7e775	0.42168775
20	0xbd4bafda	-0.049728252
21	0x402df38c	2.71799
22	0x3e8f42a5	0.27980533
23	0xbe792ba1	-0.2433305
24	0x3cbc0dfa	0.022955883
25	0x3db86853	0.09004273
26	0xc0074f51	-2.114216
27	0xbd80f3ae	-0.06296478
28	0x3ed76490	0.4206891
29	0xc02fe16a	-2.7481332
30	0x3f29b69c	0.66294265
31	0xbe9baa4c	-0.30403364
32	0x3eb14746	0.3462469
33	0x3ebb0a64	0.36531365
34	0xbd70e4b3	-0.058811855
35	0xbd9addac	-0.07561812
36	0xbddbb1a5	-0.107272424
37	0x3ef2c29e	0.47414106
38	0x3e5510dd	0.20807214
39	0x3d57d428	0.052692562
40	0x3c846b50	0.016164452
41	0x4068e870	3.6391869
42	0x3df0e4ac	0.11762366
43	0xbe72856e	-0.23683712
44	0x3f0cf624	0.5506308
45	0xbd547a2b	-0.05187432
46	0x3e3b21b3	0.18274574
47	0xbe5ec809	-0.21755995

embedding.0.weight f4 [5, 48]
0	0x3e092ddd	0.13396402
1	0xbee94e81	-0.45567706
2	0x3e0aa236	0.13538441
3	0xbcda47e4	-0.026645608
4	0xbdf6cebd	-0.12051151
5	0x3f72dc39	0.94867283
6	0x3ebf8d28	0.3741238
7	0x3f096a45	0.5367778
8	0x3ef218ac	0.47284448
9	0x3de8fd26	0.11376409
10	0x3f546cb6	0.8297838
11	0x3f6f7ee4	0.93552995
12	0x3fdb0a95	1.7112604
13	0x3f28cece	0.6594056
14	0x3f22989e	0.63514125
15	0x3f75f096	0.9607023
16	0xbf7c9942	-0.9867135
17	0xbf038bb7	-0.5138506
18	0x3eb10fe4	0.34582436
19	0xbe84ca6f	-0.25935695
20	0x3f56df99	0.8393493
21	0xbf246cf1	-0.6422873
22	0x3df0aba3	0.11751487
23	0xbe0d36b3	-0.13790397
24	0x3ef418d0	0.4767518
25	0x3b9c8e0b	0.004777675
26	0xbf3f3de0	-0.7470379
27	0x3e6c373d	0.23067947
28	0xbfc0c90b	-1.5061353
29	0xbdacd1ac	-0.08438429
30	0xbfa0eeb8	-1.2572851
31	0x3fcae255	1.5850321
32	0xbf39b5e0	-0.72543144
33	0xbed41846	-0.4142477
34	0xbf0e7850	-0.5565233
35	0x3fc49196	1.5356929
36	0x3e3c4bdc	0.18388313
37	0x3fc07f75	1.5038897
38	0x3f54c697	0.83115524
39	0xbf185f2c	-0.5952022
40	0xbcbb45fa	-0.022860516
41	0x3f542d55	0.8288167
42	0xbf9c7ff0	-1.2226543
43	0x3cf31e0b	0.029677412
44	0x3dbdc10a	0.09265335
45	0xbf619f17	-0.88133377
46	0xbe9f2aae	-0.3108725
47	0x40013724	2.0189905
48	0xc00e8626	-2.2269378
49	0x3f1663a9	0.5874582
50	0xbdd6f884	-0.10496619
51	0x3f2fe429	0.6870752
52	0xbf336be1	-0.70086485
53	0xbf48056b	-0.7813327
54	0xbf99ccdf	-1.2015647
55	0x3ede041c	0.4336251
56	0xbe86d61f	-0.26335236
57	0x3f79c56f	0.97566885
58	0x3fd65624	1.6745038
59	0x3ee558aa	0.44794208
60	0xc0144e09	-2.317263
61	0x3ed2c8e9	0.41168907
62	0xbdb4e1b9	-0.08832116
63	0x3fa8d951	1.319132
64	0x3fe634f2	1.7984908
65	0xbf6088c1	-0.8770867
66	0x3eabf3bc	0.33584392
67	0xbf9999e5	-1.200009
68	0x3efa25fb	0.48857102
69	0xbcecac3a	-0.028890718
70	0xbe5565bf	-0.20839594
71	0x3ea04664	0.31303704
72	0xbf8450e7	-1.033719
73	0x3fbddc87	1.4832925
74	0xbf7baf11	-0.98314005
75	0x3f90aa87	1.1302041
76	0xbf907695	-1.1286188
77	0xbfc8b309	-1.5679637
78	0x3f3a69bb	0.7281758
79	0xbef65ff7	-0.4812009
80	0xbfd8ea08	-1.6946421
81	0x3f646a22	0.89224446
82	0x400fb31b	2.2453067
83	0x3efb4473	0.4907566
84	0xbf8f1715	-1.1178919
85	0x3f31dd46	0.6947826
86	0xbf9b2e1d	-1.2123448
87	0xc017b40f	-2.370365
88	0x3f4734ca	0.77814925
89	0xbeb8d49c	-0.36099708
90	0xc0131b5e	-2.2985454
91	0xbf868b01	-1.0511171
92	0xbe25115a	-0.161199
93	0x3e31dcab	0.17369334
94	0x3f65e0e0	0.89796257
95	0x3d2be0b9	0.04196236
96	0xbe1fb5d6	-0.15596709
97	0x3c9b183d	0.018932456
98	0x3eb61a2e	0.3556685
99	0x3effecfb	0.4998549
100	0x3f542881	0.82874304
101	0xbed99d98	-0.42503047
102	0x3f6211c5	0.88308364
103	0xbd9daabf	-0.07698583
104	0xbf2d7bed	-0.6776722
105	0x3e01d900	0.12680435
106	0x3fd57dba	1.6678994
107	0x3f8199f9	1.0125114
108	0xbf2d305d	-0.6765192
109	0xbfd56320	-1.6670876
110	0xbf85a676	-1.0441425
111	0xbf5ce73d	-0.8629034
112	0x3da72ee2	0.08163239
113	0xbe28ef15	-0.16497453
114	0xbf9081bd	-1.1289593
115	0xbf63ce4d	-0.88986665
116	0x3f939f55	1.1532999
117	0x3fc32bc3	1.524773
118	0x3f92bf3a	1.1464608
119	0xbfd05f1f	-1.6279029
120	0x3fa3f5fd	1.2809445
121	0xbf1d6f7f	-0.61498255
122	0xbb05f272	-0.0020438698
123	0xbeadf968	-0.33979344
124	0x3f0666cd	0.5250061
125	0x3f439107	0.7639317
126	0x3fb4221d	1.407291
127	0x3e8790f1	0.2647777
128	0x3f49264d	0.7857407
129	0x3f8234ad	1.0172325
130	0xbf96632d	-1.1749016
131	0x3efc7831	0.4931045
132	0x3f1733ab	0.59063214
133	0x3f79976c	0.97496676
134	0x3fa0737d	1.2535244
135	0x3f6ae03e	0.91748416
136	0xbc9a9b95	-0.018873015
137	0xc02e4ebb	-2.7235553
138	0x3fe631aa	1.7983906
139	0x3ec490bc	0.38391674
140	0x3edf703c	0.43640316
141	0xbfa18c76	-1.262099
142	0xbd9178d4	-0.07103124
143	0x3eccaa78	0.39973807
144	0xbee0f877	-0.43939564
145	0xbead6073	-0.33862647
146	0x3f28ed7f	0.6598739
147	0x3ed2bc72	0.41159397
148	0x3f604100	0.8759918
149	0xbe670409	-0.22560133
150	0x3fa3e278	1.2803488
151	0xc014d62f	-2.3255727
152	0xbf23ad5a	-0.6393639
153	0x3f581584	0.8440783
154	0xbd82ceca	-0.06387098
155	0xbf0a0161	-0.53908354
156	0x3e4b3d20	0.19847536
157	0xbef3ef9a	-0.4764374
158	0xbe9157f1	-0.28387406
159	0x3f420843	0.75793856
160	0x3f3dcf75	0.7414468
161	0x3e6f85ec	0.23390931
162	0x3fda641b	1.70618
163	0xbfa00959	-1.2502853
164	0x3c87aeec	0.016562901
165	0x3f152f18	0.58274984
166	0x3fc15b79	1.510604
167	0xbe57e555	-0.21083577
168	0xbf5eeb98	-0.8707824
169	0x3eb488ef	0.35260722
170	0x3f9c4817	1.22095
171	0x3e358c71	0.17729355
172	0x40301133	2.7510498
173	0x3f6f2dd5	0.9342931
174	0x3fa3071a	1.2736542
175	0x40151ee9	2.3300116
176	0xc0062578	-2.096037
177	0xbffdb18c	-1.9819808
178	0x3fb3f2f4	1.4058518
179	0x3f33dea5	0.70261604
180	0x3ef66a6f	0.48128077
181	0x3e1f2d93	0.15544729
182	0xbf6b95fd	-0.9202574
183	0x3f2ac87c	0.66712165
184	0xbf6b9606	-0.9202579
185	0x4012e064	2.2949457
186	0x3f136cd5	0.5758794
187	0x3fe7388d	1.8064133
188	0x3f353355	0.7078145
189	0x3ec6675a	0.38750726
190	0x3e30964b	0.17244832
191	0x3eba8322	0.3642817
192	0x3fa4dc85	1.2879797
193	0xbfd3ac4f	-1.653696
194	0x3c2b467f	0.010453819
195	0xbe84a739	-0.2590883
196	0xbdce7f84	-0.100829154
197	0x3e8d82da	0.27638894
198	0xbb5ff7ca	-0.0034174793
199	0xbe1eefaa	-0.15521112
200	0x3fcfa98d	1.6223618
201	0xbf3f263c	-0.74667716
202	0xbded0c26	-0.11574583
203	0x3e4df6d8	0.20113695
204	0xbf347916	-0.7049726
205	0x3fcd5769	1.60423
206	0xbf63701d	-0.88842946
207	0x3f137552	0.5760089
208	0xbf599d1e	-0.85005367
209	0xbf8caee7	-1.0990876
210	0x3d35c91c	0.044381246
211	0x3fe04dbe	1.7523725
212	0xbfd90a26	-1.6956222
213	0xbfb3f33d	-1.4058605
214	0x3fc9765d	1.5739247
215	0xbeddc961	-0.43317702
216	0x3f2de252	0.6792346
217	0x401f5470	2.4895287
218	0xbf6c162c	-0.9222133
219	0x3f17fcf3	0.59370345
220	0xbee2f198	-0.44324946
221	0x3f8150b8	1.0102758
222	0x3c45ddca	0.012076804
223	0x3e2964e6	0.16542396
224	0x3f1acdc7	0.6047024
225	0xbf2f759c	-0.6853883
226	0x3f578308	0.8418431
227	0xbf8d8106	-1.1055
228	0x3fb7d9f8	1.4363394
229	0x3f853560	1.0406914
230	0x3d90da60	0.07072902
231	0x3d81b080	0.06332493
232	0x3ee988d5	0.45612207
233	0xbee76694	-0.45195448
234	0x3f5872b3	0.8455002
235	0xbf35deed	-0.7104328
236	0xbef75e5e	-0.48314184
237	0xbe704314	-0.23463088
238	0x3e68798f	0.22702621
239	0x3fce9cac	1.6141562

nconvs.0.modlist.0.lin_l.weight f4 [48, 48]
0	0x3ec0e392	0.37673622
1	0xbf2de450	-0.679265
2	0x3f549677	0.8304209
3	0xbd2b5047	-0.041824605
4	0x3f113259	0.5671745
5	0x3f717bb1	0.94329363
6	0xbeea0dd5	-0.45713678
7	0xbee6b733	-0.45061645
8	0xbf89c259	-1.0762435
9	0x3eb1a63f	0.34697148
10	0x3f3b6147	0.7319531
11	0xbf49c307	-0.78813213
12	0x3f44751b	0.7674119
13	0x4107ee31	8.495652
14	0x3cafa595	0.02144126
15	0x3e956992	0.29182106
16	0x3e293655	0.16524632
17	0x4012e733	2.2953613
18	0x3d2a45bd	0.041570414
19	0xbfd4f9e3	-1.6638759
20	0x3f0c4183	0.5478746
21	0xbdf27fef	-0.11840808
22	0xbf6df4eb	-0.9295184
23	0xbf1c9f74	-0.61180806
24	0x3fc9a2a4	1.5752759
25	0x3fa9348c	1.3219161
26	0xbff45599	-1.9088622
27	0x3f3162bc	0.6929128
28	0xbf0effb4	-0.5585892
29	0xbfd0f8d8	-1.6325941
30	0xbfd0846e	-1.6290414
31	0xbf3eec7f	-0.74579614
32	0xbcaf122b	-0.021370968
33	0xbfcd5ad9	-1.604335
34	0x3fc92acb	1.5716184
35	0xbe96f989	-0.29487255
36	0xbfb879fb	-1.4412225
37	0xbd14d291	-0.036333624
38	0xc00e07e7	-2.2192323
39	0x3feafd08	1.8358469
40	0x3f3670fc	0.7126615
41	0x3d1c442b	0.038150948
42	0x40026e04	2.0379648
43	0xbe99409b	-0.29932103
44	0x3dc350fc	0.09536931
45	0xbfb6d6a9	-1.4284259
46	0x3f28c02e	0.6591824
47	0x3f042c07	0.5162968
48	0xbeb240f3	-0.34815177
49	0x3f62272c	0.8834102
50	0xbf1bd38c	-0.6086967
51	0x4120af06	10.04273
52	0x3e9a654a	0.30155402
53	0xbf6f7cd8	-0.9354987
54	0xbefd4db0	-0.49473333
55	0xbe46dc1a	-0.194199
56	0x3c9d0509	0.01916744
57	0x3dc2d0b7	0.095124654
58	0x3da7dc24	0.08196285
59	0x3f452562	0.77010167
60	0xbf66e003	-0.90185565
61	0x3f139ff1	0.57665926
62	0xbec3b5a8	-0.3822453
63	0x3f5a1a30	0.8519621
64	0x3e0f6231	0.14002301
65	0xbf89801f	-1.0742224
66	0x3f1b777d	0.607292
67	0x3ea9b35d	0.33144656
68	0xbf242ecb	-0.641339
69	0x3f0f7430	0.56036663
70	0x3ef23214	0.47303832
71	0xbebcf2dc	-0.36904037
72	0xbe0f8faf	-0.14019655
73	0xbf55af75	-0.8347085
74	0xbe81d0b8	-0.25354552
75	0x3e05470e	0.13015386
76	0x3f6a96fd	0.9163664
77	0xbead8653	-0.33891544
78	0x3f7e513e	0.99342716
79	0x3ecfd37d	0.4059104
80	0x3f9cf325	1.2261702
81	0x3f17323c	0.59061027
82	0xbfcb2c09	-1.5872813
83	0xbf11a08f	-0.5688562
84	0xbf148c74	-0.58026814
85	0x3f5e127a	0.86746943
86	0x3e9b1b79	0.30294397
87	0x3e144896	0.14480814
88	0xc0b77c45	-5.7339196
89	0x3e54ae90	0.20769715
90	0x3f10cef2	0.56565773
91	0xbf994ad8	-1.1975965
92	0x3e7bffe7	0.24609338
93	0x3eff900b	0.49914584
94	0x3f17325b	0.5906121
95	0xbf11a91b	-0.5689866
96	0x3f1f01a5	0.62111884
97	0xbf2be9a8	-0.67153406
98	0x3f964deb	1.1742529
99	0xbda9d556	-0.08292644
100	0xbf157659	-0.5838371
101	0xbe07ae81	-0.13250162
102	0xbefe933c	-0.49721706
103	0x3f8cd5cc	1.1002746
104	0xbeae624e	-0.34059376
105	0x3f605ab9	0.8763843
106	0xbfa77b3d	-1.3084484
107	0x3ee209fd	0.44148245
108	0x3f85a862	1.0442011
109	0x3f8e3a76	1.1111591
110	0x3fcd51e5	1.6040617
111	0xbeaa01d5	-0.33204523
112	0x3cf72ab0	0.030171722
113	0xbe3e7990	-0.1860106
114	0xbe144c2b	-0.14482181
115	0xbfa098c3	-1.2546619
116	0x3f0301a2	0.51174366
117	0xbfe20b78	-1.765975
118	0x3f730c45	0.94940597
119	0xbf29ce7f	-0.66330713
120	0x3ec96ada	0.39339334
121	0xbf7f0658	-0.99619055
122	0x3f3661f6	0.71243227
123	0x3f90b252	1.1304419
124	0xbf2777b8	-0.6541705
125	0x4020dee9	2.5136054
126	0x3e42b2e5	0.19013555
127	0x3efd0660	0.49418926
128	0xbdd698f6	-0.10478394
129	0x3fbea297	1.4893368
130	0x3f05f7e2	0.52331364
131	0xbf748514	-0.9551556
132	0xbfa4e4f0	-1.2882366
133	0x3e045f7c	0.1292705
134	0xbe13ee7f	-0.14446448
135	0x3f2dc839	0.6788364
136	0xc0227661	-2.5384753
137	0xbfdd8649	-1.7306606
138	0x3eacd8d9	0.33759192
139	0x3fc47957	1.534953
140	0x3f0f6061	0.5600644
141	0x3f454c0a	0.7706915
142	0x3f91da04	1.1394658
143	0x3e59d0b3	0.21271019
144	0xbf080e9d	-0.531473
145	0xbf92d263	-1.1470455
146	0xbf51b982	-0.8192369
147	0x40a56375	5.1683908
148	0xbebd9fb4	-0.37035906
149	0x3f8020fc	1.0010066
150	0xbe4d5005	-0.20050056
151	0x3e7b330d	0.24531193
152	0xbfa51947	-1.2898339
153	0x3f1fe016	0.62451303
154	0x3c8b0859	0.016971754
155	0x3f0fbf77	0.5615153
156	0x3fbcfb10	1.4764118
157	0xbf4e8c49	-0.8068281
158	0x3e0f41d8	0.13989961
159	0xbe82b4c6	-0.25528544
160	0xbf257ea2	-0.6464635
161	0x3f87d5a6	1.0612075
162	0xbf671534	-0.9026673
163	0xc00a2ada	-2.1588655
164	0xbf521135	-0.82057506
165	0xbe9940d2	-0.29932266
166	0xbf73f0af	-0.9528913
167	0x3d284dd2	0.04108984
168	0x3f9373f4	1.1519761
169	0x3fb9b880	1.450943
170	0xbed4da49	-0.41572788
171	0x3edc42d7	0.43019745
172	0xbf7fd222	-0.9993001
173	0x40a5879f	5.1728053
174	0xc02fd6d0	-2.747486
175	0xbfccf585	-1.6012427
176	0xbfb013a3	-1.3755993
177	0xbf95687c	-1.1672511
178	0x3db01314	0.08597389
179	0x3fa8aec6	1.3178337
180	0x3f6d53b1	0.9270583
181	0xbe23dcbd	-0.16002174
182	0xbe8374c3	-0.2567502
183	0x3fdce15e	1.7256277
184	0xbdac6583	-0.08417799
185	0xc081fc6f	-4.0620646
186	0xbefcc250	-0.49367
187	0x3f8a1897	1.0788754
188	0xbf02ba2d	-0.5106533
189	0xbe9e976a	-0.30974895
190	0x3f634953	0.8878376
191	0x3eef0349	0.46682194
192	0xbe9c8264	-0.3056823
193	0xbeb5279f	-0.3538179
194	0xbe2c5c94	-0.16832191
195	0x3d8b6846	0.06806998
196	0x3c848da2	0.016180817
197	0xbc4e6f4f	-0.01259978
198	0x3d47f48a	0.048817195
199	0x3e347f91	0.17626788
200	0xbf027972	-0.5096656
201	0x3cabfae7	0.020993663
202	0xbe512819	-0.20425452
203	0x3e97dfca	0.29662925
204	0x3ecdbe13	0.40184078
205	0x3d2dff5b	0.042479854
206	0x3ec88051	0.39160398
207	0x3b86f7d2	0.004118898
208	0xbe5c1cae	-0.21495315
209	0x3eb7d6f2	0.35906178
210	0x3db47003	0.08810427
211	0x3ecea45a	0.40359765
212	0x3b7f8a49	0.0038992336
213	0xbe55c56d	-0.20876093
214	0xbddb2e07	-0.107021384
215	0x3d0690a9	0.032852802
216	0x3db518d3	0.088426255
217	0xbe88a4d2	-0.26688248
218	0x3e67efdb	0.22650091
219	0xbe079c41	-0.132432
220	0x3ec54c58	0.38534808
221	0x3e098e79	0.13433255
222	0x3ecdf82c	0.40228403
223	0x3d109b2a	0.035304226
224	0x3e723e1d	0.23656507
225	0x3e309633	0.17244796
226	0x3e6ce072	0.23132494
227	0xbea408c0	-0.32037926
228	0xbc300f13	-0.0107457815
229	0x3e3306a4	0.17483002
230	0x3eb7a4fb	0.35868058
231	0xbd027f16	-0.03185948
232	0xbe2088eb	-0.1567723
233	0xbe6d5949	-0.23178591
234	0xbe3d320e	-0.18476126
235	0x3e237d17	0.15965687
236	0xbeb13281	-0.34608844
237	0xbe18b255	-0.14911778
238	0x3e2f4edc	0.17119926
239	0xbd414771	-0.047187272
240	0xbef4261c	-0.47685325
241	0xbf1dc09c	-0.61622024
242	0xbe2f09cb	-0.1709358
243	0x3f0aa5ac	0.54159045
244	0xbe12837c	-0.1430797
245	0x3f81a8a7	1.0129594
246	0xbd776cbc	-0.06040643
247	0x3d655f2c	0.055998966
248	0x3eeb65b1	0.45976022
249	0x3ef964a8	0.48709607
250	0xbe9de34b	-0.30837473
251	0xbf9d994c	-1.2312407
252	0x3e9b4504	0.30326092
253	0x3dd57e3e	0.104244694
254	0x3f14adb9	0.5807758
255	0xbda9a028	-0.082825005

nconvs.0.modlist.0.lin_l.bias f4 [48]
0	0xbfa00bea	-1.2503636
1	0x401bc041	2.4336092
2	0x3fced8a1	1.615986
3	0x3edc92bd	0.43080702
4	0x3fb75119	1.4321624
5	0x3ffa5bbb	1.9559244
6	0x406c0f40	3.6884308
7	0xbf296783	-0.6617357
8	0xc051c6dc	-3.2777624
9	0x3f9f2480	1.2433014
10	0x408cf453	4.4048247
11	0x3f29151e	0.6604785
12	0x406ef15b	3.7334812
13	0x4047611b	3.1153018
14	0xbe1a2b9b	-0.15055697
15	0x3f2c0492	0.67194474
16	0x4046c9dc	3.1060705
17	0xbdc654af	-0.09684121
18	0xbf1b373a	-0.60631144
19	0x4001f13e	2.0303493
20	0x3ef8ce33	0.48594818
21	0x3f392433	0.7232086
22	0x3f4422e8	0.7661576
23	0xbf85810e	-1.0430009
24	0x3fd45076	1.6587055
25	0x4072eb84	3.7956247
26	0x3fb98c75	1.4495989
27	0xbf09639f	-0.53667635
28	0xbe15e9c5	-0.14639957
29	0x3f7b1998	0.9808593
30	0xc03e17d8	-2.9702053
31	0x3fed88d7	1.8557385
32	0x3e3dbbae	0.18528625
33	0x3ffcca70	1.9749279
34	0x3f550b20	0.832201
35	0x400f6a82	2.2408757
36	0x4039d885	2.9038403
37	0x3fce9d13	1.6141685
38	0x3eb5c8be	0.35504717
39	0x3f94aa04	1.1614385
40	0x40889c91	4.269112
41	0x3f4723e7	0.7778916
42	0x407c68b6	3.943891
43	0x404c787b	3.1948535
44	0x3ebd2b8a	0.3694728
45	0x406ac421	3.6682208
46	0xc02e2f80	-2.7216492
47	0x3ecb1e26	0.3967144

nconvs.0.modlist.0.lin_r.weight f4 [48, 48]
0	0xbe6964dd	-0.22792383
1	0x3ef2bc4b	0.4740928
2	0xbe34706e	-0.17621014
3	0xbb639000	-0.0034723282
4	0xbef108e3	-0.47077093
5	0xbe0bc6e8	-0.13650095
6	0x3dd74084	0.10510352
7	0xbda81db7	-0.08208793
8	0xbd268c45	-0.040661115
9	0xbe32b933	-0.1745346
10	0xbd0708a3	-0.03296722
11	0xbe461046	-0.19342145
12	0xba6e9741	-0.0009101518
13	0x3dfc58c8	0.12321621
14	0xbd83a3aa	-0.06427701
15	0xbc17656d	-0.00924049
16	0x3e08dad7	0.13364731
17	0x3e51be0a	0.2048265
18	0x3e82703f	0.25476262
19	0x3e22ccdb	0.15898459
20	0xbeb081eb	-0.3447412
21	0x3d5594f1	0.052143995
22	0x3e128d40	0.14311695
23	0xbe2b4cc1	-0.16728498
24	0x3e86465d	0.26225558
25	0x3ed1c5e4	0.4097129
26	0x3d5beefc	0.05369471
27	0xbce5baa7	-0.028043104
28	0x3df286d3	0.11842122
29	0x3d554734	0.052069858
30	0x3e235822	0.15951589
31	0xbe3b549d	-0.18293996
32	0x3b9f6e29	0.004865427
33	0xbe9165c2	-0.28397948
34	0xbe14f9b2	-0.14548376
35	0xbda38103	-0.079835914
36	0x3e033daa	0.12816492
37	0x3de0cdf5	0.10976783
38	0xbd6274b4	-0.055287078
39	0xbeb4693e	-0.35236543
40	0x3da88eba	0.08230348
41	0x3c3341c2	0.010940971
42	0x3e260c7c	0.162157
43	0xbeb7b66d	-0.35881367
44	0xbe26500d	-0.16241474
45	0xbd8cbca4	-0.06871918
46	0x3e676677	0.22597681
47	0x3e0929f5	0.13394912
48	0xbe8344f4	-0.25638545
49	0x3f209781	0.62731177
50	0xbeb392d8	-0.3507297
51	0xbe852871	-0.26007417
52	0xbece7fb5	-0.40331808
53	0xbeba10ec	-0.36341035
54	0x3ca6061e	0.020266589
55	0xbdc66c10	-0.0968858
56	0xbdf93150	-0.12167609
57	0xbd274514	-0.040837362
58	0x3e11c39b	0.14234774
59	0x3d287b35	0.041133124
60	0xbdee7345	-0.1164308
61	0xbda438e5	-0.08018664
62	0xbdb4143d	-0.08792923
63	0x3e6b2f9d	0.22967382
64	0xbeb97d7a	-0.36228544
65	0xbe1e2394	-0.1544326
66	0xbcd417d7	-0.025890274
67	0x3e40f961	0.1884513
68	0x3cc76e26	0.024344515
69	0x3e8439b5	0.25825277
70	0xbe51a61f	-0.20473526
71	0x3eb7e781	0.3591881
72	0x3e84a665	0.259082
73	0x3ece722c	0.4032148
74	0xbe08df2f	-0.13366388
75	0x3e1d05fc	0.15334314
76	0x3ec9e098	0.39429164
77	0x3cd89cfe	0.026442047
78	0x3e13879b	0.14407198
79	0xbde456e3	-0.11149385
80	0xbd0febca	-0.035136975
81	0xbe9c3703	-0.3051072
82	0xbbdd409b	-0.0067520863
83	0x3eb9a5ae	0.36259216
84	0x3ef51be1	0.47872832
85	0x3e335d1e	0.1751599
86	0xbc9e09fd	-0.019291872
87	0x3dcff8e5	0.10154895
88	0x3dad7bba	0.084708646
89	0x3caba831	0.020954223
90	0xbe91cb10	-0.28475237
91	0xbeca08c8	-0.39459825
92	0x3ed8dc5d	0.42355624
93	0xbee51580	-0.44742966
94	0x3dd69f12	0.10479559
95	0xbdbd2a06	-0.09236531
96	0xbe6a9f30	-0.22912288
97	0xbf8b9e32	-1.0907652
98	0xbf065553	-0.52473944
99	0x3e3b7272	0.18305376
100	0xbf59ced1	-0.850812
101	0x3f6647d2	0.8995334
102	0x3fcb3ad8	1.5877333
103	0x3ed0a75e	0.4075269
104	0x3fb47a79	1.4099876
105	0x3e76454b	0.2404987
106	0x3edf7e51	0.4365106
107	0xbe1a1d10	-0.15050149
108	0x3f46e3e1	0.77691466
109	0x3e8b90bb	0.27258858
110	0x3d114058	0.035461754
111	0xbf346c57	-0.70477813
112	0xbf8d730f	-1.1050738
113	0x3f0f538b	0.5598685
114	0xbf78edfb	-0.9723813
115	0xbd0635e5	-0.03276624
116	0xbeec6bce	-0.46175998
117	0x3e8aba48	0.27095246
118	0x3e14f1dc	0.14545387
119	0x3f6087d5	0.87707263
120	0x3ec089d3	0.37605152
121	0x3f5730fd	0.84059125
122	0x3b9f7e7c	0.004867373
123	0x3d6afff1	0.05737299
124	0xbf631c8d	-0.8871544
125	0x3f9c8b82	1.2230074
126	0xbdad6858	-0.084671676
127	0x3f8ce76b	1.1008123
128	0xbdff5327	-0.12467032
129	0xbf789a1f	-0.9711017
130	0xbf0335e5	-0.5125411
131	0xbf325097	-0.6965422
132	0xbe888d59	-0.2667034
133	0xbf8b4c29	-1.0882617
134	0x3f240aa1	0.6407872
135	0xbf03de59	-0.5151115
136	0x3f554c9c	0.8332002
137	0xbf9f659b	-1.2452883
138	0x3e884bed	0.26620427
139	0x3d3512ee	0.044207506
140	0x3e594530	0.21217799
141	0x3f86cb04	1.0530705
142	0x3e307ef1	0.17235924
143	0x3f2c3482	0.6726762
144	0x3e11212c	0.1417281
145	0xbe6b069d	-0.22951742
146	0x3dd7d23b	0.10538145
147	0x3b6ec29c	0.0036431914
148	0xbf18b935	-0.59657604
149	0x3e7d6317	0.24744831
150	0x3e148877	0.14505182
151	0xbdc853ad	-0.09781585
152	0xbe09a09c	-0.13440174
153	0xbe89584c	-0.26825178
154	0xbc284de0	-0.010272473
155	0x3e9a2e4f	0.30113456
156	0xbd850b88	-0.0649634
157	0x3e1f4041	0.15551855
158	0x3da6d12e	0.081453666
159	0x3ecc30fc	0.39881122
160	0x3de887fb	0.11354061
161	0x3f0d234e	0.55131996
162	0x3d917209	0.071018286
163	0xbe42eb36	-0.19035038
164	0xbecb8de1	-0.39756683
165	0xbd3f3969	-0.04668561
166	0x3e183443	0.14863686
167	0xbedaf98b	-0.4276851
168	0x3d717489	0.058949027
169	0x3e3bfe75	0.18358786
170	0xbe8964bc	-0.26834667
171	0xbeaa4b66	-0.3326065
172	0xbea2b3c6	-0.3177778
173	0x3dacae61	0.08431698
174	0x3f0ac207	0.5420231
175	0xbedc89ca	-0.43073875
176	0x3e3a2e3d	0.18181701
177	0xbe53a5b8	-0.20668685
178	0x3ea67fab	0.32519278
179	0xbe072b05	-0.13200004
180	0xbdd3827e	-0.10327624
181	0x3dc565df	0.09638571
182	0xbd77552d	-0.060383964
183	0xbebf28e2	-0.3733588
184	0x3e3d6685	0.1849614
185	0x3d9fb48a	0.07798107
186	0xbe2769c2	-0.16348937
187	0x3ed37517	0.4130027
188	0x3e1d1cc7	0.15343009
189	0x3e378b56	0.17924246
190	0x3d3a6e3e	0.04551529
191	0x3de9e6fa	0.114210084
192	0x3f74dc15	0.9564832
193	0x3f0b1395	0.54326755
194	0xbf4a8b13	-0.7911846
195	0xbe8fb905	-0.28070846
196	0x3f3efd78	0.7460551
197	0xbec854ba	-0.3912714
198	0x3d728958	0.059213012
199	0x405a9d23	3.4158409
200	0x3de752ea	0.112951115
201	0xbea7c01f	-0.32763764
202	0xc056af21	-3.354439
203	0xbf522432	-0.8208648
204	0xbeeb88cb	-0.46002802
205	0x4010053e	2.25032
206	0xbdac472c	-0.084120125
207	0x3e2b73be	0.16743371
208	0x3ed9cbe7	0.42538378
209	0xc0018d21	-2.0242388
210	0x3ee50d2c	0.44736612
211	0x3ee57b5f	0.44820687
212	0x3f528602	0.8223573
213	0x3e5e5020	0.21710253
214	0x3f91a0c0	1.1377182
215	0xbe928f34	-0.2862488
216	0xbfcb0253	-1.5860084
217	0xbf1cea6d	-0.61295205
218	0xbefda555	-0.495402
219	0xbf025f3c	-0.50926566
220	0x3db88261	0.09009243
221	0xbe844136	-0.25831002
222	0x3ef5ef9a	0.48034364
223	0x3dc70781	0.09718228
224	0x3e911490	0.28336
225	0x3f3e7534	0.7439759
226	0x3e8f57b7	0.2799661
227	0xbf282730	-0.65684795
228	0xbf7d0f20	-0.98851204
229	0x3ebb0fe6	0.36535567
230	0x3fe4624d	1.7842499
231	0xbfcff773	-1.624739
232	0xc06c270a	-3.6898828
233	0xc01f42ba	-2.4884477
234	0x3f533c31	0.8251372
235	0xbe48e6ac	-0.19619244
236	0x3eed5c0b	0.46359286
237	0x3f2dadc6	0.6784328
238	0xbefeb64a	-0.4974845
239	0xbd425deb	-0.04745285
240	0xbe556b42	-0.20841697
241	0xbf5be140	-0.8589058
242	0x3f7229a5	0.94594795
243	0x3e814681	0.25249103
244	0x3f3f4e17	0.7472853
245	0x3efc3579	0.49259546
246	0x3f2432ba	0.641399
247	0x3e82298b	0.2542232
248	0xbf0f2019	-0.5590835
249	0x3f3f7207	0.74783367
250	0x3e4ec3e0	0.20191908
251	0xbecd9b59	-0.40157583
252	0x3e45d130	0.1931808
253	0x3f74dc20	0.95648384
254	0x3f7b46a7	0.9815468
255	0x3e6c95d5	0.23104031

nconvs.1.modlist.0.lin_l.weight f4 [48, 48]
0	0x3df8df89	0.12152011
1	0x3f11d733	0.5696899
2	0xbfb42d3a	-1.4076302
3	0xbf16a45c	-0.5884454
4	0xbed586fc	-0.41704547
5	0xbf70c659	-0.94052655
6	0xbe38c0a0	-0.1804223
7	0x3e411a08	0.18857586
8	0x3f2b571d	0.669298
9	0xbf14a883	-0.5806963
10	0xbe96ca0e	-0.2945103
11	0x3f102e17	0.5632033
12	0x3e8bb1b9	0.2728403
13	0xbf1405fd	-0.5782164
14	0xbe56eb28	-0.20988142
15	0x3ec8cf82	0.39220816
16	0xbf5f50dc	-0.87232757
17	0xbd1c9412	-0.03822715
18	0xbe854552	-0.2602945
19	0xbe847b09	-0.25875118
20	0x3ebb3cd7	0.36569855
21	0x3eaa79d4	0.33296072
22	0xbdec8645	-0.115490474
23	0x3f940565	1.1564146
24	0xbe3dc885	-0.18533523
25	0xbeb89ee0	-0.36058712
26	0xbe5e39e0	-0.21701765
27	0x3e5a7363	0.21333079
28	0xbadf2ee0	-0.001702752
29	0x3fad75d6	1.3551586
30	0xbb48b55d	-0.003062568
31	0xbed62201	-0.41822818
32	0xbe53d706	-0.20687494
33	0xbde9218a	-0.1138335
34	0x3e55b19f	0.20868538
35	0xbe290aeb	-0.16508071
36	0xbf82fae1	-1.0232812
37	0xbf845661	-1.0338861
38	0x3e94f1ab	0.29090628
39	0xbf35ac4a	-0.7096602
40	0xbf04c876	-0.5186838
41	0xbf31f743	-0.69517916
42	0xbe965543	-0.29361925
43	0xbedb4012	-0.4282232
44	0x3f23c753	0.6397602
45	0xbe8fcc79	-0.28085688
46	0x3e6d9f88	0.23205388
47	0xbe41d9a5	-0.18930681
48	0x3e99adac	0.30015314
49	0xbefe3a74	-0.4965397
50	0x3f3e05b7	0.7422747
51	0xbeb2e0ec	-0.34937227
52	0x3e42d767	0.19027482
53	0x3d61ac9c	0.055096254
54	0x3d91081b	0.07081624
55	0xbe916734	-0.2839905
56	0xbf62127a	-0.88309443
57	0x3e120ccd	0.14262696
58	0x3dd61708	0.104536116
59	0x3ddcda30	0.107838035
60	0x3dd3a386	0.10333924
61	0x3e7a2834	0.24429399
62	0xbdf614f7	-0.120157175
63	0x3e63d6e0	0.22249937
64	0x3d757fa7	0.059936192
65	0x3ee82f7f	0.45348737
66	0x3fa883ee	1.3165262
67	0xbeefca41	-0.46833995
68	0xbebf12a1	-0.373189
69	0x3e7d4b56	0.2473577
70	0x3ea918fa	0.33026868
71	0x3f05125e	0.5198115
72	0xbe2e5db2	-0.1702793
73	0xbdbb196f	-0.091357104
74	0xbf848daa	-1.0355732
75	0x3dbacccc	0.09121093
76	0xbf0d5cc8	-0.552197
77	0xbe684f75	-0.2268656
78	0xbe480f34	-0.1953705
79	0x3da1894a	0.07887514
80	0x3edf875a	0.43657953
81	0xbf3e746e	-0.7439641
82	0x3ea5505b	0.3228787
83	0x3eaf4f34	0.34240115
84	0xbe90bd8f	-0.28269622
85	0x3dd379ea	0.10325988
86	0xbf4c23b1	-0.7974196
87	0x3e2a7f84	0.16650206
88	0x3d2f64ea	0.04282085
89	0xbf813a0d	-1.0095841
90	0xbe8f804c	-0.2802757
91	0xbe9c1c2c	-0.30490243
92	0x3f8e4d98	1.111743
93	0xbe50dff0	-0.20397925
94	0x3f3a3057	0.7273001
95	0xbf0bddc0	-0.5463524
96	0xbded2544	-0.115793735
97	0xbf061e60	-0.523901
98	0xbf0edaa7	-0.55802387
99	0x3ef09439	0.46988085
100	0x3e967fae	0.29394287
101	0x3f91a0f0	1.1377239
102	0x3d2409ec	0.040048525
103	0xbf0af93b	-0.54286546
104	0xbf484b9f	-0.7824039
105	0x3e43b8bc	0.1911344
106	0x3ee80531	0.4531646
107	0xbeb966c0	-0.36211205
108	0x3e4d7d0b	0.20067231
109	0x3e4666b7	0.1937512
110	0x3e80b10c	0.25135076
111	0x3d5f7f9f	0.05456507
112	0xbf8884e9	-1.0665561
113	0x3fc9b5ad	1.5758568
114	0x3ea22a63	0.31672964
115	0x3f3800f7	0.7187647
116	0xbf8c510c	-1.0962234
117	0xbe8c594d	-0.2741188
118	0xbe24fcbc	-0.16112036
119	0xbe2e20c3	-0.17004685
120	0xbeb1b311	-0.3470693
121	0x3eaebef4	0.3413006
122	0xbe4a2b2b	-0.1974303
123	0x3e772abc	0.24137396
124	0x3f3f180b	0.7464606
125	0xbd95f165	-0.07321433
126	0xbe1a44b2	-0.15065268
127	0x3c0a6341	0.008446516
128	0xbf393bc7	-0.7235684
129	0x3f1149a6	0.56753004
130	0x3f362ae5	0.711592
131	0xbe5f1382	-0.21784785
132	0x3e6b126f	0.2295625
133	0x3e7cf9b3	0.24704628
134	0x3e7ff86f	0.24997114
135	0x3e946f3a	0.2899111
136	0x3ea257a3	0.31707487
137	0xbe0697af	-0.131438
138	0x3eb09e80	0.34495926
139	0x3ec899b0	0.39179754
140	0x3ea050b6	0.31311578
141	0x3ed084a1	0.40726188
142	0xbebfd22c	-0.37465036
143	0x3f66763a	0.9002415
144	0x3ea2b67a	0.31779844
145	0x3d05e947	0.032693174
146	0x3ed54b5b	0.41659054
147	0xbdaab5fb	-0.08335491
148	0x3f7c3fc7	0.98534817
149	0x3d67cad4	0.056589916
150	0x3c069713	0.00821473
151	0x3fdbb1fb	1.716369
152	0x3f44c595	0.76863986
153	0x3f431bed	0.76214486
154	0x3d884604	0.066539794
155	0x3de6f1d6	0.11276595
156	0xbf9a0a6c	-1.203443
157	0x3e3d2adc	0.18473381
158	0xbe06601c	-0.131226
159	0xbf598900	-0.8497467
160	0xbe947ec0	-0.29002953
161	0xc0001393	-2.0011947
162	0xbf37e694	-0.7183621
163	0x3e0b72c3	0.13617997
164	0xbe99e861	-0.30060104
165	0xbe556170	-0.2083795
166	0xbef04bc5	-0.46932808
167	0xc00edff2	-2.2324185
168	0xbd85e50d	-0.065378286
169	0xbd9e2f3a	-0.077238515
170	0xbe744224	-0.23853356
171	0xbefa6434	-0.48904574
172	0x3f7b6f6b	0.98216885
173	0xbdac7dd1	-0.08422435
174	0xbec05b98	-0.3756988
175	0x3d9d2f2f	0.07675015
176	0xbf8aab4f	-1.0833529
177	0x3f4f0b09	0.80876213
178	0x3f6e2641	0.9302712
179	0x3f0a149a	0.53937685
180	0x3e255616	0.1614612
181	0x3eb71f1d	0.35765925
182	0x3f311227	0.69168323
183	0x3e8b5a44	0.27217305
184	0x3de158b3	0.11003246
185	0xbd39200e	-0.045196585
186	0x3cbb01bd	0.022827977
187	0xbe89a60c	-0.26884496
188	0x3f2e40be	0.6806754
189	0x3d092a4a	0.033487596
190	0xbde6a4f5	-0.11261932
191	0xbe0309e7	-0.12796746
192	0x3f1c4c11	0.6105357
193	0x3f42058f	0.7578973
194	0x3e9e0023	0.3085948
195	0xbe294b09	-0.1653253
196	0xbf56261d	-0.83651906
197	0xbd8425b4	-0.06452504
198	0xbec4b2ed	-0.3841776
199	0x3ecb4bf6	0.3970639
200	0x3e295148	0.16534913
201	0xbf7143a6	-0.9424385
202	0xbe79e3d8	-0.24403322
203	0x39ee3bf7	0.00045439575
204	0xbed132b9	-0.4085901
205	0xbeb955c4	-0.36198246
206	0xbe8a15ad	-0.26969662
207	0xbf4cd922	-0.8001882
208	0x3df97dcd	0.12182198
209	0xbf4342d2	-0.76273835
210	0x3d5d7b65	0.054072756
211	0x3c844224	0.01614482
212	0x3ef6da76	0.48213547
213	0x3e1f26a1	0.1554208
214	0x3f049a76	0.5179819
215	0x3d4dae14	0.050214842
216	0x3e93ff39	0.28905657
217	0xbedf694d	-0.43635026
218	0xbdac4e46	-0.08413367
219	0xbe7352ac	-0.23762006
220	0xbf03caae	-0.5148114
221	0x3f05123b	0.5198094
222	0xbe20f990	-0.157202
223	0xbf2f5ee2	-0.68504155
224	0x3f917c86	1.1366127
225	0xbebc8ff1	-0.3682857
226	0x3d81e97b	0.06343361
227	0xbef9f065	-0.4881622
228	0xbf0ffb10	-0.56242466
229	0xbf456140	-0.77101517
230	0x3f259c98	0.6469207
231	0x3d729110	0.059220374
232	0xbef214ff	-0.47281644
233	0xbeef2aef	-0.46712443
234	0xbedc1ab9	-0.42989138
235	0xbf19d5cb	-0.6009185
236	0xbec9f1e6	-0.39442366
237	0xbebc1b8a	-0.3673976
238	0x3d94afcf	0.07260095
239	0xbfc33183	-1.5249485
240	0x3da516a0	0.08060956
241	0xbebfa2e1	-0.37428954
242	0x3e9c1af2	0.30489308
243	0x3f130419	0.5742813
244	0x3ed0cd54	0.40781653
245	0xbd486045	-0.048919935
246	0x3ea9c287	0.33156225
247	0xbc95b456	-0.018274467
248	0x3e49f5d9	0.1972269
249	0x3f0fcec5	0.5617488
250	0x3e9193db	0.28433117
251	0xbeeab1c1	-0.4583874
252	0xbf3f22cd	-0.74662477
253	0x3d2c83fc	0.042118058
254	0x3f83cc85	1.029679
255	0xbf330219	-0.69925076

nconvs.1.modlist.0.lin_l.bias f4 [48]
0	0xbf23ec0f	-0.6403207
1	0xbde17327	-0.11008292
2	0x3e653b01	0.2238579
3	0x3eba2a70	0.36360502
4	0xbe935c2c	-0.2878126
5	0x3d6805e6	0.05664625
6	0xbda61898	-0.0811016
7	0xbc277e0d	-0.010222924
8	0x3c21fcab	0.009886901
9	0x3ded055d	0.115732886
10	0xbfbd084d	-1.4768158
11	0x3e770370	0.24122405
12	0x3be045fa	0.0068442794
13	0xc0296bb4	-2.6471987
14	0x3da00823	0.07814052
15	0x3cbadc52	0.022810135
16	0xbd2d8ffc	-0.042373642
17	0xbf2bc884	-0.6710284
18	0xbc9a964d	-0.018870497
19	0x3e3038f4	0.17209226
20	0x3e3edc7b	0.18638794
21	0xbe1b32c1	-0.1515608
22	0xbec2c4d4	-0.38040793
23	0xbda34574	-0.079722315
24	0xbdd66edc	-0.104703635
25	0xbd48b922	-0.04900468
26	0x3d99328c	0.07480344
27	0xbdd9035c	-0.10596344
28	0x3eb81766	0.35955352
29	0x3e84a6d3	0.25908527
30	0x3e8ab8f7	0.27094242
31	0xbc26e56c	-0.010186534
32	0x3e5769c0	0.21036434
33	0xbe199efb	-0.15002052
34	0xbe3f3096	-0.18670878
35	0xbc9f0ada	-0.019414354
36	0x3f4bdc6d	0.7963322
37	0x3ef7d1b4	0.48402178
38	0xbfc4a8b4	-1.5363984
39	0x3fe61824	1.7976117
40	0x3db5df63	0.08880498
41	0xbde297f4	-0.11064139
42	0xbd2d447c	-0.04230164
43	0xbea08302	-0.3134995
44	0xbddd7ac3	-0.108144306
45	0xbde3ae8a	-0.11117275
46	0xbeb6cc31	-0.3570266
47	0x3d85fff9	0.065429635

nconvs.1.modlist.0.lin_r.weight f4 [48, 48]
0	0x3f80915b	1.0044359
1	0x3f374cec	0.7160175
2	0x3f240e91	0.64084727
3	0x3e1e5d4b	0.15465276
4	0x3e4a72b1	0.19770314
5	0xbd8a5058	-0.067536056
6	0xbeab5c3e	-0.33468813
7	0xbdadd3c1	-0.084876545
8	0x3eb7bac6	0.35884684
9	0x3e453159	0.19257106
10	0xbe1286d0	-0.1430924
11	0x3f7af435	0.9802888
12	0x3f7eb461	0.99493986
13	0xbe0ecae7	-0.13944589
14	0x3e36b9e4	0.17844349
15	0x3f8fc4b3	1.1231903
16	0x3f09f2c3	0.5388605
17	0x400ce6ca	2.2015862
18	0xbde5fd65	-0.11229972
19	0x3fa2b5a0	1.2711678
20	0x3ed9e630	0.42558432
21	0xbf63fdad	-0.89058954
22	0x3d78314c	0.06059389
23	0xbf7b1c4f	-0.9809007
24	0x3f56f7e6	0.83972013
25	0x3cad1fa5	0.021133253
26	0x3f709c88	0.9398885
27	0x3e62d87d	0.22152896
28	0x3f261d2e	0.64888275
29	0x3f2138b6	0.6297716
30	0x3f0e3330	0.55546856
31	0xbf164161	-0.5869351
32	0x3f9fa079	1.2470847
33	0xbee54049	-0.44775608
34	0x3fb0217a	1.3760216
35	0x3f2738f0	0.65321255
36	0x3e2d1854	0.16903812
37	0xbed2224c	-0.4104179
38	0x3f97a672	1.184767
39	0xbec241a7	-0.37940714
40	0xbb9c2d15	-0.0047661164
41	0x3e2b1577	0.16707407
42	0xbf060936	-0.52357805
43	0xbe612750	-0.21987653
44	0x3faaf225	1.3355147
45	0xbe791055	-0.24322636
46	0x3d808ba3	0.062766336
47	0x400bc912	2.1841474
48	0x3e4e2511	0.20131327
49	0x3ec61af4	0.3869244
50	0x3ea3da73	0.320026
51	0xbe8955a4	-0.2682315
52	0x3e4c81f9	0.19971456
53	0xbd17c6b2	-0.037054725
54	0x3d877203	0.06613543
55	0xbf0e450b	-0.555741
56	0x3bc7612a	0.006084581
57	0x3e4c41ec	0.19947022
58	0xbda3a729	-0.07990868
59	0x3f292a42	0.66080105
60	0xbf3f80a5	-0.7480567
61	0x3d0ca6a4	0.03433861
62	0xbeac6c99	-0.33676603
63	0xbe1cebda	-0.15324345
64	0x3f5a26c3	0.85215396
65	0xbdc7aa3a	-0.09749265
66	0xbe9bf51b	-0.30460438
67	0xbce4181e	-0.027843531
68	0x3f23dd4a	0.64009535
69	0xbea51995	-0.3224608
70	0x3ed0117f	0.40638348
71	0x3e5d3f32	0.21606138
72	0x3eddce29	0.4332135
73	0x3c32b59a	0.010907555
74	0xbf88edbd	-1.0697552
75	0xbe830205	-0.25587478
76	0xbf35a838	-0.70959806
77	0xbd956983	-0.072955154
78	0xbdf0ebf8	-0.117637575
79	0xbf2ae421	-0.6675435
80	0x3fc2cf54	1.5219522
81	0x3cd1142d	0.025522316
82	0xbef30322	-0.47463328
83	0x3ec3ef59	0.38268545
84	0xbe4883fb	-0.19581597
85	0xbc972cd7	-0.018453998
86	0xbe927cad	-0.28610745
87	0xbe9e0e2c	-0.30870187
88	0xbdd84ed9	-0.10561914
89	0x3eb84fac	0.35998285
90	0xbb76b6d8	-0.0037645604
91	0xbd99fdee	-0.07519136
92	0xbed91d83	-0.42405328
93	0xbe5b4919	-0.21414603
94	0xbe45704a	-0.19281116
95	0xbf73c85e	-0.9522761
96	0x3ec9bca6	0.3940174
97	0x3e1dfdeb	0.15428893
98	0xbbdde56d	-0.0067717345
99	0xbc816526	-0.015795302
100	0x3c753f69	0.014968731
101	0x3e7e2a4c	0.24820822
102	0x3ece214c	0.40259778
103	0xbdb7f3a5	-0.089820184
104	0xbe26ba11	-0.16281916
105	0xbcd0731a	-0.02544551
106	0x3e0794c4	0.13240343
107	0xbf0d5d09	-0.55220085
108	0xbf1a9b7f	-0.6039352
109	0xbde87058	-0.11349553
110	0xbf106a0d	-0.5641182
111	0xbd3a74da	-0.045521595
112	0x3ca764d8	0.020433828
113	0xbfc6df4c	-1.5536895
114	0x3e1d2a70	0.1534822
115	0x3eb797e0	0.3585806
116	0xbf05e011	-0.52295023
117	0x3ec8a373	0.39187202
118	0x3dbb11fc	0.091342896
119	0xbea4b852	-0.32171875
120	0x3e3f4a4b	0.18680684
121	0xbd48aa7a	-0.048990704
122	0x3f1f2d71	0.62178713
123	0x3e4c769f	0.19967125
124	0x3fbbb66f	1.4665049
125	0xbf876a8b	-1.0579389
126	0xbe1058b5	-0.14096339
127	0x3f0f9b99	0.560968
128	0x3ec61899	0.38690642
129	0x3d581b98	0.05276069
130	0xbf556134	-0.83351445
131	0x3e6be617	0.23036991
132	0x3e7aff4e	0.24511454
133	0x3f40c874	0.7530587
134	0x3e557392	0.20844868
135	0x3f0bf631	0.54672533
136	0x3d26e72a	0.0407478
137	0xbcef4e3e	-0.029212113
138	0x3e8700b4	0.26367724
139	0x3ea38df3	0.31944236
140	0xbd702d32	-0.05863685
141	0xbc75ae28	-0.014995135
142	0x3f2ee5fc	0.6831968
143	0xbeed1913	-0.46308193
144	0x3d839d2d	0.06426463
145	0x3f7365bb	0.95077103
146	0x3f96c507	1.1778878
147	0xbf129ccf	-0.5727052
148	0xbe4229b4	-0.18961221
149	0x3eb9a878	0.36261344
150	0x3e564a3b	0.20926754
151	0xbfa7ff7c	-1.3124843
152	0x3e0a639c	0.1351456
153	0xbecb5d48	-0.39719605
154	0x3e7bd99e	0.24594733
155	0x3e003f3b	0.1252412
156	0x3e86a0b4	0.26294482
157	0xbd64eaa7	-0.055887844
158	0xbf653055	-0.89526874
159	0x3f0f1cc9	0.559033
160	0x3e0fcbcc	0.14042586
161	0x3f8dc526	1.107579
162	0xbe582ea4	-0.21111542
163	0x3e892dcb	0.2679275
164	0xbe0a7c76	-0.1352404
165	0x3dc31c53	0.09526887
166	0x3ecf3db6	0.4047677
167	0x3e0ae75d	0.1356482
168	0xbe14bef4	-0.14525968
169	0x3ebb556a	0.36588603
170	0xbe8fbc8c	-0.28073537
171	0xbf50749b	-0.81427926
172	0x3ef3c817	0.47613594
173	0xbe89c3c9	-0.26907185
174	0x3d17f8a3	0.037102353
175	0x3f132750	0.5748186
176	0x3e931df9	0.28733805
177	0x3e3952a9	0.18097939
178	0xbfdc002e	-1.7187555
179	0x3e25c6d4	0.16189128
180	0x3e51f8f9	0.20505132
181	0x3e6a2b7e	0.22868153
182	0x3eb629a9	0.3557866
183	0x3f7ec8f3	0.99525374
184	0x3e160d38	0.1465348
185	0x3f0ae97a	0.54262507
186	0x3ee407b7	0.44537136
187	0x3f04b771	0.5184241
188	0x3fb247f5	1.392821
189	0x3e1f0914	0.15530807
190	0xbf1248fc	-0.57142615
191	0x3e1fb046	0.15594587
192	0x3f9480cb	1.1601804
193	0x3f7a7dd9	0.9784828
194	0x3ed30e82	0.41222006
195	0x3e9b9fb6	0.30395287
196	0xbd60a446	-0.054844163
197	0xbe14ceae	-0.14531967
198	0xbd3a1cb2	-0.045437522
199	0x3e459679	0.19295682
200	0x3ebfbf5e	0.3745069
201	0x3c1ced64	0.009578083
202	0xbe3c4128	-0.1838423
203	0x3ea437ac	0.32073724
204	0x3fadeebc	1.3588481
205	0xbe03bb9e	-0.12864539
206	0x3e080494	0.13282996
207	0x3f41ff7e	0.75780475
208	0x3faeecf3	1.3666061
209	0x3e3694cd	0.178302
210	0xbdfc21e0	-0.12311149
211	0x3fd2de7c	1.6474147
212	0x3f65cac1	0.897625
213	0xbfa18341	-1.261818
214	0x3ea20c7f	0.3165016
215	0x3f134168	0.57521677
216	0x3edfcd20	0.43711185
217	0xbe95dc43	-0.2926961
218	0x3fc57416	1.5426052
219	0x4002e7ea	2.045405
220	0x3f63c909	0.8897863
221	0x3f89da93	1.0769829
222	0x3e8c6d29	0.27427033
223	0xbe4621b3	-0.19348793
224	0x401e6b84	2.4753122
225	0xbcf5c8d5	-0.03000299
226	0x3f802aca	1.0013058
227	0x3f76e8db	0.9644906
228	0xbdd73bb7	-0.105094366
229	0x3ea2bbe0	0.31783962
230	0x3f87e5df	1.0617026
231	0xbdba96d8	-0.091108024
232	0x3b1d3ad9	0.0023991375
233	0xbd2c96d0	-0.042136014
234	0xbe5d5347	-0.21613799
235	0xbce61603	-0.028086668
236	0x3f00a00f	0.5024423
237	0xbe58950d	-0.21150608
238	0x3f0f55f1	0.5599051
239	0x3fe108b2	1.7580779
240	0xbfabc35c	-1.3418994
241	0xbf7b62a2	-0.98197377
242	0xbf987b1f	-1.1912574
243	0x3dab911b	0.08377286
244	0x3e56bda6	0.20970783
245	0x3dffe3cc	0.12494621
246	0xbda2ad4b	-0.07943209
247	0x3ed3265e	0.4124021
248	0xbf231a18	-0.6371169
249	0xbde5964f	-0.1121031
250	0x3deae74f	0.114699
251	0xbf30cdc3	-0.6906397
252	0xbe873a5c	-0.26411712
253	0xbb87d0eb	-0.004144778
254	0xbecbda3e	-0.39814943
255	0xbf511248	-0.8166852

h_1.modlist.0.modlist.0.weight f4 [18, 49]
0	0x3ef99642	0.4874745
1	0x3e86373d	0.26214018
2	0xbd19a6bb	-0.037512522
3	0x3d873853	0.0660254
4	0x3ecc2dd2	0.39878708
5	0x3d9750ee	0.07388483
6	0x3cc5bf03	0.024138933
7	0x3e171f01	0.14757921
8	0xbd815067	-0.06314164
9	0x3c6576cb	0.014005373
10	0x3a940e75	0.0011295812
11	0x3e5f780b	0.21823137
12	0xbc64427b	-0.013931866
13	0xc024cdfb	-2.575072
14	0x3f15da28	0.58536005
15	0x3e939203	0.28822336
16	0x3e8946de	0.2681188
17	0x3ef4b6b3	0.47795638
18	0x3e7b463c	0.24538511
19	0x3e3fa575	0.1871546
20	0xbdf2378a	-0.118269995
21	0xbe7774a2	-0.24165586
22	0x3e7bd4f1	0.2459295
23	0xbcfb3527	-0.030664993
24	0x3f058a30	0.5216398
25	0x3ef922a2	0.48659235
26	0x3eb13283	0.3460885
27	0x3e02f141	0.12787344
28	0xbe35607c	-0.17712587
29	0x3db55c50	0.08855498
30	0x3e811720	0.25212955
31	0x3e911c96	0.28342122
32	0xbf5a8c11	-0.85369974
33	0xbd415a33	-0.04720516
34	0xbdf57522	-0.11985232
35	0xbe02c436	-0.12770161
36	0xbeb192a6	-0.34682196
37	0xbf68f5b8	-0.9099994
38	0x3bdda82a	0.0067644315
39	0x3f8fc0e8	1.1230745
40	0xbd80b3a9	-0.062842675
41	0xbd31e52a	-0.04343144
42	0x3ebe0222	0.37111002
43	0xbf18633b	-0.59526414
44	0x3db4d376	0.088293955
45	0x3e203cb3	0.15648155
46	0x3e403c18	0.18772924
47	0xbefe1007	-0.49621603
48	0xc00b5ac4	-2.177415
49	0xbef69e75	-0.48167768
50	0xbd8f5edc	-0.07000515
51	0x3ce113a0	0.027475178
52	0x3e5bc28a	0.2146093
53	0xbf0dbb22	-0.55363667
54	0xbec8ebb5	-0.3924233
55	0x3d3da3e6	0.046298884
56	0x3e909637	0.28239605
57	0x3de0de8e	0.10979949
58	0x3eb8fa58	0.36128497
59	0x3e07ebbb	0.13273518
60	0x3ee917fb	0.45526108
61	0x3d9a83fe	0.07544707
62	0x4045f613	3.0931442
63	0x3d810985	0.06300644
64	0x3e4428e6	0.19156227
65	0x3ecec61b	0.40385517
66	0xbbb665f0	-0.005566351
67	0xbdfdf0e4	-0.12399462
68	0xbc2a1bd7	-0.010382614
69	0x3efc09b6	0.4922616
70	0x3eb9dd8c	0.3630184
71	0xbb566590	-0.0032714345
72	0xbcf87257	-0.030327959
73	0xbe843939	-0.25824907
74	0x3d04423a	0.03228972
75	0x3ddb3554	0.10703531
76	0x3e8e6bc0	0.27816582
77	0x3d8a7ce1	0.067621
78	0xbd0ca85f	-0.03434026
79	0xbeb69331	-0.35659173
80	0x3cf0cdaa	0.029394943
81	0x3f39fff5	0.72656184
82	0xbd7a6e9e	-0.06114065
83	0xbf119bd7	-0.5687842
84	0x3e03578d	0.12826367
85	0xbdea1af6	-0.11430924
86	0x3f6e86f5	0.9317468
87	0x3e86117b	0.26185212
88	0xbfad67ae	-1.3547266
89	0xbe87454a	-0.2642005
90	0xbefe1578	-0.49625754
91	0xbe0c52e8	-0.13703501
92	0x3f916c20	1.1361122
93	0x3c91ea4c	0.017811917
94	0xbe1dbbfd	-0.15403743
95	0x3e842c0f	0.25814864
96	0xbd8d2624	-0.0689204
97	0x402e820c	2.7266874
98	0xb9c987be	-0.00038438843
99	0x3e8fd720	0.28093815
100	0x3e0c3401	0.13691713
101	0x3e2628e7	0.1622654
102	0xbb076443	-0.0020659126
103	0xbe2608de	-0.1621432
104	0xbede3665	-0.43400875
105	0x3ebefc7f	0.37302014
106	0x3e4d48a3	0.2004724
107	0xbea8801e	-0.32910246
108	0x3db0173d	0.08598182
109	0x3ee9c847	0.45660612
110	0x3eba737f	0.36416242
111	0x3fb1723c	1.3862987
112	0x3e19fe75	0.15038474
113	0x3e9015a7	0.2814152
114	0x3e1bf629	0.15230621
115	0x3f0ff9ba	0.5624043
116	0x3c8ea1b9	0.0174111
117	0xbd13d34a	-0.036090173
118	0xbd746e1c	-0.05967532
119	0x3eb451ab	0.35218558
120	0xbd0621a5	-0.03274693
121	0xbe09c15a	-0.13452664
122	0x3e8eadb3	0.27866897
123	0xbe150355	-0.14552052
124	0x3c5e97a2	0.013585957
125	0xbdd8de31	-0.10589255
126	0xba829a98	-0.0009964285
127	0xbe48047b	-0.19532959
128	0x3de3834b	0.111090265
129	0x3d0359e2	0.03206814
130	0xbf1d3d29	-0.6142145
131	0x3ea10483	0.31448755
132	0xbf00f9f1	-0.5038138
133	0x3f0a1544	0.539387
134	0x3cfb4850	0.03067413
135	0x3e0757df	0.13217114
136	0x3e632766	0.22182998
137	0x3fa1004c	1.2578216
138	0xbe1ed371	-0.15510346
139	0x3e377db9	0.17919053
140	0x3e0807c3	0.13284211
141	0x3e9cfc3f	0.30661198
142	0xbe92f684	-0.28703701
143	0x3e9e5590	0.30924654
144	0xbef0ec45	-0.4705526
145	0x3d1b3b09	0.037898097
146	0xbfa1250c	-1.2589431
147	0xbf0b2647	-0.5435528
148	0x3f00dd89	0.50338036
149	0xbe93eac5	-0.28890052
150	0x3f0caab0	0.5494795
151	0xbe60b8ff	-0.2194557
152	0xbf146fb6	-0.5798296
153	0xbe6da570	-0.2320764
154	0x3ee6b104	0.45056927
155	0x3de54d3b	0.11196371
156	0x3ef49840	0.47772408
157	0x3e0694f5	0.1314276
158	0xbd13f20d	-0.03611951
159	0x3d45a804	0.048255935
160	0x4052d37a	3.2941575
161	0x3e98b5c1	0.29826167
162	0x3e51d88d	0.20492764
163	0x3f406023	0.75146693
164	0x3e8affc8	0.2714827
165	0x3e96c056	0.29443616
166	0xbda1b664	-0.078961164
167	0x3e407007	0.18792735
168	0x3e0af795	0.13571008
169	0x3e7356c5	0.23763569
170	0xbf033161	-0.5124722
171	0x3e97e177	0.29664204
172	0x3ea13fde	0.3149404
173	0xbd01960d	-0.03163724
174	0x3d32797b	0.043572884
175	0x3e4f8d05	0.20268638
176	0x3e19dcde	0.1502566
177	0x3e65ad09	0.22429289
178	0x3e8df543	0.27726182
179	0x3ec53a53	0.3852106
180	0x3e6476a4	0.22310883
181	0xbf12ad45	-0.5729564
182	0xbd88d262	-0.06680752
183	0xbebc8497	-0.36819908
184	0x3f7caccc	0.9870117
185	0x3cce4dfe	0.025183674
186	0xbf7ac438	-0.97955656
187	0xbdc3bfd3	-0.09558072
188	0xbf21d4be	-0.63215244
189	0x3ea62162	0.32447344
190	0x3fa19ebf	1.262657
191	0x3e56e40d	0.20985432
192	0x3e6acb9c	0.22929233
193	0x3f112ac7	0.567059
194	0xbea8c115	-0.3295981
195	0x401f94f4	2.4934664
196	0x3ead3ba7	0.33834574
197	0x3eba0232	0.363298
198	0xbd958a46	-0.07301764
199	0x3dfceed0	0.12350237
200	0x3e95e43c	0.29275692
201	0x3f05de84	0.52292657
202	0xbd55dab8	-0.05221054
203	0x3de363be	0.11103009
204	0xbe1ac387	-0.1511365
205	0x3ea56c1d	0.32309046
206	0x3f75193a	0.9574162
207	0xbe7caf4d	-0.24676247
208	0x3e6e531e	0.23273894
209	0x3c68af0f	0.0142018935
210	0xbc7cb74e	-0.015424563
211	0x3db6c528	0.08924323
212	0x3ea09c1e	0.31369108
213	0xbe65f2e9	-0.22455944
214	0xb9835e91	-0.00025056725
215	0x3def879f	0.116957895
216	0xbd3a3e3e	-0.045469515
217	0x3e0ab4cc	0.13545531
218	0xbf15b5b3	-0.58480376
219	0x3dba3c19	0.09093494
220	0xbedffab0	-0.43745947
221	0xbe91a047	-0.28442594
222	0xbc7fe0f6	-0.0156176
223	0x3e76da4a	0.24106708
224	0x3e9bc7b1	0.3042579
225	0xbe809449	-0.25113133
226	0xbd18e278	-0.037325352
227	0x3d28dcf6	0.04122635
228	0x3f4f7c28	0.8104882
229	0x3c6177fb	0.013761516
230	0x3de3ff45	0.11132673
231	0x3dd7a606	0.10529713
232	0x3dc55939	0.096361585
233	0xbe3deef5	-0.18548186
234	0x3e4b8d13	0.19878034
235	0xbf8a433e	-1.0801771
236	0x3dc546dc	0.09632656
237	0x3fb249ef	1.3928813
238	0x3e436060	0.19079733
239	0xbeab7f58	-0.33495593
240	0x3e4942fe	0.19654462
241	0xbe14344a	-0.14473072
242	0xbdedc67a	-0.11610122
243	0xbdaa8fae	-0.08328186
244	0x408a7011	4.32618
245	0x3edd63cb	0.43240198
246	0xbeba0e45	-0.36339012
247	0x3df0d89e	0.117600664
248	0xbe36284b	-0.17788808
249	0x3eceb268	0.40370488
250	0x3f43c196	0.76467264
251	0xbe7b16fe	-0.2452049
252	0x3d6a016c	0.057130262
253	0xbdd0f497	-0.10202902
254	0x3dadb2f9	0.08481402
255	0x3e82f08c	0.25574148

h_1.modlist.0.modlist.0.bias f4 [18]
0	0x3ed06718	0.40703654
1	0x3f0b0f7e	0.54320514
2	0xbf3eea3b	-0.7457616
3	0x3f069eb3	0.52585906
4	0x3ec031f3	0.37538108
5	0xbffd01e0	-1.9766197
6	0xc022cf01	-2.5438845
7	0x3f82df4c	1.0224395
8	0xbf898d6e	-1.0746286
9	0x404cc3c1	3.1994479
10	0xbff41c20	-1.9071083
11	0xbe437458	-0.1908735
12	0xc01c49fd	-2.442016
13	0x401194e7	2.2747133
14	0x3fedbab3	1.8572601
15	0xbdf6d691	-0.12052644
16	0x3fa4414b	1.2832426
17	0x3e183de3	0.14867358
