2WL_link_pred/checkpoint/archive/20221213_02/20221213_034339_2WL_dict.pt (torch, 71148 bytes, 17 tensors)

weight f4 [48, 1]
0	0xbe52325a	-0.2052702
1	0x3e9f734b	0.3114265
2	0xbf4d5c45	-0.8021892
3	0x3f8214d8	1.0162611
4	0xbe49f894	-0.19723731
5	0x3f67f609	0.90609795
6	0xbe06fd61	-0.13182594
7	0x3f17a42d	0.5923489
8	0xbea1ad69	-0.31577614
9	0x3f38ccfc	0.7218778
10	0x3e984139	0.2973726
11	0xbf2b85c7	-0.67001003
12	0xbdde18b0	-0.108445525
13	0xbea6bfa1	-0.32568076
14	0xbe6f85b9	-0.23390855
15	0x3f4425f1	0.76620394
16	0xbf41807e	-0.7558669
17	0xbf417447	-0.7556805
18	0x3eb2f039	0.349489
19	0x3e321e43	0.17394356
20	0x3f063cb7	0.52436393
21	0xbe305615	-0.17220338
22	0xbe82a97a	-0.25519925
23	0xbe74b0e5	-0.23895605
24	0xbe52fee2	-0.20605043
25	0x3e6bf040	0.23040867
26	0x3f257d5e	0.6464442
27	0x3e9628e1	0.29328063
28	0xbf5cb6e6	-0.8621658
29	0x3e984304	0.2973863
30	0xbf42bde4	-0.76071
31	0x3f01c445	0.5069011
32	0x3e90bae3	0.28267583
33	0x3ec3992a	0.38202792
34	0xbf3b892f	-0.732562
35	0xbf51de17	-0.8197951
36	0x3f41e295	0.7573636
37	0x3e9922bd	0.29909316
38	0xbf5b3600	-0.8562927
39	0x3f14226d	0.5786503
40	0xbf6572f0	-0.89628506
41	0x3e697d8a	0.22801796
42	0xbe4004ce	-0.18751833
43	0xbeb6cfea	-0.357055
44	0x3e97ef01	0.29674533
45	0x3eb7bd74	0.3588673
46	0x3f0bded9	0.54636914
47	0xbf034f1e	-0.512926

bias f4 [48]
0	0x3f281df2	0.6567069
1	0xbf58e2bb	-0.84720963
2	0x3e115200	0.14191437
3	0x3b6e2c0e	0.0036342177
4	0x3f2216e5	0.63316184
5	0x3d50a756	0.050940834
6	0x3f6b67c6	0.9195522
7	0xbde99167	-0.114046864
8	0x3f5b9c5d	0.85785466
9	0xbd80a703	-0.06281855
10	0xbfa15b73	-1.2606033
11	0x3e8eb68f	0.27873656
12	0x3f705a19	0.9388748
13	0x3f866183	1.0498508
14	0x3f4eeb75	0.8082803
15	0x3d03f5dc	0.03221689
16	0x3e1b8b99	0.15189971
17	0x3dd848ee	0.10560785
18	0xbef980e1	-0.4873114
19	0xbf82526e	-1.0181406
20	0xbe46761d	-0.19380994
21	0x3f91a56d	1.1378609
22	0x3f872cad	1.0560509
23	0x3f78f198	0.9724364
24	0x3f8c4e57	1.0961407
25	0xbf686b19	-0.9078842
26	0x3f2ac401	0.6670533
27	0xbf6df40c	-0.9295051
28	0x3e5ab1d3	0.21356897
29	0xbec7d7e2	-0.39031893
30	0x3e1dbcd7	0.15404068
31	0x3f00c554	0.503011
32	0xbf15d8c9	-0.5853391
33	0xbeb61e78	-0.3557012
34	0x3e3dc5cf	0.18532489
35	0xbd21f832	-0.039543338
36	0x3c96b2ca	0.0183958
37	0xbf44163e	-0.7659644
38	0x3e46217e	0.19348714
39	0xbe406b31	-0.1879089
40	0x3de3afbb	0.11117502
41	0xbf1446ac	-0.57920337
42	0x3f1c2b5f	0.6100368
43	0x3f6aa966	0.9166473
44	0xbfafeb00	-1.3743591
45	0xbfa0c831	-1.2561094
46	0x3f38ae4f	0.72140974
47	0x3e8b3b37	0.27193615

weight f4 [5, 48]
0	0x401199f3	2.2750213
1	0x3d150b08	0.036387473
2	0x3f76c04c	0.9638717
3	0x3f6c0c20	0.92206
4	0x3ecfa649	0.40556553
5	0xbeea71bc	-0.45789897
6	0x3fd1e2c0	1.6397324
7	0x3f857375	1.042586
8	0x3ec21f23	0.3791438
9	0x3fb7b58d	1.435228
10	0x3f510795	0.81652194
11	0x3e92f6ff	0.28704068
12	0x40141be8	2.3142033
13	0xbf75a2e6	-0.9595169
14	0x3edd21bc	0.431898
15	0x3fce28bc	1.6106181
16	0xbfed4bfb	-1.8538812
17	0xbda378f0	-0.07982051
18	0x3f4e23fb	0.8052365
19	0xbf0be8da	-0.5465218
20	0xbfb51347	-1.4146508
21	0xbfd06d8a	-1.6283429
22	0xbdd69a3f	-0.10478639
23	0xbf8ad299	-1.0845519
24	0xbedf80df	-0.43653008
25	0x3f87bd01	1.0604554
26	0xbf222a4e	-0.633458
27	0x3fd2e25b	1.6475328
28	0x3ee34cd3	0.4439455
29	0xbf0a7506	-0.54084814
30	0x3e50eb85	0.20402344
31	0xbd8cbda8	-0.068721116
32	0x3f9e1a2e	1.235174
33	0x3f4abbfa	0.7919308
34	0x3ea04171	0.31299928
35	0xbebf827e	-0.37404245
36	0xbf9250b6	-1.1430881
37	0x3f81dbcc	1.0145202
38	0xbfc85ebf	-1.5653914
39	0xbea59a37	-0.3234422
40	0x3ebe0b3c	0.37117946
41	0xbef9b4c2	-0.4877072
42	0x3f404491	0.75104624
43	0x3fa58284	1.2930455
44	0xbf2503a3	-0.64458674
45	0x3efc7aa1	0.49312308
46	0x3e04973a	0.12948313
47	0x3e6e3afc	0.23264688
48	0xbfb660c8	-1.4248285
49	0x3f601abf	0.8754081
50	0xbdd82047	-0.105530314
51	0xbe8fd092	-0.28088814
52	0x3f909df8	1.1298208
53	0xbee3c029	-0.44482544
54	0x3f1b5924	0.6068289
55	0xbf1d0e75	-0.61350185
56	0x3edc29bd	0.43000594
57	0x3fdb4c2e	1.7132623
58	0x3eb409b8	0.35163665
59	0x3e2e53ea	0.17024198
60	0x3f69c48b	0.91315526
61	0xbe2147d4	-0.15750057
62	0x3cd41614	0.025889434
63	0xbf746369	-0.9546419
64	0xbf806821	-1.0031778
65	0xbfb9d37a	-1.4517663
66	0x3e330036	0.17480549
67	0xbfebcafa	-1.8421319
68	0x3e8be74a	0.27324897
69	0x3f2212a3	0.6330969
70	0x3faa7573	1.3317093
71	0x3f717489	0.94318444
72	0x3fa134f4	1.2594285
73	0xbf0c053b	-0.5469548
74	0x4004b98b	2.0738246
75	0x3f341e3d	0.7035864
76	0xbfe99892	-1.8249686
77	0x3fcb490e	1.588167
78	0xbe3cb9af	-0.18430208
79	0x3e72d74d	0.23714943
80	0x3dc4c07e	0.096070275
81	0x3f412055	0.7543996
82	0x3ef87c23	0.4853221
83	0x3f12c0c7	0.57325405
84	0x3f51d364	0.8196318
85	0xc018382e	-2.378429
86	0xbfa19dad	-1.2626244
87	0x3f0a9a8f	0.5414209
88	0xbfed3f7b	-1.8534998
89	0xbf238a1a	-0.638826
90	0xbf5a442c	-0.8526027
91	0x3f975bd9	1.1824905
92	0xbc48acd3	-0.012248236
93	0xbf261164	-0.64870286
94	0x3cd672f7	0.026177866
95	0x3f8a3db6	1.0800083
96	0x3e092ddd	0.13396402
97	0xbee94e81	-0.45567706
98	0x3e0aa236	0.13538441
99	0xbcda47e4	-0.026645608
100	0xbdf6cebd	-0.12051151
101	0x3f72dc39	0.94867283
102	0x3ebf8d28	0.3741238
103	0x3f096a45	0.5367778
104	0x3ef218ac	0.47284448
105	0x3de8fd26	0.11376409
106	0x3f546cb6	0.8297838
107	0x3f6f7ee4	0.93552995
108	0x3fdb0a95	1.7112604
109	0x3f28cece	0.6594056
110	0x3f22989e	0.63514125
111	0x3f75f096	0.9607023
112	0xbf7c9942	-0.9867135
113	0xbf038bb7	-0.5138506
114	0x3eb10fe4	0.34582436
115	0xbe84ca6f	-0.25935695
116	0x3f56df99	0.8393493
117	0xbf246cf1	-0.6422873
118	0x3df0aba3	0.11751487
119	0xbe0d36b3	-0.13790397
120	0x3ef418d0	0.4767518
121	0x3b9c8e0b	0.004777675
122	0xbf3f3de0	-0.7470379
123	0x3e6c373d	0.23067947
124	0xbfc0c90b	-1.5061353
125	0xbdacd1ac	-0.08438429
126	0xbfa0eeb8	-1.2572851
127	0x3fcae255	1.5850321
128	0xbf39b5e0	-0.72543144
129	0xbed41846	-0.4142477
130	0xbf0e7850	-0.5565233
131	0x3fc49196	1.5356929
132	0x3e3c4bdc	0.18388313
133	0x3fc07f75	1.5038897
134	0x3f54c697	0.83115524
135	0xbf185f2c	-0.5952022
136	0xbcbb45fa	-0.022860516
137	0x3f542d55	0.8288167
138	0xbf9c7ff0	-1.2226543
139	0x3cf31e0b	0.029677412
140	0x3dbdc10a	0.09265335
141	0xbf619f17	-0.88133377
142	0xbe9f2aae	-0.3108725
143	0x40013724	2.0189905
144	0xc00e8626	-2.2269378
145	0x3f1663a9	0.5874582
146	0xbdd6f884	-0.10496619
147	0x3f2fe429	0.6870752
148	0xbf336be1	-0.70086485
149	0xbf48056b	-0.7813327
150	0xbf99ccdf	-1.2015647
151	0x3ede041c	0.4336251
152	0xbe86d61f	-0.26335236
153	0x3f79c56f	0.97566885
154	0x3fd65624	1.6745038
155	0x3ee558aa	0.44794208
156	0xc0144e09	-2.317263
157	0x3ed2c8e9	0.41168907
158	0xbdb4e1b9	-0.08832116
159	0x3fa8d951	1.319132
160	0x3fe634f2	1.7984908
161	0xbf6088c1	-0.8770867
162	0x3eabf3bc	0.33584392
163	0xbf9999e5	-1.200009
164	0x3efa25fb	0.48857102
165	0xbcecac3a	-0.028890718
166	0xbe5565bf	-0.20839594
167	0x3ea04664	0.31303704
168	0xbf8450e7	-1.033719
169	0x3fbddc87	1.4832925
170	0xbf7baf11	-0.98314005
171	0x3f90aa87	1.1302041
172	0xbf907695	-1.1286188
173	0xbfc8b309	-1.5679637
174	0x3f3a69bb	0.7281758
175	0xbef65ff7	-0.4812009
176	0xbfd8ea08	-1.6946421
177	0x3f646a22	0.89224446
178	0x400fb31b	2.2453067
179	0x3efb4473	0.4907566
180	0xbf8f1715	-1.1178919
181	0x3f31dd46	0.6947826
182	0xbf9b2e1d	-1.2123448
183	0xc017b40f	-2.370365
184	0x3f4734ca	0.77814925
185	0xbeb8d49c	-0.36099708
186	0xc0131b5e	-2.2985454
187	0xbf868b01	-1.0511171
188	0xbe25115a	-0.161199
189	0x3e31dcab	0.17369334
190	0x3f65e0e0	0.89796257
191	0x3d2be0b9	0.04196236
192	0xbe1fb5d6	-0.15596709
193	0x3c9b183d	0.018932456
194	0x3eb61a2e	0.3556685
195	0x3effecfb	0.4998549
196	0x3f542881	0.82874304
197	0xbed99d98	-0.42503047
198	0x3f6211c5	0.88308364
199	0xbd9daabf	-0.07698583
200	0xbf2d7bed	-0.6776722
201	0x3e01d900	0.12680435
202	0x3fd57dba	1.6678994
203	0x3f8199f9	1.0125114
204	0xbf2d305d	-0.6765192
205	0xbfd56320	-1.6670876
206	0xbf85a676	-1.0441425
207	0xbf5ce73d	-0.8629034
208	0x3da72ee2	0.08163239
209	0xbe28ef15	-0.16497453
210	0xbf9081bd	-1.1289593
211	0xbf63ce4d	-0.88986665
212	0x3f939f55	1.1532999
213	0x3fc32bc3	1.524773
214	0x3f92bf3a	1.1464608
215	0xbfd05f1f	-1.6279029
216	0x3fa3f5fd	1.2809445
217	0xbf1d6f7f	-0.61498255
218	0xbb05f272	-0.0020438698
219	0xbeadf968	-0.33979344
220	0x3f0666cd	0.5250061
221	0x3f439107	0.7639317
222	0x3fb4221d	1.407291
223	0x3e8790f1	0.2647777
224	0x3f49264d	0.7857407
225	0x3f8234ad	1.0172325
226	0xbf96632d	-1.1749016
227	0x3efc7831	0.4931045
228	0x3f1733ab	0.59063214
229	0x3f79976c	0.97496676
230	0x3fa0737d	1.2535244
231	0x3f6ae03e	0.91748416
232	0xbc9a9b95	-0.018873015
233	0xc02e4ebb	-2.7235553
234	0x3fe631aa	1.7983906
235	0x3ec490bc	0.38391674
236	0x3edf703c	0.43640316
237	0xbfa18c76	-1.262099
238	0xbd9178d4	-0.07103124
239	0x3eccaa78	0.39973807

weight f4 [48, 48]
0	0xbe0834db	-0.13301413
1	0x3dd268ca	0.10273893
2	0x3e29611d	0.16540952
3	0xbeb1639a	-0.34646302
4	0x399599d6	0.0002853411
5	0xbde71775	-0.11283771
6	0xbd8cd322	-0.06876208
7	0x3ec1e756	0.37871808
8	0xbe755528	-0.23958266
9	0x3c4c086a	0.012453178
10	0x3e708d2f	0.23491357
11	0xbe4e2fab	-0.20135371
12	0xbdbebb29	-0.09313042
13	0xbdf7ed35	-0.121057905
14	0xbd0e1a45	-0.03469302
15	0xbe49ca8d	-0.19706173
16	0x3eb23ec0	0.348135
17	0xbdbe67d2	-0.09297146
18	0x3cdd2e1a	0.026999522
19	0x3e743d94	0.23851615
20	0x3df8abab	0.12142118
21	0xbe1cf0c3	-0.15326218
22	0xbe615907	-0.22006617
23	0xbd5f9412	-0.05458457
24	0x3d084a3e	0.033273928
25	0xbc81d8aa	-0.015850384
26	0xbe1fa13c	-0.1558885
27	0x3e69bb38	0.22825325
28	0x3d899a72	0.06718911
29	0x3e377728	0.17916548
30	0xbe41358d	-0.18868084
31	0xbe463bc1	-0.19358732
32	0x3e8fbb6a	0.28072673
33	0xbb3396b4	-0.0027403058
34	0x3dac4cc7	0.084130816
35	0x3d1adb7f	0.037806984
36	0x3c0d3be6	0.008620238
37	0x3d9fa0e9	0.07794363
38	0x3c4e4179	0.012588852
39	0x3d819f48	0.063292086
40	0xbe8f7b26	-0.28023642
41	0x3d7033fe	0.058643334
42	0xbe83adec	-0.2571863
43	0xbdfbb156	-0.122896835
44	0x3d90cd53	0.070704125
45	0x3dd6bc45	0.10485128
46	0xbd4ecaa7	-0.050486233
47	0xbe5cee86	-0.21575364
48	0x3e1a0d76	0.15044197
49	0xbd46f4e6	-0.048573397
50	0x3f45cc1b	0.77264565
51	0xbe51aa06	-0.20475015
52	0xbc94b7ff	-0.018154142
53	0xbe383bd8	-0.17991579
54	0xbed2ab49	-0.41146305
55	0xbf1348dc	-0.5753305
56	0xbe0efd02	-0.13963702
57	0xbead5c15	-0.33859316
58	0x399aa9b0	0.00029499596
59	0x3dea380a	0.1143647
60	0xbc83ecc6	-0.016104113
61	0x3e296cbb	0.16545384
62	0xbd02925d	-0.031877864
63	0xbe3e210d	-0.18567295
64	0x3e02958b	0.12752359
65	0x3e710bd0	0.23539662
66	0x3dfecc0e	0.12441264
67	0x3e675845	0.22592266
68	0x3d15e24a	0.03659276
69	0xbe8f155b	-0.2794598
70	0xbe4f42cd	-0.20240326
71	0xbe956f94	-0.2918669
72	0xbcecfe38	-0.028929815
73	0x3dd0b626	0.10190992
74	0xbe91ab89	-0.28451183
75	0x3e1a1531	0.15047146
76	0x3e64deed	0.22350664
77	0xbdd99768	-0.106245816
78	0xbe4189b7	-0.1890019
79	0xbe9f65ee	-0.31132454
80	0x3dc06b67	0.09395485
81	0x3eaa03c5	0.33206
82	0x3f10f56a	0.5662447
83	0xbc8462db	-0.01616042
84	0xbf04e325	-0.51909095
85	0x3ccb2b63	0.024800962
86	0x3ea38135	0.31934515
87	0x3dff2706	0.12458615
88	0x3f4a45a8	0.79012537
89	0x3ca53379	0.020166146
90	0x3e0345cf	0.12819599
91	0x3cb9f0ff	0.022697924
92	0x3e12b54c	0.14326972
93	0x3ece3148	0.40271974
94	0xbbd859aa	-0.0066024857
95	0x3e71254b	0.23549382
96	0xbd9d3580	-0.0767622
97	0xbd01d40b	-0.03169636
98	0xbe3ca837	-0.18423544
99	0x3da8700b	0.082244955
100	0xbd5410de	-0.0517739
101	0x3c57cd94	0.013171572
102	0x3c2fee39	0.010737949
103	0x3e0f1c3a	0.13975611
104	0x3ce24d6f	0.027624814
105	0x3ce56591	0.028002532
106	0x3d873468	0.066017926
107	0xbcaa6f7c	-0.020805113
108	0xbd99a8cf	-0.07502901
109	0x3d405638	0.046957225
110	0x3d49f144	0.049302354
111	0xbbe48a4f	-0.0069744955
112	0xbda59958	-0.080858886
113	0x3e6c8a2c	0.23099583
114	0xbd49cd4c	-0.049268052
115	0x3d7ff349	0.062487874
116	0x3df9d587	0.1219893
117	0x3d5665c8	0.05234316
118	0xbe18c5d1	-0.14919211
119	0xbe1ab4a7	-0.15107976
120	0xbdd2c204	-0.10290912
121	0x3dde15ed	0.10844026
122	0xbe3172d7	-0.17328964
123	0x3d6cd668	0.05782166
124	0x3dfcda67	0.123463444
125	0xbd44fc64	-0.04809226
126	0x3dbeabcb	0.09310111
127	0xbde219a0	-0.11040044
128	0x3bf821d5	0.0075723925
129	0xbd6d518b	-0.057939094
130	0x3d8c3305	0.06845669
131	0xbd94cfa7	-0.07266169
132	0xbe773355	-0.24140675
133	0xbc45fd0a	-0.012084255
134	0x3d8d2004	0.06890872
135	0x3de9a654	0.11408678
136	0x3e0137a3	0.1261888
137	0x3bba3201	0.0056822305
138	0xbcd1b4cb	-0.025598904
139	0xbe41fc1a	-0.18943825
140	0x3c5fe7bf	0.013666092
141	0x3d18dccb	0.03731994
142	0xbcb24fa8	-0.021766499
143	0x3da56777	0.08076375
144	0xbe43a56c	-0.19106072
145	0xbc7cd5c6	-0.015431827
146	0x3e61a617	0.22036014
147	0x3d9f9df8	0.07793802
148	0xbde0acad	-0.10970435
149	0xbe29f4cc	-0.16597289
150	0xbcbc7efc	-0.02300977
151	0x3da6f2a9	0.081517525
152	0xbc0618db	-0.008184637
153	0x3e3d0a4e	0.18460962
154	0x3bc78e2d	0.0060899467
155	0xbe18d42e	-0.1492469
156	0xbe3e8527	-0.18605481
157	0xbe0b6eb8	-0.13616455
158	0xbcab6b4d	-0.020925188
159	0xbe901701	-0.2814255
160	0x3dcac863	0.09901502
161	0x3e4b22ca	0.1983749
162	0x3d229c3d	0.03969978
163	0x3d8a3e6b	0.067501865
164	0x3d18942f	0.037250694
165	0xbd8d72e7	-0.069066815
166	0xbe0255dd	-0.12728067
167	0x3d893775	0.06700031
168	0xbc09fb7f	-0.008421778
169	0x3e3127fd	0.1730041
170	0xbe0c7648	-0.13716996
171	0xbd8f948c	-0.07010755
172	0x3e13d1b3	0.14435463
173	0x3c122e1e	0.008922128
174	0x3e0ccee2	0.13750795
175	0x3d692228	0.05691734
176	0x3cdfd2d9	0.02732222
177	0x3e3ffad5	0.18748029
178	0xbdbf25d6	-0.093333885
179	0xbded0b0a	-0.11574371
180	0xbe4ea082	-0.20178416
181	0x3e3d78f3	0.1850317
182	0x3daf65b4	0.0856432
183	0x3d1f09e1	0.03882778
184	0x3acb39e5	0.0015504925
185	0x3d2cb12e	0.04216116
186	0xbcf2b6b4	-0.029628135
187	0xbe0268eb	-0.12735336
188	0xbc9d7d94	-0.01922492
189	0x3dbf0b9b	0.093283854
190	0x3d66e56f	0.05637115
191	0x3d6efa73	0.058344316
192	0xbdd270be	-0.1027541
193	0x3e842846	0.25811976
194	0x3fa28962	1.2698176
195	0xbe38b760	-0.18038702
196	0xbd899fc7	-0.06719928
197	0xbd543d70	-0.051816404
198	0xbf330016	-0.69922006
199	0x3c86e6df	0.01646751
200	0x3d99614d	0.07489262
201	0xbe863e7f	-0.26219556
202	0x3f33c251	0.7021838
203	0x3f0054c5	0.5012935
204	0x3d4ce1ad	0.05001991
205	0x3ef82ae8	0.48470235
206	0xbe3cc8ab	-0.18435924
207	0xbf8345ec	-1.0255713
208	0x3f4a1c45	0.78949386
209	0x3f52f5c6	0.8240627
210	0x3d8ccac7	0.06874614
211	0xbeb1d827	-0.34735224
212	0xbcde418c	-0.027130865
213	0xbe6010b1	-0.21881367
214	0xbe92c6ad	-0.28667203
215	0xbe3af500	-0.18257523
216	0x3d7af28f	0.06126648
217	0xbdeef49b	-0.116677485
218	0x3d0c6cb9	0.034283374
219	0x3f02cab4	0.5109055
220	0x3f1488e0	0.58021355
221	0x3e06d321	0.13166477
222	0x3f2ce808	0.6754155
223	0xbe34dd32	-0.17662504
224	0x3eb11716	0.34587926
225	0x3e93c101	0.28858188
226	0x3e6e3b15	0.23264726
227	0x3db6cb9b	0.089255534
228	0xbf892c6f	-1.0716685
229	0x3eb75841	0.3580952
230	0x3eb51e81	0.35374835
231	0x3ed9ec69	0.4256318
232	0xbe167249	-0.14692034
233	0xbe3407da	-0.1758112
234	0x3e0038ae	0.12521622
235	0xbdb40427	-0.087898545
236	0x3f921f20	1.1415749
237	0xbeae750d	-0.34073678
238	0xbf218891	-0.6309901
239	0xbe878b9f	-0.2647371
240	0x3e98b56a	0.29825908
241	0xbda7cfdc	-0.08193943
242	0xbef97c7a	-0.4872778
243	0x3d9d0d4e	0.07668553
244	0xbe654a7e	-0.22391698
245	0x3dfb5910	0.12272847
246	0x3d95f357	0.07321804
247	0x3a12bf40	0.00055979565
248	0xbe29036a	-0.16505209
249	0xbe870c09	-0.2637637
250	0x3d14f5b7	0.036367144
251	0x3dd7448e	0.10511123
252	0x3dd66bdc	0.10469791
253	0xbd54e824	-0.0519792
254	0x3d833dd6	0.06408279
255	0xbd8ebab7	-0.06969207

bias f4 [48]
0	0xbe107837	-0.14108358
1	0xbeb15341	-0.3463383
2	0xbd76040d	-0.060062457
3	0xbe0f3cc9	-0.13988031
4	0x3edf8897	0.43658897
5	0xbe360bc5	-0.17777927
6	0x3fbd8812	1.480715
7	0xbe074a00	-0.13211823
8	0x3f7e030c	0.992234
9	0x3ea89afb	0.3293074
10	0xbe3f2be7	-0.18669091
11	0xbebe5c5d	-0.37179843
12	0x3e8500f4	0.2597729
13	0x3ea06689	0.31328228
14	0x3d1fe47f	0.03903627
15	0x3f5d75c4	0.8650782
16	0xbd070498	-0.032963365
17	0x3ee45db6	0.44602746
18	0x3f982aaa	1.188802
19	0x3cbc0230	0.022950262
20	0xbe0ccdc4	-0.13750368
21	0x3eb4fe54	0.35350287
22	0x3f4378b4	0.76356053
23	0x3e57173d	0.21004958
24	0xbd76e578	-0.060277432
25	0x3ebbda08	0.36689782
26	0x3e605116	0.21905932
27	0x3f1c29cf	0.61001295
28	0xbda4d7bd	-0.08048961
29	0x3d671b32	0.05642242
30	0xbe30c9a4	-0.1726442
31	0x3fb5dde2	1.4208338
32	0xbeed6d75	-0.46372572
33	0xbd782fa8	-0.060592324
34	0xbe340e49	-0.17583574
35	0x3ef40458	0.47659564
36	0x3efec51c	0.49759758
37	0xbe2cd222	-0.16877034
38	0x3f47562d	0.7786587
39	0x3e925884	0.28583157
40	0x3d3159f2	0.04329867
41	0xbd5bb99f	-0.05364382
42	0x3bcbd423	0.006220357
43	0xbe1f7838	-0.15573204
44	0x3eaa7a68	0.33296514
45	0xbae76b11	-0.001765581
46	0xbe448395	-0.1919082
47	0x3e130c93	0.14360265

weight f4 [48, 48]
0	0x3cea517c	0.028603308
1	0xbd26d5a3	-0.040731084
2	0x3c8b4980	0.017002821
3	0xbd83c068	-0.06433183
4	0x3db58cbb	0.08864733
5	0xbdf628db	-0.12019511
6	0xbdd2fa9e	-0.10301708
7	0xbde32805	-0.110916175
8	0x3d87d319	0.066320606
9	0xbd89a6cc	-0.06721267
10	0x3e861222	0.2618571
11	0x3dd731fb	0.1050758
12	0xbe6e5878	-0.23275936
13	0xbda36b87	-0.079794936
14	0xbdedaf99	-0.11605758
15	0xbdb60b74	-0.08888903
16	0x3ce7471d	0.028232152
17	0x3ee2f7da	0.4432972
18	0x3d7619f9	0.060083363
19	0x3e30a8f0	0.17251945
20	0x3e0dcb94	0.1384719
21	0x3d3aed50	0.045636475
22	0xbd355ec5	-0.044279832
23	0xbca8e65e	-0.02061766
24	0xbe7e4c1e	-0.24833724
25	0xbccb89ea	-0.024846036
26	0x3d2dd00b	0.042434733
27	0xbda64943	-0.08119442
28	0x3e70366e	0.23458263
29	0x3e7fb37f	0.24970816
30	0x3e9178fa	0.2841261
31	0xbe623955	-0.22092183
32	0x3d63b525	0.055592675
33	0xbea7a5c7	-0.32743666
34	0x3d984875	0.07435695
35	0x3dc3fad4	0.09569326
36	0xbe6bbdec	-0.23021668
37	0xbc4f4b7b	-0.012652273
38	0x3ec68d38	0.38779616
39	0x3e0f0d0c	0.1396982
40	0x3eae2cb7	0.3401849
41	0x3cd37a37	0.025815113
42	0x3d04d949	0.03243378
43	0x3b2bf270	0.0026237033
44	0x3dae6d47	0.08516937
45	0xbe1cdac3	-0.15317826
46	0xbd39077e	-0.04517316
47	0x3c4d9456	0.012547573
48	0x3ce0fe74	0.027465083
49	0xb99cbd2f	-0.0002989559
50	0x3d3a25cd	0.045446206
51	0x3d8cb875	0.0687112
52	0xbeee7788	-0.4657557
53	0x3bd2dc1c	0.0064349305
54	0xbd020fa0	-0.031753182
55	0x3da48bda	0.08034487
56	0xbda6cedb	-0.08144923
57	0x3db22e00	0.0870018
58	0x3e2ecfa4	0.17071396
59	0x3dbd7975	0.09251682
60	0xbdb6694e	-0.08906804
61	0xbd8e5e6b	-0.069516025
62	0x3d766d56	0.060162865
63	0xbd859f85	-0.065245666
64	0x3d8e86bd	0.06959293
65	0xbda2aa56	-0.07942645
66	0x3dbc7d38	0.09203571
67	0x3e780e7f	0.2422428
68	0x3e44489a	0.1916832
69	0x3dacc9b6	0.08436911
70	0xbe65df1c	-0.2244839
71	0xbe324d8a	-0.17412391
72	0xbe818686	-0.25297946
73	0x3eaba63d	0.33525267
74	0x3cd8bae5	0.026456306
75	0x3e441fdf	0.19152783
76	0xbea5aad0	-0.32356882
77	0x3db4063e	0.08790253
78	0xbe9b5245	-0.30336204
79	0xbec07872	-0.37591892
80	0xbdc881a9	-0.09790356
81	0x3e3855cd	0.1800148
82	0x3e7e4e58	0.24834573
83	0xbe89820a	-0.26857024
84	0xbc96f95a	-0.018429447
85	0xbdcf13b3	-0.10111179
86	0xbe57385b	-0.21017592
87	0x3ec3df7e	0.38256449
88	0x3e8358f9	0.25653818
89	0x3e52bd67	0.20580064
90	0xbe133866	-0.14376983
91	0x3d7e0018	0.06201181
92	0x3e2c6383	0.16834836
93	0xbd81dd00	-0.063409805
94	0xbc9f21d4	-0.01942531
95	0x3d7be562	0.061498053
96	0xbd847cc9	-0.064691134
97	0x3d591b08	0.053004295
98	0x3e6186b4	0.22024041
99	0x3db35ae1	0.08757568
100	0xbe2eee2e	-0.17083046
101	0xbc5259da	-0.012838805
102	0x3d4e2092	0.05032403
103	0x3e361024	0.17779595
104	0xbc8b6ff4	-0.017021157
105	0xbc8a8026	-0.016906809
106	0x3d7e6a28	0.062112957
107	0x3d2eea99	0.0427042
108	0x3d50100e	0.05079656
109	0xbbbed88c	-0.0058241542
110	0xbd81dd67	-0.06341057
111	0xbe06b4d1	-0.13154913
112	0xbd9f7aff	-0.077871315
113	0x3d994dc5	0.074855365
114	0x3e0fbb56	0.14036307
115	0x3e4165f5	0.1888655
116	0x3dc5e266	0.09662323
117	0xbdc9b621	-0.098491915
118	0xbbafe6ec	-0.005368104
119	0x3d40518b	0.046952765
120	0xbd045238	-0.032304972
121	0x3c417d85	0.011809711
122	0xbe1b312a	-0.15155473
123	0x3e041816	0.12899813
124	0xbd92325b	-0.07138511
125	0x3ddfeaf6	0.10933487
126	0xbe4f9c7e	-0.20274541
127	0xbd0fd6f0	-0.03511709
128	0x3d59da57	0.05318674
129	0x3e1d3a52	0.15354279
130	0xbcfc0e35	-0.030768493
131	0xbca22142	-0.01979125
132	0x3dc372fb	0.09543415
133	0x3e46641e	0.19374129
134	0x3dd131b2	0.10214557
135	0xbd089e6d	-0.03335421
136	0x3e25c761	0.16189338
137	0xbdad69b6	-0.084674284
138	0xbe37fbc5	-0.17967136
139	0x3d8e66cc	0.06953201
140	0xbbbc8e76	-0.0057542874
141	0xbceb9f9b	-0.02876263
142	0xbbafb470	-0.005362086
143	0x3d09687c	0.03354691
144	0x3db4310f	0.0879842
145	0x3db118ee	0.08647333
146	0x3d1903a8	0.037357002
147	0x3c92a224	0.01789958
148	0xbd995633	-0.07487144
149	0xbdf416da	-0.11918421
150	0xbe3cc611	-0.18434931
151	0x3d2a2138	0.041535586
152	0x3d0a0422	0.033695348
153	0xb9baf887	-0.00035661852
154	0x3e00a208	0.1256181
155	0x3b360c83	0.0027778454
156	0x3c5f4d5e	0.013629286
157	0x3d590272	0.052980848
158	0xbd0b1fe1	-0.03396595
159	0xbd7e732c	-0.062121555
160	0xbd9f6aec	-0.077840656
161	0x3e090533	0.1338089
162	0x3ca04630	0.019564718
163	0x3ce3ce09	0.027808206
164	0x3e18f497	0.14937054
165	0xbd3c2fe3	-0.045944106
166	0xbe1fbd11	-0.15599467
167	0x3db25b27	0.08708792
168	0x3d69fd82	0.05712653
169	0x3d0d6675	0.03452154
170	0xbd3207df	-0.043464538
171	0x3e33ad43	0.17546563
172	0x3e925402	0.28579718
173	0x3e1286ea	0.14309278
174	0x3e18f140	0.1493578
175	0x3c308bdd	0.0107755335
176	0x3decb1e9	0.11557371
177	0x3cce2987	0.025166286
178	0x3e0008f7	0.1250342
179	0xbd3808d6	-0.0449303
180	0xbe5b6a36	-0.21427235
181	0x3b613a5d	0.0034367063
182	0x3e133682	0.14376262
183	0x3d51d53a	0.05122874
184	0x3e047d6f	0.12938474
185	0xbc8cfa2e	-0.017209139
186	0xbe076da1	-0.13225414
187	0xbc535399	-0.012898349
188	0xbda85701	-0.0821972
189	0xbdc03902	-0.093858734
190	0xbe1415cb	-0.14461438
191	0x3d63ae49	0.055586133
192	0xbdc252f1	-0.09488476
193	0x3db61f3c	0.08892676
194	0xbec4d48f	-0.3844342
195	0x3f0fabe9	0.5612169
196	0x3e4dd2d0	0.2009995
197	0x3f079481	0.52960974
198	0x3de518d0	0.11186373
199	0xbeaf27de	-0.34210104
200	0xb9d6c11f	-0.00040961147
201	0x3d338750	0.043830216
202	0xbe278185	-0.16358002
203	0xbe2df3b9	-0.16987504
204	0x3e4434cf	0.1916077
205	0xbcec06e0	-0.028811872
206	0xbe7a5e51	-0.24450041
207	0x3eaa9a42	0.33320814
208	0xbedcda20	-0.43135166
209	0x3e18ac1a	0.14909402
210	0xbd82a31d	-0.06378768
211	0x3dabc144	0.08386472
212	0x3d968f3a	0.07351537
213	0x3e21536c	0.15754479
214	0xbe426366	-0.1898323
215	0xbdee6b77	-0.11641591
216	0x3e2553be	0.16145226
217	0xbe182b6d	-0.14860316
218	0x3d6fab4f	0.058512982
219	0x3ce108ce	0.027470019
220	0xbe72338a	-0.23652473
221	0xbe7b5557	-0.24544273
222	0xbe656175	-0.22400458
223	0x3e1ae088	0.15124714
224	0x3d678eab	0.056532543
225	0x3ca0e35e	0.019639667
226	0xbeab4994	-0.33454573
227	0xbd0588f1	-0.0326013
228	0x3f0a2234	0.5395844
229	0x3e142b87	0.1446973
230	0xbe030d16	-0.1279796
231	0x3e0177ce	0.12643358
232	0x3de46e0d	0.11153803
233	0x3e9d02fa	0.30666333
234	0x3ccaf758	0.024776146
235	0x3edb2311	0.4280019
236	0xbe88a824	-0.2669078
237	0x3e34a637	0.17641531
238	0x3ebba41f	0.36648652
239	0x3e04129e	0.12897727
240	0xbdd8fd11	-0.105951436
241	0x3cdfe453	0.027330553
242	0xbda2ba29	-0.079456635
243	0xbe111587	-0.14168368
244	0x3dc885b0	0.09791124
245	0xbe40a493	-0.1881278
246	0xbe368903	-0.17825703
247	0x3da5ea17	0.0810129
248	0x3db7de6a	0.08977969
249	0x3b5a9dcf	0.0033358221
250	0xbd0587d5	-0.032600243
251	0x3e3438b8	0.17599761
252	0xbe72e876	-0.2372149
253	0x3d88a4a6	0.06672029
254	0xbd2bcf76	-0.041945897
255	0xbddfffb9	-0.10937447

weight f4 [48, 48]
0	0x3ec3b1a4	0.38221467
1	0x3daf6c59	0.085655876
2	0xbd3fd455	-0.046833355
3	0x3e345d0b	0.17613618
4	0xbdd95a33	-0.10612907
5	0x3da60736	0.08106844
6	0x3ec59b81	0.38595203
7	0xbd94751a	-0.07248898
8	0x3f13a015	0.5766614
9	0x3e4ca462	0.19984582
10	0x3d8a6d29	0.06759102
11	0x3bc155e1	0.00590013
12	0x3e13043a	0.14357081
13	0x3e367228	0.17816985
14	0xbd757207	-0.059923198
15	0xbf6e0d4b	-0.92989033
16	0x3d8edec4	0.06976083
17	0x3ebc72ad	0.3680624
18	0x3e7b66c6	0.24550924
19	0xbd84f7fb	-0.06492611
20	0x3cde7848	0.027156964
21	0x3e64de0d	0.2235033
22	0x3da1d780	0.079024315
23	0x3e453f51	0.19262435
24	0x3e132beb	0.14372222
25	0x3e7960f6	0.24353394
26	0x3e10d3ed	0.14143343
27	0x3e301622	0.17195943
28	0x3d615497	0.05501231
29	0x3da6409c	0.08117792
30	0x3ea7f368	0.32802892
31	0xbfe4052f	-1.7814082
32	0xbc97cd4e	-0.018530514
33	0x3e1d8617	0.15383182
34	0x3cb6ae01	0.022299768
35	0x3cb1fe85	0.02172781
36	0x3e5059bf	0.20346735
37	0xbd08986e	-0.033348493
38	0x3e1bf743	0.15231042
39	0x3e555d11	0.20836283
40	0x3d57e262	0.05270613
41	0x3e3d7e0e	0.18505117
42	0x3e20e321	0.15711643
43	0x3eddb5c0	0.43302727
44	0x3dc46783	0.09590056
45	0x3d8f9f55	0.07012812
46	0xbcd62a10	-0.026143104
47	0x3e389f85	0.18029602
48	0x3e02b533	0.12764435
49	0xbcd7b19a	-0.026329804
50	0x3e0baee4	0.13640934
51	0xbd1581e7	-0.036500838
52	0xbe99c5e3	-0.30033788
53	0x3dec9057	0.11550968
54	0xbde3730f	-0.1110593
55	0xbe3eca27	-0.18631802
56	0xbe0ccd10	-0.137501
57	0x3c26248d	0.01014055
58	0x3c2d3bbf	0.010573327
59	0x3e0d881d	0.13821454
60	0xbd0d2a0b	-0.034463923
61	0x3d097e81	0.03356791
62	0xbda6a314	-0.081365734
63	0xbea5e813	-0.3240362
64	0x3cf6af0a	0.030112762
65	0x3d1cb025	0.038253922
66	0x3d9f91c0	0.077914715
67	0xba703da2	-0.00091644574
68	0x3dca3950	0.09874213
69	0xbca398e9	-0.019970374
70	0xbe3c9b32	-0.18418577
71	0x3d6b7dcc	0.057493016
72	0xbce9d45e	-0.028543647
73	0xbd93549c	-0.07193872
74	0x3e172a5b	0.14762251
75	0x3e03afc6	0.12860021
76	0x3cec5dea	0.028853375
77	0xbdc5b31e	-0.096533045
78	0x3e311323	0.17292456
79	0xbf867020	-1.0502968
80	0xbd8ab8d2	-0.06773533
81	0x3e0eeec1	0.13958265
82	0x3d33e954	0.04392369
83	0xbc143566	-0.009045934
84	0xbdacdc4a	-0.08440454
85	0x3e1acf69	0.15118183
86	0xbd9dc339	-0.077032514
87	0x3df88755	0.121351875
88	0xbc02d868	-0.007986166
89	0x3da6a3de	0.08136724
90	0xbe081b38	-0.13291633
91	0x3d90eee1	0.070768125
92	0xbd8cbf13	-0.06872382
93	0x3d30613d	0.043061484
94	0x3c690a63	0.014223668
95	0xbd568018	-0.052368253
96	0xbe93107e	-0.2872352
97	0xbc1d9b9c	-0.00961962
98	0xbe31fe96	-0.17382273
99	0xbe0f83a0	-0.14015055
100	0x3dfe0ca7	0.12404757
101	0xbd1c2270	-0.03811878
102	0xbf035009	-0.51294
103	0x3d623e8b	0.055235427
104	0xbf597309	-0.84941155
105	0xbe1a5cba	-0.15074435
106	0x3db92c4f	0.09041654
107	0x3c914f1f	0.017737923
108	0xbe7b47ef	-0.24539159
109	0xbec5e9fd	-0.3865508
110	0x3dc174b2	0.09446086
111	0x3e83178e	0.25603908
112	0x3dd33179	0.103121705
113	0xbeb951b7	-0.36195156
114	0xbf0f98a1	-0.5609227
115	0xbe05736b	-0.1303231
116	0x3e289575	0.16463263
117	0xbead82e6	-0.3388893
118	0x3e5a9eb0	0.21349597
119	0xbe9f99eb	-0.31172118
120	0xbeb375a7	-0.350507
121	0xbe5c2d99	-0.21501769
122	0xbdcf37c2	-0.10118057
123	0xbef0514a	-0.4693702
124	0xbdbca3bb	-0.092109166
125	0xbe8a84ed	-0.2705454
126	0x3ddb60c5	0.10711817
127	0x3eff18b1	0.49823526
128	0xbe17fbf9	-0.14842214
129	0x3d166c8c	0.036724612
130	0x3dd3c9a6	0.10341196
131	0xbde0a862	-0.109696165
132	0xbf2e7451	-0.68146235
133	0x3c930398	0.01794605
134	0xbe14de08	-0.14537823
135	0xbe10582d	-0.14096136
136	0xbe9e51a6	-0.30921668
137	0xbbba777a	-0.0056905122
138	0xbd550d5e	-0.0520147
139	0xbe8ab720	-0.27092838
140	0xbed5da5c	-0.41768157
141	0x3dacbe34	0.08434716
142	0x3d827020	0.063690424
143	0xbe06d415	-0.1316684
144	0xbdb46087	-0.08807474
145	0x3e003053	0.12518434
146	0x3e44849c	0.19191211
147	0xbdada45a	-0.08478613
148	0xbc9985b2	-0.018740509
149	0xbd96a7f9	-0.07356257
150	0x3d9a0475	0.07520381
151	0x3ce11eb7	0.027480466
152	0xbdc787fa	-0.09742732
153	0x3d10c277	0.035341706
154	0x3ddfb527	0.10923224
155	0xbe27b238	-0.16376579
156	0xbb2a5897	-0.0025992745
157	0x3af805fd	0.0018922683
158	0x3dede32e	0.11615597
159	0x3e427ffd	0.18994136
160	0x3d5d8d3c	0.05408977
161	0x3dd7ff31	0.10546721
162	0x3da5f4cc	0.08103332
163	0x3e287d2b	0.16453998
164	0x3e625da2	0.2210603
165	0x3beef2d8	0.007292133
166	0xbe247fc6	-0.16064367
167	0xbdc04090	-0.09387314
168	0x3d542a3e	0.051798098
169	0xbb1908a0	-0.0023351088
170	0xbd0444c0	-0.032292128
171	0xbd411b50	-0.047145188
172	0x3d2ecb7e	0.042674534
173	0x3e12df9f	0.14343117
174	0xbb98bc9a	-0.004661155
175	0xbe2a06cc	-0.16604155
176	0xbe23f661	-0.16011955
177	0xbd776231	-0.060396377
178	0x3dae8e4d	0.085232355
179	0xbde45119	-0.11148281
180	0xbd4185c7	-0.04724672
181	0x3dce14a2	0.10062529
182	0xbda6376a	-0.08116038
183	0x3d718cca	0.058972158
184	0x3eba7d8c	0.3642391
185	0x3d80dfc3	0.06292679
186	0xbd9a53ca	-0.07535513
187	0x3c7972c2	0.015225114
188	0x3d6030d5	0.05473407
189	0xbd8b6ffb	-0.06808468
190	0xbd850566	-0.0649517
191	0xbcb19b56	-0.021680515
192	0x3c971db4	0.01844678
193	0xbdc87b9f	-0.09789204
194	0xbe07a405	-0.13246162
195	0xbe502365	-0.20326002
196	0xbd3d7050	-0.046249688
197	0xbdfe764b	-0.12424906
198	0x3db041ac	0.08606276
199	0xbe1c6944	-0.1527453
200	0x3daf7182	0.08566572
201	0xbdecaac8	-0.115560114
202	0xbafc30d9	-0.0019240632
203	0x3d1b1b2e	0.037867717
204	0x3dd0fc1c	0.10204336
205	0xbe1498b9	-0.14511384
206	0xbdcb0777	-0.09913533
207	0xbe054452	-0.13014343
208	0xbd1c88f2	-0.03821654
209	0x3cecb23a	0.028893579
210	0x3d1ba57c	0.037999615
211	0x3d998e8f	0.07497894
212	0xbe23f667	-0.16011964
213	0xbe0a1fba	-0.13488665
214	0xbe16eaf5	-0.14738066
215	0x3d7e8f35	0.06214829
216	0xbe1c7da4	-0.15282303
217	0x3d8bd2ef	0.06827342
218	0x3d9d40c7	0.07678371
219	0x3cbe4885	0.02322794
220	0xbd5fbee2	-0.0546254
221	0xbd5bec92	-0.053692408
222	0xbd120885	-0.035652656
223	0x3aecb2fe	0.0018058715
224	0x3e9c22aa	0.30495197
225	0x3d87aaf3	0.06624403
226	0x3d706a6c	0.05869524
227	0xbe0cf2aa	-0.13764444
228	0xbcf7bda5	-0.030241797
229	0x3d91b4f7	0.071145944
230	0xbe0809b8	-0.13284957
231	0xbcac2566	-0.021013927
232	0xbb88eb02	-0.0041784057
233	0xbd854993	-0.06508174
234	0x3d8e75f0	0.069560885
235	0x3c8ac40c	0.016939186
236	0x3d002884	0.03128864
237	0xbdcf61fc	-0.10126111
238	0xbe16753d	-0.1469316
239	0xbc87b026	-0.016563486
240	0x3d41c40b	0.0473061
241	0xbc9b5cd9	-0.018965172
242	0x3d1db7a2	0.038505204
243	0x3da77048	0.08175713
244	0x3de2e504	0.110788375
245	0xbbdbacc6	-0.006703946
246	0x3ecacfe2	0.39611727
247	0xbc0ae9a8	-0.00847856
248	0x3ec51832	0.38495022
249	0x3c92b1ef	0.017907111
250	0xbc4c4dea	-0.012469748
251	0xbdd30ec8	-0.10305554
252	0xbdb66eb7	-0.08907836
253	0xbc0623de	-0.008187262
254	0xbd8d6dfe	-0.06905745
255	0xbe290401	-0.16505434

bias f4 [48]
0	0x3dece973	0.115679644
1	0x3dba2626	0.090893075
2	0xbd955850	-0.07292235
3	0x3e342665	0.17592771
4	0xbe3ae04d	-0.18249626
5	0xbdec15b2	-0.115275756
6	0x3e3e524a	0.18586078
7	0xbe36941a	-0.17829934
8	0xbd836f50	-0.064177155
9	0x3d0c30d3	0.03422625
10	0x3d37ffdc	0.04492174
11	0xbece3f95	-0.40282884
12	0xbc635948	-0.013876267
13	0xbdd950ac	-0.1061109
14	0x3d4ad5fb	0.049520474
15	0xbe010987	-0.1260129
16	0xbd6c9534	-0.05775948
17	0xbc90f911	-0.01769689
18	0xbe183c5b	-0.14866774
19	0xbb406b15	-0.00293607
20	0xbd12bb07	-0.035822894
21	0x3e439e78	0.1910342
22	0xbd4e55fe	-0.050374977
23	0xbe497a08	-0.19675457
24	0xbdfb740c	-0.122779936
25	0x3d91347e	0.0709009
26	0x3c70ef50	0.014705494
27	0xbde08869	-0.10963518
28	0xbe0a991c	-0.13534969
29	0xbd97ad1d	-0.074060656
30	0x3cbe494f	0.023228316
31	0x3d7fdc0c	0.062465712
32	0x3e0e3ef9	0.1389121
33	0xbd877cb9	-0.06615586
34	0xbdcdb561	-0.10044361
35	0xbe329002	-0.17437747
36	0xbd8f2931	-0.069902785
37	0xbdae8f87	-0.085234694
38	0xbc8aede8	-0.016959146
39	0xbe1a3c12	-0.15061978
40	0x3dec0888	0.11525065
41	0x3d87b23c	0.066257924
42	0xbe1024b6	-0.14076504
43	0xbc2e785d	-0.010648814
44	0x3d49e50f	0.049290713
45	0x3d3d1be5	0.04616918
46	0x3de982ad	0.114018776
47	0xbafab20b	-0.0019126547

weight f4 [48, 48]
0	0x3c4ba82d	0.012430233
1	0x3dc62c7f	0.09676456
2	0x3e33ee2f	0.17571329
3	0x3e33abdc	0.17546028
4	0x3e954eb1	0.291616
5	0x3cc6ee97	0.02428369
6	0xbe1f4a76	-0.15555748
7	0xbb177913	-0.0023112937
8	0xbdf6651a	-0.12031002
9	0x3cd245b1	0.025667997
10	0xbdac3260	-0.08408046
11	0x3e8597de	0.26092428
12	0xbd4ddbeb	-0.05025856
13	0x3df44a16	0.11928193
14	0x3dd6d67a	0.10490127
15	0x3e679308	0.22614682
16	0x3f1a6032	0.6030303
17	0x3d8fa6f6	0.07014267
18	0xbe1f03c7	-0.15528785
19	0x3dfbc027	0.122925095
20	0xbd3aaccc	-0.04557495
21	0x3cc1237b	0.023576489
22	0x3f3de4f1	0.7417746
23	0x3c2b9165	0.0104716765
24	0x3e7dd249	0.24787249
25	0x3c921594	0.017832555
26	0x3e3ad2c9	0.1824447
27	0xbda9e69e	-0.0829594
28	0x3de039d4	0.1094853
29	0x3d958fb7	0.07302802
30	0xbe09773e	-0.13424394
31	0xbe1c7238	-0.15277946
32	0xbd729930	-0.059228122
33	0xbd416d19	-0.047223184
34	0xbe425689	-0.18978323
35	0xbda14b71	-0.078757174
36	0x3da1a537	0.0789284
37	0xbd81155b	-0.06302901
38	0x3dc55c94	0.096367985
39	0x3dba8427	0.09107237
40	0x3ba33179	0.004980263
41	0x3e378e0c	0.1792528
42	0x3ee76c3d	0.45199767
43	0x3e9ec779	0.3101156
44	0xbe03a22f	-0.12854837
45	0xbd622dc7	-0.055219438
46	0x3b8fe28d	0.0043910206
47	0x3ca91af3	0.020642733
48	0x3d448423	0.047977578
49	0x3e507b90	0.20359635
50	0xbd0d08ea	-0.03443233
51	0x3d371267	0.044695284
52	0x3f573e7b	0.8407971
53	0xbd8b7af7	-0.06810563
54	0x3e13a2bc	0.14417547
55	0x3f10bf04	0.56541467
56	0xbc153f41	-0.009109319
57	0x3dd73c75	0.10509578
58	0x3d13ebfc	0.036113724
59	0x3f7a482a	0.97766364
60	0x3db80480	0.08985233
61	0x3b20c78d	0.0024533004
62	0x3e0e1191	0.13873889
63	0x3e1bf4b5	0.15230067
64	0x3e059715	0.13045914
65	0x3d0296da	0.031882145
66	0x3d97b905	0.074083365
67	0x3e256ee2	0.1615558
68	0x3e32dd9e	0.17467353
69	0x3de660d7	0.112489395
70	0x3f868bb5	1.0511385
71	0x3c297fab	0.01034538
72	0xbca5e974	-0.02025292
73	0xbe0000fb	-0.12500374
74	0x3e3595c2	0.1773291
75	0x3d20c0fb	0.03924654
76	0x3e3667d3	0.17813043
77	0x3e2ddbd5	0.1697839
78	0x3e832de9	0.25620964
79	0x3e4f9f43	0.20275597
80	0x3f82e27b	1.0225366
81	0x3d613f7e	0.05499219
82	0x3e25a3f2	0.16175821
83	0xbc630fd0	-0.01385875
84	0x3e3a9d0e	0.18223974
85	0xbd58046d	-0.052738596
86	0x3d950deb	0.07278045
87	0x3e2c037e	0.16798207
88	0x3e526bbd	0.20548911
89	0x3e3b29af	0.1827762
90	0x3e5ab2a2	0.21357206
91	0x3e82d816	0.25555485
92	0xbda4badf	-0.08043455
93	0xbd7aae5d	-0.061201442
94	0xbd2fc6db	-0.042914253
95	0xbc412013	-0.011787432
96	0xbbf9feae	-0.007629237
97	0xbc2ec69c	-0.010667469
98	0xbdb5d89b	-0.08879205
99	0xbce44d74	-0.027868964
100	0x3dee9978	0.116503656
101	0xbe52b355	-0.20576222
102	0x3d62a74a	0.05533532
103	0xbd42d765	-0.047568697
104	0x3e0ba65b	0.13637678
105	0xbd4bdae0	-0.049769282
106	0x3c9fe69f	0.019519148
107	0xbe35f307	-0.17768489
108	0xbd33760b	-0.043813746
109	0x3cdfeb0f	0.027333764
110	0xbd88d152	-0.0668055
111	0x3cab5bca	0.020917792
112	0xbe00fdb7	-0.12596785
113	0x3e52a445	0.20570476
114	0x3e5d8869	0.21634068
115	0x3d32bc80	0.0436368
116	0xbeba1916	-0.36347264
117	0x3e0f1eda	0.13976613
118	0xbe6bd625	-0.23030908
119	0xbda9a2a1	-0.08282972
120	0x3e16ea2a	0.14737764
121	0x3e70d322	0.23518041
122	0x3dbe4ddb	0.092921935
123	0x3e10ffac	0.14160031
124	0xbe07e774	-0.13271886
125	0x3e23360c	0.15938586
126	0x3e397b06	0.18113336
127	0x3ebcc31d	0.3686761
128	0x3e8b2216	0.27174443
129	0xbdc949d3	-0.09828534
130	0x3e1cd055	0.15313847
131	0x3e93372a	0.28753024
132	0x3e073707	0.13204585
133	0xbd815674	-0.06315318
134	0x3d2a10e4	0.041520014
135	0xbd24f36f	-0.04027122
136	0x3df3fcd8	0.119134605
137	0xbd8efaf6	-0.06981461
138	0xbf026336	-0.50932634
139	0x3dea3a87	0.114369445
140	0x3ccc7026	0.02495582
141	0xbd178e21	-0.03700078
142	0x3839432c	4.4169996e-05
143	0x3ddc41c7	0.107547335
144	0x3ea3605d	0.31909457
145	0x3d0582fe	0.032595627
146	0x3e3dd67b	0.18538849
147	0x3d247588	0.04015115
148	0x3e0a1ef4	0.1348837
149	0x3e1c2179	0.15247144
150	0x3d80e322	0.06293322
151	0x3e09e32a	0.13465562
152	0xbb5c85b1	-0.0033649022
153	0x3e0b2ba3	0.13590865
154	0xbd8f207c	-0.06988618
155	0xbd1f018e	-0.038819842
156	0x3d6862f1	0.056734983
157	0x3d1016fa	0.035178162
158	0xbc06c65b	-0.008226003
159	0x3ce2c61f	0.027682362
160	0x3e71b055	0.23602422
161	0x3e43fbf6	0.19139084
162	0x3e40c1f1	0.18823983
163	0x3e42ac81	0.19011118
164	0xbd4afdc8	-0.04955843
165	0x3e5bab37	0.21452032
166	0xbee13ff9	-0.4399412
167	0x3d08f98f	0.033441123
168	0x3dd1f141	0.10251094
169	0x3e36bd6b	0.17845695
170	0xbb6227a0	-0.0034508482
171	0x3b9851b2	0.0046484107
172	0xbcf26cf8	-0.029592976
173	0x3b63d100	0.0034762025
174	0x3ec7fdff	0.3906097
175	0x3ec87156	0.39148968
176	0x3de31c06	0.110893294
177	0x3d76f588	0.06029275
178	0x3d875ae4	0.06609133
179	0xbd0b11d1	-0.033952538
180	0x3d96f461	0.0737083
181	0x3e0984ae	0.1342952
182	0x3db8cb1c	0.09023115
183	0x3d855267	0.065098576
184	0x3dce4724	0.10072163
185	0xbdbd5bc9	-0.09246022
186	0xbec82e39	-0.39097765
187	0xbe0de326	-0.13856182
188	0x3dda02db	0.10645076
189	0x3e8916c3	0.26775178
190	0x3d2585e8	0.040410906
191	0xbcaa424c	-0.020783566
192	0x3d246c6c	0.04014246
193	0xbdd2a736	-0.10285799
194	0xbe36cc2c	-0.17851323
195	0xbd85e791	-0.065383084
196	0xbe15149e	-0.14558646
197	0xbdcaea3c	-0.09907958
198	0x3dd54274	0.104130656
199	0xbec26c20	-0.37973118
200	0x3e3aa5d7	0.18227325
201	0xbe2c0aa6	-0.16800937
202	0x3d8a6b5e	0.0675876
203	0xbeeef44b	-0.46670756
204	0x3c6b7a1f	0.014372378
205	0xbdcde54c	-0.100535005
206	0xbddc8b77	-0.10768788
207	0xbdb01a19	-0.08598728
208	0xbe517b55	-0.20457204
209	0xbd37933a	-0.04481814
210	0x3e14e473	0.14540271
211	0xba9fdc9e	-0.0012196486
212	0x3d14c8f8	0.03632447
213	0xbd60683f	-0.054786917
214	0x3d9b4247	0.07581001
215	0xbdc77a22	-0.09740092
216	0xbd639e37	-0.055570807
217	0x3e246d92	0.16057423
218	0xbe1bac62	-0.15202478
219	0xbd9d976c	-0.07694897
220	0xbdf8fb69	-0.12157328
221	0xbe1d089b	-0.15335314
222	0xbe4099cc	-0.18808669
223	0xbcd708d3	-0.026249325
224	0xbf005a2a	-0.5013758
225	0xbda144de	-0.078744635
226	0xbde84236	-0.11340754
227	0xbdf05fdb	-0.11737033
228	0x3c6ea53e	0.014565764
229	0xbdbc6df1	-0.09200657
230	0xbb8196eb	-0.0039547584
231	0x3d10171d	0.035178293
232	0xbd780434	-0.060550883
233	0x3d20d699	0.039267156
234	0xbe8c0185	-0.2734491
235	0xbe29d60f	-0.16585563
236	0xbcf67be7	-0.030088378
237	0xbcb8e230	-0.022568792
238	0xbd335faa	-0.043792404
239	0xbdcd4b4f	-0.100241296
240	0xbe138dd7	-0.14409576
241	0x3d17a6ef	0.037024435
242	0xbd240d17	-0.040051546
243	0x3d650725	0.055915017
244	0xbea215bf	-0.31657216
245	0x3c180d72	0.009280549
246	0xbbd7b66f	-0.006583027
247	0xbebea547	-0.37235472
248	0x3d92a8d6	0.07161109
249	0xbe132bf1	-0.14372231
250	0xbd5cd8fc	-0.05391787
251	0xbeb455e4	-0.3522178
252	0xbe1e6ab3	-0.1547039
253	0xbe36e911	-0.17862345
254	0xbdde8a11	-0.10866178
255	0x3cba4f48	0.022742882

weight f4 [18, 49]
0	0x3d5984d0	0.053105175
1	0xbed41aef	-0.414268
2	0x3e2b5918	0.16733205
3	0x3d9a6a96	0.07539861
4	0xbe376fdb	-0.17913763
5	0xbd54a31e	-0.051913373
6	0x3e546599	0.20741881
7	0xbf1699e4	-0.5882857
8	0x3eee2e01	0.46519473
9	0x3e3c08cd	0.18362732
10	0xbd69a667	-0.05704346
11	0xbe75a695	-0.23989327
12	0x3d54f36c	0.051989958
13	0xbcd433d1	-0.025903614
14	0x3da3ca68	0.0799759
15	0x3e2b1213	0.16706114
16	0x3e464fa4	0.19366318
17	0x3dad7462	0.08469464
18	0xbd06acf6	-0.032879792
19	0x3f0b4298	0.5439849
20	0x3ca95ad6	0.020673197
21	0xbe88c6d3	-0.2671419
22	0xbd141050	-0.03614837
23	0x3e984621	0.29741004
24	0xbd8b37ef	-0.06797778
25	0x3e83b1f4	0.25721705
26	0x3e99b422	0.30020243
27	0xbdc17d49	-0.09447724
28	0xbe388687	-0.18020068
29	0x3ddba669	0.107250996
30	0x3eb64a22	0.35603434
31	0x3f63b75b	0.88951653
32	0xbd6d3782	-0.057914265
33	0x3db39a3e	0.08769654
34	0x3eaf3da7	0.34226725
35	0xbd249b82	-0.040187366
36	0x3f2d7fda	0.6777321
37	0x3e081a57	0.13291298
38	0xbdfca4c0	-0.12336111
39	0xbe015d43	-0.12633233
40	0xbcf3f3ce	-0.029779341
41	0x3cb1bcb3	0.021696424
42	0xbe82fe6a	-0.25584728
43	0xbe8e0080	-0.27734756
44	0x3e58efe9	0.21185268
45	0xbe006669	-0.12539066
46	0x3e681f83	0.22668271
47	0x3e73a574	0.23793584
48	0xbdb93eb2	-0.09045161
49	0x3e7402ea	0.23829237
50	0x3e9429c8	0.28938127
51	0x3ead22dc	0.33815658
52	0x3e023331	0.1271484
53	0xbe0a8520	-0.13527346
54	0xbe4a6632	-0.19765547
55	0x3ccfdbc7	0.025373353
56	0xbe5073d7	-0.2035669
57	0x3e13565b	0.14388411
58	0x3e9797a6	0.29607886
59	0xbe3485c4	-0.17629153
60	0xbf092522	-0.53572285
61	0x3c0a3d3a	0.008437449
62	0xbe00da96	-0.12583384
63	0xba340c9d	-0.00068683346
64	0x3f0dc4ee	0.55378616
65	0xbd86cf72	-0.06582536
66	0xbe058421	-0.13038684
67	0xbdb0d77a	-0.08634849
68	0x3f146e3e	0.57980716
69	0x3d2e5441	0.04256082
70	0x3d7946ff	0.060858723
71	0x3d808377	0.06275075
72	0x3e4153d7	0.18879639
73	0xbe660239	-0.22461785
74	0x3ef0b8c6	0.4701597
75	0x3df5be11	0.11999143
76	0x3d92cb80	0.07167721
77	0xbd6f1ee3	-0.058379065
78	0x3bd59e78	0.006519135
79	0x3ee47707	0.4462206
80	0x3f5ddebd	0.86667997
81	0x3ddfd274	0.109288126
82	0x3e858deb	0.26084837
83	0x3e8d1133	0.27552184
84	0x3d236b78	0.039897412
85	0x3ee146ea	0.43999416
86	0xbd1cfa43	-0.038324606
87	0xbe8ad244	-0.27113545
88	0xbe79bb1d	-0.24387784
89	0xbe2f168c	-0.17098445
90	0x3e649f26	0.22326335
91	0xbeac4bbd	-0.33651534
92	0x3de0cdc8	0.1097675
93	0x3ea76dbe	0.32700914
94	0x3dff2e23	0.12459972
95	0xbe531465	-0.20613249
96	0xbdf6187a	-0.12016387
97	0x3e0fdd90	0.14049363
98	0xbd5f75ba	-0.054555632
99	0xbded32e6	-0.11581974
100	0x3b4bc45e	0.0031092386
101	0xbd6c02db	-0.05761991
102	0xbe0f7ab3	-0.1401165
103	0xbe9bc24e	-0.3042168
104	0x3e49560b	0.19661729
105	0xbe2893b4	-0.16462594
106	0xbe379d13	-0.17931013
107	0x3e893a97	0.26802513
108	0xbede8859	-0.434634
109	0xbdc9d834	-0.098556906
110	0xbe2a875b	-0.16653197
111	0x3cbdae2d	0.023154343
112	0x3dc926ff	0.09821891
113	0x3f0445b0	0.51668835
114	0xbeaf186a	-0.34198314
115	0xbe130eb7	-0.14361082
116	0xbe95f5e9	-0.29289177
117	0x3e7dfbb6	0.24803051
118	0xbe37b71e	-0.17940947
119	0x3dea6944	0.11445859
120	0x3e935a60	0.28779888
121	0x3e61f5b5	0.22066386
122	0x3e191bcc	0.1495201
123	0x3e4e9a8a	0.2017614
124	0x3d601196	0.05470427
125	0x3e9f61f2	0.31129414
126	0xbe6165f2	-0.22011545
127	0x3e1b8774	0.1518839
128	0x3e3f79b6	0.18698773
129	0x3f030a12	0.5118724
130	0xbdabb7d2	-0.0838467
131	0x3e519b93	0.20469503
132	0x3d4a120a	0.04933361
133	0xbd9d35f4	-0.07676306
134	0x3dfe88eb	0.12428459
135	0xbb2b0075	-0.0026092802
136	0x3e9e5d5e	0.3093061
137	0xbda96050	-0.08270323
138	0xbe934711	-0.28765157
139	0x3d13e5c6	0.0361078
140	0xbe437c34	-0.19090348
141	0x3e9a7c6d	0.30173054
142	0x3df68900	0.120378494
143	0x3e389ce7	0.18028603
144	0xbda2bbce	-0.07945977
145	0x3ed586c2	0.41704375
146	0xbe56b82f	-0.20968698
147	0xbd46e0fa	-0.048554398
148	0x3db6916a	0.08914454
149	0xbf52396c	-0.8211887
150	0xbe961b3f	-0.29317662
151	0x3d21e4e1	0.039524917
152	0x3e60bac1	0.21946241
153	0x3e9d763f	0.30754277
154	0xbd6a4c8c	-0.057201907
155	0xbf29221d	-0.6606768
156	0x3dc1469d	0.094372965
157	0x3d909725	0.070600785
158	0x3e5f9a35	0.21836169
159	0xbd49804f	-0.04919463
160	0xbd8447ae	-0.06458984
161	0xbe1b4df8	-0.15166461
162	0xbe128de3	-0.14311938
163	0xbf06cf4d	-0.52660066
164	0x3d6fa16d	0.058503557
165	0x3d8e3594	0.06943813
166	0xbc9cf9bf	-0.019162057
167	0x3dddb4df	0.10825514
168	0x3d2a40ed	0.041565824
169	0x3e986fa7	0.29772684
170	0xbc8eca6a	-0.017430503
171	0x3cbec9be	0.023289558
172	0xbf18050d	-0.59382707
173	0x3def5b92	0.116873875
174	0xbe61a8a2	-0.22036985
175	0x3d646031	0.055755798
176	0xbe88ecf7	-0.2674329
177	0xbe4931e7	-0.19647942
178	0xbe686051	-0.22692992
179	0x3e17965e	0.14803454
180	0xbe53122e	-0.20612404
181	0xbddae235	-0.10687677
182	0x3e66353b	0.22481243
183	0x3dcc7270	0.09982765
184	0xbe9a707a	-0.30163938
185	0xbcb6d3fb	-0.022317877
186	0xbe3b2336	-0.1827515
187	0x3e109e1f	0.14122818
188	0x3da8e200	0.08246231
189	0x3e12f5b8	0.14351547
190	0xbe7b89e2	-0.24564317
191	0xbf224d2a	-0.63398993
192	0xbe58a3cd	-0.21156235
193	0x3e39ad4c	0.18132514
194	0x3c9e7694	0.019343652
195	0xbe401204	-0.18756872
196	0xbc327211	-0.010891453
197	0x3bd6e0d6	0.0065575643
198	0x3ec09194	0.37611067
199	0x3d8075e9	0.062724896
200	0x3dbc2f0f	0.09188663
201	0x3e0fe036	0.14050373
202	0x3d46e381	0.04855681
203	0x3ea9c7a1	0.33160117
204	0x3f22f6fc	0.6365812
205	0x3d574c6f	0.052563127
206	0x3e8e4cfd	0.27793112
207	0x3e8a19ff	0.26972958
208	0x3e29d539	0.16585244
209	0x3db476ab	0.088116966
210	0x3df62fb4	0.120208174
211	0xbcf1f09a	-0.029533673
212	0x3e664427	0.22486936
213	0xbb83ae2f	-0.004018567
214	0xbd276d3e	-0.040875666
215	0xbd9ae7a7	-0.075637154
216	0x3d101361	0.03517473
217	0x3eacb7d9	0.33734015
218	0x3defb1bc	0.11703822
219	0x3e706ab6	0.23478207
220	0x3e223ae1	0.15842773
221	0x3eb0611a	0.34449083
222	0x3e306c78	0.17228878
223	0x3e40f9fa	0.18845358
224	0xbe7990ab	-0.24371593
225	0xbba1280d	-0.0049181045
226	0xbe304142	-0.17212394
227	0xbe1b24d8	-0.15150774
228	0xbe0c3e3b	-0.13695614
229	0xbd6e6374	-0.058200315
230	0xbd3e0f42	-0.04640127
231	0x3c75a3d6	0.014992675
232	0x3eb33e9e	0.3500871
233	0xbe88764c	-0.26652753
234	0xbe6eaffa	-0.23309317
235	0xbe4ddf1d	-0.20104642
236	0x3d4b9354	0.04970105
237	0xbd9226a6	-0.07136278
238	0x3e73920e	0.23786184
239	0xbeab1b61	-0.33419326
240	0x3ec1d10d	0.37854806
241	0x3e4a3861	0.1974807
242	0x3e0c28c0	0.1368742
243	0x3db86714	0.090040356
244	0xbdedc343	-0.11609509
245	0xbe9d4441	-0.30716136
246	0x3c606209	0.013695248
247	0x3f0075a1	0.5017949
248	0xbdf45841	-0.119308956
249	0x3e55c9a2	0.20877698
250	0xbe790037	-0.24316488
251	0xbdcbb99a	-0.0994751
252	0x3e077c0c	0.13230914
253	0x3d60b04b	0.054855626
254	0x3e042934	0.12906343
255	0xbe06507b	-0.13116638

bias f4 [18]
0	0x3e417df8	0.1889571
1	0xbd77957f	-0.060445305
2	0x3d0040be	0.031311743
3	0xbd22b721	-0.039725427
4	0x3dfbe117	0.12298792
5	0x3da2f76f	0.079573505
6	0xbb857b9b	-0.004073573
7	0x3e1264ec	0.14296311
8	0xbd6b4678	-0.05744025
9	0x3d6f6da8	0.058454186
10	0x3e2f619f	0.17127083
11	0xbca71869	-0.020397382
12	0xbd988620	-0.07447457
13	0xbe07510a	-0.13214508
14	0x3e3f8d2c	0.18706197
15	0x3d8124ce	0.06305848
16	0xbe12103b	-0.14264004
17	0xbd949c2e	-0.072563514
