2WL_link_pred/checkpoint/archive/20221213_02/20221213_040259_2WL_state_dict_2183.pt (torch, 56370 bytes, 16 tensors)

lin1.1.modlist.0.weight f4 [48, 1]
0	0x3f1c8055	0.6113332
1	0xbe2eee07	-0.17082988
2	0x3ed5a221	0.41725257
3	0xbed6d1cc	-0.41956937
4	0xbe7ca550	-0.24672437
5	0x3f45165c	0.7698724
6	0xbdf515d6	-0.119670555
7	0xbe2660c7	-0.16247855
8	0xbe88127e	-0.26576608
9	0xbdf04c77	-0.117333345
10	0x3f2b2282	0.6684953
11	0xbf6a3102	-0.9148103
12	0xbeca73b7	-0.39541408
13	0xbeb2c113	-0.3491293
14	0xbef82eb8	-0.48473144
15	0xbebbda3d	-0.3668994
16	0x3f1a9495	0.6038297
17	0x3f15f217	0.58572525
18	0x3e994e3d	0.29942504
19	0x3f418ba7	0.7560372
20	0xbf43ab67	-0.76433414
21	0x3f2e00e3	0.67970103
22	0xbe93f6eb	-0.2889932
23	0xbe9e301e	-0.30896086
24	0xbefa9cc8	-0.4894774
25	0xbf0dd911	-0.5540934
26	0xbea34271	-0.31886628
27	0xbed2d222	-0.41175944
28	0x3e518c77	0.2046374
29	0x3edee379	0.43532923
30	0xbd8f4250	-0.0699507
31	0xbdfa5368	-0.1222294
32	0x3ef733cc	0.48281705
33	0xbe946c9a	-0.28989106
34	0x3e8a36d5	0.2699496
35	0xbe8b8b40	-0.27254677
36	0xbea5c9fc	-0.32380664
37	0xbecef818	-0.40423656
38	0x3f136d1b	0.57588357
39	0x3f12a0bc	0.5727651
40	0xbf07af90	-0.5300226
41	0x3f2d26f3	0.67637557
42	0x3e9c1036	0.30481118
43	0x3ee061e0	0.43824673
44	0x3f7334ef	0.95002645
45	0xbf2efc9c	-0.683542
46	0x3f277c2f	0.65423864
47	0x3f80a2ed	1.0049721

lin1.1.modlist.0.bias f4 [48]
0	0xbf56d592	-0.8391963
1	0x3f65c68c	0.89756083
2	0xbf4a8c87	-0.7912068
3	0x3f4b20f8	0.7934718
4	0x3ed6fbf8	0.41989112
5	0x3ecc0704	0.39849102
6	0x3f619ee6	0.88133085
7	0x3f375d44	0.7162669
8	0x3ee74912	0.45172936
9	0x3f53562e	0.82553375
10	0xbed9a96f	-0.4251208
11	0xbe5096c5	-0.20370014
12	0x3e92f1e6	0.2870018
13	0xbe7e9a23	-0.24863486
14	0x3e5a9900	0.21347427
15	0x3f1f3b05	0.6219943
16	0xbf12ed7f	-0.5739364
17	0xbf3b964c	-0.7327621
18	0xbf033843	-0.51257724
19	0xbe84deaf	-0.25951144
20	0x3eb3992c	0.35077798
21	0xbee32557	-0.44364426
22	0x3f65e1cc	0.89797664
23	0x3f24f701	0.644394
24	0xbf2123a8	-0.6294503
25	0x3ecf486f	0.4048495
26	0x3f4d4580	0.80184174
27	0xbddaabbd	-0.10677288
28	0xbee02b2a	-0.43782932
29	0xbf432dd8	-0.76241827
30	0xbfff66cd	-1.9953247
31	0x3f2f55d4	0.6849034
32	0xbe84cfcf	-0.25939795
33	0x3f7f19f2	0.99648964
34	0x3f811769	1.0085269
35	0xbf309eff	-0.6899261
36	0x3f1596ee	0.58433425
37	0x3f87d876	1.0612934
38	0xbe219ba8	-0.15782034
39	0xbf35d508	-0.71028185
40	0x3ec3c1bf	0.38233754
41	0xbf04d2b7	-0.51884025
42	0xbf4d19ab	-0.8011729
43	0xbf5605b1	-0.83602434
44	0x3e9a1843	0.30096635
45	0xbf013e48	-0.5048566
46	0xbebe273a	-0.37139302
47	0xbe567bfd	-0.20945735

embedding.0.weight f4 [5, 48]
0	0xbe21be25	-0.1579519
1	0xbf52a24f	-0.82278913
2	0xc02c69b0	-2.6939507
3	0xbebc1237	-0.36732647
4	0xbf1a8d4e	-0.60371864
5	0xbf4bcb58	-0.7960715
6	0xbe0faa2e	-0.14029762
7	0x3fe0ea93	1.7571586
8	0xbfdacfbd	-1.7094647
9	0xbee545f8	-0.44779944
10	0xbeb8405f	-0.3598661
11	0x3e102af8	0.14078891
12	0x3f0fcdb5	0.5617326
13	0xbec17ca2	-0.377904
14	0xbf3160fb	-0.69288605
15	0x3ed8ac56	0.42318982
16	0xbf7a112b	-0.97682446
17	0xbfdcb918	-1.7243986
18	0xc0150ea1	-2.3290179
19	0xbe6db364	-0.23212963
20	0x3f11d0e7	0.56959385
21	0xbea6bea9	-0.32567337
22	0xbf056ef1	-0.5212241
23	0xbf36fb03	-0.71476763
24	0xbf997966	-1.1990173
25	0xbfa67749	-1.3005153
26	0x3fa135d7	1.2594556
27	0xbe91f973	-0.28510627
28	0x3c346b69	0.011011937
29	0x4004f1b4	2.0772524
30	0x3e856592	0.26054054
31	0x3e2ae423	0.1668859
32	0x3f39e86b	0.72620267
33	0xbe9116af	-0.2833762
34	0x3fb3b7e4	1.4040494
35	0x3f93b276	1.1538837
36	0xbfb98182	-1.4492648
37	0x3db3d27d	0.08780382
38	0xbcba0455	-0.022707144
39	0x3ebd353c	0.36954677
40	0xbe0e9933	-0.13925628
41	0x3fad1235	1.3521181
42	0xbed92b66	-0.42415923
43	0xbf538d53	-0.8263752
44	0x3d188aee	0.03724187
45	0xbf77636d	-0.96636087
46	0x3f0c36f5	0.5477136
47	0x3ed29eed	0.41136876
48	0xbf9914ed	-1.1959511
49	0xbebcdb11	-0.36885884
50	0x3e937c09	0.2880557
51	0xbf0dc0c5	-0.5537227
52	0x3f67519f	0.9035892
53	0x3f9a211e	1.2041357
54	0xbf113116	-0.56715524
55	0x4006c0bd	2.1055138
56	0x3fa4a4f5	1.2862841
57	0x3e9723a5	0.29519382
58	0xbe8a178e	-0.26971096
59	0x3f2c073f	0.67198557
60	0x3f9e9b6e	1.2391183
61	0x3f5c9b72	0.8617469
62	0xbfb4c3ba	-1.4122231
63	0x4030b100	2.7608032
64	0xbfc87a58	-1.5662336
65	0xbfbb0aaf	-1.4612635
66	0xbfe8cc56	-1.8187358
67	0xbf0e0d34	-0.55488896
68	0xbe2dc830	-0.16970897
69	0xbe9d588f	-0.30731627
70	0x3fd57958	1.6677656
71	0x3f6cf4b0	0.92560863
72	0xbea6fed5	-0.32616296
73	0x3f440280	0.76566315
74	0x3d7ddc67	0.06197777
75	0x3f78a8af	0.9713239
76	0x3f97b302	1.1851504
77	0xbf2be274	-0.67142415
78	0x3f9118f6	1.1335742
79	0x3d799e5e	0.060942046
80	0x3f8d05cd	1.1017395
81	0x3fc74685	1.5568396
82	0x3f5521e7	0.83254856
83	0x3e7b82c1	0.24561597
84	0x3de341d9	0.11096544
85	0x3faaa3d2	1.3331244
86	0xbfd92810	-1.6965351
87	0x3e96e7a5	0.29473606
88	0xbf120615	-0.5704053
89	0x3e6077ea	0.21920744
90	0x402ae3f9	2.6701643
91	0x3f2a3e71	0.6650153
92	0x3e895b4e	0.26827472
93	0x3f7aea9f	0.98014253
94	0x3edd1383	0.4317895
95	0xbf95c0a1	-1.1699411
96	0x3eeb209c	0.45923316
97	0xbf967be9	-1.1756564
98	0x3fb786c7	1.4338006
99	0xbf82349d	-1.0172306
100	0xbf6cd31c	-0.9250963
101	0x3ea003d8	0.31252933
102	0x3f15f794	0.585809
103	0xc00c6989	-2.1939414
104	0xbf628553	-0.88484687
105	0xbeb2a1eb	-0.3488916
106	0xbf73abc7	-0.95183986
107	0xbf4ceb51	-0.80046564
108	0x3e56809c	0.20947498
109	0x3ebfae89	0.37437847
110	0x3f19c16a	0.6006075
111	0x3f3967f0	0.7242422
112	0xbfb272e5	-1.3941313
113	0x3f07d2ee	0.5305623
114	0xbea52f24	-0.32262528
115	0x3eaee835	0.34161535
116	0x3f30b13b	0.6902043
117	0x3f832ab4	1.0247407
118	0x3ea1a9af	0.3157477
119	0x3fae6431	1.3624326
120	0x3fafcb74	1.3733964
121	0x3f7efd98	0.99605703
122	0x3e160def	0.14653753
123	0x3d3830e1	0.04496849
124	0x3e84a53a	0.25907308
125	0x3fba089e	1.453388
126	0xbea24acd	-0.31697693
127	0x3fdceb0f	1.7259234
128	0xbf31f079	-0.6950756
129	0x3fc0e41a	1.5069611
130	0xbe718b27	-0.23588239
131	0xbf9d33f1	-1.2281476
132	0x3e6defa4	0.23235947
133	0x3fa6c424	1.3028607
134	0x3fa309bb	1.2737345
135	0xbf536f57	-0.82591766
136	0xbf62f007	-0.886475
137	0xbfaf319e	-1.3687017
138	0x3f1070af	0.5642194
139	0x3dade2dd	0.08490536
140	0x3f8a41ad	1.0801293
141	0x3e8473d1	0.2586961
142	0xbdda18b5	-0.10649244
143	0x3ce7b970	0.028286666
144	0xbd8c81b9	-0.0686068
145	0x3ec9d591	0.3942075
146	0xbf9e9a79	-1.2390891
147	0xbe7da212	-0.24768856
148	0x3e5899d0	0.21152425
149	0x3d3157b4	0.04329653
150	0x3eddb8bb	0.43305
151	0xbfed58ef	-1.8542765
152	0x3eb64945	0.35602775
153	0x3f94a1eb	1.1611913
154	0xbf988471	-1.1915418
155	0x3c943a20	0.018094122
156	0xbf6a9834	-0.91638494
157	0x3ee5e2ff	0.44899747
158	0xbecb0d75	-0.39658704
159	0xbf9e8296	-1.2383602
160	0x3f4b9756	0.79527795
161	0x3f756589	0.95858055
162	0xbeb8f8f2	-0.3612743
163	0xbe640e00	-0.22270966
164	0x3e16ba95	0.14719613
165	0x3f2faafe	0.6862029
166	0xbf0b8cad	-0.5451153
167	0xc0160d08	-2.3445454
168	0xbed49602	-0.41520697
169	0xbe6ad08a	-0.22931114
170	0x3f00cac6	0.5030941
171	0xbf0c62c4	-0.54838204
172	0xbf2ee88d	-0.68323594
173	0xbe60f3c9	-0.21967997
174	0x3f363843	0.711796
175	0x3ef49109	0.47766903
176	0x3f65926e	0.8967656
177	0xbf0c9e59	-0.5492912
178	0x3e1fafca	0.15594402
179	0x3fb675e2	1.4254725
180	0xbe683a29	-0.22678436
181	0xbddeea6d	-0.10884557
182	0x3f8cf174	1.1011186
183	0x3f6db20a	0.9284979
184	0xbe89cc46	-0.2691366
185	0xbf5e8d2e	-0.86934173
186	0xbfd12d3f	-1.6341933
187	0xbf5a85f2	-0.85360634
188	0xbf112816	-0.5670179
189	0xbe0a5c8c	-0.13511866
190	0xbece55b4	-0.4029976
191	0x3f2e8506	0.6817173
192	0x3f20f72e	0.62877166
193	0xbc3e7ff3	-0.011627185
194	0x3e586bea	0.21134916
195	0x3f017f40	0.50584793
196	0xbf705e39	-0.9389377
197	0x4007af2a	2.1200662
198	0xbff8c608	-1.9435434
199	0xbea83ca2	-0.3285876
200	0x3f201561	0.6253262
201	0xbfba1f57	-1.4540814
202	0xbf33a2cb	-0.7017028
203	0x3f9dd57b	1.2330774
204	0xbf7499d9	-0.9554725
205	0x3fa70fae	1.305166
206	0x3e77a737	0.24184881
207	0xbf3c4ecc	-0.73557734
208	0x3d0c1b5f	0.03420579
209	0xbf6858d0	-0.9076052
210	0x3f071f81	0.52782446
211	0x3d62f75c	0.05541168
212	0xc0407fdd	-3.0078042
213	0x3f7533ec	0.9578235
214	0x3f88c843	1.0686115
215	0xbe31558e	-0.17317793
216	0xbe2f7155	-0.17133076
217	0xbea801b4	-0.328138
218	0xbf4da274	-0.8032601
219	0x3f9d9428	1.2310839
220	0xbf267c6f	-0.6503362
221	0x3f8a4f1c	1.0805392
222	0x3e610a92	0.21976689
223	0xbf08cd80	-0.5343857
224	0x4006dd66	2.107263
225	0x3f35d9ae	0.7103528
226	0x3f41615f	0.755392
227	0xbf96d2d7	-1.1783093
228	0xbff6ef9e	-1.9291875
229	0xbf5ebc19	-0.87005764
230	0x3d338eda	0.043837406
231	0x3f1242b1	0.57133013
232	0xbe66bde4	-0.22533375
233	0xc01c4ce5	-2.4421933
234	0x3e4592fa	0.19294348
235	0xbe212b19	-0.15739097
236	0x3f87270b	1.055879
237	0xbfef4425	-1.8692671
238	0x40193c6b	2.3943126
239	0xbde4ae27	-0.111660294

nconvs.0.modlist.0.lin_l.weight f4 [48, 48]
0	0x3e0e2098	0.13879621
1	0xbd405e33	-0.046964835
2	0x3da09444	0.078407794
3	0xbbc672b8	-0.006056156
4	0xbdbfcc16	-0.09365098
5	0xbe840611	-0.25785878
6	0x3cfeab12	0.031087432
7	0xbdc22c01	-0.09481049
8	0x3d16e231	0.036836807
9	0x3d2b21ce	0.041780286
10	0xbc0693d5	-0.008213957
11	0x3dc47346	0.09592299
12	0xbd3e7669	-0.046499643
13	0xbcba6b18	-0.022756144
14	0x3e1b2c8a	0.15153709
15	0xbd9cd7b7	-0.07658332
16	0xbc4276ac	-0.011869114
17	0x3cb21320	0.021737635
18	0x3ccc8915	0.02496771
19	0x3e4a5fca	0.19763103
20	0x3d03f457	0.032215443
21	0x3d71cba2	0.05903209
22	0x3d6d5e62	0.05795134
23	0xbe766692	-0.24062565
24	0xbd210076	-0.03930708
25	0xbdc6d9f4	-0.0970954
26	0xbe0b0cda	-0.13579121
27	0x3e2b5b39	0.16734017
28	0x3d029b1b	0.0318862
29	0x3e149d6f	0.14513181
30	0xbdb5fe6b	-0.08886417
31	0xbe1b1436	-0.15144429
32	0x3e21838e	0.1577284
33	0xbddb755e	-0.107157454
34	0xbe2730dc	-0.16327232
35	0x3ca76299	0.020432757
36	0xbe2a6df8	-0.16643512
37	0xbe1c044b	-0.15236013
38	0x3db9c262	0.09070279
39	0xbcb376f1	-0.021907302
40	0xbe8b9bd0	-0.27267313
41	0x3d08d833	0.03340931
42	0x3d107186	0.035264514
43	0xbc547ac2	-0.012968721
44	0xbdf618b1	-0.12016428
45	0x3e6c08d6	0.23050246
46	0xbe3d81f8	-0.1850661
47	0xbb8720c9	-0.0041237813
48	0xbd681592	-0.056661196
49	0x3da97189	0.08273608
50	0xbcd8c094	-0.026459016
51	0x3e5d9e93	0.21642523
52	0x3e244182	0.16040614
53	0x3eab65a5	0.33475986
54	0x3e3ba173	0.18323307
55	0x3da74825	0.08168057
56	0x3d4dc24f	0.050234135
57	0x3c9ade4e	0.018904831
58	0x3dc94483	0.09827521
59	0xbea78006	-0.32714862
60	0xbe6c1c41	-0.23057653
61	0xbeb44680	-0.35210037
62	0xbe0e2e0a	-0.1388475
63	0x3d2caa1b	0.042154413
64	0xbdabd840	-0.08390856
65	0xbe3bf899	-0.18356551
66	0x3dc15ab1	0.09441126
67	0x3e45d13c	0.19318098
68	0xbe01c1e0	-0.12671614
69	0xbdcf06e2	-0.10108735
70	0x3dae912e	0.085237846
71	0x3cdd8f38	0.027045831
72	0xbe5e17d7	-0.21688782
73	0x3e049c74	0.12950307
74	0xbda71242	-0.08157779
75	0xbeb4c0da	-0.35303384
76	0xbd7bc724	-0.061469212
77	0xbe8114b1	-0.252111
78	0xbe5901a4	-0.21192032
79	0x3e40673c	0.18789381
80	0x3e14dbca	0.14536968
81	0x3d89a26b	0.06720432
82	0x3e21826b	0.15772407
83	0xbe68b887	-0.22726642
84	0x3e367329	0.17817368
85	0x3d8156a3	0.06315353
86	0x3eb781a1	0.35841087
87	0xbdf7c2cd	-0.12097702
88	0x3cb3f009	0.021965044
89	0xbde0122d	-0.10940967
90	0xbe1e2b36	-0.15446171
91	0xbe19ee3c	-0.15032285
92	0x3e2f9e2f	0.17150186
93	0xbea77208	-0.32704186
94	0x3de05201	0.10953141
95	0x3dd7d620	0.10538888
96	0x3cf5d6c7	0.03000964
97	0xbda344f2	-0.07972135
98	0x3e059c8d	0.13048
99	0xbcb6825b	-0.022278955
100	0xbdc29ef2	-0.09502973
101	0xbdc2ca4d	-0.09511242
102	0xbe1449e9	-0.1448132
103	0x3d68f980	0.056878567
104	0xbe1638a2	-0.14670041
105	0x3c97d1bc	0.018532626
106	0x3d90c3e0	0.0706861
107	0x3dbd1990	0.09233391
108	0x3b6392b4	0.0034724893
109	0x3ceb18b9	0.028698312
110	0x3e08e872	0.13369921
111	0x3d1cebf0	0.038310945
112	0xbb8ba656	-0.004261772
113	0x3d9cadbb	0.07650324
114	0xbc94aee0	-0.018149793
115	0xbb8d27d9	-0.0043077287
116	0x3e05188b	0.12997644
117	0xbd79a9eb	-0.060953062
118	0xbe57c697	-0.2107185
119	0xbd834394	-0.06409374
120	0x3c869b66	0.016431522
121	0xbe1142d6	-0.14185652
122	0xbe49adcb	-0.19695203
123	0x3e0b55b1	0.13606907
124	0xbd4b5be0	-0.049648166
125	0x3d1d2681	0.0383668
126	0xbd49c76d	-0.049262453
127	0xbc5f35e1	-0.013623686
128	0xbe1b923b	-0.15192501
129	0x3bf69a56	0.0075257225
130	0xbd7a5c01	-0.061122898
131	0xbca5eaff	-0.020253656
132	0xbe340c41	-0.175828
133	0xbd65c4e6	-0.05609598
134	0xbca0445b	-0.019563844
135	0x3d95da1e	0.07316993
136	0x3d047f7e	0.03234815
137	0xbc3973c0	-0.011319101
138	0x3c01952a	0.007909099
139	0x3e45a9c5	0.19303043
140	0xbdc20d4c	-0.094751924
141	0x3ddfd946	0.109301135
142	0x3c805b02	0.015668396
143	0xbe3c44ac	-0.18385571
144	0x3e042899	0.12906112
145	0xbdb1f877	-0.08689969
146	0xbe014eb8	-0.12627685
147	0xbe4d2d77	-0.20036875
148	0xbdf044dc	-0.11731884
149	0xbaebd8ef	-0.0017993728
150	0x3cf13504	0.029444225
151	0x3d7de5a5	0.061986584
152	0xbb7194e1	-0.003686242
153	0x3c8c5da8	0.017134503
154	0xbe1111ce	-0.14166948
155	0x3e227257	0.1586393
156	0xbc62c3e3	-0.013840648
157	0xbdf02148	-0.11725098
158	0x3e9482c9	0.2900603
159	0x3d34a85a	0.044105865
160	0x3e11dc62	0.14244226
161	0x3e109447	0.14119063
162	0xbd49a029	-0.049225006
163	0x3e5ca444	0.21547037
164	0x3e35bc54	0.17747623
165	0xbc63e35c	-0.013909187
166	0x3cee409b	0.02908354
167	0xbe054a26	-0.13016567
168	0xbcb7c409	-0.022432344
169	0x3d8ed528	0.0697425
170	0x3d91ce35	0.07119409
171	0x3df4a3de	0.11945318
172	0x3ddcd113	0.10782065
173	0xbe182637	-0.14858328
174	0xbcf8e318	-0.030381724
175	0xbda85e21	-0.08221079
176	0xbe44c67a	-0.19216338
177	0x3d8e2e94	0.06942478
178	0xbddd966d	-0.10819707
179	0x3d049bcb	0.03237514
180	0x3d4e0faf	0.050307926
181	0xbe23ab43	-0.159833
182	0x3e385399	0.1800064
183	0x3b8779d5	0.0041343966
184	0xbeaf5182	-0.34241873
185	0xbda600d1	-0.081056245
186	0x3d7feaf1	0.062479917
187	0xbe28f6f0	-0.16500449
188	0xbe1bd39d	-0.15217443
189	0xbd013e92	-0.031553812
190	0x3da0702f	0.07833897
191	0x3d50802b	0.05090348
192	0xbd8ef7d5	-0.06980864
193	0x3c6e2aa0	0.01453653
194	0x3cfba122	0.030716483
195	0x3e030f84	0.12798887
196	0xbdfcd204	-0.12344745
197	0xbe5a237a	-0.21302596
198	0x3d1edd2a	0.038785137
199	0xbe3a427b	-0.18189423
200	0xbdec6a63	-0.11543729
201	0xbe5826f2	-0.21108606
202	0xbd940855	-0.07228152
203	0x3ea10d90	0.3145566
204	0xbd1daa77	-0.038492646
205	0x3e8674bc	0.26260936
206	0x3ed716f7	0.42009708
207	0x3da3fc5b	0.08007117
208	0x3d235fe2	0.039886363
209	0x3e4fddc6	0.20299444
210	0xbd2a8f9c	-0.041640863
211	0x3d915eb7	0.070981435
212	0x3e66ba64	0.2253204
213	0xbbd647ad	-0.006539306
214	0x3d13b7b0	0.03606385
215	0xbc8cad84	-0.017172582
216	0x3e3dda47	0.18540297
217	0xbc9391bf	-0.018013833
218	0xbe18b425	-0.1491247
219	0x3ddce496	0.10785787
220	0x3db7c4be	0.089730725
221	0x3e2b6f1f	0.16741608
222	0x3dee84dc	0.11646435
223	0xbdc55b7d	-0.09636591
224	0xbeb084fd	-0.34476462
225	0x39623f79	0.00021576685
226	0xbe63763c	-0.22213072
227	0x3e99d1ae	0.30042785
228	0xbdccc505	-0.09998516
229	0xbd58b7a1	-0.052909497
230	0xbe5a004d	-0.21289177
231	0xbd7d49a9	-0.061837826
232	0x3e4de7fc	0.20108026
233	0x3d2922fd	0.041293133
234	0x3e193393	0.1496108
235	0x3bcbe473	0.0062223016
236	0xbe86beb2	-0.26317364
237	0x3e41dd6d	0.18932123
238	0xbe376325	-0.17908914
239	0xbee82ede	-0.45348257
240	0x3e843028	0.2581799
241	0xbe40f8d1	-0.18844916
242	0x3e4f963d	0.20272155
243	0xbe01cb2f	-0.12675165
244	0x3d4e4fed	0.050369192
245	0xbe0c3953	-0.13693742
246	0x3d308ba2	0.043101914
247	0xbd6e75e2	-0.05821789
248	0xbde004c3	-0.10938408
249	0x3cc3a24d	0.023881102
250	0x3c713a5e	0.0147233885
251	0x3dc6ea77	0.09712689
252	0x3e13d40f	0.14436363
253	0xbe2d4480	-0.16920662
254	0xbe82e4bf	-0.25565144
255	0xbd8ec151	-0.06970466

nconvs.0.modlist.0.lin_l.bias f4 [48]
0	0xbe590a7b	-0.21195404
1	0x3ebacc88	0.3648417
2	0xbd859189	-0.06521899
3	0xbdfd9e6b	-0.123837315
4	0xbdf355a7	-0.11881571
5	0xbe28570e	-0.16439459
6	0xbc78590a	-0.015157947
7	0xbd8c9a41	-0.06865359
8	0xbecd24b9	-0.4006708
9	0xbdecf81e	-0.11570762
10	0x3c1b7b84	0.009489898
11	0xbddb00d4	-0.10693517
12	0xbdfa7033	-0.122284316
13	0x3f07a896	0.52991617
14	0xbbd08519	-0.0063635227
15	0xbdc2339c	-0.094825
16	0x3b81f7da	0.003966314
17	0x3dc27e7c	0.09496781
18	0x3e54d98e	0.20786116
19	0xbf4143e6	-0.7549423
20	0xbe2c7ed2	-0.16845253
21	0x3d9f78d4	0.07786718
22	0x3f8995f4	1.0748887
23	0xbe63af1e	-0.2223477
24	0x3d9b6691	0.07587922
25	0xbd44829b	-0.047976118
26	0xbdbd552c	-0.09244761
27	0xbe49ca4a	-0.19706073
28	0xbe8ba78f	-0.27276275
29	0xbbdcbb41	-0.0067361896
30	0xbeac5883	-0.3366128
31	0xbe599379	-0.21247663
32	0x3f9daf85	1.2319189
33	0xbe047be8	-0.12937891
34	0xbe18d7f9	-0.14926137
35	0xbd91718e	-0.07101737
36	0xbe1edd03	-0.15513997
37	0xbe12efb9	-0.1434926
38	0xbdf7f93d	-0.12108085
39	0x3f7ccd70	0.9875097
40	0xbe506b2a	-0.2035338
41	0xbe568342	-0.20948508
42	0x3c0bdbec	0.00853632
43	0x3d9e0c42	0.07717182
44	0x3e2210c0	0.15826702
45	0x3de8aa94	0.1136066
46	0xbd915b0f	-0.07097446
47	0x3dc77a2d	0.097401

nconvs.0.modlist.0.lin_r.weight f4 [48, 48]
0	0x3d27d7ff	0.040977474
1	0xbd137d82	-0.036008365
2	0x3e2fccec	0.17168015
3	0xbd94e424	-0.07270077
4	0xbd11e8f3	-0.03562255
5	0xbe6ce070	-0.23132491
6	0xbe30d565	-0.17268904
7	0xbd0d5289	-0.03450254
8	0xbaf3e35c	-0.0018607187
9	0xbdc28feb	-0.095001064
10	0xbd8113fb	-0.06302639
11	0x3e8524bb	0.26004586
12	0xbdc4f8d8	-0.09617776
13	0xbdf31024	-0.11868313
14	0x3e9efc07	0.31051657
15	0xbcfe140f	-0.031015424
16	0x3e31472e	0.17312309
17	0xbd75490a	-0.05988411
18	0x3d4fe896	0.05075892
19	0x3e873e9f	0.26414964
20	0xbe1547c9	-0.14578165
21	0x3c811b88	0.015760198
22	0xbdbff5a5	-0.09373025
23	0x3d0e0008	0.034668
24	0x3d8bf3bc	0.06833598
25	0x3de99cb8	0.11406845
26	0xbe55f173	-0.20892887
27	0xbd5ecd99	-0.054395292
28	0x3e6acc4a	0.22929493
29	0x3e2210c1	0.15826704
30	0x3e78ca8f	0.2429602
31	0xbe285a89	-0.16440786
32	0xbe3423a0	-0.17591715
33	0xbdaf655b	-0.08564254
34	0xbdfda303	-0.12384608
35	0x3e31f02f	0.17376779
36	0x3d1948aa	0.037422813
37	0xbd800e5b	-0.06252738
38	0xbdb5c0d6	-0.08874671
39	0xbccb6a60	-0.024830997
40	0x3d61fb9c	0.055171594
41	0xbc7e8965	-0.015535687
42	0xbce29a87	-0.027661575
43	0xbd52ae7e	-0.05143594
44	0xbe94414f	-0.28956077
45	0x3ba398cf	0.0049925814
46	0x3c5153cd	0.012776327
47	0x3ea5835f	0.3232679
48	0x3d69e907	0.057106998
49	0x3c7492de	0.014927594
50	0xbdba07f7	-0.090835504
51	0x3e03ec26	0.12883052
52	0x3d4b50f4	0.04963775
53	0x3da8cf27	0.08242636
54	0x3b5ac207	0.003337981
55	0x3caa5789	0.020793693
56	0x3e278d49	0.1636249
57	0x3e1b1099	0.1514305
58	0xbec08bb3	-0.37606582
59	0x3e92072f	0.28521106
60	0x3e53e854	0.20694095
61	0x3c42d21c	0.011890914
62	0x3f011a8b	0.50431126
63	0x3e35fb1a	0.17771569
64	0xbe27a34e	-0.1637089
65	0xbe8d2da6	-0.2757389
66	0xbde67cc0	-0.11254263
67	0xbee5cb7b	-0.44881806
68	0x3ef971b9	0.48719576
69	0xbe64b759	-0.22335567
70	0xbd98712d	-0.074434616
71	0x3d26ccc7	0.040722635
72	0x3cfefcc1	0.031126382
73	0x3e8452a6	0.25844306
74	0x3d44b1ae	0.04802101
75	0x3e2eb1ff	0.17060088
76	0xbdcf5857	-0.10124271
77	0xbd90c27c	-0.07068345
78	0xbd9c60ee	-0.07635675
79	0x3db9a33f	0.0906434
80	0xbeee719f	-0.4657106
81	0x3e0a34e4	0.13496739
82	0x3c9baef5	0.019004324
83	0xbd8fef6b	-0.07028087
84	0x3d85a537	0.06525653
85	0x3d87b4d0	0.06626284
86	0xbf065891	-0.5247889
87	0xbed57eec	-0.41698396
88	0x3f00d9d1	0.5033236
89	0xbe59f7c4	-0.21285921
90	0x3dc9531c	0.09830305
91	0xbe06aec9	-0.13152613
92	0xbe158441	-0.14601232
93	0xbdd2084e	-0.1025549
94	0xbe9605f4	-0.29301417
95	0xbebc76ba	-0.3680933
96	0x3d0d6ced	0.034527708
97	0xbd72cf92	-0.059279986
98	0x3d89d723	0.06730487
99	0xbde30ce5	-0.11086444
100	0x3dbb5846	0.09147696
101	0xbc574837	-0.013139776
102	0xbd8bc29a	-0.06824227
103	0xbd7bea22	-0.061502583
104	0xbcd6abbb	-0.026204934
105	0xbdaa7bbb	-0.08324381
106	0x3e30b6e5	0.17257269
107	0xbc3f42bb	-0.011673625
108	0xbd982bfb	-0.074302636
109	0x3e4bc5c8	0.19899666
110	0x3d8fd83b	0.070236646
111	0xbdf86c6c	-0.12130055
112	0x3e07d9a5	0.13266619
113	0x3e0ffc59	0.14061107
114	0x3e3601ff	0.17774199
115	0xbbb049ef	-0.0053799073
116	0xbdeaa716	-0.1145765
117	0x3e208319	0.1567501
118	0x3b7a4f09	0.0038194081
119	0x3d507ccc	0.050900266
120	0xbd626989	-0.055276427
121	0x3d2d1482	0.042255886
122	0xbbeeca0b	-0.007287269
123	0x3d6785ab	0.05652396
124	0x3cd19e85	0.025588283
125	0x3dd6c903	0.10487559
126	0x3dfbaee1	0.12289215
127	0xbe316b2b	-0.17326038
128	0xbde566b3	-0.11201229
129	0xbc0592f8	-0.008152716
130	0xbe4362d4	-0.19080669
131	0x39e5dc3f	0.0004384238
132	0x3c777355	0.015103181
133	0xbb6ef20e	-0.0036460194
134	0xbef72d03	-0.4827653
135	0xbd50916a	-0.050919928
136	0x3dfdc37b	0.123908006
137	0xbd2673f8	-0.04063794
138	0x3d14d318	0.036334127
139	0xbd83bf33	-0.06432953
140	0xbe2a17c1	-0.16610624
141	0x3df2c4d7	0.118539505
142	0xbd951747	-0.072798304
143	0xbdeaaf70	-0.11459243
144	0xbe87c1c8	-0.2651503
145	0xbcc2baa1	-0.023770632
146	0x3c0094c8	0.007847972
147	0x3e2f9be7	0.17149316
148	0x3e15bba4	0.1462236
149	0x3c61af1f	0.013774662
150	0xbde4368e	-0.11143218
151	0xbd7e9aca	-0.062159337
152	0x3dcb2d84	0.09920791
153	0x3d0408e3	0.032235038
154	0xbe03c7c5	-0.12869175
155	0x3dd4c6f2	0.10389508
156	0x3e35bde7	0.17748223
157	0x3e5b76ef	0.21432088
158	0x3f165164	0.5871794
159	0xbdf51936	-0.11967699
160	0xbdce7e1e	-0.10082649
161	0xbe886226	-0.2663738
162	0x3e088185	0.13330658
163	0xbe3cfc51	-0.18455626
164	0x3d43ac7b	0.047771912
165	0xbde34f36	-0.11099093
166	0x3ed13886	0.40863436
167	0x3e3ed472	0.18635729
168	0x3dd8e789	0.10591037
169	0x3e2914fb	0.1651191
170	0x3cb52831	0.022113891
171	0x3ce46d5f	0.027884183
172	0xbd1a1ea5	-0.03762688
173	0xbdc72515	-0.0972387
174	0x3ed08ac1	0.4073086
175	0x3dfa7f6a	0.122313336
176	0xbeb58071	-0.35449556
177	0xbdd82547	-0.10553985
178	0x3da136f2	0.07871808
179	0x3df6d322	0.12051989
180	0x3e1b53f0	0.15168738
181	0x3dd76513	0.10517325
182	0xbe4ca5c7	-0.19985114
183	0xbd6f0892	-0.058357783
184	0x3dedb2dd	0.11606381
185	0xbd8ed125	-0.06973485
186	0xbdf28a2b	-0.1184276
187	0xbd316e0f	-0.04331785
188	0xbdb0c35c	-0.08631012
189	0x3c7b203b	0.015327509
190	0xbc178495	-0.009247919
191	0xbd4d6bd4	-0.05015166
192	0x3cdd38e5	0.027004668
193	0x3cabfacd	0.020993615
194	0x3d942731	0.07234038
195	0xbca1ceaa	-0.019751865
196	0xbe74906d	-0.23883219
197	0xbe345c70	-0.17613387
198	0xbdad450c	-0.08460435
199	0xbe425807	-0.18978892
200	0xbeaa6178	-0.33277488
201	0xbc7ecea3	-0.015552196
202	0x3e994bb4	0.2994057
203	0x3e11847b	0.14210694
204	0xbe2b53b7	-0.16731153
205	0xbdea6dac	-0.114466995
206	0xbe7666ca	-0.24062648
207	0xbe3f1a03	-0.18662266
208	0x3ea5599b	0.32294926
209	0x3d647165	0.055772204
210	0x3e3fe313	0.18738966
211	0x3e4f0fd2	0.20220879
212	0xbe8a579a	-0.2701996
213	0x3eb834f8	0.35977912
214	0xbe4a3636	-0.19747242
215	0xbe6d6e8e	-0.23186705
216	0x3e6a066e	0.22854015
217	0xbe85f097	-0.26160118
218	0xbe0ca678	-0.13735378
219	0xbe12c43b	-0.14332668
220	0x3e0e726e	0.13910839
221	0x3e709d1b	0.23497431
222	0x3db9ca74	0.09071818
223	0xbca78d7c	-0.020453207
224	0x3e8ce32e	0.27517074
225	0x3c0bbb9b	0.008528615
226	0xbdfc1ad8	-0.123098075
227	0x3e24bfd0	0.16088796
228	0xbea6ba7e	-0.32564157
229	0xbe128821	-0.14309742
230	0x3f19c2c3	0.6006281
231	0x3e1930db	0.14960043
232	0xbe470eae	-0.19439194
233	0x3e9672ff	0.2938461
234	0x3e344ff0	0.17608619
235	0x3d68973a	0.056784846
236	0x3e213d8b	0.15746133
237	0x3daece93	0.08535495
238	0x3e3f12bc	0.1865949
239	0x3de3b1b4	0.111178786
240	0x3dc626c2	0.09675361
241	0xbc8784af	-0.01654276
242	0xbd2346d1	-0.039862458
243	0x3daecbb6	0.085349485
244	0x3ce101a9	0.027466612
245	0xbe14af24	-0.14519936
246	0xbe40ee9c	-0.18841022
247	0x3d9ef9ce	0.0776249
248	0x3c20ecd9	0.009822094
249	0xbd9f5768	-0.07780343
250	0xbe0626a1	-0.13100673
251	0x3dd204b0	0.102548
252	0x3cf93c53	0.030424273
253	0xbd4daff5	-0.050216634
254	0x3df83748	0.12119919
255	0xbd3346cc	-0.04376869

nconvs.1.modlist.0.lin_l.weight f4 [48, 48]
0	0x3d779ba2	0.060451157
1	0xbd3e8b41	-0.04651952
2	0x3de8d9a5	0.113696374
3	0x3ddd2198	0.10797423
4	0x3d0a68de	0.033791415
5	0x3e36ff3a	0.17870799
6	0x3e1f2e9b	0.15545122
7	0x3e0dc7c2	0.13845733
8	0xbd967cab	-0.07347997
9	0xbc8ee97a	-0.017445315
10	0xbd974999	-0.073870845
11	0x3dbc7e8a	0.09203823
12	0xbce23860	-0.027614772
13	0xbc230857	-0.009950719
14	0x3dbe14a9	0.09281284
15	0xbd762349	-0.060092244
16	0xbd4845e8	-0.048894793
17	0xbd061c2e	-0.032741718
18	0x3d84593d	0.06462333
19	0x3b6b4ee1	0.003590517
20	0xbde9e8a4	-0.11421326
21	0x3e05cf76	0.13067421
22	0x3e6d2266	0.23157653
23	0xbcd22a5b	-0.025654962
24	0xbd9aabe3	-0.07552316
25	0x3e270eee	0.16314289
26	0xbd025b2d	-0.031825233
27	0xbdb90f2e	-0.090360984
28	0xbd80a13c	-0.06280753
29	0x3c6bb1ed	0.0143856825
30	0x3e00879d	0.12551732
31	0x3d7f51c1	0.062333826
32	0x3d80baef	0.06285655
33	0xbd5733f2	-0.052539773
34	0x3de4a07c	0.111634225
35	0xbd7b3866	-0.061333083
36	0x3d29b392	0.041431017
37	0x3dd25836	0.10270731
38	0xbd932463	-0.071846746
39	0xbe4ac80c	-0.19802874
40	0x3c3d7beb	0.011565189
41	0xbb48e667	-0.0030654909
42	0x3ddef0fe	0.10885809
43	0x3d9b7e7d	0.07592485
44	0x3e07f23e	0.13276002
45	0x3dd5b79b	0.104354106
46	0xbd8c9c18	-0.0686571
47	0x3de1fb47	0.110342555
48	0x3e0ac34a	0.1355106
49	0x3dd91dee	0.10601412
50	0xbcedc86c	-0.029026233
51	0xbcaa5c2a	-0.0207959
52	0x3e06f782	0.13180354
53	0x3daa1e65	0.083065785
54	0x3dcbd93b	0.09953543
55	0x3e0bb819	0.13644446
56	0x3e81e325	0.2536861
57	0xbba1c3cd	-0.0049366714
58	0xbd06227e	-0.032747738
59	0x3c94ddfe	0.01817226
60	0x3e2d72a2	0.1693826
61	0x3ceb6aec	0.028737508
62	0x3b80341c	0.003912462
63	0x3d6c7b4e	0.05773478
64	0x3dbe28a2	0.09285094
65	0x3d5dff7b	0.054198723
66	0xbd6712a3	-0.056414258
67	0x3da2f1cc	0.07956275
68	0x3d09ca24	0.033640042
69	0x3c8d679d	0.01726132
70	0x3d9c3973	0.07628145
71	0x3dd40766	0.10352974
72	0xbd2c029d	-0.04199468
73	0x3c577128	0.013149537
74	0x3e02368b	0.12716119
75	0x3e3aeb59	0.1825384
76	0x3cf0ebf8	0.029409394
77	0x3dde1a75	0.1084489
78	0xbd59e494	-0.053196505
79	0x3dad38b7	0.08458083
80	0x3e5bd1a3	0.21466689
81	0x3d46d374	0.0485415
82	0x3d599496	0.05312022
83	0x3de191b7	0.11014121
84	0x3bae7a32	0.0053246254
85	0x3e192718	0.1495632
86	0x3e4919ff	0.19638823
87	0x3da47a78	0.080311716
88	0x3d2e50ac	0.042557403
89	0x3c1c85fe	0.009553431
90	0xbc5ca214	-0.013466377
91	0x3d1b0d16	0.037854277
92	0x3dc6f6de	0.09715055
93	0x3e30ae22	0.17253926
94	0x3e248fb3	0.16070442
95	0x3e0c6fd0	0.13714528
96	0xbc59a34e	-0.013283564
97	0xbe122311	-0.1427119
98	0xbe31121f	-0.17292069
99	0x3b9e1686	0.0048244623
100	0xbd81fefc	-0.063474625
101	0xbba68b8e	-0.005082554
102	0x3db36b7e	0.08760737
103	0x3d568323	0.052371155
104	0xbe4000fd	-0.18750377
105	0xbda99daa	-0.08282025
106	0xbda646bb	-0.081189595
107	0x3c432f4d	0.011913133
108	0x3d3e8f5b	0.046523433
109	0xbe49c74f	-0.19704936
110	0xbe321377	-0.17390238
111	0xbe4b8646	-0.1987544
112	0x3d453866	0.04814949
113	0x3d99ced6	0.07510154
114	0xbe12090c	-0.14261264
115	0x3e3f9cfe	0.18712232
116	0x3ca96234	0.02067671
117	0x3daa858a	0.08326252
118	0x3b7802d2	0.0037843478
119	0xbd007685	-0.03136303
120	0xbdcf476b	-0.10121044
121	0x3b5a4e04	0.003331066
122	0xbcdbe5c7	-0.026842965
123	0xbe3ccca4	-0.18437439
124	0xbb948dcd	-0.0045335055
125	0xbdcc2b1a	-0.099691585
126	0xbd67856f	-0.056523737
127	0xbdcd0571	-0.100108035
128	0xbe1292ed	-0.1431386
129	0xbc9ba0f0	-0.01899764
130	0xbdd29b56	-0.10283534
131	0xbe29d278	-0.16584194
132	0x3d196f46	0.037459634
133	0x3d43ae6b	0.04777376
134	0xbdfe682e	-0.124222144
135	0x3e82802e	0.25488418
136	0xbdbf0a43	-0.09328129
137	0xbe179ad3	-0.14805155
138	0xbd349b29	-0.044093285
139	0xbd700872	-0.058601804
140	0xbe17f202	-0.14838412
141	0x3c8586cf	0.016299633
142	0xbd898e0b	-0.06716546
143	0x3da6c6eb	0.08143409
144	0xbe2a168c	-0.16610163
145	0xbdaf5911	-0.0856191
146	0x3e665a24	0.22495323
147	0x3f1c1017	0.6096205
148	0xbf464bf3	-0.7745964
149	0x3e911aea	0.28340846
150	0x3ea7e9e9	0.32795647
151	0xbd975142	-0.073885456
152	0x3f13c6ec	0.57725406
153	0x3e1b4c2c	0.15165776
154	0x3e2c04b6	0.16798672
155	0x3c8418b2	0.016125057
156	0x3e8de5ba	0.2771433
157	0x3f80c25d	1.0059315
158	0xbe0cc2d8	-0.13746202
159	0x3d645895	0.05574854
160	0xbdacbb1a	-0.08434124
161	0x3c495ad4	0.0122897215
162	0xbce5f076	-0.028068762
163	0x3ddc3c56	0.10753696
164	0x3ea6322f	0.32460162
165	0x3dca0885	0.09864906
166	0x3f87c0de	1.0605733
167	0xbda6aac4	-0.0813804
168	0x3e4a21aa	0.19739404
169	0x3e060a69	0.13089909
170	0xbd73eab3	-0.05955
171	0xbe9f4709	-0.31108883
172	0x3e233b28	0.15940535
173	0xbe86461e	-0.2622537
174	0xbf22340a	-0.63360655
175	0x3e94e564	0.2908126
176	0x3fa25b87	1.2684182
177	0xbe3ddb4f	-0.18540691
178	0x3d33fc5a	0.043941833
179	0x3ec54175	0.38526502
180	0x3be05f3a	0.0068472894
181	0xbdbfb125	-0.093599595
182	0x3e3e1ce3	0.18565707
183	0xbec728e3	-0.38898382
184	0x3ea67269	0.32509163
185	0x3ec7a6c2	0.38994414
186	0x3e5d9d45	0.21642025
187	0xbd5d4cf6	-0.054028474
188	0x3edb34a7	0.42813608
189	0x3e872368	0.263942
190	0xbc84bf5f	-0.016204534
191	0xbe485056	-0.19561896
192	0x3d9170ff	0.071016304
193	0xbde05050	-0.109528184
194	0xbd2a36eb	-0.04155628
195	0xbda91d11	-0.08257497
196	0x3dd4b373	0.1038579
197	0xbd6c1e64	-0.05764617
198	0xbd8fae7c	-0.07015702
199	0x3d82a71b	0.06379529
200	0xbe26454c	-0.16237372
201	0xbe1c7b2d	-0.15281363
202	0x3c8dc007	0.01730348
203	0x3dd291c5	0.102817096
204	0x3d8eee8f	0.06979095
205	0x3e52373d	0.20528884
206	0xbb6cd31a	-0.0036136569
207	0x3ba20ac2	0.00494513
208	0x3e3e50f3	0.18585567
209	0x3dcd4ba5	0.10024194
210	0xbe02eebb	-0.12786381
211	0xbc605e9f	-0.013694434
212	0xbd6fe361	-0.058566455
213	0x3c9163fb	0.01774787
214	0x3d32cc6d	0.043651987
215	0x3e09b485	0.13447769
216	0xbe099cb6	-0.13438687
217	0x3d96cf4e	0.07363759
218	0xbdde9e40	-0.108700275
219	0xbd004cd1	-0.031323258
220	0xbda39a02	-0.07988359
221	0xbdb1e095	-0.08685414
222	0xbd6f52ae	-0.05842846
223	0xbdba12dd	-0.09085629
224	0x3d93d8ac	0.07219061
225	0x3ce75590	0.028239042
226	0xbd13c6de	-0.036078326
227	0x3d545ff7	0.05184933
228	0x3d6299d0	0.05532247
229	0xbdd0a7b3	-0.10188236
230	0xbc9ecc71	-0.019384595
231	0xbd8c5074	-0.06851283
232	0x3e171a29	0.14756073
233	0xbc8f371b	-0.017482331
234	0x3dd3d0d9	0.10342569
235	0x3d2f14be	0.04274439
236	0x3d581554	0.052754715
237	0xbd107b5a	-0.035273887
238	0x3c43c0c7	0.011947817
239	0xbe06b3c2	-0.1315451
240	0xbe1f8dfb	-0.15581505
241	0xbd73f397	-0.059558477
242	0xbe0f5384	-0.13996702
243	0x3ca69983	0.020336872
244	0x3d94c13a	0.072634175
245	0xbc133e43	-0.008987012
246	0xbe4f5f34	-0.20251161
247	0xbe3f3474	-0.18672353
248	0xbe26ee2f	-0.16301797
249	0xbdec47e6	-0.11537151
250	0xbdb3e2da	-0.08783503
251	0xbb2296ed	-0.0024809197
252	0x3e9ad453	0.30240116
253	0xbe080cef	-0.13286184
254	0x3d840e52	0.06448044
255	0x3cacee1a	0.02110963

nconvs.1.modlist.0.lin_l.bias f4 [48]
0	0x3d0bc636	0.034124576
1	0x3e0e586b	0.13900916
2	0xbe155a9c	-0.14585346
3	0x3f1141a2	0.5674077
4	0xbd804cb9	-0.06264634
5	0xbe3f7789	-0.18697943
6	0x3e3709d6	0.17874846
7	0x3d265d6e	0.040616445
8	0xbcd72aaa	-0.026265461
9	0xbe432bd9	-0.19059695
10	0xbe3ce1b2	-0.18445471
11	0xbc91afa6	-0.017783951
12	0xbdc422f2	-0.09576978
13	0x3d891032	0.06692542
14	0xbe06ba26	-0.13156947
15	0x3d669061	0.056290034
16	0xbdf80ed4	-0.12112203
17	0xbdccde2c	-0.100033134
18	0xbd9013d7	-0.07035034
19	0x3d296cdb	0.04136358
20	0xbc48269a	-0.012216235
21	0x3ddf2b18	0.10896891
22	0x3e3b0732	0.18264464
23	0xbde79272	-0.11307229
24	0x3da1b3a6	0.07895593
25	0xbccd1197	-0.025032802
26	0x3d286df8	0.0411205
27	0x3e13b1b0	0.14423251
28	0xbd153b96	-0.03643378
29	0xbdf04eaf	-0.11733758
30	0x3f00b1b4	0.50271153
31	0x3bfcd7f8	0.007716175
32	0xbd0d6b83	-0.03452636
33	0x3db97944	0.09056333
34	0x3e6116e8	0.21981394
35	0xbd5dfd54	-0.05419667
36	0x3c3e890e	0.011629356
37	0x3dfe3979	0.12413306
38	0x3da85092	0.082184926
39	0xbe2e719c	-0.17035526
40	0xbe312c27	-0.17301999
41	0x3da130b6	0.07870619
42	0xbe352a13	-0.17691831
43	0xbc9bfba9	-0.0190409
44	0x3e673882	0.2258015
45	0x3d837690	0.064190984
46	0xbdd0c3ed	-0.1019362
47	0xbdd2b0c0	-0.10287619

nconvs.1.modlist.0.lin_r.weight f4 [48, 48]
0	0x3dd9e6d2	0.106397286
1	0xbdc85277	-0.09781354
2	0x3d04c3ac	0.03241317
3	0xbe083573	-0.1330164
4	0xbe044ac0	-0.1291914
5	0x3c0c8d21	0.00857857
6	0x3dada847	0.08479362
7	0x3caa862c	0.020815931
8	0x3e88ccca	0.26718742
9	0xbbfb7413	-0.0076737492
10	0xbe27c9ef	-0.16385625
11	0x3d8a4f4e	0.067534074
12	0x3dd4d973	0.10393038
13	0xbd836a8d	-0.06416807
14	0x3d9a225b	0.07526084
15	0xbe0a4462	-0.13502648
16	0x3dded89f	0.10881161
17	0xbdbb97dd	-0.09159825
18	0x3d370f52	0.044692345
19	0x3e3113b3	0.17292671
20	0x3da9be8b	0.08288296
21	0xbdde820e	-0.1086465
22	0x3cd7bb18	0.02633433
23	0xbd9ba96e	-0.076006755
24	0xbbace9ba	-0.005276886
25	0xbd666cbd	-0.056256045
26	0x3d80a520	0.06281495
27	0xbba75099	-0.0051060435
28	0xbe01525e	-0.12629077
29	0xbd796751	-0.060889546
30	0x3e358118	0.17725027
31	0x3d700530	0.058598697
32	0x3c1fa6d4	0.009744365
33	0x3d7ced8e	0.061749987
34	0xbd54e455	-0.051975567
35	0x3d7d9b64	0.06191577
36	0x3e079743	0.13241296
37	0x3d91b040	0.07113695
38	0x3b16212b	0.0022907953
39	0xbd551d25	-0.052029748
40	0xbdb28345	-0.08716444
41	0xbdbbf6de	-0.091779456
42	0xbd581005	-0.052749652
43	0xbd989aae	-0.07451378
44	0xbde635ae	-0.11240707
45	0x3d3bcd37	0.045850005
46	0x3d8d4820	0.068985224
47	0xbde192fd	-0.11014364
48	0xbd7317d0	-0.05934888
49	0xbcb80055	-0.022461096
50	0x3d1c84e8	0.038212687
51	0x3de9c971	0.11415375
52	0xbd934408	-0.0719071
53	0x3c9b8794	0.018985547
54	0x3bbdf961	0.0057975505
55	0x3d29d6b4	0.041464522
56	0x3d89ba8c	0.06725034
57	0x3c56b956	0.013105711
58	0xbd59aac5	-0.053141374
59	0x3d90efa2	0.07076956
60	0x3cfa4465	0.030550191
61	0x3cdb0633	0.026736354
62	0xbd9b97b7	-0.07597297
63	0x3d1330f0	0.035935342
64	0x3df73e8e	0.12072478
65	0x3e22e9ec	0.15909547
66	0x3daa4765	0.08314399
67	0xbdfdb7c0	-0.12388563
68	0x3ce6860e	0.028140094
69	0x3e174344	0.14771754
70	0x3d72155a	0.059102394
71	0x3d8ccb6f	0.068747394
72	0x3e363e0f	0.17797111
73	0xbc794fac	-0.015216749
74	0x3e3d48a1	0.18484737
75	0x3b8727fd	0.00412464
76	0xbd82407e	-0.06359957
77	0x3c225dfd	0.009910104
78	0x3d383f6e	0.044982366
79	0x3cae0165	0.0212409
80	0xbdc70ed1	-0.09719623
81	0x3d357cb1	0.044308368
82	0xbc652b0f	-0.013987317
83	0x3c04e2b2	0.008110689
84	0x3e0507e6	0.12991294
85	0x3e0dc40d	0.13844319
86	0x3dded233	0.10879936
87	0xbe1b8f25	-0.15191324
88	0x3da76de1	0.081752546
89	0xbd7b7dfe	-0.061399452
90	0x3ddddaff	0.10832786
91	0xbde1eb97	-0.11031263
92	0x3d75b526	0.05998721
93	0x3e25eb3d	0.16203018
94	0xbcfca4b4	-0.030840255
95	0x3df4a391	0.1194526
96	0xbe2d5fb9	-0.16931047
97	0xbd3b6bfd	-0.045757283
98	0xbe266dc7	-0.16252814
99	0xbc93ed68	-0.01805754
100	0xbe432dcf	-0.19060443
101	0x3c1d2b5f	0.00959286
102	0x3da60eef	0.08108317
103	0x3d852451	0.065010674
104	0xbde9a78d	-0.11408911
105	0xbdde000c	-0.10839853
106	0x3ca159c7	0.01969613
107	0xbd3258cf	-0.043541726
108	0xbca73026	-0.020408701
109	0xbda29419	-0.07938404
110	0xbd21f7d8	-0.039543003
111	0xbe1e020c	-0.15430468
112	0xbccdb956	-0.02511279
113	0x3dc81634	0.0976986
114	0xbdfa7f9b	-0.1223137
115	0xbeb033f2	-0.3441463
116	0xbe1d1f94	-0.15344077
117	0xbc35b27b	-0.011089916
118	0xbd0ca89a	-0.03434048
119	0xbdb837f8	-0.0899505
120	0x3df62a71	0.12019814
121	0x3d3a1b47	0.04543617
122	0x3dbeb401	0.09311677
123	0x3cd9f90d	0.026608014
124	0x3cc93262	0.024560157
125	0xbd2816be	-0.041037314
126	0x3d4b720c	0.04966931
127	0x3d5c4287	0.053774383
128	0x3d9891fa	0.07449718
129	0xbdbd7d35	-0.09252397
130	0x3da37cf1	0.07982815
131	0x3d9c596d	0.07634244
132	0x3cb22f01	0.021750929
133	0xbcb75c72	-0.022382949
134	0xbe07f78e	-0.13278028
135	0x3d8ee8ba	0.06977983
136	0x3ccba2fe	0.024857994
137	0xbd89bc40	-0.06725359
138	0xba7cd380	-0.0009644553
139	0xbe0e4678	-0.13894069
140	0xbe3baf3a	-0.18328562
141	0xbe030ee8	-0.12798655
142	0xbe4222e7	-0.18958627
143	0x3d1aed64	0.03782405
144	0x3e429468	0.19001925
145	0x3e167a98	0.14695203
146	0x3d9920d5	0.07476965
147	0xbf151567	-0.5823578
148	0xbea80266	-0.3281433
149	0x3e539ed4	0.20666057
150	0x3eb2dd67	0.34934542
151	0xbd624f68	-0.05525151
152	0x3e3f5c6f	0.18687604
153	0xbf5d29ea	-0.8639208
154	0x3e3ffa4f	0.18747829
155	0xbe8601c8	-0.26173234
156	0x3e8bc210	0.27296495
157	0x3ece81b9	0.40333346
158	0x3e0238a1	0.12716915
159	0xbdd988aa	-0.1062177
160	0x3e23c758	0.15994012
161	0x3d5de365	0.05417194
162	0x3de8e77d	0.11372278
163	0xbf35a592	-0.70955765
164	0xbdf00d83	-0.11721327
165	0x3e0a0aaa	0.1348063
166	0xbd865974	-0.065600306
167	0xbf1e5bbe	-0.6185874
168	0x3decefb6	0.11569159
169	0x3e8ec150	0.2788186
170	0xbeb1710a	-0.34656554
171	0xbe4cd425	-0.20002802
172	0x3f054b7a	0.52068293
173	0xbe872eeb	-0.26402983
174	0xbf257bf2	-0.6464225
175	0x3e7fb427	0.24971066
176	0xbdb35811	-0.08757032
177	0xbe4e1f20	-0.20129061
178	0xbc0dccfd	-0.00865483
179	0xbef38cfd	-0.47568503
180	0x3da24a1c	0.079242915
181	0xbe9be68d	-0.30449334
182	0x3d4127e2	0.047157176
183	0x3e4daf1c	0.2008633
184	0xbf99cbc8	-1.2015314
185	0xbea292ab	-0.31752524
186	0x3e78a2ab	0.24280803
187	0x3d9b0e81	0.07571126
188	0x3e48df72	0.19616488
189	0x3d8cbbea	0.06871779
190	0xbf74c23d	-0.95608884
191	0x3e5b58c2	0.21420577
192	0x3db2db4f	0.08733236
193	0xbc821d89	-0.015883224
194	0x3da4ff52	0.08056511
195	0xbd1a3311	-0.037646357
196	0x3e16e3b8	0.14735305
197	0x3d638f40	0.055556536
198	0xbd9200dd	-0.07129071
199	0x3e29e03f	0.1658945
200	0xbd51fd33	-0.05126686
201	0xbe1b4354	-0.15162402
202	0xba3673bb	-0.0006959994
203	0x3d3d5bd6	0.04623016
204	0xbe80d678	-0.25163627
205	0x3d876053	0.06610169
206	0xbcc9d417	-0.024637265
207	0xbbceef54	-0.006315151
208	0x3e218939	0.15775003
209	0x3df45b60	0.11931491
210	0xbdf30bd0	-0.118674874
211	0x3c0eb270	0.008709535
212	0xbd0fd09a	-0.035111047
213	0x3e149ce7	0.14512978
214	0x3dba276d	0.09089551
215	0xbc175a7f	-0.009237885
216	0xbda738f1	-0.081651576
217	0xbd3e1c89	-0.046413932
218	0x3d6575da	0.056020595
219	0xbdd0f572	-0.10203065
220	0xbd92884c	-0.07154903
221	0x3e3efbe2	0.18650773
222	0x3e3d307e	0.1847553
223	0x3e8851df	0.26624963
224	0xbda05527	-0.078287415
225	0xbd923b9b	-0.07140275
226	0x3d074260	0.033022285
227	0x3dff9d02	0.12481119
228	0xbdda926c	-0.10672459
229	0xbdc4c399	-0.0960762
230	0xbd442360	-0.0478853
231	0x3dab2a5c	0.08357689
232	0xbadea5a6	-0.0016986623
233	0x3cae0bda	0.021245886
234	0x3db9c01f	0.09069847
235	0xbbd5ac1f	-0.0065207626
236	0x3e128f8d	0.14312573
237	0xbd97e833	-0.07417335
238	0xbcb1108b	-0.021614334
239	0xbd88f17c	-0.066866845
240	0xbb30dd56	-0.0026987395
241	0x3d1f95d8	0.03896126
242	0xbdc1f918	-0.09471339
243	0xbe34c3d1	-0.17652823
244	0xbe364027	-0.1779791
245	0xbd9fc6a7	-0.07801562
246	0xbd8f29a4	-0.06990364
247	0xbd84c534	-0.06482926
248	0xbde805bb	-0.11329218
249	0xbdb043fe	-0.086067185
250	0xbd1a5a34	-0.03768368
251	0xbb70e742	-0.0036758934
252	0xbeb86ef5	-0.36022153
253	0x3cca9d55	0.024733225
254	0xbe396600	-0.18105316
255	0xbe609a15	-0.21933778

h_1.modlist.0.modlist.0.weight f4 [18, 49]
0	0xbe71a09c	-0.23596424
1	0xbe68f881	-0.22751047
2	0xbde53e53	-0.11193528
3	0x3e18aa17	0.14908634
4	0x3d812c2e	0.06307255
5	0x3ccd50cf	0.025062947
6	0x3d73f91e	0.05956375
7	0xbe80cd01	-0.25156406
8	0xbe02de87	-0.127802
9	0xbe48048f	-0.19532989
10	0xbe96f34f	-0.29482505
11	0xbd1f4fc9	-0.03889445
12	0x3cdafdc9	0.026732342
13	0xbe5558b4	-0.20834619
14	0x3e30dc18	0.17271459
15	0x3cb9bc55	0.022672812
16	0x3e0b87cd	0.13626023
17	0xbca5033d	-0.020143146
18	0x3eaf25e0	0.34208584
19	0x3e43180d	0.19052143
20	0xbe3c7800	-0.18405151
21	0xbea2bd91	-0.31785253
22	0x3dc600b5	0.096681036
23	0xbd275df6	-0.040861093
24	0x3e27586f	0.16342328
25	0xbe6668fa	-0.22500983
26	0x3e8c9817	0.27459785
27	0x3d4bb0c5	0.049729127
28	0xbd3cb760	-0.046073318
29	0x3e6de686	0.23232469
30	0x3c442778	0.011972301
31	0xbeaf8cf5	-0.3428723
32	0xbd3de3a7	-0.046359684
33	0x3e50c6b5	0.203883
34	0x3c8f4c96	0.017492574
35	0xbe57ac0b	-0.21061723
36	0xbe4374c7	-0.19087516
37	0x3edd7de1	0.432601
38	0x3e3df356	0.18549857
39	0x3e4f69cc	0.20255202
40	0x3e04e470	0.12977767
41	0xbe08e1d3	-0.13367395
42	0x3e0a3ede	0.13500544
43	0x3ebbd9b3	0.3668953
44	0x3e99660a	0.29960662
45	0x3ea154cb	0.31510004
46	0x3e0401b4	0.12891275
47	0x3dc4eae1	0.09615112
48	0xbd8ab36e	-0.06772505
49	0xbf06aac0	-0.52604294
50	0xbe2f9c71	-0.17149521
51	0xbea58ec1	-0.32335475
52	0xbdbb2891	-0.09138597
53	0xbe69837d	-0.22804065
54	0x3e4ce0e4	0.20007664
55	0xbe88876e	-0.26665825
56	0xbd6d1ae8	-0.057886988
57	0xbeb337d6	-0.35003537
58	0x3e6378ba	0.22214022
59	0x3ec2c0b4	0.38037646
60	0xbe9983f2	-0.2998348
61	0x3d9dccfa	0.07705112
62	0xbe135cd2	-0.14390877
63	0x3cdae902	0.026722435
64	0x3f121a12	0.5707103
65	0xbe8ad3e7	-0.27114794
66	0x3d9823d0	0.07428706
67	0xbf90b583	-1.1305393
68	0x3d24f9ea	0.0402774
69	0xbde24c7f	-0.11049747
70	0xbe55430a	-0.20826355
71	0xbe747eea	-0.23876539
72	0xbf996fb9	-1.198722
73	0xbea3961d	-0.31950465
74	0xbe1472cf	-0.14496921
75	0x3e5476a1	0.20748378
76	0xbe508d95	-0.2036651
77	0xbe0d71f6	-0.13813004
78	0xbfc0fd2c	-1.5077262
79	0xbeb89983	-0.3605462
80	0x3cd89147	0.026436461
81	0xbeb55478	-0.35416007
82	0xbf8432ce	-1.0328004
83	0xbe799d47	-0.24376403
84	0x3c2290ab	0.009922187
85	0x3deb9a68	0.1150406
86	0xbdaf5d1b	-0.0856268
87	0xbed82c7e	-0.42221445
88	0xbdfb8b7e	-0.122824654
89	0xbe190901	-0.14944841
90	0xbdb04e4d	-0.08608685
91	0xbe12e71a	-0.14345971
92	0x3d260674	0.040533498
93	0x3e8f13dc	0.2794484
94	0xbf1d100c	-0.6135261
95	0xbfd12f99	-1.6342651
96	0xbd864346	-0.065558
97	0xbebfa05c	-0.37427032
98	0xbe4fb24d	-0.2028286
99	0x39b53a1b	0.00034566302
100	0xbdbde069	-0.092713185
101	0xbe1b9da8	-0.1519686
102	0x3cad7c03	0.021177297
103	0x3d64b41b	0.055835824
104	0xbec67e9e	-0.38768476
105	0x3da789de	0.08180593
106	0xbe1d34ec	-0.1535222
107	0xbe3b2e12	-0.18279293
108	0xbc903834	-0.017604925
109	0x3e44d8a6	0.1922327
110	0x3d3546df	0.04425704
111	0xbded43d6	-0.11585204
112	0xbe31610c	-0.17322177
113	0x3e54db3e	0.2078676
114	0x3c454c4a	0.0120421145
115	0x3daca366	0.08429603
116	0xbe9af429	-0.30264404
117	0x3e18ebf7	0.14933763
118	0x3e3a198f	0.18173812
119	0x3ee8aeaf	0.45445773
120	0x3d0b5646	0.034017824
121	0xbecdd258	-0.40199542
122	0x3e16df6c	0.14733666
123	0xbeadea47	-0.33967802
124	0x3e851a61	0.25996688
125	0xbcd369e8	-0.025807336
126	0x3e7c21f0	0.24622321
127	0xbcd017b7	-0.025401933
128	0xbd8a03e6	-0.06739025
129	0xbbb6dff6	-0.0055808974
130	0xbf125e21	-0.5717488
131	0xbe0e3152	-0.13886002
132	0x3e0ca3a4	0.13734299
133	0x3ebac3bb	0.36477455
134	0xbe9ad321	-0.30239204
135	0x3d7afd34	0.06127663
136	0x3d2c7434	0.042103007
137	0xbe971efe	-0.29515833
138	0x3e307221	0.17231037
139	0x3d2ba0eb	0.04190151
140	0x3d4458fb	0.04793642
141	0x3e9353c1	0.28774837
142	0x3e537c6d	0.20652933
143	0xbe4b325d	-0.19843431
144	0xbe6d2314	-0.23157912
145	0x3cc85b3e	0.02445757
146	0xbe4162d4	-0.18885356
147	0x3e41b320	0.18915987
148	0x3dbc1294	0.09183231
149	0x3c8501b1	0.016236158
150	0x3c82513e	0.01590788
151	0xbe62c521	-0.22145511
152	0x3df0c70c	0.11756715
153	0xbb86a8ec	-0.0041094925
154	0x3e8fe7e7	0.28106615
155	0x3e098048	0.13427842
156	0xbe9355e2	-0.2877646
157	0x3c5c60f7	0.013450853
158	0xbd3e9e35	-0.046537597
159	0xbc6d46e3	-0.014482233
160	0x3e227fab	0.15869014
161	0x3d52d52d	0.05147283
162	0xbe0201b4	-0.12695962
163	0x3e14890d	0.14505406
164	0x3da739dd	0.081653334
165	0x3e372856	0.1788648
166	0xbdbb3422	-0.09140803
167	0xbd119c00	-0.035549164
168	0x3ec8ac52	0.3919397
169	0xbde4ce91	-0.11172212
170	0xbdb10643	-0.086437725
171	0x3df19ccb	0.11797484
172	0xbdce639b	-0.10077592
173	0xbe3dab16	-0.18522295
174	0xbe0cf33e	-0.13764665
175	0xbec7769c	-0.3895768
176	0xbf011ca9	-0.50434357
177	0x3c736821	0.014856369
178	0x3e134c36	0.14384541
179	0xbd2e2047	-0.04251125
180	0xbdd168ae	-0.10225044
181	0xbde4eb57	-0.111777
182	0xbdaf7446	-0.08567099
183	0xbdc0712c	-0.09396586
184	0xbb8d65b9	-0.004315105
185	0xbdcbfea8	-0.09960681
186	0xbe91ff0d	-0.285149
187	0x3e9a69f1	0.30158952
188	0xbea3bd8b	-0.31980547
189	0xbe80d00a	-0.2515872
190	0x3dcb7eee	0.09936319
191	0x3cd86440	0.02641499
192	0xbe4281da	-0.18994847
193	0xbe690cac	-0.2275874
194	0x3e0bf843	0.13668923
195	0x3c186bda	0.009303058
196	0x3e73a907	0.23794948
197	0xbca20f52	-0.019782696
198	0xbe0446af	-0.12917589
199	0xbe03ff3b	-0.12890331
200	0xbd9154cf	-0.07096254
201	0x3f1762ca	0.59135115
202	0x3e8d9bb1	0.27657846
203	0xbd09e974	-0.033669904
204	0x3e80323f	0.25038335
205	0xbd6c96df	-0.05776107
206	0x3ea1bf26	0.31591147
207	0xbe516fcd	-0.20452805
208	0xbec0ac42	-0.37631422
209	0x3e6edc90	0.23326325
210	0x3dbc3141	0.09189082
211	0x3e671295	0.22565682
212	0x3e6c672c	0.23086232
213	0xbd01b415	-0.03166588
214	0x3c85c80b	0.01633074
215	0x3d1fa96e	0.03897994
216	0x3e5796f7	0.21053682
217	0xbdb25cd9	-0.087091155
218	0x3d946943	0.072466396
219	0x3e62c3a3	0.22144942
220	0xbd96aa83	-0.07356741
221	0x3e365068	0.1780411
222	0xbd8bd7af	-0.06828248
223	0x3ce97bcb	0.028501412
224	0xbe97258b	-0.2952083
225	0x3d35d2ff	0.044390675
226	0x3ceca475	0.028887013
227	0xbe2c89f6	-0.16849503
228	0xbe1bc6c4	-0.15212542
229	0x3dab3dfd	0.08361433
230	0xbe54ee55	-0.20794041
231	0x3e682f9b	0.2267441
232	0xbee64de1	-0.44981292
233	0x3dd4dcfc	0.10393712
234	0x3d8aabf3	0.06771078
235	0xbbc4a8fd	-0.0060015903
236	0xbe9f99ca	-0.3117202
237	0x3da691eb	0.081333004
238	0x3a783940	0.000946898
239	0x3c947a59	0.018124746
240	0x3daaadad	0.08333907
241	0xbe3acabc	-0.182414
242	0xbd817e11	-0.063228734
243	0xbe9d126a	-0.3067811
244	0xbd112191	-0.035432402
245	0x3e970b1e	0.2950067
246	0x3e250b23	0.1611753
247	0xbd8dedae	-0.069300994
248	0xbdee593b	-0.11638113
249	0x3d30965b	0.04311214
250	0xbead8ca0	-0.3389635
251	0x3d852ced	0.065027095
252	0x3d64cdf0	0.05586046
253	0x3e27df1a	0.163937
254	0x3ded32a8	0.115819275
255	0x3e4cbfe4	0.19995075

h_1.modlist.0.modlist.0.bias f4 [18]
0	0x3e107263	0.14106135
1	0x3c1d08d1	0.0095846215
2	0x3d6374d6	0.055531345
3	0xbd33d108	-0.04390052
4	0xbdf153ed	-0.11783586
5	0xbdaa0b9f	-0.08302998
6	0xbd45ba85	-0.048273582
7	0x3df6f252	0.12057938
8	0x3e1c9ae7	0.15293466
9	0x3c8e2414	0.017351188
10	0x3e0fe0e6	0.14050636
11	0x3db3d7c9	0.08781392
12	0xbddf4c02	-0.10903169
13	0x3e576388	0.21034062
14	0xbc049a5a	-0.008093441
15	0x3e43bbc2	0.19114593
16	0x3e463264	0.1935516
17	0x3dca7e8c	0.09887418
