2WL_link_pred/checkpoint/archive/20221213_02/20221213_033853_2WL_state_dict.pt (torch, 146879 bytes, 33 tensors)

lin1.1.0.weight f4 [96, 1]
000000 43 37 4f 3f e6 3d a5 3e 07 f5 fc 3e 8e 73 d1 3e
       0.809437 0.32273787 0.4940569 0.40908474
000010 6d 7b d5 3e 57 80 62 be d1 c7 04 3d 14 40 52 be
       0.4169573 -0.2211927 0.032417122 -0.20532256
000020 88 44 23 bf c9 ed 2a bf 7c b1 c7 be 82 20 23 bf
       -0.63776445 -0.6676908 -0.39002597 -0.6372148
000030 d7 63 61 3f 46 79 1c 3f 5c a3 92 bd bc 4e 06 3f
       0.8804297 0.6112255 -0.071600646 0.5246389
000040 23 4e fb be e1 cc 7b be 4d 19 8e be db 40 3f 3f
       -0.4908305 -0.24589874 -0.27753678 0.74708337
000050 c0 0e 56 be 45 83 66 be 14 d6 19 3f e1 71 26 bf
       -0.20904064 -0.22511013 0.6009228 -0.65017515
000060 b6 a0 77 3e 7f f5 15 bf a5 f8 2d be 49 16 6a 3d
       0.241824 -0.5857772 -0.16989382 0.05715016
000070 0e 0d 0f 3d 2a 98 b5 3e d4 e8 28 3f a3 04 ff bd
       0.03492456 0.35467654 0.6598027 -0.12452056
000080 22 7d 94 3e e5 b1 36 bf 8c 1f 84 bf 06 42 be 3e
       0.2900172 -0.71365196 -1.0322127 0.37159747
000090 54 58 a2 3e cb 42 00 3f 87 f6 39 bd a0 bf d2 3e
       0.31708014 0.5010192 -0.045401122 0.41161823
0000a0 0c 3a 46 bf 03 96 42 bf e1 56 19 3e 81 76 77 3e
       -0.7743232 -0.7601015 0.14974548 0.241663
0000b0 6f 34 6f 3d 12 16 1d bf 24 87 47 3f 0d 2a 2a 3f
       0.058399614 -0.613618 0.77940583 0.66470414
0000c0 5e 90 74 3f 54 ef 23 3f e5 c5 28 3e 8b 46 46 3f
       0.95532787 0.6403706 0.16481741 0.7745139
0000d0 d6 a4 b9 be 67 4f 09 3d a9 7f 04 3f 7c 4a a3 be
       -0.36258572 0.03352299 0.51757294 -0.31892765
0000e0 e2 32 18 3f 2e 03 4d 3f d1 ad 61 bf 23 4e 2a 3f
       0.5945264 0.80082977 -0.8815585 0.6652548
0000f0 ce f3 0a 3f bc 52 05 3d e0 0f 38 3f e2 92 a9 3e
       0.54278266 0.032549605 0.71899223 0.33119875
000100 1a ef 31 3f f8 13 d1 bd a9 32 62 3e 63 75 81 3d
       0.69505465 -0.10208887 0.22089638 0.06321218
000110 47 08 a5 3e a3 89 af 3e c5 5d 0d 3f ae e0 5d bf
       0.32232878 0.34284696 0.55221206 -0.8667096
000120 de 5c fe be 66 5e 33 bf 24 a3 53 bf 41 f7 68 3e
       -0.49680227 -0.70065916 -0.8267081 0.2275057
000130 e2 57 9d be 29 3d 15 3e e6 27 39 3f 32 5b 1d 3f
       -0.30731112 0.14574112 0.72326505 0.6146728
000140 7a 38 be 3e a6 75 24 3f 0b bf 93 3e 96 e9 b6 be
       0.37152463 0.6424202 0.28856692 -0.35725087
000150 ed d2 71 3e 02 2e 33 bf 8b 83 28 bf 67 e9 44 3f
       0.23615618 -0.6999208 -0.6582572 0.76918644
000160 3d 60 7b 3f ff 68 72 bf 6f 01 d9 3e 8d 2e 90 bd
       0.9819372 -0.9469146 0.42383906 -0.07040129
000170 02 f8 b7 3e a6 fd b3 3e c8 a8 24 3f a1 81 2d be
       0.35931402 0.35154456 0.6432004 -0.16943981

lin1.1.0.bias f4 [96]
000000 15 53 69 3f a7 c4 e2 3d 96 0e 2a 3f ef 52 41 bf
       0.911424 0.11072665 0.66428506 -0.7551717
000010 1d 61 68 bf 52 d9 1e bf 9d 4a 3e 3e d9 0b 33 3f
       -0.90773183 -0.62050354 0.1858315 0.69939953
000020 4e 0a 50 bf fc e7 2d bf 03 18 21 bd 54 88 09 3f
       -0.81265724 -0.67932105 -0.03932954 0.53723645
000030 51 95 1c 3f 90 5f 00 3f 0c 57 c7 be 87 e3 6c 3f
       0.6116534 0.50145817 -0.389336 0.9253468
000040 69 79 47 bf 7c 26 55 3e ab 01 58 3f f6 83 d2 be
       -0.7791963 0.20815462 0.84377545 -0.41116303
000050 35 cd 22 3f 26 da 9f 3e 86 ef 23 bf 5d 34 46 bf
       0.6359437 0.31221122 -0.6403736 -0.7742365
000060 c6 f0 01 bd 35 87 bf 3e 19 13 30 3f c5 f8 d1 3d
       -0.03172376 0.37407842 0.6877914 0.10252527
000070 9e d1 6e bf bb 30 d8 be 94 eb 96 3d 97 43 3c bf
       -0.932886 -0.42224678 0.07369152 -0.73540634
000080 51 77 c6 be f4 76 13 bf 18 b4 98 3e 10 2c 6d be
       -0.38762906 -0.57603383 0.298249 -0.2316134
000090 4d d8 34 3f 4c aa 72 bf 79 14 6f bf ef 0a ff 3c
       0.7064255 -0.947911 -0.93390614 0.031133143
0000a0 58 3a b7 be 3d 4b fa 3e 76 ba b7 be 84 c8 b4 bd
       -0.357867 0.48885527 -0.35884446 -0.08827308
0000b0 7f 17 77 3f 05 31 60 3f bc 8f 36 3f 72 cf 3f bf
       0.9652023 0.875748 0.7131307 -0.7492591
0000c0 82 cf 95 be 87 a0 97 be c4 19 28 3e fd b1 02 3e
       -0.29259878 -0.2961466 0.16416079 0.1276321
0000d0 a6 bc 71 be ae 75 2e 3f e6 b9 84 3e 8a f3 57 be
       -0.2360712 0.68148315 0.2592308 -0.21088997
0000e0 3a b5 20 3f 34 da d9 be c8 34 ae be 42 2f 6a 3f
       0.6277653 -0.42549288 -0.34024644 0.9147836
0000f0 29 bb 47 bf 04 c1 6d 3f 5f ad a0 3e fe 8c 8e be
       -0.7801996 0.92872643 0.31382272 -0.27841944
000100 50 75 6e 3d 42 7c 5c 3f f7 4f 68 bf cc c8 91 be
       0.058217347 0.861271 -0.90747017 -0.28473508
000110 73 13 4b 3f 7a 9e da 3e f8 bd 41 bf 19 84 cf 3e
       0.7932655 0.42699033 -0.75680494 0.4053047
000120 2d dd ca be 2e 31 17 3f 2e b2 ce be fc 74 64 bf
       -0.3962187 0.5905942 -0.40370315 -0.89241004
000130 14 e4 49 bf 16 9e fb be f8 c6 9f 3e 49 ab 5f 3f
       -0.78863645 -0.49144047 0.3120649 0.87370735
000140 ef cb 6c 3f 38 0c 29 3f f6 c6 1f bf 29 7b 98 be
       0.9249868 0.6603427 -0.62412965 -0.29781464
000150 46 4a 52 3f 70 81 33 3f 1b b2 3b 3f 04 b3 21 3f
       0.8214458 0.7011938 0.7331864 0.6316378
000160 f1 a1 00 3f 16 26 6f 3f ca bf 95 bd b5 d1 5a bf
       0.502471 0.9341749 -0.073119715 -0.8547624
000170 b8 fc 4b bf e1 d9 7d 3e 69 b9 5a bf c4 1b 1d bf
       -0.79682493 0.24790145 -0.85439163 -0.6137049

conv1s.0.modlist.0.bias f4 [96]
000000 7e d4 73 3d 5e a6 e0 bc 75 d5 12 bc ef 41 74 3d
       0.05952882 -0.02742308 -0.008962025 0.05963319
000010 b5 1a d2 3d 9d 25 50 bd 89 1e 37 bb 89 38 58 bd
       0.10259 -0.05081712 -0.0027941784 -0.05278829
000020 ec 81 40 3b 69 23 d5 3c 22 7a c5 bc a8 ad d1 bc
       0.0029374314 0.026017861 -0.024106089 -0.025595501
000030 97 cd 71 bd ec fe 9b bd dd d1 f2 3d c6 fb 2d be
       -0.059033956 -0.07616982 0.118564345 -0.16990575
000040 52 5f 3f 3d 90 d8 11 3d f3 c8 87 3e 28 62 e7 bc
       0.046721764 0.03560692 0.265205 -0.028245047
000050 74 d9 39 3c d5 ae 5a bc f7 73 91 3d e8 aa 9a bd
       0.011343349 -0.013347347 0.07102197 -0.07552129
000060 f4 97 79 3d da 7c 59 bc fd 9d 68 3c 9c ce 08 3d
       0.06093593 -0.013274396 0.014197824 0.033400163
000070 5a b9 b2 bb 29 ae c5 3d 03 78 e2 bd 75 a7 52 3d
       -0.0054542245 0.09652359 -0.11058047 0.05142923
000080 a3 6a 45 3d 57 86 e1 bd 18 a5 ec 3d 74 fa 8b bd
       0.0481974 -0.110119514 0.11554927 -0.068348795
000090 ba 3a 1d 3e ca fc 45 3c 34 fe d4 3c 3d 61 c5 bc
       0.15354434 0.012084195 0.02600012 -0.024094218
0000a0 09 c3 df 3d 31 23 df 3b 67 dc e0 3d b4 4d b9 3d
       0.10925872 0.006809615 0.109795384 0.09048024
0000b0 bd a6 5f 3c 1a 48 2c 3e 86 48 f1 bc f3 89 9f 3a
       0.013650593 0.1682438 -0.029453527 0.0012171849
0000c0 37 e5 95 b9 8e f1 8c bd 3e 97 46 bd a0 5b 4e 3e
       -0.00028590273 -0.068820104 -0.04848408 0.2015214
0000d0 e2 6f ba 3d 9e 9c d1 3d b0 33 4f bd 96 93 a6 3c
       0.09103371 0.102349505 -0.050586402 0.020334046
0000e0 4c d6 9b bd a0 95 a9 bb 37 c5 18 be dd 26 13 bc
       -0.07609233 -0.0051753074 -0.14918981 -0.008981434
0000f0 99 e8 57 be 86 8c 99 bc d8 12 4f 3d ec dd 47 3b
       -0.21084823 -0.018743765 0.05055508 0.0030497266
000100 df d7 0c bd 14 9c d2 3d 3d f8 8a 3e 11 89 31 bb
       -0.03438556 0.10283676 0.27142516 -0.0027089755
000110 df ea e0 3d 86 46 8d 3d 2f 6b bc bc a4 b3 cf 3d
       0.10982298 0.06898217 -0.023000328 0.101416856
000120 5c 4b db 3c da 0d 6f 3e 4c 9b 2f 3d 7e 43 ca bd
       0.026769333 0.23345128 0.042872712 -0.09876154
000130 dd e7 43 bd 89 67 24 3c 1e 15 17 3d 6e 3b 15 be
       -0.047828544 0.01003445 0.036885373 -0.14573452
000140 0a c7 bd 3b 39 75 de bc 35 d6 cd bc a8 a2 0b 3e
       0.0057915496 -0.027155505 -0.025126556 0.13636267
000150 2a b6 20 bd e5 eb 0e bd a6 32 a5 3c a8 79 e2 bb
       -0.039236225 -0.034892935 0.020165753 -0.006911475
000160 78 8d 83 bd 15 1b c7 bd 9a 3d 95 3c d8 38 19 bd
       -0.064234674 -0.09721962 0.01821785 -0.037407726
000170 d6 ac 45 bd de 80 e0 bd b5 90 80 3d ad b3 83 bd
       -0.048260532 -0.109620795 0.06277601 -0.06430755

conv1s.0.modlist.0.lin.weight f4 [96, 96]
000000 af 02 5d bd 1a a5 27 bd d6 86 a2 bd 30 0e 16 3e
       -0.053957637 -0.040928937 -0.07935874 0.1465385
000010 12 9f c8 3d 79 1f 3a 3e 6c 2d db 3d b7 b1 07 3e
       0.09795965 0.18176068 0.10702023 0.13251387
000020 9c 4f 62 be 5a bd 35 3d 00 7e 08 be fa 8e da 3d
       -0.22100681 0.044370033 -0.13329315 0.10671802
000030 93 f7 36 bd 23 70 a0 3d 22 47 72 bd 8d 83 12 3e
       -0.0446697 0.078338884 -0.05914987 0.14307995
000040 72 eb 9b 3d 9e 41 02 3e d6 50 7d 3e ce f3 17 bd
       0.07613267 0.12720343 0.24737868 -0.037097745
000050 a3 a5 90 bc 60 f8 3d bc 57 a6 3c 3e 4b 6c 9f bd
       -0.017657107 -0.011594862 0.18422829 -0.07784327
000060 eb 3e e1 bd 2f 8c 60 3d f6 00 12 bc c6 33 6b 3d
       -0.10998329 0.05482119 -0.008911362 0.057422422
000070 17 bf 7c 3d 6e d9 57 bd 12 4b 7d bc 57 e1 09 3c
       0.061705675 -0.05269759 -0.015459793 0.008415542
000080 43 0a 1c 3e 03 e3 0f be c5 b6 40 bd b4 69 da 3b
       0.1523829 -0.14051442 -0.047049303 0.006665433
000090 e8 81 e0 3d a5 62 c9 3d b4 75 1b bd 4e 8b f5 3b
       0.10962278 0.09833268 -0.037954047 0.007493413
0000a0 f5 1c 01 be d8 67 84 bc 4e 83 e4 bd bd 90 0f be
       -0.12608702 -0.016162798 -0.11157857 -0.14020057
0000b0 3d 3d a9 3d 3b 23 de bd b0 40 71 be 05 fa 17 be
       0.082636334 -0.108465634 -0.23559833 -0.14841469
0000c0 7b a0 23 bd 0c b4 05 be ac df 1e be cd f1 ce bd
       -0.039947968 -0.13056964 -0.15515012 -0.101047136
0000d0 e7 ab c4 3d 61 de 2f bd 3f d9 e6 3d 19 1c 58 bd
       0.096031 -0.042936686 0.11271905 -0.05276117
0000e0 c3 82 28 3d ea cb fb 3d e6 fd 6a bd a8 44 42 3d
       0.04114033 0.12294753 -0.057371043 0.047428757
0000f0 77 8f 48 be 1a 7c 8b bd f8 0d 47 3e 82 20 25 3e
       -0.19585977 -0.0681078 0.19438922 0.16125682
000100 ee 25 01 3e 55 69 c6 3d 2f c0 ef bc 60 68 e7 bd
       0.12612125 0.09688059 -0.029266445 -0.11299205
000110 3e b4 f0 bd d4 cb d3 bd dc 19 3a be 1f f4 2a bc
       -0.117531285 -0.103416115 -0.18173927 -0.01043418
000120 8d fd bc 3d 3f 17 37 3e 89 2a 5f 3e 60 af c5 3a
       0.092280485 0.17879961 0.2179357 0.0015082173
000130 14 98 10 be 50 7e a3 bd f1 4c 36 be b1 df 24 be
       -0.14120513 -0.079830766 -0.17802788 -0.16100956
000140 39 71 74 bd c5 3d 45 bc 71 19 e0 bd d8 c0 29 3e
       -0.05967829 -0.012038653 -0.109423526 0.1657747
000150 b0 98 83 3d ee c6 82 3d d6 3c bf bd 07 fa 4a be
       0.06425607 0.06385599 -0.093377754 -0.1982194
000160 63 70 00 be 3e 3f 23 3d 7d aa a2 3d d1 19 fa bd
       -0.12542872 0.039855234 0.07942674 -0.12211955
000170 b1 23 a1 bd da a3 f3 bc 21 6e fb 3d cb 5e 41 bd
       -0.07868136 -0.029741216 0.12276865 -0.047209542
000180 50 60 8b bd 0f 87 9f 3d b8 29 89 bd e8 fd 14 bd
       -0.068054795 0.07789432 -0.0669741 -0.036374956
000190 75 a4 30 3e 6d e7 bf bc 86 63 21 be 66 1f da 3d
       0.17250235 -0.023425782 -0.15760621 0.1065052
0001a0 b9 8b ba 3d 6b 2b 9d bd 52 83 d5 3d 7b b7 06 bd
       0.09108681 -0.07674297 0.10425438 -0.032889824
0001b0 b0 8d 81 ba 9f 38 d2 bd 0d c7 89 3c 0c 02 d4 3d
       -0.0009884145 -0.10264706 0.016818548 0.10351953
0001c0 ec 88 44 be c6 9d 1b bd 32 1f 84 bd f3 1b 18 be
       -0.19192857 -0.03799226 -0.064512625 -0.14854412
0001d0 6b 12 17 3d 1b 54 eb bc d6 1b ea 3d 17 e8 b2 bd
       0.0368828 -0.028726628 0.114310905 -0.08735674
0001e0 25 f1 1a be ed ad 07 3e 62 60 0e 3e 8a d9 0d be
       -0.15131052 0.13249941 0.13903955 -0.13852516
0001f0 ee 9f 21 be cd df 8c 3d ab d2 6e 3d 1f 4d 3a be
       -0.15783665 0.06878624 0.058306377 -0.18193482
000200 f6 e5 98 3d 55 a9 d2 3d de d8 d1 bd 1a 13 d8 bd
       0.074657366 0.10286204 -0.10246442 -0.10550518
000210 51 87 1b bd 54 cf 18 be e4 8d cf 3d 1c 65 d3 3d
       -0.037970845 -0.1492284 0.10134485 0.103220195
000220 d5 b2 be 3d 4c c3 28 3e 7b 24 10 be c9 66 20 3e
       0.09311453 0.1648075 -0.14076416 0.1566421
000230 b1 0d aa 3d f4 7a 42 bd d8 93 06 3e cd 34 b1 bc
       0.08303393 -0.04748054 0.13142335 -0.021631623
000240 f0 7e 25 3e 0c bd 22 3d 5b b6 d5 3d fc 5e 22 be
       0.16161704 0.03973107 0.10435172 -0.15856546
000250 43 5e e7 3b 73 da fb 3d c7 ca c5 3c 1c 33 c5 3d
       0.0070607974 0.12297525 0.024144543 0.09628889
000260 c3 0e 19 bd 51 2b e4 3d 72 4a e5 3d d3 04 40 3e
       -0.037367593 0.111410744 0.1119584 0.1875184
000270 8d c9 b9 3d ce d8 06 be ce f4 a1 bd 2c a2 aa bd
       0.09071646 -0.13168642 -0.07908021 -0.08331713
000280 ad 20 a8 3c 06 c7 54 be f1 e9 bd 3d 67 b4 d4 bc
       0.020523394 -0.20779046 0.092731364 -0.025964929
000290 87 f7 28 be 9a a2 03 3e eb 66 04 3e e7 08 33 3e
       -0.16500674 0.12854996 0.12929885 0.17483865
0002a0 b4 eb 46 be c1 27 c0 bc dd 72 0b 3e 51 24 6c bd
       -0.19425851 -0.023456456 0.13618036 -0.05765182
0002b0 87 3a 3b 3e 4b 3b 0b bd 79 b6 e8 bc 23 a6 1e bd
       0.18284045 -0.033992093 -0.028407322 -0.03873266
0002c0 c0 4e e9 bc 2f 00 e1 3d 73 c0 6c be eb c9 bc 3d
       -0.028479934 0.10986363 -0.23120289 0.092182
0002d0 84 ce ce 3d d9 93 96 3c ba c1 ab 3d 59 da f2 3d
       0.100979835 0.018381046 0.0838656 0.11858053
0002e0 2a e7 01 be 59 b6 ba bc 6d 9f 2c 3d c0 38 6b bd
       -0.12685838 -0.022792028 0.042144228 -0.057427168
0002f0 02 5a a7 3a 31 ad 1d be c4 5c 73 3d 1b 7f 88 3c
       0.0012767913 -0.15398099 0.05941464 0.016662171
000300 97 dd 21 3d 5b a2 66 bd 84 73 35 be 50 29 05 3e
       0.039517965 -0.056307178 -0.17719847 0.1300404
000310 29 6f ae bd fc c5 2b 3d 98 28 f6 3d 51 42 28 be
       -0.08517296 0.04193686 0.120194614 -0.16431548
000320 4d 09 08 3e 72 a2 37 3e ce 9c 02 be c7 e2 0f 3c
       0.13284798 0.17933062 -0.12755129 0.008782095
000330 9d ed fa 3d 0a 7e c0 bd fc 3e 32 3d ed da 12 be
       0.122523524 -0.0939904 0.043517098 -0.14341326
000340 07 ac eb bc 37 2d 2b 3e 90 c0 d0 ba 1d b6 c7 bd
       -0.028768552 0.16716467 -0.0015926529 -0.09751532
000350 44 94 a4 3d 4d 52 85 bd b3 89 bd 3d 13 0b 1c be
       0.08036092 -0.06509838 0.0925478 -0.152386
000360 bf ca 9f 3c b8 49 69 3d 76 b6 20 3d 06 2f b7 3d
       0.019505857 0.05695507 0.03923651 0.08944516
000370 63 b3 1b 3d 2b cc ad 3d 32 7d a0 bd 5d 2c 9d 3d
       0.038012873 0.084862076 -0.07836379 0.07674477
000380 ef f8 af 3d 67 cb 37 bc 2e 68 d2 3c e4 8a 61 3d
       0.08592402 -0.0112179285 0.025684442 0.055064097
000390 61 91 ee bc 80 a3 86 3c ea 93 30 be 9c f8 85 bd
       -0.029122056 0.016435385 -0.17243925 -0.06541559
0003a0 02 8c 88 3c d9 aa f7 bd 9e 87 22 be 40 a9 d3 3d
       0.016668323 -0.120931335 -0.15872046 0.10335016
0003b0 f1 96 2f be ef a2 1f be 35 ec 2d be 1d 77 b3 3d
       -0.17147423 -0.15589498 -0.16984637 0.087629534
0003c0 68 69 22 3e 96 cc 81 3d 1a 03 46 be 6e f5 81 3d
       0.15860522 0.0633785 -0.1933712 0.0634564
0003d0 bf 43 33 be 03 44 06 bd df 70 d4 bd c8 01 14 bc
       -0.17506312 -0.032779705 -0.10373091 -0.009033628
0003e0 1b 75 4b be 22 25 39 bc 67 66 a9 3d e4 bf fc bd
       -0.19868891 -0.011300357 0.08271485 -0.12341288
0003f0 e4 ce 52 3d cd 6b df 3d b2 1c fe bd d5 f0 a7 bd
       0.051466838 0.10909233 -0.12407817 -0.08200232

conv1s.0.modlist.1.weight f4 [96]
000000 17 df 80 3f ce d3 84 3f 64 42 80 3f b2 30 88 3f
       1.0068082 1.0377138 1.0020261 1.0639861
000010 7c 99 87 3f 39 18 7d 3f f7 e7 83 3f 21 b0 82 3f
       1.0593715 0.98865086 1.0305165 1.021
000020 d4 7b 78 3f 64 aa 81 3f 20 d4 83 3f ac 9c 7e 3f
       0.97063947 1.0130124 1.029911 0.9945781
000030 d7 f5 78 3f 0f b6 85 3f 68 e9 84 3f 8f e7 82 3f
       0.9725012 1.0446185 1.038373 1.0226916
000040 0c 0e 8a 3f b2 ea 82 3f 62 13 79 3f 4c 32 83 3f
       1.0785537 1.0227873 0.972952 1.0249724
000050 90 22 7a 3f 3e 8f 8a 3f c2 53 7a 3f 46 31 7d 3f
       0.9770899 1.0824964 0.97784054 0.9890331
000060 e1 d0 81 3f 08 76 83 3f 8f b5 84 3f 71 db 84 3f
       1.014187 1.0270395 1.0367907 1.0379468
000070 c4 59 6c 3f 02 ed 83 3f 32 1b 84 3f cd 82 80 3f
       0.9232447 1.0306704 1.0320799 1.0039917
000080 7f d7 6f 3f a5 53 6d 3f 9d d6 77 3f 06 c6 7a 3f
       0.93688196 0.92705756 0.9681185 0.9795841
000090 cc c4 75 3f 7b 51 6d 3f 9a 1b 85 3f 4f 38 83 3f
       0.96003413 0.92702454 1.0399048 1.0251559
0000a0 0a 71 73 3f 73 5e 79 3f e3 00 7f 3f 5b 04 82 3f
       0.9509436 0.97409743 0.9961073 1.0157579
0000b0 02 58 75 3f f5 1f 8b 3f 5d 26 70 3f 3c 8d 82 3f
       0.95837414 1.0869128 0.9380854 1.0199351
0000c0 15 38 7c 3f a1 56 74 3f 88 78 79 3f 72 63 7f 3f
       0.98523074 0.95444685 0.9744954 0.99761117
0000d0 95 d1 82 3f 74 a0 77 3f fd a7 7a 3f e7 ad 81 3f
       1.0220209 0.9672921 0.9791258 1.0131196
0000e0 68 db 7c 3f 00 e7 6a 3f 32 d0 7f 3f 61 7e 83 3f
       0.9877229 0.9175873 0.99927056 1.0272943
0000f0 77 82 81 3f 27 b2 64 3f d6 6c 86 3f 98 5d 80 3f
       1.011794 0.8933434 1.0501964 1.0028563
000100 3f f8 83 3f 6f 84 80 3f 96 94 88 3f 8e a4 78 3f
       1.0310134 1.0040416 1.0670345 0.9712609
000110 0a 98 78 3f 5d b4 76 3f 7d 33 7c 3f 7d 42 76 3f
       0.97106993 0.9636896 0.98516065 0.96195203
000120 b4 89 73 3f b6 b3 76 3f 50 9b 85 3f 72 e9 84 3f
       0.95131993 0.9636797 1.0438023 1.0383742
000130 61 94 83 3f 28 13 84 3f c6 fd 87 3f 04 e5 73 3f
       1.0279657 1.0318346 1.062432 0.95271325
000140 46 01 71 3f 6f 3e 80 3f 1b 27 85 3f 97 79 85 3f
       0.9414257 1.0019053 1.0402559 1.0427731
000150 1a 97 7b 3f 0f 30 73 3f 7a ce 79 3f 5d 0e 76 3f
       0.9827744 0.94995207 0.97580683 0.96115667
000160 79 65 87 3f 8e 7c 80 3f 9b ad 81 3f c7 c3 89 3f
       1.0577842 1.0038011 1.0131105 1.0762872
000170 66 b8 7e 3f 2a 78 7b 3f 78 56 85 3f 23 3f 76 3f
       0.9950012 0.9823023 1.0417013 0.9619009

conv1s.0.modlist.1.bias f4 [96]
000000 f4 96 5d 3d 3a 2b 8c bc 74 fb 13 3d 7f cf d7 bd
       0.05409904 -0.017110456 0.036128476 -0.105376236
000010 63 2a d1 bd 0f e4 05 bc 4d 5c 37 3d e3 ff ff bc
       -0.10213163 -0.008172049 0.04476576 -0.031249946
000020 43 c8 ee bc 91 5b 39 bd 70 73 3c bb 31 23 ef 39
       -0.029148227 -0.04525334 -0.002875533 0.00045611852
000030 78 90 62 3d 51 c6 4c bd af 5a 6a 3b f3 ec fc 3d
       0.055313557 -0.049993817 0.0035759618 0.12349882
000040 c7 96 5c bd 17 1b 8f bd 67 42 3a 3e 43 cf 29 3d
       -0.05385473 -0.06987589 0.18189393 0.041457426
000050 d6 5b 4d 3d 7a 14 6e 3d 85 01 89 bd 9a 2f af 3d
       0.05013641 0.058124997 -0.06689743 0.08554001
000060 b6 97 7d bd 5b cb 42 bd 87 4f e2 3b b6 ef a0 3c
       -0.06191226 -0.047557216 0.006906453 0.019645553
000070 29 86 c5 3c 1f 4a 82 3c 82 0d 63 bc c5 bf 25 3c
       0.024111824 0.015904484 -0.013858201 0.010116522
000080 3c 5d b7 bc 47 c3 45 bc ab 97 95 3d a0 ed cc 3d
       -0.022383325 -0.0120704835 0.07304319 0.10006261
000090 ce 2e ab bd f7 89 51 bb de db 36 3d dd e2 45 bd
       -0.08358537 -0.0031973103 0.044643275 -0.048312057
0000a0 6a 04 76 bc f9 c2 04 bc 9f 44 5a bd 79 02 d5 b9
       -0.015015701 -0.008103126 -0.0532881 -0.00040628368
0000b0 5f 1e b5 3a c5 ab d6 bb 54 9f a2 3c ea 91 97 3d
       0.0013818255 -0.0065512382 0.019851364 0.07400878
0000c0 6e 3e 5f 3c 49 24 d3 3c 34 e8 bf 3c 14 7f 13 3e
       0.013625724 0.025774138 0.023426153 0.14403945
0000d0 bd c9 f8 3b ca 75 48 bd 4c ce a4 3c 8a a1 8d bc
       0.0075924085 -0.048940457 0.020117901 -0.017288942
0000e0 93 52 79 3d c7 e0 14 bd ec 76 37 3c 18 00 d2 3c
       0.060869765 -0.036347177 0.011197787 0.02563481
0000f0 7a 03 12 be cd bd 70 bd 3d c3 e9 bc 46 f6 d8 bc
       -0.14259139 -0.058774758 -0.02853548 -0.02648462
000100 20 18 c7 bb b2 b3 a9 bd 1a 9a 71 3e e9 ac 98 bb
       -0.006075874 -0.08286227 0.23593941 -0.0046592844
000110 32 7a 0a be f7 e8 58 3d f3 f2 22 bc 32 33 d3 3d
       -0.13523176 0.052956548 -0.009945619 0.10312499
000120 d5 15 79 3c 64 5e fb bd d1 56 0a bd e5 9b 07 3e
       0.015202959 -0.12273863 -0.0337742 0.13243063
000130 a3 7d 10 bd aa e5 2a bc 9e f9 e1 3c 84 3a bb bd
       -0.035276067 -0.010430733 0.027584847 -0.0914202
000140 32 ee ea 3c 68 70 48 bc 58 ca 47 3d b9 9a de 3d
       0.028678034 -0.012233831 0.048776954 0.10869355
000150 68 d1 90 bb 6f 21 3d 3d 7b 1d 3d bd 11 db 16 bd
       -0.0044194944 0.046174463 -0.046170693 -0.03683001
000160 c1 18 d5 3c 48 bd bf 3d d7 ce 53 bc 31 96 20 3d
       0.02601278 0.093622744 -0.012927732 0.039205734
000170 fd 78 94 bd cf 18 b4 3d af 9a 2e bc bf 20 c7 3c
       -0.07249639 0.08793794 -0.010656997 0.024307607

conv1s.0.modlist.1.mean_scale f4 [96]
000000 5d 74 88 3f 9e 18 79 3f 49 05 84 3f 98 15 8b 3f
       1.0660511 0.9730319 1.0314113 1.0865965
000010 7b cb 8a 3f 35 71 80 3f 6f 15 88 3f a2 d8 82 3f
       1.0843347 1.0034548 1.0631541 1.0222361
000020 8d 15 84 3f e6 67 76 3f b1 d1 81 3f cc 37 7f 3f
       1.0319077 0.96252286 1.0142118 0.99694514
000030 d7 af 87 3f 49 db 7a 3f ee 3b 80 3f f0 8f 8b 3f
       1.0600537 0.9799085 1.0018289 1.0903301
000040 0e e2 7c 3f 20 8c 86 3f 4e 0a 5c 3f c6 a6 86 3f
       0.9878243 1.0511513 0.85953224 1.0519645
000050 a7 33 86 3f a9 ae 84 3f e9 99 82 3f b6 e0 8a 3f
       1.0484513 1.0365802 1.020322 1.0849826
000060 d8 7b 7c 3f e5 17 74 3f 39 60 81 3f 82 18 7f 3f
       0.9862647 0.9534896 1.010749 0.9964677
000070 77 c3 7e 3f bd ac 65 3f c2 6a 78 3f 37 43 80 3f
       0.99517006 0.897167 0.970379 1.0020512
000080 48 90 78 3f 2c cc 81 3f e2 f7 68 3f f1 51 88 3f
       0.97095156 1.0140433 0.9100324 1.0650007
000090 c4 29 90 3f e8 cb 82 3f 86 ad 6c 3f 3a 61 85 3f
       1.1262746 1.0218477 0.92452276 1.0420296
0000a0 af ca 7b 3f df 5e 77 3f de 38 87 3f de ca 7d 3f
       0.98356146 0.96629137 1.056423 0.99137676
0000b0 e4 75 81 3f d2 8f 7e 3f 88 bc 7b 3f ae 02 89 3f
       1.0114102 0.994382 0.9833455 1.0703943
0000c0 0d 0e 84 3f b5 cf 8b 3f 65 7e 7c 3f ae df 4d 3f
       1.0316788 1.0922762 0.9863036 0.80419433
0000d0 24 3b 80 3f c0 68 88 3f 54 df 7b 3f 2b 4d 80 3f
       1.0018048 1.0656967 0.98387647 1.002355
0000e0 6c 80 8d 3f 26 56 86 3f a2 53 7f 3f 73 2d 85 3f
       1.1054816 1.049504 0.9973699 1.0404495
0000f0 ae 83 5d 3f c2 2e 6d 3f fe 40 7f 3f 9a 12 70 3f
       0.8652905 0.9264947 0.99708545 0.93778384
000100 84 92 7d 3f 2b 02 8c 3f 5d aa 45 3f 85 30 6f 3f
       0.9905169 1.0938162 0.7721308 0.9343341
000110 8c 03 8f 3f 04 21 67 3f 9a b8 81 3f 0b e9 67 3f
       1.1172957 0.9028475 1.0134461 0.9058997
000120 e4 6a 81 3f 92 97 93 3f 93 c7 81 3f 97 c4 8b 3f
       1.0110745 1.153063 1.013903 1.091937
000130 bd 1f 86 3f 5a d9 79 3f f4 87 82 3f 1d 0c 62 3f
       1.0478436 0.9759728 1.019774 0.88299733
000140 df 55 75 3f 68 4c 7d 3f b8 52 85 3f e3 5f 6d 3f
       0.95834154 0.9894471 1.0415869 0.92724437
000150 33 0c 8a 3f 24 d7 86 3f ca 98 89 3f 1e d4 84 3f
       1.0784973 1.0534406 1.0749753 1.0377233
000160 37 d4 7c 3f 1c 3a 7f 3f 42 1e 7f 3f b5 bf 81 3f
       0.98761314 0.9969804 0.99655545 1.0136629
000170 6c d1 69 3f ba 66 8e 3f ad e9 7e 3f 6b 76 81 3f
       0.9133518 1.11251 0.9957531 1.0114263

conv1s.1.modlist.0.bias f4 [64]
000000 4c 95 36 bc ae 4d 81 3d 4a 4d 65 bd f2 34 01 bd
       -0.011143994 0.06313644 -0.05598191 -0.031544633
000010 33 8e 32 bd ce 72 20 3d 67 83 1b 3d c6 4b 62 bd
       -0.043592643 0.039171986 0.037967112 -0.055248044
000020 db f4 b3 bb bb 81 27 3e 56 be 17 bc 7b 6c 9f bd
       -0.0054918355 0.16358082 -0.009261688 -0.07784363
000030 1e a4 e1 bd fe da ba 3c 73 f6 84 bd 64 7a ac bd
       -0.11017631 0.022809502 -0.06492319 -0.08421782
000040 18 0f 6f bd 10 c1 20 3c af b3 de bd dd 61 15 3d
       -0.058364004 0.009811655 -0.10874116 0.036470283
000050 6c 44 07 bb 37 6a 11 3d 2d 14 52 3d 45 a9 83 bd
       -0.0020640148 0.035501685 0.051288772 -0.0642877
000060 23 ae e0 bd 68 e6 36 3d 76 6b 56 3c 27 5f 9f bd
       -0.10970714 0.044653326 0.013087144 -0.07781821
000070 7e e6 da bd 78 ef a2 bd 25 0a b8 bc 1a 87 36 3d
       -0.10688494 -0.07955831 -0.022465775 0.044562437
000080 02 06 c1 bd c9 e7 1a 3c 4b 9f ac 3c a4 09 6c bc
       -0.09424974 0.009454676 0.02107205 -0.014406595
000090 79 af 5e 3d f6 df 65 bd 12 db 0b bd 7c 70 b3 3d
       0.054366563 -0.05612179 -0.03414447 0.08761689
0000a0 22 90 41 bd 6e 44 ee 3d 7d f5 59 bd 48 6e 9e 3c
       -0.047256596 0.11634146 -0.05321263 0.019339696
0000b0 d6 9b 44 3d e5 aa 53 3d a0 c1 90 3d 6f 13 88 bd
       0.04800018 0.05167665 0.07068181 -0.06644332
0000c0 b3 86 2d 3c af 5a 5f bd fc 51 31 3d f8 9b 9d bd
       0.010591197 -0.054529842 0.043291077 -0.07695764
0000d0 cc 26 b2 bd fb 0d 0f 3d 58 52 fd bc dc 87 62 3a
       -0.08698806 0.034925442 -0.030923054 0.00086414604
0000e0 ed 2f 14 bd 1b 8f 8c bb 8c 33 0f bc b0 46 e1 bc
       -0.036178518 -0.0042895204 -0.008740317 -0.027499527
0000f0 de 59 02 bd fa 77 3f b9 96 81 7a 3d 6c 40 1b 3e
       -0.031823985 -0.00018259874 0.06115874 0.15161294

conv1s.1.modlist.0.lin.weight f4 [64, 96]
000000 99 04 55 bd fd 38 08 3b 1f 4e 97 3d 38 62 36 3e
       -0.052006338 0.002078592 0.07387947 0.17810905
000010 6d 41 e3 bd d7 b5 bb bc 57 c6 82 bc b4 cf 52 be
       -0.11096463 -0.022913856 -0.015963716 -0.20587045
000020 4b 19 2c be 9e 36 9d bd 19 dd 6d 3e 01 60 0f be
       -0.16806524 -0.07676433 0.23228873 -0.14001466
000030 c3 e4 20 3c a2 70 e0 bc 34 59 dc bd bd 4c 5f bd
       0.009820166 -0.027397458 -0.10759202 -0.054516543
000040 9c 65 b2 3d e8 ec f2 3d f9 0e 39 bd 87 02 d8 3c
       0.08710787 0.118615925 -0.045180295 0.026368393
000050 2b b6 0e 3d 2b 11 2f 3e 77 6a 81 3c 1f 79 4b be
       0.034841698 0.17096393 0.015797837 -0.19870423
000060 aa d8 91 bd cb 66 d6 3d 80 b7 d3 3d 30 78 b7 3d
       -0.071214035 0.10468825 0.10337734 0.08958471
000070 5d 76 1b be b2 35 2a 3e 3a 57 99 3d 98 3c af 3c
       -0.15181871 0.16622046 0.0748734 0.021391198
000080 b7 9b 67 bc 7c 63 02 3e 9e 80 3b be 56 34 79 bd
       -0.014136246 0.12733263 -0.18310782 -0.060840927
000090 67 15 2a 3e a1 65 55 be ff 19 fe bd 9a 3c da 3c
       0.16609727 -0.2083955 -0.12407302 0.026640225
0000a0 78 ab 64 3d af b8 cf bd ad df 62 3e 07 bf 00 be
       0.055827588 -0.101426475 0.22155638 -0.12572871
0000b0 da 38 e6 bb 6d 4a e6 3d a5 78 1e bb cd 04 c8 3d
       -0.00702582 0.11244664 -0.0024180796 0.09766541
0000c0 a7 c4 c3 bd 29 87 6d bd a2 ac a8 bd 8e 8a a4 3a
       -0.09558993 -0.057990227 -0.08236052 0.00125535
0000d0 02 2f 33 be df 86 31 be 97 cb 12 3e d7 d2 cb 3d
       -0.17498401 -0.17336605 0.14335476 0.09952324
0000e0 54 ef 19 be 0a 19 03 be 72 e9 ea 3d ea 06 24 3c
       -0.15032703 -0.1280252 0.114703074 0.010011414
0000f0 6b de 43 be 87 e3 14 be 78 83 d3 3d 3e bc 94 bc
       -0.19127814 -0.1453992 0.1032781 -0.018156167
000100 66 9a 7d be 9e 33 93 bd 64 40 87 bd b7 df b8 3d
       -0.2476593 -0.071875796 -0.066040784 0.09027045
000110 c0 49 0d be 80 8c d0 bd e9 ac 49 bd 73 29 2d 3e
       -0.13797665 -0.10183048 -0.049237166 0.16910343
000120 55 76 0e be 3f dc 84 be 46 8d 39 3e 8a bb 0d be
       -0.13912328 -0.25949284 0.18120298 -0.13841072
000130 f4 4c a0 bd de 07 4e 3e 30 6d 41 3e fd d9 1c bc
       -0.07827178 0.20120189 0.18889308 -0.009573457
000140 e1 64 be bd ba cb 56 bd 44 a5 33 3e 0f 7c 0c 3e
       -0.09296585 -0.052440383 0.17543513 0.137192
000150 14 77 ec bb b3 ff 94 3c cf 64 ca bd 57 94 0d be
       -0.0072163437 0.018188333 -0.09882509 -0.13826118
000160 75 2c d0 3c 79 9a 35 be 25 73 3a 3e f8 0c 1c 3e
       0.025411824 -0.17734708 0.18207987 0.15239322
000170 9b fb 5a bd 58 07 db 3d aa e9 08 be 14 15 05 3e
       -0.053462606 0.1069476 -0.13370386 0.12996322
000180 9c f3 b9 bd b3 2c 29 be a2 f5 64 bc 64 ef 39 3d
       -0.09079668 -0.16520958 -0.013974579 0.045394316
000190 71 a0 ac 3c 1e 15 37 be ed a8 0a 3e 34 aa c8 bd
       0.021072598 -0.1787915 0.13541003 -0.09798089
0001a0 77 fe fc bd 9d 14 6a bd 7f ae f8 bd f1 2a 65 3e
       -0.12353223 -0.057148565 -0.121426575 0.22379662
0001b0 85 22 ed bd c8 61 b2 3d ac 74 70 3e 5c 44 27 bd
       -0.1157885 0.087100565 0.23482007 -0.040836677
0001c0 b0 b1 a4 bd e1 23 52 3c a5 a4 0e be 93 82 11 3d
       -0.08041704 0.012825937 -0.13929994 0.035524916
0001d0 e3 22 18 3d c0 71 ff 3d 50 f5 46 3e 0a aa 90 bc
       0.037142646 0.12472868 0.19429517 -0.017659206
0001e0 e8 81 99 bd 1c a5 f5 bd dd 9d 04 be dd 12 db bd
       -0.07495481 -0.11994383 -0.12950845 -0.10696957
0001f0 cf 39 e0 3d 98 12 6d 39 7c d5 ba 3d 27 70 06 3e
       0.10948526 0.00022609008 0.0912275 0.1312872
000200 fc 1c 07 be c4 fc 89 bc 8a dc 5d 3e 6d 0b 4d 3c
       -0.1319465 -0.01684416 0.2166616 0.012514931
000210 d8 ec 2a be 03 13 d5 3d 64 34 cc 3c 73 a5 88 bc
       -0.16691911 0.10404017 0.024927326 -0.016680455
000220 2d e5 8d 3d c8 6d 6f bb ef e8 36 be 57 ac f4 bd
       0.069284774 -0.003653394 -0.17862295 -0.11946934
000230 65 86 17 be 0d a8 b7 bd d7 cd f1 3d 33 1c 8b bd
       -0.14797361 -0.089676 0.11806839 -0.06792488
000240 68 d9 5a bc cb 92 f1 3c 7f 81 17 be b9 2a 35 bd
       -0.013357498 0.029488942 -0.14795493 -0.044230197
000250 d3 fa 74 bb 29 2a b5 3c 6c 88 53 bc b0 cf 60 3c
       -0.0037380948 0.02211483 -0.0129109435 0.013721392
000260 a3 59 0f 3e 89 df ff 3d be bc eb bd 57 f8 0d be
       0.13999037 0.12493808 -0.11510609 -0.13864265
000270 c5 45 45 bd 42 e7 38 3e c6 d7 27 be e6 5f 72 3d
       -0.04816224 0.18056968 -0.16390905 0.059173487
000280 82 09 b2 b8 ee 8b 38 be 8e b7 27 3c 1a c1 84 bd
       -8.4894724e-05 -0.18022129 0.010236634 -0.06482144
000290 e9 0c 69 be 7b cd 0c be f4 fc 8b bd d6 e9 59 ba
       -0.22758831 -0.1375026 -0.06835356 -0.00083127373
0002a0 43 d5 07 3d e4 2e 61 be 16 1e b8 bd 56 bb d4 3d
       0.033162367 -0.21990544 -0.089901134 0.10387294
0002b0 8d 04 6d bd ba 16 04 bd ce 2e d9 bd 4b ae ab 3d
       -0.057865668 -0.032248236 -0.106046304 0.08382853
0002c0 ab d0 bb 3c 01 25 4a be 0e ed 6c bd 4b f6 19 bd
       0.02292665 -0.19740678 -0.05784326 -0.0375884
0002d0 ca d5 16 be 8c ef e7 3d cb 52 16 be 25 ef 26 be
       -0.14729992 0.11324987 -0.1468002 -0.16302164
0002e0 26 5a 48 be e2 78 2a be 57 08 6b bd b5 1f 1d 3e
       -0.19565639 -0.16647676 -0.057381 0.15344127
0002f0 e7 d7 e6 3d 90 b1 8f 3d a9 56 d5 bd 95 18 17 bc
       0.11271649 0.07016289 -0.1041692 -0.009222169
000300 1f a8 a6 bd df b6 9e bd 58 e7 4c be d6 78 29 3e
       -0.08137535 -0.07749724 -0.20010126 0.16550002
000310 53 ba 4d be 18 a0 4b be 83 5d 94 bc ee 13 78 3d
       -0.20090608 -0.1988529 -0.018110996 0.06056588
000320 35 e5 87 bd d7 ee 2c be 83 c8 1b be 1d cc 9f 3d
       -0.06635515 -0.16887985 -0.15213208 0.078026034
000330 e1 a0 d4 3d 5f b4 58 3e 6c be 0d be f8 75 13 be
       0.10382248 0.21162556 -0.13842171 -0.1440047
000340 bd 5e 61 bd 85 87 14 be f8 9b 85 3d 6c 1e 31 3e
       -0.05502199 -0.14504822 0.06523889 0.17296761
000350 db 0d ed 3d cd ef a6 3c c7 ea 34 be 89 95 cb 3b
       0.11574908 0.020378018 -0.17667685 0.0062128943
000360 6b 50 86 be 8e c1 32 3e 33 ad 91 bd c4 b9 ac bd
       -0.2623323 0.17456648 -0.07113113 -0.084338695
000370 e0 38 ec 3d 15 7f 0f 3e db 92 76 bc 35 67 59 3d
       0.115342855 0.14013322 -0.0150496615 0.05307694
000380 81 fc de bd 00 e4 16 3e c2 8d 8d bd 17 99 91 3d
       -0.10888005 0.14735413 -0.06911804 0.07109278
000390 88 b0 53 3c 32 3a d5 bd da dd 27 bd fa 29 96 bd
       0.012920506 -0.104114905 -0.04098306 -0.07332225
0003a0 44 e2 c3 3d 35 2a f7 bd 87 77 a3 3c 9d c2 f1 3d
       0.09564641 -0.12068597 0.019954456 0.11804698
0003b0 90 55 17 3e 21 0b 21 be ff 12 c3 bd 70 0d c6 bc
       0.14778733 -0.15726902 -0.095251076 -0.02417633
0003c0 ff 0c 2b 3e 05 de a6 3c c4 42 b2 bd ce 79 c0 bc
       0.16704176 0.020369539 -0.08704141 -0.023495581
0003d0 f9 56 31 3e 99 78 77 be 33 57 ac 3d dc 7c b3 bd
       0.17318334 -0.24167098 0.084150694 -0.087640494
0003e0 c6 f3 3a be a5 cb 13 bd 4f cc 3e bd 33 21 c8 3d
       -0.18257055 -0.036082882 -0.046581563 0.09771957
0003f0 cb 24 77 3e 0b b7 a4 3b 1d a4 0b 3e b8 2d b1 3d
       0.24135129 0.0050267032 0.13636823 0.08651298

conv1s.1.modlist.1.weight f4 [64]
000000 45 e9 77 3f 63 f0 7d 3f d4 9b 83 3f e3 79 81 3f
       0.96840316 0.99194926 1.028193 1.0115322
000010 c6 f3 7c 3f 3f 6f 79 3f 3a 7a 7f 3f 0e 1f 80 3f
       0.9880947 0.97435373 0.9979588 1.0009477
000020 38 32 7f 3f 60 66 75 3f 46 b4 7b 3f dc af 7e 3f
       0.99686 0.95859337 0.9832195 0.9948709
000030 f6 0a 89 3f 39 8f 81 3f 42 61 73 3f 9e 8b 82 3f
       1.070647 1.0121833 0.9507028 1.0198858
000040 0b c1 80 3f 60 aa 7d 3f 25 47 76 3f e8 4e 7f 3f
       1.0058912 0.99088097 0.9620231 0.99729776
000050 7a 5e 70 3f ef bd 79 3f b0 b5 84 3f ed 11 83 3f
       0.9389416 0.9755544 1.0367947 1.0239846
000060 e4 ce 87 3f e6 c4 83 3f e1 79 76 3f 26 bc 7e 3f
       1.0610013 1.0294464 0.9627972 0.9950584
000070 52 c6 73 3f 7b 7a 7d 3f 80 d5 81 3f 07 90 7c 3f
       0.9522449 0.99015015 1.014328 0.9865727
000080 12 84 86 3f 3f 82 7c 3f 9f 3e 7e 3f 80 b2 72 3f
       1.0509055 0.9863624 0.993143 0.9480362
000090 e8 6f 84 3f 7c eb 74 3f 74 c7 76 3f 5e 5c 80 3f
       1.0346651 0.9567182 0.9639809 1.0028188
0000a0 5a 99 7b 3f 84 e5 73 3f b9 b2 78 3f c2 79 80 3f
       0.9828087 0.9527209 0.9714771 1.0037158
0000b0 e0 8d 71 3f fa 21 81 3f 17 48 81 3f e5 c6 72 3f
       0.9435711 1.0088494 1.0100125 0.9483474
0000c0 02 85 7f 3f 82 91 73 3f d2 59 79 3f e4 4c 7e 3f
       0.9981233 0.951439 0.9740268 0.99336076
0000d0 0c b4 7d 3f a3 35 7f 3f a6 96 83 3f e4 e5 79 3f
       0.99102855 0.9969122 1.0280349 0.9761641
0000e0 be 85 7d 3f c7 9b 80 3f 12 cb 7b 3f 58 f5 73 3f
       0.990322 1.004754 0.98356736 0.9529624
0000f0 22 ac 80 3f f4 81 7f 3f ba e4 67 3f ce a9 7b 3f
       1.0052531 0.9980767 0.90583384 0.98305976

conv1s.1.modlist.1.bias f4 [64]
000000 29 54 5b bc d5 40 24 bd ca 73 99 3c 83 47 1b 3d
       -0.013386765 -0.04010089 0.01873197 0.037909996
000010 df ac 51 3d de 1d 77 3c 16 20 08 bd 3c 18 82 bc
       0.051190253 0.0150828045 -0.033233725 -0.015880696
000020 64 67 05 bc 20 90 a0 bd 61 c7 ec 3a af 54 a5 bd
       -0.008142326 -0.0783999 0.0018064791 -0.08072793
000030 5d be 48 bd 23 52 e4 3c 86 40 9f 3d a5 fb 08 3c
       -0.04900967 0.027871197 0.07775979 0.008360778
000040 87 1a a6 3d 50 73 0e 3d e0 e3 8b bd 10 a4 89 3d
       0.081105284 0.03477794 -0.06830573 0.067207456
000050 ed 5b 1b bc ab 98 fd 3b 65 ba 55 bc cb 76 4d bd
       -0.009482366 0.0077391467 -0.013044928 -0.050162118
000060 19 b7 fd 3c 01 ff 5c 3d 97 7d 9a bc 1a 35 3d 3d
       0.030971097 0.05395413 -0.018858714 0.04619322
000070 d5 a6 85 bd a9 dc 01 3d ba a9 36 3d b0 7d 8e bb
       -0.06525961 0.03170458 0.044595458 -0.004348479
000080 c4 ad 90 bc 3f e6 40 3d 70 ce d7 3c 06 a4 22 bd
       -0.017660983 0.04709458 0.026343554 -0.039707206
000090 45 22 06 bb 78 11 49 3d 03 6c 29 3d 5b 3a 8e bd
       -0.0020467204 0.049088925 0.041362774 -0.06944724
0000a0 8b a6 72 bc b7 db b2 bd b6 d1 ac bb 47 b5 01 3c
       -0.014810215 -0.087333135 -0.005274023 0.007916755
0000b0 f0 90 8d bd bc eb 55 3d 1b 0c e3 3c 74 20 cb 3c
       -0.0691241 0.052226767 0.027715733 0.024795748
0000c0 08 b6 7c 3b 92 2f 55 bd 0f ed bf 3c 45 c3 91 3c
       0.0038560648 -0.05204732 0.023428468 0.017793307
0000d0 bd ee 6c 3d d8 92 2f 3c 61 df bd bc e4 f3 53 3a
       0.057844866 0.010716163 -0.023177804 0.0008085354
0000e0 2f 92 59 3c 82 ae 93 bd ea 15 37 3c ac 09 05 3d
       0.013279482 -0.07211019 0.011174658 0.032479927
0000f0 cb 2a 7b 3c a7 5d 91 3c 7f 10 12 3d 56 39 a5 bd
       0.015330027 0.017744852 0.035660263 -0.080675766

conv1s.1.modlist.1.mean_scale f4 [64]
000000 e6 4d 76 3f 04 6f 79 3f dc d8 86 3f ae 1d 85 3f
       0.96212614 0.9743502 1.053493 1.0399683
000010 b3 28 8a 3f c4 35 82 3f bc cc 81 3f 88 8d 78 3f
       1.079367 1.0172658 1.0140605 0.9709096
000020 cf 42 84 3f 4e 6b 8f 3f 20 e4 5b 3f be 28 73 3f
       1.0332888 1.1204622 0.85894966 0.9498404
000030 86 cb 74 3f b6 ca 84 3f 78 9e 82 3f fc e4 82 3f
       0.9562305 1.0374362 1.0204611 1.022613
000040 78 2a 8d 3f 53 d3 84 3f 75 7d 69 3f 58 bb 81 3f
       1.1028585 1.0376991 0.9120706 1.0135298
000050 14 ac 83 3f 07 41 7d 3f 53 ec 7b 3f 4a 1d 6d 3f
       1.0286889 0.9892735 0.9840748 0.92622817
000060 69 d6 88 3f 3c 56 84 3f c3 60 81 3f 4d 42 89 3f
       1.0690433 1.0338817 1.0107654 1.0723358
000070 a3 2a 73 3f 47 52 86 3f bc 86 88 3f 41 37 79 3f
       0.94986933 1.0493859 1.0666118 0.97349936
000080 a7 48 82 3f b0 05 7e 3f ce 12 88 3f 4e a3 84 3f
       1.0178422 0.9922743 1.0630739 1.0362337
000090 e3 35 76 3f 4e 7c 89 3f a8 ed 81 3f 5c 28 87 3f
       0.96175975 1.074106 1.0150652 1.0559192
0000a0 c2 e3 78 3f ed 2d 8a 3f cc a9 7e 3f e6 6a 7d 3f
       0.9722253 1.0795265 0.9947784 0.9899124
0000b0 39 75 8b 3f 41 ad 73 3f f9 b7 7b 3f 49 ac 82 3f
       1.0895149 0.9518624 0.98327595 1.0208827
0000c0 73 32 6d 3f 7f e1 7c 3f db ba 81 3f bc 86 7e 3f
       0.92655104 0.9878158 1.0135149 0.9942434
0000d0 22 d9 8a 3f a3 3b 7f 3f 1d fd 79 3f f9 d2 80 3f
       1.0847514 0.99700373 0.97651845 1.0064384
0000e0 da fd 77 3f c4 be 7a 3f 67 64 81 3f bf 0e 82 3f
       0.9687172 0.97947335 1.0108765 1.016075
0000f0 1a b0 7a 3f 78 00 84 3f 90 76 73 3f 2f 27 93 3f
       0.9792496 1.0312643 0.95102787 1.1496333

conv2s.0.modlist.0.bias f4 [64]
000000 25 f5 3d bf 0d e2 50 be df be 2c bd a5 4a e9 3e
       -0.74202186 -0.20398732 -0.042174216 0.45564762
000010 34 02 66 bf ec eb 30 3f 0e b4 52 bf b0 9b 05 3f
       -0.8984711 0.6910999 -0.8230599 0.52190685
000020 c5 a5 b9 be d6 01 75 bf 35 21 97 be 7c 55 81 3e
       -0.36259285 -0.95705926 -0.29517522 0.25260532
000030 90 a5 16 3f 80 ce 69 bf 5d 0d a5 be 5a 2d d8 bd
       0.5884638 -0.9133072 -0.32236758 -0.10555525
000040 8e 96 93 be 1e 09 5e bf ca 0b 5b bf 77 52 67 bf
       -0.28825802 -0.8673266 -0.85564864 -0.90360206
000050 1e cd 7c 3e 88 a1 5b be d8 7a 5b bf c1 9a 02 be
       0.24687621 -0.21448338 -0.8573432 -0.12754346
000060 08 89 52 be 51 6b bc be d8 d2 22 3f 6c 06 61 be
       -0.20560086 -0.36800626 0.6360297 -0.21975106
000070 af 0c 35 be 89 4e 10 3f eb f2 1a 3d 64 69 2b 3e
       -0.1768062 0.56369835 0.03782932 0.16739422
000080 3f bf 24 3f 5e 48 7d bf 78 13 12 3f 8e 1f d9 3e
       0.6435432 -0.9893855 0.57060957 0.42406887
000090 f1 86 de 3e a4 2d 26 bf d7 af d7 be 24 44 0c bf
       0.43462327 -0.6491339 -0.42126343 -0.54791474
0000a0 f4 69 4c 3c a0 48 48 bf 16 a0 d4 3d 84 92 2b 3f
       0.012476433 -0.78235817 0.103820965 0.6702044
0000b0 8c 4a 83 be 72 30 80 3e a4 4b 3b 3f 3a fa bb be
       -0.25642812 0.2503696 0.73162293 -0.36714345
0000c0 a7 e2 5f bd 8a 07 af 3d 9b 37 90 3e e7 3e 96 3e
       -0.054659512 0.0854636 0.28167424 0.29344866
0000d0 34 a0 07 bf 55 52 f6 3e 2c b6 e4 bd 23 e5 0a 3f
       -0.52978826 0.4810969 -0.11167559 0.54255885
0000e0 63 40 23 be 82 90 ab 3e a6 65 96 3e f8 b5 10 3f
       -0.1594253 0.33508688 0.29374427 0.5652766
0000f0 59 08 68 3e ae 2b 06 3f c0 c4 c7 3e 62 f7 0f 3e
       0.22659434 0.524104 0.39017296 0.14059213

conv2s.0.modlist.0.lin.weight f4 [64, 64]
000000 6e 1c 1d be 3a e3 5b be 49 4a 12 be 93 63 11 bd
       -0.15342876 -0.21473399 -0.1428615 -0.035495352
000010 50 45 4c bd 3c 7c fe 3d 26 81 75 3c f3 10 bb 3d
       -0.04987079 0.124260396 0.014984405 0.09134092
000020 0a 0d 15 be c0 13 fd 3d e7 48 48 3e 97 8d 1c be
       -0.14555755 0.12357283 0.1955906 -0.15288387
000030 76 73 da bc 53 a0 05 be 62 cf 47 3e c5 76 05 3e
       -0.026666384 -0.1304944 0.19512704 0.13033588
000040 03 db fe bd 3b 69 b2 3d 8c 34 26 3d c4 78 af bc
       -0.12444117 0.08711477 0.040577456 -0.02141989
000050 3e 3d 2b be 31 56 fc 3c 7e 4f 55 be ab ca 4e be
       -0.16722581 0.030802818 -0.20831105 -0.20194499
000060 72 b9 07 be ae 45 36 be 7c c0 b7 bd 4c c7 92 3c
       -0.13254336 -0.17800018 -0.0897226 0.017917298
000070 44 c0 49 3d a5 06 d6 bd ed 0f 14 be ee 22 6d bd
       0.049255624 -0.10450486 -0.144592 -0.05789464
000080 c5 78 4e be 89 eb 1a be b3 59 44 be f1 b5 c2 bd
       -0.20163257 -0.15128912 -0.19174843 -0.09507359
000090 c2 d1 02 be 93 81 3d bd 66 95 8b be f0 a5 0d be
       -0.12775329 -0.04626615 -0.2726242 -0.13832831
0000a0 ef 25 e4 3c db 7a 4d 3d a0 9a df bd ca fd 8d 3d
       0.02785012 0.050165992 -0.10918164 0.06933172
0000b0 5f 1e fd 3d 31 22 0c 3e 51 d2 9b bd fe 67 4f bd
       0.123593085 0.13684918 -0.07608474 -0.050636284
0000c0 fc f4 01 3e 81 19 bd bd da 33 29 3d d3 b6 15 3d
       0.1269111 -0.0923338 0.041309215 0.036551308
0000d0 8d 9b 00 be 31 bd 41 bd ba 86 58 be 70 be 9e 3d
       -0.12559338 -0.047299568 -0.21145144 0.07751167
0000e0 d4 df 42 bd 9b fe 7f be 2c 70 32 bd 32 25 8a 3c
       -0.04757674 -0.24999468 -0.043564007 0.01686344
0000f0 9c a3 94 bd 91 65 59 be 4f f2 6b bd a2 59 f4 3d
       -0.072577685 -0.21230151 -0.05760413 0.119311586
000100 fd 87 20 bd d5 e7 91 3b 76 d1 10 be 83 d5 f5 bd
       -0.03919219 0.0044526854 -0.14142403 -0.12003615
000110 fe ef 20 3e a1 e2 8b 3d 88 80 54 be de 4e 5b 3e
       0.1571655 0.068303354 -0.20752156 0.21416804
000120 34 53 4f be 32 67 5c bc 58 05 50 be 3a a6 58 3b
       -0.20246583 -0.013452338 -0.20314538 0.0033058063
000130 5f 76 ea bd 89 17 01 be 3f c9 e8 3d d7 d1 78 3e
       -0.11448359 -0.12606634 0.1136651 0.24298798
000140 53 9a 59 bc bf 68 5e 3e cd 34 f1 bd ed 98 d5 3c
       -0.013281423 0.21719645 -0.11777649 0.026073897
000150 5b 90 9b 3c 9c 7d d9 3d fc 94 89 3d c1 90 5f 3e
       0.018989732 0.10619661 0.0671787 0.21832563
000160 fe 24 7e 3d 39 dd 80 bd 18 c4 2e be 77 93 03 be
       0.062046997 -0.06292195 -0.17066991 -0.12849222
000170 c5 8c a7 bd 66 11 1a 3e c1 94 c5 3d 8e 35 02 3e
       -0.081811465 0.150457 0.09647513 0.12715742
000180 de 69 f2 3c 97 48 1c bd 45 91 3e 3e b5 8b 58 be
       0.029591497 -0.038155165 0.18610103 -0.21147044
000190 4e f8 31 be 58 84 36 bd 65 6c 15 3e 3e 9d 2c bd
       -0.17379877 -0.044559807 0.1459213 -0.042142145
0001a0 a8 13 97 bd bb 33 85 3e 10 91 51 be cc 21 9c 3d
       -0.07376796 0.2601603 -0.20465493 0.07623634
0001b0 58 4c 98 bd 6a 39 eb bd 6f 07 bc bd 90 df 0e be
       -0.074364364 -0.1148556 -0.09181105 -0.1395247
0001c0 fb 9e c3 3d 5f 27 33 be 7d ae 17 be 71 8c d5 3d
       0.095518075 -0.17495488 -0.14812656 0.10427178
0001d0 5c 0a 9b bd b1 3d 10 be c4 4e 56 bd 89 b7 92 bd
       -0.07570335 -0.14086033 -0.05232121 -0.07163913
0001e0 af cf 34 be da b9 b2 bd 66 a1 1a 3c ac 01 57 3e
       -0.1765735 -0.087268546 0.009437894 0.20996732
0001f0 a4 27 81 3e 94 d5 84 3e 60 b8 af 3d 8e 4f 45 bd
       0.25225556 0.25944197 0.085800886 -0.048171572
000200 9e 22 6d bd 4d 62 06 bd 02 b8 90 3d aa f9 57 3e
       -0.05789434 -0.03280859 0.07066347 0.21091333
000210 55 14 3d be 78 4b b2 bc 65 87 6d be e2 fb cc 3d
       -0.18464787 -0.021764502 -0.2319618 0.1000898
000220 d7 af ac bd e5 2d a2 bd 4e d3 f9 bb 57 5a 7c 3d
       -0.08431976 -0.0791891 -0.0076240664 0.061609592
000230 81 92 fb bd 5b 2c 8c be 4c bb 7e bc 0a d1 1f 3e
       -0.12283803 -0.2737759 -0.015547585 0.15607086
000240 29 ce 40 bd a8 06 bf bd a0 5b 23 be be c7 a7 bb
       -0.04707161 -0.093274415 -0.15952921 -0.0051202467
000250 09 66 ce 3c 41 2f bf 3d a2 ba 28 bd 35 c6 6a 3e
       0.025195139 0.09335185 -0.041193612 0.22927172
000260 f2 e9 7c 3c f7 46 ed ba df 1e 65 3e 4f 3c 82 3b
       0.015436636 -0.0018102814 0.22375058 0.0039744745
000270 f8 5c 10 3e c5 e2 7a 3d 48 9c cc bd 5f 85 85 be
       0.14097965 0.06125142 -0.09990746 -0.26078317
000280 88 95 a9 3d 65 a9 8c 3d ee 9d bf 3c 0d 09 77 be
       0.08280474 0.06868247 0.023390736 -0.24124546
000290 07 8e 7d 3d 3e 22 f9 bd 4c 56 5f be 68 94 cb 3d
       0.061903026 -0.12164734 -0.21810263 0.099404156
0002a0 e1 c5 63 3d 83 f7 26 3e 70 da 22 bc 4f 33 8f 3b
       0.055608634 0.16305356 -0.009939775 0.00437013
0002b0 c9 d9 1d 3e 73 28 66 39 a5 7d 46 3e 74 e6 19 3d
       0.1541511 0.00021949578 0.19383867 0.037573293
0002c0 7a ce fc bd 14 34 fc bd 06 a7 ec bd 98 2e 8e bd
       -0.1234407 -0.123146206 -0.11555295 -0.06942481
0002d0 08 88 9e 3d 29 4c ce bd ea d2 51 3d 8d 7c 16 be
       0.0774079 -0.1007312 0.051226534 -0.1469595
0002e0 23 a4 33 3d b9 bc e6 bd f9 27 a5 3d d4 0b 55 3e
       0.043857705 -0.11266465 0.08064265 0.20805293
0002f0 18 8a 78 bd 07 9d 0c bb ce 19 b1 3c 02 e7 42 3e
       -0.06067857 -0.00214559 0.02161875 0.19033435
000300 ba 96 7d 3e ad c8 9f bd cd bb 0f be e8 41 25 3e
       0.24764529 -0.07801948 -0.14036484 0.16138422
000310 3e 5f 09 3e 71 9e 1c 3e 13 c8 26 be 4e c0 15 3d
       0.13415238 0.15294816 -0.1628726 0.03656035
000320 ce e5 0a 3e 64 cc 45 3e 2b cc 3d be de 34 53 3e
       0.13564226 0.1931625 -0.18534915 0.20625636
000330 a3 31 c1 3d 81 18 5d 3e fb cd ff bc 7e fc e5 bd
       0.094332956 0.21591379 -0.031226149 -0.112298
000340 9a e8 01 be b9 49 6f bd 7c 98 31 be e8 fa 53 bd
       -0.12686387 -0.058419917 -0.17343324 -0.051752955
000350 20 21 55 3e 0c 45 5b 3d 8c 52 7c 3b 37 5b b3 bd
       0.20813417 0.053532645 0.003850135 -0.08757632
000360 66 87 9d 3e 1e 17 8e 3d ae bb 8a 3e 4f 19 5e 3e
       0.30767363 0.06938003 0.27096313 0.21689342
000370 fe bc f7 3d b1 fc 35 3e 87 88 2b be dd 86 57 3e
       0.12096594 0.17772175 -0.167513 0.2104754
000380 7e 11 72 3c ca 6d 91 bd 65 d0 bb bc a9 95 09 3c
       0.014774678 -0.07101019 -0.022926519 0.008397498
000390 c3 7e 0d 3d e0 61 80 bd 6c ff a5 bd 81 9d 5b 3e
       0.034544718 -0.06268668 -0.081053585 0.21446802
0003a0 ff ae 31 bd 1a 33 2c 3e c5 d9 d6 bd 62 cf e8 bd
       -0.04337978 0.16816369 -0.10490755 -0.1136768
0003b0 b8 aa 31 3c f1 0b ac bd fb 76 6b 3d 54 75 aa bd
       0.010843925 -0.08400715 0.057486515 -0.0832316
0003c0 5a 26 ec 3d d4 1c 83 bc 76 93 19 be ee aa b0 3d
       0.115307525 -0.016004957 -0.14997658 0.08626352
0003d0 02 b3 52 3e 80 7e a2 3d 1b 92 c3 3d 22 a4 f6 bc
       0.20576099 0.07934284 0.09549352 -0.030107561
0003e0 0e 19 13 3e 03 95 13 3e 94 bb f5 bc b7 dc e2 3d
       0.14365026 0.14412312 -0.02999667 0.11077254
0003f0 42 b9 fb bd 1a c9 bb ba 6c 9f ee 3d ff 2b 16 3e
       -0.122911945 -0.0014326901 0.11651501 0.1466522

conv2s.0.modlist.1.weight f4 [64]
000000 79 da 76 3f 6f 71 7e 3f 84 3f 77 3f 46 03 81 3f
       0.9642711 0.99391836 0.9658129 1.0079124
000010 9b c7 82 3f 09 2d 7b 3f 04 e2 8c 3f 68 af 77 3f
       1.0217165 0.98115593 1.1006474 0.96752024
000020 fd 30 68 3f 0d 9b 88 3f ff 91 6b 3f 72 a0 84 3f
       0.9069975 1.0672318 0.9201965 1.0361464
000030 2e 0c 8d 3f 2b 35 84 3f dd 7e 77 3f 47 cb 68 3f
       1.1019342 1.0328726 0.96677953 0.90935177
000040 be 25 6d 3f a4 86 8b 3f 1b 02 7c 3f d4 7e 86 3f
       0.92635715 1.0900464 0.9844071 1.0507455
000050 1a 6d 8a 3f e5 df 6c 3f cd 3a 83 3f 40 89 67 3f
       1.0814545 0.92529136 1.025232 0.904438
000060 a2 97 73 3f 50 bc 67 3f 9d 91 8d 3f b2 a2 66 3f
       0.9515325 0.9052172 1.1060063 0.90092003
000070 2e 81 5a 3f f7 04 77 3f 36 87 7d 3f 5a 23 70 3f
       0.8535336 0.9649195 0.9903444 0.9380394
000080 ab 15 85 3f a2 82 7a 3f 02 55 73 3f 3b b7 8d 3f
       1.0397238 0.9785558 0.95051587 1.1071543
000090 6b f9 68 3f 02 81 81 3f e6 a0 69 3f 28 a8 63 3f
       0.9100558 1.0117495 0.91261137 0.8892846
0000a0 53 0d 69 3f 2c 9f 72 3f 1a a1 6d 3f 9b 6a 87 3f
       0.91035956 0.94774127 0.92823946 1.0579408
0000b0 74 17 63 3f 1d a6 6b 3f cc 3c 82 3f 0b 84 6a 3f
       0.8870766 0.92050344 1.0174804 0.9160773
0000c0 be b4 57 3f 90 6f 56 3f d5 f6 7b 3f 27 a8 7a 3f
       0.84260166 0.8376398 0.9842351 0.9791283
0000d0 e3 12 66 3f 51 4a 80 3f b4 fc 75 3f 26 93 81 3f
       0.8987257 1.002268 0.9608872 1.0123031
0000e0 3c 01 77 3f 61 2f 71 3f 0b 8a 69 3f 9d e7 68 3f
       0.9648626 0.9421292 0.9122626 0.90978414
0000f0 43 65 91 3f 3d 04 85 3f 7d c4 84 3f f8 e0 6b 3f
       1.1359028 1.0391918 1.0372463 0.9214015

conv2s.0.modlist.1.bias f4 [64]
000000 c4 42 f2 3e 47 13 15 3e 5a 47 27 3d 3d f4 8e 3e
       0.47316563 0.14558135 0.04083953 0.27920714
000010 cd e1 17 3f 14 86 be 3e 87 c9 27 3f 0e d0 99 3e
       0.5932892 0.37211668 0.6554188 0.30041546
000020 37 f7 50 3e 71 c7 32 3f 87 54 63 3e ae 20 a0 3e
       0.20406805 0.69835573 0.22200213 0.31274933
000030 b2 89 af 3e 5a 11 1f 3f e8 a9 66 3e b0 17 c4 3d
       0.3428474 0.6213585 0.22525752 0.095748305
000040 dd ab 1d 3e b4 74 2b 3f c6 d3 03 3f 10 24 17 3f
       0.15397592 0.6697495 0.51495016 0.590394
000050 f6 1f 7d be 46 04 1d 3e f6 31 1b 3f cb ef 46 3e
       -0.24719223 0.15333661 0.6062311 0.19427411
000060 2c 62 03 3e ea f0 89 3e a2 1b d6 3e 9d 5b 0b 3e
       0.12830418 0.26941615 0.41817957 0.13609166
000070 01 cc dd 3d 5a b7 aa 3e a3 5d 31 3b 35 c6 9f 3d
       0.10829926 0.3334301 0.0027063868 0.07801477
000080 5a 34 af 3e 45 46 21 3f 46 14 98 3e 12 fd 9b 3e
       0.3421963 0.6299785 0.29702967 0.30466515
000090 de 1a a1 3e 52 04 e8 3e 40 32 8a 3e 16 bf a9 3e
       0.3146581 0.45315796 0.26991463 0.331536
0000a0 35 1f 06 3d 74 88 03 3f 30 8f ec bd 74 34 de 3e
       0.032744605 0.51380086 -0.11550748 0.43399394
0000b0 54 4f 17 3e 5d 2e 13 3e 24 46 e8 3e 80 bc 7f 3e
       0.14776355 0.14373155 0.45366013 0.24974251
0000c0 cf 2a 81 3d a5 b8 f1 bc 8a 23 24 3e 95 a0 2c 3e
       0.06306993 -0.02950699 0.16029182 0.16858132
0000d0 83 57 b6 3e 64 0f 86 3e 3d 0b d6 3d 9e ad a2 3e
       0.3561364 0.26183617 0.10451362 0.31773084
0000e0 0e f2 00 3e 5b 1a 50 3e 57 5d 5a 3e 78 51 8b 3e
       0.12592337 0.20322554 0.21324669 0.27210593
0000f0 c9 9c 54 be 1b 28 9a 3e e0 09 88 3e 83 23 5e 3e
       -0.20762934 0.30108723 0.26570034 0.21693234

conv2s.0.modlist.1.mean_scale f4 [64]
000000 59 ff c9 3f d3 dc 95 3f 32 57 83 3f e5 38 1b 3f
       1.5781051 1.1708015 1.0260985 0.6063369
000010 b2 12 d1 3f a3 27 0a 3f 2a 20 d2 3f d0 bc 20 3f
       1.633383 0.5396673 1.6416066 0.62788105
000020 b2 a8 a9 3f 1f ac cf 3f 93 28 91 3f ac b6 2f 3f
       1.3254607 1.6224402 1.1340507 0.6863811
000030 94 75 1a 3f 9c 86 d6 3f 63 35 a4 3f 85 0a 8c 3f
       0.6033566 1.675983 1.2828792 1.094071
000040 94 56 9b 3f 68 1a d8 3f 10 c0 cd 3f 8b c1 d3 3f
       1.2135797 1.6883059 1.6074238 1.654344
000050 7a 1c 99 3f 24 0c 9a 3f 64 a1 d8 3f 62 ea 80 3f
       1.1961815 1.2034955 1.6924253 1.0071528
000060 a3 6c 93 3f 5f 33 ae 3f 23 72 fa 3e 15 c5 98 3f
       1.1517528 1.3609427 0.48915204 1.1935145
000070 7a a9 94 3f 47 d3 19 3f f0 9b 70 3f 99 33 41 3f
       1.161422 0.6008801 0.9398794 0.75469357
000080 6e 98 16 3f df de d3 3f e1 4f 1a 3f 4f 3d 30 3f
       0.5882634 1.655239 0.60278136 0.6884355
000090 dc 69 14 3f c1 25 cc 3f 14 fd ab 3f 18 10 b6 3f
       0.5797403 1.5949022 1.3436608 1.4223661
0000a0 8c 87 84 3f fd a8 cb 3f b3 68 80 3f 11 0a cc 3e
       1.0353866 1.5910946 1.0031952 0.3985143
0000b0 55 3a 9b 3f 12 14 53 3f 4f 7e e6 3e 82 ef af 3f
       1.2127177 0.824525 0.4501824 1.3744967
0000c0 fb e6 83 3f f9 e0 76 3f 71 bd 44 3f f1 00 5f 3f
       1.0304865 0.9643703 0.76851565 0.8711081
0000d0 45 8d c2 3f db 41 21 3f ce 5e 91 3f c9 9a 1f 3f
       1.5199362 0.6299111 1.1357057 0.6234556
0000e0 2b f0 88 3f 1a 3e 7f 3f 6b d1 48 3f a7 06 21 3f
       1.0698293 0.99704134 0.78444546 0.62900776
0000f0 3c e9 98 3f b9 7b 0a 3f 61 ab 23 3f 33 ed 44 3f
       1.1946177 0.54095036 0.6393338 0.7692444
