2WL_link_pred/checkpoint/archive/20221213_02/20221213_035248_2WL_state_dict.pt (torch, 753358 bytes, 28 tensors)

lin1.1.0.weight f4 [96, 1433]
0	0xbce4d086	-0.027931463
1	0xbe31f423	-0.17378287
2	0x3e1c6592	0.15273121
3	0xbe67f167	-0.22650681
4	0x3d56184b	0.05226926
5	0xbd576cd9	-0.05259404
6	0xbe183128	-0.14862502
7	0xbd8a568f	-0.06754791
8	0x3c5595f7	0.013036243
9	0xbead429c	-0.3383988
10	0xbe53d62a	-0.20687166
11	0xbde76fd1	-0.11300624
12	0x3d3bfc91	0.045895163
13	0xbd7ce1c3	-0.06173874
14	0xbbe7f88b	-0.007079189
15	0x3da38f8b	0.07986363
16	0xbd075170	-0.03303665
17	0x3e41f1d6	0.1893991
18	0xbb667f75	-0.0035171185
19	0xbd9efdec	-0.077632755
20	0xbdc9ef4b	-0.09860095
21	0xbe3725b4	-0.17885476
22	0xbda734cf	-0.08164369
23	0xbe98e928	-0.29865384
24	0x3e838bc4	0.2569257
25	0xbc5ebc76	-0.013594737
26	0x3e63e126	0.22253856
27	0x3d94b9ba	0.07261987
28	0xbe3ddffa	-0.18542472
29	0x3e31f139	0.17377175
30	0xbe082c09	-0.13298048
31	0x3ec8025a	0.39064294
32	0xbe68603b	-0.22692959
33	0xbeb1e5ea	-0.34745723
34	0xbe991807	-0.29901144
35	0x3e7aa0ab	0.24475352
36	0x3db10137	0.0864281
37	0x3ebd9f48	0.37035584
38	0xbd278094	-0.040894106
39	0x3d9c30d7	0.07626503
40	0xbe136b1f	-0.14396332
41	0xbd5f7f81	-0.054564957
42	0xbdfc2e3b	-0.12313505
43	0x3e91116b	0.283336
44	0x3e221465	0.15828092
45	0xbe87615d	-0.2644147
46	0xbddee4f9	-0.10883517
47	0xbd7c3143	-0.061570417
48	0x3d9b3747	0.07578903
49	0x3ea35994	0.3190428
50	0x3d6b97da	0.057517864
51	0xbe55c121	-0.20874454
52	0xbd6974f1	-0.05699629
53	0xbe339e13	-0.1754077
54	0x3e8b9070	0.27258635
55	0xbd70bd66	-0.058774374
56	0xbe85311b	-0.26014027
57	0xbb6d89d0	-0.0036245473
58	0xbe7084e1	-0.2348819
59	0xbea51a23	-0.32246503
60	0xbdf3ebcc	-0.11910209
61	0x3cc26577	0.023730023
62	0xbd8f6424	-0.07001522
63	0x3e26ba80	0.16282082
64	0xbbaa4258	-0.005195897
65	0xbe134e0d	-0.14385243
66	0xbe82d3b3	-0.2555214
67	0xbbafe05f	-0.0053673233
68	0x3dd0f626	0.10203199
69	0x3dbc0bfa	0.09181972
70	0x3e8785a0	0.26469135
71	0xbe16cfcc	-0.14727706
72	0x3d03c1e1	0.03216732
73	0xbeb5835f	-0.3545179
74	0x3e33aff5	0.17547591
75	0xbee320d4	-0.44360983
76	0x3d4cd4d9	0.050007675
77	0xbea19c5d	-0.31564608
78	0xbc85f04d	-0.016349936
79	0x3df98ce1	0.12185074
80	0x3e007866	0.12545928
81	0x3e0db5e8	0.13838923
82	0xbe247c8c	-0.16063136
83	0x3e1c1a26	0.1524435
84	0xbdc95249	-0.09830148
85	0xbeca80ef	-0.39551494
86	0xbe4abf61	-0.19799568
87	0xbdc33d6f	-0.09533202
88	0xbd203a90	-0.03911835
89	0xbdf66b31	-0.12032164
90	0xbed9eec8	-0.42564988
91	0x3e603890	0.21896577
92	0xbda4173f	-0.08012246
93	0x3ea738ab	0.32660422
94	0x3e18cf20	0.14922762
95	0x3dadd091	0.084870465
96	0xbdfe5e59	-0.12420339
97	0xbdded50b	-0.108804785
98	0x3da666fa	0.0812511
99	0xbdb0205c	-0.08599922
100	0xbeb35b62	-0.35030657
101	0xbc97be26	-0.018523287
102	0x3dc6cf33	0.09707489
103	0xbc135ae2	-0.008993836
104	0x3c0cd83b	0.008596475
105	0x3dbee909	0.09321792
106	0x3e219da7	0.15782796
107	0xbe93062e	-0.28715652
108	0x3d856cab	0.065148674
109	0xbdd184a9	-0.10230381
110	0xbe1af640	-0.15133
111	0xbd8b8fd1	-0.0681454
112	0xbea3e428	-0.32010007
113	0xbd6445f6	-0.055730782
114	0xbef9e4a0	-0.4880724
115	0xbe3517a4	-0.176848
116	0x3d788d72	0.060681768
117	0x3dfa50b9	0.12222428
118	0x3b996dfe	0.0046823015
119	0x3e978936	0.2959687
120	0x3e4393b4	0.19099313
121	0x3e40f50b	0.18843476
122	0x3df58884	0.11988929
123	0xbe38c100	-0.18042374
124	0xbe8437b4	-0.25823748
125	0xbd489d20	-0.04897797
126	0xbcbb6cd3	-0.02287904
127	0x3c514bc5	0.0127744125
128	0xbe4cf621	-0.20015766
129	0xbcec2293	-0.02882508
130	0x3e6f8cd7	0.2339357
131	0x3d3b4af7	0.04572579
132	0xbe18a653	-0.14907198
133	0xbd27831f	-0.04089653
134	0xbed1c8ee	-0.4097361
135	0xbe97d52b	-0.29654822
136	0xbe44246c	-0.19154519
137	0xbe7bb9a6	-0.24582538
138	0xbe9dbce5	-0.30808178
139	0x3d97b532	0.07407607
140	0xbe19c595	-0.15016778
141	0xbe6f81b8	-0.23389328
142	0x3e8581b4	0.26075518
143	0x3da8aca6	0.08236055
144	0xbf303ba1	-0.68840986
145	0xbee3ea8a	-0.44514877
146	0xbe073175	-0.1320246
147	0x3ea14ce1	0.31503966
148	0xbe6b1eea	-0.22961012
149	0x3de694ef	0.112588756
150	0xbe84231d	-0.2580804
151	0x3db1c78f	0.08680641
152	0xbdea5b41	-0.114431866
153	0xbe0c3a4e	-0.13694116
154	0x3e4593d8	0.19294679
155	0x3dbd7d8e	0.09252463
156	0x3e16c88c	0.1472494
157	0xbe12425c	-0.14283127
158	0x3da2a910	0.07942402
159	0x3e81c539	0.2534578
160	0xbe836463	-0.25662526
161	0x3d2f7bb1	0.04284257
162	0x3e46f933	0.19431
163	0x3e6f2dee	0.23357365
164	0x3f309085	0.6897052
165	0x3d092953	0.033486675
166	0xbd91c7ff	-0.07118224
167	0x3d0b91a7	0.03407445
168	0xbe2295c9	-0.15877451
169	0xbd77568e	-0.06038528
170	0x3e0a3d7a	0.13500014
171	0xbe0940b5	-0.1340359
172	0xbe86016d	-0.26172963
173	0xbeb4e162	-0.35328203
174	0x3dd53ac0	0.10411596
175	0x3d18e677	0.037329163
176	0xbe0722e4	-0.13196903
177	0x3e0fec2c	0.14054936
178	0x3d221b37	0.039576735
179	0xbec966de	-0.39336294
180	0x3e3f0de0	0.18657637
181	0xbd84bef6	-0.064817354
182	0x3cc37e51	0.023863943
183	0xbe8f0995	-0.27936998
184	0xbd700dd6	-0.058606945
185	0xbe8a229e	-0.26979536
186	0xbe137040	-0.14398289
187	0x3c801d93	0.015639102
188	0x3e19048d	0.14943142
189	0xbd8cfc1e	-0.06884025
190	0x3e34537d	0.17609973
191	0x3ee9ff7c	0.45702732
192	0x3d9c93f4	0.07645407
193	0xbeae18dc	-0.3400334
194	0xbc7c160c	-0.015386116
195	0x3c7b82b9	0.015350991
196	0xbcc9a1f0	-0.02461335
197	0x3d4f475c	0.050605163
198	0xbd635f73	-0.05551095
199	0x3e1354eb	0.14387862
200	0x3e00ad77	0.12566172
201	0xbe5af637	-0.21382986
202	0x3d8c5a7f	0.06853198
203	0xbdb3c0bf	-0.08776998
204	0x3dbe5148	0.09292847
205	0x3e98c7e7	0.29840013
206	0x3d07e8d5	0.03318103
207	0xbe49cac1	-0.1970625
208	0xbeadb8be	-0.3393001
209	0x3cc4ab5e	0.024007495
210	0xbe9cb9aa	-0.306104
211	0x3da43789	0.08018405
212	0xbe9f96b4	-0.31169665
213	0xbe0945d1	-0.13405539
214	0xbd4c9752	-0.049948998
215	0x3ee8d02a	0.45471317
216	0xbee164ab	-0.44022116
217	0xbe573a4c	-0.21018332
218	0xbdd4362b	-0.10361894
219	0x3e6b4387	0.22974978
220	0x3d01c061	0.031677607
221	0x3e049d15	0.12950547
222	0x3e756b68	0.23966753
223	0xbd39d8af	-0.04537266
224	0xbe1d25c7	-0.15346442
225	0x3d9f85f2	0.0778922
226	0x3c851be2	0.016248647
227	0xbd013371	-0.0315432
228	0x3db0ea69	0.0863846
229	0xbe870980	-0.26374435
230	0xbd1a0640	-0.037603617
231	0x3d249c44	0.04018809
232	0x3e1f7532	0.1557205
233	0x3d6d95ba	0.05800412
234	0x3e3da9b7	0.18521772
235	0xbe90a107	-0.28247854
236	0x3ec7dd50	0.39036036
237	0x3bb5a611	0.0055434783
238	0x3d9ffdbf	0.0781207
239	0x3eb64dfe	0.35606378
240	0xbe5322e3	-0.20618777
241	0xbd9eb05f	-0.07748484
242	0xbc8dd2f6	-0.017312508
243	0xbd9a19b9	-0.075244375
244	0x3e8c9434	0.2745682
245	0x3e7b6cf6	0.24553284
246	0xbe09a4b1	-0.13441731
247	0x3e0aed80	0.13567162
248	0x3f1a7387	0.6033253
249	0x3db1861c	0.086681575
250	0xbcc1be14	-0.023650207
251	0xbe73c82a	-0.23806825
252	0x3e89a9c0	0.2688732
253	0xbeb7aa16	-0.35871953
254	0x3c606786	0.013696557
255	0x3dbfbc96	0.09362142

lin1.1.0.bias f4 [96]
0	0xbc8d793a	-0.01726972
1	0x3c4c94e4	0.01248667
2	0xbcad8751	-0.021182688
3	0xbc665d13	-0.014060277
4	0x3cfa3348	0.03054203
5	0xbc274a0c	-0.010210525
6	0x3cb7ee5c	0.022452526
7	0xbcd128ce	-0.025532153
8	0x3ca95283	0.020669227
9	0xbd01c45a	-0.031681396
10	0xbc836585	-0.01603962
11	0x3d00d63b	0.031454306
12	0xbd0215ac	-0.03175895
13	0x3b0b1c45	0.0021226567
14	0xbce77880	-0.028255701
15	0x3ce4a9df	0.027913032
16	0x3c84cd96	0.016211312
17	0x3c56162f	0.013066812
18	0xbc5e0bc9	-0.0135526145
19	0x3a2b32c1	0.0006530695
20	0xbc6daf99	-0.014507198
21	0x3d88317d	0.06650064
22	0x3ca95efa	0.020675171
23	0x3b76d252	0.0037661982
24	0xbe9890d4	-0.29797995
25	0xbd05cc2a	-0.03266541
26	0x3e71e3c9	0.2362205
27	0x3e762c93	0.24040441
28	0x3ded3635	0.11582605
29	0x3cf7f79b	0.030269435
30	0x3d0069be	0.031350844
31	0x3bfa65e9	0.007641543
32	0xbd19e558	-0.037572235
33	0x3b2ab0bc	0.0026045283
34	0xbcc259bc	-0.02372443
35	0x3c9dfdb6	0.019286018
36	0xbcc299b5	-0.023754934
37	0x3ce24dbf	0.027624963
38	0xbcb27bb7	-0.021787507
39	0xbcec0902	-0.028812889
40	0xbcc560ed	-0.02409407
41	0x3bf23907	0.007392052
42	0x3c10d1df	0.0088391
43	0xbe64983a	-0.22323695
44	0x3a85fd8f	0.0010222661
45	0xbbb774c6	-0.0055986373
46	0x3c8538b2	0.016262386
47	0x3cb260e1	0.021774711
48	0xbcfa61f7	-0.030564291
49	0x39f11873	0.00045985318
50	0x3ca4dab4	0.020123817
51	0xbbc61cfc	-0.0060459357
52	0x3c943ebd	0.018096322
53	0xbc9a74ed	-0.018854583
54	0x3d2ccd92	0.042188235
55	0x3e72f880	0.23727608
56	0xbbf8ebb9	-0.0075964597
57	0xbc82aeee	-0.015952554
58	0xbd01cb93	-0.031688284
59	0x3c57cba6	0.013171112
60	0x3d445f6f	0.047942575
61	0xbc0c1c0c	-0.008551609
62	0xbcac271f	-0.021014748
63	0x3d0be2e8	0.03415194
64	0x3c62cea4	0.013843212
65	0xbb305188	-0.0026904065
66	0xbc9320da	-0.01796
67	0x3d48028f	0.048830565
68	0xbd1a8cdb	-0.037731986
69	0xbbe314b7	-0.0069299596
70	0x3beeea5b	0.007291121
71	0xbba0111c	-0.004884852
72	0xbd0c21ed	-0.03421204
73	0xbd1da42d	-0.03848665
74	0xbbc7e317	-0.0061000693
75	0xbd0a15ae	-0.03371208
76	0xbd4e95de	-0.050435893
77	0xbcecf3e5	-0.028924892
78	0x3c821f7d	0.015884155
79	0x3c715b41	0.014731229
80	0x3bf6b700	0.0075291395
81	0xbf015dcd	-0.50533754
82	0xbb927ae1	-0.0044702147
83	0x3d72067b	0.05908821
84	0x3c88250c	0.016619228
85	0xbd2c6110	-0.042084754
86	0x3d3d91bf	0.046281572
87	0x3d766a5e	0.060160033
88	0x3c8bdb02	0.017072205
89	0x3c7af3ca	0.015316913
90	0x3b73aa61	0.003718041
91	0x3dad2803	0.08454897
92	0xbc2275a7	-0.009915746
93	0x3ca72110	0.020401508
94	0xbc1df382	-0.009640576
95	0x3c4374fa	0.011929745

conv1s.0.modlist.0.bias f4 [96]
0	0xbe0d782b	-0.13815372
1	0xbe0e8e3a	-0.13921443
2	0x3e6e1733	0.23251037
3	0xbebacd55	-0.3648478
4	0x3ea47414	0.3211981
5	0x3e44f276	0.19233117
6	0xbd86a501	-0.06574441
7	0x3dbfec5c	0.09371254
8	0x3bdfd1db	0.0068304366
9	0x3fd8882a	1.6916554
10	0xbed5eb39	-0.41781023
11	0xbed07e36	-0.4072129
12	0xbea204ba	-0.3164423
13	0x3f904240	1.1270218
14	0xbf0ce585	-0.5503772
15	0x3e7225c8	0.23647225
16	0x3dae0e86	0.08498864
17	0x3ed94637	0.42436382
18	0x3dc06b7f	0.09395503
19	0x3e8ae299	0.27126005
20	0xbe2b1d3c	-0.16710371
21	0xbe8a2863	-0.26983938
22	0xbe8a9372	-0.27065617
23	0xbf37e63b	-0.7183568
24	0x3ec25c20	0.3796091
25	0x3fc3d2f7	1.5298756
26	0x3ee8ac2c	0.45443857
27	0xbeb35e96	-0.350331
28	0x3e90f16d	0.28309193
29	0x3e2f1d39	0.17100991
30	0xbea71da1	-0.32639793
31	0xbe84c807	-0.2593386
32	0x3e4a8875	0.19778617
33	0x3eb970aa	0.36218768
34	0x3bcb3d1e	0.006202354
35	0x3ecbc683	0.3979989
36	0x3e4be91c	0.19913143
37	0x3d43502c	0.04768388
38	0x3e74e865	0.23916776
39	0x3e0b9fc7	0.13635169
40	0xbf39060c	-0.7227485
41	0xbec400a1	-0.3828173
42	0xbe0c1de6	-0.1368328
43	0xbdc1454f	-0.09437048
44	0x3e88c14f	0.26709983
45	0x3eaf42b0	0.34230566
46	0x3f9cd4ae	1.2252405
47	0xbe42583a	-0.18978968
48	0xbec22241	-0.3791676
49	0x3fb3c43a	1.4044259
50	0x3f879408	1.059205
51	0xbedd9a16	-0.4328162
52	0xbecb977c	-0.3976401
53	0x3e2fd672	0.17171648
54	0xbea0a26f	-0.31373927
55	0xbe1acd2a	-0.15117326
56	0x3e549271	0.20758988
57	0x3ec27ffd	0.37988272
58	0xbe0ce912	-0.13760784
59	0x3ce95708	0.028483883
60	0x3e45982e	0.19296333
61	0xbe4b52d8	-0.19855821
62	0xbf08f15a	-0.53493273
63	0x3f4e7000	0.8063965
64	0xbdf87636	-0.12131922
65	0x3f59e279	0.85111195
66	0x3e2db431	0.16963269
67	0x3f0d195a	0.5511681
68	0xbbf56833	-0.007489228
69	0x3e432db5	0.19060405
70	0xbe80dfd7	-0.25170776
71	0xbf4fe394	-0.8120663
72	0xbf29f524	-0.6638968
73	0xbd184e08	-0.03718379
74	0xbe7df56b	-0.24800651
75	0xbe98422c	-0.29737985
76	0x3e7d5c80	0.24742317
77	0x3ef72cf4	0.48276484
78	0xbec310a1	-0.38098624
79	0x3f447d26	0.7675346
80	0x3ec83f6f	0.39110896
81	0x3c050e24	0.008121047
82	0xbf9b046b	-1.2110723
83	0x3ecf25ee	0.40458626
84	0x3f009e25	0.5024131
85	0x3fb62e5e	1.42329
86	0xbed12772	-0.40850407
87	0xbe229f1d	-0.1588101
88	0x3d9ffcca	0.078118876
89	0xbf27664c	-0.6539047
90	0xbdaeef86	-0.08541779
91	0x3dac38f0	0.084092975
92	0xbf82607a	-1.0185692
93	0xbe240886	-0.16018876
94	0xbeabd8f7	-0.3356397
95	0x3e7f9cac	0.2496211

conv1s.0.modlist.0.lin.weight f4 [96, 96]
0	0xbe4a9c80	-0.19786263
1	0xbddaeb81	-0.1068945
2	0x3ec95feb	0.39330992
3	0x3dc3b9d8	0.09556931
4	0x3d972398	0.07379836
5	0xbea55c89	-0.3229716
6	0xbe842444	-0.25808918
7	0xbecef795	-0.40423265
8	0xbe85cb43	-0.2613164
9	0xbe65db19	-0.2244686
10	0xbe123155	-0.14276631
11	0xbe747b4f	-0.23875163
12	0xbdeb4e1e	-0.11489509
13	0xbcb72277	-0.022355301
14	0x3ea4c6dc	0.32182968
15	0x3d6ed87f	0.058311936
16	0x3c68c62a	0.014207402
17	0x3b3bb5d5	0.0028642316
18	0x3c4a5d49	0.0123513425
19	0x3df2c651	0.11854232
20	0xbe04aaf2	-0.12955835
21	0xbe0fae57	-0.14031349
22	0x3e415cce	0.18883058
23	0x3e366bcc	0.17814559
24	0xbc9027c6	-0.01759709
25	0xbe85cf1a	-0.26134568
26	0x3e88f81c	0.26751792
27	0xbd6a611c	-0.057221517
28	0xbdc57df2	-0.09643163
29	0x3dd4296a	0.103594616
30	0x3e31b172	0.17352846
31	0xbe072652	-0.13198212
32	0x3e315af8	0.17319858
33	0x3e7fed52	0.24992874
34	0xbdfd82f8	-0.12378496
35	0xbdd92e7d	-0.1060457
36	0xbd679c49	-0.05654553
37	0xbd63c42b	-0.055607002
38	0x3b53835f	0.0032274348
39	0x3e6a39f3	0.22873668
40	0x3e00e75d	0.12588258
41	0xbe1a4116	-0.15063891
42	0xbdb2b7a0	-0.0872643
43	0x3e5055d8	0.20345247
44	0x3e1ab1a7	0.15106831
45	0xbd7e89bd	-0.062143076
46	0x3e1f992f	0.15585779
47	0x3e43f747	0.19137298
48	0x3d8e6682	0.069531456
49	0xbca67639	-0.020320045
50	0xbe48668c	-0.19570369
51	0x3cc09cf9	0.02351235
52	0x3b78bc87	0.0037954168
53	0x3cd6e1c2	0.026230697
54	0x3e40b104	0.18817526
55	0x3e7920b6	0.24328884
56	0xbd4536b8	-0.048147887
57	0x3e8b6646	0.27226466
58	0x3e360b86	0.17777833
59	0x3d94ce78	0.07265943
60	0x3ea29b2e	0.31759018
61	0x3e79311b	0.24335138
62	0x3e524a2c	0.20536107
63	0x3c0bedf5	0.00854062
64	0xbe885389	-0.26626232
65	0x3ea8cd6c	0.32969224
66	0x3e3dc0c1	0.18530561
67	0xbde2ea64	-0.11079863
68	0x3d1a02f7	0.037600484
69	0xbe597278	-0.21235073
70	0xbd357179	-0.04429767
71	0x3e005664	0.12532955
72	0x3e31024c	0.17286032
73	0x3d3aa789	0.04556993
74	0xbe05b892	-0.13058689
75	0xbd987f28	-0.07446128
76	0xbe756092	-0.2396262
77	0x3b9a2e3f	0.00470522
78	0xbe530be0	-0.20609999
79	0x3e1f7646	0.15572461
80	0x3dfcb689	0.12339503
81	0x3c9f3f2f	0.019439308
82	0x3e0915c4	0.13387209
83	0xbe2d928a	-0.16950431
84	0x3de20c86	0.11037545
85	0xbe022b45	-0.12711819
86	0x3db8bc8a	0.09020336
87	0xbd8ac0b9	-0.0677504
88	0xbe8f33fd	-0.2796935
89	0xbe7fe563	-0.24989848
90	0x3e0e0480	0.13868904
91	0x3e1f320a	0.15546432
92	0xbe0b5d36	-0.13609776
93	0xbd8a8db8	-0.06765312
94	0xbdbe2051	-0.092835076
95	0xbdd45735	-0.10368196
96	0x3dc41871	0.09574974
97	0xbbee88f1	-0.0072795083
98	0xbd8682d5	-0.06567923
99	0xbe31fe8d	-0.1738226
100	0x3d8e98f8	0.0696277
101	0xbdcde2d9	-0.100530334
102	0xbd1877ef	-0.037223753
103	0xbd798777	-0.060920205
104	0xbe10a074	-0.14123708
105	0xbdc2fcd3	-0.09520879
106	0xbebe8a2c	-0.37214792
107	0x3e555b1d	0.20835538
108	0x3e3da5c8	0.18520272
109	0xbe0a59e6	-0.13510856
110	0xbd879fe0	-0.066222906
111	0x3ee7309d	0.45154276
112	0x3e9fb10f	0.31189772
113	0xbe3a121c	-0.1817097
114	0xbe50aa65	-0.203775
115	0xbcbd150b	-0.023081323
116	0x3f094562	0.53621495
117	0xbdf4a663	-0.11945798
118	0xbe5f8ff3	-0.21832256
119	0x3e886353	0.26638278
120	0x3d36f33f	0.04466557
121	0x3e8cd4a9	0.27505997
122	0xbc2aafcc	-0.01041789
123	0x3d6e7323	0.05821527
124	0xbd3435ab	-0.043996494
125	0xbe992c65	-0.29916683
126	0x3c85510a	0.016273994
127	0x3e5932d3	0.21210794
128	0xbe619b7f	-0.22031973
129	0xbe290b0f	-0.16508125
130	0xbdab9b25	-0.08379201
131	0xbc91d613	-0.017802274
132	0x3e9a87af	0.30181643
133	0xbc9db402	-0.019250873
134	0xbe41c34c	-0.18922156
135	0xbedc9c2e	-0.43087906
136	0xbe347691	-0.17623354
137	0xbe88667b	-0.26640686
138	0x3e5f3f50	0.21801496
139	0xbe0d443e	-0.13795564
140	0xbe188456	-0.14894232
141	0xbe816bb1	-0.25277475
142	0xbe5f8103	-0.21826558
143	0xbdd83347	-0.105566554
144	0xbd95dd15	-0.07317559
145	0xbeb67580	-0.3563652
146	0x3ce2a611	0.027667077
147	0x3d898723	0.067152284
148	0x3ef24836	0.47320718
149	0xbf1a7ada	-0.60343707
150	0xbe0a829c	-0.13526386
151	0x3ccba186	0.024857294
152	0xbdbcc92c	-0.09218058
153	0xbdb28906	-0.087175414
154	0xbe5e295c	-0.21695465
155	0x3cb0bb1e	0.0215736
156	0xbe76d129	-0.24103226
157	0xbe31557d	-0.17317767
158	0x3ce8d61e	0.028422412
159	0x3c057a8b	0.008146892
160	0xbcefdd78	-0.02928041
161	0x3ece1c1d	0.40255824
162	0xbe6e5a76	-0.23276696
163	0x3c6d42ae	0.01448123
164	0xbe080bf5	-0.13285811
165	0x3dd39696	0.10331456
166	0xbe561241	-0.20905401
167	0xbf49e956	-0.7887167
168	0x3e604d66	0.21904525
169	0x3d2ff8d3	0.042961907
170	0xbedc0df2	-0.4297939
171	0x3ece3c34	0.40280306
172	0xbdc23c3e	-0.094841465
173	0xbf0a20c5	-0.5395625
174	0x3ebad0d0	0.36487436
175	0x3ee7ecb4	0.45297778
176	0x3ee7de75	0.4528691
177	0x3c94054d	0.018068934
178	0xbefb8c36	-0.4913041
179	0xbe9e3ffb	-0.30908188
180	0x3e84da28	0.2594769
181	0x3cebf0cd	0.028801346
182	0xbdfe4fbb	-0.12417551
183	0x3e0dd306	0.1385003
184	0x3e070c31	0.13188244
185	0x3e4066ea	0.18789259
186	0x3e8bbcbe	0.27292436
187	0xbb2ac2eb	-0.0026056122
188	0x3e74fd8f	0.2392485
189	0x3e9242af	0.285665
190	0x3d9f97de	0.07792638
191	0xbecf3d59	-0.40476492
192	0x3ceb8354	0.028749146
193	0x3e99f73e	0.30071443
194	0xbeabdf34	-0.33568728
195	0x3d69536e	0.05696433
196	0x3ee89ab3	0.45430526
197	0x3e956136	0.2917573
198	0xbb9116bd	-0.0044277594
199	0x3e21ee5e	0.15813586
200	0x3ecffdec	0.40623415
201	0xbe1767df	-0.14785717
202	0xbe635536	-0.22200474
203	0x3e50a901	0.2037697
204	0x3d8c3653	0.06846299
205	0xbdb013ba	-0.085975125
206	0xbe5d5bc9	-0.21617045
207	0xbe2848b6	-0.16433987
208	0x3e9de7ca	0.30840904
209	0xbdad0b25	-0.08449391
210	0x3d785b61	0.06063402
211	0x3dc4a736	0.096022055
212	0xbd0c89eb	-0.034311216
213	0x3dd99c9b	0.10625573
214	0x3ea4e3f1	0.32205155
215	0x3d03e742	0.032202967
216	0xbcab90d5	-0.020943085
217	0xbe1df9f5	-0.15427382
218	0xbdc96e41	-0.098354824
219	0x3d89f0a6	0.06735353
220	0xbec534a4	-0.38516724
221	0x3da10b4a	0.07863481
222	0xbe36830b	-0.17823426
223	0x3d881be3	0.06645944
224	0x3f14d647	0.5813946
225	0x3e0a7ebd	0.1352491
226	0xbe3e463c	-0.1858148
227	0x3f1c17db	0.609739
228	0x3e329700	0.17440414
229	0xbeb5c248	-0.35499787
230	0xbe9a6239	-0.30153063
231	0x3c6165c4	0.013757173
232	0x3e8a1fb3	0.2697731
233	0xbe0e38a2	-0.13888791
234	0xbf2566f7	-0.64610237
235	0xbd1c3585	-0.038136978
236	0xbe18bc00	-0.14915466
237	0x3d5c9f6c	0.053862974
238	0xbde4b442	-0.11167194
239	0x3ec75dda	0.3893879
240	0x3ebac20f	0.3647618
241	0xbe23dbdf	-0.16001843
242	0x3da5dfa6	0.08099298
243	0xbc883cb7	-0.016630514
244	0xbe3c81f0	-0.18408942
245	0x3d4bb529	0.049733315
246	0x3eb7eda2	0.35923487
247	0xbc87c0fa	-0.01657151
248	0xbe49537e	-0.19660756
249	0x3dbf9fcb	0.0935665
250	0xbe41d3fe	-0.18928525
251	0x3e8591cf	0.26087806
252	0x3c711c85	0.014716272
253	0x3d3ff1eb	0.04686157
254	0x3c2ad15c	0.010425892
255	0x3f03a230	0.51419353

conv1s.0.modlist.1.weight f4 [96]
0	0x3f720e6f	0.94553274
1	0x3f769f4a	0.96336806
2	0x3f897340	1.0738297
3	0x3f7c67ca	0.9859587
4	0x3f570c69	0.8400331
5	0x3f6c8bbd	0.92400724
6	0x3f907bc6	1.1287773
7	0x3f715b4b	0.94279927
8	0x3f74abfd	0.95574933
9	0x3f80b85e	1.0056264
10	0x3f796060	0.9741268
11	0x3f8e3c24	1.1112103
12	0x3f570169	0.83986527
13	0x3f78be02	0.9716493
14	0x3f7549f5	0.95815974
15	0x3f59cd44	0.85078835
16	0x3f6e474a	0.9307753
17	0x3f7b78eb	0.9823138
18	0x3f72d7ad	0.94860345
19	0x3f5fbf42	0.8740121
20	0x3f52eed9	0.823957
21	0x3f8c8f9a	1.0981324
22	0x3fc76764	1.5578427
23	0x3f87a3d0	1.0596867
24	0x3f67abfb	0.90496796
25	0x3f90160d	1.1256729
26	0x3f5d3174	0.86403584
27	0x3f66b844	0.9012492
28	0x3f707c9f	0.93940157
29	0x3f748022	0.95508015
30	0x3f8dcc42	1.107796
31	0x3f90abb5	1.1302401
32	0x3f502405	0.8130496
33	0x3f61f655	0.882665
34	0x3f71b00a	0.9440924
35	0x3f7de972	0.99184334
36	0x3f836282	1.0264437
37	0x3f6c1c85	0.9223102
38	0x3f8baae9	1.0911533
39	0x3f89f60b	1.0778211
40	0x3f876cad	1.058004
41	0x3f8abb04	1.0838323
42	0x3fa7d3e5	1.311154
43	0x3fb5160a	1.4147351
44	0x3f83e206	1.0303352
45	0x3f8c1f3c	1.0947032
46	0x3f60c653	0.8780262
47	0x3f57f525	0.84358436
48	0x3fa017c2	1.250725
49	0x3fa11424	1.2584271
50	0x3f8400cd	1.0312744
51	0x3f895bf9	1.0731193
52	0x3f872d97	1.0560788
53	0x3f8a976e	1.0827463
54	0x3f9c7d9a	1.222583
55	0x3f8046ab	1.0021566
56	0x3f84609d	1.0341984
57	0x3f6d6755	0.927358
58	0x3f795032	0.97387993
59	0x3f83f23c	1.0308299
60	0x3f70ff45	0.9413951
61	0x3fed6731	1.8547117
62	0x3f8faefe	1.1225278
63	0x3f6562d4	0.89603925
64	0x3fcb8e93	1.5902885
65	0x3f7f26a6	0.9966835
66	0x3f77e687	0.9683613
67	0x3f634577	0.8877787
68	0x3f62d32e	0.88603485
69	0x3f63ac17	0.88934463
70	0x3fae80b7	1.3633031
71	0x3f6e0086	0.9296955
72	0x3f773db8	0.9657855
73	0x3f6988e1	0.91224486
74	0x3f8ca361	1.0987359
75	0x3f86b2b3	1.0523285
76	0x3f700a0c	0.9376533
77	0x3f79d726	0.97593915
78	0x3f79e34f	0.9761247
79	0x3f6cd2e1	0.92509276
80	0x3f86569e	1.0495183
81	0x3f7d934c	0.9905288
82	0x3fc47458	1.5348005
83	0x3f7ed3aa	0.99541724
84	0x3f766ef9	0.9626308
85	0x3f7e1bec	0.99261355
86	0x3f8f5a5b	1.1199449
87	0x3f7ce66c	0.98789096
88	0x3f6e71b7	0.93142265
89	0x3f83d030	1.0297909
90	0x3f607e51	0.87692744
91	0x3f8b3b0d	1.0877396
92	0x3f909da1	1.1298105
93	0x3fa1da8c	1.264482
94	0x3f73d784	0.95250726
95	0x3f75a5a7	0.9595589

conv1s.0.modlist.1.bias f4 [96]
0	0xbe8afdd6	-0.27146786
1	0x3e7e2931	0.24820401
2	0xbc0866b4	-0.008325268
3	0x3e90bf6b	0.2827104
4	0x3de223e9	0.110420056
5	0x3e100aa3	0.14066558
6	0x3e4799d0	0.19492269
7	0xbd3937fa	-0.0452194
8	0x3d026386	0.031833194
9	0x3f5eab3f	0.8698005
10	0xbdfb6937	-0.122759275
11	0x3d392fe1	0.045211677
12	0x3e2e6190	0.17029405
13	0x3f12ac00	0.572937
14	0xbd858068	-0.06518632
15	0xbd544930	-0.05182761
16	0xbdba9cbe	-0.091119274
17	0xbd850297	-0.064946346
18	0x3d36bef4	0.0446157
19	0xbd2de0ce	-0.04245072
20	0x3df30e61	0.11867977
21	0x3d957657	0.07297962
22	0xbecdb983	-0.40180597
23	0xbd56cc7b	-0.0524411
24	0x3d2e6cdf	0.042584296
25	0x3f95ba16	1.1697414
26	0x3d84af95	0.06478802
27	0xbd14f3ab	-0.036365192
28	0x3d6da94e	0.05802279
29	0xbd3a9113	-0.04554851
30	0xbbedc88f	-0.0072565745
31	0x3e96dd0a	0.29465514
32	0xbe684788	-0.22683537
33	0xbebf3914	-0.37348235
34	0xbd857b60	-0.065176725
35	0xbcb25cd8	-0.021772787
36	0xbe7f5332	-0.2493408
37	0x3d25a692	0.040442057
38	0x3ec49296	0.38393086
39	0x3da196e9	0.07890112
40	0xbe0fcd01	-0.14043047
41	0xbdc2ec11	-0.09517682
42	0xbead5e9e	-0.3386125
43	0xbec0c592	-0.37650734
44	0xbd84690f	-0.06465351
45	0xbdd19806	-0.10234074
46	0x3f0abcd9	0.5419441
47	0x3dd9e055	0.10638491
48	0xbd88a1ac	-0.066714615
49	0x3fabcb9f	1.3421515
50	0x3f305d6b	0.68892545
51	0xbcb8e955	-0.022572199
52	0x394b56ec	0.0001939197
53	0x3d74411d	0.05963241
54	0xbe846606	-0.25859088
55	0x3e030931	0.12796475
56	0xbdf9ff85	-0.122069396
57	0xbe71e66a	-0.23623052
58	0xbd41dddc	-0.047330722
59	0x3d95a878	0.073075235
60	0x3ed0857f	0.4072685
61	0xbf0959fb	-0.53652924
62	0xbe1701d9	-0.14746799
63	0x3ea9ba66	0.33150023
64	0xbf0858b1	-0.5326033
65	0xbdd7f606	-0.10544972
66	0xbbf35f97	-0.0074271667
67	0x3ebb9fc4	0.3664533
68	0xbb9c3a3b	-0.004767684
69	0x3d78cae0	0.06074035
70	0x3ece20e5	0.40259472
71	0xbe295398	-0.16535795
72	0xbe28aadf	-0.16471432
73	0xbdead5c2	-0.11466552
74	0x3dec362b	0.11533769
75	0xbe46d2a3	-0.19416289
76	0x3a5e9915	0.0008491439
77	0xbbc68fea	-0.0060596364
78	0xbe41791b	-0.18893854
79	0x3f11f93c	0.57020926
80	0x3f01cb36	0.507007
81	0xbd7c799a	-0.061639406
82	0x3faf999e	1.3718755
83	0x3e987a1b	0.2978066
84	0x3e88d7ab	0.26727042
85	0x3f5d5d13	0.86470145
86	0xbd9fb7e2	-0.07798745
87	0x3d2c2c8f	0.042034682
88	0x3d81a685	0.06330589
89	0xbcfce4b8	-0.03087078
90	0x3e2a6f47	0.16644011
91	0xbe7af432	-0.24507216
92	0x3f3b80cf	0.7324342
93	0xbe9c2b31	-0.30501702
94	0xbcf303ac	-0.029664837
95	0x3eb88d31	0.3604522

conv1s.0.modlist.1.mean_scale f4 [96]
0	0x3f89a727	1.0754136
1	0x3f8ce37d	1.1006924
2	0x3f948207	1.1602181
3	0x3f897a2c	1.0740409
4	0x3f914b33	1.1351074
5	0x3f5fb339	0.8738285
6	0x3f927638	1.1442327
7	0x3f927624	1.1442304
8	0x3f93bd8f	1.1542224
9	0x3e554b81	0.20829584
10	0x3f836c31	1.0267392
11	0x3f6a1cb7	0.91450065
12	0x3f9c3d23	1.2206157
13	0x3f086659	0.5328117
14	0x3f783ba1	0.96965986
15	0x3f8c5e96	1.0966365
16	0x3f6de3ab	0.9292552
17	0x3f81e933	1.0149292
18	0x3f96cd32	1.1781371
19	0x3f90588a	1.127702
20	0x3f87728d	1.0581833
21	0x3f82c398	1.021594
22	0x3f8d8305	1.1055609
23	0x3f777205	0.96658355
24	0x3f8d117c	1.1020961
25	0x3cc991a0	0.024605572
26	0x3f1f7097	0.62281173
27	0x3f65b10a	0.89723265
28	0x3f92aab7	1.1458348
29	0x3f76eeea	0.96458304
30	0x3f820dac	1.0160422
31	0x3fafe345	1.3741232
32	0x3f72a5ad	0.9478405
33	0x3f7cc622	0.98739827
34	0x3f98977b	1.1921228
35	0x3f7fc203	0.99905413
36	0x3f8ccea2	1.1000559
37	0x3f8ebbea	1.1151097
38	0x3f9457c8	1.1589289
39	0x3f8bd866	1.0925415
40	0x3f7c175a	0.9847313
41	0x3f84825a	1.035228
42	0x3f8f13d6	1.1177928
43	0x3f9342c9	1.1504756
44	0x3f915e10	1.1356831
45	0x3f942c8f	1.1576098
46	0x3ef342bb	0.4751185
47	0x3fa8af03	1.3178409
48	0x3f82689e	1.0188177
49	0xbca712e5	-0.020394752
50	0x3ee51b97	0.44747612
51	0x3f718652	0.9434558
52	0x3f6d1744	0.92613626
53	0x3f85c5c9	1.0450984
54	0x3f8ace44	1.0844197
55	0x3f83413a	1.025428
56	0x3f8b9d07	1.0907296
57	0x3f8bc7e1	1.0920373
58	0x3f6b3ee0	0.91892815
59	0x3f84c189	1.0371562
60	0x3f9a9b4b	1.2078642
61	0x3f923381	1.1421968
62	0x3f84db46	1.0379417
63	0x3ef132d2	0.47109085
64	0x3f96b4bf	1.1773909
65	0x3f843932	1.0329955
66	0x3f80b3b6	1.0054843
67	0x3f4b8ba3	0.79509944
68	0x3f80c963	1.0061458
69	0x3f980357	1.1876019
70	0x3fa4c6c0	1.2873154
71	0x3f7fe676	0.9996103
72	0x3f89f14b	1.0776762
73	0x3f8ccabe	1.0999372
74	0x3f90247d	1.1261135
75	0x3f8bf43b	1.0933908
76	0x3f871f58	1.055644
77	0x3f922729	1.1418201
78	0x3f889a84	1.0672154
79	0x3f8926d3	1.0714973
80	0x3f975a72	1.1824477
81	0x3f80bf5a	1.0058396
82	0x400556bc	2.0834188
83	0x3f7948d5	0.9737676
84	0x3f6856ba	0.90757334
85	0x3e283d3f	0.16429614
86	0x3f84b97e	1.0369108
87	0x3f776ffe	0.9665526
88	0x3f89738d	1.0738388
89	0x3f7a7e98	0.97849417
90	0x3f5c4b34	0.8605225
91	0x3f872200	1.0557251
92	0x3fea35e1	1.8297693
93	0x3f8a48e8	1.0803499
94	0x3f76fffe	0.96484363
95	0x3f91e264	1.1397214

conv2s.0.modlist.0.bias f4 [96]
0	0x3ed8e7b2	0.4236427
1	0x3e9986e9	0.2998574
2	0x3f0640a4	0.52442384
3	0xbe2cdadf	-0.16880368
4	0x3ee9a2ed	0.45632115
5	0x3ea4cd64	0.3218795
6	0x3e8d42d5	0.2759005
7	0x3e8353eb	0.25649962
8	0xbe3eb2e3	-0.18622927
9	0x3d4a946e	0.04945796
10	0x3e7e6e8e	0.24846861
11	0x3f7f8240	0.9980812
12	0x3d11fb05	0.03563978
13	0xbee0d62f	-0.4391341
14	0x3ec91bb2	0.39278942
15	0x3ea10338	0.31447768
16	0x3e7fe591	0.24989916
17	0x3e011281	0.12604715
18	0xbf1b86b3	-0.6075241
19	0x3e362634	0.17788011
20	0xbe025a48	-0.12729752
21	0xbdb2ed5e	-0.087366804
22	0x3e98622b	0.29762396
23	0xbe05b382	-0.13056758
24	0xbe49b1ad	-0.19696684
25	0x3e44125c	0.19147629
26	0xbe2c27ea	-0.16812101
27	0xbe5451ae	-0.20734283
28	0x3e40ef6f	0.18841337
29	0x3f650344	0.8945811
30	0xbddec28f	-0.10876953
31	0x3e86111f	0.26184937
32	0x3e86d2ca	0.26332694
33	0x3ed0f576	0.40812272
34	0xbf05bdfa	-0.52243006
35	0xbe9f8c8e	-0.31161922
36	0x3e6ba5d1	0.23012473
37	0x3dc2ab14	0.09505287
38	0x3de5da1d	0.112232424
39	0x3efcbaa9	0.4936116
40	0xbe7a8752	-0.24465683
41	0x3f0a855c	0.5410974
42	0x3d834cb6	0.06411116
43	0xbdc030fd	-0.09384344
44	0x3f089f50	0.5336809
45	0x3f120d6c	0.5705173
46	0xbe0476db	-0.12935965
47	0xbd76ae20	-0.060224652
48	0xbe42a01e	-0.19006392
49	0xbea1b233	-0.31581268
50	0x3d11897f	0.035531517
51	0x3fa9ab61	1.3255426
52	0x3e46d6aa	0.19417825
53	0x3e015a38	0.12632072
54	0x3e312c78	0.1730212
55	0x3f03ff12	0.5156108
56	0x3eca56d9	0.39519385
57	0x3ec815ee	0.3907923
58	0xbf7b834b	-0.9824721
59	0x3f40114a	0.7502638
60	0x3f12926c	0.5725467
61	0xbc11f099	-0.008907461
62	0xbe8a9e94	-0.2707411
63	0x3ef54f53	0.47912082
64	0x3e37f769	0.17965473
65	0xbd9ceb9b	-0.07662126
66	0x3e5032e9	0.2033192
67	0x3e8582c2	0.26076323
68	0x3db6efa8	0.089324296
69	0xbeb7f20a	-0.3592685
70	0x3e92bde8	0.28660512
71	0x3f4b9942	0.7953073
72	0x3e877866	0.26459044
73	0xbd136c28	-0.035991818
74	0x3df3d22e	0.11905323
75	0x3f06808c	0.52539897
76	0xbd856f05	-0.06515316
77	0x3cc85122	0.02445275
78	0x3efc3bf6	0.49264497
79	0x3df4a41a	0.119453624
80	0x3dca9a40	0.09892702
81	0x3f020860	0.5079403
82	0x3e05ac0b	0.1305391
83	0x3e734189	0.23755468
84	0xbe97c249	-0.29640415
85	0xbd81ef7c	-0.06344506
86	0x3ea39761	0.3195143
87	0x3e44ab8a	0.19206062
88	0x3e6c2693	0.2306159
89	0x3e8f41e5	0.2797996
90	0xbd79f147	-0.061021116
91	0xbe8bdf82	-0.2731896
92	0xbdd7fa3a	-0.10545774
93	0x3ed47c84	0.41501248
94	0x3e74801a	0.23876992
95	0xbdd52d59	-0.1040904

conv2s.0.modlist.0.lin.weight f4 [96, 96]
0	0xbd5b2491	-0.05350167
1	0xbe5b3fcf	-0.2141106
2	0xbe433fa5	-0.19067247
3	0xbddf6e05	-0.109096564
4	0xbe331be6	-0.17491111
5	0xbe9b0b91	-0.30282262
6	0xbf00b6eb	-0.5027911
7	0xbe50211d	-0.20325132
8	0x3e3aba0d	0.18235035
9	0xbdb2f511	-0.08738149
10	0xbd9232a4	-0.07138565
11	0xbe9a600d	-0.30151406
12	0xbdbbae46	-0.091640994
13	0xbd0ec2e4	-0.03485383
14	0xbddd6b7d	-0.108115174
15	0xbeab80eb	-0.33496794
16	0x3e2694a7	0.16267644
17	0x3c9400c0	0.018066764
18	0xbdb46857	-0.08808964
19	0x3c05aa6e	0.008158309
20	0xbdf22d10	-0.11825001
21	0xbe4fd8c7	-0.20297538
22	0x3ea876cd	0.32903138
23	0x3d687c97	0.056759443
24	0xbe9c20c7	-0.30493757
25	0xbe5912ee	-0.21198627
26	0x3da37fd4	0.07983366
27	0xbe0ea0b7	-0.13928495
28	0x3e745b74	0.23863012
29	0x3d633c03	0.055477154
30	0xbeb1fe19	-0.34764174
31	0x3d700c14	0.05860527
32	0xbda75ec2	-0.081723705
33	0x3e60797b	0.21921341
34	0x3e5bb8a6	0.21457157
35	0xbe85d711	-0.26140645
36	0xbe47aca9	-0.19499458
37	0xbdffd6ed	-0.12492166
38	0x3e6033da	0.2189478
39	0x3c9f2fa0	0.019431889
40	0xbd6856ef	-0.05672353
41	0x3e84eb34	0.25960696
42	0x3d46d880	0.048546314
43	0x3d84db55	0.06487147
44	0x3db08d2c	0.086206764
45	0xbe9b7c8d	-0.30368462
46	0xbe55b08b	-0.20868127
47	0xbdaea4ed	-0.08527551
48	0xbac7f0a6	-0.0015254214
49	0xbee9f03c	-0.45691097
50	0xbe6b5637	-0.22982107
51	0x3c8c3c78	0.017118677
52	0x3daae074	0.08343592
53	0x3bb24347	0.005440149
54	0x3e758da1	0.23979808
55	0xbdd7d567	-0.1053875
56	0xbea5c3c7	-0.3237593
57	0xbe9932eb	-0.2992166
58	0xbd8e9a86	-0.06963067
59	0xbe55dd52	-0.20885208
60	0x3d8c43db	0.0684888
61	0x3dd8df05	0.105894126
62	0xbe49443b	-0.19654934
63	0xbebe46be	-0.37163347
64	0x3e171c8f	0.14756988
65	0x3e9fd1fd	0.31214896
66	0xbdc5e8e2	-0.096635595
67	0xbe9614eb	-0.29312834
68	0xbdf4a2a4	-0.11945084
69	0xbe4f9b9f	-0.20274208
70	0xbee0259f	-0.43778703
71	0x3dfba28d	0.122868635
72	0xbe57fb58	-0.21091974
73	0xbe01760f	-0.12642692
74	0xbe6df8e4	-0.23239475
75	0x3e864750	0.26226282
76	0x3e853b3f	0.26021764
77	0x3d976ace	0.07393418
78	0x3dfa6ec4	0.12228158
79	0xbe976885	-0.2957193
80	0x3e6ea44f	0.23304866
81	0x3d103a0b	0.035211604
82	0x3e296141	0.16541006
83	0xbe679518	-0.22615469
84	0xbeac8da7	-0.33701822
85	0x3d2b2783	0.04178573
86	0x3e9600d8	0.2929752
87	0xbeee8e55	-0.46592966
88	0xbd476f3d	-0.04869007
89	0x3e868b9f	0.26278397
90	0x3d0a9f52	0.033843346
91	0x3e617022	0.22015432
92	0xbd0f4509	-0.034977946
93	0x3e04e947	0.12979613
94	0xbd9eaa98	-0.07747382
95	0xbebac097	-0.3647506
96	0xbd86babf	-0.06578588
97	0xbe4e9aae	-0.20176193
98	0xbdfecef5	-0.12441818
99	0x3dbe458d	0.092906095
100	0xbe0ccdbd	-0.13750358
101	0x3ee1d244	0.44105732
102	0xbf155610	-0.58334446
103	0xbe316928	-0.1732527
104	0x3e8dd76c	0.27703416
105	0x3e89b486	0.2689554
106	0x3e046131	0.129277
107	0xbec578ec	-0.3856882
108	0x3ed17950	0.40912867
109	0x3e6d9a6b	0.23203437
110	0xbe1e938b	-0.1548597
111	0x3db0ad75	0.08626834
112	0xbe3f25d4	-0.18666774
113	0xbcf0e9f6	-0.029408436
114	0xbe1499df	-0.14511822
115	0x3d8492fc	0.064733475
116	0x3c0ea4b9	0.008706265
117	0xbe763e95	-0.2404731
118	0x3d01a7cb	0.03165416
119	0x3ea1894a	0.31550056
120	0x3dca954a	0.09891756
121	0xbe551f40	-0.20812702
122	0x3de7f76a	0.11326487
123	0xbdba376e	-0.090926036
124	0x3ed6e30a	0.41970092
125	0xbe11e34c	-0.14246863
126	0x3ea08817	0.31353828
127	0x3da51094	0.08059803
128	0xbefabc0a	-0.48971587
129	0xbd82826b	-0.063725315
130	0xbdbb8cae	-0.09157692
131	0xbd673119	-0.056443308
132	0xbdf24f1e	-0.11831497
133	0xbd3af339	-0.04564211
134	0xbe266d46	-0.16252622
135	0xbd3dfaee	-0.046381883
136	0xbed7e8b9	-0.4216974
137	0x3e61210c	0.21985263
138	0xbe238670	-0.15969253
139	0x3d156469	0.03647271
140	0x3e26f1a4	0.16303116
141	0xbe32d7ce	-0.17465135
142	0xbd857ed1	-0.06518329
143	0x3da01248	0.07815987
144	0xbdd6feea	-0.1049784
145	0x3cdb0c4a	0.026739258
146	0xbe30f11a	-0.17279473
147	0xbe31ab3e	-0.1735048
148	0x3e8ab3c7	0.27090284
149	0x3f03b73b	0.5145146
150	0x3d8d5c31	0.0690235
151	0xbe35ddb1	-0.1776035
152	0xbee72aaf	-0.45149752
153	0xbd8e6de4	-0.06954554
154	0x3ce9617e	0.02848887
155	0xbda34842	-0.079727665
156	0xbaa23172	-0.0012374355
157	0x3e9c98c6	0.30585307
158	0x3dbafedf	0.09130644
159	0xbd9ce6f4	-0.07661238
160	0x3daff47f	0.08591556
161	0xbcf4f680	-0.029902697
162	0x3d9a59e8	0.075366795
163	0x3dcae6d2	0.09907307
164	0x3d4a4439	0.04938147
165	0xbea18401	-0.31546023
166	0xbe9aa542	-0.30204207
167	0xbdfd678b	-0.12373265
168	0xbe1337f5	-0.14376815
169	0xbe499596	-0.19685969
170	0xbdbf343f	-0.09336137
171	0xbec4b2a2	-0.38417536
172	0xbe45c1e1	-0.1931224
173	0xbd1d827e	-0.038454525
174	0xbe98107a	-0.2970007
175	0xbd47c4e5	-0.048771758
176	0x3e8f2ee6	0.27965468
177	0xbebadcaa	-0.36496478
178	0xbe2a9e4b	-0.16661946
179	0xbdd0da75	-0.10197917
180	0xbeef021a	-0.4668129
181	0x3ebd6f8a	0.3699916
182	0xbd530af1	-0.051524106
183	0xbe02519e	-0.12726447
184	0x3c8d7a37	0.01727019
185	0xbe264e29	-0.16240753
186	0xbe872f32	-0.26403195
187	0xbe89b690	-0.26897097
188	0x3e1c260f	0.15248893
189	0x3e9874d1	0.29776624
190	0xbdbba4f6	-0.09162323
191	0xbe414d59	-0.18877162
192	0xbd5194d7	-0.051167335
193	0x3db02089	0.085999556
194	0xbe3154a4	-0.17317444
195	0x3e107a41	0.14109136
196	0x3e029d0a	0.12755218
197	0xbde58f80	-0.11209011
198	0x3c691f21	0.014228613
199	0x3c03321b	0.008007552
200	0xbdd1f0ea	-0.10251029
201	0xbd72dc6d	-0.059292246
202	0x3e775d74	0.24156743
203	0xbc2b88b0	-0.010469601
204	0xbda1c2ed	-0.07898507
205	0x3e8ddef9	0.27709177
206	0x3e84065f	0.2578611
207	0x3e61998b	0.22031228
208	0x3d95fb5a	0.07323332
209	0x3d7eb433	0.06218357
210	0xbe3f2c9b	-0.1866936
211	0x3da5619c	0.08075258
212	0x3e051a5f	0.12998341
213	0xbdd97fdf	-0.106200926
214	0x3dad95ea	0.084758595
215	0x3d9752aa	0.07388814
216	0x3e00e1f6	0.12586197
217	0x3e6d575a	0.23177853
218	0xbd42f4a7	-0.0475966
219	0x3d90e4fe	0.07074927
220	0x3d464eb3	0.048414897
221	0xbd1ef601	-0.038808826
222	0x3d12e3ba	0.03586171
223	0x3df174de	0.11789869
224	0xbd2794af	-0.04091328
225	0xbe00392a	-0.12521806
226	0x3df664a8	0.120309174
227	0x3d8e9f6d	0.06964002
228	0x3daaf6ad	0.08347831
229	0xbd90d62a	-0.070720986
230	0x3d6141cf	0.0549944
231	0xbd1d479b	-0.038398366
232	0x3e1ebded	0.15502138
233	0x3e10b92b	0.14133136
234	0x3e8c2db8	0.2737863
235	0x3eb14907	0.34626028
236	0xbb3e7948	-0.0029063988
237	0xbd84d1e9	-0.0648535
238	0x3ce7acfe	0.028280731
239	0xbd9ea2f1	-0.07745922
240	0x3c9bac31	0.019003006
241	0x3dc31fa7	0.095275216
242	0x3ed8b98f	0.4232907
243	0x3cedc64a	0.029025216
244	0x3c6824fa	0.014168972
245	0x3d842f55	0.0645434
246	0x3e67e8db	0.22647421
247	0x3da8185f	0.082077734
248	0x3de54364	0.11194494
249	0xbc962364	-0.018327422
250	0x3db05ce4	0.086114675
251	0xbd70113b	-0.058610182
252	0x3dce8cf2	0.10085477
253	0x3f0a43e4	0.5400984
254	0x3ea5aa36	0.32356423
255	0x3dc76aff	0.09737205

conv2s.0.modlist.1.weight f4 [96]
0	0x3f8c8cd8	1.0980482
1	0x3f84b445	1.0367514
2	0x3f76573c	0.9622686
3	0x3f5ce287	0.86283153
4	0x3f31a33d	0.69389707
5	0x3fb253cd	1.3931824
6	0x3f9683c0	1.1758957
7	0x3f80b59e	1.0055425
8	0x3f681ee5	0.9067214
9	0x3f5315e9	0.8245531
10	0x3f5279d4	0.82217145
11	0x3fbf7beb	1.4959692
12	0x3f8dae07	1.1068734
13	0x3f99ad05	1.2005926
14	0x3f876687	1.0578164
15	0x3f7807c8	0.96886873
16	0x3f57e16d	0.8432835
17	0x3f88c45d	1.0684925
18	0x3f800b42	1.0003436
19	0x3f641ccc	0.8910644
20	0x3f7ab7ba	0.97936594
21	0x3f89dd2c	1.0770621
22	0x3f70f83e	0.9412879
23	0x3f2cfbfd	0.67572004
24	0x3f8b3db6	1.0878208
25	0x3f97adb3	1.1849884
26	0x3f92e0d2	1.147486
27	0x3f805710	1.0026569
28	0x3f8cafdf	1.0991172
29	0x3f5056b2	0.81382287
30	0x3f6aba02	0.91690075
31	0x3f7c5d0b	0.9857947
32	0x3f6e05c1	0.9297753
33	0x3f9380fa	1.1523736
34	0x3f6040df	0.87598985
35	0x3f570400	0.8399048
36	0x3f665200	0.8996887
37	0x3f7034e1	0.93830687
38	0x3f728afc	0.94743323
39	0x3f760102	0.9609529
40	0x3f7514c9	0.9573484
41	0x3fcc672e	1.5968988
42	0x3fad221f	1.3526038
43	0x3f80f46c	1.0074592
44	0x3f9d7d24	1.2303815
45	0x3f89862a	1.0744069
46	0x3f7d03d7	0.98833984
47	0x3f95ede1	1.171322
48	0x3f8d2856	1.1027935
49	0x3f7808cd	0.9688843
50	0x3f4f4e9e	0.80979335
51	0x3fa664aa	1.299947
52	0x3f35d107	0.71022075
53	0x3f45b8c5	0.7723506
54	0x3fc7a90a	1.5598462
55	0x3f84aae8	1.0364656
56	0x3f9aad94	1.2084222
57	0x3f7f6f5b	0.9977929
58	0x3f84c924	1.0373883
59	0x3f6c2eef	0.92259115
60	0x3f911084	1.1333165
61	0x3f380ca4	0.7189429
62	0x3f3cf55e	0.738119
63	0x3f37e89c	0.7183931
64	0x3f80abd8	1.0052443
65	0x3f6b377a	0.91881526
66	0x3fa4fc13	1.2889427
67	0x3f59d26c	0.85086703
68	0x3fa1accf	1.2630862
69	0x3f5fe273	0.8745491
70	0x3f40ed5a	0.7536217
71	0x3fb55716	1.4167202
72	0x3f961ceb	1.1727575
73	0x3f602063	0.8754942
74	0x3f7889d5	0.97085315
75	0x3fbbca88	1.4671183
76	0x3f9822f7	1.188567
77	0x3f4d9987	0.8031239
78	0x3f844d4e	1.0336092
79	0x3f30dfc3	0.69091433
80	0x3f802bca	1.0013363
81	0x3faf9752	1.3718054
82	0x3f76cc93	0.96405905
83	0x3f5db090	0.8659754
84	0x3f97b7ae	1.185293
85	0x3f424bbd	0.7589682
86	0x3f69d3d9	0.9133888
87	0x3f40aad6	0.75260675
88	0x3f91f929	1.1404163
89	0x3f808235	1.0039736
90	0x3f77aa08	0.9674382
91	0x3f7cdac8	0.98771334
92	0x3f5decf0	0.8668966
93	0x3f8bb457	1.091441
94	0x3f8f5b37	1.1199712
95	0x3f2eae0a	0.6823431

conv2s.0.modlist.1.bias f4 [96]
0	0xbe855854	-0.26043952
1	0xbde37bee	-0.11107622
2	0xbeae383d	-0.3402728
3	0xbd91c527	-0.07117682
4	0x3e37f39a	0.1796402
5	0x3c836239	0.016038047
6	0xbe10fa07	-0.14157878
7	0x3e40d349	0.18830599
8	0xbe42588c	-0.1897909
9	0x3cce3d77	0.025175793
10	0xbe8a1827	-0.26971552
11	0xbd337c38	-0.043819636
12	0x3e7037c0	0.23458767
13	0xbd744212	-0.059633322
14	0x3d8c12c6	0.06839518
15	0xbeeb8ec0	-0.46007347
16	0xbeceb2fa	-0.40370923
17	0xbbaa48fa	-0.0051966878
18	0x3e51a5cd	0.20473404
19	0xbe128902	-0.14310077
20	0x3df9eeb6	0.122037336
21	0x3e2d2975	0.16910346
22	0xbc6da4f0	-0.014504656
23	0x3e3183d4	0.17335445
24	0xbe3251e3	-0.1741405
25	0xbe26fa53	-0.16306429
26	0xbe3e9171	-0.18610169
27	0x3d90cec5	0.07070688
28	0xbdddbf11	-0.10827459
29	0xbd326bed	-0.043559957
30	0xbdbbcb0f	-0.0916959
31	0x3e47b032	0.19500807
32	0xbeb3edc3	-0.35142335
33	0xbcd6a496	-0.026201528
34	0x3d3175af	0.043325122
35	0xbe2c1674	-0.1680544
36	0xbe1365c5	-0.14394291
37	0x3d14a00b	0.03628544
38	0xbe859301	-0.26088718
39	0xbe0dc0ca	-0.13843074
40	0x3e89ea63	0.26936635
41	0x3d464325	0.048403878
42	0x3d41e379	0.047336075
43	0x3dcea69d	0.10090373
44	0x3e29f991	0.16599108
45	0xbda087e3	-0.07838418
46	0xbd3fd142	-0.046830423
47	0xbbb64225	-0.0055620843
48	0x3e5809c7	0.2109748
49	0x3e7fdccc	0.24986571
50	0xbe26abbb	-0.16276447
51	0xbec88198	-0.39161372
52	0xbe41fd3a	-0.18944255
53	0xbd23aec7	-0.039961603
54	0xbce19200	-0.027535439
55	0xbdbc302b	-0.09188875
56	0xbe4dba46	-0.20090589
57	0xbe21dbff	-0.15806578
58	0x3f05194e	0.51991737
59	0x3dfb1201	0.12259293
60	0xbebeda33	-0.37275848
61	0x3e631cd8	0.22178972
62	0xbd5c5a8f	-0.0537973
63	0xbeb4028d	-0.35158196
64	0xbd6485fc	-0.05579184
65	0x3d0c3084	0.034225956
66	0xbe63c585	-0.22243316
67	0xbeab7a10	-0.33491564
68	0xbd7fef71	-0.06248421
69	0xbdbe842f	-0.09302556
70	0xbe1098bf	-0.14120768
71	0xbcf2b1cc	-0.029625796
72	0xbded0fcf	-0.11575281
73	0x3c3d1c3c	0.011542376
74	0x3df1f2e9	0.118139096
75	0xbdb75c89	-0.089531966
76	0xbe5fb014	-0.21844512
77	0x3e2974fb	0.16548531
78	0xbcbe0226	-0.023194384
79	0xbd069646	-0.032858156
80	0x3c18fd32	0.00933771
81	0xbdea5321	-0.11441637
82	0x3d9a1ffa	0.0752563
83	0xbe7ac9a5	-0.24490984
84	0x3e541b2b	0.20713489
85	0x3daa9242	0.08328678
86	0x3cfdc6a5	0.03097851
87	0xbd868963	-0.06569173
88	0xbd026599	-0.031835172
89	0xbe0fd6b9	-0.14046754
90	0x3dc0952a	0.09403451
91	0xbea6779f	-0.3251314
92	0x3d23f8c6	0.04003217
93	0xbe14e584	-0.14540678
94	0xbd60cc5d	-0.054882396
95	0x3e272f53	0.16326647

conv2s.0.modlist.1.mean_scale f4 [96]
0	0x3f68af7c	0.9089277
1	0x3f6e6898	0.9312835
2	0x3fc1f21c	1.5152011
3	0x3f9048d7	1.1272229
4	0x3f7b8751	0.9825335
5	0x3f7c334d	0.9851578
6	0x3f6a8959	0.91615826
7	0x3f78e96b	0.9723117
8	0x3f8760ed	1.0576454
9	0x3f796fd7	0.9743628
10	0x3f9df7b5	1.2341219
11	0x3f72920f	0.9475412
12	0x3f657eb2	0.89646447
13	0x3f845618	1.0338774
14	0x3f5518e0	0.8324108
15	0x3f941933	1.157019
16	0x3f99a968	1.2004824
17	0x3f755e8c	0.9584739
18	0x3f88f05d	1.0698353
19	0x3f87295c	1.0559497
20	0x3f8644cd	1.0489746
21	0x3f872273	1.0557388
22	0x3f75c259	0.95999676
23	0x3f8cc8fa	1.0998833
24	0x3f8a4b44	1.0804219
25	0x3f674afb	0.90348786
26	0x3f520086	0.8203205
27	0x3f83955b	1.0279955
28	0x3f6feae0	0.93717766
29	0x3f815b92	1.010607
30	0x3f823aef	1.0174235
31	0x3f720149	0.9453321
32	0x3f9edea8	1.2411699
33	0x3f788f8f	0.97094053
34	0x3f7bebee	0.98406875
35	0x3f80d4ac	1.0064902
36	0x3f565e8c	0.8373802
37	0x3f6c27a4	0.92247987
38	0x3f985388	1.1900492
39	0x3f6e59b8	0.9310565
40	0x3fa5a46f	1.2940806
41	0x3f58bca9	0.8466287
42	0x3f79c584	0.9756701
43	0x3f829f56	1.0204875
44	0x3f5c00c8	0.8593869
45	0x3f72ef1c	0.948961
46	0x3f87a85e	1.0598257
47	0x3f83e710	1.030489
48	0x3f81ef91	1.0151235
49	0x3f894d7b	1.072677
50	0x3f865591	1.0494863
51	0x3f75a041	0.95947653
52	0x3f779066	0.9670471
53	0x3f5d1c10	0.86370945
54	0x3f6f6646	0.9351543
55	0x3f761cdf	0.96137804
56	0x3f5f4a04	0.87222314
57	0x3f775bcf	0.96624464
58	0x3f866ef0	1.0502605
59	0x3f79e6b8	0.97617674
60	0x3f6af32c	0.917773
61	0x3f690588	0.91024065
62	0x3f7609c1	0.96108633
63	0x3fb40e66	1.4066894
64	0x3f616aca	0.8805357
65	0x3f6f0e36	0.9338106
66	0x3f663f95	0.8994077
67	0x3f97507c	1.1821437
68	0x3f726bc4	0.9469569
69	0x3f845ae5	1.0340239
70	0x3f72c476	0.94831026
71	0x3f72d0f6	0.948501
72	0x3f6e448d	0.9307335
73	0x3f9388cc	1.1526122
74	0x3f70f88a	0.9412924
75	0x3f6d3166	0.926535
76	0x3f91cdbf	1.1390914
77	0x3f797117	0.97438186
78	0x3f638522	0.8887502
79	0x3f5967de	0.84924114
80	0x3f71e7d2	0.94494355
81	0x3f7d0969	0.98842484
82	0x3f776920	0.96644783
83	0x3fa189a4	1.262013
84	0x3f85023c	1.0391307
85	0x3f6148cd	0.8800171
86	0x3f677339	0.9041019
87	0x3f73fe44	0.95309854
88	0x3f85dac2	1.0457385
89	0x3f8ae8ad	1.0852257
90	0x3f83cf6c	1.0297675
91	0x3f84b2db	1.0367082
92	0x3f85004b	1.0390714
93	0x3f66fde0	0.9023113
94	0x3f613577	0.87972206
95	0x3f80685c	1.0031848

conv2s.1.modlist.0.bias f4 [96]
0	0x3f076b5b	0.52898186
1	0x3e12363b	0.142785
2	0x3f1ddf19	0.61668545
3	0xbed86ab1	-0.422689
4	0x3cd61956	0.026135128
5	0x3e653d31	0.22386624
6	0x3ea6b71f	0.32561585
7	0x3f3ed077	0.7453684
8	0x3e1f31c2	0.15546325
9	0x3e826cf8	0.25473762
10	0xbd90f2de	-0.07077573
11	0xbd53b3ac	-0.05168502
12	0x3e1ed060	0.15509176
13	0x3e225e89	0.15856375
14	0x3f6a4936	0.9151796
15	0x3f3a50e5	0.72779685
16	0x3c2d6d15	0.010585089
17	0x3f154a7c	0.5831678
18	0xbcec2093	-0.028824126
19	0x3f87bff5	1.0605456
20	0x3e146210	0.14490533
21	0xbc3c85e2	-0.0115065295
22	0x3e9453bb	0.2897013
23	0x3e8aba39	0.27095202
24	0x3eaf4a43	0.34236345
25	0x3ec2d8f5	0.3805615
26	0x3f7c0cba	0.9845692
27	0xbdaae5d7	-0.0834462
28	0xbf8273ff	-1.0191649
29	0x3f152d09	0.58271843
30	0x3edf6e38	0.43638778
31	0x3f240616	0.64071786
32	0x3c2d3e85	0.010573988
33	0xbb213402	-0.002459765
34	0x3aada365	0.0013247548
35	0x3e1a719d	0.15082403
36	0x3e155eb4	0.14586908
37	0xbf5f69c3	-0.87270755
38	0x3ed39525	0.41324726
39	0x3f348933	0.7052185
40	0xbfab4dac	-1.3383079
41	0x3ebfeabd	0.3748378
42	0x3f63aa06	0.8893131
43	0x3da3a914	0.079912335
44	0x3e91c94e	0.28473896
45	0x3e029e8c	0.12755793
46	0x3ef2a818	0.4739387
47	0x3d0fa0f2	0.0350656
48	0xbda29f2b	-0.07940515
49	0x3e0e97a2	0.13925031
50	0x3e5f7ff5	0.21826155
51	0x3eb78951	0.35846952
52	0x3ef4e4ce	0.47830814
53	0x3e793029	0.24334778
54	0xbf1aae82	-0.6042253
55	0xbc305546	-0.010762518
56	0x3f4d2054	0.80127454
57	0xbe96be38	-0.29442
58	0x3e429b14	0.1900447
59	0x3f069677	0.5257334
60	0x3ec36e7f	0.3817024
61	0x3e8abd0f	0.27097365
62	0xbe238773	-0.15969639
63	0xbf7c1724	-0.9847281
64	0x3e4708d9	0.19436969
65	0x3c74a5d6	0.0149321165
66	0x3c571f0b	0.01312996
67	0x3f06d761	0.5267239
68	0x3dd2d196	0.102938816
69	0x3dcfa8e5	0.10139636
70	0x3f6322d0	0.88724995
71	0xbd314060	-0.043274283
72	0x3eef3539	0.46720293
73	0x3eb2422a	0.34816104
74	0x3f2caa6c	0.67447543
75	0x3d6c55c8	0.057698995
76	0x3e933001	0.28747562
77	0x3ed84aac	0.4224447
78	0xbdacb1ed	-0.08432374
79	0xbbeb6ec2	-0.007184834
80	0x3f025b57	0.50920624
81	0x3ec04c88	0.3755839
82	0x3c631549	0.013860055
83	0x3e4539c3	0.19260316
84	0x3e97ec77	0.29672596
85	0xbe51c7cb	-0.20486371
86	0x3f5c918b	0.8615958
87	0x3e92517d	0.28577796
88	0xbc5b1d29	-0.013373652
89	0x3eddf2a7	0.43349192
90	0x3e004ffe	0.12530515
91	0xbe0613c7	-0.13093482
92	0x3e204240	0.15650272
93	0x3c901ebb	0.017592778
94	0x3e763a94	0.24045783
95	0xbbe0dcfd	-0.0068622814
