2WL_link_pred/checkpoint/20221214_100_20/2WL_dict_100_20_3.pt (torch, 91244 bytes, 16 tensors)

weight f4 [48, 3]
0.08607124 -0.9628526 0.19710411 -0.0676971 0.6257212 -0.111420386 0.03397014 0.65840745
-0.16478227 -0.13113816 0.4927361 -0.14988776 -0.14586303 0.19049014 -0.042888213 -0.012358436
5.331573 -0.064856015 0.95573133 -0.2728517 1.1915239 0.6995332 -0.11142228 0.35468343
-3.3659697 0.079513706 0.023882283 -0.13680193 0.5172408 -0.04119537 -0.10342969 0.8324161
-0.085955895 -0.5926692 0.11780109 -0.2800712 0.8470192 -0.19003965 0.37766826 0.22402287
-0.6491693 0.115762606 0.07558789 0.092626 -0.108115025 0.13561337 -3.015116 -1.2754636
0.9104396 -0.18789333 0.3399401 0.65997404 -0.15945601 0.34885606 -1.0918345 -0.38203716
-0.18772373 -0.12609833 -0.34106573 0.028025627 -0.041865554 0.0900476 -0.052982427 0.11671525
-0.13076515 0.15155752 0.46075282 0.10063875 0.26240337 -0.21253593 0.37355644 0.02080536
-3.2486205 -4.569394 -0.012031986 0.7657021 -0.15651962 0.15486075 0.0024003098 1.004612
0.011481024 -0.087361425 0.53044647 -0.13748021 0.22373639 -1.0780346 0.063031845 1.0486914
-0.079403825 0.5422543 -0.016557522 0.8414236 -0.00816641 0.7833658 -0.17596887 0.32219514
-0.3265427 0.16931245 -0.08611023 0.10896745 -0.980629 -0.024188908 4.101649 -0.020272598
-0.15645956 -0.0013205537 1.0318344 -0.091581315 -0.52257335 0.21382435 -0.20418115 0.3325935
-0.8940558 0.08059755 -0.05222038 4.9022617 -0.1452112 0.19004425 -0.9528643 0.013438153
0.0981006 0.31731656 -3.2921352 0.27956694 -0.634902 0.12906925 0.34662873 -0.3112366
0.22505824 1.0093448 -0.30158496 0.7550835 -0.41528615 0.29951128 -0.31511626 -0.1119611
0.6099456 -0.11183549 0.47912967 -0.5816008 0.7656589 0.10752481 0.12108085 0.10502417
00000000: 1e46 b03d 827d 76bf a9d5 493e c7a4 8abd
00000010: 442f 203f 5f30 e4bd 4624 0b3d 648d 283f
00000020: afbc 28be 1549 06be e847 fc3e 2d7c 19be
00000030: 1e5d 15be d90f 433e 8dab 2fbd 0a7b 4abc
00000040: 3f9c aa40 3bd3 84bd cfaa 743f 38b3 8bbe
00000050: db83 983f 9c14 333f 5d31 e4bd 1199 b53e
00000060: 0c6c 57c0 15d8 a23d c7a4 c33c ce15 0cbe
00000070: e569 043f 7abc 28bd f2d2 d3bd 3919 553f
00000080: a509 b0bd 2bb9 17bf b341 f13d 7e65 8fbe
00000090: 40d6 583f c199 42be bc5d c13e 4066 653e
000000a0: f62f 26bf f214 ed3d d3cd 9a3d b3b2 bd3d
000000b0: 696b ddbd 3bde 0a3e a9f7 40c0 6442 a3bf
000000c0: 9212 693f 1c67 40be a10c ae3e 0ff4 283f
000000d0: 7048 23be 439d b23e 3cc1 8bbf 609a c3be
000000e0: a63a 40be ec1f 01be 2ba0 aebe 0096 e53c
000000f0: 377b 2bbd e06a b83d 1a04 59bd 6808 ef3d
00000100: 4de7 05be e531 1b3e cbe7 eb3e b01b ce3d
00000110: bc59 863e 05a3 59be ca42 bf3e 0170 aa3c
00000120: 66e9 4fc0 7a38 92c0 cf21 45bc 0e05 443f
00000130: ae46 20be d193 1e3e 844e 1d3b 2097 803f
00000140: e81a 3c3c 8cea b2bd 57cb 073f 9dc7 0cbe
00000150: 271b 653e 0afd 89bf d716 813d 853b 863f
00000160: 799e a2bd 2ed1 0a3f a4a3 87bc 8967 573f
00000170: 68cc 05bc a98a 483f 2f31 34be c3f6 a43e
00000180: 9b30 a7be 3e60 2d3e 8f5a b0bd 542a df3d
00000190: 810a 7bbf d127 c6bc b540 8340 b812 a6bc
000001a0: ef36 20be 6e16 adba 2613 843f fc8e bbbd
000001b0: 5ec7 05bf c5f4 5a3e dd14 51be b249 aa3e
000001c0: d7e0 64bf 5410 a53d 0ae5 55bd 54df 9c40
000001d0: 3fb2 14be f69a 423e eaee 73bf b32b 5c3c
000001e0: f8e8 c83d 5177 a23e 58b2 52c0 6623 8f3e
000001f0: f088 22bf bb2a 043e 5279 b13e 675a 9fbe
00000200: ab75 663e 3632 813f 5869 9abe 274d 413f
00000210: 63a0 d4be 8b59 993e eb56 a1be dc4b e5bd
00000220: 6525 1c3f 010a e5bd 7c50 f53e cae3 14bf
00000230: 3902 443f f835 dc3d 3df9 f73d e916 d73d

bias f4 [48]
-0.32539538 0.2507513 0.37405956 0.29510492 0.37790975 0.0044865166 -0.14830971 0.07573059
-2.0771704 0.3725297 0.51675737 0.12922212 -0.10442891 -0.26537523 2.4653032 0.068244986
-0.041757867 -0.051656876 0.84262997 -0.26391298 2.2557712 -2.0345273 0.17469206 0.20602326
-0.027034817 -0.061727513 0.2875193 0.3260011 -0.43934613 -0.024066534 0.37242743 -0.02136004
0.11850144 -0.3486058 -0.031226622 0.36058363 -0.006717258 -0.32276222 0.045988046 -0.21050125
0.054312553 -0.3448427 -0.25893307 -0.08372315 0.090574 0.45792264 -0.04035172 -2.1566074
00000000: 399a a6be 7962 803e bc84 bf3e fe17 973e
00000010: 637d c13e a103 933b 80de 17be a418 9b3d
00000020: 5cf0 04c0 36bc be3e 364a 043f ce52 043e
00000030: d3de d5bd 43df 87be 87c7 1d40 07c4 8b3d
00000040: 4c0a 2bbd 2996 53bd 99b6 573f 9a1f 87be
00000050: 8e5e 1040 b235 02c0 7ae2 323e c3f7 523e
00000060: 1f78 ddbc fdd5 7cbd bb35 933e 9ee9 a63e
00000070: faf1 e0be 2e27 c5bc cfae be3e 40fb aebc
00000080: e2b0 f23d 767c b2be f9ce ffbc 6b9e b83e
00000090: 721c dcbb 1741 a5be f65d 3c3d a48d 57be
000000a0: d776 5e3d 398f b0be e092 84be 0b77 abbd
000000b0: dc7e b93d d674 ea3e d847 25bd db05 0ac0

weight f4 [5, 48]
1.5943828 -0.4543533 -0.4370698 0.45896018 -2.5217123 0.6375873 -0.22316773 -1.7321879
0.6298833 -1.78785 0.6157322 -0.4697641 0.17095178 -1.5673462 -0.45014194 -0.52225345
0.6085543 0.2217274 1.3747461 0.3381849 0.22497192 0.89346725 0.38558188 0.8338681
0.9942423 1.6416503 0.43786412 0.24718009 -0.01819588 -0.8037736 -1.6409171 0.4684494
-0.8291556 1.1745632 0.34816593 -0.15338708 -1.1304483 -2.398801 -0.71646315 -1.9678876
-0.5908902 0.43013886 1.3263315 -0.76014686 -0.96322376 -0.36376238 -1.429478 -0.4546918
-1.2883278 -0.98565215 -0.7748798 0.85791427 -1.7719963 1.2742637 0.9234264 2.024305
-0.15551864 -0.78260607 0.61100703 0.60168135 0.925065 0.26767722 1.0006146 -0.7672087
0.50481313 -1.0709463 0.8996441 0.3792392 1.7829026 -2.628955 -0.784652 -1.356728
-0.106554136 1.1118891 -0.70660025 1.1837475 0.32715133 -0.9906304 -0.21151522 -0.39579222
-1.2121936 0.26947874 0.32561043 -0.61212575 -0.85610825 -1.4780478 0.1329216 -0.07466336
-0.63540125 -0.32890153 0.48325482 0.13742681 -0.6182681 -0.7009144 -0.5079788 -0.11265458
2.0389857 -0.24129069 -1.1638258 0.43544737 0.14473581 0.00328183 -0.74908465 1.2092948
0.24630874 0.5212263 0.4950489 -0.60799396 2.021536 -1.4556786 -0.6238495 -1.0853256
-1.0008178 0.64303035 1.206034 -0.3441438 -0.22912513 -0.29972282 0.04101633 1.1603369
2.5625875 0.31478107 1.6772281 0.006895167 0.6251508 -1.4365163 -0.98033255 1.2527916
0.7361511 0.4061727 -0.0984245 -0.44564062 0.9323775 -0.5456687 -0.73852754 0.43678352
1.7195225 1.3439841 -0.8592465 -2.5253544 1.9271464 -0.66735625 -0.35824946 -1.4570992
0.2196619 -1.0936904 0.18803596 -0.7842179 -0.34812167 -0.8069592 0.108078666 0.051673964
-0.44057494 -0.5298693 0.33831787 -0.8330049 1.3109592 -0.5352388 1.3628753 -0.198338
-0.6782776 0.3869104 0.5789079 0.86347604 0.2406919 -0.15428476 0.9822122 -0.449271
1.0742112 -0.7583687 -2.1276734 -1.2216974 -0.6336476 0.7335918 1.0274402 -0.607466
0.22844513 -1.0853709 0.51818603 1.5910753 -0.6443809 0.48851267 2.4936228 0.7395522
1.4564085 0.10573627 0.93510747 0.058392745 0.040783137 -0.45755622 -0.11890319 0.20731612
0.20937805 -0.6934154 1.317359 -1.0549105 -1.7730337 0.09055971 1.321453 -0.51829696
0.2939622 1.7120388 0.3039581 -0.92092437 0.076136105 1.0139992 -2.7340457 1.6870222
0.21005611 0.4250288 -0.36521974 -0.08149576 1.72961 -1.6322541 -1.4002004 1.0980909
-0.18097806 -0.045168757 -0.47250804 -0.24110773 -0.4263358 -0.07749601 0.39683118 -0.036975443
1.7026676 1.1073457 -0.48676258 -0.74849296 -0.7329986 -1.0319682 0.25507307 0.25955695
-1.1625056 2.1914778 -0.36813536 1.3773987 -1.2672944 2.0215845 1.4061445 0.05246531
00000000: bc14 cc3f ffa0 e8be 9dc7 dfbe d4fc ea3e
00000010: bc63 21c0 ec38 233f 1586 64be 55b8 ddbf
00000020: 0840 213f 45d8 e4bf a0a0 1d3f ec84 f0be
00000030: fc0d 2f3e cd9e c8bf 0179 e6be 67b2 05bf
00000040: 37ca 1b3f 820c 633e aef7 af3f 9226 ad3e
00000050: 0a5f 663e 45ba 643f fd6a c53e 6178 553f
00000060: aa86 7e3f 9921 d23f ba2f e03e c71c 7d3e
00000070: 870f 95bc 1bc4 4dbf 9209 d2bf 9ad8 ef3e
00000080: 8b43 54bf 1658 963f ce42 b23e 8111 1dbe
00000090: 88b2 90bf f585 19c0 216a 37bf bee3 fbbf
000000a0: 9544 17bf 293b dc3e 3bc5 a93f fc98 42bf
000000b0: d595 76bf 103f babe 23f9 b6bf 5dcd e8be
000000c0: ede7 a4bf b353 7cbf 865e 46bf 45a0 5b3f
000000d0: c6d0 e2bf 131b a33f ac65 6c3f 378e 0140
000000e0: 4740 1fbe df58 48bf f56a 1c3f ca07 1a3f
000000f0: 0fd1 6c3f fd0c 893e 2414 803f ca67 44bf
00000100: 6f3b 013f c514 89bf 134f 663f a42b c23e
00000110: 2736 e43f cc40 28c0 f4de 48bf 43a9 adbf
00000120: 0e39 dabd 6252 8e3f c1e3 34bf 0a85 973f
00000130: 6180 a73e f499 7dbf 7297 58be 47a5 cabe
00000140: 2929 9bbf 1ef9 893e 69b6 a63e 46b4 1cbf
00000150: e929 5bbf ac30 bdbf 9a1c 083e 1be9 98bd
00000160: a8a9 22bf c865 a8be 2d6d f73e 9db9 0c3e
00000170: d146 1ebf 206f 33bf e60a 02bf 72b7 e6bd
00000180: be7e 0240 e814 77be 3ef8 94bf f5f2 de3e
00000190: a035 143e f913 573b 03c4 3fbf 2cca 9a3f
000001a0: 5c38 7c3e 166f 053f 0d77 fd3e 7ea5 1bbf
000001b0: d960 0140 ad53 babf 9ab4 1fbf f3eb 8abf
000001c0: cc1a 80bf a39d 243f 525f 9a3f 9e33 b0be
000001d0: c79f 6abe 4575 99be bd00 283d eb85 943f
000001e0: 6f01 2440 fc2a a13e 69af d63f daf0 e13b
000001f0: e209 203f c4df b7bf 13f7 7abf 7a5b a03f
00000200: 6674 3c3f def5 cf3e c992 c9bd 022b e4be
00000210: 4bb0 6e3f f2b0 0bbf 2410 3dbf 17a2 df3e
00000220: 5019 dc3f ac07 ac3f 94f7 5bbf 689f 21c0
00000230: bcac f63f dcd7 2abf 796c b7be 3a82 babf
00000240: 0def 603e 0cfe 8bbf 808c 403e 81c2 48bf
00000250: 013d b2be e194 4ebf 5958 dd3d 14a8 533d
00000260: 0a93 e1be 84a5 07bf 0038 ad3e cf3f 55bf
00000270: 83cd a73f 6905 09bf b372 ae3f 1e19 4bbe
00000280: 9aa3 2dbf 1f19 c63e 4f33 143f c40c 5d3f
00000290: f077 763e d3fc 1dbe 4272 7b3f d906 e6be
000002a0: c17f 893f 7324 42bf cd2b 08c0 9560 9cbf
000002b0: bb36 22bf accc 3b3f 2983 833f e482 1bbf
000002c0: 85ed 693e 6fed 8abf d7a7 043f 5ba8 cb3f
000002d0: 26f6 24bf 551e fa3e 8497 1f40 4b53 3d3f
000002e0: 986b ba3f 428c d83d 3463 6f3f 3b2d 6f3d
000002f0: 380c 273d cf44 eabe 8483 f3bd ad4a 543e
00000300: 3367 563e ac83 31bf 389f a83f 4f07 87bf
00000310: c5f2 e2bf 5f77 b93d 5f25 a93f 1caf 04bf
00000320: 3782 963e 1624 db3f 65a0 9b3e b3c1 6bbf
00000330: 3fed 9b3d baca 813f 9bfa 2ec0 58f0 d73f
00000340: f318 573e 609d d93e 15fe babe 40e7 a6bd
00000350: dc63 dd3f b4ed d0bf c439 b3bf 3e8e 8c3f
00000360: 5052 39be e002 39bd 93ec f1be f2e4 76be
00000370: b048 dabe 3ab6 9ebd 752d cb3e 9073 17bd
00000380: 03f1 d93f 81bd 8d3f f238 f9be 3c9d 3fbf
00000390: cca5 3bbf 8917 84bf f098 823e a6e4 843e
000003a0: fccc 94bf 2c41 0c40 3d7c bcbe 9a4e b03f
000003b0: b436 a2bf a461 0140 8bfc b33f dde5 563d

weight f4 [48, 48]
-1.6708758 -0.46901527 0.29794908 0.038874924 -0.8095834 -0.124342054 0.388341 -0.9312851
2.8004277 0.6174466 1.4697566 1.9884031 -1.0431981 -0.4135294 0.43887198 0.39534026
0.24235637 0.7106186 -0.32113472 -0.118370935 -4.26772 2.9723291 0.10181864 0.53738236
4.896236 0.2952944 0.15485744 0.19491257 0.42690614 0.074319325 -0.05290349 0.0076630437
0.9870007 -0.7800059 1.3438847 0.018570684 -0.5152288 -0.44128817 -1.4415965 0.1111991
-0.22052197 -0.15372804 -0.27129155 -3.678904 0.26987457 1.3252246 -1.9878032 -0.11891797
1.208909 -1.0724653 -1.9687032 -2.6373417 -0.021676242 -0.56138045 -0.3455863 0.3879061
-0.21202907 -2.3357744 -2.2884004 -0.52713466 0.23865913 1.4693546 -1.4067132 1.751403
0.3175412 0.46554774 -0.55952525 -1.4247146 -0.33803993 -0.57180804 0.019450089 -1.1486863
7.1633124 0.52540994 -2.3438735 -1.0083101 1.7053632 -0.06794563 -1.1165525 -0.6973783
-0.96581554 2.323296 1.3649457 -1.3554561 -0.6461239 1.1255406 0.8069928 1.0434277
0.16481501 0.7143885 0.80932105 -0.8033377 0.02575593 -1.1484942 -1.6251923 -1.2580036
-0.6793933 -0.4480392 0.3081815 0.32697463 -1.5152489 -1.4309633 -0.017096728 -0.39138803
3.7277086 -0.33737835 -0.852056 0.19909061 -0.029215097 0.26584825 -2.708883 0.069730096
-0.26297513 -0.59134424 0.35406962 0.6748754 -0.14398003 2.0909173 -0.78046 0.17651618
3.9773412 -0.3923007 -0.9304226 -1.1203468 0.4204139 0.21680656 -0.55048263 0.025332363
0.52364135 1.17221 -3.2901096 -0.7516109 0.8209865 0.57605743 -2.812853 1.0767962
2.6117377 0.675398 0.54195106 -0.15890098 0.62813604 -0.962539 -0.8558072 2.1717715
-0.58163685 0.69120336 0.26879022 0.7242425 0.092019826 0.15749635 0.7102519 0.03915483
-0.6914809 0.7618914 0.96006495 -0.38445392 0.37860873 -0.8233725 -8.402359 -0.20956661
0.3229093 0.32178771 -0.27756593 -0.96600974 0.22928268 -0.098993525 0.21298818 0.20237935
-0.014673784 -0.5764232 0.5907181 0.550085 -1.0852364 -0.14754061 0.4083706 0.37363976
-0.044645064 -0.7336473 0.07699995 0.8302076 0.2621944 -0.8559661 -7.0949306 -0.7422675
0.35625923 -0.7578249 -0.04782819 0.12789536 0.17743206 0.8154231 0.66940176 -0.36930677
1.6736444 -0.6572088 0.23219518 -0.57431567 -0.24610314 -1.0204656 -1.8005422 -1.6528956
2.3785698 -0.30576798 -1.0116673 1.179637 -1.0561105 0.49232095 0.10246937 0.05007692
-0.13241373 -1.0975897 0.38836533 2.1393511 -0.9229008 -0.053121936 -1.679958 -0.87423885
1.589956 -0.76844394 -0.54751915 -0.07349314 0.28725758 -1.4559907 -0.5934137 -1.2417984
1.0948571 0.33090183 0.29970866 0.20207739 0.3262919 0.7225135 -0.09043084 0.61238194
0.8779091 0.0030313123 0.845155 -2.6734562 0.07499624 0.16950466 -1.0367308 1.3534285
-0.24405512 0.23470263 0.19148143 0.32189697 0.21958604 0.069201864 0.22334993 0.4027571
-0.039706346 0.24968667 0.4761341 -0.22850248 0.19774075 -0.03574147 0.09993515 -0.16705236
00000000: 42df d5bf c522 f0be c88c 983e 503b 1f3d
00000010: dc40 4fbf 0ca7 febd a2d4 c63e b368 6ebf
00000020: 353a 3340 fb10 1e3f fc20 bc3f fe83 fe3f
00000030: 8487 85bf 20ba d3be d4b3 e03e 0a6a ca3e
00000040: 452c 783e 1aeb 353f c56b a4be 766c f2bd
00000050: 2a91 88c0 a43a 3e40 4b86 d03d e491 093f
00000060: f7ad 9c40 d430 973e f392 1e3e 2997 473e
00000070: 7193 da3e bb34 983d 54b1 58bd 451a fb3b
00000080: 14ac 7c3f 77ae 47bf 6a04 ac3f 8c21 983c
00000090: 09e6 03bf 86f0 e1be 3c86 b8bf 5bbc e33d
000000a0: 83d0 61be e26a 1dbe bae6 8abe 2a73 6bc0
000000b0: 002d 8a3e f6a0 a93f 5670 febf 448b f3bd
000000c0: 88bd 9a3f 8b46 89bf 77fe fbbf 35ca 28c0
000000d0: 6092 b1bc a1b6 0fbf b0f0 b0be a19b c63e
000000e0: 261e 59be 547d 15c0 2775 12c0 4cf2 06bf
000000f0: 0f63 743e d013 bc3f 2e0f b4bf f92d e03f
00000100: c394 a23e 465c ee3e 0c3d 0fbf 0c5d b6bf
00000110: 9213 adbe 0362 12bf cb55 9f3c 2708 93bf
00000120: db39 e540 4481 063f 0602 16c0 4e10 81bf
00000130: 5749 da3f 1427 8bbd 31eb 8ebf 6287 32bf
00000140: b03f 77bf e2b0 1440 8ab6 ae3f 967f adbf
00000150: 6068 25bf b711 903f 1597 4e3f 0a8f 853f
00000160: 44c5 283e 2ae2 363f aa2f 4f3f 8aa7 4dbf
00000170: 1afe d23c dc01 93bf 4d06 d0bf 4306 a1bf
00000180: b8ec 2dbf 6565 e5be f7c9 9d3e 3869 a73e
00000190: adf3 c1bf ce29 b7bf 700e 8cbc 0364 c8be
000001a0: c792 6e40 dbbc acbe 5820 5abf 69de 4b3e
000001b0: 8054 efbc 431d 883e 575e 2dc0 a7ce 8e3d
000001c0: ada4 86be 5662 17bf 9d48 b53e a2c4 2c3f
000001d0: 806f 13be 97d1 0540 3acc 47bf a8c0 343e
000001e0: c28c 7e40 a3db c8be 2d30 6ebf 8667 8fbf
000001f0: 7e40 d73e 8a02 5e3e 6eec 0cbf d185 cf3c
00000200: 5c0d 063f fa0a 963f 2891 52c0 9269 40bf
00000210: 2c2c 523f 8078 133f c905 34c0 75d4 893f
00000220: b626 2740 e2e6 2c3f 4ebd 0a3f f0b6 22be
00000230: 86cd 203f f568 76bf 2e16 5bbf 4efe 0a40
00000240: 27e6 14bf b4f2 303f df9e 893e f567 393f
00000250: e474 bc3d b946 213e 12d3 353f d160 203d
00000260: e404 31bf 510b 433f d1c6 753f 25d7 c4be
00000270: 01d9 c13e 8ac8 52bf 1070 06c1 a198 56be
00000280: 5e54 a53e 5cc1 a43e 1f1d 8ebe 6a4c 77bf
00000290: 14c9 6a3e 1ebd cabd 9319 5a3e 883c 4f3e
000002a0: 506a 70bc 7990 13bf 4d39 173f 5fd2 0c3f
000002b0: 07e9 8abf e314 17be f415 d13e b64d bf3e
000002c0: bedd 36bd 4fd0 3bbf 26b2 9d3d 7c88 543f
000002d0: 583e 863e 9820 5bbf ac09 e3c0 3e05 3ebf
000002e0: 9c67 b63e d000 42bf 7ee7 43bd 00f7 023e
000002f0: c0b0 353e 91bf 503f ea5d 2b3f c715 bdbe
00000300: fb39 d63f d63e 28bf 93c4 6d3e 5a06 13bf
00000310: 7602 7cbe 9e9e 82bf 2b78 e6bf 1592 d3bf
00000320: 7d3a 1840 9f8d 9cbe 507e 81bf 58fe 963f
00000330: a12e 87bf 7e11 fc3e 76db d13d 751d 4d3d
00000340: 7797 07be d27d 8cbf d2d7 c63e 21eb 0840
00000350: 3a43 6cbf 6396 59bd dd08 d7bf 1ece 5fbf
00000360: ae83 cb3f beb8 44bf 372a 0cbf 9283 96bd
00000370: 6d13 933e e75d babf f6e9 17bf 40f3 9ebf
00000380: 4724 8c3f f76b a93e 6a73 993e 60ed 4e3e
00000390: bb0f a73e a5f6 383f ce33 b9bd 10c5 1c3f
000003a0: a7be 603f fba8 463b 145c 583f e819 2bc0
000003b0: a197 993d a192 2d3e 98b3 84bf 253d ad3f
000003c0: 96e9 79be e355 703e b513 443e aecf a43e
000003d0: 2adb 603e b5b9 8d3d d8b5 643e 2e36 ce3e
000003e0: 1fa3 22bd ddad 7f3e d9c7 f33e 8efc 69be
000003f0: 8d7c 4a3e a665 12bd cdaa cc3d c60f 2bbe

bias f4 [48]
1.9076349 0.9339788 4.4003434 1.3000547 0.34184226 2.814075 1.6316084 2.2268007
2.6415899 3.6875763 0.4182654 0.5947866 3.4625363 0.5600169 0.2551786 3.6968193
-0.12651208 2.247615 2.7404912 0.90453297 3.6387594 1.4283265 2.8217077 -0.12787814
-1.1009419 -0.8691387 -0.2380221 -2.7667265 -0.65412676 1.9916685 3.0794122 1.8911331
2.6656842 0.0667593 0.8834412 -0.6502908 -3.2634518 -0.77168447 3.7039003 -0.18530989
3.4294782 3.3809714 0.40751237 -0.70302904 -0.33201167 2.158675 0.014189809 2.8008404
00000000: 612d f43f 3c19 6f3f 9dcf 8c40 3168 a63f
00000010: f305 af3e ce19 3440 8bd8 d03f e783 0e40
00000020: cf0f 2940 4001 6c40 e226 d63e ef43 183f
00000030: 329a 5d40 445d 0f3f c5a6 823e b098 6c40
00000040: 628c 01be edd8 0f40 3564 2f40 798f 673f
00000050: 6fe1 6840 67d3 b63f dc96 3440 7df2 02be
00000060: aaeb 8cbf e07f 5ebf 11bc 73be 0c12 31c0
00000070: da74 27bf feee fe3f 1715 4540 a610 f23f
00000080: 929a 2a40 1ab9 883d 3429 623f 7579 26bf
00000090: 65dc 50c0 1d8d 45bf b40c 6d40 e0c1 3dbe
000000a0: 927c 5b40 d661 5840 76a5 d03e b6f9 33bf
000000b0: 6ffd a9be bb27 0a40 5f7c 683c f840 3340

weight f4 [48, 48]
-0.31392542 -0.06641059 0.007179903 -0.08951027 0.15232125 -0.056851514 0.33395278 -0.18766098
-0.11646094 0.029392721 0.28157943 -0.24855675 0.30406508 -0.08777859 0.014056491 0.16412835
-0.110349186 0.13794269 -0.31772283 -0.22275145 0.049823374 -0.042016834 -0.040339537 -0.5824223
0.035037447 0.36000788 0.26170963 0.6632547 -0.051501483 0.363946 0.2606873 -0.13953893
0.2018565 -0.045955542 -0.0010969288 0.05790463 -0.14779553 0.05282148 0.12643361 -0.04994068
0.34975895 -0.2762702 -0.3694785 -0.2132919 0.052061804 0.03220945 0.015478941 0.0045711105
0.5121623 0.0993277 -0.12462677 0.23577906 -0.1852662 -0.09327394 0.11839261 -0.29965517
0.10761874 -0.09639358 0.36174747 0.018334439 -0.75549996 0.4335507 -0.056956384 -0.08581455
0.32015106 0.2185953 0.15774272 0.6549374 -0.05757171 0.18774374 0.4302556 -0.07755191
0.1408036 -0.21589507 0.35258663 -0.09145889 0.3025794 -0.5362066 0.09785325 0.33140633
0.2345231 -0.14073482 0.042049125 -0.64719516 0.36607885 -0.05406953 -0.04817914 -0.15638031
-0.11457969 -0.41043958 0.09534358 -0.15438028 0.2601742 -0.0648145 0.2557258 -0.17860387
-0.063645214 0.4324807 0.24714953 0.12903953 0.46615314 0.4155643 -0.028131442 0.89188266
-0.26861343 0.3817024 0.39356294 -0.23099959 0.11502851 -0.05559351 -0.0688088 -0.24092795
0.23710172 0.7100107 -0.104247555 -0.52514243 0.3106189 0.27513352 0.505998 0.19895239
-0.056449376 0.069356695 0.15134086 0.40949658 0.0045775576 0.16457076 0.6713742 0.12543413
-0.44609377 -0.2739543 0.104444735 0.311071 -0.07528106 -0.34907562 -0.096623875 -0.59529513
-0.16275878 -0.5127895 -0.1144398 0.30101827 -0.62892085 0.08286631 0.58081245 -0.043877248
0.045602866 0.15615584 -0.014463264 0.10247417 0.07658049 -0.029896464 0.19372988 0.110769354
-0.045710284 -0.16631392 0.10589731 0.19788758 0.28595015 0.04642858 0.07448832 -0.18042989
0.12763917 0.15905003 -0.10761124 -0.41504198 0.01805768 -0.069300376 0.37589335 0.278244
-0.1197912 0.45933345 0.213675 0.3620542 0.08244504 0.21755648 0.36893025 0.13903527
-0.20055775 -0.10478118 -0.008388606 0.13982941 0.13304855 -0.2651337 0.15955865 -0.032801587
-0.06327151 -0.02383291 -0.1935011 0.065696776 -0.60386014 0.1693236 -0.009091097 -0.05006865
0.941004 -1.2420741 0.4426808 -0.06344174 -0.6841117 -0.14338577 -0.4410058 -0.03412226
0.23316772 -0.1554094 -0.324755 -0.04772088 0.1312179 0.57965386 -0.29219174 0.04900121
-0.42800066 0.4707292 0.29838282 -0.3887403 -0.5784824 -0.76107 -0.013590259 -0.61167306
0.9713291 -0.06919719 -0.16623339 -1.7949623 0.7148921 0.35012403 -0.9176979 0.16847688
-0.15025036 0.07225739 -0.83360165 -0.2011343 -0.76413774 0.97796845 -0.6251008 0.5151721
0.08639173 0.20776318 0.7295339 0.0028005196 -0.5734738 -0.30047646 -0.300952 1.4075412
-0.23302521 0.1973987 0.37300885 0.42585075 0.4041476 0.22775413 -0.75137275 -0.98868746
-0.25018987 0.024902511 0.015451071 1.3615668 -1.4267957 -0.38819692 0.6122627 -0.23019384
00000000: d5ba a0be 4702 88bd 6445 eb3b 2951 b7bd
00000010: 1afa 1b3e 22dd 68bd dcfb aa3e 332a 40be
00000020: 1383 eebd 01c9 f03c 2e2b 903e a985 7ebe
00000030: 6bae 9b3e 43c5 b3bd 324d 663c 4311 283e
00000040: c1fe e1bd d940 0d3e 91ac a2be f518 64be
00000050: 9813 4c3d d819 2cbd 123b 25bd a119 15bf
00000060: 6d83 0f3d f452 b83e cefe 853e 0fcb 293f
00000070: 38f3 52bd 2157 ba3e ce78 853e 4be3 0ebe
00000080: 78b3 4e3e e13b 3cbd d3c6 8fba 682d 6d3d
00000090: b657 17be 565b 583d d077 013e 998e 4cbd
000000a0: 9b13 b33e 4a73 8dbe 492c bdbe 3169 5abe
000000b0: c23e 553d 0eee 033d 629b 7d3c 41c9 953b
000000c0: 121d 033f 526c cb3d 523c ffbd 1170 713e
000000d0: 6cb6 3dbe 6806 bfbd d377 f23d 676c 99be
000000e0: 3767 dc3d ff69 c5bd f736 b93e 1b32 963c
000000f0: 7268 41bf 5bfa dd3e 194b 69bd 8abf afbd
00000100: d7ea a33e 72d7 5f3e 4f87 213e faa9 273f
00000110: 50d0 6bbd e53f 403e 764a dc3e 89d3 9ebd
00000120: d22e 103e 9913 5dbe 3c86 b43e cc4e bbbd
00000130: b0eb 9a3e d644 09bf 4967 c83d 17ae a93e
00000140: d326 703e ca1c 10be b43b 2c3d 95ae 25bf
00000150: b06e bb3e 0378 5dbd 7d57 45bd 2922 20be
00000160: c2a8 eabd 2325 d2be 7f43 c33d dd15 1ebe
00000170: 8e35 853e 77bd 84bd 7eee 823e efe3 36be
00000180: 6c58 82bd 1c6e dd3e c414 7d3e f022 043e
00000190: a0ab ee3e d8c4 d43e e973 e6bc 6c52 643f
000001a0: b387 89be 7f6e c33e 1581 c93e 288b 6cbe
000001b0: 1194 eb3d 05b6 63bd a1eb 8cbd d1b5 76be
000001c0: cbca 723e 43c3 353f be7f d5bd bc6f 06bf
000001d0: 7109 9f3e 4dde 8c3e 1689 013f 2dba 4b3e
000001e0: 7637 67bd e20a 8e3d 19f9 1a3e 89a9 d13e
000001f0: 56ff 953b 3d85 283e 2edf 2b3f ce71 003e
00000200: 6766 e4be bd43 8cbe 1fe7 d53d b344 9f3e
00000210: f52c 9abd 0aba b2be bde2 c5bd 4365 18bf
00000220: 3daa 26be 2c46 03bf 6a5f eabd 111f 9a3e
00000230: f500 21bf d0b5 a93d 20b0 143f a1b8 33bd
00000240: 12ca 3a3d 51e7 1f3e 53f7 6cbc fadd d13d
00000250: 3bd6 9c3d 6ee9 f4bc 2061 463e 0bdb e23d
00000260: b53a 3bbd 324e 2abe b0e0 d83d 0ba3 4a3e
00000270: 0f68 923e e52b 3e3d 558d 983d 9dc2 38be
00000280: d8b3 023e 03de 223e 4863 dcbd 6280 d4be
00000290: b3ed 933c 5bed 8dbd 1875 c03e ff75 8e3e
000002a0: 1755 f5bd c12d eb3e 9fcd 5a3e 2b5f b93e
000002b0: f2d8 a83d 20c7 5e3e 6de4 bc3e 435f 0e3e
000002c0: 035f 4dbe 8497 d6bd 5d70 09bc 712f 0f3e
000002d0: e13d 083e 9bbf 87be 5863 233e f55a 06bd
000002e0: 7e94 81bd 3c3d c3bc 2725 46be 088c 863d
000002f0: 9496 1abf 2a63 2d3e d3f2 14bc c914 4dbd
00000300: a3e5 703f 49fc 9ebf 0fa7 e23e beed 81bd
00000310: f221 2fbf b8d3 12be 83cb e1be c8c3 0bbd
00000320: 85c3 6e3e a423 1fbe 4a46 a6be f876 43bd
00000330: fc5d 063e 3264 143f 289a 95be 7eb5 483d
00000340: e722 dbbe 6b03 f13e a2c5 983e f808 c7be
00000350: 6c17 14bf 7cd5 42bf ada9 5ebc 9b96 1cbf
00000360: 06a9 783f 42b7 8dbd 1639 2abe 53c1 e5bf
00000370: 2b03 373f 7543 b33e 40ee 6abf 3485 2c3e
00000380: 3bdb 19be affb 933d eb66 55bf 26f6 4dbe
00000390: 889e 43bf 245c 7a3f 9b06 20bf 52e2 033f
000003a0: 26ee b03d dfbf 543e bcc2 3a3f ec88 373b
000003b0: 2ecf 12bf 0dd8 99be 6116 9abe 4f2a b43f
000003c0: 299e 6ebe e322 4a3e 04fb be3e 1c09 da3e
000003d0: 6fec ce3e 6138 693e f759 40bf 9f1a 7dbf
000003e0: e318 80be 5a00 cc3c 7d26 7d3c d247 ae3f
000003f0: 3ea1 b6bf bfc1 c6be 40bd 1c3f efb7 6bbe

weight f4 [48, 48]
0.66843724 0.49668837 -0.29479325 0.08594345 -0.017648479 0.6087032 -0.068405904 0.46111768
-0.026478508 -0.0050951014 -0.40591723 0.008440871 -0.023306055 0.7191683 -0.6949855 -0.21472056
0.04150891 -0.19150148 0.6229471 -0.07332044 -0.23698616 0.50645995 0.6638942 -0.046500787
0.12937294 -0.34629354 -0.529847 0.3230941 -0.15865365 0.5385564 0.46093902 -0.6316157
0.392737 0.0553167 -0.36309138 0.0238778 -0.61103725 -0.8115788 0.021223674 -0.42714947
-0.011437322 0.1944653 -0.07769224 0.28459972 1.3359362 0.84319544 -0.5925898 -0.9722784
0.16611084 0.64826286 -0.015185807 0.10690727 -0.41604605 0.2793899 0.1822991 0.16122659
0.00078615773 -0.08858667 0.49176732 -0.1914944 -0.3052828 -0.3727261 0.22129509 -0.32942304
0.13898128 0.10743196 0.25712198 -0.22252807 -0.14941108 0.028030815 -0.6001521 0.76866263
-0.25843275 -0.0013028621 0.27078182 0.33104235 -0.28070474 -0.24542642 0.31917217 0.09936751
0.10568705 0.044892535 0.030331805 0.34273285 0.29202962 -0.08091035 -0.21195094 -0.13305458
-0.13135034 -0.12346066 0.39001513 0.6609176 0.6339918 1.528431 0.07961541 -0.016728343
-0.5176575 0.08691496 -1.0780522 -0.19417535 -0.8470638 0.042688023 -0.3656392 -0.7133601
-0.30502698 -0.0018839827 0.74667215 0.27684036 0.21140246 0.4117246 -0.5338688 -0.0677903
0.41520652 0.4358057 0.24287006 0.122636944 -0.049951136 -0.30257246 -0.4560355 0.6633489
-0.46698242 -0.18020073 0.04662961 -0.34895268 -0.05321406 0.53934616 0.2883486 -0.15748933
0.050373398 0.92602414 1.1389589 -0.096552916 0.16666147 0.038621455 -0.0015433109 0.032008115
0.39243892 0.24579692 0.4697318 0.14210778 -0.048430018 -0.23205653 -0.7933544 -0.6662264
0.07300023 -0.16934687 -0.27666882 -0.08512939 -0.9597568 0.17379242 -0.07832578 -0.10075148
-1.9035258 -1.9894229 0.010979324 0.003922222 -3.0401695 0.16906083 0.07472783 -2.155223
-1.1676229 0.14244612 0.20433201 -0.012368177 -2.7603817 -0.81508195 -0.11333839 0.5460213
0.07528167 0.05288315 0.06482424 -0.24830636 -0.004587308 -0.9126431 0.25809938 0.010907046
0.21542686 -0.1951524 -1.096276 0.1873841 0.12596028 -0.06775959 -2.5163157 -0.24800366
0.25598845 0.10459887 0.042283397 0.3617918 0.14573328 -0.22990984 0.050421245 -0.039050236
0.8117001 -0.570558 0.69172996 -0.16541517 -1.0995435 0.11600532 -0.33592758 0.16068405
-0.33057576 -0.036627095 0.6991996 -0.22092682 0.37402642 -0.31164277 0.8651036 0.09460362
-0.073184 0.13239487 0.03781605 0.5259338 0.10218257 0.70278174 0.15665933 -0.3383313
-0.46480086 -0.47740337 0.29693657 0.2677974 -0.21121755 0.015704304 -0.003892289 0.662171
-0.002508403 -0.1906731 0.86482674 -0.53994226 -0.14615147 0.20676593 0.040642552 -0.12451638
-0.30506876 0.19075622 0.51341325 0.41223353 -0.63541085 0.55459607 -0.33787176 0.32360083
0.9905174 0.15618712 0.679916 0.522553 -0.12680359 0.029271834 1.1369497 0.36761254
0.12561348 -0.031409312 0.008889502 0.21855918 -0.08482467 0.49318114 0.5563607 -0.042214625
00000000: b41e 2b3f f04d fe3e 24ef 96be 1f03 b03d
00000010: 8b93 90bc f9d3 1b3f 6518 8cbd 9e17 ec3e
00000020: 75e9 d8bc cff4 a6bb 62d4 cfbe 944b 0a3c
00000030: 57ec bebc 6a1b 383f 92ea 31bf b5df 5bbe
00000040: 3f05 2a3d f718 44be 7679 1f3f 0729 96bd
00000050: 80ac 72be 5ca7 013f f8f4 293f 9c77 3ebd
00000060: 577a 043e 634d b1be 0ea4 07bf 976c a53e
00000070: 1a76 22be d5de 093f 3300 ec3e 91b1 21bf
00000080: d314 c93e c493 623d 1de7 b9be 609b c33c
00000090: f06c 1cbf a1c3 4fbf 45dd ad3c 56b3 dabe
000000a0: 9b63 3bbc e921 473e 1c1d 9fbd 0eb7 913e
000000b0: f5ff aa3f a8db 573f f7b3 17bf 3de7 78bf
000000c0: f618 2a3e 8ef4 253f e4cd 78bc 33f2 da3d
000000d0: fd03 d5be 310c 8f3e 9eac 3a3e 9518 253e
000000e0: 2716 4e3a ee6c b5bd edc8 fb3e 1c17 44be
000000f0: 074e 9cbe f5d5 bebe 2e9b 623e 23aa a8be
00000100: 1c51 0e3e 4a05 dc3d 7ea5 833e 66de 63be
00000110: 38ff 18be e1a0 e53c 91a3 19bf 13c7 443f
00000120: 4c51 84be ccc4 aaba eaa3 8a3e 627e a93e
00000130: 88b8 8fbe 1051 7bbe 896a a33e 3181 cb3d
00000140: 7472 d83d 3ce1 373d 687a f83c ae7a af3e
00000150: e884 953e 53b4 a5bd ab09 59be 763f 08be
00000160: b480 06be f1d8 fcbd 10b0 c73e e531 293f
00000170: 494d 223f a1a3 c33f 670d a33d e109 89bc
00000180: 3485 04bf 7800 b23d 9dfd 89bf e7d5 46be
00000190: 2cd9 58bf a3d9 2e3d 1035 bbbe c49e 36bf
000001a0: 7f2c 9cbe f8ef f6ba e825 3f3f 05be 8d3e
000001b0: e379 583e 91cd d23e a0ab 08bf a4d5 8abd
000001c0: f395 d43e ed21 df3e eeb2 783e 1429 fb3d
000001d0: 9099 4cbd c7ea 9abe 7c7d e9be 3cd1 293f
000001e0: 5218 efbe 8a86 38be b1fe 3e3d eda9 b2be
000001f0: fcf6 59bd 9712 0a3f 6da2 933e e244 21be
00000200: 5654 4e3d eb0f 6d3f 68c9 913f 89bd c5bd
00000210: 4ea9 2a3e 8831 1e3d ec48 caba f11a 033d
00000220: c1ed c83e 30b2 7b3e b080 f03e b484 113e
00000230: 8e5e 46bd 3aa0 6dbe 4619 4bbf d08d 2abf
00000240: 2581 953d 4469 2dbe 89a7 8dbe 5158 aebd
00000250: 9fb2 75bf a4f6 313e 4469 a0bd cb56 cebd
00000260: bca6 f3bf 69a5 febf 9fe2 333c fc85 803b
00000270: 2392 42c0 481e 2d3e e80a 993d 2cef 09c0
00000280: ab74 95bf 65dd 113e 693c 513e e5a3 4abc
00000290: 18aa 30c0 36a9 50bf f51d e8bd 0dc8 0b3f
000002a0: 472d 9a3d 009c 583d 92c2 843d 0644 7ebe
000002b0: 2151 96bb faa2 69bf 9a25 843e 77b3 323c
000002c0: dc98 5c3e 08d6 47be c652 8cbf 9ee1 3f3e
000002d0: bbfb 003e 8ac5 8abd 510b 21c0 acf4 7dbe
000002e0: eb10 833e ef37 d63d 5b31 2d3d c63c b93e
000002f0: 1b3b 153e 7c6d 6bbe 8286 4e3d 24f3 1fbd
00000300: 94cb 4f3f 1710 12bf 3715 313f 9862 29be
00000310: d7bd 8cbf 3294 ed3d b3fe abbe 5c8a 243e
00000320: 3a41 a9be 4b06 16bd bffe 323f a43a 62be
00000330: 6480 bf3e a48f 9fbe 6e77 5d3f 8bbf c13d
00000340: 7ee1 95bd 8592 073e 01e5 1a3d 99a3 063f
00000350: 1845 d13d 81e9 333f 4e6b 203e c339 adbe
00000360: 61fa edbe 376e f4be 1208 983e be1c 893e
00000370: 6a49 58be 50a6 803c c615 7fbb 0a84 293f
00000380: 0564 24bb cf3f 43be 4965 5d3f a839 0abf
00000390: bba8 15be 73ba 533e ce78 263d 7202 ffbd
000003a0: f931 9cbe 9955 433e 0d6f 033f 4610 d33e
000003b0: 49aa 22bf 02fa 0d3f 87fd acbe 02af a53e
000003c0: 8c92 7d3f 84ef 1f3e fa0e 2e3f 09c6 053f
000003d0: cdd8 01be 7ccb ef3c 9187 913f b637 bc3e
000003e0: d2a0 003e 0da7 00bd 46a5 113c facd 5f3e
000003f0: 8eb8 adbd 3d82 fc3e a86d 0e3f 3ee9 2cbd

bias f4 [48]
0.34522766 -0.10550039 0.09961322 -0.97451407 -0.14140908 0.23702735 0.14082965 0.11743357
-2.342625 0.015828235 0.06447784 -0.15149409 0.37578204 -0.101567104 -2.036615 -0.7741541
-0.1922042 0.09732438 -0.5208751 0.21350172 0.5959367 -0.026558368 0.08292746 -0.04232922
0.08428457 0.08539553 0.0012565493 -0.9380939 0.109533995 0.08086167 0.0269912 -0.1442547
-0.11942955 0.80153537 -0.3092105 0.027399719 -1.2832992 0.1183254 0.1653697 -0.04117717
0.1620022 0.1430063 0.7410794 0.53234184 -0.081572436 0.51845795 0.12415154 1.2976636
00000000: aec1 b03e 9710 d8bd 0402 cc3d c179 79bf
00000010: 8bcd 10be 4cb7 723e a635 103e 0381 f03d
00000020: 91ed 15c0 37aa 813c f50c 843d 4421 1bbe
00000030: 8166 c03e 6a02 d0bd e657 02c0 f72e 46bf
00000040: 2ed1 44be 0152 c73d 1258 05bf 32a0 5a3e
00000050: 4f8f 183f ef90 d9bc dfd5 a93d 6761 2dbd
00000060: 639d ac3d dae3 ae3d ccb2 a43a ec26 70bf
00000070: 5c53 e03d ce9a a53d a61c dd3c 81b7 13be
00000080: 7b97 f4bd 6c31 4d3f d750 9ebe 6075 e03c
00000090: 2643 a4bf 9654 f23d ad56 293e 64a9 28bd
000000a0: e8e3 253e 3e70 123e 61b7 3d3f 8e47 083f
000000b0: 730f a7bd a9b9 043f 2a43 fe3d d719 a63f

weight f4 [48, 48]
-0.33852822 0.26322773 0.4120355 -0.28286278 0.110741675 -0.18827493 -1.0135944 0.0759901
0.36893645 -0.106271006 -0.45125884 -0.6959785 -0.18642052 0.33404425 0.20235184 -0.086501986
0.25708488 0.6382543 -0.10580327 -0.2962434 -0.26004806 -0.12534052 -0.38711536 0.6527738
-0.12821625 0.7070095 0.04149178 0.027706647 0.38297513 -0.43724144 -0.20913756 -0.022080386
-0.078107506 -0.11363548 0.41657388 -0.5307771 0.27219453 0.03506096 -0.20930006 -0.35431874
0.03205172 -0.31351224 -0.406498 0.07210964 0.10652352 1.1126904 0.22404714 -0.8361031
0.0258752 1.0667357 1.3727423 0.31412864 0.6607111 -0.33556515 -0.049783796 -0.08402863
1.1116806 0.06986228 -0.57786566 0.50246274 -0.3602513 -0.18094797 -0.21898346 -0.05551607
0.42883474 0.69289887 0.0124679925 0.7941231 -0.18347217 -0.5582006 -0.031674474 -0.04482025
-0.61231476 -0.052284636 0.3720106 0.36710507 0.18485923 -0.3594233 0.0675232 0.5889183
-0.06308167 -0.49526793 0.58438474 -0.39727372 0.1293107 -0.4058142 -0.26420453 -0.37712127
0.19634745 0.1588366 0.40520146 1.5067593 -1.1812787 0.21670552 -0.8627066 0.07590695
-1.1052585 0.64892 -0.28463945 0.10119371 0.8893626 0.044940095 -0.3571169 0.4433228
-0.28055868 0.039469928 0.63851863 0.110549025 -0.121521 -0.00907841 -0.08827096 -0.07148076
0.4020942 -0.33911538 -0.070229225 0.708279 -0.007161533 -0.453719 0.24664812 -0.6219252
0.41278484 -0.20346037 -0.74160796 -0.9461314 -0.37885782 0.057890076 0.02616779 0.3236721
-0.16908962 -0.5296778 0.4586317 -0.78666145 -0.26545295 -0.08782268 -0.10749412 -0.13055277
-0.24390419 -0.17904952 -0.33460745 0.30866382 0.13448147 -0.24967347 -0.4960617 0.24391137
1.0928541 0.7042655 0.15168828 0.22300449 -0.103975855 -0.11297591 0.84230465 0.45038792
-0.012406156 -0.16504301 -0.26280463 0.59897906 -0.060445037 0.67637885 -0.4536855 -0.17893493
0.035942603 -0.25877458 -0.23326476 -0.020581013 -0.21037434 -0.06172134 0.53021157 0.5941357
0.77035517 0.3443849 0.7021436 -0.11123259 0.26700896 -0.042677637 -0.22886463 0.34158674
-0.13824412 0.39630035 -0.4747425 -0.14976975 1.0040984 0.1904049 -0.12570022 0.492201
-0.22812997 -0.07033397 0.1532862 0.37231252 0.02483715 -0.26382685 0.24565934 0.34410155
-0.2059158 -1.3592232 0.62720823 0.23874317 1.1554968 0.04642067 0.25139505 -0.25003445
-0.4064048 -0.23865233 0.062213358 0.102042764 -0.040258594 -0.7625608 0.018154226 -0.16518465
0.4271572 0.18580464 -0.03939231 -0.9102385 -0.062174607 -1.2586932 -0.12459686 -1.2116263
-0.69390565 -0.307152 0.28387016 0.2467963 -0.753607 -0.30033344 -0.112873495 -0.2958852
0.16597793 -0.44072568 -0.087300785 0.7536536 0.10353188 0.04295013 -0.13655458 0.5759749
-0.25052458 0.15630789 -0.3679717 -0.35216603 0.6268838 -0.22573364 0.31795296 0.033302195
-1.0584989 -0.0048793857 -0.21196774 -0.087795906 1.3950393 0.19588952 -0.1482803 -0.5687028
-0.2765264 0.18071567 -0.7997852 0.35942072 0.26686445 -0.4170773 0.29591653 0.015950205
00000000: 9253 adbe c9c5 863e 51f6 d23e 64d3 90be
00000010: 88cc e23d 25cb 40be 76bd 81bf b3a0 9b3d
00000020: 3de5 bc3e 9da4 d9bd 660b e7be a62b 32bf
00000030: 05e5 3ebe d907 ab3e 5235 4f3e f427 b1bd
00000040: a1a0 833e a264 233f 63af d8bd 37ad 97be
00000050: 0525 85be 4459 00be fc33 c6be 2f1c 273f
00000060: 1f4b 03be 93fe 343f 49f3 293d 0df9 e23c
00000070: 5115 c43e 1cde dfbe 2828 56be ede1 b4bc
00000080: d4f6 9fbd b8b9 e8bd 2c49 d53e 02e1 07bf
00000090: 155d 8b3e 159c 0f3d c152 56be 4469 b5be
000000a0: aa48 033d ad84 a0be 8120 d0be 38ae 933d
000000b0: 0129 da3d a46c 8e3f 9d6c 653e da0a 56bf
000000c0: 3af8 d33c cc8a 883f 05b6 af3f 78d5 a03e
000000d0: 5d24 293f 32cf abbe 18ea 4bbd 3417 acbd
000000e0: 8d4b 8e3f f413 8f3d 01ef 13bf 66a1 003f
000000f0: dc72 b8be 6d4a 39be 333d 60be d264 63bd
00000100: 3a90 db3e d261 313f 8d46 4c3c a74b 4b3f
00000110: 21e0 3bbe 3ce6 0ebf 18bd 01bd 7095 37bd
00000120: a9c0 1cbf 6a28 56bd 2c78 be3e 32f5 bb3e
00000130: bd4b 3d3e 5506 b8be 9a49 8a3d 5ac3 163f
00000140: f630 81bd c293 fdbe 3d9a 153f 7667 cbbe
00000150: 066a 043e e1c6 cfbe d145 87be 0a16 c1be
00000160: 4e0f 493e 10a6 223e 9176 cf3e 7ddd c03f
00000170: 2434 97bf 0de8 5d3e 57da 5cbf 1a75 9b3d
00000180: 1c79 8dbf 9f1f 263f 43bc 91be a63e cf3d
00000190: 44ad 633f 1b13 383d 07d8 b6be 35fb e23e
000001a0: 63a5 8fbe 38ab 213d f575 233f 8767 e23d
000001b0: 01e0 f8bd 9dbd 14bc 68c7 b4bd 8164 92bd
000001c0: 4adf cd3e 88a0 adbe 57d4 8fbd c651 353f
000001d0: 4bab eabb db4d e8be 5391 7c3e 7d36 1fbf
000001e0: 8958 d33e ea57 50be 05da 3dbf ab35 72bf
000001f0: a7f9 c1be 251e 6d3d d55d d63c 59b8 a53e
00000200: d425 2dbe f798 07bf c6d1 ea3e a562 49bf
00000210: 73e9 87be 61dc b3bd e125 dcbd a0af 05be
00000220: 05c2 79be c258 37be ab51 abbe 2f09 9e3e
00000230: 83b5 093e 67aa 7fbe cdfb fdbe e7c3 793e
00000240: a5e2 8b3f be4a 343f 2c54 1b3e 4a5b 643e
00000250: 4bf1 d4bd ea5f e7bd 47a1 573f 3f99 e63e
00000260: 3143 4bbc 0901 29be 548e 86be b156 193f
00000270: 3795 77bd 2a27 2d3f 7749 e8be b83a 37be
00000280: 8d38 133d 1a7e 84be f5dc 6ebe 8399 a8bc
00000290: 5f6c 57be 84cf 7cbd f2bb 073f 4719 183f
000002a0: ff35 453f 3853 b03e afbf 333f eacd e3bd
000002b0: 66b5 883e bfce 2ebd 7d5b 6abe 75e4 ae3e
000002c0: de8f 0dbe e1e7 ca3e 7311 f3be 3e5d 19be
000002d0: 4c86 803f 81f9 423e 8fb7 00be c501 fc3e
000002e0: e79a 69be 420b 90bd 0ff7 1c3e bf9f be3e
000002f0: 4777 cb3c 5014 87be 1f8e 7b3e 142e b03e
00000300: 97db 52be 07fb adbf b890 203f 1779 743e
00000310: 52e7 933f 9a23 3e3d dab6 803e 8404 80be
00000320: 4a14 d0be 4761 74be 6fd3 7e3d ccfb d03d
00000330: 32e6 24bd 2f37 43bf 2cb8 943c 2a26 29be
00000340: 59b4 da3e 9243 3e3e d559 21bd 6405 69bf
00000350: cdaa 7ebd dc1c a1bf a32c ffbd 9216 9bbf
00000360: cda3 31bf 0743 9dbe 6e57 913e 2bb8 7c3e
00000370: 63ec 40bf 4ec5 99be 382a e7bd 447e 97be
00000380: 1ef6 293e cca6 e1be c1ca b2bd 71ef 403f
00000390: 8608 d43d 7aec 2f3d f7d4 0bbe 1773 133f
000003a0: c244 80be 2d0f 203e c966 bcbe 1b4f b4be
000003b0: 757b 203f b826 67be bbca a23e e267 083d
000003c0: e47c 87bf 41e3 9fbb 120e 59be 57ce b3bd
000003d0: a690 b23f 4397 483e cad6 17be 8296 11bf
000003e0: de94 8dbe 870d 393e b9be 4cbf fe05 b83e
000003f0: 75a2 883e 288b d5be 5f82 973e 01aa 823c

weight f4 [18, 49]
0.23291199 -0.034788925 0.13805597 0.7971895 0.10553116 0.10861296 -0.040284786 -0.21540539
-0.20371842 -0.096452735 0.13467301 0.2832952 -0.11147301 -0.03770594 0.16838823 0.46545067
0.099938594 -0.019125825 0.23910874 -0.05441532 1.1408288 -0.13811491 0.237441 -0.19356078
-0.015516807 0.19785461 0.011817683 -0.05672201 -0.0005266805 0.26020542 0.04664946 1.2927766
-0.059201233 -0.58993614 -0.17966878 -0.0083877025 -0.9097509 0.12219226 -0.10518303 0.42278853
0.12774394 -0.11339853 -0.097323745 -0.15739386 0.055401657 -0.06516397 -0.17585118 0.08582142
-6.221704 -0.34157994 -0.20632233 -0.21540366 -0.124144524 -0.3953546 0.28645998 -0.105886474
-0.018441817 -0.21969146 0.22553997 -0.00643921 -0.22718419 0.39903516 -0.3219871 0.08126453
0.33475134 0.3093997 0.05880067 -0.06627821 -0.23539588 -0.051944304 -0.336695 0.25952512
-0.4033811 -0.10435216 0.07737228 -0.26762074 0.52024883 0.23140371 0.12187319 -0.21822086
-0.39965978 -0.07192864 -0.31209737 0.19469108 0.029067317 -0.2799555 0.32537076 -0.46938577
0.24108663 -0.25077093 0.113566555 0.30850366 0.12672481 -0.21569322 -0.18103997 -0.3377637
0.6153245 1.8272117 0.02710721 -0.54653955 -0.037035245 -2.3065796 -0.21660538 0.11953956
0.03999421 -0.33132133 -0.17462492 -0.14074944 0.24339005 -0.14601792 0.33259186 -0.35115868
0.4720595 0.056551788 0.10612319 -0.013436552 -0.26707375 0.08383797 -0.358624 -0.08134908
0.01771923 -0.08508019 -0.05356647 -0.19794807 0.18751086 1.5265846 0.1192031 0.16882004
-0.20793682 -0.3062079 0.07200738 2.599573 0.08498561 0.117768615 0.83266485 0.013975212
0.00903483 -0.023125157 -0.20194656 -0.14242315 0.14184399 -0.3377901 -0.0038182058 0.042161144
0.31180805 -0.5821252 -0.6454833 0.32700604 0.053237543 -0.026152434 -0.6337562 -0.17402865
-0.11435349 0.08929137 -0.20357676 -0.5453503 0.32181272 -0.13155164 0.18257272 0.08161519
-0.004589374 -0.38128525 0.31539392 -0.036131755 0.013483803 0.2298859 -0.02952065 0.79989386
0.0734885 0.03104102 -0.015684001 0.21446103 0.13124289 -0.32040384 -0.35813886 -0.30767962
-0.020686943 0.1853465 0.41035768 -0.17429632 -0.338249 0.007246517 -0.15914106 -0.4137203
-0.20655532 -0.15346712 -0.052753545 0.16555431 -0.017907545 -0.18676382 -0.119271375 0.021451714
-0.016238043 0.062359065 -0.35781553 -3.9210033 -0.25865293 0.05216101 0.014507156 -0.63070554
0.104616605 0.16851619 -0.075473405 -0.021834183 0.61544013 0.26186535 -0.35780212 0.18623824
0.041938193 -0.19407281 0.87321234 0.47083542 0.019568997 -0.032090135 0.101766646 -0.19419034
0.8974983 -0.047703486 -0.04562824 -0.47336268 0.438789 -0.18285105 0.15257014 0.9778857
-0.078491546 -0.20885302 -0.13851565 0.57636464 -0.14272636 -0.49601337 0.15041296 0.036206294
-0.7840322 -0.04840946 -0.020498121 -0.15577851 0.1488359 -0.28334016 0.76371485 -0.12568218
-0.11472874 0.021351526 0.11750644 -0.17695376 -3.9087272 -0.27815413 0.0026515694 0.48618424
-1.1662886 -0.35141498 0.102571316 0.053256642 0.37264308 -0.12466315 0.1130127 -0.013162595
00000000: 7b80 6e3e d57e 0ebd 8b5e 0d3e 9c14 4c3f
00000010: b920 d83d 7970 de3d a901 25bd 3b93 5cbe
00000020: 909b 50be 0389 c5bd b9e7 093e 120c 913e
00000030: f64b e4bd 8b71 1abd f76d 2c3e 8d4f ee3e
00000040: 9bac cc3d c3ad 9cbc ecd8 743e 99e2 5ebd
00000050: ae06 923f ff6d 0dbe bc23 733e cc34 46be
00000060: 353a 7ebc 669a 4a3e f49e 413c 5755 68bd
00000070: ee10 0aba a539 853e 8113 3f3d b479 a53f
00000080: fe7c 72bd 0e06 17bf 18fb 37be 936c 09bc
00000090: 6fe5 68bf f03f fa3d 336a d7bd bd77 d83e
000000a0: 4fcf 023e 7d3d e8bd ac51 c7bd db2b 21be
000000b0: d9ec 623d b074 85bd 5512 34be 24c3 af3d
000000c0: 3318 c7c0 91e3 aebe 2946 53be c792 5cbe
000000d0: 7c3f febd eb6b cabe e2aa 923e 02db d8bd
000000e0: 4b13 97bc ccf6 60be f3f3 663e 0200 d3bb
000000f0: f9a2 68be 564e cc3e 7edb a4be 056e a63d
00000100: 8764 ab3e a369 9e3e f9d8 703d dfbc 87bd
00000110: 9e0b 71be 8dc3 54bd 4963 acbe 7ae0 843e
00000120: f887 cebe 96b6 d5bd 5c75 9e3d 9605 89be
00000130: 072f 053f 18f5 6c3e a798 f93d 4a75 5fbe
00000140: 35a0 ccbe 534f 93bd 3acb 9fbe 195d 473e
00000150: 951e ee3c 5456 8fbe ff96 a63e 5553 f0be
00000160: 6adf 763e 0c65 80be 9595 e83d 31f4 9d3e
00000170: 26c4 013e afde 5cbe 8b62 39be 5def acbe
00000180: e885 1d3f 13e2 e93f f10f de3c 04ea 0bbf
00000190: 45b2 17bd 009f 13c0 cdcd 5dbe 28d1 f43d
000001a0: f8d0 233d f3a2 a9be e0d0 32be 9f20 10be
000001b0: 3e3b 793e b985 15be 7b49 aa3e 12cb b3be
000001c0: c8b1 f13e d9a2 673d 1d57 d93d fc24 5cbc
000001d0: e4bd 88be 3eb3 ab3d 919d b7be 599a a6bd
000001e0: eb27 913c 863e aebd 8468 5bbd e6b2 4abe
000001f0: d902 403e 2067 c33f c120 f43d 29df 2c3e
00000200: 64ed 54be 48c7 9cbe 9b78 933d 675f 2640
00000210: ef0c ae3d ac30 f13d 8629 553f 4af8 643c
00000220: d306 143c f870 bdbc 14cb 4ebe 60d7 11be
00000230: 8d3f 113e d3f2 acbe dd3a 7abb 2ab1 2c3d
00000240: 4ea5 9f3e 2806 15bf 653e 25bf 566d a73e
00000250: 9c0f 5a3d a13d d6bc d93d 22bf 9134 32be
00000260: 2a32 eabd 65de b63d 6d76 50be 149c 0bbf
00000270: a3c4 a43e 79b5 06be 58f4 3a3e dd25 a73d
00000280: 7662 96bb d237 c3be 507b a13e e4fe 13bd
00000290: 2beb 5c3c 3667 6b3e 4ad5 f1bc d8c5 4c3f
000002a0: 2481 963d bd49 fe3c bc7b 80bc ac9b 5b3e
000002b0: 8964 063e f90b a4be fa5d b7be 2f88 9dbe
000002c0: aa77 a9bc 79cb 3d3e 671a d23e bc7a 32be
000002d0: f92e adbe 3174 ed3b e0f5 22be 26d3 d3be
000002e0: 3d83 53be 7c26 1dbe 1a14 58bd 1287 293e
000002f0: d8b2 92bc 043f 3fbe 8d44 f4bd 81bb af3c
00000300: a505 85bc 386c 7f3d 9933 b7be b8f1 7ac0
00000310: 286e 84be c9a6 553d 6caf 6d3c eb75 21bf
00000320: 3b41 d63d 828f 2c3e cd91 9abd 9add b2bc
00000330: 7c8d 1d3f 3713 863e d731 b7be 3db5 3e3e
00000340: 62c7 2b3d 06bb 46be d88a 5f3f 5711 f13e
00000350: 294f a03c f270 03bd 086b d03d d5d9 46be
00000360: 73c2 653f bb64 43bd ade4 3abd 985c f2be
00000370: f4a8 e03e 4e3d 3bbe 593b 1c3e b856 7a3f
00000380: 2dc0 a0bd 91dd 55be 0cd7 0dbe a28c 133f
00000390: dc26 12be 77f5 fdbe db05 1a3e 0d4d 143d
000003a0: 56b6 48bf ff48 46bd adeb a7bc 6784 1fbe
000003b0: 7068 183e f611 91be d182 433f d4b2 00be
000003c0: e7f6 eabd 65e9 ae3c 37a7 f03d 5e33 35be
000003d0: 9628 7ac0 386a 8ebe f4c5 2d3b 24ed f83e
000003e0: f248 95bf aaec b3be e910 d23d a323 5a3d
000003f0: 13cb be3e 654f ffbd 3473 e73d eda7 57bc

bias f4 [18]
-0.54865545 -0.06473035 0.027144771 0.33594954 -4.57303 -0.87351435 0.2313087 3.163375
0.061137684 4.658422 0.22758071 -1.9902683 -0.6832543 0.016834905 -0.4944715 1.2553202
-0.20135511 0.6429616
00000000: af74 0cbf 5991 84bd b65e de3c 9401 ac3e
00000010: 4356 92c0 a39e 5fbf 30dc 6c3e bc74 4a40
00000020: 826b 7a3d cb11 9540 eb0a 693e 1dc1 febf
00000030: c1e9 2ebf 5be9 893c 5e2b fdbe 55ae a03f
00000040: 0930 4ebe 2299 243f

weight f4 [18, 85]
0.5844931 0.6248085 0.066568986 -0.2210181 -0.05980718 0.005751142 0.034881294 0.35995588
-0.03235111 0.48878038 -0.26382 -0.15501562 0.54971856 -0.16605194 -0.2630094 -0.027599478
-0.086043745 -0.09626498 0.6694313 0.080090806 1.2414464 -0.20719811 0.52767575 -0.21451956
-0.108665414 -0.38497978 -0.41819027 1.2219139 0.63243353 -0.018155461 -0.019726533 1.5559987
0.03895759 0.5557055 -0.30782396 0.63685817 1.4028372 -0.051096346 -0.13667253 0.5267364
0.7956424 0.04943376 0.30081195 -0.71542674 -0.08382763 -0.22381115 -0.2862695 0.28737617
0.13452241 0.28711236 0.124830596 -0.5318835 0.09603514 0.12247466 -0.16085945 -0.79950595
0.16672696 0.26410484 0.25006354 0.5105765 -0.08334989 -0.57263213 -0.46293327 0.31065136
0.21563658 -0.16055849 0.25484872 0.6184261 -0.1191518 0.39704832 -1.1557238 -0.34858057
-0.0024811884 0.54642534 -0.984827 -0.38592446 -0.97293204 -0.41973725 0.13542399 2.1156178
-0.55857736 0.32632124 1.4198238 0.23828572 -2.3453166 0.17306957 0.0647577 -0.8794739
-0.08065017 0.22943735 -0.004144634 -0.30028313 -0.008546176 0.5528762 0.0032619613 -0.28681186
-0.7921083 -0.6064645 0.09208325 0.18839031 -0.8016363 0.258263 -0.77892756 0.32458287
-0.48301536 -1.8873446 -0.14955102 0.0077074124 0.12634206 0.08947386 -0.1151533 -0.35956234
0.7306946 0.19438946 0.44922668 0.10529849 -0.97206116 0.18286765 0.7735224 -0.58419967
0.40997788 0.6002222 -0.13418391 -0.035779867 0.14370272 0.11372733 0.3783893 1.1287668
1.3027151 0.31031254 0.6243801 -0.0017302668 0.33318326 0.080219686 0.0827931 0.5658065
-0.4222428 -0.13074146 -0.91809815 -0.5562898 -0.3659965 0.3558737 0.48676178 0.67584836
0.19795263 -0.6582864 -0.82989156 -0.64202386 0.23170158 0.3571626 -0.12060627 0.51594734
-0.88606244 -0.7913274 0.7397031 2.4412556 0.8746638 1.5331111 0.24163875 0.98760104
-1.0609752 -0.22043458 -0.17149359 0.647864 0.56091225 3.1509838 -1.4849238 -5.526167
-0.4261817 1.8666271 0.5283262 -0.1728971 -0.6800577 0.41638473 -0.5007699 -0.81193787
0.16977227 -0.13351998 -1.9568745 -0.7517789 0.8118974 0.44269902 0.42033085 0.57089835
0.4649141 -1.7323612 -0.5407918 -0.6341723 -0.65424013 -0.8938312 -0.45289308 0.21006334
0.1976384 0.28084302 0.19986136 0.23527057 0.044641174 -0.2287563 -0.06389409 0.45758817
-0.21733369 -0.31020048 1.0713742 0.50066024 -1.0337579 -0.1026168 -0.060170837 0.5058986
0.3164364 -0.21730639 -0.27007368 0.29908955 -2.0144172 -1.1334156 -0.19331343 0.5414046
1.4927199 -0.27532312 0.042712186 0.34741688 -0.47091144 0.4702339 -1.7780538 -1.5498652
-0.16987865 0.34926853 0.02074127 0.058494154 0.6178732 0.007407216 -1.0461811 1.6370524
-0.5917639 -0.08782149 1.3626069 0.4619929 -2.026992 0.5700361 0.5123801 -0.09121327
-0.049909674 0.9522942 -0.45156533 -0.26549062 -0.72989035 0.7567043 -0.786012 0.12033774
0.8481069 0.6505298 -0.8196491 0.86654925 0.519936 0.18901865 -1.6050836 -0.67172235
00000000: 57a1 153f 73f3 1f3f 5255 883d 9252 62be
00000010: 60f8 74bd 1374 bc3b b0df 0e3d 234c b83e
00000020: 9982 04bd 6c41 fa3e 6a13 87be 6abc 1ebe
00000030: 5bba 0c3f 8509 2abe 2ba9 86be 4d18 e2bc
00000040: b437 b0bd 9326 c5bd da5f 2b3f a606 a43d
00000050: b7e7 9e3f be2b 54be c215 073f 04ab 5bbe
00000060: f98b debd 121c c5be 091d d6be ad67 9c3f
00000070: 2ae7 213f c3ba 94bc 8a99 a1bc f72a c73f
00000080: fe91 1f3d b742 0e3f 1a9b 9dbe 2309 233f
00000090: 2b90 b33f 674a 51bd e2f3 0bbe 32d8 063f
000000a0: 38af 4b3f 0e7b 4a3d 0604 9a3e 3526 37bf
000000b0: d2ad abbd c02e 65be ea91 92be f822 933e
000000c0: 3ec0 093e 6400 933e 2fa7 ff3d 8429 08bf
000000d0: 12ae c43d ffd3 fa3d 57b8 24be 6cac 4cbf
000000e0: 79ba 2a3e c038 873e 5408 803e 24b5 023f
000000f0: 59b3 aabd 0598 12bf 9705 edbe b20d 9f3e
00000100: d6cf 5c3e 7269 24be 887b 823e 2c51 1e3f
00000110: dc05 f4bd eb49 cb3e c2ee 93bf 2779 b2be
00000120: 6f9b 22bb 88e2 0b3f 9f1d 7cbf e497 c5be
00000130: 1312 79bf cde7 d6be 96ac 0a3e 4866 0740
00000140: edfe 0ebf 9413 a73e c9bc b53f 2c01 743e
00000150: ab19 16c0 2639 313e af9f 843d 3425 61bf
00000160: eb2b a5bd a0f1 6a3e b6cf 87bb b6be 99be
00000170: 4305 0cbc 4b89 0d3f a1c6 553b 01d9 92be
00000180: 9cc7 4abf 4241 1bbf 2596 bc3d 64e9 403e
00000190: 0938 4dbf 0c3b 843e cc67 47bf ba2f a63e
000001a0: ca4d f7be 8294 f1bf e723 19be 768e fc3b
000001b0: d05f 013e 123e b73d 7ed5 ebbd 8e18 b8be
000001c0: cd0e 3b3f 080e 473e 0a01 e63e bca6 d73d
000001d0: 00d9 78bf a841 3b3e 9005 463f 1c8e 15bf
000001e0: 9fe8 d13e 29a8 193f 8267 09be e98d 12bd
000001f0: ce26 133e e0e9 e83d 3ebc c13e 6e7b 903f
00000200: 5ebf a63f 49e1 9e3e 60d7 1f3f 1fca e2ba
00000210: ff96 aa3e 384a a43d 6e8f a93d b2d8 103f
00000220: 3530 d8be 17e1 05be 7b08 6bbf 0269 0ebf
00000230: e563 bbbe 1435 b63e d738 f93e 6604 2d3f
00000240: 18b4 4a3e 7585 28bf c673 54bf ad5b 24bf
00000250: 2e43 6d3e 04de b63e 6c00 f7bd 2015 043f
00000260: fdd4 62bf 6f94 4abf 2f5d 3d3f 883d 1c40
00000270: f7e9 5f3f fc3c c43f 2670 773e 6cd3 7c3f
00000280: 09ce 87bf 9ab9 61be 049c 2fbe 6ada 253f
00000290: f297 0f3f b8a9 4940 fc11 bebf 5cd6 b0c0
000002a0: 7d34 dabe a3ed ee3f 6340 073f f00b 31be
000002b0: 4318 2ebf 6130 d53e 7532 00bf 29db 4fbf
000002c0: c8d8 2d3e 76b9 08be dd7a fabf 9574 40bf
000002d0: 82d8 4f3f 72a9 e23e 9b35 d73e 6526 123f
000002e0: 3909 ee3e 03be ddbf 5571 0abf 1e59 22bf
000002f0: 487c 27bf 1fd2 64bf 9ae1 e7be d81a 573e
00000300: b961 4a3e a8ca 8f3e 75a8 4c3e c5ea 703e
00000310: aad9 363d 173f 6abe e8da 82bd ff48 ea3e
00000320: b98c 5ebe 99d2 9ebe ca22 893f 452b 003f
00000330: 2e52 84bf c228 d2bd b275 76bd 9282 013f
00000340: f403 a23e 9185 5ebe 1947 8abe 4422 993e
00000350: 36ec 00c0 c313 91bf f5f3 45be 7e99 0a3f
00000360: 7211 bf3f 27f7 8cbe f9f2 2e3d a0e0 b13e
00000370: 4e1b f1be 7fc2 f03e 4497 e3bf fc61 c6bf
00000380: abf4 2dbe 53d3 b23e 99e9 a93c 9197 6f3d
00000390: f02c 1e3f 3bb8 f23b 43e9 85bf ef8a d13f
000003a0: d77d 17bf c1db b3bd e769 ae3f 558a ec3e
000003b0: 3dba 01c0 e3ed 113f 582b 033f 06ce babd
000003c0: 166e 4cbd 8dc9 733f 9233 e7be 63ee 87be
000003d0: 18da 3abf 5fb7 413f 1538 49bf a273 f63d
000003e0: 891d 593f 1f89 263f 86d4 51bf 2cd6 5d3f
000003f0: 871a 053f 1b8e 413e 6173 cdbf fff5 2bbf

bias f4 [18]
-1.116699 -0.10113956 0.86218494 -0.5118968 0.045268852 0.45421696 0.33919993 -1.4050351
-0.5940293 0.5083257 -0.29950616 -1.0862765 -1.7098734 0.13776591 1.5889045 -0.16510716
0.93525773 -0.29832977
00000000: feef 8ebf 4222 cfbd 27b8 5c3f ab0b 03bf
00000010: d56b 393d 208f e83e 9dab ad3e 31d8 b3bf
00000020: 4e12 18bf a221 023f df58 99be 1c0b 8bbf
00000030: 22dd dabf 8212 0d3e 3961 cb3f da11 29be
00000040: 0d6d 6f3f aebe 98be
