2WL_link_pred/checkpoint/20221214_100_20/2WL_dict_100_20_5.pt (torch, 91244 bytes, 16 tensors)

weight f4 [48, 3]
000000 1f 8e 72 3e d1 92 6d bf 78 88 22 3e 1f 19 bf bd
       0.23687027 -0.9280215 0.15872371 -0.09330963
000010 58 0b f9 3e 78 b7 2d be 14 a2 ce bd c8 bc 07 3f
       0.48641467 -0.16964519 -0.10089508 0.5302243
000020 7a 1a 08 be dd e8 bf bd 88 d1 2c 3f 61 9c d2 3b
       -0.1329135 -0.09370587 0.6750722 0.006427333
000030 34 49 83 3d b3 85 19 3f b0 96 57 be 2f b2 1c 3d
       0.06410447 0.59969634 -0.21053576 0.038255867
000040 e3 fc dc 40 9b 6d 58 bd 75 36 b9 3f d3 d6 a4 be
       6.90587 -0.052838903 1.4469744 -0.32195148
000050 5e 94 f5 3f 1c 62 6f 3f 15 ba b7 bd 95 93 18 3f
       1.9185903 0.9350908 -0.08971039 0.5960019
000060 15 56 9e c0 cd e5 2a 3e 24 2f 11 3e 8a 03 9f bd
       -4.948008 0.16689225 0.14178139 -0.07764347
000070 26 36 8c 3e f0 63 02 be 6d 5b cc bd fb 6b 01 3f
       0.27385062 -0.12733436 -0.099783756 0.5055539
000080 90 a7 a9 bd dd 4d 6d bf 9b 28 0d 3e 89 85 40 be
       -0.08283913 -0.92696935 0.13785021 -0.1880094
000090 0b c0 30 3f 83 d2 4a be 88 b3 2f 3f 7a 7f 86 3e
       0.69043034 -0.19806866 0.6863332 0.26269132
0000a0 f7 69 6c bf 66 a4 a3 3d 61 9d c4 bd 6a bb 3f bc
       -0.9234919 0.07990341 -0.0960033 -0.011702398
0000b0 85 6c ef bd e6 26 2d 3e af 85 6f c0 2d ac 03 c0
       -0.1169062 0.1690937 -3.7425344 -2.0573838
0000c0 48 22 64 3f 47 f5 a1 be 8c d8 0b 3f f7 6e 57 3f
       0.8911481 -0.31632444 0.546273 0.84153694
0000d0 ef 22 32 be 3b 22 eb 3e 5c f2 e4 be 05 3a c8 bc
       -0.17396139 0.45924553 -0.44716156 -0.024441728
0000e0 fa 83 8a be 86 4f cc be a9 10 87 3e 3b 2f 48 bd
       -0.27053815 -0.39904422 0.26379898 -0.048873167
0000f0 bb b9 90 bd cc 54 97 3d 5e 07 b1 bd 0b 3d 70 3e
       -0.07066675 0.073892206 -0.08643983 0.23460786
000100 5d f8 1e bc 9f e6 4d 3e 70 da 0f 3f 3a e0 4c be
       -0.009702769 0.20107506 0.56192684 -0.2000741
000110 d1 c2 e9 3e 81 f6 89 be 25 f9 26 3f 35 17 32 be
       0.45656446 -0.2694588 0.65223914 -0.17391665
000120 f8 1d 93 c0 45 be ae c0 fe 9f a8 3b 5f 73 2f 3f
       -4.5974083 -5.4607263 0.0051460257 0.6853542
000130 ae ce 39 be 0b a8 ed 3e 45 95 c3 bd ef 3b 38 3f
       -0.18145248 0.4641727 -0.09549955 0.7196645
000140 df 07 f9 bd 84 34 cb 3c dc 67 12 3f cf e5 fc 3b
       -0.121597044 0.024805315 0.57189727 0.007717825
000150 46 92 70 3e 2c a7 ab bf 25 50 ab 3d 06 20 87 3f
       0.23493299 -1.3410392 0.08364896 1.0556648
000160 0c d4 88 bd 72 b7 44 3f 58 17 95 3d 38 61 77 3f
       -0.0668107 0.76842415 0.07279843 0.9663272
000170 bb 3e 82 bd e5 0b 43 3f 4e 6d ce bd a7 2d 06 3f
       -0.06359621 0.76190025 -0.10079442 0.5241341
000180 ad c6 4a bf a5 2b d2 3d eb 8d 50 be 72 99 41 3e
       -0.79209405 0.10262231 -0.20366637 0.18906191
000190 f2 c9 83 bf 6e d5 40 3e ec 29 c6 40 8d cc 06 be
       -1.0296004 0.18831417 6.1926174 -0.13163967
0001a0 ed df 89 bc ed cc f8 3c b2 27 62 3f ab bb 26 be
       -0.016830409 0.030371154 0.8834182 -0.16282527
0001b0 72 53 77 bf df 2e 8a 3d da f9 d1 be 98 45 56 3e
       -0.966117 0.06747221 -0.41010934 0.20924985
0001c0 59 50 79 bf b0 af ee 3d 74 96 e0 bd c8 25 b9 40
       -0.97388226 0.116546035 -0.10966197 5.785862
0001d0 a4 5d a9 bd f1 ac 44 3e 29 e4 61 bf 87 25 09 3e
       -0.08269814 0.19206597 -0.8823877 0.13393222
0001e0 e8 bd 41 3e 9d f2 75 3e 45 31 9a c0 42 8a 4b 3e
       0.189201 0.24018331 -4.8185143 0.1987696
0001f0 8f e9 56 bf 6a 6a 75 3d 3a 63 a4 3e 16 7a 60 be
       -0.8395013 0.059915937 0.32106954 -0.21921572
000200 06 4f 10 3e ad b0 70 3f 80 ac d3 be 8d 05 9b 3f
       0.14092645 0.94019586 -0.41342545 1.2111069
000210 15 58 40 bf 85 e2 89 3e e4 df 9a be 64 35 4f bd
       -0.751344 0.26930633 -0.3024894 -0.050588027
000220 7d e6 0a 3f 32 0b 13 be 15 4b 59 3f 13 f8 79 be
       0.5425795 -0.1435974 0.8488019 -0.24411039
000230 cb 46 2f 3f c0 e7 7d 3e f0 ec 22 3e 64 53 0d 3e
       0.68467396 0.24795437 0.15910697 0.13801342

bias f4 [48]
000000 05 05 88 be 6a 07 a1 3e 1b 87 a0 3e 71 ba 92 3e
       -0.2656633 0.3145097 0.31353077 0.28657869
000010 ee d4 82 3e fb 77 94 bc e8 ed 22 be 33 b4 06 bb
       0.25553077 -0.018123617 -0.15911067 -0.0020554184
000020 ac 96 0b c0 33 33 cc 3e ee 99 9c 3e f2 87 cf 3d
       -2.1810713 0.39882812 0.3058619 0.101333514
000030 44 98 fd bc b9 e6 a5 be 82 ce 23 40 92 ce 1b 3d
       -0.030956395 -0.3240259 2.5594792 0.038038798
000040 42 86 b0 bd b1 50 62 bd ec 36 e0 3f cb 2d c2 bd
       -0.08619358 -0.055252735 1.7516761 -0.094813906
000050 40 46 11 40 e7 2d 0b c0 89 24 3c 3d 4c eb 4b 3e
       2.2699127 -2.1746767 0.04593328 0.19913977
000060 1a 56 60 3d 11 a8 d8 bc 1b ec b2 3e 8b 02 e8 3e
       0.054769613 -0.026447328 0.3494576 0.4531444
000070 2c d6 9d be 81 bf 6e bc 83 49 3c 3e 05 8a 82 bd
       -0.30827463 -0.014572025 0.18387417 -0.063739814
000080 f3 16 75 3d 39 33 b2 be b2 17 0d be 8f 2b 9f 3e
       0.05983634 -0.34804705 -0.1377857 0.3108792
000090 d0 b3 9b 3d fe fe b6 be 6e 1c 56 bd 1f 9d fb be
       0.07602656 -0.3574142 -0.052273206 -0.4914331
0000a0 ba 2d a1 3d ba 6c a8 be f1 10 5c be d5 1c 93 bd
       0.0787005 -0.32895452 -0.21490838 -0.07183234
0000b0 01 83 01 3d 4b 8d 73 3e 91 5c 9f 3c 02 ab 1b c0
       0.031619076 0.23784368 0.019453319 -2.4323125

weight f4 [5, 48]
000000 bc 14 cc 3f ff a0 e8 be 9d c7 df be d4 fc ea 3e
       1.5943828 -0.4543533 -0.4370698 0.45896018
000010 bc 63 21 c0 ec 38 23 3f 15 86 64 be 55 b8 dd bf
       -2.5217123 0.6375873 -0.22316773 -1.7321879
000020 08 40 21 3f 45 d8 e4 bf a0 a0 1d 3f ec 84 f0 be
       0.6298833 -1.78785 0.6157322 -0.4697641
000030 fc 0d 2f 3e cd 9e c8 bf 01 79 e6 be 67 b2 05 bf
       0.17095178 -1.5673462 -0.45014194 -0.52225345
000040 37 ca 1b 3f 82 0c 63 3e ae f7 af 3f 92 26 ad 3e
       0.6085543 0.2217274 1.3747461 0.3381849
000050 0a 5f 66 3e 45 ba 64 3f fd 6a c5 3e 61 78 55 3f
       0.22497192 0.89346725 0.38558188 0.8338681
000060 aa 86 7e 3f 99 21 d2 3f ba 2f e0 3e c7 1c 7d 3e
       0.9942423 1.6416503 0.43786412 0.24718009
000070 87 0f 95 bc 1b c4 4d bf 92 09 d2 bf 9a d8 ef 3e
       -0.01819588 -0.8037736 -1.6409171 0.4684494
000080 8b 43 54 bf 16 58 96 3f ce 42 b2 3e 81 11 1d be
       -0.8291556 1.1745632 0.34816593 -0.15338708
000090 88 b2 90 bf f5 85 19 c0 21 6a 37 bf be e3 fb bf
       -1.1304483 -2.398801 -0.71646315 -1.9678876
0000a0 95 44 17 bf 29 3b dc 3e 3b c5 a9 3f fc 98 42 bf
       -0.5908902 0.43013886 1.3263315 -0.76014686
0000b0 d5 95 76 bf 10 3f ba be 23 f9 b6 bf 5d cd e8 be
       -0.96322376 -0.36376238 -1.429478 -0.4546918
0000c0 ed e7 a4 bf b3 53 7c bf 86 5e 46 bf 45 a0 5b 3f
       -1.2883278 -0.98565215 -0.7748798 0.85791427
0000d0 c6 d0 e2 bf 13 1b a3 3f ac 65 6c 3f 37 8e 01 40
       -1.7719963 1.2742637 0.9234264 2.024305
0000e0 47 40 1f be df 58 48 bf f5 6a 1c 3f ca 07 1a 3f
       -0.15551864 -0.78260607 0.61100703 0.60168135
0000f0 0f d1 6c 3f fd 0c 89 3e 24 14 80 3f ca 67 44 bf
       0.925065 0.26767722 1.0006146 -0.7672087
000100 6f 3b 01 3f c5 14 89 bf 13 4f 66 3f a4 2b c2 3e
       0.50481313 -1.0709463 0.8996441 0.3792392
000110 27 36 e4 3f cc 40 28 c0 f4 de 48 bf 43 a9 ad bf
       1.7829026 -2.628955 -0.784652 -1.356728
000120 0e 39 da bd 62 52 8e 3f c1 e3 34 bf 0a 85 97 3f
       -0.106554136 1.1118891 -0.70660025 1.1837475
000130 61 80 a7 3e f4 99 7d bf 72 97 58 be 47 a5 ca be
       0.32715133 -0.9906304 -0.21151522 -0.39579222
000140 29 29 9b bf 1e f9 89 3e 69 b6 a6 3e 46 b4 1c bf
       -1.2121936 0.26947874 0.32561043 -0.61212575
000150 e9 29 5b bf ac 30 bd bf 9a 1c 08 3e 1b e9 98 bd
       -0.85610825 -1.4780478 0.1329216 -0.07466336
000160 a8 a9 22 bf c8 65 a8 be 2d 6d f7 3e 9d b9 0c 3e
       -0.63540125 -0.32890153 0.48325482 0.13742681
000170 d1 46 1e bf 20 6f 33 bf e6 0a 02 bf 72 b7 e6 bd
       -0.6182681 -0.7009144 -0.5079788 -0.11265458
000180 be 7e 02 40 e8 14 77 be 3e f8 94 bf f5 f2 de 3e
       2.0389857 -0.24129069 -1.1638258 0.43544737
000190 a0 35 14 3e f9 13 57 3b 03 c4 3f bf 2c ca 9a 3f
       0.14473581 0.00328183 -0.74908465 1.2092948
0001a0 5c 38 7c 3e 16 6f 05 3f 0d 77 fd 3e 7e a5 1b bf
       0.24630874 0.5212263 0.4950489 -0.60799396
0001b0 d9 60 01 40 ad 53 ba bf 9a b4 1f bf f3 eb 8a bf
       2.021536 -1.4556786 -0.6238495 -1.0853256
0001c0 cc 1a 80 bf a3 9d 24 3f 52 5f 9a 3f 9e 33 b0 be
       -1.0008178 0.64303035 1.206034 -0.3441438
0001d0 c7 9f 6a be 45 75 99 be bd 00 28 3d eb 85 94 3f
       -0.22912513 -0.29972282 0.04101633 1.1603369
0001e0 6f 01 24 40 fc 2a a1 3e 69 af d6 3f da f0 e1 3b
       2.5625875 0.31478107 1.6772281 0.006895167
0001f0 e2 09 20 3f c4 df b7 bf 13 f7 7a bf 7a 5b a0 3f
       0.6251508 -1.4365163 -0.98033255 1.2527916
000200 66 74 3c 3f de f5 cf 3e c9 92 c9 bd 02 2b e4 be
       0.7361511 0.4061727 -0.0984245 -0.44564062
000210 4b b0 6e 3f f2 b0 0b bf 24 10 3d bf 17 a2 df 3e
       0.9323775 -0.5456687 -0.73852754 0.43678352
000220 50 19 dc 3f ac 07 ac 3f 94 f7 5b bf 68 9f 21 c0
       1.7195225 1.3439841 -0.8592465 -2.5253544
000230 bc ac f6 3f dc d7 2a bf 79 6c b7 be 3a 82 ba bf
       1.9271464 -0.66735625 -0.35824946 -1.4570992
000240 0d ef 60 3e 0c fe 8b bf 80 8c 40 3e 81 c2 48 bf
       0.2196619 -1.0936904 0.18803596 -0.7842179
000250 01 3d b2 be e1 94 4e bf 59 58 dd 3d 14 a8 53 3d
       -0.34812167 -0.8069592 0.108078666 0.051673964
000260 0a 93 e1 be 84 a5 07 bf 00 38 ad 3e cf 3f 55 bf
       -0.44057494 -0.5298693 0.33831787 -0.8330049
000270 83 cd a7 3f 69 05 09 bf b3 72 ae 3f 1e 19 4b be
       1.3109592 -0.5352388 1.3628753 -0.198338
000280 9a a3 2d bf 1f 19 c6 3e 4f 33 14 3f c4 0c 5d 3f
       -0.6782776 0.3869104 0.5789079 0.86347604
000290 f0 77 76 3e d3 fc 1d be 42 72 7b 3f d9 06 e6 be
       0.2406919 -0.15428476 0.9822122 -0.449271
0002a0 c1 7f 89 3f 73 24 42 bf cd 2b 08 c0 95 60 9c bf
       1.0742112 -0.7583687 -2.1276734 -1.2216974
0002b0 bb 36 22 bf ac cc 3b 3f 29 83 83 3f e4 82 1b bf
       -0.6336476 0.7335918 1.0274402 -0.607466
0002c0 85 ed 69 3e 6f ed 8a bf d7 a7 04 3f 5b a8 cb 3f
       0.22844513 -1.0853709 0.51818603 1.5910753
0002d0 26 f6 24 bf 55 1e fa 3e 84 97 1f 40 4b 53 3d 3f
       -0.6443809 0.48851267 2.4936228 0.7395522
0002e0 98 6b ba 3f 42 8c d8 3d 34 63 6f 3f 3b 2d 6f 3d
       1.4564085 0.10573627 0.93510747 0.058392745
0002f0 38 0c 27 3d cf 44 ea be 84 83 f3 bd ad 4a 54 3e
       0.040783137 -0.45755622 -0.11890319 0.20731612
000300 33 67 56 3e ac 83 31 bf 38 9f a8 3f 4f 07 87 bf
       0.20937805 -0.6934154 1.317359 -1.0549105
000310 c5 f2 e2 bf 5f 77 b9 3d 5f 25 a9 3f 1c af 04 bf
       -1.7730337 0.09055971 1.321453 -0.51829696
000320 37 82 96 3e 16 24 db 3f 65 a0 9b 3e b3 c1 6b bf
       0.2939622 1.7120388 0.3039581 -0.92092437
000330 3f ed 9b 3d ba ca 81 3f 9b fa 2e c0 58 f0 d7 3f
       0.076136105 1.0139992 -2.7340457 1.6870222
000340 f3 18 57 3e 60 9d d9 3e 15 fe ba be 40 e7 a6 bd
       0.21005611 0.4250288 -0.36521974 -0.08149576
000350 dc 63 dd 3f b4 ed d0 bf c4 39 b3 bf 3e 8e 8c 3f
       1.72961 -1.6322541 -1.4002004 1.0980909
000360 50 52 39 be e0 02 39 bd 93 ec f1 be f2 e4 76 be
       -0.18097806 -0.045168757 -0.47250804 -0.24110773
000370 b0 48 da be 3a b6 9e bd 75 2d cb 3e 90 73 17 bd
       -0.4263358 -0.07749601 0.39683118 -0.036975443
000380 03 f1 d9 3f 81 bd 8d 3f f2 38 f9 be 3c 9d 3f bf
       1.7026676 1.1073457 -0.48676258 -0.74849296
000390 cc a5 3b bf 89 17 84 bf f0 98 82 3e a6 e4 84 3e
       -0.7329986 -1.0319682 0.25507307 0.25955695
0003a0 fc cc 94 bf 2c 41 0c 40 3d 7c bc be 9a 4e b0 3f
       -1.1625056 2.1914778 -0.36813536 1.3773987
0003b0 b4 36 a2 bf a4 61 01 40 8b fc b3 3f dd e5 56 3d
       -1.2672944 2.0215845 1.4061445 0.05246531

weight f4 [48, 48]
000000 d2 40 b3 bf 68 70 c2 be 77 7a c9 3e 9a db a1 3d
       -1.4004157 -0.37976384 0.39351246 0.07903214
000010 10 db b2 3d 32 59 6f be c2 92 ad 3c 29 2c 3d bf
       0.08733189 -0.23373869 0.021188144 -0.7389551
000020 c0 4e 81 40 05 53 37 3f f1 eb 26 3f a8 0a f6 3f
       4.040863 0.7161105 0.6520377 1.9222002
000030 a4 4c a4 bf 25 d2 00 bf 69 eb 3d 3e a9 7e 88 3e
       -1.2835889 -0.50320655 0.18546833 0.26659134
000040 84 1f 6f bf 8a d7 a8 3e f2 5e 49 bf e3 8a 21 3f
       -0.93407464 0.32976943 -0.786605 0.6310255
000050 86 b8 a8 c0 4e 00 a1 40 97 57 61 be e2 9d 9b 3e
       -5.272525 5.031287 -0.22006069 0.30393893
000060 e8 05 9e 40 2a cf 66 3e f4 a7 0d 3e f8 09 01 3f
       4.938221 0.22539964 0.138336 0.50405836
000070 3a 57 6b 3e d6 55 6f bf bc 3e 04 3f 96 b0 91 be
       0.22982493 -0.9349035 0.51658225 -0.28455037
000080 ec 96 d0 3f 27 ab 88 bf 0e df 89 3f 8a 1e 53 3e
       1.6296058 -1.0677232 1.0771196 0.20617118
000090 3f 07 a7 3e bd 17 03 bf c9 d3 cc bf fe a8 93 be
       0.32622716 -0.51208097 -1.6002132 -0.28839868
0000a0 ba 41 55 bf 4f 51 cc 3d 37 00 12 3e 0b 09 9e c0
       -0.83303416 0.09976446 0.14257894 -4.938604
0000b0 c4 bb 3c 3f 33 bb d5 3e d3 fd 28 c0 d0 52 54 be
       0.7372401 0.41744384 -2.6404922 -0.20734715
0000c0 04 9d 48 3f c1 04 d1 bf 1b c6 15 c0 a5 e7 24 c0
       0.78364587 -1.6329576 -2.3402164 -2.5766385
0000d0 4b 1e c3 bc b8 0e 8c be f3 de 7c bf 3c 29 4c 3f
       -0.023818156 -0.2735498 -0.98777694 0.7975042
0000e0 11 c7 9c bd 68 a2 0a c0 ff 6a 1d c0 8e 8a d6 be
       -0.076551564 -2.1661625 -2.4596555 -0.41902584
0000f0 c5 d4 ae 3c 6c 9d c0 3f e5 46 e0 be b8 99 ef 3f
       0.02134169 1.5048041 -0.43804088 1.8718786
000100 de a4 b6 3d f8 40 fb 3e 84 dc ac bf 90 68 bc bf
       0.08918165 0.49073005 -1.3504796 -1.471941
000110 0e 6c b0 3d f8 5e 4a bf b9 3e d4 be 86 b2 02 c0
       0.0861436 -0.7905116 -0.41454104 -2.0421462
000120 e4 a2 1e 41 6a 06 06 3e 7a fe 52 c0 4a 1b a8 bf
       9.914768 0.13088384 -3.296782 -1.3133328
000130 e3 8f a4 3f 0c 9d 50 bf 88 98 90 bf cc 45 35 bf
       1.2856411 -0.81489635 -1.1296549 -0.70809627
000140 cf d9 88 bf e7 88 31 40 f0 0f 09 40 8d 80 8e bf
       -1.069147 2.7739809 2.1415977 -1.113298
000150 2a 23 02 bf 6d 20 4e 3f 8e aa f1 3f 60 33 28 3f
       -0.50834906 0.8051823 1.8880174 0.6570339
000160 97 34 47 be f4 57 84 3f 93 ec 67 3f 59 98 ca bf
       -0.19453655 1.0339341 0.9059536 -1.5827743
000170 08 5e d6 bd b0 9d 53 bf 2b 72 d9 bf 59 8f a8 bf
       -0.10467154 -0.8266249 -1.6987966 -1.3168746
000180 19 3d 28 3d bf b8 f0 be fb e2 57 3e 65 95 1e 3f
       0.041073892 -0.4701595 0.2108268 0.6194671
000190 02 bf da be 79 de f1 bf 4b 36 67 be 98 0b 55 bf
       -0.42723852 -1.8896018 -0.22579305 -0.83220816
0001a0 52 00 7c 40 bd af 1c be 7e cb 3b bf 27 5b 03 bf
       3.9375196 -0.15301414 -0.7335738 -0.5131096
0001b0 53 8f f9 be 48 c6 c4 be 13 97 44 c0 b0 6e dd 3e
       -0.4874216 -0.38432527 -3.0717208 0.4324851
0001c0 35 f1 6e bf 50 05 59 bf bd fb ee be e7 f2 94 be
       -0.933368 -0.8477373 -0.46676436 -0.2909157
0001d0 6b 6b 88 3d 1e 9c 56 40 08 66 54 bf f1 74 ec 3e
       0.06661113 3.3532786 -0.8296819 0.4618297
0001e0 f5 26 8b 40 7e 41 b2 be 08 4c dc be 86 a4 2c bf
       4.3485055 -0.34815592 -0.43026757 -0.6743854
0001f0 5d 6a 46 bd 24 f8 5a 3e 03 ea 65 be 9f 35 5d bd
       -0.04844128 0.2138372 -0.2245255 -0.054006215
000200 60 ec 75 3f b2 5a 8f 3f b9 f5 61 c0 ef ca 31 be
       0.96063805 1.1199553 -3.5306227 -0.1736257
000210 99 30 01 3f 96 ce 51 3f 99 0b 20 c0 82 c6 3a 3f
       0.5046478 0.8195585 -2.5007079 0.7295915
000220 ed f7 29 40 70 e7 21 3f 35 7c 07 bc bc 57 9b be
       2.6557572 0.6324377 -0.008269359 -0.30340374
000230 17 d7 55 3f 38 89 8c bf 0b cd 1f bf e4 1d 0d 40
       0.83531326 -1.0979376 -0.62422246 2.2049494
000240 11 22 4e bf 87 6c 50 3f 54 0b e9 3e ff 32 42 3f
       -0.8052073 0.814156 0.45516455 0.75859064
000250 06 05 2e 3f 73 22 24 be 04 b6 94 3f 28 33 c6 3e
       0.67976415 -0.16028766 1.1618047 0.38710904
000260 f8 16 8a be cc 62 97 3f c6 30 a0 3f 3e 4a 26 bf
       -0.2697065 1.1827025 1.2514884 -0.64957035
000270 8c 00 d9 3e df 50 84 bf 16 a2 1b c1 7a ff b5 be
       0.4238323 -1.033718 -9.727072 -0.35546476
000280 f5 26 e3 3e 9b 25 29 3f 6f d2 8c bd 2f 6f 87 bf
       0.4436566 0.66073006 -0.068760745 -1.0580806
000290 a2 d6 99 3e 7d 65 a7 be 2c 8c d2 3e b2 ab dc 3d
       0.30046564 -0.32694617 0.41122568 0.10774936
0002a0 64 ed d7 3b 76 0c d0 3c 5e bf c4 3f 06 3a 9d 3f
       0.0065895785 0.025396567 1.5370901 1.2283332
0002b0 3d cc 8d bf 60 ab c5 3e 1d c6 47 3f bd 4a 23 3f
       -1.1077954 0.3860731 0.7803667 0.63785917
0002c0 bb 10 d6 3d 57 4a 88 bf 85 97 4e 3e 50 b5 c7 3f
       0.1045241 -1.0647687 0.20174988 1.5602207
0002d0 c9 a7 cc 3c 40 e7 fa be 4c 4f fd c0 9a c2 32 bf
       0.02498235 -0.49004555 -7.91593 -0.6982819
0002e0 60 48 c8 3d 56 02 be bf 49 a9 21 be 0d 36 d4 3e
       0.097794294 -1.4844463 -0.15787233 0.41447487
0002f0 d7 e5 4d be 1d c0 37 3f 91 58 23 3f b0 6d 0b be
       -0.20107208 0.71777517 0.63807017 -0.13616061
000300 53 f9 9d 3f 4c 89 9d bf 8a bc f6 be 92 c0 2f bf
       1.2341713 -1.2307525 -0.4819072 -0.68653214
000310 9f c8 0b bf 0c 7b fc bf db a0 d1 bf 03 b2 42 c0
       -0.54603 -1.9725051 -1.6377214 -3.042115
000320 3c 72 3c 40 0b a3 06 bf 2b 80 11 c0 21 9c b6 3f
       2.9444723 -0.52592534 -2.2734478 1.4266397
000330 6c 27 be bf 5d 3e 54 3f ec f8 6e be f7 ce 3b 3e
       -1.4855781 0.8290766 -0.23337144 0.1834067
000340 08 06 ef 3d 98 b8 d0 bf 44 96 44 3e 72 ce 22 40
       0.11671072 -1.6306334 0.19197947 2.5438504
000350 ad 90 03 bf 2f 09 3c 3f 96 ab 47 c0 75 38 0a bf
       -0.5139263 0.73451513 -3.1198478 -0.53992397
000360 c6 a4 25 40 9b b5 62 bf 35 74 7c bf bf 6a 1e bf
       2.588182 -0.8855836 -0.9861482 -0.6188163
000370 d3 e1 c3 3e 21 b8 58 bf 84 d5 df 3d aa 42 b2 bf
       0.38258228 -0.8465596 0.10929397 -1.3926594
000380 8f bd c1 3f 17 08 7c 3f d0 fe 14 3e 84 f9 ff 3d
       1.5135974 0.98449844 0.14550328 0.12498763
000390 d5 d4 ad 3d d6 13 3f 3f e5 73 c4 3d 79 33 b1 3f
       0.0848786 0.7463964 0.09592418 1.3843833
0003a0 6b ba b3 3f 9d 60 32 3e 34 7e 9c 3f 3e a4 5f c0
       1.4041265 0.17419668 1.2226014 -3.4943995
0003b0 d0 15 fa 3e 5d b9 a5 be 37 3b fe bf 75 19 df 3f
       0.48844767 -0.32367983 -1.9861821 1.7429644
0003c0 c6 c0 88 be ba a9 a2 3e c7 d7 96 3d ee 12 6c 3e
       -0.26709574 0.31770116 0.07365375 0.23054096
0003d0 5c 10 cb 3e b2 d8 10 3e da 33 56 3e 9e ca 15 3e
       0.3966092 0.14145163 0.20918217 0.14628074
0003e0 68 b9 ee bc d4 d7 5e 3e d9 6a e6 3e 5f 39 a4 bd
       -0.029141143 0.2176202 0.45003393 -0.08018755
0003f0 9d 50 3d 3e 6d dc 91 be 29 87 96 3d 43 f0 ac bd
       0.18487783 -0.28488484 0.073499985 -0.08444264

bias f4 [48]
000000 7b 58 23 40 47 ed 99 3f 11 c1 c1 40 c0 f0 15 40
       2.5522754 1.2025536 6.0548177 2.3428192
000010 80 2f 98 3f a5 de 65 40 9c 3f 10 40 7c 0d 4b 40
       1.1889496 3.5917141 2.2538824 3.172698
000020 e0 a9 63 40 f0 9d a0 40 cc 02 a4 3f db 47 9c 3f
       3.5572433 5.0192795 1.2813354 1.2209429
000030 64 3a 9b 40 02 b0 95 3f 64 20 32 3f ca fe a0 40
       4.850878 1.1694338 0.69580674 5.031102
000040 cb 3d 33 3c cc bd 41 40 37 60 5f 40 7d 98 aa 3f
       0.010940026 3.0272093 3.4902475 1.3327786
000050 37 63 9e 40 14 88 39 40 f3 2a 6a 40 3c fa 63 3e
       4.949611 2.8989305 3.6588714 0.22263426
000060 ae bc 72 bf 69 ae 3d be d0 92 a3 3d 0e 63 7d c0
       -0.9481915 -0.18523563 0.07986987 -3.9591708
000070 da 5c 32 bf b6 a4 29 40 e6 0d 72 40 73 4e 34 40
       -0.6967293 2.6506782 3.7820983 2.8172882
000080 f2 f8 58 40 4b 13 f0 be 9b 06 f7 3f d4 31 38 bf
       3.3901944 -0.4688972 1.9298891 -0.7195103
000090 5e 3f 95 c0 d4 68 36 bf 57 e3 9f 40 f1 d6 23 3f
       -4.6639853 -0.71253705 4.9965014 0.6399985
0000a0 5d 4e 8f 40 2c 2a 87 40 58 b3 a3 3f 21 80 a3 be
       4.478316 4.223898 1.2789106 -0.31933692
0000b0 29 13 f3 be 31 3f 7a 40 2b 71 65 bf 93 19 70 40
       -0.47475556 3.910107 -0.89625806 3.751561

weight f4 [48, 48]
000000 c4 9c 0c be 7c df a3 bd 74 98 39 3e 0c ba 37 3e
       -0.13731676 -0.08001611 0.18124563 0.17942065
000010 99 a4 92 bd 6f f6 e1 bd ef cc 2b bb 4e e7 95 bc
       -0.07160301 -0.110333316 -0.002621468 -0.018298771
000020 d1 7d 24 bd d5 ef b0 be fa 26 9b 3d 53 37 88 bd
       -0.04015905 -0.34557977 0.075757936 -0.06651177
000030 76 8d b4 3e fb 87 95 be 55 d0 8a be 8a d7 41 3d
       0.35264176 -0.29205307 -0.2711207 0.047324695
000040 76 bd 90 bd 5d 73 f5 be c9 82 b7 3e 9b ae 60 bd
       -0.07067387 -0.47939578 0.3584197 -0.054854017
000050 58 eb 16 3d f5 94 11 3d 8a 4e e8 be fc a7 8e be
       0.036845535 0.035542447 -0.4537242 -0.27862537
000060 b6 45 bf bc 9f 0d bf 3e 2f 7d ed 3d 8c ba be 3e
       -0.02334867 0.3731508 0.115961425 0.372517
000070 0e 50 24 3e 75 d3 7a bc 3f 8d 2f be a0 0c 02 be
       0.16046163 -0.015309204 -0.17143725 -0.12700129
000080 80 a4 b4 3e 79 c9 99 3d 11 05 fc 3d 30 cf 7b 3a
       0.35281754 0.07509131 0.12305654 0.00096057635
000090 0d f5 94 3e 2a 54 60 3e 52 22 2e 3e 85 5c 22 3f
       0.2909321 0.21907106 0.1700528 0.63422424
0000a0 70 82 88 bd c7 8d 06 bd 25 2c 2c bf 9d 09 16 bc
       -0.06665504 -0.032850053 -0.6725486 -0.009157565
0000b0 5c 16 a4 bd 17 be b9 bd 31 b7 27 be db 36 20 be
       -0.08012077 -0.0906946 -0.16378476 -0.15645926
0000c0 01 a9 f1 bc 16 30 2b be a1 83 fc be 06 43 aa 3e
       -0.029499533 -0.16717562 -0.49319175 0.3325426
0000d0 1c 99 ba be 94 15 8a bc 5f f9 b0 3e a4 d8 3c bd
       -0.36444938 -0.016855992 0.34565255 -0.046105042
0000e0 07 52 e3 3d 52 b7 ea bc ab 04 c2 3d 4c f5 0d 3e
       0.1109963 -0.028651867 0.094735466 0.13863105
0000f0 d2 04 e2 be a9 7e 2f 3e bf ad 54 be a2 ca 62 be
       -0.44144303 0.17138161 -0.20769404 -0.22147611
000100 e6 37 d4 3e 2e 9d 90 bd 6e fc 06 3c 0a df 61 3d
       0.41448897 -0.0706123 0.008238895 0.055144347
000110 c9 0d 91 bd c3 24 f5 3c 53 d6 25 be 6f d2 f0 3b
       -0.070827074 0.029924756 -0.1619504 0.0073493044
000120 24 36 0b be a3 6c af be a2 25 0a 3e 34 a0 05 bd
       -0.13594872 -0.3426257 0.13490918 -0.032623485
000130 86 ed 30 3d 9a 56 38 be cc 71 26 3e 4c f0 cb be
       0.04319527 -0.18001786 0.16254348 -0.3983177
000140 58 6b 73 bb e7 8d a8 bd d6 26 d4 3c a3 82 e1 be
       -0.003714284 -0.08230191 0.025897425 -0.4404498
000150 4a c1 84 3e 7e ff 7e bd 0a 96 b6 be d5 05 c1 3d
       0.25928718 -0.062255375 -0.35661346 0.094249405
000160 2f 14 8d bc 57 3e a9 3e b6 9a 4c bd 47 dd 43 3e
       -0.017221538 0.33055374 -0.04995223 0.1912738
000170 ee 40 75 3d ff eb fc be be f9 22 3e 9b 6d db bc
       0.059876375 -0.493988 0.15915582 -0.026785662
000180 e1 d5 8a be c0 d1 4f 3f 3d 18 18 3f 6a ec 34 3e
       -0.27116302 0.8117943 0.59411985 0.1766831
000190 71 6a 1c 3f 4c c3 f2 3e ec ca 7f 3d 6a cc 3a 3f
       0.61099917 0.47414625 0.06244938 0.7296816
0001a0 13 9b cb bd 5d c8 e8 3d 90 87 f6 3e f5 84 89 be
       -0.099416874 0.11366341 0.481503 -0.2685925
0001b0 49 a2 53 3e 70 d3 29 bd 0d 7e 72 3e 43 7a ac bd
       0.20667376 -0.04146141 0.23680897 -0.08421757
0001c0 97 dd 6e 3e 51 9b 9e 3e ca 2e 4b 3d 76 09 c5 be
       0.23326717 0.30977872 0.04960517 -0.3848378
0001d0 39 b2 80 3c be e9 2e 3d 55 16 37 3e 3a 49 2a 3f
       0.015709983 0.042703383 0.17879613 0.66517985
0001e0 a0 2b 0d be 31 72 93 3c 33 a0 4b be be f3 05 3e
       -0.13786173 0.017998787 -0.1988533 0.13081262
0001f0 2a 98 d4 3e e6 4e bb bd c1 5d 86 3d b5 1d 2b 3d
       0.41522342 -0.09145908 0.06560851 0.041776378
000200 60 e2 89 bf ae e3 13 bf a8 cc f2 bd 42 53 c8 3e
       -1.0772209 -0.57769287 -0.11855441 0.3912602
000210 0d ed 0f be f9 72 bf 3e d0 38 41 bc 9c 62 8a be
       -0.14055271 0.37392405 -0.01179333 -0.27028358
000220 e6 7b 06 bd 51 23 2b bf 6c f6 83 be ef b6 35 be
       -0.032833003 -0.66850764 -0.25773942 -0.17745565
000230 5f 5e 0a be 1b e0 99 3e 5f 28 fa 3e 06 a3 23 3e
       -0.13512562 0.3005379 0.48858926 0.15980157
000240 1e 43 98 3d 07 b2 1e 3f f9 58 34 3d ed 5a 00 3f
       0.074346766 0.619904 0.044030163 0.5013874
000250 73 e3 48 3e 61 7e bb bc f2 5b 41 3d a4 3b b5 3e
       0.19618015 -0.02288741 0.047206827 0.35397065
000260 11 dc 1d 3c 52 91 8e 3d 42 d8 af 3e 93 31 a0 be
       0.009634987 0.069613114 0.3434468 -0.31287822
000270 b5 c9 e3 3e 46 1b 82 be bd 16 6c bc 95 71 99 bd
       0.44489828 -0.25411433 -0.014409718 -0.07492367
000280 35 df 41 3e 94 1b 10 3e b7 cf 51 bc 9b 22 0a bf
       0.18932803 0.1407302 -0.012805871 -0.53959054
000290 3a 28 c4 3d 78 4f 4f bd 72 ad 83 3e ce 57 0e 3f
       0.09577985 -0.050612897 0.25718266 0.5560273
0002a0 60 8e 4a be 5c a0 e9 3e 63 74 83 3e 60 7e 1a 3e
       -0.19780874 0.45630157 0.25674734 0.1508727
0002b0 42 09 d3 3c e5 fe 56 3e f9 6e e0 3e 6e 80 e6 3e
       0.02576125 0.20995672 0.43834665 0.4501986
0002c0 ef 36 81 be 49 b5 42 be b0 ff 8f bd fc 10 f1 3e
       -0.25237224 -0.19014467 -0.070311904 0.4708327
0002d0 ae aa 65 3d 42 87 d5 be d5 f0 34 3e 94 20 f3 be
       0.056070976 -0.41704756 0.17669995 -0.47485793
0002e0 5e 4c f5 3d 24 68 68 be 1a 58 73 bd 50 9f de bd
       0.119774565 -0.22695976 -0.059410192 -0.1087023
0002f0 fa a0 04 bf c5 01 ca 3e ce d4 aa bd 62 cd b4 bd
       -0.5180813 0.39454475 -0.083413705 -0.08828236
000300 44 c3 15 3f 86 27 b3 bf 3e e1 9e 3d d1 89 0e bf
       0.58501077 -1.3996437 0.07757805 -0.5567904
000310 c7 1d 6c bf 37 06 d9 be 64 19 94 bf 18 d6 61 bd
       -0.92232937 -0.42387554 -1.1570249 -0.055135816
000320 26 39 65 3e db 6a 04 bf 0c d3 81 bf 08 1a 1b bf
       0.22385082 -0.5172555 -1.0142531 -0.60586596
000330 89 c2 c8 3e 31 e8 93 3f 5d 6f 25 bf 71 e1 2f 3e
       0.3921092 1.1555234 -0.6462305 0.17175843
000340 af 1d 80 bf bc bf 16 3f 86 b8 f2 bb 0c 68 89 bf
       -1.0009059 0.58886313 -0.007407251 -1.0734878
000350 5f c5 2b be 7f 36 65 bf 8c 2f 12 be bb e5 90 bf
       -0.1677451 -0.8953628 -0.1427595 -1.1320108
000360 a4 31 73 3f bc 3f 1a 3f e3 13 3e be 93 00 1b c0
       0.9499762 0.602535 -0.18562274 -2.42191
000370 e4 d1 1f 3f 78 dc 7f 3e fd 3b 8e bf 7c 9f 33 3f
       0.6242964 0.24986446 -1.1112057 0.7016523
000380 17 15 da bd a1 c9 fa 3d 9f 79 84 bf 69 6a f9 3d
       -0.10648554 0.12245489 -1.0349616 0.12178499
000390 a6 58 b0 bf 8c 1a b3 3f cd 8c d7 bf 70 05 28 3f
       -1.3777053 1.3992476 -1.6839844 0.65633297
0003a0 19 3d 98 3e 14 6d b5 3e a1 ea 4e 3f d7 2f a6 bd
       0.29734114 0.35434783 0.80826765 -0.081145935
0003b0 00 66 43 bf ba 9d 60 be 20 4b df 3d 43 cd 88 3f
       -0.76327515 -0.21935168 0.10903001 1.0687641
0003c0 6c 57 8b bd 49 5a 87 bd c7 be e7 3d 31 ac 2a 3e
       -0.06803784 -0.066090174 0.11315685 0.16667248
0003d0 fe a9 47 3e 74 46 68 3e 6f 16 db be ce ba 93 bf
       0.1949844 0.22683126 -0.42790553 -1.1541383
0003e0 7e ff 3f be c5 7f 1e 3e d3 84 f5 3c 06 75 c0 3f
       -0.18749806 0.15478428 0.029970562 1.5035713
0003f0 0a db 8f bf de 77 31 bc d5 58 5b 3f fa a3 12 be
       -1.123872 -0.010831801 0.8568242 -0.14320365

weight f4 [48, 48]
000000 f3 13 82 3f 50 60 90 3f e4 46 1f be a1 c5 10 bd
       1.0162338 1.1279392 -0.15554386 -0.035344724
000010 f9 e2 37 bf 26 cf ba 3e 00 e3 29 be d4 2a b6 3e
       -0.7183071 0.36486167 -0.165905 0.3557955
000020 60 9f b6 3e 5b 8e 86 3e 06 9d f1 bd 31 41 65 3e
       0.35668468 0.26280484 -0.11797528 0.2238815
000030 49 0c 8e 3e 1b e1 84 3e 98 21 89 bf a5 bc b0 3d
       0.27743748 0.25952992 -1.0713377 0.08629731
000040 ac bc d4 3d 00 a1 af 3d df 62 c0 3e b6 c4 32 3f
       0.10387549 0.0857563 0.37575433 0.6983141
000050 b7 a9 6d 3d f5 13 ae 3f 98 ae b2 3e 59 52 54 3e
       0.05802318 1.359984 0.3489883 0.20734538
000060 d0 aa 73 3e b3 69 30 3e b6 73 29 bf 24 70 65 be
       0.23795629 0.17227821 -0.66192186 -0.2240606
000070 c6 11 86 be d5 74 e3 3e 5f 91 92 3e 45 bc 5e 3b
       -0.26185435 0.44425073 0.28626534 0.003398673
000080 c2 3a 01 3e 6e 44 cb be e9 9d 56 be 23 98 5d bf
       0.1262007 -0.39700645 -0.20958675 -0.8656027
000090 91 4b 62 bf 1e 52 ee be e6 a7 92 3e 97 b3 27 bf
       -0.88396555 -0.46547025 0.2864372 -0.6550841
0000a0 fa 75 86 3d 23 69 ab 3e 3d 99 df 3c 60 85 d6 be
       0.06565471 0.3347865 0.02729475 -0.41898632
0000b0 f9 76 b8 3f 0e 03 f0 3f 32 df ec 3e 7b 72 90 be
       1.4411308 1.8750932 0.46264035 -0.28212342
0000c0 2f 1c 14 bf de 7b 07 40 0e 86 e7 3e 54 ed c5 3d
       -0.57855505 2.1169353 0.45219463 0.09664407
0000d0 4e 5f 54 be b8 e7 82 3e 93 fd 94 3e 82 40 d1 3e
       -0.20739481 0.25567412 0.29099712 0.40869528
0000e0 29 59 b9 3e a6 7d eb bd c4 cf ed bd aa 81 97 3e
       0.36200836 -0.11498575 -0.11611894 0.29591113
0000f0 90 53 4f be 54 32 9c 3c c5 5b 94 3e e2 e5 91 be
       -0.2024672 0.019066967 0.28976265 -0.284957
000100 86 6c a3 be 5b 8d e1 3e 39 d5 84 3e 1a ee 42 3f
       -0.31918734 0.44053158 0.25943926 0.76144564
000110 da 26 46 bd b8 76 5f bf ed ae 5c bf 3d ed d5 3f
       -0.048376895 -0.87290525 -0.86204416 1.6713024
000120 9a 53 e7 be 70 c1 0a 3e 21 09 1e 3e 43 b2 4a 3e
       -0.4518097 0.13550353 0.1543317 0.19794564
000130 78 bd 4b be c1 80 1e bd 8a 28 b4 be ab 73 2d bf
       -0.19896495 -0.038697008 -0.3518718 -0.6775462
000140 cc ca 4a 3d 8b a6 10 3f 66 3f e5 3e 51 f5 2b be
       0.04950981 0.56504124 0.44774932 -0.167928
000150 83 ef 66 3d c4 03 a1 be 57 51 d6 bd 8e 85 10 3f
       0.05638076 -0.31448185 -0.10464733 0.5645379
000160 eb 8d 1c be 65 b7 b9 bd c1 cf 10 bf ea 20 32 3e
       -0.15288512 -0.09068183 -0.5656701 0.17395368
000170 91 11 b9 be a6 85 d1 3f c7 82 b5 3e 6c 49 63 3e
       -0.36146215 1.6368911 0.35451338 0.22195977
000180 13 4f 09 bf e0 ae a4 3f 7a 46 e6 be f6 c5 19 be
       -0.5363628 1.2865868 -0.44975644 -0.15016922
000190 ab f4 a5 bf 6c 58 4c 3e 2c e9 95 be 59 92 c3 be
       -1.2965292 0.19955605 -0.2927946 -0.38197592
0001a0 b4 fb 88 3e 80 9c 66 3b a4 f5 72 3f cd 04 c5 3d
       0.26754534 0.0035188496 0.9490607 0.09620056
0001b0 5d f1 2f 3e 05 af 80 3e 51 d3 9c be 4e 4e 99 bd
       0.17181917 0.2513353 -0.30629972 -0.074856386
0001c0 e4 6b aa 3f a3 76 8f 3f 4a cb d6 3e 3b 0b d6 3e
       1.3314176 1.120808 0.41951972 0.41805443
0001d0 3f 9c 9a bd f1 ee 1c bf e9 20 51 be 6b 1a a7 3f
       -0.07549333 -0.61302096 -0.2042271 1.3054937
0001e0 07 03 2d bf ad ec 06 bf b3 c8 c4 bd d9 6a 1e 3f
       -0.67582744 -0.5270489 -0.09608593 0.61881787
0001f0 e3 a2 d1 be f3 bf e5 3e 7b f7 71 3e ca 30 1b bf
       -0.40944585 0.44873008 0.23629563 -0.6062132
000200 99 63 6c 3e 0b f9 8f 3f 18 d9 23 3f 89 43 ba bd
       0.23084868 1.1247877 0.64003134 -0.090949126
000210 31 30 1d bf 67 ae da 3e ea 4c 5a bd 1e 8a 87 3d
       -0.6140166 0.42711183 -0.053296007 0.06618141
000220 3d 38 93 3e 3d dd 4b 3e 73 95 85 3e e1 90 85 bc
       0.28753844 0.19908614 0.26090583 -0.016304435
000230 91 57 1c bf 14 b4 90 3d 3f 27 54 bf 38 b6 f6 bd
       -0.61071116 0.07065597 -0.82872385 -0.12046474
000240 26 c4 31 be 89 86 21 be 73 1d a6 be cd 1c bd bc
       -0.17359981 -0.15773977 -0.32444343 -0.023085022
000250 dd 72 88 bf d9 95 a2 3e 77 fa 89 bd 50 01 89 3c
       -1.0660053 0.3175495 -0.067372255 0.016724259
000260 91 37 05 c0 82 48 1c c0 08 68 ba bd 5d 3d a2 3c
       -2.0815165 -2.4419255 -0.09101874 0.01980465
000270 78 01 64 c0 68 45 50 bd fb bd e5 3c bb 36 2a c0
       -3.5625896 -0.05084744 0.028044691 -2.6595905
000280 4c f8 a7 bf 96 08 82 bd 16 2f bb 3e 35 1d 3b 3e
       -1.3122649 -0.06349294 0.3655936 0.1827286
000290 4d eb 4e c0 7e 93 ce be 77 fd 77 be f6 73 90 3e
       -3.2331116 -0.40346903 -0.24217783 0.2821347
0002a0 45 2a fd 3a 9f 12 dc b9 9f 26 d2 bc 75 08 c7 bd
       0.0019314965 -0.00041975544 -0.025653182 -0.0971841
0002b0 17 1a 00 bd 4c 21 57 bf f8 d9 e3 3e 40 30 ae 3d
       -0.03127488 -0.8403518 0.44502234 0.08505297
0002c0 37 97 a4 3e 0d 58 38 be e2 b2 8e bf e2 2e 74 3e
       0.32146618 -0.18002339 -1.1148341 0.2384601
0002d0 8e 83 c6 bc f2 32 2f 3d 87 37 3f c0 a8 0a b8 bd
       -0.024232652 0.042773195 -2.9877641 -0.089864075
0002e0 1a a5 fb 3e aa e8 ed 3e e2 7e af bc a0 e5 1c be
       0.491494 0.4646657 -0.021422807 -0.1532197
0002f0 63 d7 99 be 83 7f 2e bf 84 44 0f 3d 87 f1 09 3d
       -0.3004714 -0.6816332 0.03497745 0.033677604
000300 1c cb 45 3e 39 0d 09 be 96 d8 05 40 cf 79 9d be
       0.19315761 -0.1338395 2.0913444 -0.30756995
000310 5b 34 b0 bf 1e f4 27 3e 48 1c 1f be fb 1b 5f bd
       -1.3765978 0.16401717 -0.15538132 -0.054470044
000320 72 65 18 bf 1c c4 91 be 93 2a 9a 3f fc af ca 3e
       -0.59529793 -0.28469932 1.2044243 0.3958739
000330 92 1d 64 3e ad dd 09 be 32 d2 cb 3f cd 15 a5 bd
       0.22276905 -0.13463469 1.5923522 -0.08060799
000340 e9 24 73 be 90 b0 f3 3d 5d c3 af 3d 79 4c 9a 3f
       -0.23744549 0.11898911 0.085821845 1.2054588
000350 a7 1e ad bd 1a ee ae 3f be 0d 69 be e9 b5 52 3e
       -0.08453112 1.3666413 -0.22759148 0.20577206
000360 e5 eb 29 be 6c 6b fe be 5c 03 45 3e a9 b7 e1 ba
       -0.16593893 -0.4969133 0.19239563 -0.0017220873
000370 f5 02 62 3e 55 ff 00 be b3 a8 af 3e 7e df 6f be
       0.2207144 -0.12597401 0.34308395 -0.23425099
000380 6e 56 56 3d 44 d6 bd 3e 76 22 9a 3e 9e 91 4d be
       0.05232852 0.37077534 0.30104417 -0.2007508
000390 78 78 89 3b 84 81 d2 bc bf 0a ab bd 48 d1 5c be
       0.004195269 -0.025696523 -0.08351659 -0.2156421
0003a0 6f e3 01 be f8 89 c6 3e e7 15 71 3f 65 58 3f 3f
       -0.12684415 0.38777137 0.94174045 0.74744254
0003b0 74 c3 48 bf 12 79 9a 3f 0e 7e 30 3e c4 26 45 3f
       -0.7842324 1.2068198 0.17235586 0.77012277
0003c0 cb 73 a7 3f b6 46 cf 3e c9 c6 07 3f bd eb e0 3e
       1.3082212 0.40483636 0.530377 0.43929854
0003d0 ab a3 82 be 2b f5 d5 bd dd e2 98 3e ca d8 65 be
       -0.25515494 -0.10447153 0.29860583 -0.2244598
0003e0 85 1c 1a ba 08 d3 9f be d6 a6 9b bd ed 96 b0 3e
       -0.00058788835 -0.31215692 -0.07600181 0.34490147
0003f0 5d f2 58 be a8 76 53 3e b2 80 e5 3e bf d7 8a be
       -0.21186204 0.20650733 0.4482475 -0.27117726

bias f4 [48]
000000 86 e7 a7 3e 0f a0 50 be 2a e3 38 3e 27 46 8f bf
       0.32793826 -0.20373558 0.18055406 -1.1193284
000010 54 5a 50 be ee be 0e 3e 6e 8d 49 3e 61 a6 03 3d
       -0.20346957 0.13940021 0.19682857 0.032141093
000020 97 be 42 c0 5b e6 53 bd fd 25 d1 3d cb f9 a5 be
       -3.0428827 -0.051733356 0.10212324 -0.3241714
000030 d9 5b d1 3e d1 f3 98 bc 5d 4a 32 c0 58 3b 9c bf
       0.40890387 -0.018670948 -2.7857888 -1.220561
000040 44 39 2d be 71 23 b1 3d 1a 9c d8 be 4c 0d 78 3e
       -0.16916376 0.08649338 -0.42306596 0.24223822
000050 cf fc 69 3f 98 46 59 bd 5a 4e 2f bc 58 92 05 3d
       0.9140138 -0.05304584 -0.010699833 0.032610267
000060 b7 4f ff 3c be 89 48 bb 78 55 64 bd 31 af e1 bf
       0.03116594 -0.003059968 -0.05574557 -1.7631589
000070 64 03 5c 3e 69 f1 14 3e 36 1c 21 3e 03 ff c5 3b
       0.21485668 0.14545216 0.15733418 0.0060423627
000080 36 7c ed 3b 1f a6 86 3f f7 61 86 be 80 67 7e bd
       0.007247473 1.0519446 -0.26246616 -0.062110424
000090 41 37 bd bf 46 e9 f5 3b 16 a9 17 3b 57 6e b5 3c
       -1.4782487 0.007504615 0.0023141555 0.02214734
0000a0 cf 27 08 3e ba f6 58 3e c2 66 af 3f a5 34 42 3f
       0.13296436 0.21187869 1.3703234 0.7586158
0000b0 7a 45 c8 3d 9b aa 0a 3f f9 e8 5c 3c 26 bd be 3f
       0.097788766 0.54166573 0.013483279 1.4901474

weight f4 [48, 48]
000000 18 3d 0f 3f 7f c6 68 3f af 10 00 3f d3 8b e0 bd
       0.55952597 0.9092788 0.5002546 -0.10964169
000010 7c 32 aa bd a9 d9 77 be db 60 95 bf e6 ea 4b 3f
       -0.083104104 -0.24204125 -1.1670183 0.796553
000020 90 37 9a 3b 69 73 27 bd 51 e0 82 3e c5 69 12 bf
       0.0047063306 -0.040881548 0.25561765 -0.5719264
000030 2d b1 dc bd eb 72 fc 3d e5 1e 0b 3f 76 14 d2 3b
       -0.10775981 0.12326606 0.54344016 0.0064111305
000040 84 37 27 3f 5a 3d 64 3f 85 c7 1b be 48 cf ca 3d
       0.65319085 0.89156115 -0.1521283 0.09902817
000050 fb e6 3b be 7f 6d 4f 3d 4e 25 ce 3d cf 5d 25 3f
       -0.18349831 0.050641533 0.10065709 0.64596266
000060 c7 d6 ef 3e f9 33 35 3e 7f 61 32 3e d4 25 35 3e
       0.4684355 0.17695607 0.17420004 0.17690212
000070 e2 cc ad 3e 6e 77 95 be a1 38 a7 be da bd d1 bc
       0.33945376 -0.2919268 -0.32660392 -0.025603224
000080 33 0c 1e be ab 95 da bd f2 5f ca be ea 82 86 bf
       -0.15434341 -0.10673078 -0.39526325 -1.0508702
000090 fc a5 1e 3e d4 78 cb 3e d3 aa a9 bd 6b 1f 1f bf
       0.15493006 0.39740622 -0.08284535 -0.62157315
0000a0 47 e8 00 be 9d d4 85 be ea 48 bc 3d cb 19 15 3f
       -0.12588607 -0.26138774 0.09193595 0.5824248
0000b0 bb 1f f4 bd 8a 7d a1 3f 1e a5 9c 3e 8c ea 90 be
       -0.119201146 1.2616436 0.30594724 -0.28303945
0000c0 d9 58 71 3e f7 48 94 3f e1 6b 99 3f 9d 0a 84 3d
       0.23569049 1.1584767 1.1986047 0.06447337
0000d0 cd cb 7e 3e 76 54 a7 be 5c 34 98 be 37 a1 95 3e
       0.24882431 -0.32681626 -0.29727447 0.2922456
0000e0 52 f4 ac 3f 20 ac 75 3e 57 89 af 3d 40 46 ab be
       1.3512061 0.23991442 0.08571117 -0.33452034
0000f0 cc f7 d4 bd d8 d8 82 bd 8a 94 7d 3d 08 cb 15 3e
       -0.10398826 -0.06389016 0.061909236 0.14628232
000100 25 2e 42 bf 98 24 67 3f ad 06 c3 3c 22 5d ab 3f
       -0.7585166 0.9029021 0.023806894 1.3387797
000110 3b cd 40 3d b3 ee 17 bf 1c 06 9b 3e e0 5b 36 be
       0.047070723 -0.593486 0.302781 -0.17808485
000120 87 73 ce 3e d5 cf 2a bf 14 45 1c 3e b2 9e 38 be
       0.40322515 -0.66723377 0.15260726 -0.18029287
000130 ca ef 68 be 54 df 8a be 6c f9 0e be 42 81 16 bf
       -0.22747722 -0.2712351 -0.13962334 -0.5879098
000140 f1 2d af 3a 9e 10 0d bf b7 46 b7 3e f3 23 9d bf
       0.0013365132 -0.5510348 0.3579614 -1.2276596
000150 d0 03 69 3f 2f e5 76 be b6 cd 8d bd 3d a1 21 3f
       0.9102144 -0.24110864 -0.06924002 0.63136655
000160 05 0c 99 bd 6c 4c 54 3d fb 8d 7b 3f a4 e0 4a 40
       -0.07472996 0.051830694 0.9826352 3.169961
000170 c4 47 41 bf ac 4e 23 3d 8a 3b b3 bf 4b 7b 8e 3b
       -0.7550013 0.03986995 -1.4002545 0.0043481938
000180 96 d9 b1 bf f5 14 b8 bd 5c 26 1e bf c8 f9 13 3e
       -1.3894527 -0.08988372 -0.6177728 0.14450753
000190 63 dc cd 3f c2 85 f1 bc 02 a0 89 be f1 5f cc bd
       1.6082882 -0.029482726 -0.2687989 -0.09979237
0001a0 b2 98 7f 3e 96 94 9f 3e 40 f1 18 3e 57 06 c7 3e
       0.24960592 0.3116805 0.1493578 0.38872024
0001b0 2d 3a 45 3a a0 7b a6 be c9 93 0b 3d 49 b4 25 3e
       0.00075236225 -0.32516193 0.034076486 0.16182055
0001c0 71 ae 39 3f 46 22 3a bf ac f1 f0 bd e1 b9 04 be
       0.725318 -0.7270855 -0.11764845 -0.12961532
0001d0 9c e9 25 3e a8 2f 89 be 4a 6e d7 3c 46 24 04 bf
       0.16202396 -0.2679417 0.026297707 -0.5161785
0001e0 94 fe 7d 3e f6 1d 24 bd 07 6c 1d bf bd 12 11 bf
       0.24804145 -0.040067635 -0.6149296 -0.5666922
0001f0 77 1d 48 bf 45 91 3d 3e 49 50 4e be b2 fb 83 3e
       -0.7816996 0.18512447 -0.20147814 0.25777966
000200 88 98 76 be 48 4d 82 be e1 ca 04 3f 93 ab cd bf
       -0.24081624 -0.25449586 0.5187207 -1.6067985
000210 b8 a6 95 be 6a d6 c4 be b6 95 05 3d 2e 04 7b 3e
       -0.2922876 -0.38444835 0.03261348 0.24513313
000220 7e 93 93 be 09 8e f9 bd 5c 76 94 be f4 d0 1c 3d
       -0.28823465 -0.12185294 -0.2899655 0.03828521
000230 30 f8 86 3d 76 d1 09 bf c0 b7 29 be 07 2f bb be
       0.06590307 -0.5383524 -0.16574001 -0.36559317
000240 22 f2 2f 3f 9a 76 a4 3e cb 76 ef 3e 9d 41 cb 3d
       0.6872884 0.32121736 0.4677032 0.09924624
000250 75 a6 4b 3e 87 55 09 be c0 33 42 3f cb cc ae 3e
       0.19887717 -0.13411532 0.75860214 0.3414062
000260 f1 5f 97 3e af 41 bb bd f4 5f 18 3e 8b 22 bc 3e
       0.29565385 -0.091433875 0.14880353 0.36745104
000270 b2 f8 3f bd 88 25 80 3f 29 fc 7e bd 30 de 29 be
       -0.046868034 1.0011454 -0.062252197 -0.16588664
000280 58 8c 02 3e b1 b5 e0 3d f6 49 68 be 69 b8 2c 3f
       0.1274885 0.10972155 -0.22684464 0.6746889
000290 23 dc 30 be a2 72 bb bd 76 23 93 3e c7 bf c5 3e
       -0.17271475 -0.09152724 0.28737992 0.38622877
0002a0 ab aa db 3e 5e 64 11 3f 98 7a 10 3f a6 eb 90 be
       0.42903647 0.56793773 0.56437063 -0.28304785
0002b0 d2 7b f6 3d d4 d3 e8 bb 78 d8 a7 bd 63 1d 12 3e
       0.120353356 -0.00710533 -0.08195585 0.14269023
0002c0 c0 8a 4b be a6 ea a3 bd 7e c7 95 3e e2 9e 65 3f
       -0.19877148 -0.0800374 0.29253763 0.8969556
0002d0 25 34 64 3f a2 b8 2d 3d 8c 66 cf bd 72 f1 1a 3f
       0.89142066 0.042412408 -0.10126981 0.60524666
0002e0 93 7d 2f be b8 0b b0 bc 32 1a 4c 3e df e2 c5 3e
       -0.17137747 -0.021489963 0.19931868 0.3864965
0002f0 c8 8b 0a 3f 25 6f 0d be 46 9d 47 3f bc 4a 7b 3e
       0.5411954 -0.1381193 0.77974355 0.24540228
000300 5c 4f 8f be 05 da 09 bf dd 02 0a 3f 89 8e 0e 3e
       -0.27990234 -0.53848296 0.5391062 0.1392156
000310 95 27 32 3f 11 9a 30 bd d2 7d 40 be 83 03 a4 3e
       0.6959165 -0.04311568 -0.18797997 0.3203393
000320 7d c2 30 bf f2 91 72 be d0 ed 91 be 54 6e 35 be
       -0.69046766 -0.23688486 -0.2850175 -0.17717868
000330 23 17 a3 3c 8d d4 13 3e 1e d9 2e 3e f0 8d d0 bd
       0.019908493 0.1443655 0.17075011 -0.101833224
000340 99 d2 08 be 07 a6 d4 be 69 86 e8 bd 9d b1 b3 3e
       -0.13361587 -0.4153292 -0.11353762 0.35096446
000350 4b 1d e9 3b b0 64 b3 bf 74 26 d8 be 6c 6b 93 bf
       0.0071140877 -1.4015102 -0.42216837 -1.1517158
000360 42 62 70 bf 68 0f 8e be cb b5 ba bd 8b e6 b7 bd
       -0.9389993 -0.2774613 -0.091167055 -0.089795195
000370 52 f3 0f bf 6b 83 e7 bd 0f ca c9 bd e8 bf 9b bd
       -0.5623065 -0.11304363 -0.09852993 -0.076049626
000380 2b 48 22 3d 5a ce 34 bf 4f f2 41 bf 9e c2 94 3e
       0.039619606 -0.7062737 -0.7576036 0.2905473
000390 d8 82 df 3e b4 a7 8a bd a3 f8 5c bd 77 96 04 3e
       0.43654513 -0.06770268 -0.053948056 0.12948023
0003a0 da 87 83 be 1d b8 e1 3e 85 90 32 be 17 ef db 3e
       -0.25689584 0.4408578 -0.17437942 0.4295585
0003b0 b1 a2 25 3e 66 f9 6c 3c a3 7f 60 be 30 0e d7 3e
       0.16175343 0.014463758 -0.2192369 0.42003012
0003c0 97 5a 99 bf 90 f4 30 be 30 8e 41 be 14 c8 33 be
       -1.1980771 -0.17280793 -0.18901896 -0.17556792
0003d0 90 4b a9 3f 98 36 5a 3e 3b 38 9b be 20 91 88 be
       1.3226185 0.21309888 -0.30316338 -0.26673222
0003e0 13 1c f4 be ab ec d3 bd 22 88 0f bf ce 6e b8 3e
       -0.4767767 -0.10347875 -0.560671 0.36022037
0003f0 c1 b7 f5 3c 94 fc 59 bf e0 d7 d9 3e ca 39 58 be
       0.029994847 -0.8515103 0.42547512 -0.21115795

weight f4 [18, 49]
000000 87 47 0c 3e 09 3f 12 bc 15 b3 d0 3d 26 cc 73 3f
       0.1369916 -0.008926162 0.10190407 0.9523338
000010 65 4f 90 bd 5f ae 19 3d bb 08 25 be 48 04 b9 bd
       -0.07046393 0.03751981 -0.16116612 -0.0903402
000020 d9 76 a6 3d ef 1c cd ba d4 cb 82 3e ca 16 b2 3e
       0.08128137 -0.0015648882 0.25546134 0.34783012
000030 84 03 61 be 9b bc 5e bd 0c ba 4a 3e 16 36 51 3e
       -0.21973997 -0.054379087 0.19797534 0.20430788
000040 67 37 6e bd a5 ec b3 3b 2d 51 12 3e b2 79 05 3e
       -0.058158305 0.0054908567 0.14288779 0.13034704
000050 0a e1 e4 3f 93 4b 28 3e c8 89 f8 3d ec 36 6b be
       1.7881176 0.1643508 0.12135655 -0.2297017
000060 eb dd 98 bd dd 34 9b 3e fd f7 83 bd f1 b5 96 be
       -0.074642025 0.3031377 -0.064437844 -0.29435685
000070 bd 06 ab 3d b5 bc 9f 3d 07 90 a4 3d ab 22 ee 3f
       0.083508946 0.07799665 0.080352835 1.860433
000080 d1 0d a6 bd d2 c4 f7 be 3e 0d 9e be 91 4d 4f bd
       -0.08108104 -0.4839235 -0.30869478 -0.050611082
000090 c7 ab 63 bf 7c c4 89 3e a5 4c 53 3d 0d d1 32 3e
       -0.88933986 0.26907718 0.051586766 0.17462559
0000a0 a4 21 dc bd 60 aa 68 3e 4c 41 00 be 46 bd 1e be
       -0.10748604 0.22721243 -0.12524909 -0.1550189
0000b0 81 e5 9f 3d 3e 90 63 3d 0b 21 6b bc a1 9b 66 be
       0.07807446 0.055557482 -0.01435114 -0.22520305
0000c0 53 9a f3 c0 c0 09 bb bd 19 5f 3e bd 68 a9 2d be
       -7.6125884 -0.09132719 -0.04647741 -0.16959155
0000d0 c3 db 05 be 47 33 68 be 04 54 85 3e 48 9f 45 be
       -0.13072114 -0.22675811 0.2604066 -0.19299042
0000e0 ed 80 9b 3e b5 db 27 bf a5 66 1c 3e 76 8b d4 bd
       0.303718 -0.6556962 0.15273531 -0.103781626
0000f0 9e 6e aa be 2e 78 a2 3d 30 b9 89 be a0 6d 3b 3e
       -0.3328752 0.07933079 -0.268991 0.18303537
000100 92 40 a6 3f 20 5a 23 3d af d5 49 bb 4f 94 70 3c
       1.2988455 0.03988087 -0.0030797531 0.014683797
000110 7e 86 f6 bc 19 a6 96 be 55 d8 7b be e9 4b 3d 3e
       -0.030093428 -0.29423597 -0.24594243 0.18485989
000120 f8 14 53 be 29 1d d3 bc 1c 68 8d 3e a4 2a 5b be
       -0.20613468 -0.02577074 0.27618492 -0.21402985
000130 00 32 a2 3f 3f 3c a1 3e 4c ea 5a 3d bd 0a af be
       1.2671509 0.31491277 0.0534461 -0.3418788
000140 88 1a 9c bf c6 e4 8f bd 60 53 06 bf 82 6e 04 be
       -1.2195597 -0.07026057 -0.5247097 -0.1293278
000150 3f 8c 82 be 8b 6a ba bf d7 6f 09 3f 52 03 ec 3d
       -0.25497624 -1.4563764 0.5368628 0.11524071
000160 c5 65 99 3e dd aa b9 3d 33 a5 93 bd 14 36 30 3f
       0.29960456 0.09065793 -0.072092436 0.68832517
000170 6e 39 6a 3e b1 50 72 3d b6 a9 60 3e c7 4d ac be
       0.2287347 0.059158985 0.2193974 -0.3365309
000180 3d 91 1a 3f 03 67 00 40 f2 15 8e 3d c8 f3 16 bf
       0.60377866 2.0062873 0.069377795 -0.5896573
000190 98 78 bf bc f0 36 41 c0 c2 01 6a bb 97 92 c7 bc
       -0.023372933 -3.018978 -0.0035706614 -0.024361892
0001a0 37 71 2d bc ab d8 f8 be 24 01 33 3e e9 9e 1c be
       -0.010586075 -0.48602805 0.17480904 -0.15294994
0001b0 f7 2a da 3e b8 10 9b be 8c 9c 57 3e 6f 59 38 be
       0.42610905 -0.30286193 0.21055812 -0.18002866
0001c0 62 7f 1c 3f 6e 17 fe 3b 3a 2a 8a 3e 17 90 3e bc
       0.6113187 0.007754258 0.2698534 -0.011631033
0001d0 09 41 df 3d b7 c4 94 bd e5 8c d5 be 4a 19 72 be
       0.10901076 -0.07264083 -0.41709056 -0.2364246
0001e0 4d 94 c5 3c 2e 50 df be 6a 08 a6 bc 39 67 70 bd
       0.024118567 -0.4361586 -0.020267684 -0.05869219
0001f0 e1 30 5a 3e b2 77 fe 3f 0a 2a e3 bd 12 60 b6 3d
       0.21307708 1.9880278 -0.11092003 0.08905043
000200 14 19 01 bd cd 77 cc be 7c 1b 2c 3e 8b 82 5e 40
       -0.031518057 -0.3993515 0.1680736 3.4767177
000210 bd f6 92 3e 1f 55 1d bd 2e 44 90 3f ac 6e 64 3d
       0.2870387 -0.038411256 1.1270807 0.055769607
000220 19 1c 3c be ef 3e 45 3e 61 c4 0c be a8 ab ae be
       -0.18370093 0.19262289 -0.13746788 -0.34115338
000230 b1 5f 16 3e 90 a9 ea be c1 b6 b1 bd 60 08 d1 3c
       0.14684941 -0.4583249 -0.08677436 0.025516689
000240 0d 62 0d bc a5 c1 b7 be 08 d9 0a bf b5 8c 81 3e
       -0.008629334 -0.35889927 -0.54237413 0.25302663
000250 f9 b1 10 3d be 6d 76 be cf 91 26 bf cd fe dc 3c
       0.035325978 -0.24065301 -0.65066236 0.026976967
000260 72 30 15 3d 95 5a e1 bd b0 31 df bd 71 3c 3b bf
       0.036423154 -0.11003605 -0.10898149 -0.731391
000270 6a f2 42 3e 65 5e 08 be b0 e7 06 3e 95 32 d4 3d
       0.19037786 -0.13317259 0.1317432 0.1036121
000280 43 5a 65 3d 1c b4 a6 be 5c a7 cc 3e 12 db 83 3e
       0.055994283 -0.32559288 0.39971435 0.25753075
000290 d0 72 ea 3b 2e b0 81 bd 73 14 a3 bd 2d 23 36 3f
       0.0071548 -0.06332432 -0.07962885 0.71147424
0002a0 7c 73 a9 3d a6 42 de bc c7 25 c2 bd 75 e4 ec bd
       0.0827398 -0.02713139 -0.09479862 -0.11567012
0002b0 c9 6e a7 3d fd 32 b8 be 1b d2 19 be 5e 51 48 bd
       0.081754275 -0.359764 -0.15021555 -0.048905723
0002c0 47 f5 47 3e 5a 96 88 3d f5 44 35 3f fa 2f 8d be
       0.1952716 0.06669302 0.70808345 -0.27575666
0002d0 9f db 97 be ae 83 87 be b6 6c 52 be 29 87 c4 be
       -0.29659745 -0.2646765 -0.20549282 -0.3838437
0002e0 c5 a1 75 be 1f 37 34 3e b3 1d d9 3d 33 79 f2 3d
       -0.23987491 0.17599152 0.10601368 0.11839523
0002f0 04 0c ee 3c 45 90 9a be 69 ea 9f be 45 75 80 bd
       0.029058464 -0.30188194 -0.31233528 -0.062723674
000300 4f e7 4d 3e 53 af 9c 3d 35 26 cd 3d 72 c2 98 c0
       0.20107768 0.07650628 0.10017053 -4.773736
000310 fc b3 2d bd da 71 be be 4a 5e 04 be 21 a1 16 bf
       -0.042407975 -0.37196237 -0.12926593 -0.58839613
000320 c6 1b 53 3e 74 7a 38 3e 7b 28 a7 bd 1e f5 e5 3d
       0.20616063 0.18015462 -0.08162018 0.11228393
000330 a4 a0 0d 3f 32 df 9b 3d 42 c4 93 be 56 aa 28 be
       0.55323243 0.076109305 -0.2886067 -0.16471228
000340 b2 f0 e0 3d 09 45 24 3d d7 f4 99 3f a8 d2 82 3f
       0.10983409 0.0401049 1.2027844 1.0220537
000350 2f d1 9b bd 71 50 e2 3d 35 81 18 bc 27 d9 e8 3a
       -0.07608258 0.11050499 -0.009308149 0.0017764912
000360 a7 bb ac 3f 28 33 c8 bd b4 df a1 bb 9f bd 68 be
       1.3494767 -0.09775382 -0.0049399976 -0.22728585
000370 8c 7d 48 3e a8 21 16 be 05 94 c8 3d ee b4 9e 3f
       0.19579142 -0.14661276 0.097938575 1.2398965
000380 95 a0 65 bd dd aa 44 3b 22 a9 a6 be ed ff 04 3f
       -0.056061346 0.003000907 -0.32550913 0.5195301
000390 13 71 29 bd 91 72 e7 be 6b c5 80 3d 94 b4 43 bd
       -0.0413676 -0.45204595 0.062876545 -0.047779635
0003a0 6b 0f 2b bf 16 c5 70 3c ad 9e d9 3c 91 80 29 be
       -0.668204 0.014695426 0.02656492 -0.1655295
0003b0 2f 41 a1 3e ec 5b 07 3e e0 00 86 3f 8d b1 b2 bd
       0.31495044 0.13218659 1.0469017 -0.087252714
0003c0 e5 dd 3c 3e 64 74 11 3d 46 42 b0 3d 10 45 7d be
       0.18444021 0.03551139 0.08606391 -0.24733377
0003d0 ec a1 94 c0 69 2d cb be 9a 57 f2 be e8 3a 54 3e
       -4.644766 -0.39683083 -0.4733246 0.20725596
0003e0 c5 b0 b4 bf be 88 b1 3e 81 96 b1 3c 35 22 87 bd
       -1.4116446 0.34674639 0.021678211 -0.06598321
0003f0 67 9a 23 be ba cc 84 bc f9 bd d4 bd b4 0a 0d 3e
       -0.15976869 -0.016210902 -0.10387797 0.13773614

bias f4 [18]
000000 66 4c 43 bf 70 09 9f be 5d e5 9e 3e af c4 b0 3e
       -0.7628845 -0.31061888 0.31034365 0.34525058
000010 e9 45 cb c0 79 95 74 bf 4e b1 cf 3e 65 ca 94 40
       -6.352284 -0.9554058 0.4056496 4.6497064
000020 82 52 d9 3d 23 91 cf 40 f4 d5 18 3e c0 0d 41 c0
       0.1061144 6.486467 0.14925367 -3.0164642
000030 72 f7 5a bf cd 14 17 bc f8 97 0e bf 56 0c c9 3f
       -0.8553382 -0.009221268 -0.55700636 1.570689
000040 ec 95 b4 3e a3 13 63 3f
       0.3527063 0.8870184
