2WL_link_pred/checkpoint/20221214_100_20/2WL_dict_100_20_8.pt (torch, 91244 bytes, 16 tensors)

weight f4 [48, 3]
00000000: 2124 463e 5dbb a5bf 7d67 2a3e b5f7 03be
00000010: a34b 6b3f 7d81 12be 2414 acbd 6f62 323f
00000020: da4b 0abe 68c9 c9bc 8092 5e3f d897 a2bc
00000030: f410 c03c ff53 393f afd4 04bd 7805 883c
00000040: 8e9b 1141 2b76 00bd 1b6c 7240 751a d2be
00000050: 56ee 4140 8037 9a3f b5ba b6be 18e4 333f
00000060: 1ac5 eec0 bef9 a53d beaa 163e 5cc8 ddbd
00000070: c07d 5a3f 431c 2abd 212e ddbc 5d23 653f
00000080: 988c 94bd 24ac 76bf 9a19 193e 437b dbbe
00000090: 1573 863f 3da2 01be 0ed3 043f eebd 0f3e
000000a0: e599 97bf 2409 b23d c00c febc 0f09 f83d
000000b0: 0fd6 aebe 857f 313e dc6f 98c0 9bb7 15c0
000000c0: 8bd2 6d3f e6b1 d5bd ac02 6b3f ff06 993f
000000d0: ebc1 03be 0a40 0c3f fc89 39be 60d5 40be
000000e0: dee3 f9bd d770 5ebf 92ae 863e 14d8 a9be
000000f0: a63c babc 1643 edbc f8b6 f3bd c32e 6f3e
00000100: 1f2c 9c3d ddd9 483e 9525 7d3f 671a 38be
00000110: 027c 183f 1f4a d4be f643 743e 8567 17be
00000120: 84b0 d2c0 8fa4 d8c0 fbed 0e3d 1494 563f
00000130: 6333 48be 1991 0e3f fb21 9fbd 0843 fb3e
00000140: dab2 24bd 0500 09bd 9de3 3f3f 64b7 f1bd
00000150: 66b2 5d3e fa13 afbf df77 db3d 91ab 823f
00000160: a1c8 43be 9d06 543f d178 0d3a 477c 493f
00000170: 8762 83bc 7acb 943f 582b 2abe 9197 113f
00000180: 5736 8abf a8d8 323e d14c 20be c776 293e
00000190: 43fb 89bf 3c08 063e 3f8c 0841 52c2 90be
000001a0: 9350 453d bb86 033d e7fd 653f d00b 1dbd
000001b0: a8e7 87bf 71d5 a33e d9b1 35be da25 9b3e
000001c0: 6b53 9dbf 9e68 353e 45a8 d13b 1068 d440
000001d0: b073 f7bd 6e71 373e c1cd aabf b1d2 483e
000001e0: 08fe 353e 15db dd3e 79b2 bfc0 962f b03e
000001f0: f755 87bf ac7c eb3c 0bd9 923e 683d 8abf
00000200: c3ab b43d 877f 823f 4044 f5be 8f73 aa3f
00000210: 9f71 8dbf a307 4f3e db1e f5bd f732 9b3b
00000220: eac2 483f 35b6 6fbd a1d2 9e3f 4b88 b2be
00000230: dcff 013f 8ec8 213e b88e 5d3d d791 0b3e
0.1934972 -1.2947804 0.1664104 -0.12887461 0.9191229 -0.14307208 -0.08402279 0.6968145
-0.13505498 -0.02463217 0.8694229 -0.019847795 0.023445584 0.7239379 -0.032429393 0.01660417
9.100477 -0.031362694 3.7878482 -0.4103581 3.0301719 1.2048187 -0.3568932 0.7026992
-7.4615602 0.08104275 0.1471357 -0.10829231 0.8534813 -0.04153086 -0.026999535 0.89507085
-0.07253379 -0.96356416 0.14951172 -0.4286748 1.050387 -0.12659545 0.51884544 0.14037296
-1.184384 0.0869315 -0.031011939 0.12111103 -0.3414769 0.17333801 -4.7636547 -2.3393314
0.9289939 -0.10434322 0.9180095 1.195526 -0.12866943 0.54785216 -0.18119043 -0.18831396
-0.12201665 -0.8689093 0.26305062 -0.33172667 -0.022733998 -0.028962653 -0.11900133 0.23357682
0.07625603 0.19614358 0.9888547 -0.17978822 0.5956422 -0.414628 0.2385405 -0.14785583
-6.5840473 -6.7700877 0.034894925 0.838197 -0.19550852 0.5569015 -0.07770153 0.49074578
-0.04020963 -0.033447284 0.74956685 -0.11802557 0.21650085 -1.3677971 0.10716223 1.0208608
-0.19119503 0.8282259 0.0005396726 0.7870526 -0.016038192 1.1624596 -0.16618097 0.56871897
-1.0797833 0.1746546 -0.15654303 0.16549216 -1.0779804 0.13089079 8.53424 -0.28273255
0.048172545 0.03211091 0.8984055 -0.038341343 -1.0617571 0.3199878 -0.17743625 0.30302316
-1.2291082 0.1771569 0.006398233 6.637703 -0.120826125 0.17914364 -1.3344041 0.19611622
0.17772686 0.4333121 -5.990536 0.34411305 -1.0573109 0.028745972 0.28681216 -1.079999
0.088218234 1.0195168 -0.47903633 1.3316516 -1.10503 0.20217757 -0.11968776 0.0047363
0.78422415 -0.058523376 1.2408029 -0.34869608 0.50781035 0.15799162 0.054091185 0.13629852

bias f4 [48]
00000000: c5f9 30be ff51 bf3e f561 8f3e b06b c23e
00000010: b955 d63e ad62 26bc 38f8 07bf 740b d4bd
00000020: 8cb9 29c0 8b27 bd3e e78c ed3e 2ce0 4d3d
00000030: a9d4 66bc 255e b0be 4c1d 4940 54cf bb3c
00000040: 5480 fbbc 20cd 31bd 7985 fd3f 020f e93d
00000050: 5b66 2e40 8e05 1dc0 c751 953d 377b 993d
00000060: 51eb 04bb c1a4 343d cdff bf3e 5752 f53e
00000070: c237 03bf da64 56bd 2e24 c33e 20dd d6bc
00000080: 9e2c ad3d 8c47 cbbe 86af 0abe 690e b83e
00000090: dc6a da3d 9dac 1fbf 25fe 5fbc 5793 b5be
000000a0: 0aed 203c cc6a c2be dae0 b0be c39e 813c
000000b0: d5cc 9c3d 6797 cc3e d848 48bc 0b5d 39c0
-0.1728278 0.37367246 0.28004423 0.37972784 0.41862276 -0.010155362 -0.53113127 -0.10353747
-2.65195 0.3694423 0.46396562 0.050262615 -0.014088788 -0.34446827 3.1424131 0.02292601
-0.03070084 -0.043408513 1.9806358 0.11379816 2.7249973 -2.453464 0.072909884 0.074942045
-0.002028186 0.044102434 0.37499848 0.47914383 -0.51256955 -0.052342273 0.3811354 -0.026228487
0.08455776 -0.39703023 -0.1354352 0.35948494 0.10664913 -0.6237276 -0.013671433 -0.35463974
0.0098221395 -0.37972105 -0.34546548 0.015822774 0.07656256 0.3995926 -0.012224399 -2.896304

weight f4 [5, 48]
00000000: bc14 cc3f ffa0 e8be 9dc7 dfbe d4fc ea3e
00000010: bc63 21c0 ec38 233f 1586 64be 55b8 ddbf
00000020: 0840 213f 45d8 e4bf a0a0 1d3f ec84 f0be
00000030: fc0d 2f3e cd9e c8bf 0179 e6be 67b2 05bf
00000040: 37ca 1b3f 820c 633e aef7 af3f 9226 ad3e
00000050: 0a5f 663e 45ba 643f fd6a c53e 6178 553f
00000060: aa86 7e3f 9921 d23f ba2f e03e c71c 7d3e
00000070: 870f 95bc 1bc4 4dbf 9209 d2bf 9ad8 ef3e
00000080: 8b43 54bf 1658 963f ce42 b23e 8111 1dbe
00000090: 88b2 90bf f585 19c0 216a 37bf bee3 fbbf
000000a0: 9544 17bf 293b dc3e 3bc5 a93f fc98 42bf
000000b0: d595 76bf 103f babe 23f9 b6bf 5dcd e8be
000000c0: ede7 a4bf b353 7cbf 865e 46bf 45a0 5b3f
000000d0: c6d0 e2bf 131b a33f ac65 6c3f 378e 0140
000000e0: 4740 1fbe df58 48bf f56a 1c3f ca07 1a3f
000000f0: 0fd1 6c3f fd0c 893e 2414 803f ca67 44bf
00000100: 6f3b 013f c514 89bf 134f 663f a42b c23e
00000110: 2736 e43f cc40 28c0 f4de 48bf 43a9 adbf
00000120: 0e39 dabd 6252 8e3f c1e3 34bf 0a85 973f
00000130: 6180 a73e f499 7dbf 7297 58be 47a5 cabe
00000140: 2929 9bbf 1ef9 893e 69b6 a63e 46b4 1cbf
00000150: e929 5bbf ac30 bdbf 9a1c 083e 1be9 98bd
00000160: a8a9 22bf c865 a8be 2d6d f73e 9db9 0c3e
00000170: d146 1ebf 206f 33bf e60a 02bf 72b7 e6bd
00000180: be7e 0240 e814 77be 3ef8 94bf f5f2 de3e
00000190: a035 143e f913 573b 03c4 3fbf 2cca 9a3f
000001a0: 5c38 7c3e 166f 053f 0d77 fd3e 7ea5 1bbf
000001b0: d960 0140 ad53 babf 9ab4 1fbf f3eb 8abf
000001c0: cc1a 80bf a39d 243f 525f 9a3f 9e33 b0be
000001d0: c79f 6abe 4575 99be bd00 283d eb85 943f
000001e0: 6f01 2440 fc2a a13e 69af d63f daf0 e13b
000001f0: e209 203f c4df b7bf 13f7 7abf 7a5b a03f
00000200: 6674 3c3f def5 cf3e c992 c9bd 022b e4be
00000210: 4bb0 6e3f f2b0 0bbf 2410 3dbf 17a2 df3e
00000220: 5019 dc3f ac07 ac3f 94f7 5bbf 689f 21c0
00000230: bcac f63f dcd7 2abf 796c b7be 3a82 babf
00000240: 0def 603e 0cfe 8bbf 808c 403e 81c2 48bf
00000250: 013d b2be e194 4ebf 5958 dd3d 14a8 533d
00000260: 0a93 e1be 84a5 07bf 0038 ad3e cf3f 55bf
00000270: 83cd a73f 6905 09bf b372 ae3f 1e19 4bbe
00000280: 9aa3 2dbf 1f19 c63e 4f33 143f c40c 5d3f
00000290: f077 763e d3fc 1dbe 4272 7b3f d906 e6be
000002a0: c17f 893f 7324 42bf cd2b 08c0 9560 9cbf
000002b0: bb36 22bf accc 3b3f 2983 833f e482 1bbf
000002c0: 85ed 693e 6fed 8abf d7a7 043f 5ba8 cb3f
000002d0: 26f6 24bf 551e fa3e 8497 1f40 4b53 3d3f
000002e0: 986b ba3f 428c d83d 3463 6f3f 3b2d 6f3d
000002f0: 380c 273d cf44 eabe 8483 f3bd ad4a 543e
00000300: 3367 563e ac83 31bf 389f a83f 4f07 87bf
00000310: c5f2 e2bf 5f77 b93d 5f25 a93f 1caf 04bf
00000320: 3782 963e 1624 db3f 65a0 9b3e b3c1 6bbf
00000330: 3fed 9b3d baca 813f 9bfa 2ec0 58f0 d73f
00000340: f318 573e 609d d93e 15fe babe 40e7 a6bd
00000350: dc63 dd3f b4ed d0bf c439 b3bf 3e8e 8c3f
00000360: 5052 39be e002 39bd 93ec f1be f2e4 76be
00000370: b048 dabe 3ab6 9ebd 752d cb3e 9073 17bd
00000380: 03f1 d93f 81bd 8d3f f238 f9be 3c9d 3fbf
00000390: cca5 3bbf 8917 84bf f098 823e a6e4 843e
000003a0: fccc 94bf 2c41 0c40 3d7c bcbe 9a4e b03f
000003b0: b436 a2bf a461 0140 8bfc b33f dde5 563d
1.5943828 -0.4543533 -0.4370698 0.45896018 -2.5217123 0.6375873 -0.22316773 -1.7321879
0.6298833 -1.78785 0.6157322 -0.4697641 0.17095178 -1.5673462 -0.45014194 -0.52225345
0.6085543 0.2217274 1.3747461 0.3381849 0.22497192 0.89346725 0.38558188 0.8338681
0.9942423 1.6416503 0.43786412 0.24718009 -0.01819588 -0.8037736 -1.6409171 0.4684494
-0.8291556 1.1745632 0.34816593 -0.15338708 -1.1304483 -2.398801 -0.71646315 -1.9678876
-0.5908902 0.43013886 1.3263315 -0.76014686 -0.96322376 -0.36376238 -1.429478 -0.4546918
-1.2883278 -0.98565215 -0.7748798 0.85791427 -1.7719963 1.2742637 0.9234264 2.024305
-0.15551864 -0.78260607 0.61100703 0.60168135 0.925065 0.26767722 1.0006146 -0.7672087
0.50481313 -1.0709463 0.8996441 0.3792392 1.7829026 -2.628955 -0.784652 -1.356728
-0.106554136 1.1118891 -0.70660025 1.1837475 0.32715133 -0.9906304 -0.21151522 -0.39579222
-1.2121936 0.26947874 0.32561043 -0.61212575 -0.85610825 -1.4780478 0.1329216 -0.07466336
-0.63540125 -0.32890153 0.48325482 0.13742681 -0.6182681 -0.7009144 -0.5079788 -0.11265458
2.0389857 -0.24129069 -1.1638258 0.43544737 0.14473581 0.00328183 -0.74908465 1.2092948
0.24630874 0.5212263 0.4950489 -0.60799396 2.021536 -1.4556786 -0.6238495 -1.0853256
-1.0008178 0.64303035 1.206034 -0.3441438 -0.22912513 -0.29972282 0.04101633 1.1603369
2.5625875 0.31478107 1.6772281 0.006895167 0.6251508 -1.4365163 -0.98033255 1.2527916
0.7361511 0.4061727 -0.0984245 -0.44564062 0.9323775 -0.5456687 -0.73852754 0.43678352
1.7195225 1.3439841 -0.8592465 -2.5253544 1.9271464 -0.66735625 -0.35824946 -1.4570992
0.2196619 -1.0936904 0.18803596 -0.7842179 -0.34812167 -0.8069592 0.108078666 0.051673964
-0.44057494 -0.5298693 0.33831787 -0.8330049 1.3109592 -0.5352388 1.3628753 -0.198338
-0.6782776 0.3869104 0.5789079 0.86347604 0.2406919 -0.15428476 0.9822122 -0.449271
1.0742112 -0.7583687 -2.1276734 -1.2216974 -0.6336476 0.7335918 1.0274402 -0.607466
0.22844513 -1.0853709 0.51818603 1.5910753 -0.6443809 0.48851267 2.4936228 0.7395522
1.4564085 0.10573627 0.93510747 0.058392745 0.040783137 -0.45755622 -0.11890319 0.20731612
0.20937805 -0.6934154 1.317359 -1.0549105 -1.7730337 0.09055971 1.321453 -0.51829696
0.2939622 1.7120388 0.3039581 -0.92092437 0.076136105 1.0139992 -2.7340457 1.6870222
0.21005611 0.4250288 -0.36521974 -0.08149576 1.72961 -1.6322541 -1.4002004 1.0980909
-0.18097806 -0.045168757 -0.47250804 -0.24110773 -0.4263358 -0.07749601 0.39683118 -0.036975443
1.7026676 1.1073457 -0.48676258 -0.74849296 -0.7329986 -1.0319682 0.25507307 0.25955695
-1.1625056 2.1914778 -0.36813536 1.3773987 -1.2672944 2.0215845 1.4061445 0.05246531

weight f4 [48, 48]
00000000: 778c 5fbf 9a81 dcbe 7f57 433e 454a a5be
00000010: 9a82 003f 922c f0bd ab0d d3bd a314 b5bf
00000020: a212 f940 b562 223f 427c 893f 42eb 0640
00000030: a014 e4bf 01d1 8dbe ce6f 8bbd 07ae 8d3e
00000040: bb00 a9bf d823 5dbd aebd 1dbf fab8 643f
00000050: edb1 eac0 4cd7 d940 9aef 47bf 715e ad3e
00000060: bd36 c140 6ac7 123f fe1c f5be b73e 713f
00000070: d270 a93e c6d1 3ebf a6f0 2c3e 973a 9cbe
00000080: 6a4e 1740 c601 2dbf 124a a23f d875 c23e
00000090: 60ef 0f3f b045 4ebf 9d67 adbf b012 03bf
000000a0: 2900 62bf 7364 6f3e 277d 20be f90d c7c0
000000b0: 77f1 923f bb30 763f 1114 15c0 89ab 0bbf
000000c0: d6b6 543f fdaf f0bf efa6 c8bf e30a 0fc0
000000d0: f7b5 2a3e 4bdf 9bbe 87ea c1bf 7ff4 4d3f
000000e0: 7329 673e 6087 81bf dc1f 20c0 0364 f4bd
000000f0: c8aa fdbe 003f 683f c0e5 e1be 53c8 d03f
00000100: 8c67 3fbe c281 a53e 9966 11c0 d146 87bf
00000110: e696 d6be 1c7d 02bf 619c 81be 657e 04c0
00000120: c482 5341 5b5f b5be d1bb 0cc0 4652 edbf
00000130: 3fec fe3f ef65 bfbe 1df4 bebf 2107 5ebf
00000140: 8bf1 23bf 8b74 1a40 198b 5940 aa9b a1bf
00000150: 8c2d 12bf 795b a93f 7b4e 0d40 95e6 a33e
00000160: db28 993c be1b 723f 84d8 83be 161e a5bf
00000170: 4f08 4f3e 5d73 21bf f6c0 99bf 300c c5bf
00000180: fba0 943f ca14 aabe e517 bebe f117 773e
00000190: 49ec 68bd 3712 18c0 2aed b6bd 8a53 02bf
000001a0: a296 8d40 9619 e6be 4b24 14bf a763 10be
000001b0: 2af4 b0be 789b 94bd 0096 6fc0 8027 cb3e
000001c0: 0d41 9bbe 6e35 45bf 4387 e8bd f560 4fbe
000001d0: eeef 88be 6531 8740 6863 2fbf da15 dc3d
000001e0: 3896 9340 0631 153e dea6 83bf 0d37 3fbf
000001f0: a595 863d 244d a43d 31ee 38bd 59e2 a33d
00000200: 5045 963f 16a7 913f df0e 6dc0 b563 1a3e
00000210: 2813 c53e 50cd 6f3f 60f5 4fc0 ea2d f83e
00000220: 7fc3 2940 7e6c 153f 0851 4c3f 6777 64bf
00000230: a00c 843f 71f4 59bf 1189 31bf 44bf 4a40
00000240: 0abb a3bf 670f 573f 2c64 9e3f e3ba ae3f
00000250: 01ed c13e 0252 a0be de8b 643f e525 463e
00000260: 0f75 bcbe 3921 9b3f a0d6 b03f fecb 44bf
00000270: bc3e c93e 5c11 89bf 44c3 39c1 9443 08bf
00000280: 6265 30bc 6fb6 f43e b5fc fc3d 85aa 3cbf
00000290: bfe6 b23e fe1e f6bd 4e34 b43e fb4e 0ebe
000002a0: 5e8d 183e c427 8dbd eecc a93f 12e8 953f
000002b0: fb48 80bf bd00 7b3e 2bfc aa3f c6b9 1e3f
000002c0: 1fa1 5c3c e461 59bf 9571 493e 2741 8d3f
000002d0: 1941 acbe 5e4c 21bf 5f06 15c1 aed6 62bf
000002e0: 4503 fcbc d88f e5bf 1887 45bf d062 f03e
000002f0: 468b 78be 563c a03f c48c ab3e bd96 36be
00000300: 7f02 ca3f 1049 9fbf 5f8e fcbf 1be7 033f
00000310: 3df6 67bf d3d0 e6bf 23a3 cdbf cf9b 39c0
00000320: 74fa 0640 d55f b5be bc16 5fc0 ff2d eb3f
00000330: 35e7 a8bf 2972 c73f 72c4 4cbe e041 9a3f
00000340: 409b 12bf 19ff a3bf c0f0 cd3d 7e9f 6840
00000350: 33a7 bfbf d2f1 50be 6407 1dc0 ecad 9abf
00000360: 82ac 1c40 9322 d8bf 74c8 a3bf f588 78bf
00000370: 1ee9 a73f 0754 8cbf 4145 94be 9201 18c0
00000380: 160a 3740 fe13 f73f 462b f9bd 2021 f1bd
00000390: 3fe3 1e3f 6ff4 5e3f 863a 2abf 0e6d ae3f
000003a0: 1e37 bbbc e187 c9ba ad0a 0840 9bfe 49c0
000003b0: 8ef8 653f 59a2 b7be db8e 00c0 cab5 0a40
000003c0: 515f 2ebe a054 a33e 66ee dfbd 38da 1c3e
000003d0: a1ac c63c 510c 0a3e eb40 90bc 3875 f53c
000003e0: 4522 2dbd 8803 053e 5a2b a53e 45ed 06be
000003f0: ace0 983e 00b9 f4bd d636 953c ba84 debb
-0.8732371 -0.43067628 0.19076346 -0.32283226 0.5019928 -0.11727251 -0.10305341 -1.4146923
7.7835245 0.63431865 1.0741045 2.108109 -1.7818794 -0.2769852 -0.068084344 0.27671835
-1.3203348 -0.05398926 -0.61617553 0.8934475 -7.3342195 6.8075314 -0.7809998 0.33861116
6.037932 0.5733553 -0.47873682 0.9423632 0.33093888 -0.7453884 0.16888675 -0.3051345
2.364161 -0.6758083 1.2678854 0.37980533 0.5622463 -0.80575085 -1.3547245 -0.5120039
-0.88281494 0.23378162 -0.15672742 -6.2204556 1.1479939 0.96168107 -2.3293498 -0.54558617
0.83091486 -1.8803707 -1.5675944 -2.2350395 0.16670977 -0.30443797 -1.5149697 0.80451196
0.22574405 -1.0119438 -2.5019445 -0.11933138 -0.49544358 0.9072113 -0.44120598 1.6311134
-0.18691844 0.3232556 -2.271887 -1.0568486 -0.41912 -0.5097215 -0.2531462 -2.0702145
13.219425 -0.35424313 -2.1989634 -1.8540733 1.9915847 -0.37382457 -1.4918247 -0.8672963
-0.6404044 2.4133632 3.3991148 -1.262563 -0.5710075 1.323104 2.207915 0.32011858
0.01869624 0.9457358 -0.25751126 -1.2899806 0.20218013 -0.63066655 -1.2012012 -1.5394344
1.1611627 -0.33218986 -0.37127605 0.24130227 -0.056865964 -2.3761117 -0.08931954 -0.5090872
4.424638 -0.44941396 -0.5786788 -0.14100514 -0.34561282 -0.07256216 -3.7435303 0.39678574
-0.30323067 -0.7703465 -0.11353924 -0.2025183 -0.26745552 4.2247796 -0.68511057 0.10746355
4.6120872 0.14569482 -1.0285299 -0.74693376 0.06571511 0.08022526 -0.045149032 0.08002157
1.1739902 1.1379116 -3.7040327 0.15077098 0.38491178 0.93672657 -3.2493515 0.4847253
2.6525571 0.5836867 0.79811144 -0.89244694 1.0316353 -0.85138613 -0.6934977 3.167924
-1.2791455 0.8400788 1.237432 1.3650783 0.37876132 -0.31312567 0.8927592 0.19350393
-0.3680806 1.2119514 1.3815498 -0.7687377 0.39305675 -1.0708423 -11.610172 -0.53228116
-0.010766359 0.47795436 0.123528875 -0.7369769 0.3494167 -0.1201763 0.35196155 -0.13897316
0.14897677 -0.0689235 1.3265665 1.1711447 -1.0022272 0.24512 1.3358206 0.6200222
0.013466149 -0.84914994 0.19672234 1.1035508 -0.33643416 -0.6300715 -9.314055 -0.88608825
-0.030763278 -1.7934523 -0.7715926 0.46950388 -0.24271879 1.2518413 0.33505833 -0.1783094
1.5782012 -1.2444172 -1.9730948 0.51524514 -0.90610105 -1.8032478 -1.606541 -2.9001348
2.1090364 -0.35424677 -3.4857626 1.8373412 -1.3195559 1.5581714 -0.19996813 1.2051353
-0.5726814 -1.2812225 0.10055685 3.6347346 -1.49729 -0.20404747 -2.453576 -1.2084327
2.448029 -1.6885551 -1.2795548 -0.9708398 1.3118017 -1.0963143 -0.28959087 -2.3750958
2.8599906 1.9302976 -0.12166457 -0.11773896 0.620655 0.87091726 -0.6649555 1.3627031
-0.02285343 -0.0015375578 2.1256516 -3.156165 0.8983239 -0.3586605 -2.0087192 2.1673455
-0.17028548 0.319005 -0.10934143 0.15317619 0.024252238 0.13481261 -0.01760908 0.02996312
-0.04226901 0.12989628 0.32259637 -0.13176449 0.2985891 -0.119493484 0.018214624 -0.0067907246

bias f4 [48]
00000000: f23e 6640 0aae 8c3f 1828 f440 5138 5440
00000010: 4b94 c53f 78ae 8940 8690 3140 8e29 8040
00000020: 5c6b 8f40 9652 d940 89ed ec3f a5e9 0340
00000030: 9151 d440 c8df f43f c4e9 ad3f 687e d940
00000040: a3f7 e63b 7517 8340 4124 8640 05f5 ea3f
00000050: 8ea3 d540 05f5 8740 7b3f 9840 ed4f 463f
00000060: b5f7 11bf 6d18 7f3f 9578 893e c2f1 a9c0
00000070: 37fa 8dbe 83ab 4d40 fe58 9440 fe2f 6c40
00000080: 6a5a 8040 519a 6cbf 5a2f 4640 94ab d0bf
00000090: 2e8c cec0 417a 28bf ac62 d840 727f 2640
000000a0: 152c b940 4f93 a540 1531 0f40 b346 0eb7
000000b0: 4587 51bf 4d7d b640 1017 1ec0 c992 9c40
3.5975919 1.0990613 7.6298943 3.3159373 1.543588 4.3025475 2.774446 4.0050726
4.4818554 6.7913313 1.850999 2.0611355 6.634957 1.9130793 1.3586965 6.7966805
0.0070485636 4.0966134 4.1919255 1.8356024 6.676215 4.2486596 4.757749 0.7746571
-0.57018596 0.99646646 0.2684981 -5.3107615 -0.2772996 3.2135932 4.6358633 3.6904292
4.011037 -0.9242297 3.09664 -1.6302361 -6.454612 -0.65811545 6.762045 2.6015286
5.786631 5.174232 2.2373707 -8.4803205e-06 -0.8184703 5.7027955 -2.4701576 4.892918

weight f4 [48, 48]
00000000: 258e 133f 8a78 80be 8444 dfbe 84b8 113e
00000010: 3117 f53d 3d69 733e f6af 00bd 7d50 c2bd
00000020: bf8c 073e baf7 123e 95ec e13e af79 03bd
00000030: f7a5 4dbe a4e9 393e 0e9a 05be a749 82be
00000040: af9e 823c 8845 bd3d 8e8a f43b cc31 b93c
00000050: 348b 29bd f2c8 f33d 32f3 59bf a608 543d
00000060: 1be2 ad3d 6280 023f bf8b 9bbe 74e9 9dbe
00000070: 94cb 83be 5cd6 403e a48e 0bbe 6463 43bd
00000080: 18d4 8a3d 4c9e 7c3d 9dd6 8abe 2493 09bf
00000090: 0b6d 4b3f d952 f1bc ea8d adbd b193 3abe
000000a0: 8afc b03e 7630 6f3e bcd3 6fbe 662b d13d
000000b0: f391 b1bd 9f36 51bf 0ed5 cdbe 9d1a 403d
000000c0: 7d44 2b3c b6e3 0fbf 49f8 ccbe fa70 42be
000000d0: 8b11 203d 0739 d7be 5836 bfbd 8a81 5c3e
000000e0: a54e d53d 2e59 aebe da32 54be 1bdf e83e
000000f0: 92a6 b5bd 49db d6be f22a 04bd 471a c83d
00000100: 1f0c 02bd 241f 8f3d eca9 053e d59e 1f3f
00000110: 8c95 043e ed8e e6bd 29c6 d8be bac1 cbbe
00000120: 6594 533e 0a8c 99be 138b 53be 49e4 223c
00000130: 51cd c23b 9a5f dbbd e89a 85bd caa2 19bf
00000140: 7f5f bc3c c13b 2a3e 6c8c 513d 0777 a7bd
00000150: 55a0 2c3d 9db4 92bd cd99 2ebe 40ba f93e
00000160: c176 5ebe 6607 7a3e 8594 8c3e 3310 68be
00000170: d126 043f e007 993e a67c d8be 5bfc 3c3e
00000180: 3568 75be ccb4 763e e051 ef3e 353c b93d
00000190: 8efe 3f3e 264a 903d 0693 63bd 62f9 333f
000001a0: e803 343e f110 f73e 99aa 603f b0c7 c9be
000001b0: 5605 99bc 53b9 57be e103 693e a3d8 b73b
000001c0: bb34 8d3e 2969 d83e fb1b 8dbd 47e0 abbc
000001d0: d5dd 273e 2bdd d23d 5619 453f 8d9d c43e
000001e0: 78da 9bbd e499 493e a66a 1cbf 3c62 813e
000001f0: 1741 203f 81be 17bf 7ca5 8f3d c964 f23e
00000200: 25ad 0abf a39d 79be 6573 3f3e e3e3 c9be
00000210: 68b2 b9be 34bb ad3d cf8a 5f3e 23d0 a0be
00000220: d1b2 493e a39b eebe 710a 13be a576 403e
00000230: f2c5 c8bc 5f9a 853e a802 983d f6fa 483e
00000240: 286d 9d3d 8274 d1bd 54bf e73d aee1 66bc
00000250: 0a1d 943d 9ae9 103e ae49 423d 7eec ea3e
00000260: bff7 9ebd eaa8 ca3d 4fb6 8e3e 0c71 2b3e
00000270: 3d2b 623e 0437 ffbd b5ce 12bb e2e0 abbd
00000280: 4649 4b3e f07c e0bd 2a0a 803c 8f8e eabe
00000290: af35 fe3c e51c aabd 8558 e63c 2530 8f3e
000002a0: d63c 87bc 5975 b43e 93df 913c 99b0 903e
000002b0: 1b89 26be 5cb7 d7bd 5f08 e33e 4710 c43e
000002c0: 0ee4 be3d 773b 8abe 81bd 043e 974c efbc
000002d0: ecf4 223e a565 9dbe e748 4c3e 301d 0fbf
000002e0: 1eb6 d9bc 9602 8bbd ac00 d3be 4a29 f43b
000002f0: c88e 1f3d 5a2f e83e 5044 a9bd 6b58 a4bd
00000300: 8407 573f 820a 23bf 12bf 06bf c922 d6bd
00000310: 2988 adbf 3fc2 183f ef5d e2bf 39a6 873d
00000320: d6d9 b33e f123 2cbf baef 08bf 5df6 6abf
00000330: 046b b73e 5bba f03f fd3c 57bf cff9 6abf
00000340: 8f0f 8abe 5362 be3f 04a3 bfbd 23b8 04c0
00000350: 19bc 1cbf 883c 85bf cfec 883c 5b9f e3bf
00000360: c30a 983f 10ea 613d e955 5fbf a599 47c0
00000370: 632c 3a3c d0c3 2fbe c473 e7bf 3e8e 313f
00000380: 1801 d6be 1778 623f 49c0 cebf 4d6f 1c3f
00000390: a391 9bbf 14a2 873f 2fd8 21bf 7be7 90be
000003a0: 09d7 42be fecb 793e f00b afbe d2b5 aebf
000003b0: 7b95 03bf a510 44be c547 04bf 5b89 3a3f
000003c0: e333 a6be 77f8 bcbd 8ba3 f13d 4602 b13d
000003d0: 15ae 213d 1665 e43e fd22 c7be 3c36 91bf
000003e0: 94e1 1abe 1fff 243d 25f5 89bd 9237 ad3f
000003f0: 18e9 85bf 7906 483e 5d9a 8c3f d258 02be
0.5763877 -0.25091964 -0.4360696 0.14230543 0.11967314 0.23770614 -0.03141781 -0.09488008
0.13237284 0.14352313 0.4412581 -0.03209847 -0.20082842 0.18155533 -0.13047048 -0.25446817
0.015944807 0.09241778 0.007462806 0.022606753 -0.04139252 0.11903562 -0.8513671 0.05176606
0.08490392 0.50977147 -0.30380055 -0.30842173 -0.25741255 0.18831772 -0.13628632 -0.04770221
0.06778735 0.0616744 -0.27116862 -0.53740144 0.7946326 -0.02945845 -0.084743336 -0.18220402
0.34567672 0.2335833 -0.23420614 0.10213356 -0.08670416 -0.8172397 -0.4020161 0.04690038
0.010453341 -0.56206834 -0.40033177 -0.1898841 0.03907923 -0.42035696 -0.09336537 0.2153379
0.10415391 -0.34052414 -0.20722523 0.45482716 -0.088696614 -0.41964176 -0.03226752 0.09770637
-0.03174984 0.069883615 0.13053101 0.62351733 0.12947673 -0.1125773 -0.42338684 -0.3979624
0.20662077 -0.29989654 -0.20658521 0.009942123 0.005944886 -0.10711594 -0.06523687 -0.6001402
0.022994755 0.16624357 0.051159307 -0.081769995 0.042145092 -0.071633555 -0.17050858 0.4877491
-0.21724989 0.24416885 0.2745706 -0.2266243 0.5162173 0.2988882 -0.422826 0.18455641
-0.23965533 0.24092406 0.46742153 0.09044687 0.18749449 0.07045393 -0.055560134 0.703024
0.17579615 0.48255113 0.8776031 -0.39410162 -0.018679302 -0.2106679 0.22755386 0.005610542
0.27579293 0.4226773 -0.068901025 -0.020980967 0.16393216 0.10296091 0.76991785 0.38401452
-0.07610029 0.19687611 -0.6110023 0.2527026 0.6259932 -0.5927506 0.070139855 0.47342518
-0.5417045 -0.2437654 0.18696363 -0.39431676 -0.36268926 0.08482972 0.21830295 -0.31408796
0.1969712 -0.46603116 -0.14359452 0.1879526 -0.02450845 0.26094338 0.07422382 0.19626984
0.076868355 -0.102273 0.1131579 -0.014091892 0.07232101 0.14151612 0.047433548 0.45883554
-0.077620976 0.09895499 0.27873465 0.16742343 0.22086807 -0.12461665 -0.002240104 -0.08392502
0.1985217 -0.1096133 0.015629847 -0.4581189 0.031031458 -0.083062924 0.028118381 0.2796642
-0.016508501 0.3524578 0.017806804 0.28259733 -0.16263239 -0.1053302 0.44342324 0.3829367
0.09320842 -0.26998493 0.12962915 -0.029211326 0.15913743 -0.3074161 0.19949685 -0.5590391
-0.026576098 -0.067876026 -0.4121145 0.007451211 0.038954526 0.45348626 -0.08264983 -0.08024677
0.8399584 -0.6368791 -0.526353 -0.104558535 -1.3557178 0.59671396 -1.7684916 0.06623501
0.35127133 -0.6724234 -0.53490794 -0.9178217 0.35823834 1.8806871 -0.84077436 -0.9178743
-0.26964995 1.4873756 -0.09357265 -2.0737388 -0.61224514 -1.0409098 0.016714482 -1.7783006
1.1878284 0.05515486 -0.87240463 -3.1187527 0.011363122 -0.1716454 -1.8082204 0.6935767
-0.4179771 0.8846449 -1.6152431 0.6110733 -1.215382 1.0596337 -0.63220495 -0.28301606
-0.19027342 0.24394223 -0.34188795 -1.3649237 -0.51399964 -0.19146974 -0.5167201 0.7286584
-0.3246146 -0.092270784 0.117987715 0.08643012 0.03947266 0.44608372 -0.3889388 -1.1344676
-0.15125114 0.040282365 -0.06736211 1.3532584 -1.046176 0.19533719 1.0984608 -0.12729195

weight f4 [48, 48]
00000000: 2d58 5f3f da13 2e3f ff62 7a3f b75a 1bbe
00000010: 3b61 2bbf 2872 bf3e 011d f03e dd13 38bf
00000020: b23d 133e 3a96 dc3e 2e8c 27bf 80f0 8c3d
00000030: 22d4 b43e bf81 0c3f 0400 8dbf 5103 503e
00000040: 603e 143f 4f8d 6fbf 2c9c c53e e53d c43f
00000050: 5aed 1d3e 1c70 be3e 27e4 c93e 4eb5 5fbe
00000060: b86b 6dbd f689 593e 2e45 52be f364 3cbf
00000070: c3b4 e8be 0800 913e 514d af3e a6f0 3a3f
00000080: 607f c23d 13c4 c3bd e60b 7d3f 4f6e 55bd
00000090: 32e8 60bf 1563 16bf 2f52 d03e 7a31 753e
000000a0: ff73 adbc 0ab1 e73e 818b f0be b671 74bf
000000b0: 2001 ac3f 8dd4 543f e9d0 313f d778 503e
000000c0: 3030 cfbe bcc2 0b3f e983 683e a769 b53e
000000d0: ea3a 81bf 6bdb 343e d2e3 87bd 3a1e 41be
000000e0: 6c59 183f 3a6d 3abc 5c67 363e 7dd2 c53e
000000f0: 221f 0dbe f43b 20be f122 a5bc 8307 71be
00000100: ae58 33bf b30e 873e 888a 253e db7a cabe
00000110: 42b9 223c 456a 3a3f f3eb 0bbf c2c4 3a3f
00000120: 9782 b83d 782c 4b3c 1991 a53d 8d98 02bc
00000130: 42bf 97be 1c83 223e 6611 bbbe 5eee 03be
00000140: be44 b7ba 53f6 773f 58e7 b2be 3b27 15bf
00000150: c7eb d33e e203 d9be 7c47 71bd 20b0 523f
00000160: 4365 7b3d a504 81be e682 f4be 06a7 1c3d
00000170: 0ebd 833e 27fc 0b40 cf05 583e c2b4 a5bd
00000180: 2db9 7bbf 2ba1 2cbe 01e9 9dbf c56e bb3d
00000190: 7fa0 a2bf 372e 9f3e 20a9 70bc 3229 59bf
000001a0: 2219 363e 7b8a e23d 6125 453e e603 22be
000001b0: 4c94 0e3e 4a03 d93e 9f41 5fbf d469 a4bd
000001c0: 87f0 7e3f 9afe 793f 937f 013f 5fc7 c23f
000001d0: 37ae 30bd 0693 9dbf 8d7c 9ebc 02b6 983f
000001e0: d650 31bf 5890 73be c32e 72be 4d62 19bf
000001f0: b8cb babd 547c 803e 18da 0d3e 2468 69bf
00000200: 2c62 c53e 2f71 8b3e 83fc d23e 980f 82be
00000210: d170 16be 0fa7 9f3c 3b68 64bd 5be2 ecbd
00000220: 2043 993e edf1 803e dddd 8bbe a844 983f
00000230: 7855 843e 42ad afbe 8f0d b3be f217 17bf
00000240: cac9 b2be 8a8e fdbb 7df9 f8be 49a8 d2bd
00000250: 67a5 fdbe 3f6d ff3e 6191 abbd c22c 39bd
00000260: 1456 16c0 429e 3ac0 d63e 6bbe 6715 14be
00000270: a59b 83c0 3cae 523d a6a6 0c3d b13d 4dc0
00000280: 9661 d1bf 4272 c5bd 1d9c 0a3f 474d 05be
00000290: bf74 6fc0 edfe 46be b87b 40be 6f7b 8a3d
000002a0: c0e5 e13d 6fef dfbc c52b 9d3c 1d79 35bd
000002b0: 20d5 b5bc 5f23 52bf 091d 323f b125 71be
000002c0: 2f23 d83e c759 e13e 0fb7 6cbd e027 143f
000002d0: a13f b03a 4b5d 883c 9ef6 5fc0 a0a1 bc3d
000002e0: a899 153f b0d5 e33e 28bb debb 52c5 693d
000002f0: 6afb d4bd b677 afbe 13e7 cfbd 9512 42ba
00000300: 3e15 bf3d 28ca e0be a287 c53e 59c4 81be
00000310: 8add 91bf 923a 8d3e d80e 88be 5a36 3bbf
00000320: 49e9 52bd dede abbe 9e6a 8a3f 2737 f83e
00000330: a755 a03d 6561 d73d 932c 4b3f 0c7a e3bd
00000340: 44ae a83e baa2 ad3f b273 3c3e ae74 88be
00000350: 0f9b 70be b690 373f ecab 5cbf 9389 c73f
00000360: 2c4c aa3d 9696 2cbf 7bd0 7a3e a941 ef3e
00000370: e8e5 aa3b 07e2 11bf 83af a83e b05d fbbd
00000380: 442e 8e3d b019 b43f fc0f 8f3e 6f4b 77bf
00000390: 8e77 213e 7221 acbe 20d9 8fbe af1c 35bf
000003a0: 5e34 1cbe a793 723e f1a4 183f 1646 2d3f
000003b0: 7934 1bbf 212e 883f 66a7 94be 9b37 0c3f
000003c0: 8626 3c3f 5958 ae3e 5674 bfbc ed70 cc3e
000003d0: b20b 8e3f 8c42 cfbe 1b27 a33e 8b34 27bd
000003e0: 217a e23d 1c2d fdbe 8e77 4f3f 54f6 b13e
000003f0: 94b9 75be e264 643e 6cca 883f 42ba cbbe
0.8724392 0.6799904 0.97807306 -0.15171324 -0.66945237 0.37391782 0.46897128 -0.7190531
0.14379004 0.43083364 -0.6544827 0.06881809 0.35318094 0.54885477 -1.101563 0.20313765
0.57907677 -0.93574995 0.38595712 1.5331389 0.15422574 0.37194908 0.3943188 -0.21846506
-0.057964057 0.21244034 -0.20534202 -0.73591536 -0.4545041 0.28320336 0.34238675 0.7302345
0.09496951 -0.095588826 0.9884628 -0.05210715 -0.878543 -0.5874494 0.406877 0.23944655
-0.021173475 0.45252258 -0.46981433 -0.9548601 1.3437843 0.83136827 0.69459397 0.20358597
-0.40466452 0.54594016 0.2270657 0.3543217 -1.0096104 0.17661826 -0.0663525 -0.18859187
0.59511447 -0.011378581 0.17812866 0.38637152 -0.13781407 -0.1564787 -0.020158263 -0.23538022
-0.7005719 0.26378402 0.16166127 -0.39546856 0.009931864 0.72818404 -0.54656905 0.7295648
0.09009283 0.012400739 0.08084316 -0.007970941 -0.29638106 0.15870327 -0.3653671 -0.12883899
-0.0013982279 0.96860236 -0.34942126 -0.58262986 0.4139082 -0.42385775 -0.058906063 0.82299995
0.061375868 -0.25198856 -0.47756118 0.038245223 0.25730175 2.1872652 0.21095966 -0.080911174
-0.9832943 -0.16858356 -1.2336732 0.09151987 -1.270523 0.31089947 -0.01468876 -0.84828484
0.17783025 0.11061569 0.1925254 -0.158218 0.13923758 0.42385322 -0.87209505 -0.080279976
0.99585766 0.97654116 0.5058529 1.5217093 -0.043134894 -1.2310493 -0.0193465 1.1930544
-0.6926397 -0.23785532 -0.2365065 -0.5991562 -0.091208875 0.25094855 0.13852727 -0.9117453
0.38551462 0.2723479 0.41208276 -0.25402522 -0.14691474 0.01948884 -0.055763464 -0.115666114
0.29934025 0.25184575 -0.27317706 1.1895952 0.25846457 -0.34311873 -0.34971282 -0.5902091
-0.34919578 -0.0077379392 -0.48627844 -0.10286004 -0.49540254 0.49888036 -0.08377338 -0.0452087
-2.3490038 -2.9159093 -0.22973189 -0.1446129 -4.1127496 0.051435694 0.034338616 -3.2068903
-1.6357906 -0.096409336 0.5414446 -0.1301776 -3.7415006 -0.19433184 -0.18797195 0.06761824
0.110301495 -0.02733585 0.01918591 -0.044304956 -0.022196352 -0.8208522 0.69575554 -0.23549534
0.42214343 0.44013807 -0.057791766 0.57873344 0.0013446697 0.016646048 -3.4994273 0.09210515
0.58437586 0.44498968 -0.006797213 0.057072945 -0.10399516 -0.3427102 -0.10151496 -0.00074032816
0.093302235 -0.43904233 0.38580042 -0.25345114 -1.1395733 0.27583748 -0.26573825 -0.7312981
-0.05149201 -0.33568472 1.0813787 0.48479578 0.07828837 0.105166234 0.7936489 -0.11107263
0.32945454 1.3565285 0.1840351 -0.2665152 -0.2349665 0.71705186 -0.8619983 1.5588859
0.0831531 -0.67417276 0.24493591 0.46729782 0.0052153952 -0.56985515 0.32946405 -0.12273729
0.06942418 1.4070339 0.27941883 -0.9659948 0.15768263 -0.33619267 -0.2809534 -0.7074689
-0.15254351 0.23689137 0.5962668 0.6768507 -0.6062694 1.0639077 -0.29033965 0.5477235
0.7349628 0.3405178 -0.023370903 0.39929906 1.1097319 -0.4048046 0.31865773 -0.040821593
0.110584505 -0.49448478 0.810418 0.34758246 -0.23996574 0.22304109 1.0686774 -0.3979054

bias f4 [48]
00000000: 5559 533e 2b46 91be 4de9 8d3e aa32 9ebf
00000010: 42fc afbd a8ca 023d af79 0f3e 7577 bb3c
00000020: c209 82c0 1641 13be fa73 623e 5285 84be
00000030: 1895 6b3e b9b8 07be 8ffa 71c0 50f4 f2bf
00000040: a483 dcbe 889b 273d 9d18 d3be 7129 be3e
00000050: f18e c53f 4ca0 f6bc 5e31 8abd 6308 52bc
00000060: 8dd5 2fbd e0a5 a9bd fe44 37bd 4e83 31c0
00000070: 20fe 413d 57af 113e 57b0 f43d 36c4 b43e
00000080: 567b 6cbc 5359 a63f 9a05 6dbe 2e4c 8ebd
00000090: 09e7 ddbf fd3a f0bd 9d8c 24bd 197e 86be
000000a0: ce03 723e 2692 b73e 0b71 1440 f61e a33f
000000b0: 84f3 a4bd 6917 243f bb5c c3bd 7f8d e63f
0.20639546 -0.28373846 0.27717057 -1.2359211 -0.08593036 0.03193155 0.14011262 0.02288411
-4.063691 -0.14380297 0.22114554 -0.25882965 0.23006094 -0.1325406 -3.780918 -1.8980808
-0.43069184 0.04091981 -0.41229716 0.37140992 1.5434247 -0.030105732 -0.06747697 -0.012819382
-0.042928267 -0.08283591 -0.04474353 -2.7736392 0.047361493 0.14227043 0.11947697 0.35305947
-0.014433702 1.299601 -0.23146668 -0.06948124 -1.7336131 -0.11730001 -0.04017316 -0.2626808
0.23634264 0.3585369 2.3193996 1.2743824 -0.080542594 0.6409822 -0.09539171 1.8011931

weight f4 [48, 48]
00000000: 8ae4 0e3e 941b 003f 062f 75be f9e1 9cbd
00000010: 0773 47bf 22de 19be 1f7a 44bf 31cc bdbd
00000020: 390e 493e c031 41be 6eed 4bbe a6c5 99be
00000030: 5fc0 30be 1bac 0f3f c187 103f 368e 26be
00000040: 03e4 5f3f 7679 f6be b771 f1bd 55a5 7c3d
00000050: 6a1e 67be 2e2a b3be 3374 8a3d 3b91 553f
00000060: 1dd4 833e 151c fc3e 9daa 903e fa8e ce3e
00000070: 8113 d33e 0dda 343e 50c8 7dbe a1fb 0d3f
00000080: 9d91 6abe 59be 25bf 2f12 e13e 1417 84bf
00000090: decf b63d 19b7 a3bc e72e 37bd 29e1 8dbe
000000a0: 3617 49be 96c8 71bf 2f49 053e 10b6 a23f
000000b0: 7ec5 acbe e022 9b3f 751f a73d 862f 5abf
000000c0: a566 d23e f501 e23e 65b6 a33e 5b47 3fbe
000000d0: ffa4 4e3f 67da 41be 39a7 ee3e 1716 2cbf
000000e0: 8086 6b3f 6b87 45bd c2cf d3be c84e cabe
000000f0: d423 ddbe e916 14be 4a36 303f f1d6 33be
00000100: 0b4b 66be 59ca 553e 62eb 1e3e 2a50 5d3f
00000110: 3da3 85be 4df5 84bf 9525 f43e 078e 2a3c
00000120: c250 d6be 8267 a13d ee4c 22bc aef6 b73e
00000130: 612c e23e 632b 35be 2b12 0c3f 88e9 06bf
00000140: 4d15 003d 68c8 1ebf cf88 f63d 6c8d 183d
00000150: 035b 143f 4f26 a8be 3e17 cbbe 808c 103f
00000160: 6fad b03d e296 7f3e 81f3 203e df97 6740
00000170: 492c 59bf e87e 8b3e 738e 3cbf b79d d63e
00000180: a727 74bf b2cf 21bf 52b9 bf3e cc7c 7c3e
00000190: 9efc cb3f 2f0a e73d 862a 12bf 1d02 013f
000001a0: bf64 f63d 9a7f cf3d 9f82 833f f503 283f
000001b0: 7c0f 83be 0fa1 563f a522 84bc 557d abbd
000001c0: 743e 403e d002 0a3e 5593 983c f4c8 dbbf
000001d0: 4e93 debd 0a9c 123f 1a9e 3b3e d37f 09bf
000001e0: a7c5 293f 2e7d a53e d74e d7be 11c6 a5be
000001f0: cba5 5fbf 717d 283f cddd ec3e cbf5 763e
00000200: f49f 87bd 9a84 1e3e edf4 aa3f f87e e0bf
00000210: 6ec3 12bf 0143 efbe 5941 94be 5be3 0b3f
00000220: 7e2e cfbc 5cc6 f7bd d15e 8a3e 3339 b8bd
00000230: b4dc 01be 9187 053f 3c21 4bbe 6ebf cabd
00000240: 8d78 a13e 30c6 b03e 3481 123e 1630 52bd
00000250: c305 01bf a573 80bc 14cd 0b3f c4ef 08be
00000260: 8c1a bf3d 4d48 9c3c db59 cc3c f2ac 713e
00000270: a12b d4bd 5f92 633f 0117 9c3d ddec 56be
00000280: b46d 163d a280 213d 832a d8bd d03d b63f
00000290: fb9d 1ebe d923 283d b40e 773e ee4b b13e
000002a0: 3351 fa3e 82d4 0a3f 80ce ca3e e5f8 513d
000002b0: 4ef9 b7bd 6171 9a3c d826 f1bd 520c 493e
000002c0: a862 82be c992 593c 837e aa3d 0cb1 353f
000002d0: 5f4e 0b3f 0778 aa3d dbd6 53bd 38b5 173f
000002e0: 66cf 7ebd 4986 0cbe 440d 183e 48aa bd3e
000002f0: 3943 053f 7404 cdbc 372c 643f 593a c33d
00000300: 415b 323e 0ec7 c73e 4589 d4be 7bd9 cd3e
00000310: 4e74 e63f 1352 b03c a062 0bbf 7dac 4c3f
00000320: 0d76 15bf 5223 86bd 1df5 70bf 4928 783e
00000330: de69 2f3e 260e 80be 0b78 053e 9a15 ea3c
00000340: 0d67 5bbd ff33 4bbf 3e00 86bd 59dd d7be
00000350: 368f 303e e26e 86bf dac5 2c3f f5fc 81bf
00000360: 5bd7 37bf f219 8abd 42d9 8a3d 92e7 113f
00000370: 4d19 2cbe a07c ca3d 0bec 843e 0c34 92be
00000380: e2e7 903d 3f67 9ebf 110b c6be 5116 01be
00000390: 8b2b ae3d f57f 7fbe 1e6b 473e 027e 2c3f
000003a0: 0ff1 103d 6537 e73e 866d 90be 3ee7 ba3e
000003b0: b4ee dc3e 1afa 013f 86c9 aabe 585b 533e
000003c0: d65c a3bf e2ec e1be 0bd2 f53d 808f 063d
000003d0: 4b5c 6a3f c37a ddbd 4e7e 48be 5bb8 cdbd
000003e0: 01eb 81bf a68d b8bc bf96 71be 952f 8d3e
000003f0: 1b3f 073d e709 313e a375 963f 33da 54be
0.13954368 0.5004208 -0.2394372 -0.07660288 -0.7790989 -0.15026143 -0.7674884 -0.09267462
0.19634332 -0.18866634 -0.19914791 -0.30033606 -0.17260884 0.5612199 0.56457144 -0.16265187
0.87457293 -0.48139542 -0.117892675 0.06168111 -0.22570196 -0.34993118 0.067604445 0.8342473
0.25747767 0.49240175 0.28255168 0.40343457 0.41225818 0.17661305 -0.24783444 0.5546208
-0.2290711 -0.6474357 0.43959185 -1.0319543 0.08926366 -0.019984769 -0.044722464 -0.27710846
-0.1963776 -0.94446695 0.13016199 1.2711811 -0.33744425 1.2120018 0.08160297 -0.85228765
0.41093937 0.44142118 0.31975093 -0.18679564 0.80720514 -0.1893097 0.46611956 -0.67221206
0.92002106 -0.048224848 -0.41369444 -0.3951323 -0.43191397 -0.14461865 0.6883284 -0.17562462
-0.22489564 0.20877971 0.15519479 0.86450446 -0.26101103 -1.038736 0.47684923 0.0104098385
-0.41858488 0.07881071 -0.009906037 0.3593039 0.44174483 -0.17692332 0.5471522 -0.5270009
0.031270314 -0.62024546 0.12037813 0.037244245 0.5795137 -0.32841727 -0.3966617 0.56464386
0.0862683 0.24959901 0.1571789 3.6186445 -0.848332 0.2724526 -0.7365486 0.41917202
-0.95373005 -0.6320754 0.37446076 0.24656981 1.5936468 0.11281239 -0.57096136 0.5039385
0.120309345 0.1013176 1.0274237 0.6563104 -0.2559775 0.83839506 -0.016129801 -0.083735146
0.18773824 0.13477635 0.01862494 -1.7170701 -0.1086794 0.57269347 0.1832203 -0.5371067
0.6631722 0.32322067 -0.42052338 -0.32377675 -0.87362355 0.6581641 0.4626297 0.241172
-0.066223055 0.15480271 1.3355995 -1.7538748 -0.5732945 -0.46730807 -0.28956106 0.5464379
-0.025290724 -0.12098381 0.27025464 -0.08995285 -0.12681848 0.5215998 -0.19836897 -0.098997936
0.31537285 0.34526205 0.143071 -0.05131539 -0.50399417 -0.015680144 0.546098 -0.13372713
0.09331235 0.019077444 0.02494519 0.2360113 -0.10359884 0.8889522 0.07621575 -0.20988794
0.036725715 0.039429314 -0.105549835 1.4237614 -0.15489952 0.041049812 0.24126703 0.34628242
0.48890075 0.5423051 0.39610672 0.051262755 -0.08983098 0.018852891 -0.11774987 0.19633606
-0.25465894 0.013279625 0.083249114 0.7097328 0.5441646 0.08323675 -0.051718574 0.5926089
-0.06220951 -0.137231 0.1484881 0.37043977 0.520557 -0.025026537 0.89129966 0.09532613
0.17417623 0.39019054 -0.41510978 0.40204987 1.8004243 0.021523511 -0.54447365 0.79950696
-0.58383256 -0.065497056 -0.94124013 0.24234118 0.17130229 -0.25010794 0.13034074 0.028574754
-0.053565074 -0.79376215 -0.06543015 -0.42161062 0.1724213 -1.0502589 0.674894 -1.0155321
-0.7181298 -0.0674323 0.0677972 0.56993973 -0.16806526 0.098870516 0.25961336 -0.28555334
0.07075478 -1.2375258 -0.38680318 -0.1260617 0.08504399 -0.24951155 0.19474456 0.6737977
0.03538614 0.4515945 -0.2820856 0.3650455 0.43150866 0.5077225 -0.33356875 0.20640314
-1.2762706 -0.4412604 0.12002953 0.032851696 0.9154708 -0.108144306 -0.19579431 -0.10044929
-1.0149843 -0.02252848 -0.23592661 0.27575365 0.033019166 0.17288934 1.175465 -0.20786361

weight f4 [18, 49]
00000000: 1f64 a83d 181c 04bd a17e 983e 9ecb 913f
00000010: 0a4f 9abd b0c1 e9bd 7b00 b0bd cd3b 82be
00000020: 5542 843e 62fd c53d 4fd6 0dbe 4b71 6f3c
00000030: 237f 7abe 8677 b7be 288f 8c3e 4187 db3d
00000040: c4f2 2bbe 0fc4 0c3d be96 92bd 0213 95bd
00000050: 21db d03f 80b0 d03d 6c34 e03d 8b5f f2bd
00000060: ce3a 4c3d 61df 893d 377c 2ebd 3f19 32bf
00000070: 2513 b9bd f748 c83e b4f6 86be 536f 1440
00000080: e081 01bd f333 12bf 1dd9 1fbf 6b4e 65be
00000090: ee94 efbe 66e6 933e 93ee 3fbe bfee 8c3e
000000a0: 6292 af3e 0cec e93d 1469 72be 1908 aabe
000000b0: f182 6dbd 02f4 63bc 4737 c5bd e621 ebbe
000000c0: 8add 0ac1 e7b4 303e 7447 ef3d a7c5 123e
000000d0: cc56 c1bd 57fd 8dbd 31a2 203e aee2 8c3d
000000e0: dd58 b73d 9e73 78bf a47d cf3e 3529 4cbe
000000f0: f439 0ebe 9801 babc d28b 4e3e c2af 123d
00000100: 9c93 c93f 39d2 b03e a260 e13c e2c3 a83e
00000110: 199e a13d e2b0 cabe 75d4 aabd 3c0e 773e
00000120: 8670 283e 6e21 83bd 1d2f 9d3e a07c 783e
00000130: 22cb 0d40 d19a 943e 9de8 993e ac86 c93b
00000140: 1f29 19c0 38e3 43bd b42b 24bf 5051 e13d
00000150: ef80 81be 1c58 12c0 fd23 953e 5c09 2f3e
00000160: 82bf 9f3d 517a 683e 3c7a 8fbd f293 1f3f
00000170: 3d05 a63e e3c1 163e abe1 34bc b03e 26be
00000180: c929 0f3f 044b 0440 e506 b93d e1fe 83be
00000190: 2aed 813d 63b2 79c0 dd2d 23be 6018 83be
000001a0: 0cbf d1bd 51e3 82be 50c0 f4bd ef63 98be
000001b0: 6e90 bf3c cdf4 62bd f664 bcbd b95a eabd
000001c0: d403 333f eecd 92be a011 cfbc c01f 4b3e
000001d0: dc9b d53a 8d8f fbbb 8932 14bf c7b3 59be
000001e0: 9734 a4bc 5418 aabe 6e37 c53c 0429 7abe
000001f0: 8a56 5bbe 0aee 2140 6ef4 92be 6ea2 6d3e
00000200: d9f3 7f3c 57c1 45bf 69ba a8be 9816 9a40
00000210: 6955 da3e ed26 313d e19d a83f 39c1 0fbe
00000220: 5eb6 9a3d 6ae3 e23d ca18 a5be 189b 28bd
00000230: cb4f a83e 6656 fdbe 0670 4bbe 0f4b 53be
00000240: e9cf edbd 9a80 92be 23ef debe 3ad7 673e
00000250: fc6e 23be af49 8abe c179 5bbf f38c fa3c
00000260: f248 dfbd 65ea 453d f9bd 31bd 7d3f 47bf
00000270: 3197 2b3d c1e5 9ebe 13df 423e 6f5c f23d
00000280: 0a6a b33d 53c0 a6be 8f1c 9d3e 84e0 9a3d
00000290: c453 18bd 5fa7 06bd dd13 bdbe 7a93 7b3f
000002a0: dc80 32be 5e96 c23d 58ec 0abb 0830 f6bd
000002b0: 026a 073e ee34 92be c271 94bc a924 bdbd
000002c0: 17a7 afbd 47b5 1c3e 2087 613f 6112 a8be
000002d0: ed52 dabe 44e0 9d3d 3bfc e6bd fe1d 84be
000002e0: 676b f13d fb89 8a3d ebe0 3a3e 8c53 8abd
000002f0: 3247 0b3d 85c1 3ebe e99c c1be 68c0 b7bd
00000300: 3def 823d 68f6 29be 72bb ee3e cbf5 aec0
00000310: a8a5 a0bc 238d a3be fe0e 443c d03b 35bf
00000320: d0f9 c53d d22d c73b 611d 33be 7272 93be
00000330: 5219 423f 4a24 43be 9435 4fbe e4a4 84be
00000340: 3ad6 e13e 11f0 89bd 20ee 973f b51f b33f
00000350: d5c9 8b3e 597e c6be b0a9 fd3e e75c d03b
00000360: ffb7 fc3f 72aa 8f3e bf8b 6e3e 81e9 1bbe
00000370: ecd5 993e c26c 7abe a1a9 a83e 82f5 c93f
00000380: 4dfc 79be c4c2 083e 39e2 cebc a6ff c33e
00000390: 8bba 203e f427 09bf 7672 a13d 1723 203e
000003a0: 6f56 9cbe 7d3b b5bd c116 5a3d 317b 3cbe
000003b0: 7580 c53e 926c c83c 0570 953f e446 31bd
000003c0: e4ab cc3e a74b a6be a2bd c23d a499 c8be
000003d0: 6946 adc0 a3f2 c7be d3d9 96be 4c81 91be
000003e0: dabe e3bf 6f0e d1bc a2e0 04be 632f e03c
000003f0: 0a53 d13e 1ccf 673d ea4d 3dbf 0e70 de3d
0.082222216 -0.032253355 0.2978411 1.1390264 -0.07534607 -0.11413896 -0.08593842 -0.2543625
0.25831857 0.096674696 -0.13851283 0.0146144135 -0.24462561 -0.35833377 0.2745297 0.10719157
-0.16791826 0.034366664 -0.07157658 -0.07279016 1.6316873 0.10189915 0.10947499 -0.118346296
0.049860768 0.06732059 -0.04259893 -0.6956977 -0.09036855 0.39118168 -0.26360095 2.3192947
-0.031618 -0.5711052 -0.62440664 -0.22393195 -0.46793312 0.28886718 -0.18743353 0.275259
0.3429137 0.114219755 -0.23672897 -0.33209303 -0.057986204 -0.013913156 -0.09629684 -0.459243
-8.679087 0.17256509 0.116835505 0.14333211 -0.09440383 -0.06933086 0.15686871 0.06879173
0.08952496 -0.9705142 0.40525544 -0.19937594 -0.13889295 -0.022705838 0.20170525 0.035812147
1.5748172 0.34535387 0.027511898 0.32961947 0.07891483 -0.39588076 -0.08341304 0.24126524
0.16449174 -0.064028606 0.30700007 0.2426629 2.2155232 0.29024366 0.30060282 0.0061500873
-2.3931348 -0.047824115 -0.64129186 0.11001837 -0.2529368 -2.2866278 0.2912902 0.17093414
0.07800199 0.2270291 -0.07005736 0.6233512 0.32425871 0.147224 -0.011040132 -0.16234851
0.55923134 2.0670786 0.09034518 -0.25780395 0.063440636 -3.9015129 -0.15935464 -0.25604534
-0.102415174 -0.25564054 -0.11950743 -0.29763743 0.0233843 -0.05540924 -0.09198944 -0.11443085
0.69927716 -0.28672737 -0.025276959 0.1983633 0.001629706 -0.0076770247 -0.5788961 -0.21259986
-0.020044608 -0.33221686 0.024074282 -0.24429709 -0.21419731 2.5301538 -0.2870211 0.23206493
0.015622103 -0.7724814 -0.3295472 4.815258 0.42643288 0.043250013 1.3173181 -0.14038552
0.07554315 0.11078532 -0.32245475 -0.041163534 0.32873377 -0.4947998 -0.19866952 -0.20634101
-0.11611921 -0.2861374 -0.43541822 0.22640696 -0.15960306 -0.2700934 -0.85732657 0.030584788
-0.10902585 0.04831924 -0.043394063 -0.7783125 0.041892234 -0.31034663 0.19030409 0.118340366
0.0876046 -0.32568607 0.3068585 0.07562354 -0.03718926 -0.03287446 -0.36929217 0.98271906
-0.17431968 0.095013365 -0.0021198 -0.1202088 0.13224033 -0.28556007 -0.01812065 -0.09235508
-0.08576792 0.15303527 0.8809681 -0.32826522 -0.42641392 0.07708791 -0.11278578 -0.25804132
0.117880635 0.06764599 0.18249862 -0.067542166 0.034003444 -0.1862851 -0.37815025 -0.089722455
0.06393287 -0.16597903 0.46627384 -5.467504 -0.019610241 -0.31943616 0.011966465 -0.7079439
0.096667886 0.0060784603 -0.17491676 -0.28798252 0.75819886 -0.19056812 -0.20235282 -0.25907052
0.44108754 -0.06735242 1.1869545 1.3994051 0.27302423 -0.3876827 0.49543524 0.006358731
1.9743651 0.28059727 0.23295496 -0.15225793 0.30046022 -0.2445555 0.32941917 1.5778048
-0.24412651 0.13355547 -0.025254356 0.38280982 0.1569616 -0.5357659 0.0788316 0.15638386
-0.30534694 -0.08849237 0.053244356 -0.18406369 0.38574567 0.024465833 1.1674811 -0.043280497
0.39974892 -0.32479593 0.09508826 -0.39179718 -5.414845 -0.39052305 -0.29463062 -0.28418958
-1.7792618 -0.025519578 -0.12976316 0.027366346 0.40883666 0.056594 -0.7394701 0.108612165

bias f4 [18]
00000000: 7731 a7bf 2ffc 4cbe 790b 303f 01f9 bb3e
00000010: fbec 00c1 a77a 79bf 67d9 103f 86ab d940
00000020: feb0 743d 2408 0041 8b63 2a3d 007d 92c0
00000030: 68b4 84bf 325a f63d 5af9 82bf b1ce ea3f
00000040: 25e6 8a3f af88 a63f
-1.306197 -0.20018075 0.68767506 0.36713412 -8.057857 -0.9745278 0.5658173 6.802188
0.059739105 8.001987 0.041598838 -4.577759 -1.0367556 0.12028922 -1.0232346 1.8344327
1.0851485 1.3010463

weight f4 [18, 85]
00000000: 81eb 483f 4446 293f 2f47 263f a8a3 64be
00000010: 1693 14bf 61ae f23b 0456 9ebe 1d1c e83e
00000020: 7930 843e 286a 5f3e af4a 2e3e 8222 0d3f
00000030: 3f95 8abe f2cc 03bf a907 843d f999 d0be
00000040: 428b 05be 8fe5 74bd a3f0 293f 50dd 5ebf
00000050: 4b3c a73e 62d8 763e 3ba1 f73e f6e6 23be
00000060: 4281 c93e 7f9d c13c e511 743e 9649 8b3f
00000070: fa68 b33d b0a7 123f 5fc9 63be 72fa fc3e
00000080: eb68 943d 2b7e 183f 12cc aabe caa8 263c
00000090: be0e 763d 69be 453b d710 1bbf c24d 40be
000000a0: 80f6 5f3d 47b5 f43e b0cb 7c3e 13ae 25bf
000000b0: 1965 18bf e548 3c3f afdd 39bd 70df 54bf
000000c0: 3ec0 093e ea71 c03e 3df1 4b3d 424b 83bf
000000d0: 2e01 e33e ac0f d33e f32b 02bf d366 a0bf
000000e0: 2ef3 163e 2e5d 393f ac55 553e 1d63 733f
000000f0: 7a46 653d 1c88 b4bf 30da a6be bdb2 9d3e
00000100: 3b5d fe3d 5905 06bf 3f34 cd3f f5cf bd3f
00000110: 3454 cebf b06b e83f 95c6 2cc0 ff23 97bf
00000120: 389c 6b3f 55ba 0240 6999 13c0 7ad9 d0bf
00000130: 9eaa 94bf 9dd8 e5bf f7ba 2dbe f89b 8840
00000140: baa3 e4bf dde6 c93f 4973 4140 ce31 ab3f
00000150: aee8 bbc0 ec00 94be 3846 733e 87d1 d3be
00000160: 733a d7be 612b 653e eea0 a0bd 4ecf e03e
00000170: 5e08 d8bd da42 a73d 6e5c 08be 0560 52bd
00000180: a7f1 40bd 05ff 94bd ad2e 983e d2c9 23bf
00000190: 1550 66bf 889f 853d e30b c3be 45ab 263e
000001a0: 1266 77be 2e1a e2bf ee9b 1f3d 9e29 033e
000001b0: 8999 43bd b7dc a4be e0e7 443f 222d c33d
000001c0: c982 923e c67c 963e 65ec b53e bb92 1f3e
000001d0: b3f6 37bf 5b1e 4b3f e814 7e3f 66db 83bf
000001e0: 68ef adbd 3aae 2fbe 70e6 28bd 60ce 31bc
000001f0: 440b 3f3e 16cf e8bd 724e f23e f87b 273f
00000200: 6713 663f 8a21 4ebe 53da a8bc cfa1 d13d
00000210: 288d bcbe 384a a43d 1bd2 e43e becc 523e
00000220: 3aa0 47bf 4674 87bf 27a0 8fbf c928 95bf
00000230: 8a88 22bf 6b8b 84bf a9bf 5c3f 36f3 1b3f
00000240: c9a0 f03e c7c7 50bf 08df d5bf e662 f9bf
00000250: baef e03f 7f93 ba3f 8833 073f f350 8c3f
00000260: 4638 04c0 1c4a b73f ddfa f73f 09d5 4b40
00000270: 442b 7140 d0f8 2740 dfe5 b83f 2e26 303f
00000280: 7bf3 18c0 f014 2ec0 a1dd b6bf 9b23 b23f
00000290: 6f6b 703f c366 8540 3164 05c0 1795 06c1
000002a0: b001 9dbe 8627 5f40 3d50 a53e 24e1 80bd
000002b0: b6c9 203f 335b ab3e 2baa e3be 06e6 0ebf
000002c0: d7c5 803e 4c6f cc3e b142 5ec0 ccdf c03b
000002d0: cdf3 493e 483f a0bd 03be 463f 9e48 413e
000002e0: df83 7e3e 30f2 97bc f0e2 9d3e 9b77 d9be
000002f0: 6064 54be abb8 9cbe 6033 213e b70c 1d3f
00000300: 444b 273e 8fda 743e e543 ca3e 0080 35bd
00000310: b871 b9bc 6a55 21bf b8b0 fe3d 9367 583f
00000320: 7963 443e 517d 80be 285a 083f 99ea 4e3e
00000330: deeb 9bbb 507d 763e f9f6 3a3f 291e e93e
00000340: 3eca 213f 3cf7 b73e 66f4 193e 4cd2 353f
00000350: e318 5cc0 8312 b0be c625 cc3e 229c fd3e
00000360: 46e2 183e 714f b8be f9f2 2e3d 3156 9fbd
00000370: 96e8 e53f 047d 833e e5f4 74bf da69 9fc0
00000380: be10 aebe f9b2 983d cd22 b440 2a1b a33e
00000390: 0bc3 3c40 0895 823e 1762 55c0 8967 a53f
000003a0: 9eb8 ef3e 3f01 2cc0 8358 1440 2567 e23d
000003b0: d48a f4bf 7809 fb3e 0463 243e 5aef 5d3f
000003c0: 7991 93bf d3b1 6d40 b3bb fe3e 03a2 523f
000003d0: 10dc 83c0 ef43 aebe 214a 80c0 6dba 80bf
000003e0: 3455 1b40 3483 dd3f 0486 ddbf 8deb 2840
000003f0: 23bf 1a3f 510d 843f 5a88 12c0 335c d2be
0.7848435 0.6612284 0.6495237 -0.22328055 -0.58036935 0.0074060415 -0.30925 0.4533395
0.25818232 0.21817839 0.17020677 0.5513078 -0.2706699 -0.51484597 0.064467736 -0.40742472
-0.13041404 -0.059789237 0.6638281 -0.87056446 0.32663187 0.24105981 0.48365197 -0.16006073
0.39356428 0.02363467 0.23834951 1.0881832 0.08760257 0.5728712 -0.22244786 0.49409825
0.07246574 0.5956752 -0.33358818 0.010172078 0.060072653 0.0030173308 -0.6057257 -0.18779662
0.05467844 0.47794554 0.24687076 -0.6471874 -0.5952926 0.7354873 -0.04537743 -0.8315344
0.13452241 0.3758691 0.04979061 -1.0257342 0.44336838 0.41222894 -0.5084831 -1.253138
0.14741203 0.72407806 0.20833462 0.9507311 0.055975415 -1.4104037 -0.3258834 0.3080043
0.12420126 -0.5235191 1.6031569 1.4829088 -1.6119447 1.8157864 -2.6996205 -1.180786
0.92035246 2.0426228 -2.3062384 -1.6316369 -1.1614568 -1.795673 -0.16965853 4.269039
-1.7862465 1.5773579 3.0226614 1.3374574 -5.8721533 -0.28906953 0.23757255 -0.41370794
-0.4203678 0.22379829 -0.07843195 0.4390816 -0.10548471 0.08167048 -0.13316509 -0.051361103
-0.047105458 -0.072752036 0.2972311 -0.6397983 -0.89965945 0.06524569 -0.38095006 0.16276272
-0.2416003 -1.766424 0.038967066 0.12808844 -0.047753844 -0.32199642 0.76916313 0.09530093
0.28615406 0.2939207 0.35531917 0.15583317 -0.7186081 0.79343194 0.9925065 -1.030133
-0.08492929 -0.17156306 -0.041235387 -0.010852426 0.18656641 -0.113676235 0.47325474 0.65423536
0.89873356 -0.20129982 -0.020611918 0.10235941 -0.36826444 0.080219686 0.44691548 0.20585915
-0.7797886 -1.0582359 -1.122075 -1.1653072 -0.6348959 -1.0355047 0.8622995 0.60917985
0.4699767 -0.81554836 -1.6708689 -1.9483306 1.7573159 1.4576262 0.52813005 1.0962204
-2.0659347 1.4319491 1.9373432 3.1848776 3.7682657 2.6245613 1.4445151 0.6880826
-2.3898609 -2.720028 -1.4286386 1.3917116 0.9391393 4.168794 -2.0842402 -8.411399
-0.3066535 3.4867873 0.3228778 -0.06292942 0.62807786 0.33468017 -0.44465765 -0.5581974
0.2515094 0.39928663 -3.4728205 0.0058860537 0.19721909 -0.0782457 0.77633685 0.18875358
0.24854992 -0.018548101 0.30837202 -0.42474064 -0.20741415 -0.3060964 0.15742254 0.61347526
0.16337305 0.23911498 0.39504924 -0.044311523 -0.022637233 -0.63020957 0.1243605 0.8453304
0.19178571 -0.2509561 0.5326257 0.2020668 -0.004758342 0.2407124 0.730331 0.45530823
0.6319922 0.35930812 0.15034637 0.7102401 -3.439019 -0.34389123 0.3987257 0.49533182
0.14930066 -0.3599811 0.042712186 -0.077801116 1.7961605 0.25681317 -0.9568618 -4.9816713
-0.33997148 0.07456011 5.629248 0.31856662 2.9494045 0.25504327 -3.334112 1.2922221
0.4682054 -2.687576 2.3179023 0.110548295 -1.9104867 0.49030662 0.16053396 0.86693347
-1.152877 3.7139785 0.49752578 0.8227846 -4.120613 -0.34036204 -4.009049 -1.0056893
2.4270754 1.7305665 -1.7306523 2.6393769 0.604479 1.0316564 -2.2895722 -0.41085967

bias f4 [18]
00000000: cfb4 9ebf f448 3a3f 1c1e 3440 e9c7 85bf
00000010: bec0 b43f 51ad 743f 0d2e bfbf e039 59c0
00000020: f0c6 f9be 2ed7 603f 349d 98bf 85ac d3bf
00000030: 100b 84c0 c3b3 40bd 55a1 4f40 4207 bc3d
00000040: c8f9 e03f 2c17 5b3d
-1.2398928 0.7276757 2.8143377 -1.0451633 1.412132 0.9557696 -1.4935929 -3.3941574
-0.4878459 0.8782834 -1.1922975 -1.6537024 -4.1263504 -0.047046434 3.244222 0.09181072
1.7576227 0.053488895
