2WL_link_pred/checkpoint/20221214_100_20/2WL_state_dict_100_20_7.pt (torch, 56754 bytes, 16 tensors)

lin1.1.modlist.0.weight f4 [48, 3]
000000 96 96 a4 3e 72 75 4f bf 5f c2 62 3d dc b4 a8 bd
       0.32146138 -0.8103858 0.055361148 -0.08237621
000010 88 ea ca 3e 2f b1 d4 bd dc 17 92 bd 3f ec 1b 3f
       0.39632058 -0.103853576 -0.07133457 0.6090736
000020 a3 0c 76 bc e2 db 6b 3d dc 90 1b 3f 72 2b 0a 3d
       -0.015017661 0.057582743 0.6076791 0.03373284
000030 fc 10 1e bc 41 2d 32 3f c4 32 9d bd f9 aa 61 3d
       -0.009647604 0.696003 -0.076756984 0.055094693
000040 57 bc 05 41 87 7b 8d 3d 25 51 36 40 e3 4b 14 bf
       8.358481 0.069083266 2.8487027 -0.57928294
000050 3c 94 39 40 c4 45 91 3f 31 9a 66 be f0 31 42 3f
       2.8996725 1.1349416 -0.22519757 0.7585745
000060 64 c7 cd c0 c5 df 21 3e e5 45 f7 3d b5 f9 ac bd
       -6.4305897 0.15808018 0.12073878 -0.08446065
000070 94 c4 46 3f 29 b4 87 bd ac a9 50 bd 98 1a 74 3f
       0.77643704 -0.0662616 -0.05094306 0.9535308
000080 d3 23 6d bd 8c 7d 82 bf b3 f9 23 3d 27 3a 13 be
       -0.057895493 -1.0194564 0.040033054 -0.14377652
000090 61 a9 83 3f 89 a5 8d be dc 9d 1e 3f 76 32 44 3e
       1.0286065 -0.27665356 0.61959624 0.19159874
0000a0 73 ed 57 bf ae c3 60 3e 6e 27 1a be 50 40 14 3d
       -0.84346694 0.21949646 -0.15054104 0.036194146
0000b0 7c 1f ac bd cc 92 14 3e 20 6e 8e c0 8b 73 12 c0
       -0.08404443 0.14509124 -4.450943 -2.2883022
0000c0 f8 9b 7d 3f a7 94 88 be 58 8b 41 3f 35 af 8a 3f
       0.99066114 -0.26675913 0.75603247 1.0834719
0000d0 67 53 78 bd 54 f1 b5 3e d1 aa ab be 91 6e df 3b
       -0.060626414 0.3553568 -0.3352876 0.0068186005
0000e0 0c 96 72 be 93 c8 69 bf fa 32 5c 3e 5d f4 97 be
       -0.23690051 -0.91321677 0.21503821 -0.29678622
0000f0 7a 66 fe 3d 62 70 61 3d 99 dc 26 bd a7 0b 0d 3e
       0.124218896 0.055038817 -0.040737722 0.13773976
000100 a8 b2 05 3e 34 68 23 3e 2c d3 43 3f 1e 81 f0 bd
       0.13056433 0.15957719 0.764941 -0.11743377
000110 72 70 0b 3f 97 48 e5 be ef db c9 3e 33 e8 5c be
       0.5446845 -0.44781944 0.3942561 -0.21572952
000120 7c a0 b9 c0 31 d6 c9 c0 0f bc 9d bd 7f 0f 54 3f
       -5.8008404 -6.3073964 -0.07701885 0.82836145
000130 b9 44 96 bd 14 f8 27 3f 4f 6d 15 3c 6d 1a 29 3f
       -0.073373266 0.6561291 0.0091202995 0.6605595
000140 31 ca da bd 53 35 ab bc 91 9d 1e 3f 02 18 b5 bd
       -0.10683096 -0.02089945 0.6195918 -0.0884247
000150 c8 ea 97 3e c7 a7 89 bf 9c 7f c8 3d ec c5 68 3f
       0.2967131 -1.0754327 0.097899646 0.90927005
000160 78 d3 37 be 5b 51 62 3f 9e 67 18 bd b4 71 30 3f
       -0.17951763 0.8840539 -0.037208192 0.689235
000170 52 91 98 bd 9f ad 84 3f e0 6e 44 be 35 b0 22 3f
       -0.07449593 1.0365485 -0.1918292 0.6355012
000180 88 a7 3d bf b5 b3 80 3e b7 6c ad be c0 32 58 3e
       -0.7408376 0.25137106 -0.33872005 0.2111311
000190 e9 48 73 bf fd de 69 3d dc 0c 00 41 b2 ad 75 be
       -0.9503313 0.057097424 8.0031395 -0.23992041
0001a0 ac 07 3c 3d 08 ef 33 3d 8a 5e 34 3f 66 24 b0 bd
       0.045905754 0.04392913 0.70456755 -0.086006925
0001b0 4e c3 8a bf c1 a9 c4 3c 0b 8e 94 be 31 be 40 3e
       -1.0840852 0.024006726 -0.2901462 0.18822552
0001c0 bf 73 b6 bf 2e 20 51 3d 9a 18 5e bd 33 e2 ce 40
       -1.4254073 0.05105608 -0.05422268 6.465112
0001d0 23 ca a7 3c b1 d1 50 3e 29 08 97 bf 9b d4 b4 3d
       0.020482128 0.20392491 -1.1799365 0.08829614
0001e0 d2 14 56 3e 4e e2 b6 3e 1a a5 bd c0 bf e5 34 3e
       0.2090638 0.35719532 -5.926404 0.17665766
0001f0 2a b3 53 bf c7 5c 50 3e 81 8c 9f 3e 5b e1 94 bf
       -0.8269526 0.20347892 0.31161883 -1.1631273
000200 41 e6 be 3d fd 39 7e 3f db f2 aa be 0b bb a8 3f
       0.09321261 0.99307233 -0.3338841 1.3182081
000210 67 29 8d bf e2 2d 92 3e 39 a0 03 bf ac 7a c4 bd
       -1.102826 0.2855063 -0.51416355 -0.0959371
000220 bf 73 58 3f bb c6 9e bb e9 e0 7f 3f bd 15 b2 be
       0.84551615 -0.004845468 0.9995256 -0.3478221
000230 aa 8b 24 3f 10 e3 d4 3d a1 55 2a bc 74 0d 28 3e
       0.6427561 0.10394871 -0.010396392 0.16411382

lin1.1.modlist.0.bias f4 [48]
000000 c1 bb 54 be 71 6f 98 3e b3 b7 ab 3e 6c e4 e5 3e
       -0.20774747 0.29772523 0.3353859 0.44900835
000010 00 9a ec 3e 3f f4 01 3d 89 56 ed be 0c ac 33 3d
       0.46211243 0.03172707 -0.46355084 0.04386525
000020 3c 17 1a c0 3a 7d b3 3e 28 cd c4 3e 1b f8 b8 3d
       -2.407668 0.35056478 0.38437772 0.09031697
000030 04 cb 90 3c f8 1a e8 be c4 9a 3e 40 f0 d2 ed 3c
       0.01767493 -0.45333076 2.9781961 0.029031247
000040 e2 e0 06 bd ed 38 b4 bd fc ef f1 3f 7f f8 96 3d
       -0.03292931 -0.0879992 1.8901362 0.073716156
000050 1a 2e 1f 40 98 de 1b c0 39 e9 0a bc cb 54 2b 3e
       2.4871888 -2.435461 -0.008478456 0.16731565
000060 77 84 b3 3b 3b 3f 26 bd fa d6 bc 3e bd 27 b0 3e
       0.0054784375 -0.040587645 0.36882764 0.34405318
000070 1a 25 16 bf c9 0b 85 bd 27 b1 01 3f 09 dd 13 bc
       -0.5865036 -0.064963885 0.5066094 -0.009024867
000080 b6 ea 92 3d 04 1f c1 be de 25 59 bd 63 93 b2 3e
       0.07173674 -0.37718976 -0.05301463 0.34878072
000090 2f f3 0d 3c 7d 2f df be 7f 55 16 3d b7 0e a5 be
       0.0086639365 -0.43590918 0.03670263 -0.3223779
0000a0 c3 e2 3c 3b c5 cf b6 be 1a 13 e1 be 09 04 54 bd
       0.0028821684 -0.3570539 -0.43959886 -0.05176166
0000b0 73 b8 8a 3d 7b 71 7d 3e b2 e7 6b bd 2a 22 22 c0
       0.06773462 0.2475032 -0.05759401 -2.5333352

embedding.0.weight f4 [5, 48]
000000 bc 14 cc 3f ff a0 e8 be 9d c7 df be d4 fc ea 3e
       1.5943828 -0.4543533 -0.4370698 0.45896018
000010 bc 63 21 c0 ec 38 23 3f 15 86 64 be 55 b8 dd bf
       -2.5217123 0.6375873 -0.22316773 -1.7321879
000020 08 40 21 3f 45 d8 e4 bf a0 a0 1d 3f ec 84 f0 be
       0.6298833 -1.78785 0.6157322 -0.4697641
000030 fc 0d 2f 3e cd 9e c8 bf 01 79 e6 be 67 b2 05 bf
       0.17095178 -1.5673462 -0.45014194 -0.52225345
000040 37 ca 1b 3f 82 0c 63 3e ae f7 af 3f 92 26 ad 3e
       0.6085543 0.2217274 1.3747461 0.3381849
000050 0a 5f 66 3e 45 ba 64 3f fd 6a c5 3e 61 78 55 3f
       0.22497192 0.89346725 0.38558188 0.8338681
000060 aa 86 7e 3f 99 21 d2 3f ba 2f e0 3e c7 1c 7d 3e
       0.9942423 1.6416503 0.43786412 0.24718009
000070 87 0f 95 bc 1b c4 4d bf 92 09 d2 bf 9a d8 ef 3e
       -0.01819588 -0.8037736 -1.6409171 0.4684494
000080 8b 43 54 bf 16 58 96 3f ce 42 b2 3e 81 11 1d be
       -0.8291556 1.1745632 0.34816593 -0.15338708
000090 88 b2 90 bf f5 85 19 c0 21 6a 37 bf be e3 fb bf
       -1.1304483 -2.398801 -0.71646315 -1.9678876
0000a0 95 44 17 bf 29 3b dc 3e 3b c5 a9 3f fc 98 42 bf
       -0.5908902 0.43013886 1.3263315 -0.76014686
0000b0 d5 95 76 bf 10 3f ba be 23 f9 b6 bf 5d cd e8 be
       -0.96322376 -0.36376238 -1.429478 -0.4546918
0000c0 ed e7 a4 bf b3 53 7c bf 86 5e 46 bf 45 a0 5b 3f
       -1.2883278 -0.98565215 -0.7748798 0.85791427
0000d0 c6 d0 e2 bf 13 1b a3 3f ac 65 6c 3f 37 8e 01 40
       -1.7719963 1.2742637 0.9234264 2.024305
0000e0 47 40 1f be df 58 48 bf f5 6a 1c 3f ca 07 1a 3f
       -0.15551864 -0.78260607 0.61100703 0.60168135
0000f0 0f d1 6c 3f fd 0c 89 3e 24 14 80 3f ca 67 44 bf
       0.925065 0.26767722 1.0006146 -0.7672087
000100 6f 3b 01 3f c5 14 89 bf 13 4f 66 3f a4 2b c2 3e
       0.50481313 -1.0709463 0.8996441 0.3792392
000110 27 36 e4 3f cc 40 28 c0 f4 de 48 bf 43 a9 ad bf
       1.7829026 -2.628955 -0.784652 -1.356728
000120 0e 39 da bd 62 52 8e 3f c1 e3 34 bf 0a 85 97 3f
       -0.106554136 1.1118891 -0.70660025 1.1837475
000130 61 80 a7 3e f4 99 7d bf 72 97 58 be 47 a5 ca be
       0.32715133 -0.9906304 -0.21151522 -0.39579222
000140 29 29 9b bf 1e f9 89 3e 69 b6 a6 3e 46 b4 1c bf
       -1.2121936 0.26947874 0.32561043 -0.61212575
000150 e9 29 5b bf ac 30 bd bf 9a 1c 08 3e 1b e9 98 bd
       -0.85610825 -1.4780478 0.1329216 -0.07466336
000160 a8 a9 22 bf c8 65 a8 be 2d 6d f7 3e 9d b9 0c 3e
       -0.63540125 -0.32890153 0.48325482 0.13742681
000170 d1 46 1e bf 20 6f 33 bf e6 0a 02 bf 72 b7 e6 bd
       -0.6182681 -0.7009144 -0.5079788 -0.11265458
000180 be 7e 02 40 e8 14 77 be 3e f8 94 bf f5 f2 de 3e
       2.0389857 -0.24129069 -1.1638258 0.43544737
000190 a0 35 14 3e f9 13 57 3b 03 c4 3f bf 2c ca 9a 3f
       0.14473581 0.00328183 -0.74908465 1.2092948
0001a0 5c 38 7c 3e 16 6f 05 3f 0d 77 fd 3e 7e a5 1b bf
       0.24630874 0.5212263 0.4950489 -0.60799396
0001b0 d9 60 01 40 ad 53 ba bf 9a b4 1f bf f3 eb 8a bf
       2.021536 -1.4556786 -0.6238495 -1.0853256
0001c0 cc 1a 80 bf a3 9d 24 3f 52 5f 9a 3f 9e 33 b0 be
       -1.0008178 0.64303035 1.206034 -0.3441438
0001d0 c7 9f 6a be 45 75 99 be bd 00 28 3d eb 85 94 3f
       -0.22912513 -0.29972282 0.04101633 1.1603369
0001e0 6f 01 24 40 fc 2a a1 3e 69 af d6 3f da f0 e1 3b
       2.5625875 0.31478107 1.6772281 0.006895167
0001f0 e2 09 20 3f c4 df b7 bf 13 f7 7a bf 7a 5b a0 3f
       0.6251508 -1.4365163 -0.98033255 1.2527916
000200 66 74 3c 3f de f5 cf 3e c9 92 c9 bd 02 2b e4 be
       0.7361511 0.4061727 -0.0984245 -0.44564062
000210 4b b0 6e 3f f2 b0 0b bf 24 10 3d bf 17 a2 df 3e
       0.9323775 -0.5456687 -0.73852754 0.43678352
000220 50 19 dc 3f ac 07 ac 3f 94 f7 5b bf 68 9f 21 c0
       1.7195225 1.3439841 -0.8592465 -2.5253544
000230 bc ac f6 3f dc d7 2a bf 79 6c b7 be 3a 82 ba bf
       1.9271464 -0.66735625 -0.35824946 -1.4570992
000240 0d ef 60 3e 0c fe 8b bf 80 8c 40 3e 81 c2 48 bf
       0.2196619 -1.0936904 0.18803596 -0.7842179
000250 01 3d b2 be e1 94 4e bf 59 58 dd 3d 14 a8 53 3d
       -0.34812167 -0.8069592 0.108078666 0.051673964
000260 0a 93 e1 be 84 a5 07 bf 00 38 ad 3e cf 3f 55 bf
       -0.44057494 -0.5298693 0.33831787 -0.8330049
000270 83 cd a7 3f 69 05 09 bf b3 72 ae 3f 1e 19 4b be
       1.3109592 -0.5352388 1.3628753 -0.198338
000280 9a a3 2d bf 1f 19 c6 3e 4f 33 14 3f c4 0c 5d 3f
       -0.6782776 0.3869104 0.5789079 0.86347604
000290 f0 77 76 3e d3 fc 1d be 42 72 7b 3f d9 06 e6 be
       0.2406919 -0.15428476 0.9822122 -0.449271
0002a0 c1 7f 89 3f 73 24 42 bf cd 2b 08 c0 95 60 9c bf
       1.0742112 -0.7583687 -2.1276734 -1.2216974
0002b0 bb 36 22 bf ac cc 3b 3f 29 83 83 3f e4 82 1b bf
       -0.6336476 0.7335918 1.0274402 -0.607466
0002c0 85 ed 69 3e 6f ed 8a bf d7 a7 04 3f 5b a8 cb 3f
       0.22844513 -1.0853709 0.51818603 1.5910753
0002d0 26 f6 24 bf 55 1e fa 3e 84 97 1f 40 4b 53 3d 3f
       -0.6443809 0.48851267 2.4936228 0.7395522
0002e0 98 6b ba 3f 42 8c d8 3d 34 63 6f 3f 3b 2d 6f 3d
       1.4564085 0.10573627 0.93510747 0.058392745
0002f0 38 0c 27 3d cf 44 ea be 84 83 f3 bd ad 4a 54 3e
       0.040783137 -0.45755622 -0.11890319 0.20731612
000300 33 67 56 3e ac 83 31 bf 38 9f a8 3f 4f 07 87 bf
       0.20937805 -0.6934154 1.317359 -1.0549105
000310 c5 f2 e2 bf 5f 77 b9 3d 5f 25 a9 3f 1c af 04 bf
       -1.7730337 0.09055971 1.321453 -0.51829696
000320 37 82 96 3e 16 24 db 3f 65 a0 9b 3e b3 c1 6b bf
       0.2939622 1.7120388 0.3039581 -0.92092437
000330 3f ed 9b 3d ba ca 81 3f 9b fa 2e c0 58 f0 d7 3f
       0.076136105 1.0139992 -2.7340457 1.6870222
000340 f3 18 57 3e 60 9d d9 3e 15 fe ba be 40 e7 a6 bd
       0.21005611 0.4250288 -0.36521974 -0.08149576
000350 dc 63 dd 3f b4 ed d0 bf c4 39 b3 bf 3e 8e 8c 3f
       1.72961 -1.6322541 -1.4002004 1.0980909
000360 50 52 39 be e0 02 39 bd 93 ec f1 be f2 e4 76 be
       -0.18097806 -0.045168757 -0.47250804 -0.24110773
000370 b0 48 da be 3a b6 9e bd 75 2d cb 3e 90 73 17 bd
       -0.4263358 -0.07749601 0.39683118 -0.036975443
000380 03 f1 d9 3f 81 bd 8d 3f f2 38 f9 be 3c 9d 3f bf
       1.7026676 1.1073457 -0.48676258 -0.74849296
000390 cc a5 3b bf 89 17 84 bf f0 98 82 3e a6 e4 84 3e
       -0.7329986 -1.0319682 0.25507307 0.25955695
0003a0 fc cc 94 bf 2c 41 0c 40 3d 7c bc be 9a 4e b0 3f
       -1.1625056 2.1914778 -0.36813536 1.3773987
0003b0 b4 36 a2 bf a4 61 01 40 8b fc b3 3f dd e5 56 3d
       -1.2672944 2.0215845 1.4061445 0.05246531

nconvs.0.modlist.0.lin_l.weight f4 [48, 48]
000000 6a e7 82 bf 0d d1 63 3d 31 8f 18 3d a0 3d 77 bd
       -1.0226872 0.05561929 0.037245933 -0.060361505
000010 aa 13 f4 3e da 37 26 be d7 fc 18 3c 52 b6 39 bf
       0.47671252 -0.16232243 0.0093376255 -0.72543824
000020 91 00 d9 40 01 01 77 3f 98 6d 55 3f e0 83 07 40
       6.781319 0.96485907 0.8337035 2.117424
000030 42 78 86 bf 65 2c 4b be 0a 60 83 3e 8c 98 01 3e
       -1.050545 -0.19841154 0.2565921 0.12655848
000040 db 50 4e bf ff 96 1b 3f 50 6b 2e bf d1 53 06 3e
       -0.80592126 0.60777277 -0.68132496 0.13117911
000050 20 8a da c0 c0 bf dd 40 6d 80 c2 bd f2 98 18 3f
       -6.829361 6.929657 -0.094971515 0.59608376
000060 82 ec a4 40 80 73 7b 3f 8d 57 66 be 20 38 97 3f
       5.1538706 0.98223114 -0.22494335 1.1814003
000070 02 ab d5 3e be 4f 22 bf c8 79 24 3e 47 f6 1e 3e
       0.4173203 -0.63402927 0.16062081 0.15523635
000080 a8 cb ee 3f 51 62 81 bf 82 18 a1 3f fa ca 9c 3e
       1.8655901 -1.0108129 1.2585604 0.3062361
000090 5b 92 d5 bd 31 a7 2d bf 54 80 9c bf d7 ab 16 bf
       -0.10428306 -0.6783324 -1.2226663 -0.58855957
0000a0 85 56 38 bf c6 09 f2 bc a3 42 40 3e f3 68 a2 c0
       -0.7200702 -0.029545676 0.1877542 -5.075311
0000b0 b7 42 52 3f 1f 32 83 3f 84 7e 15 c0 fc e1 be be
       0.8213305 1.0249671 -2.335847 -0.37281787
0000c0 fb a8 70 3f e8 c3 a8 bf 38 df f1 bf fa ae fe bf
       0.94007844 -1.3184786 -1.8896246 -1.9897149
0000d0 c9 db 21 be 27 34 f0 be 32 ec 9f bf c3 84 29 3f
       -0.15806498 -0.4691479 -1.2493956 0.66218203
0000e0 8a fc 18 3e 1e d0 8a bf 1d c5 33 c0 f7 8b d1 be
       0.14940086 -1.0844762 -2.8089058 -0.40927097
0000f0 80 e9 16 3d e2 2f ad 3f 63 c1 07 bf 43 9e e0 3f
       0.036843777 1.3530238 -0.5302946 1.7548298
000100 8d b6 95 bd 9c 8b 23 3f 0d 73 d1 bf d5 9f 90 bf
       -0.073102094 0.638849 -1.6363236 -1.1298777
000110 b9 0f e4 bd 51 98 4c bf 4e 82 e8 be 50 43 e3 bf
       -0.11135811 -0.79919916 -0.45411915 -1.7754917
000120 72 04 48 41 07 0f 19 bf 25 6d 3a c0 62 ca aa bf
       12.501085 -0.59788555 -2.9129117 -1.3343012
000130 bb 4e c4 3f 6d e0 31 bf ca e4 6c bf 21 a8 11 bf
       1.5336527 -0.6948307 -0.92536604 -0.5689717
000140 e6 3c 31 bf 60 83 19 40 04 c5 3e 40 2c b0 b2 bf
       -0.6923355 2.3986435 2.9807749 -1.3960013
000150 0c 16 89 bf ff 39 72 3f c8 44 14 40 72 ed d3 3e
       -1.0709853 0.94619745 2.316698 0.41392094
000160 c8 c2 d5 3c 5d 5a 44 3f 71 93 42 3d 71 42 8f bf
       0.026093856 0.76700383 0.047503892 -1.1192151
000170 84 d2 57 3e 64 1b 79 bf 76 01 be bf 22 95 bb bf
       0.21076399 -0.9730742 -1.4844196 -1.4654887
000180 eb 3e 7c 3f 37 3c 1b bd f0 be 8d be b7 69 7a 3e
       0.98533505 -0.037899222 -0.27684736 0.2445439
000190 80 49 8d be 7b 66 25 c0 f0 5c 93 be 70 74 e1 be
       -0.2759514 -2.58438 -0.28781843 -0.44034147
0001a0 e1 1c 6a 40 47 70 b8 be 9b 2d 36 bf 03 ae 00 bf
       3.6580126 -0.3602316 -0.7116334 -0.5026552
0001b0 82 0a 43 bd 7d 66 2e be ca e9 81 c0 7b b4 7a 3e
       -0.047617443 -0.17031284 -4.0597887 0.2448291
0001c0 0b 20 02 bf f9 eb 28 bf cf d3 b0 bd ef 6e 5f be
       -0.50830144 -0.65985066 -0.08634149 -0.21819662
0001d0 ca 97 ae 3d 0d eb 81 40 f1 55 d8 be 1c b0 99 3d
       0.08525045 4.0599427 -0.42253068 0.07504293
0001e0 57 bc 95 40 df f8 c8 3d 22 7f 64 bf 5a a3 17 bf
       4.6792407 0.098130934 -0.8925649 -0.5923363
0001f0 47 3c 01 3e ab 2a 75 3e 60 f7 78 3d a0 f8 3e bd
       0.1262065 0.23942058 0.06078279 -0.046623826
000200 2f 30 18 3f 78 58 5a 3f 1a 97 6b c0 81 fe 31 be
       0.5944852 0.8529124 -3.6810975 -0.17382242
000210 5d 45 31 3e c3 79 2b 3f 3d 2d 49 c0 49 3c 0c 3f
       0.17311616 0.6698267 -3.1433861 0.5477949
000220 55 99 1d 40 95 e7 0e 3f 08 14 78 3f 2f 58 26 bf
       2.4624836 0.55822116 0.96905565 -0.6497831
000230 a9 a0 8a 3e 27 0f 8e bf 6d 95 df be 92 46 43 40
       0.270757 -1.1098374 -0.4366869 3.0511823
000240 4b 3b ad bf 0b 23 87 3f 3c a2 7e 3f 21 0a 86 3f
       -1.353372 1.0557569 0.994663 1.0471841
000250 9d 7e b4 3e 5d 19 b2 be d2 d0 81 3f 8b 03 b7 3d
       0.35252848 -0.34784976 1.0141852 0.08936223
000260 d0 88 ea be f0 19 a6 3f 88 b0 75 3f df fe 17 bf
       -0.45807505 1.2976665 0.9597249 -0.5937328
000270 61 32 70 3e d3 f6 a7 bf a7 94 33 c1 ed 56 67 be
       0.23456718 -1.31222 -11.223792 -0.22591753
000280 9e ba cf 3e 50 da ab 3e 1e e0 9e 3d fb 7f 7e bf
       0.40572065 0.33564997 0.07757591 -0.9941403
000290 39 0c 8e 3e a3 4a 96 be 99 a0 b7 3e 13 97 a3 3e
       0.277437 -0.29353818 0.35864714 0.31951198
0002a0 97 55 97 3e f8 ba 95 bd 0a db c7 3f 38 8e 9f 3f
       0.29557487 -0.07311052 1.561372 1.2465277
0002b0 ed 15 8d bf a9 1f ae 3e 6d 00 97 3f 4a 97 7b 3f
       -1.1022316 0.3400853 1.1797005 0.98277724
0002c0 62 c5 18 3e 2b c4 81 bf ac f2 76 3e 12 c4 7a 3f
       0.14919046 -1.0137991 0.2411601 0.9795543
0002d0 81 af c1 be 2c 68 82 bf 25 6c 0f c1 9e 9a 1f bf
       -0.3782921 -1.0188041 -8.963902 -0.623453
0002e0 5e 55 f9 bd 34 c3 d1 bf c8 5c 13 bf 6d f1 ea 3e
       -0.121744856 -1.6387696 -0.5756345 0.45887318
0002f0 8f dd cb be cd cc 4c 3f c5 b0 9b 3e a1 9e 56 be
       -0.39817473 0.8 0.30408302 -0.2095895
000300 a5 65 ac 3f 90 a3 ca bf 6c 66 a4 bf 13 46 da 3d
       1.346852 -1.5831165 -1.2843757 0.10657897
000310 32 00 9c bf a6 0b 04 c0 73 d7 b7 bf 37 40 4f c0
       -1.218756 -2.063211 -1.4362625 -3.2382944
000320 ce f2 33 40 b5 20 1e bf 22 5a 46 c0 db 01 f8 3f
       2.8116946 -0.61768657 -3.0992513 1.9375566
000330 cc 07 b8 bf 80 00 88 3f ca 79 f0 be d0 c4 f3 3e
       -1.437738 1.0625153 -0.46967918 0.47611094
000340 6b f6 24 be 4d 66 a0 bf 74 ca db be 8a 22 4d 40
       -0.16109626 -1.253122 -0.42927897 3.205233
000350 be f8 82 bf 09 7e 1c 3f 15 a3 3b c0 e2 66 0d bf
       -1.023216 0.61129814 -2.9318287 -0.5523511
000360 ef 2f 2a 40 7c 22 c4 bf 40 70 e5 bf 2f f3 b4 bf
       2.6591756 -1.5323024 -1.7924881 -1.4136714
000370 aa af 93 3f 36 90 52 bf 66 5e eb be 23 78 ce bf
       1.1537983 -0.822513 -0.45970458 -1.6130413
000380 4b 55 09 40 8b 7a e3 3f 4c bf 30 bd ff 69 f8 be
       2.1458309 1.7771772 -0.043151185 -0.4851837
000390 a4 63 41 3f f2 78 67 3f 4d 12 13 bf 82 f8 e7 3f
       0.75542665 0.9041892 -0.574498 1.8122714
0003a0 d6 a8 64 3e 93 4b 81 3e 0e 03 04 40 fd 52 46 c0
       0.22330031 0.2525297 2.0626864 -3.0988152
0003b0 74 2a 4a 3f 9b 85 91 be 8c aa ec bf c4 bb e0 3f
       0.7897103 -0.28422245 -1.8489547 1.7557302
0003c0 49 23 c5 bd 80 de 05 3e 77 a3 ca bd 27 48 80 3e
       -0.09625871 0.13073158 -0.0989446 0.25055048
0003d0 27 2a 0f 3e d7 c4 1e 3e f1 b1 96 bd 7b 0f 07 3d
       0.13980924 0.15504776 -0.073581584 0.032973748
0003e0 1d 2b 9d bd a3 89 53 3e c0 ec 8c 3e e7 71 44 be
       -0.07674239 0.20657973 0.27524376 -0.19184075
0003f0 30 2c 3b 3e 15 b0 55 be 1c 75 81 3c f2 e5 d9 bc
       0.18278575 -0.20867951 0.015802912 -0.026598904

nconvs.0.modlist.0.lin_l.bias f4 [48]
000000 74 7f 66 40 c2 dd a3 3f ce 04 e7 40 ba aa 44 40
       3.6015291 1.280205 7.2193365 3.0729203
000010 49 13 a3 3f 04 23 83 40 98 28 2b 40 6b 0c 78 40
       1.274026 4.0980244 2.6743526 3.875758
000020 e4 8f 82 40 11 5f c7 40 f0 61 da 3f 9a 59 ee 3f
       4.080065 6.230355 1.7061138 1.8621094
000030 9b 12 c3 40 3e 38 d6 3f 21 d8 91 3f 8e d6 c7 40
       6.096021 1.6735914 1.1394082 6.2449408
000040 ea 3c 4a 3d 84 48 6c 40 4a 6b 7e 40 e6 90 a2 3f
       0.0493745 3.691926 3.9752984 1.270047
000050 cf a2 c4 40 97 31 6a 40 42 c2 8a 40 8a b4 2d 3f
       6.144874 3.6592767 4.336213 0.67853606
000060 54 f8 1c bf 08 de 33 3f 72 d2 9d 3e 41 34 a0 c0
       -0.6131642 0.7026067 0.3082462 -5.0063787
000070 a4 89 b3 be d4 08 3e 40 ed d2 8b 40 e5 af 5a 40
       -0.3506595 2.9692888 4.369498 3.4169858
000080 35 96 79 40 65 6b 19 bf c5 62 2d 40 92 60 a6 bf
       3.899793 -0.59929496 2.7091534 -1.2998221
000090 16 85 bf c0 32 a5 48 bf 7d 9e c6 40 b7 48 fa 3f
       -5.984996 -0.7837707 6.2068467 1.9553441
0000a0 11 95 ab 40 5c 19 9a 40 56 5e 01 40 cd 7d b6 3d
       5.3619466 4.8155956 2.0213828 0.08910713
0000b0 bf 0c 11 bf ba 1f a8 40 f4 f8 f2 bf ad 4c 92 40
       -0.56660074 5.253873 -1.8982224 4.57186

nconvs.0.modlist.0.lin_r.weight f4 [48, 48]
000000 a5 74 88 3d 75 cc da be 11 9b eb bb d8 3e 1d 3e
       0.06662873 -0.42734113 -0.007190116 0.15356004
000010 4b e7 eb bc ec 3c d7 3e 20 1f e6 3e ab d5 e0 bd
       -0.028796813 0.42038667 0.44945621 -0.10978254
000020 d6 47 2a bd 21 72 bc 3d b4 3f 0d 3f 41 8b ae 3c
       -0.041572414 0.09201456 0.5517533 0.021306636
000030 7e 98 62 3e 60 90 13 3e 9e f7 0b 3e ff 84 f6 bd
       0.22128484 0.14410543 0.13668677 -0.12037086
000040 44 d4 a4 3d 07 31 03 be e3 04 80 bd 96 ee 10 3e
       0.08048299 -0.12811671 -0.06250932 0.14153513
000050 90 0d 00 bd 7d 45 99 be ae e1 12 bf 20 cb e4 be
       -0.031262934 -0.29935828 -0.5737561 -0.44686222
000060 c5 44 de 3d 9b 47 94 3e 16 97 96 bd 0e a8 8c be
       0.108529605 0.2896088 -0.07353036 -0.27471966
000070 c3 d4 7f be 59 95 62 3e 9f 27 7b 3e 09 ba fd 3d
       -0.24983506 0.22127284 0.24526833 0.12388999
000080 bf e1 85 3e 91 ad ee bd 7e 06 8e 3e b0 c6 0d bf
       0.26148793 -0.11654199 0.27739328 -0.553813
000090 24 32 e7 3e 5d 93 88 3d 7f 17 c3 bc 27 a6 26 bd
       0.45155442 0.06668732 -0.023814915 -0.0406858
0000a0 e3 1a 1a be 71 8f 07 3e b3 fb 11 bf 5a 19 1c 3d
       -0.15049319 0.13238312 -0.5702469 0.038110115
0000b0 e3 ee f6 be 86 c8 54 bf 40 95 b6 bd 45 46 69 3e
       -0.4822913 -0.83118474 -0.08915186 0.22780712
0000c0 55 b7 1d be 4f 92 8d 3e af 0b d2 be e5 bd d0 3e
       -0.15401967 0.27650687 -0.4102454 0.40769878
0000d0 d5 94 33 be 68 d6 de bd 23 eb 0f 3e 8c 05 23 be
       -0.17537244 -0.108807385 0.14054541 -0.15920085
0000e0 51 c2 ab 3d ae 4a 68 be 0b 06 35 bd 87 cd e9 3e
       0.08386672 -0.22684738 -0.044195216 0.45664617
0000f0 7c f4 de be af 16 6d bf fa 36 87 bc 0b 0e 9b 3d
       -0.43545902 -0.9261274 -0.016505707 0.07571038
000100 a1 f0 3e be e5 23 1b 3e 43 08 6e bd 3d 5a e4 3e
       -0.1864648 0.15150411 -0.058113348 0.44600096
000110 c7 a1 bc b9 df 2b 80 3d c1 b1 2c bd c4 c0 78 3e
       -0.00035978688 0.06258368 -0.042161707 0.24292284
000120 43 5c a3 3b 59 65 0f bf 91 f8 59 3e 1e 30 47 3e
       0.0049853637 -0.5601402 0.21286227 0.19451949
000130 83 49 7b be a9 84 8f 3d aa bf 06 3c 63 ce 41 bf
       -0.24539761 0.07007725 0.008224407 -0.75705546
000140 3c a3 59 bd 26 18 01 be d1 71 65 bd f3 89 1b bf
       -0.053134188 -0.12606868 -0.056016747 -0.6075737
000150 2f 75 8b be ca 9d a0 3e 2f 8c d3 3b 5a 2a 96 3e
       -0.2723784 0.31370384 0.00645592 0.29329187
000160 25 29 6b bd 00 d5 ba 3e bd 49 24 3f e0 36 f9 bd
       -0.057412285 0.3649063 0.64175016 -0.1216867
000170 bb 9e 38 3f 13 57 36 be 29 cb 35 3d 44 af 0d 3e
       0.72117203 -0.17806654 0.0443832 0.1383639
000180 6e 13 e0 be da d8 eb 3e 16 21 88 3e 90 a3 bc 3d
       -0.43764824 0.46063882 0.26587743 0.092108846
000190 65 e3 07 3f 0e 47 d7 bc 68 13 00 bc 73 ef d2 3e
       0.5308135 -0.026278999 -0.007817127 0.4119831
0001a0 23 ac f6 3c 78 00 b9 3e 61 e4 48 3f d6 e8 85 3d
       0.030111378 0.3613317 0.7847348 0.065385506
0001b0 81 ba 76 bd e6 28 ad bd 38 58 27 3e 47 d1 15 3e
       -0.060236458 -0.084550664 0.16342247 0.14630614
0001c0 59 cf dd 3e e3 61 e6 3e b6 c2 0c be e4 a8 89 bc
       0.43322256 0.44996557 -0.13746151 -0.016804166
0001d0 f2 d0 5f bd a9 c7 ab 3d f5 0d 27 3f c9 ff 4c 3f
       -0.054642625 0.083876915 0.6525567 0.800778
0001e0 67 a6 16 bd 65 72 b8 3e 39 7c 39 be 9c d3 f3 3e
       -0.036779787 0.36024776 -0.18113793 0.47622383
0001f0 23 ff 01 3f f8 71 93 be 8d e9 b7 3e 54 ff 3a bc
       0.5077993 -0.2879789 0.35920373 -0.011413414
000200 64 cf 0a bf 3d 64 2b bf 4f 31 4c 3e ed 42 1f bb
       -0.542227 -0.66949826 0.19940685 -0.0024301365
000210 89 dc 07 3e 99 75 c5 3e f1 94 2c 3c c7 be f9 be
       0.13267721 0.38566282 0.010533557 -0.48778364
000220 24 d1 b6 3c 1c 53 a0 3d ae 76 ee 3d 5d 62 89 bd
       0.022316523 0.07828352 0.1164373 -0.067082144
000230 6a 58 56 3e 41 a2 a1 3e 8e f5 8a 3e 68 59 a4 3e
       0.20932165 0.31569102 0.27140468 0.32099462
000240 c2 91 ab bd 4f a8 f6 3d 51 d6 c3 3d d5 95 9e 3e
       -0.083774105 0.12043821 0.09562362 0.30973688
000250 6a 1d 83 3e ce ba a0 3d cd 6f 2d 3d 11 e8 a9 3e
       0.2560838 0.0784813 0.04234295 0.33184865
000260 10 87 1b bd b5 05 b3 3e bf cc a6 3e 11 e2 17 be
       -0.037970603 0.34965292 0.32578084 -0.14832331
000270 74 cf b1 3e 75 6a 8b be b3 9c 1a 3d de 4b d7 bd
       0.34728587 -0.27229658 0.037747096 -0.105125174
000280 e7 2f 01 3f 17 e0 12 bd d0 13 64 bd f5 c0 0a bf
       0.5046372 -0.03585824 -0.055682957 -0.5420068
000290 44 5d 1d 3c 19 74 5e be 92 b4 2f 3e d0 42 d7 3e
       0.009604756 -0.21723975 0.17158726 0.4204316
0002a0 83 6a 49 b9 aa f3 02 3f ba c2 52 bb 11 af 9a 3e
       -0.00019208532 0.5115305 -0.0032159523 0.3021169
0002b0 aa 49 f1 bd d0 0c 38 be 1d 02 c6 3d 05 81 e2 3e
       -0.117816284 -0.17973638 0.09668372 0.4423906
0002c0 33 a8 aa bc 00 97 c4 bd 45 8a fb 3d 57 09 02 3e
       -0.020832157 -0.095991135 0.12282232 0.12698875
0002d0 e7 22 a4 bd cc 07 28 be 5e b2 2c 3e 51 d1 b7 be
       -0.080144696 -0.16409224 0.16864917 -0.35901883
0002e0 53 7b 08 be f5 51 34 be 0d 39 12 be c8 15 38 3e
       -0.13328294 -0.17609389 -0.14279576 0.17977059
0002f0 57 b6 65 be 9d 28 d0 3e a8 7e 4b 3e 33 4e 11 3e
       -0.22432838 0.40655985 0.19872534 0.14189987
000300 6c 39 1d 3f 18 51 82 be e5 30 9f bd a5 40 69 be
       0.61415744 -0.25452495 -0.07772998 -0.22778566
000310 5a bc a7 bf 16 be 58 3f 3b 65 e1 bf d6 bf 16 bf
       -1.3104355 0.8466505 -1.7609018 -0.5888647
000320 c4 cf 81 3e d8 83 09 bf 3a 6c 7d be 64 5b 68 bf
       0.25353825 -0.537168 -0.24748316 -0.9076445
000330 60 58 93 3e fe 38 ba 3f d9 69 14 bf ba d3 94 be
       0.28778362 1.4548643 -0.5797401 -0.29067785
000340 ee a3 95 bf 6a ed 4e 3f 32 ee 62 3e 96 77 81 bf
       -1.1690652 0.80831015 0.22161177 -1.011462
000350 c2 25 23 3d 05 11 97 bf 9f 23 4e be d7 86 a8 bf
       0.03983093 -1.1802069 -0.20130776 -1.316615
000360 83 db 8a 3f ea 8d 3c be 5d 39 12 bf 84 e4 18 c0
       1.084824 -0.18413511 -0.5711878 -2.3889475
000370 db ad 0c 3f de 16 f5 3d 40 59 a2 bf 67 c5 b7 3d
       0.5495278 0.11967252 -1.2683487 0.089731984
000380 a9 3c f6 bd 6d de 23 3c 95 5c a3 bf ae e5 17 3f
       -0.12023289 0.010001761 -1.2762629 0.5933484
000390 3a fd 09 bf df cf 4b 3f c4 bc c2 be 7f ec 66 be
       -0.5390202 0.7961406 -0.38034642 -0.22551154
0003a0 13 2b 8b 3e 68 cd ef 3e 78 6c 93 bd 6c ec ac bf
       0.271813 0.468364 -0.07198423 -1.350965
0003b0 61 83 cd be ed 8f 78 be 1b 2a df be 50 34 83 3f
       -0.40139297 -0.24273653 -0.4358681 1.025034
0003c0 24 85 40 be 2c 9f 58 be e5 98 1e 3e 4d bc cf 3b
       -0.18800789 -0.21154469 0.15488012 0.006339586
0003d0 58 76 1d 3d 6a 84 8f 3e 3f 36 cc be 19 ca 92 bf
       0.03844294 0.2803071 -0.39885136 -1.1467925
0003e0 0c 02 0b be be ac f2 3c 5b b5 8e 3c ba 52 a0 3f
       -0.13575 0.029623386 0.017420461 1.2525246
0003f0 4d e7 9e bf e7 74 89 3d 25 f3 84 3f d8 b9 f3 bd
       -1.2414337 0.067117505 1.0386702 -0.11900681

nconvs.1.modlist.0.lin_l.weight f4 [48, 48]
000000 32 10 9a 3f dd 15 46 3f 53 0c ef 3e 8a d7 e8 be
       1.2036192 0.7737711 0.4668909 -0.45476943
000010 92 9a 1a be cf 6f c3 3e a3 9c 1d 3d 02 bf 16 bf
       -0.15098026 0.3817124 0.03847946 -0.58885205
000020 de 99 2d 3e 0c bf 86 3d 64 cc 4e be d2 e1 30 3e
       0.16953227 0.06579408 -0.20195156 0.17273644
000030 e5 2c 9a 3d 82 c9 4e 3f 89 e1 92 bf 33 4f ba bd
       0.07528094 0.80776227 -1.1475078 -0.09097137
000040 e9 27 a8 3e 6e 9a be be 43 b5 c9 3e 0f d8 b3 3f
       0.3284295 -0.37227196 0.39396104 1.4050311
000050 4d 38 17 be 8d f8 75 3e c5 ef 5e 3e 54 47 ea be
       -0.14767571 0.24020596 0.21771152 -0.45757544
000060 b8 88 54 be 7c c4 8c 3d 22 5a 27 bf 92 90 0e bf
       -0.20755279 0.06873414 -0.65371907 -0.55689347
000070 ef f0 d9 be c2 bc 22 3f 42 b4 da 3e b8 36 89 3c
       -0.4256663 0.6356927 0.4271565 0.016749725
000080 64 8b 6f 3d e1 2b 76 3e 27 98 69 3e 9d 85 bd bc
       0.058482543 0.24040176 0.22811948 -0.023135
000090 b7 fd 17 bf 08 07 2a bf de cf bf 3d 2b e4 8c be
       -0.59371513 -0.6641698 0.093658194 -0.27517828
0000a0 72 a5 a8 3e 4a 9b 1a 3f d7 c8 18 be f4 37 63 bf
       0.32938725 0.603932 -0.14920364 -0.8875725
0000b0 47 c4 c1 3f a8 df c0 3f 0d dc 44 3f 6b ba 3e 3d
       1.5138024 1.5068254 0.7689827 0.0465645
0000c0 d1 82 2a bf 04 8c 42 3f 3c d9 02 3e dc d7 b6 bd
       -0.6660586 0.75994897 0.12778181 -0.08927891
0000d0 65 1e ed be cb cf 07 bd a2 c1 ab be 45 b8 c5 bd
       -0.46312252 -0.03315715 -0.33546168 -0.09654287
0000e0 a9 83 02 3f c6 4e a2 be d1 71 0f 3f 65 8e 3d 3e
       0.5098215 -0.31700724 0.56033045 0.1851135
0000f0 f2 b8 d0 be 12 e6 85 3e bc c7 a6 be 7e 90 f5 be
       -0.40766102 0.26152092 -0.3257426 -0.479618
000100 cf 6d 85 bf c8 c4 ac 3e d2 06 26 bd 32 89 6e 3e
       -1.0424136 0.33743882 -0.040533848 0.23294523
000110 c2 be 87 be e3 e5 cc bd f4 52 0a bf b3 d0 6d 3f
       -0.26512724 -0.10004785 -0.54032826 0.92896575
000120 a3 1f d1 be 3e 9a 97 3e b0 3a b3 3b 0f e5 50 3b
       -0.4084445 0.29609865 0.0054696426 0.003187481
000130 82 5d 8a be 3b 1a 11 bd 2b 4c ac be 09 d7 7c bf
       -0.27024466 -0.035425406 -0.33651862 -0.9876562
000140 c1 48 58 be f5 5a 30 3f b9 ef a7 3d 4e e9 e1 be
       -0.21121503 0.6888879 0.0820002 -0.4412331
000150 8b 3f 52 3d 7d 96 98 be 09 e0 a1 be 5a bf 11 3f
       0.05133013 -0.29802313 -0.31616238 0.56932604
000160 d3 c6 02 bc ce 5e 99 be 9c 33 6a be 75 89 69 ba
       -0.007981974 -0.29955143 -0.2287125 -0.00089087273
000170 24 ba ba bd db 0c df 3f 1c 67 64 be d4 80 67 be
       -0.09117535 1.7425798 -0.22304958 -0.22607738
000180 4c c6 b7 bf 9e 72 ca 3e 9e c6 52 bf 86 30 d4 bd
       -1.435739 0.3954057 -0.82334316 -0.103608176
000190 a7 e6 91 bf 7c 4a a2 3e 3f f7 b8 be 0c 91 3d bf
       -1.1398515 0.31697452 -0.36126134 -0.7404945
0001a0 50 52 7b 3e 10 35 da 3d b6 78 4b 3f 78 73 d6 be
       0.24543118 0.10654652 0.79481065 -0.4188497
0001b0 eb c1 6b 3d bd d2 14 3f 98 e3 96 bf f3 c7 d9 bd
       0.05755798 0.5813406 -1.1788206 -0.106338404
0001c0 08 8d ae 3f f0 7e bd 3f 48 f3 04 3f 2f 79 39 3f
       1.3636789 1.4804363 0.5193372 0.72450536
0001d0 ac 21 f1 bd 06 4e 74 bf 4c 47 85 3d 25 8f 84 3f
       -0.117740005 -0.95431554 0.065077394 1.0356184
0001e0 6f 73 36 3d 22 f0 38 bf 92 b5 69 be 39 23 ba 3d
       0.04454368 -0.72241414 -0.2282317 0.090887494
0001f0 26 e4 01 bf 9f e4 4d 3e ad 90 96 3c 5c 85 f4 be
       -0.5073875 0.20106743 0.018379534 -0.47757995
000200 bc b5 aa 3e b9 cd 0e 3f 0f 11 18 3f ef c7 83 be
       0.33341777 0.5578266 0.5940103 -0.25738475
000210 06 3a c8 3d c0 9e 8f 3c 3c 75 00 be 65 08 a3 be
       0.09776692 0.017531753 -0.12544721 -0.31842342
000220 39 cc df 3e 64 3d a4 3e dd f0 1c bd f7 87 7f 3f
       0.43710497 0.32078087 -0.038315643 0.9981684
000230 b1 e6 9f 3e 8d 5d 73 be 57 6e af be ca 48 1b bf
       0.3123069 -0.23766156 -0.3426387 -0.6065794
000240 06 3e db be bf d2 1b ba fe 93 e7 be 02 0e d9 bd
       -0.42820758 -0.00059441844 -0.45230097 -0.10598375
000250 5a 7d 5e bf a1 8e ea 3e cf bd 69 bd f4 88 6e be
       -0.8691002 0.45811942 -0.05706578 -0.23294431
000260 d9 e7 04 c0 8e f8 30 c0 39 3f 2a 3e 32 69 f1 bd
       -2.0766509 -2.7651706 0.1662568 -0.117876425
000270 b4 a0 7d c0 cd 7c 04 3e 24 90 33 bd 55 19 43 c0
       -3.9629335 0.12938233 -0.043838635 -3.0484211
000280 ce d8 9e bf 8c e4 53 be 4a 48 01 3f 26 69 7b 3e
       -1.2409914 -0.20692652 0.5050093 0.2455183
000290 b3 f1 66 c0 f4 16 d1 be 36 0b a7 bd f0 c9 62 be
       -3.6085021 -0.40837824 -0.08156435 -0.22147346
0002a0 1c 2a 82 be ee 2c aa bd 32 16 05 bd 68 94 8e bd
       -0.25422752 -0.08309351 -0.03249187 -0.069619
0002b0 7f 7b 27 bc 24 59 2b bf 0a a0 28 3f 2f 88 aa be
       -0.010222315 -0.6693289 0.658692 -0.33307025
0002c0 08 ff c9 3e b0 27 41 3f de f6 13 be 56 50 c5 3e
       0.39452386 0.75451183 -0.14449641 0.38537854
0002d0 41 bf 62 bd 28 5a f4 bd 9f 27 58 c0 6f eb 27 3c
       -0.055358175 -0.119312584 -3.3774183 0.010249003
0002e0 f1 4d 26 3f 34 4a 10 3f fd 33 6e bc f1 dd 01 bf
       0.6496268 0.56363225 -0.014538762 -0.5072928
0002f0 bd 7e 4f be 71 2a 6d be 18 05 f7 bc 7c 5f dc bd
       -0.2026319 -0.23160721 -0.030153796 -0.107604
000300 32 82 46 3d 46 5c 0f bf 62 ee ae 3e 78 ba 2c bf
       0.048464008 -0.56000173 0.34166247 -0.6747203
000310 0f 2e d3 bf ab cf 7b 3e 9b 1f f7 39 b2 33 03 bf
       -1.6498431 0.24590938 0.0004713506 -0.51250756
000320 fb 7f 61 be 3e f4 85 be 1f 41 8f 3f f6 6c 11 3f
       -0.22021477 -0.26162905 1.1191748 0.56806886
000330 93 ea fb 3d cd 37 3e be c3 fb 6e 3f e6 f5 99 bd
       0.12300601 -0.18575974 0.9335291 -0.075176045
000340 8b 72 e3 3e fa 63 81 3f 4d 67 2e 3e 4b 4e 82 bd
       0.44423327 1.0108635 0.17031594 -0.063625894
000350 36 fe 30 be de 90 4b 3f e1 19 ba be 4e 64 cb 3f
       -0.17284474 0.79517925 -0.3634787 1.5889986
000360 24 16 a9 bd 2c 4e f0 be 9b 2f 3a 3e 1e 7d 23 3d
       -0.08256176 -0.4693464 0.18182223 0.039914243
000370 8e d6 c8 3d 01 db f1 bd 4e a3 8c 3e 02 6d 3d 3e
       0.09806548 -0.1180935 0.27468342 0.18498614
000380 cd f7 38 3e af e0 0d 3f 5e 66 f4 3d b8 ae 26 bf
       0.18063278 0.55420965 0.119335875 -0.6511035
000390 09 41 51 3e fb d9 36 be f7 c8 67 be 94 65 26 bf
       0.20434965 -0.1785659 -0.22635256 -0.64998746
0003a0 54 6c 9e be d1 b5 4a 3e 37 e9 a1 3e 44 19 6f 3f
       -0.30942023 0.1979592 0.3162324 0.9339793
0003b0 33 e9 90 bf 63 c5 b4 3f 11 d8 52 be 80 d6 2f 3f
       -1.1321167 1.4122738 -0.20590235 0.68686676
0003c0 6b dd 80 3f b0 4f f2 3d 49 86 14 be 19 bf b5 3e
       1.0067571 0.118316054 -0.1450435 0.35497358
0003d0 24 b5 95 3d 25 c4 5f be 8d d6 1e 3e 39 ce 41 be
       0.073099405 -0.21852167 0.15511532 -0.18926324
0003e0 0b f5 65 3e 8a cd ee be e6 c9 fb 3e a7 91 dd 3e
       0.22456758 -0.4664119 0.49177474 0.43275186
0003f0 48 bb 7b be 13 9b 52 3e d3 74 74 3f 2b be c2 be
       -0.24583161 0.20566969 0.9549076 -0.38035712

nconvs.1.modlist.0.lin_l.bias f4 [48]
000000 be 81 28 3e 31 46 eb be 55 8f 9d 3e 63 e0 96 bf
       0.16455743 -0.4595199 0.30773416 -1.1787227
000010 dc 10 28 be 66 f0 23 3e ab c9 a4 3d 57 20 03 3e
       -0.16412681 0.16009673 0.080462776 0.12805305
000020 12 b6 76 c0 92 f8 88 bd 8d 83 0a 3e 95 b4 b4 be
       -3.8548627 -0.06688036 0.13526745 -0.35294023
000030 80 1d 9e 3e 4d 75 e7 bd ac 85 62 c0 a5 79 d6 bf
       0.30881882 -0.1130167 -3.5394087 -1.6755873
000040 a9 00 c1 be 24 30 94 3d b6 59 e7 be 10 d7 c5 3e
       -0.37695816 0.072357446 -0.45185632 0.38640642
000050 64 41 a3 3f b9 ba 39 3d 32 e6 87 bb 38 6d 47 3d
       1.2754331 0.04534409 -0.0041473145 0.048688143
000060 16 75 b6 bd 0d 34 db bd 60 ba 93 bd 77 63 20 c0
       -0.08909051 -0.10703287 -0.072132826 -2.5060709
000070 9c 5b f6 3d 54 11 99 3d 22 9c c1 3d 1b 5f 3b 3e
       0.12029192 0.07474008 0.09453608 0.18297999
000080 01 6d 84 bb 44 c5 97 3f 96 0b 88 be f5 dc 1f 3c
       -0.0040413146 1.1857076 -0.2657134 0.00975727
000090 3d 3c cc bf ef bd bf ba 2c d9 4c bd d6 d2 d3 bd
       -1.5955883 -0.0014628748 -0.0500118 -0.10342948
0000a0 9c 08 ac 3e 49 51 a3 3e 9a b7 05 40 31 aa 87 3f
       0.33600318 0.31897953 2.0893312 1.0598813
0000b0 a3 07 d1 3d 3a 23 14 3f 72 fa db bd 9a 59 db 3f
       0.10206535 0.5786625 -0.10741128 1.7136719

nconvs.1.modlist.0.lin_r.weight f4 [48, 48]
000000 6f 71 5b 3e cc f7 15 3f f2 51 2d 3e 31 04 0e bc
       0.2142999 0.58581233 0.16925791 -0.0086679915
000010 42 df 92 bf df 78 86 be 61 5e 6b bf a7 2a 0d 3e
       -1.1474383 -0.26264092 -0.91940886 0.13785802
000020 f2 de 52 3d 32 81 21 be 33 2a f0 be 53 6e b7 3d
       0.05148215 -0.1577194 -0.46907195 0.089565895
000030 c9 35 ae bd 9d 40 84 3a 2d d5 1c 3f 29 f8 bb bd
       -0.085063525 0.0010090057 0.6126278 -0.09178192
000040 5c 12 1f 3f 36 ba 91 be e8 60 51 be 04 d3 1f 3f
       0.6213739 -0.2846238 -0.20447123 0.6243136
000050 5d 69 2a be 8c ed d8 be 18 8b a2 3e fd 3a 3e 3d
       -0.16641755 -0.42368734 0.31746745 0.046442974
000060 15 c8 c6 3e 00 26 a5 3e 21 af 40 3c 4f 24 46 3e
       0.38824525 0.32255554 0.011760504 0.19349788
000070 a5 a0 2d 3e 25 21 c5 bd ab 73 1b bf 38 02 86 3e
       0.16955812 -0.096254624 -0.6072337 0.26173568
000080 d2 90 8a be 8d 32 d7 be d3 9d dc be 32 a1 86 bf
       -0.27063614 -0.42030755 -0.4308916 -1.0517943
000090 ad e1 ac 3e 6f 23 c9 3e 95 31 5b bc 80 cd 19 bf
       0.33765927 0.39284846 -0.0133785205 -0.60079193
0000a0 97 b1 2d be 76 dc 16 bf 55 c8 12 3e e6 11 77 3f
       -0.16962276 -0.58930147 0.14334233 0.96511686
0000b0 27 23 cf 3d 6d 53 5c 3f f2 f0 a2 be 23 30 3f bf
       0.10114127 0.860648 -0.31824452 -0.74682826
0000c0 28 94 96 3b 81 71 d0 3e f8 03 89 3e e6 54 52 be
       0.0045952983 0.40711597 0.2676084 -0.20540199
0000d0 97 6d 3c 3e 14 94 93 be ba 3f f6 3e 87 18 0c 3d
       0.1840118 -0.28823912 0.48095495 0.03420308
0000e0 87 a4 77 3f 4c d8 cd bd 2e c0 1d be 21 9e b1 be
       0.96735424 -0.10051021 -0.15405342 -0.34690955
0000f0 59 d8 f1 be 69 7a 2b bf a1 23 9d 3e 23 c1 3f be
       -0.47235373 -0.6698366 0.30691245 -0.1872602
000100 4b e3 85 3b 58 e0 b2 3e 86 22 86 3d d8 58 83 3e
       0.0040859333 0.34936786 0.065495536 0.2565372
000110 f5 bb a2 be 6e e4 aa bf 3a 1c 64 3e d4 29 1c bd
       -0.31784025 -1.3350961 0.22276393 -0.038125828
000120 19 e0 19 be 3a c3 cf be 4b f0 e0 bc 3f ef 5d 3d
       -0.15026893 -0.40578634 -0.02745833 0.05418324
000130 81 26 bd 3e dd a5 1d bf 56 14 d5 3c 89 35 20 bf
       0.3694344 -0.6158121 0.026010673 -0.6258169
000140 3d f9 8f 3d 17 9e 16 bf 63 1d 16 bf 99 03 a0 be
       0.0702996 -0.58834976 -0.5863859 -0.31252745
000150 5a ad 97 3e 07 24 d7 bd f2 f3 f0 be 5e de d5 3e
       0.29624444 -0.105049185 -0.47061116 0.41771215
000160 56 11 79 be bc e8 fb 3d 6c b2 b7 3e ae 15 5f 40
       -0.2432302 0.1230025 0.35878313 3.4856982
000170 a2 00 9f bf 9f 7e 12 be 62 6b 86 be cd 00 91 3e
       -1.2422068 -0.14306115 -0.26253802 0.28320923
000180 f1 f8 40 bf ae 21 db be 75 84 42 3f 27 6c 79 3d
       -0.75379854 -0.42799133 0.75983363 0.060894158
000190 29 c3 d0 3f 68 e9 d7 3d 21 30 72 bf 56 dd 99 3e
       1.6309558 0.105425656 -0.9460469 0.30051678
0001a0 ca a4 83 3e db 82 84 3e 4b d0 04 3f 55 f9 c5 3e
       0.25711662 0.25881085 0.5188033 0.38666788
0001b0 84 c4 1c be 63 2f b1 3d 02 49 bb 3e 7e c8 97 3d
       -0.1530934 0.086516164 0.36579138 0.07411288
0001c0 f2 d2 5c 3f 58 c5 d3 3d 50 0b a1 3c bb 0e 63 bf
       0.86259377 0.10340375 0.019658715 -0.8869435
0001d0 0e 65 83 3c 79 69 43 3f 9f 0e e5 be cd e0 1c be
       0.016039398 0.76332814 -0.44737718 -0.1532013
0001e0 14 55 d6 3d e8 d6 05 3d 73 6e a9 be b7 16 b4 bd
       0.10465446 0.032675654 -0.3309208 -0.08793395
0001f0 c8 f6 7a bf 17 02 af 3e 67 36 20 3e bd a1 de 3e
       -0.9803281 0.34181282 0.15645753 0.43482772
000200 6f 12 70 bd 19 d4 46 3f c0 c9 a4 3f 1a d3 b2 bf
       -0.05861133 0.77667385 1.2874069 -1.3970673
000210 54 43 26 bf 22 01 23 bf 86 bc 1c be 8a 10 00 3f
       -0.64946485 -0.63673604 -0.15306291 0.50025237
000220 6b 6b 43 be 94 a8 2a be 73 88 df 3e bc b3 88 3e
       -0.19083945 -0.1666587 0.4365879 0.26699626
000230 66 e4 a5 bd 83 0a 5a 3f 49 c1 ee 3e bd 9a 4b 3d
       -0.08100204 0.8517229 0.4663184 0.049708117
000240 ef 87 34 3f f5 7a d1 3e ab 13 d8 3e 8d a1 ba 3d
       0.7051992 0.4091412 0.42202505 0.091128446
000250 43 89 29 be 5c d5 a5 bd ee de 14 3f 42 a9 4d 3e
       -0.16556267 -0.08097336 0.58152664 0.20084098
000260 29 4b 48 3b e2 77 10 bd 19 15 93 bc 5e 79 9a 3e
       0.0030562377 -0.03527058 -0.017954396 0.3017072
000270 da 4e f6 bb 24 12 78 3f bf aa 0b bd f6 cc 13 be
       -0.007516724 0.9690268 -0.034098383 -0.14433655
000280 b9 6b 40 be cf c0 96 3e 4b 5f 2b be 19 0e 72 3f
       -0.18791093 0.29443976 -0.1673557 0.9455276
000290 22 a7 e3 bd ce 93 ec 3e b0 17 db 3d a9 c5 c5 3e
       -0.111158624 0.46206516 0.106978774 0.38627365
0002a0 e2 ac ce 3e 66 d6 02 3f 3d 9d e1 3e e6 e4 bc bd
       0.40366274 0.51108396 0.44065276 -0.092233464
0002b0 ce a5 e9 3d 3c 09 ae 3d 2d 29 f9 bd 50 2f a0 3e
       0.11408578 0.08497855 -0.12166057 0.31286097
0002c0 fa 7b 6c be 9c 78 1f bd be 42 62 be 98 4e fd 3e
       -0.23094168 -0.03893338 -0.22095773 0.49474025
0002d0 c1 6d 1b 3f 8d d5 55 3d ee cc 7c bc c3 c1 eb 3e
       0.60714346 0.05220561 -0.015429718 0.46046266
0002e0 c4 74 db bd ea f3 92 bd 7e 84 65 3e 76 cd 04 3f
       -0.10715631 -0.07175429 0.22413823 0.5187601
0002f0 58 1b 19 3f 98 c4 05 bd 6c b3 4c 3f a3 82 79 3e
       0.5980735 -0.03265819 0.79961276 0.2436624
000300 85 e8 23 be 7c 3d 1a 3e 72 1d 47 3e 36 04 0b 3f
       -0.16006668 0.15062517 0.19444826 0.543033
000310 dd ae f3 3f cc a4 b9 bd 98 e9 50 3e 9b f1 93 3f
       1.9037739 -0.09064636 0.20401609 1.1558107
000320 a1 2a 65 bf 06 3a 53 be da 63 4a bf 6c e2 3c 3d
       -0.8951817 -0.20627603 -0.7905861 0.04611437
000330 48 c4 44 3d d4 a2 97 3e d2 90 c5 bc c0 f7 e8 bd
       0.04803875 0.29616416 -0.024116907 -0.113753796
000340 a4 25 99 bd 08 01 27 bd 56 77 32 be 65 d1 2c 3e
       -0.074778825 -0.040772468 -0.17428336 0.16876753
000350 92 a0 3b 3d 36 bd 53 bf 72 bf 07 3f 0c 2f 8a bf
       0.04580743 -0.8271059 0.530265 -1.0795608
000360 e6 7e 8a bf d5 27 02 be 0b 7b c3 3e b9 56 02 3f
       -1.0819976 -0.12710507 0.38179812 0.5091358
000370 d1 33 f7 be 55 00 61 3e e6 5f bd 3e 73 10 51 3e
       -0.4828172 0.21972783 0.36987227 0.20416431
000380 a9 a2 43 bc 7f 7b 50 bf b2 ec ad 3d 73 72 60 be
       -0.011940637 -0.8143844 0.08492412 -0.21918659
000390 13 71 6b bd 58 98 a1 be 61 27 6c 3d bf 68 2f 3f
       -0.057480883 -0.31561542 0.057654742 0.68519205
0003a0 01 98 82 3d 88 9a e1 3e 52 be a1 be de 8f 07 3f
       0.06376649 0.4406321 -0.31590515 0.529539
0003b0 13 5f c7 3d 8d a7 8f 3f c4 8d 27 bf a6 24 8f 3e
       0.09734931 1.1223007 -0.6545069 0.27957648
0003c0 1d 2a a0 bf 96 88 85 3d 85 3b 0e 3e 52 0c 18 bd
       -1.2512852 0.06520192 0.13889892 -0.037121125
0003d0 3d 36 43 3f 2f bc 2b 3e c8 a0 85 be 58 e3 9e 3e
       0.76254636 0.16771005 -0.2609923 0.31032825
0003e0 f1 4b 27 bf 19 0f 39 3e 1d c2 2a bf 6b 05 9a 3e
       -0.6535025 0.18072166 -0.66702443 0.3008226
0003f0 15 c0 21 3e 8e 3d bc 3a df 40 a1 3f 4f 53 77 bd
       0.1579593 0.0014361606 1.2597922 -0.060382184

h_1.modlist.0.modlist.0.weight f4 [18, 49]
000000 5f 6c 3e 3e f4 aa f9 bc 44 97 71 3e ed ef 86 3f
       0.18596028 -0.030477025 0.2359286 1.054197
000010 78 57 73 be 71 6a 14 3b 9d ce 48 3d 34 13 1e 3d
       -0.23763835 0.0022646452 0.049025167 0.038592532
000020 ec e7 8a 3e d1 ba 14 3e cb 3c 3a 3c 97 2d 2c 3e
       0.27130067 0.1452439 0.011367033 0.16814266
000030 00 93 e8 bd 52 d9 21 be c9 f2 9e 3e 61 9a 89 3e
       -0.11356163 -0.15805557 0.31044605 0.26875594
000040 5c 27 80 3b bc b8 d6 3d a4 72 17 3e 27 77 e2 3b
       0.003910942 0.10484454 0.14789826 0.0069111767
000050 0f a5 da 3f 67 42 80 3d cf 24 ad 3e 60 23 85 be
       1.7081622 0.06262665 0.33817145 -0.2600355
000060 94 47 81 bd d4 03 c7 3d 98 cc a0 bd de 42 1a bf
       -0.063124806 0.09717527 -0.07851523 -0.6025828
000070 96 80 44 bd d2 70 05 3e 45 b8 81 bd 44 96 05 40
       -0.04797419 0.13031319 -0.06333975 2.0872965
000080 44 9e 3a 3e 47 27 13 bf f5 cd da be d1 21 3b be
       0.18224436 -0.5748181 -0.42735258 -0.18274619
000090 a5 b7 d5 be 14 12 b3 3e 27 e4 2f be c1 ac c8 3d
       -0.41741672 0.3497473 -0.17176877 0.09798575
0000a0 9e b5 af 3e 3b 9e fe 3d f8 dd 30 be 86 12 8e be
       0.3431825 0.12432524 -0.17272174 -0.27748507
0000b0 97 c0 ac 3e d4 e6 3f 3c 2e 03 92 be f8 99 c5 be
       0.33740684 0.011712749 -0.2851805 -0.3859403
0000c0 a1 ca 06 c1 50 a3 4d 3d 0d 01 3d bd 7e eb 0e bd
       -8.42447 0.050204575 -0.04614358 -0.03489255
0000d0 08 f0 fe 3b ea 25 a4 bd 2e 4b 69 3e 38 1d 50 be
       0.007780079 -0.08015044 0.22782585 -0.20323646
0000e0 69 1f 24 3e 15 3f 84 bf 49 82 97 3e 77 ba 10 be
       0.16027607 -1.0331751 0.29591587 -0.1413363
0000f0 83 be 97 bd 12 db e0 3c 50 d5 c2 3d 59 ff b5 3d
       -0.07409384 0.02744821 0.095133424 0.08886594
000100 27 42 da 3f 37 43 39 bd 98 06 4d 3c 5f 0d 57 3d
       1.7051438 -0.045230117 0.012513779 0.052502986
000110 d6 55 d2 3d 6e 48 ec be 27 44 92 be 03 df 32 3d
       0.10270278 -0.4614901 -0.2856762 0.04366971
000120 71 be e1 3d 42 25 92 3d 92 50 45 3e 57 d5 1c be
       0.11022652 0.071360126 0.19269016 -0.15315758
000130 77 c1 f6 3f 23 d1 3e 3e 0a 58 31 3e bb b0 91 3d
       1.9277791 0.18634467 0.1731874 0.07113787
000140 74 a7 02 c0 cd 38 5e 3e 26 a5 fc be 42 34 67 be
       -2.0414705 0.21701355 -0.49344748 -0.22578529
000150 67 f0 b0 be a4 3c 08 c0 64 39 c4 3e b4 39 8a 3c
       -0.34558412 -2.1287012 0.38325036 0.016873218
000160 c3 4b 9d 3e a8 df 9a 3e 23 09 17 bc 4e 8e 1b 3f
       0.30721864 0.3024876 -0.009218487 0.60764015
000170 11 2e 9c 3e 91 3f 0c 3c 13 58 62 bc cb f6 87 be
       0.30503896 0.008560077 -0.013814944 -0.26555476
000180 1b f0 0c 3f 9f 51 04 40 65 9e 77 3d 90 80 99 be
       0.5505387 2.0674818 0.06045379 -0.29980898
000190 c4 9e 48 3c a7 91 68 c0 4c 94 03 be f8 22 21 be
       0.012244884 -3.63389 -0.1284954 -0.15735996
0001a0 e2 4f 36 be c7 82 d8 be 75 cc c6 bd fb 7e cd bd
       -0.1780391 -0.42287275 -0.09706966 -0.10033985
0001b0 c3 7b 09 3e 1d d1 c7 bd 07 d2 42 3e f6 37 84 be
       0.13426118 -0.09756682 0.19025432 -0.25823945
0001c0 93 24 2b 3f d8 a8 4b be bc b2 a3 3e f5 3c b6 3c
       0.6685268 -0.19888628 0.319723 0.022245863
0001d0 cd 0d 08 3e 05 f1 29 3e cd f0 47 bf 36 c7 15 be
       0.13286515 0.16595848 -0.7810181 -0.14626774
0001e0 91 15 b7 bd bc 82 cc be bf 07 42 be fd aa 0c be
       -0.0893966 -0.39943492 -0.18948267 -0.13737102
0001f0 e2 56 48 bd 78 b9 0f 40 19 bd 59 be 1e 1f 90 3e
       -0.048910983 2.245695 -0.21263541 0.2814874
000200 26 94 bf 3d 1b 65 28 bf 68 01 3c be 01 98 8c 40
       0.09354429 -0.65779275 -0.18359911 4.393555
000210 38 08 0e 3f c9 05 a9 3d 04 a6 76 3f 01 20 6e be
       0.5548129 0.082530566 0.9634707 -0.23254396
000220 7a c8 a7 be b7 96 5b 3e 3b 05 f2 be 72 bb c2 bb
       -0.3277014 0.21444212 -0.47269616 -0.0059427554
000230 e3 46 2b 3e d6 e3 00 bf 2b 63 4f be 2a 4e 07 bd
       0.1672626 -0.5034765 -0.20252673 -0.033033527
000240 a7 0d 04 bd 15 27 e4 be 0e 67 ee be 08 f8 c7 bc
       -0.032239582 -0.44561067 -0.46563 -0.024410263
000250 bc ea 89 bd 67 68 05 bf f6 05 39 bf ef 98 b2 3d
       -0.06734225 -0.5211243 -0.7227472 0.08720576
000260 cd ac a1 be 41 0d 06 be 6e f7 d3 bd 6f a4 37 bf
       -0.3157715 -0.13090993 -0.10349928 -0.7173528
000270 46 b8 06 3d 2c c2 de bd b7 03 3f 3e 4a cc 93 3d
       0.03289058 -0.10876879 0.18653761 0.072166994
000280 2f 2d e2 3d d3 58 af be 36 fd 1a 3f 1b 64 f0 bc
       0.11043774 -0.34247455 0.6054262 -0.029344609
000290 98 fa 06 3d 98 af 2c bd 86 22 89 bd d7 31 4c 3f
       0.03295383 -0.042159647 -0.06696038 0.7976355
0002a0 4a 6a 99 bb bb 22 b5 3d 8b 82 36 bd f2 df 85 bd
       -0.00468186 0.08844515 -0.04455809 -0.06536855
0002b0 1b 4a 76 3e f1 97 3a be 17 81 c5 3c 7c 27 f0 bd
       0.24051706 -0.18222024 0.024109406 -0.11726281
0002c0 53 33 5b 3e 3f fe b3 bc 47 d3 27 3f 5d e6 df be
       0.21406297 -0.02197182 0.6555676 -0.4373044
0002d0 a2 d5 a1 be 55 cf 00 bd fb f9 3e be 42 3b a2 be
       -0.316083 -0.031447727 -0.18650047 -0.31685835
0002e0 35 58 fa 3d 58 ce 8e 3e 4b a4 9f bc ba be eb bd
       0.122238554 0.27891803 -0.01948752 -0.115109876
0002f0 f9 1f ef bd cd 06 26 be ef 1e a9 be fd f5 78 bd
       -0.1167602 -0.16213532 -0.33031413 -0.060781468
000300 5d c7 08 be 70 c5 11 bc f2 4d a3 3e 4f 9a a8 c0
       -0.13357301 -0.00889717 0.31895405 -5.2688365
000310 31 9b bb bd 4f f4 f6 be f3 f1 4e 3e d3 20 29 bf
       -0.0916046 -0.48233268 0.20209484 -0.6606571
000320 b8 72 e5 3c 7b 6e 6d 3d fc e1 76 be 34 03 ce bd
       0.028008804 0.05796669 -0.24109644 -0.10059205
000330 3a 7b 3c 3f 2a 02 24 3e ad a8 f9 bd e5 1f 24 bd
       0.7362553 0.1601645 -0.121903755 -0.04006948
000340 81 8e bd 3d 6f e9 14 3e 88 18 97 3f 50 ae b7 3f
       0.09255696 0.14542173 1.1804361 1.4350071
000350 f8 3e d5 bc 3d 5c 3f bd 6a e3 44 3d b3 22 02 3d
       -0.026031002 -0.046718825 0.04806844 0.031771373
000360 55 39 dd 3f a4 fa aa be 4e aa 38 be 1b c0 8c be
       1.7283121 -0.3339435 -0.18033716 -0.27490315
000370 c0 2b 03 3f 64 f9 88 be 39 19 ba 3e f9 90 c1 3f
       0.5123863 -0.2675277 0.36347368 1.5122367
000380 6f 3f 33 be 46 7a 6a 3e d8 73 ef bc 44 3f 99 3e
       -0.17504667 0.22898206 -0.029230043 0.2993108
000390 64 af c9 3d 83 06 d7 be 13 78 75 bc 00 4c 1c be
       0.09847906 -0.41997156 -0.014982241 -0.15263367
0003a0 56 8d fc be c0 4f b9 bb fe 35 0f be 19 20 cf be
       -0.4932658 -0.005655259 -0.1398544 -0.40454176
0003b0 16 74 ce 3e e3 5e 34 3e f1 6b 98 3f ab 13 57 bd
       0.40322942 0.17614321 1.1907941 -0.05250899
0003c0 b2 a8 af 3e 56 c4 07 be 18 66 31 bd bb 2c e8 be
       0.34308392 -0.1325849 -0.043310255 -0.45346627
0003d0 ee 3a a6 c0 3e 0e fc be 6f 07 23 be 2d 57 37 be
       -5.1946936 -0.49229616 -0.15920804 -0.17904349
0003e0 80 31 dc bf 61 77 40 3e b0 4c 33 be 18 cf 5d bd
       -1.7202606 0.1879554 -0.17509723 -0.054152578
0003f0 c0 76 3e 3e bb c4 49 be 89 2b a0 be 06 77 2f 3e
       0.18599987 -0.19703953 -0.31283215 0.17135248

h_1.modlist.0.modlist.0.bias f4 [18]
000000 88 7c 94 bf a0 00 25 be 45 bb 04 3f 64 38 f0 3e
       -1.1600504 -0.1611352 0.5184825 0.46918023
000010 7f 0b ec c0 fd c6 8a bf c6 c1 dc 3e 8b c1 c8 40
       -7.3764033 -1.0841976 0.43116587 6.273626
000020 29 c5 d7 3d 62 3b f0 40 ec f1 cc 3d e7 b0 82 c0
       0.10535652 7.507249 0.100070804 -4.0840945
000030 4c e8 8b bf 94 9c 6b 3d fb 4f 68 bf c4 ba d2 3f
       -1.0930266 0.05752237 -0.9074704 1.6463246
000040 b5 fe 4f 3f e1 e9 9a 3f
       0.8124803 1.2102624
