2WL_link_pred/checkpoint/20221214_100_20/2WL_state_dict_100_20_9.pt (torch, 56754 bytes, 16 tensors)

lin1.1.modlist.0.weight f4 [48, 3]
0.18998596 -1.38826 0.034205493 -0.100020476 0.7618333 -0.14378664 -0.052703377 0.93719375
-0.17211334 -0.0003805481 0.74638534 -0.084496416 -0.00087940576 0.37908587 -0.09194888 -0.03989036
9.6098175 0.0084620295 4.3669653 -0.8507867 3.356594 1.53588 -0.4466281 0.87170696
-8.449461 0.025442732 0.028324189 0.08164521 0.7456212 -0.023554714 -0.022876564 0.844595
0.006500292 -1.2559212 0.20473999 -0.31605157 0.9544014 -0.23896208 0.6327871 0.35538343
-1.4278167 0.120023854 -0.007048633 0.0053228885 -0.26837823 0.15408537 -4.8270483 -2.62097
1.0815217 -0.22775792 1.0655628 1.0553015 -0.024530446 0.6472081 -0.061714813 -0.029952247
-0.16667825 -0.97823656 0.27361837 -0.16541825 -0.0617674 -0.039405864 -0.14080772 0.24443097
0.1416815 0.15970308 0.85695106 -0.3683203 0.6217172 -0.51218575 0.3288576 -0.17321874
-7.3720675 -6.8769684 -0.0053719818 0.8279538 -0.16634649 0.8945283 -0.061926316 0.5133113
0.015627308 -0.048420087 1.0589397 -0.08439827 0.21225044 -1.1446972 0.25443083 1.2630781
-0.3309569 0.74359274 -0.03116091 0.86964726 -0.033339504 1.1695993 -0.03030062 0.7085151
-1.1111084 0.17768632 -0.21410331 0.23911494 -1.1250631 0.10351499 9.238212 -0.1257256
0.022155268 -0.005711827 0.5717075 -0.055820726 -1.3225561 0.17745307 -0.47490665 0.20947123
-1.290047 0.13774535 -0.05947407 7.0143123 -0.0028767136 0.28460485 -1.2117765 0.19686136
0.11146385 0.22774829 -6.5370164 0.23021385 -1.1172853 0.1475128 0.2345814 -0.81100214
0.16793053 1.5534223 -0.66663206 1.2527803 -1.1045903 0.39652714 -0.4603976 -0.0074790916
0.781538 -0.14067042 1.052747 -0.25928617 0.7893622 0.13386258 0.20279759 0.2038195
00000000: ae8b 423e 81b2 b1bf 0f1b 0c3d 89d7 ccbd
00000010: 8207 433f ce3c 13be 7fdf 57bd eeeb 6f3f
00000020: 7b3e 30be 4d84 c7b9 1c13 3f3f 750c adbd
00000030: ec87 66ba 8b17 c23e b24f bcbd 1364 23bd
00000040: d0c1 1941 53a4 0a3c 2ebe 8b40 28cd 59bf
00000050: 70d2 5640 b797 c43f 70ac e4be 3028 5f3f
00000060: fe30 07c1 476d d03c 2108 e83c 9b35 a73d
00000070: 08e1 3e3f d1f5 c0bc a267 bbbc 6137 583f
00000080: 6700 d53b 07c2 a0bf 5ca7 513e 83d1 a1be
00000090: a653 743f 7ab2 74be 56fe 213f d1f4 b53e
000000a0: b3c2 b6bf 11cf f53d 38f8 e6bb a06b ae3b
000000b0: df68 89be 8ec8 1d3e 2e77 9ac0 f9bd 27c0
000000c0: 4e6f 8a3f 5f39 69be 5d64 883f 1f14 873f
000000d0: 13f4 c8bc 6eaf 253f acc8 7cbd 6a5e f5bc
000000e0: b4ad 2abe b66d 7abf b517 8c3e 6763 29be
000000f0: d0ff 7cbd 0b68 21bd e62f 10be 1d4c 7a3e
00000100: f514 113e 3489 233e 2561 5b3f 7a94 bcbe
00000110: dc28 1f3f 9b1e 03bf 0660 a83e 4160 31be
00000120: fae7 ebc0 2010 dcc0 7307 b0bb c8f4 533f
00000130: bc56 2abe cfff 643f 73a6 7dbd 5f68 033f
00000140: d704 803c 2454 46bd 568b 873f 00d9 acbd
00000150: 2e58 593e 7085 92bf c244 823e 8bac a13f
00000160: 2f73 a9be 185c 3e3f 2a45 ffbc 34a1 5e3f
00000170: 018f 08bd 6eb5 953f 0139 f8bc 3f61 353f
00000180: cd38 8ebf 67f3 353e e63d 5bbe 8cda 743e
00000190: 1102 90bf abff d33d b7cf 1341 36be 00be
000001a0: f77e b53c 472a bbbb 6c5b 123f 46a4 64bd
000001b0: 8549 a9bf 42b6 353e f726 f3be a07f 563e
000001c0: 4320 a5bf 1e0d 0d3e 159b 73bd 3f75 e040
000001d0: 3f87 3cbb bab7 913e 7e1b 9bbf 0696 493e
000001e0: 2947 e43d d936 693e 3d2f d1c0 2ebd 6b3e
000001f0: 3403 8fbf 980d 173e 1b36 703e d69d 4fbf
00000200: fbf5 2b3e 8bd6 c63f 66a8 2abf 1b5b a03f
00000210: 3763 8dbf 9b05 cb3e 3cb9 ebbe 2b13 f5bb
00000220: e012 483f e80b 10be 6ac0 863f 28c1 84be
00000230: a413 4a3f 4613 093e 2caa 4f3e 0fb6 503e

lin1.1.modlist.0.bias f4 [48]
-0.43302166 0.3702024 0.29478207 0.27071804 0.38512093 0.018187623 -0.56700546 -0.0043014013
-2.6499708 0.4365056 0.46634775 0.104854055 -0.042790662 -0.27688828 3.2682004 0.05287434
-0.010281113 -0.074584454 2.0945792 0.06289997 2.7323182 -2.5755265 -0.023182517 0.14154808
0.025505163 -0.07318552 0.41962102 0.5090486 -0.37791657 -0.009511423 0.3046842 -0.043252468
0.01444131 -0.35917214 -0.059767585 0.35212287 0.05801496 -0.5359469 0.047586545 -0.3981041
0.06819601 -0.33016834 -0.39011905 -0.09054546 0.024238799 0.41517267 -0.03859411 -3.0515049
00000000: 04b5 ddbe 2b8b bd3e aded 963e 8e9b 8a3e
00000010: 922e c53e 36fe 943c 4527 11bf c5f2 8cbb
00000020: 1f99 29c0 a97d df3e 22c5 ee3e b9bd d63d
00000030: 4345 2fbd 4dc4 8dbe 322a 5140 c492 583d
00000040: 1d72 28bc bcbf 98bd 960d 0640 b3d1 803d
00000050: 4dde 2e40 6dd5 24c0 43e9 bdbc fbf1 103e
00000060: 34f0 d03c 4ae2 95bd 91d8 d63e 0251 023f
00000070: 487e c1be cdd5 1bbc 91ff 9b3e 8029 31bd
00000080: 3f9b 6c3c 69e5 b7be dbce 74bd 7349 b43e
00000090: 18a1 6d3d d133 09bf 1cea 423d 4dd4 cbbe
000000a0: 5aaa 8b3d d30b a9be afbd c7be e66f b9bd
000000b0: 7290 c63c 8391 d43e dc14 1ebd db4b 43c0

embedding.0.weight f4 [5, 48]
1.5943828 -0.4543533 -0.4370698 0.45896018 -2.5217123 0.6375873 -0.22316773 -1.7321879
0.6298833 -1.78785 0.6157322 -0.4697641 0.17095178 -1.5673462 -0.45014194 -0.52225345
0.6085543 0.2217274 1.3747461 0.3381849 0.22497192 0.89346725 0.38558188 0.8338681
0.9942423 1.6416503 0.43786412 0.24718009 -0.01819588 -0.8037736 -1.6409171 0.4684494
-0.8291556 1.1745632 0.34816593 -0.15338708 -1.1304483 -2.398801 -0.71646315 -1.9678876
-0.5908902 0.43013886 1.3263315 -0.76014686 -0.96322376 -0.36376238 -1.429478 -0.4546918
-1.2883278 -0.98565215 -0.7748798 0.85791427 -1.7719963 1.2742637 0.9234264 2.024305
-0.15551864 -0.78260607 0.61100703 0.60168135 0.925065 0.26767722 1.0006146 -0.7672087
0.50481313 -1.0709463 0.8996441 0.3792392 1.7829026 -2.628955 -0.784652 -1.356728
-0.106554136 1.1118891 -0.70660025 1.1837475 0.32715133 -0.9906304 -0.21151522 -0.39579222
-1.2121936 0.26947874 0.32561043 -0.61212575 -0.85610825 -1.4780478 0.1329216 -0.07466336
-0.63540125 -0.32890153 0.48325482 0.13742681 -0.6182681 -0.7009144 -0.5079788 -0.11265458
2.0389857 -0.24129069 -1.1638258 0.43544737 0.14473581 0.00328183 -0.74908465 1.2092948
0.24630874 0.5212263 0.4950489 -0.60799396 2.021536 -1.4556786 -0.6238495 -1.0853256
-1.0008178 0.64303035 1.206034 -0.3441438 -0.22912513 -0.29972282 0.04101633 1.1603369
2.5625875 0.31478107 1.6772281 0.006895167 0.6251508 -1.4365163 -0.98033255 1.2527916
0.7361511 0.4061727 -0.0984245 -0.44564062 0.9323775 -0.5456687 -0.73852754 0.43678352
1.7195225 1.3439841 -0.8592465 -2.5253544 1.9271464 -0.66735625 -0.35824946 -1.4570992
0.2196619 -1.0936904 0.18803596 -0.7842179 -0.34812167 -0.8069592 0.108078666 0.051673964
-0.44057494 -0.5298693 0.33831787 -0.8330049 1.3109592 -0.5352388 1.3628753 -0.198338
-0.6782776 0.3869104 0.5789079 0.86347604 0.2406919 -0.15428476 0.9822122 -0.449271
1.0742112 -0.7583687 -2.1276734 -1.2216974 -0.6336476 0.7335918 1.0274402 -0.607466
0.22844513 -1.0853709 0.51818603 1.5910753 -0.6443809 0.48851267 2.4936228 0.7395522
1.4564085 0.10573627 0.93510747 0.058392745 0.040783137 -0.45755622 -0.11890319 0.20731612
0.20937805 -0.6934154 1.317359 -1.0549105 -1.7730337 0.09055971 1.321453 -0.51829696
0.2939622 1.7120388 0.3039581 -0.92092437 0.076136105 1.0139992 -2.7340457 1.6870222
0.21005611 0.4250288 -0.36521974 -0.08149576 1.72961 -1.6322541 -1.4002004 1.0980909
-0.18097806 -0.045168757 -0.47250804 -0.24110773 -0.4263358 -0.07749601 0.39683118 -0.036975443
1.7026676 1.1073457 -0.48676258 -0.74849296 -0.7329986 -1.0319682 0.25507307 0.25955695
-1.1625056 2.1914778 -0.36813536 1.3773987 -1.2672944 2.0215845 1.4061445 0.05246531
00000000: bc14 cc3f ffa0 e8be 9dc7 dfbe d4fc ea3e
00000010: bc63 21c0 ec38 233f 1586 64be 55b8 ddbf
00000020: 0840 213f 45d8 e4bf a0a0 1d3f ec84 f0be
00000030: fc0d 2f3e cd9e c8bf 0179 e6be 67b2 05bf
00000040: 37ca 1b3f 820c 633e aef7 af3f 9226 ad3e
00000050: 0a5f 663e 45ba 643f fd6a c53e 6178 553f
00000060: aa86 7e3f 9921 d23f ba2f e03e c71c 7d3e
00000070: 870f 95bc 1bc4 4dbf 9209 d2bf 9ad8 ef3e
00000080: 8b43 54bf 1658 963f ce42 b23e 8111 1dbe
00000090: 88b2 90bf f585 19c0 216a 37bf bee3 fbbf
000000a0: 9544 17bf 293b dc3e 3bc5 a93f fc98 42bf
000000b0: d595 76bf 103f babe 23f9 b6bf 5dcd e8be
000000c0: ede7 a4bf b353 7cbf 865e 46bf 45a0 5b3f
000000d0: c6d0 e2bf 131b a33f ac65 6c3f 378e 0140
000000e0: 4740 1fbe df58 48bf f56a 1c3f ca07 1a3f
000000f0: 0fd1 6c3f fd0c 893e 2414 803f ca67 44bf
00000100: 6f3b 013f c514 89bf 134f 663f a42b c23e
00000110: 2736 e43f cc40 28c0 f4de 48bf 43a9 adbf
00000120: 0e39 dabd 6252 8e3f c1e3 34bf 0a85 973f
00000130: 6180 a73e f499 7dbf 7297 58be 47a5 cabe
00000140: 2929 9bbf 1ef9 893e 69b6 a63e 46b4 1cbf
00000150: e929 5bbf ac30 bdbf 9a1c 083e 1be9 98bd
00000160: a8a9 22bf c865 a8be 2d6d f73e 9db9 0c3e
00000170: d146 1ebf 206f 33bf e60a 02bf 72b7 e6bd
00000180: be7e 0240 e814 77be 3ef8 94bf f5f2 de3e
00000190: a035 143e f913 573b 03c4 3fbf 2cca 9a3f
000001a0: 5c38 7c3e 166f 053f 0d77 fd3e 7ea5 1bbf
000001b0: d960 0140 ad53 babf 9ab4 1fbf f3eb 8abf
000001c0: cc1a 80bf a39d 243f 525f 9a3f 9e33 b0be
000001d0: c79f 6abe 4575 99be bd00 283d eb85 943f
000001e0: 6f01 2440 fc2a a13e 69af d63f daf0 e13b
000001f0: e209 203f c4df b7bf 13f7 7abf 7a5b a03f
00000200: 6674 3c3f def5 cf3e c992 c9bd 022b e4be
00000210: 4bb0 6e3f f2b0 0bbf 2410 3dbf 17a2 df3e
00000220: 5019 dc3f ac07 ac3f 94f7 5bbf 689f 21c0
00000230: bcac f63f dcd7 2abf 796c b7be 3a82 babf
00000240: 0def 603e 0cfe 8bbf 808c 403e 81c2 48bf
00000250: 013d b2be e194 4ebf 5958 dd3d 14a8 533d
00000260: 0a93 e1be 84a5 07bf 0038 ad3e cf3f 55bf
00000270: 83cd a73f 6905 09bf b372 ae3f 1e19 4bbe
00000280: 9aa3 2dbf 1f19 c63e 4f33 143f c40c 5d3f
00000290: f077 763e d3fc 1dbe 4272 7b3f d906 e6be
000002a0: c17f 893f 7324 42bf cd2b 08c0 9560 9cbf
000002b0: bb36 22bf accc 3b3f 2983 833f e482 1bbf
000002c0: 85ed 693e 6fed 8abf d7a7 043f 5ba8 cb3f
000002d0: 26f6 24bf 551e fa3e 8497 1f40 4b53 3d3f
000002e0: 986b ba3f 428c d83d 3463 6f3f 3b2d 6f3d
000002f0: 380c 273d cf44 eabe 8483 f3bd ad4a 543e
00000300: 3367 563e ac83 31bf 389f a83f 4f07 87bf
00000310: c5f2 e2bf 5f77 b93d 5f25 a93f 1caf 04bf
00000320: 3782 963e 1624 db3f 65a0 9b3e b3c1 6bbf
00000330: 3fed 9b3d baca 813f 9bfa 2ec0 58f0 d73f
00000340: f318 573e 609d d93e 15fe babe 40e7 a6bd
00000350: dc63 dd3f b4ed d0bf c439 b3bf 3e8e 8c3f
00000360: 5052 39be e002 39bd 93ec f1be f2e4 76be
00000370: b048 dabe 3ab6 9ebd 752d cb3e 9073 17bd
00000380: 03f1 d93f 81bd 8d3f f238 f9be 3c9d 3fbf
00000390: cca5 3bbf 8917 84bf f098 823e a6e4 843e
000003a0: fccc 94bf 2c41 0c40 3d7c bcbe 9a4e b03f
000003b0: b436 a2bf a461 0140 8bfc b33f dde5 563d

nconvs.0.modlist.0.lin_l.weight f4 [48, 48]
-1.1167196 -0.19310896 0.14489596 0.071481034 0.82860535 -0.2945432 -0.16186519 -1.9068409
7.1483016 0.8723344 1.2872483 2.2647202 -1.9955097 -0.37996823 0.25153032 0.2709383
-2.203149 -0.12765734 -0.69255775 1.4350915 -7.2150354 6.748265 -0.9009327 0.79679793
6.314898 0.51354283 -0.17534325 1.2825917 -0.16666026 -1.1893736 0.36357933 -0.4599496
2.5023546 -0.60221946 1.1662984 0.12116695 0.5140986 -1.1351382 -1.3156717 -0.76299804
-0.68380475 -0.20664053 0.07886649 -7.1166453 1.337256 1.1436764 -2.4251304 -0.65512437
0.49246287 -2.2860782 -1.1841432 -2.289992 0.34280294 -1.4863665 -1.9571681 0.8537171
0.3311844 -1.1812328 -2.1815307 -0.102617025 -0.23637654 0.42317855 -0.3387753 1.2683033
-0.20016757 0.08946382 -2.590823 -0.93449944 -0.42474854 -0.5299308 -0.8005183 -1.985143
13.752346 -0.09686232 -2.3775296 -2.0237875 1.6224954 -0.26742157 -1.5931602 -0.8762464
-0.45035678 1.9011991 3.8820648 -0.97169316 -0.8259706 1.0347081 2.3046634 0.111947745
-0.22249869 0.70597994 -0.27124885 -1.5432817 -0.0219658 -0.14149812 -0.78059125 -1.3764999
1.0736142 -0.4848456 -0.18033317 0.35412657 -0.7051538 -2.4173887 0.08810632 -0.44729936
4.8789377 -0.31166166 -0.6537151 -0.3751546 -0.48294672 -0.47798997 -3.6206033 0.34522948
-0.6385102 -0.9393449 -0.060901336 -0.00047988698 -0.2426272 4.1167893 -0.7666949 0.046960916
4.4220963 -0.47010055 -0.8637976 -0.4720207 -0.19906603 -0.36931673 -0.23586634 -0.2117545
0.7814014 0.9279177 -3.1170604 -0.04692125 0.33518672 1.0142806 -2.946874 0.36337283
2.473801 0.70425665 0.78329146 -1.0208347 1.5502127 -0.8831559 -0.7894249 3.492272
-1.486883 0.74209964 1.2817993 1.3846766 0.5992484 -0.6912526 0.7995284 0.083538935
-0.29265502 1.3413677 1.3394109 -0.52032024 0.2246772 -1.1170971 -12.150143 -0.7810655
0.09544089 0.5585072 0.31901944 -0.8057484 0.4683328 -0.18895186 0.24276464 0.23157603
0.1334205 0.058234956 1.3718029 1.7087402 -1.0057462 0.01990878 1.0567917 0.29531875
0.1987653 -1.0675228 0.24482876 1.2202288 -0.3634924 -0.7877338 -10.058015 -0.9767586
-0.058380026 -1.5598344 -1.0381314 0.40881622 -0.11278028 1.516619 0.22471835 -0.38820928
2.2131476 -1.1268003 -1.7787768 0.39023772 -1.1503774 -1.6925862 -1.8190887 -2.8077326
2.5146346 -0.20000899 -3.169651 1.7900165 -1.0531851 1.5729604 -0.05501985 1.6433252
-0.5431004 -1.7344663 0.33532432 3.3610308 -1.3486016 -0.305764 -2.8109999 -1.3349869
2.4571884 -1.3675019 -1.7766446 -1.0731518 1.6023047 -1.0198625 -0.24213675 -2.2332673
3.3018005 1.815334 -0.38370484 -0.07430447 0.6634242 0.8197763 -0.87355226 1.1497649
0.18572037 -0.013388635 1.6819547 -3.1031969 1.1858166 -0.36303636 -2.0782387 2.506747
-0.08528442 0.34359795 0.15403949 0.14920935 0.04925134 -0.09743068 0.100957185 0.015870988
-0.0010296826 0.050563693 0.21587183 -0.3796067 0.1905553 -0.053302042 0.015858857 0.11957999
00000000: abf0 8ebf 5bbe 45be 9b5f 143e a664 923d
00000010: 7b1f 543f 5ece 96be fdbf 25be 5d13 f4bf
00000020: e3be e440 4f51 5f3f 8dc4 a43f 2df1 1040
00000030: dd6c ffbf 328b c2be 95c8 803e 6db8 8a3e
00000040: 6500 0dc0 9bb8 02be 774b 31bf 14b1 b73f
00000050: 92e1 e6c0 c9f1 d740 87a3 66bf f3fa 4b3f
00000060: a513 ca40 8b77 033f 2e8d 33be f72b a43f
00000070: fda8 2abe 653d 98bf 1227 ba3e 847e ebbe
00000080: 9426 2040 0e2b 1abf 4449 953f 6126 f83d
00000090: f79b 033f 354c 91bf ee67 a8bf d753 43bf
000000a0: d40d 2fbf 9399 53be c184 a13d 8fbb e3c0
000000b0: 342b ab3f fd63 923f 5635 1bc0 3bb6 27bf
000000c0: 1824 fc3e 1b4f 12c0 0192 97bf 3b8f 12c0
000000d0: de83 af3e 4241 bebf 7c84 fabf 348d 5a3f
000000e0: 0091 a93e a332 97bf 339e 0bc0 e028 d2bd
000000f0: b10c 72be dcaa d83e f573 adbe c357 a23f
00000100: baf8 4cbe cf38 b73d 0bd0 25c0 5b3b 6fbf
00000110: a478 d9be 8ba9 07bf c4ee 4cbf 2a19 febf
00000120: 9c09 5c41 c15f c6bd 7229 18c0 bc85 01c0
00000130: eead cf3f 7beb 88be acec cbbf af51 60bf
00000140: 2a95 e6be 7e5a f33f c073 7840 e2c0 78bf
00000150: cf72 53bf 5171 843f 9b7f 1340 dc44 e53d
00000160: b2d6 63be 1abb 343f 21e1 8abe 418a c5bf
00000170: 9ff1 b3bc e2e4 10be d4d4 47bf 2631 b0bf
00000180: 316c 893f af3d f8be 42a9 38be 1450 b53e
00000190: f684 34bf 7fb6 1ac0 1671 b43d 6c04 e5be
000001a0: 4220 9c40 1e92 9fbe df59 27bf 4414 c0be
000001b0: cb44 f7be 1abb f4be f7b7 67c0 ebc1 b03e
000001c0: 6875 23bf e878 70bf ae73 79bd 5799 fbb9
000001d0: 4473 78be bdbc 8340 1e46 44bf 175a 403d
000001e0: d081 8d40 05b1 f0be d721 5dbf b2ac f1be
000001f0: f7d7 4bbe 1517 bdbe f286 71be 2cd6 58be
00000200: ec09 483f 048c 6d3f eb7d 47c0 7f30 40bd
00000210: 989d ab3e f2d3 813f 9599 3cc0 010c ba3e
00000220: c152 1e40 2a4a 343f ca85 483f b6aa 82bf
00000230: 5f6d c63f 8116 62bf c017 4abf 6281 5f40
00000240: 2f52 bebf 3efa 3d3f 0012 a43f 153d b13f
00000250: 5868 193f eef5 30bf e5ad 4c3f 7616 ab3d
00000260: e1d6 95be f0b1 ab3f d171 ab3f b533 05bf
00000270: c811 663e 0afd 8ebf fc66 42c1 e9f3 47bf
00000280: 8376 c33d 54fa 0e3f 8456 a33e 8745 4ebf
00000290: 51c9 ef3e 997c 41be 4b97 783e 4422 6d3e
000002a0: 629f 083e c787 6e3d 3d97 af3f 00b8 da3f
000002b0: 4bbc 80bf bd17 a33c f344 873f 0534 973e
000002c0: 2189 4b3e 96a4 88bf 64b4 7a3e 7530 9c3f
000002d0: ad1b babe eca8 49bf a1ed 20c1 da0c 7abf
000002e0: e51f 6fbd a7a8 c7bf 7de1 84bf 5c50 d13e
000002f0: 59f9 e6bd 9220 c23f 911c 663e 5ec3 c6be
00000300: 36a4 0d40 fe3a 90bf f5ae e3bf 3dcd c73e
00000310: 913f 93bf aaa6 d8bf e6d7 e8bf e4b1 33c0
00000320: c6ef 2040 28cf 4cbe 90db 4ac0 431f e53f
00000330: c5ce 86bf c456 c93f 7f5c 61bd 7b58 d23f
00000340: a108 0bbf fe02 debf a1af ab3e 211b 5740
00000350: fa9e acbf 198d 9cbe 6ce7 33c0 dae0 aabf
00000360: 9342 1d40 4d0a afbf 1769 e3bf 0a5d 89bf
00000370: 5218 cd3f db8a 82bf b2f2 77be daed 0ec0
00000380: b350 5340 dd5c e83f f674 c4be f12c 98bd
00000390: 2bd6 293f dcdc 513f 1fa1 5fbf 7f2b 933f
000003a0: 7b2d 3e3e 015c 5bbc 4b4a d73f c79a 46c0
000003b0: d7c8 973f e7df b9be dd01 05c0 8b6e 2040
000003c0: 99a9 aebd 12ec af3e 87bc 1d3e 56ca 183e
000003d0: c6bb 493d bd89 c7bd a4c2 ce3d e003 823c
000003e0: 6af6 86ba e01b 4f3d 810d 5d3e cf5b c2be
000003f0: ee20 433e 3e53 5abd 6fea 813c 5be6 f43d

nconvs.0.modlist.0.lin_l.bias f4 [48]
3.932116 1.1885579 8.247377 3.720181 1.3145647 4.4655395 2.940405 4.5102196
4.6775637 7.354683 2.1196344 2.4345977 7.171567 2.1026044 1.2644992 7.316462
-0.08996303 4.4537363 4.36228 1.9229343 7.2054005 4.802032 5.038309 1.075713
-0.52694273 1.552037 0.37574822 -5.743059 0.045457672 3.300168 4.8133345 4.1208687
4.2061644 -1.0691124 3.3768313 -1.9770125 -7.0487785 -0.568942 7.301471 3.0980334
6.06455 5.379289 2.627512 0.30592343 -1.0328372 5.974757 -2.8437784 5.3181233
00000000: caa7 7b40 aa22 983f 42f5 0341 7217 6e40
00000010: a843 a83f b3e5 8e40 982f 3c40 b853 9040
00000020: 9aae 9540 9059 eb40 17a8 0740 73d0 1b40
00000030: 7a7d e540 1291 0640 1cdb a13f 7520 ea40
00000040: 893e b8bd 0285 8e40 cc97 8b40 b622 f63f
00000050: a492 e640 3faa 9940 d439 a140 f7b0 893f
00000060: b8e5 06bf 26a9 c63f 1262 c03e 24c7 b7c0
00000070: d331 3a3d f435 5340 d606 9a40 28de 8340
00000080: e698 8640 add8 88bf 011e 5840 bf0e fdbf
00000090: 988f e1c0 2fa6 11bf a7a5 e940 2e46 4640
000000a0: cb10 c240 2323 ac40 2829 2840 ffa1 9c3e
000000b0: 0234 84bf 3631 bf40 7700 36c0 112e aa40

nconvs.0.modlist.0.lin_r.weight f4 [48, 48]
0.15055148 -0.38059992 0.106750265 -0.12352222 0.17420256 -0.35717854 0.0036069758 -0.08432532
0.0768279 0.033519424 0.7369595 -0.2936674 -0.47172153 0.2989937 0.09031615 0.15058409
-0.20378062 -0.119063266 0.2547969 0.29357144 -0.016468724 0.21408701 -0.54052275 -0.013472246
-0.11406582 0.6088167 0.32036832 -0.3836989 -0.30036938 0.2889763 0.62218904 0.095348075
0.4418106 0.2982543 0.062190633 0.13814534 0.4108767 0.45804396 -0.42409134 -0.036679067
0.47661784 0.026191512 -0.5881501 0.3133265 -0.16001733 -0.640097 -0.42948917 -0.1301676
-0.25973067 -0.6370044 -0.16142972 0.018863775 -0.16263206 0.055650774 0.20460078 -0.043546304
-0.0893252 -0.43217757 0.038494054 0.25013134 -0.015425383 -0.26362437 -0.16932546 -0.24773058
0.21077777 0.22259165 0.077105105 0.74658257 0.17304263 -0.093918376 -0.08237965 -0.37111023
0.03421041 -0.17921215 0.15977529 -0.026322287 0.19912437 0.03706625 -0.08724469 -0.573106
-0.20110643 0.24237135 0.020356387 -0.20651834 0.10108131 0.018173266 -0.07884072 0.38289237
0.04117508 0.14857054 0.16030018 -0.085432336 0.5896115 -0.14802147 -0.06720349 0.1264138
-0.6715126 0.686817 0.6152668 -0.13371621 -0.05859704 0.038198248 0.04594928 0.26640517
-0.20420232 0.73763216 0.47539762 -0.008437769 0.33940452 -0.22042008 0.10875619 0.05996759
-0.13945025 0.22897306 0.34696627 -0.03950957 -0.15870497 0.082029656 0.4418359 0.46448487
0.007984835 0.37054688 -0.2146318 -0.16718794 0.2774599 -0.33639646 0.36882415 0.46788612
-0.18706533 -0.15486285 -0.12512633 -0.52426213 -0.11582615 -0.11049024 0.104886 -0.3387483
0.22756381 -0.167795 -0.012590344 0.008754154 0.22016755 0.24643669 0.040971216 0.16239521
0.0967135 -0.027952278 0.023860333 0.21830535 0.23244223 0.03750853 0.16434069 0.36816132
-0.0048422716 -0.05452556 0.3742481 -0.3182157 0.4896456 -0.023726128 -0.023039836 0.013892075
0.24056971 0.08983478 0.0026580417 -0.36240947 0.17074485 -0.08779261 0.28132397 0.23482795
-0.097330295 0.50095254 0.4144257 0.33681536 -0.19849579 -0.16916567 0.43912768 0.6430169
-0.09902127 -0.04774102 0.102111846 0.47674507 -0.2306335 -0.30363795 0.007832515 -0.38309127
-0.03445556 0.050017193 -0.15551268 0.10538116 -0.5085942 0.3061383 0.49445972 0.029163746
0.15442358 -0.7721289 -0.47090203 -0.22794345 -1.0895183 0.9844645 -1.8357714 -0.44306397
0.70016664 -0.40138128 -0.70952284 -0.5775078 0.05555811 1.3273296 -1.0095937 -0.38457277
-0.45301095 0.80606455 -0.29087934 -2.219109 -0.33339766 -1.1130531 -0.34746343 -1.362975
1.6311152 0.008028989 -0.77867097 -2.5201106 0.005345397 -0.41822895 -1.9336402 0.43573302
-0.32706386 0.80839086 -1.5734808 0.49023396 -0.631356 1.7339125 -0.34381965 -0.22151428
0.41367435 -0.13270983 -0.3512905 -1.6088818 0.3373682 0.21510257 -0.9592822 0.7694141
-0.23850058 -0.22095136 -0.011627596 0.05712147 0.0022383372 0.48117322 -0.13297541 -1.4789647
-0.035556853 -0.09697814 -0.10177503 1.4480896 -0.9524691 0.28354374 1.0140595 -0.07439849
00000000: 2b2a 1a3e fedd c2be e29f da3d 38f9 fcbd
00000010: 2862 323e 1be0 b6be 0363 6c3b c1b2 acbd
00000020: f257 9d3d aa4b 093d 61a9 3c3f 935b 96be
00000030: 7c85 f1be b415 993e acf7 b83d b732 1a3e
00000040: deab 50be 71d7 f3bd bd74 823e ff4e 963e
00000050: 6be9 86bc a039 5b3e b35f 0abf b2ba 5cbc
00000060: 579b e9bd 69db 1b3f 5107 a43e 2f74 c4be
00000070: 04ca 99be b4f4 933e c847 1f3f da45 c33d
00000080: 0035 e23e cab4 983e 9bbb 7e3d f975 0d3e
00000090: 6e5e d23e bd84 ea3e 8022 d9be ca3c 16bd
000000a0: 4107 f43e 958f d63c 0191 16bf 556c a03e
000000b0: 95db 23be 66dd 23bf 01e6 dbbe a84a 05be
000000c0: 6bfb 84be b812 23bf d54d 25be 3488 9a3c
000000d0: 0589 26be 11f2 633d de82 513e 9c5d 32bd
000000e0: 21f0 b6bd 6146 ddbe f1ab 1d3d 3711 803e
000000f0: bfba 7cbc c6f9 86be a763 2dbe 16ad 7dbe
00000100: 21d6 573e 11ef 633e 48e9 9d3d 0920 3f3f
00000110: 1632 313e 4758 c0bd a9b6 a8bd 2902 bebe
00000120: 3720 0c3d 6483 37be 229c 233e d6a1 d7bc
00000130: 42e7 4b3e c8d2 173d 58ad b2bd 13b7 12bf
00000140: d8ee 4dbe 3230 783e 70c2 a63c 8b79 53be
00000150: b803 cf3d 1ae0 943c 3e77 a1bd 780a c43e
00000160: 33a7 283d e022 183e bb25 243e 26f7 aebd
00000170: c7f0 163f f192 17be fca1 89bd 9f72 013e
00000180: 40e8 2bbf 3dd3 2f3f 2082 1d3f e7ec 08be
00000190: 7303 70bd c475 1c3d 5035 3c3d 4266 883e
000001a0: 6a1a 51be 76d5 3c3f 5167 f33e 913e 0abc
000001b0: 6ec6 ad3e cdb5 61be 91bb de3d 93a0 753d
000001c0: 0ccc 0ebe ea77 6a3e 90a5 b13e c9d4 21bd
000001d0: 8e83 22be 2aff a73d 5138 e23e f6d0 ed3e
000001e0: d3d2 023c 52b8 bd3e 70c8 5bbe 5133 2bbe
000001f0: 390f 8e3e 283c acbe 85d6 bc3e c58e ef3e
00000200: 0e8e 3fbe 5e94 1ebe 1e21 00be 0b36 06bf
00000210: 4336 edbd b548 e2bd 79ce d63d 6b70 adbe
00000220: 7d06 693e 74d2 2bbe bb47 4ebc 956d 0f3c
00000230: 9a73 613e e659 7c3e 6fd1 273d ee4a 263e
00000240: ba11 c63d 2dfc e4bc bf76 c33c 708b 5f3e
00000250: 5605 6e3e 8ba2 193d ed48 283e a47f bc3e
00000260: ebab 9ebb 3256 5fbd 729d bf3e 2bed a2be
00000270: d4b2 fa3e 4c5d c2bc 0abe bcbc 969b 633c
00000280: e857 763e 4cfb b73d 8a32 2e3b bc8d b9be
00000290: bdd7 2e3e 9dcc b3bd b209 903e bd76 703e
000002a0: 1b55 c7bd 6d3e 003f 9b2f d43e 1073 ac3e
000002b0: 7b42 4bbe c439 2dbe 58d5 e03e c19c 243f
000002c0: aacb cabd 168c 43bd 0420 d13d ee17 f43e
000002d0: 302b 6cbe 6f76 9bbe f353 003c 8a24 c4be
000002e0: 4621 0dbd d4de 4c3d b73e 1fbe 14d2 d73d
000002f0: 3b33 02bf 29be 9c3e d329 fd3e cfe8 ee3c
00000300: 3721 1e3e 3daa 45bf 121a f1be 026a 69be
00000310: 5675 8bbf de05 7c3f 8ffa eabf 48d9 e2be
00000320: 1f3e 333f d981 cdbe 4aa3 35bf 8dd7 13bf
00000330: e790 633d f0e5 a93f 5e3a 81bf b9e6 c4be
00000340: 0df1 e7be 3f5a 4e3f 23ee 94be e205 0ec0
00000350: 19b3 aabe 8678 8ebf bae6 b1be f775 aebf
00000360: 62c8 d03f 058c 033c fb56 47bf 7e49 21c0
00000370: 7128 af3b 1b22 d6be 8681 f7bf 6618 df3e
00000380: ea74 a7be b4f2 4e3f d267 c9bf f2ff fa3e
00000390: 8ca0 21bf d8f0 dd3f 2109 b0be a4d4 62be
000003a0: 20cd d33e 16e5 07be 59dc b3be d7ef cdbf
000003b0: 86bb ac3e d943 5c3e 8593 75bf 53f8 443f
000003c0: 7f39 74be 1341 62be ac81 3ebc 34f8 693d
000003d0: 11b1 123b 565c f63e b52a 08be b74e bdbf
000003e0: 10a4 11bd 7a9c c6bd 6d6f d0bd 005b b93f
000003f0: 04d5 73bf a52c 913e b4cc 813f 3c5e 98bd

nconvs.1.modlist.0.lin_l.weight f4 [48, 48]
0.29998255 0.5700094 0.4846224 0.1467767 -0.22818048 0.02105839 -0.016211482 -0.3790738
0.13739109 0.28119767 -0.5757272 0.015448654 0.25016007 0.29742298 -0.99308056 0.039279003
0.48306376 -1.2727159 0.031175321 1.420036 0.010281063 0.5814702 0.7830132 0.37184793
0.21782841 -0.2854094 -0.20834549 -0.26823097 -0.835961 0.41079906 0.48717374 1.0085797
-0.3783494 -0.03360913 0.5955845 0.24579324 -0.37672374 -0.28353342 0.28796652 -0.15298748
0.14603882 0.42896235 -0.8478115 -1.0276899 1.5020949 0.174614 0.8607569 0.1311077
-0.50571316 0.520977 0.050483648 -0.006600722 -1.027903 0.092441946 0.280025 -0.15568696
0.7068375 0.11101252 -0.48465496 0.023756895 -0.053194825 -0.7770027 -0.19736536 -0.15574871
-0.7655498 -0.123513736 0.067652844 -0.7450369 0.089135386 0.4497033 -0.46950716 1.0351548
0.45544147 0.09271164 0.24483582 0.001084021 -0.0503965 0.15114999 -0.50103986 -0.7233739
-0.29607832 0.9793892 -0.6982951 -0.56488746 0.61717314 -0.68862605 0.03802721 0.8753964
0.33640796 -0.19899368 -0.3525461 -0.2642976 0.5336271 1.9997985 0.5370438 -0.41051275
-1.2094878 0.18578759 -1.2473798 0.051586926 -1.0374916 0.37019026 0.29615036 -0.8871871
0.42334992 0.23600172 0.22740726 -0.09355507 0.23428814 0.48814002 -0.508117 0.014070014
1.6561283 0.9260378 0.56352836 2.0092347 0.06111507 -1.5578046 -0.23354508 1.2662807
-0.67282844 -0.2876401 -0.35266593 -0.79426855 -0.14520702 0.47004434 0.39379224 -1.1936859
0.36948588 0.5335496 0.57067376 -0.15480694 0.089376174 -0.46260333 0.024923826 0.16779037
0.5712605 0.20803352 -0.58708507 1.0902432 0.37299016 0.012919762 -0.6196355 -1.0918666
-0.2997542 0.16990995 -0.19456506 -0.0533866 -0.6026952 0.4901841 -0.044688888 0.01982499
-2.3846784 -3.0683138 -0.16989465 -0.0039066565 -4.3059573 0.03086159 0.123809054 -3.412946
-1.5310708 0.15776713 0.5280411 -0.13773148 -3.9076917 0.19522752 0.012415337 -0.32644585
0.0052317153 -0.07983053 -0.030647997 -0.13766246 0.013343219 -0.78698283 0.73784876 0.22909237
0.4415341 0.3387832 -0.119598486 0.11164876 0.00083610177 -0.07463769 -3.6740289 -0.103461124
0.6584586 0.43899179 0.1105995 0.16530015 -0.20450716 0.46707276 -0.031555843 -0.31400555
-0.1238981 -0.80764276 0.55073225 0.12958674 -1.004786 0.2823087 -0.3082845 -0.74128443
-0.27217555 -0.4353529 0.59514356 0.41929534 0.041370433 -0.2503635 0.4468603 -0.20257825
0.27419204 1.3862733 0.17520401 -0.016911414 -0.28105137 0.55768156 -0.9551222 0.8430425
0.20773037 -0.47959754 0.112181075 0.04724049 0.15949295 -0.55890673 0.20511359 0.07251483
0.08718345 2.4869754 0.53006977 -0.9166026 -0.12907505 -0.31797284 -0.29839513 -0.43487108
-0.11601019 0.097981155 0.5341701 0.3817375 -0.8323796 0.6294887 0.014791728 0.5473919
0.69625545 0.14995131 0.31249014 0.27584583 1.5098228 -0.39912876 0.35048476 0.26974773
0.07225092 -0.4978973 0.65477455 0.26396444 -0.24100295 0.72321564 0.86051446 -0.423456
00000000: 5097 993e 23ec 113f 6d20 f83e a24c 163e
00000010: 25a8 69be a582 ac3c f1cd 84bc f615 c2be
00000020: 40b0 0c3e 24f9 8f3e dc62 13bf 5a1c 7d3c
00000030: fb14 803e d347 983e 873a 7ebf 05e3 203d
00000040: 2254 f73e 5be8 a2bf 6363 ff3c bdc3 b53f
00000050: e771 283c 3bdb 143f 8e73 483f da62 be3e
00000060: 690e 5f3e 2e21 92be 8558 55be 9255 89be
00000070: 8a01 56bf 4154 d23e d66e f93e 2419 813f
00000080: 03b7 c1be baa9 09bd 3a78 183f 39b1 7b3e
00000090: efe1 c0be 4b2b 91be 5970 933e c0a8 1cbe
000000a0: 338b 153e f4a0 db3e 2d0a 59bf 588b 83bf
000000b0: a544 c03f 03ce 323e 905a 5c3f 1941 063e
000000c0: 6b76 01bf c05e 053f f1c7 4e3d df4a d8bb
000000d0: 5392 83bf 3452 bd3d 705f 8f3e 676c 1fbe
000000e0: 4df3 343f 885a e33d b224 f8be d29d c23c
000000f0: d1e2 59bd a6e9 46bf 251a 4abe 977c 1fbe
00000100: 12fb 43bf c5f4 fcbd 938d 8a3d bdba 3ebf
00000110: 9d8c b63d 833f e63e 3e63 f0be f47f 843f
00000120: a02f e93e 9adf bd3d 3eb6 7a3e b515 8e3a
00000130: 8f6c 4ebd 10c7 1a3e 2644 00bf 082f 39bf
00000140: 9497 97be 40b9 7a3f 78c3 32bf 779c 10bf
00000150: 0fff 1d3f cc49 30bf 6bc2 1b3d fa19 603f
00000160: aa3d ac3e 00c5 4bbe ec80 b4be 0452 87be
00000170: c99b 083f 66f9 ff3f b47b 093f ba2e d2be
00000180: 7fd0 9abf 1a3f 3e3e 24aa 9fbf d04c 533d
00000190: 86cc 84bf 9489 bd3e 05a1 973e b21e 63bf
000001a0: 52c1 d83e 6faa 713e 73dd 683e cd99 bfbd
000001b0: 3be9 6f3e 7ded f93e f513 02bf ea85 663c
000001c0: 03fc d33f d010 6d3f 6543 103f 4d97 0040
000001d0: cc53 7a3d 2466 c7bf 7126 6fbe 7c15 a23f
000001e0: 7c3e 2cbf 9045 93be a190 b4be 2f55 4bbf
000001f0: 26b1 14be a7a9 f03e 239f c93e b3ca 98bf
00000200: 412d bd3e b596 083f ad17 123f b685 1ebe
00000210: db0a b73d 58da ecbe 0d2d cc3c 3dd1 2b3e
00000220: 213e 123f bd06 553e 354b 16bf 178d 8b3f
00000230: 91f8 be3e 69ad 533c 6fa0 1ebf 49c2 8bbf
00000240: 6279 99be e0fc 2d3e 103c 47be e8ab 5abd
00000250: 3c4a 1abf 69f9 fa3e b20b 37bd 0468 a23c
00000260: 929e 18c0 415f 44c0 ddf8 2dbe 6903 80bb
00000270: 67ca 89c0 72d1 fc3c 9a8f fd3d b56d 5ac0
00000280: 21fa c3bf b58d 213e b42d 073f 7b09 0dbe
00000290: 9f17 7ac0 b9e9 473e b369 4b3c e923 a7be
000002a0: cf6e ab3b 307e a3bd 8211 fbbc 63f7 0cbe
000002b0: 849d 5a3c b577 49bf a8e3 3c3f 3197 6a3e
000002c0: c210 e23e fe74 ad3e 0df0 f4bd 1ba8 e43d
000002d0: d72d 5b3a a5db 98bd 4a23 6bc0 6de3 d3bd
000002e0: be90 283f 88c3 e03e fe81 e23d 7144 293e
000002f0: 536a 51be 2924 ef3e b340 01bd 56c5 a0be
00000300: 49be fdbd adc1 4ebf cafc 0c3f 63b2 043e
00000310: d49c 80bf c48a 903e 77d7 9dbe d1c4 3dbf
00000320: 985a 8bbe 93e6 debe 545b 183f e1ad d63e
00000330: 0b74 293d a52f 80be e0ca e43e ac70 4fbe
00000340: e662 8c3e 6771 b13f ae68 333e ce89 8abc
00000350: f7e5 8fbe 38c4 0e3f e382 74bf a2d1 573f
00000360: 45b7 543e cf8d f5be 31bf e53d 3e7f 413d
00000370: 1f52 233e 8314 0fbf 4c09 523e a882 943d
00000380: 3d8d b23d 9b2a 1f40 a7b2 073f 78a6 6abf
00000390: 402c 04be 56cd a2be 3fc7 98be 6ca7 debe
000003a0: c096 edbd 58aa c83d 5fbf 083f 1973 c33e
000003b0: d416 55bf 2c26 213f 0159 723c e021 0c3f
000003c0: cc3d 323f d68c 193e b5fe 9f3e aa3b 8d3e
000003d0: e041 c13f 9b5a ccbe bd72 b33e 601c 8a3e
000003e0: 4af8 933d 65ec febe 4e9f 273f 5926 873e
000003f0: 7ac9 76be a924 393f ad4a 5c3f 3acf d8be

nconvs.1.modlist.0.lin_l.bias f4 [48]
0.114885464 -0.35326618 0.34069863 -1.330235 -0.16067918 0.15023215 0.14635849 0.06816456
-4.419338 -0.17625877 0.19572812 -0.2901093 0.2298844 -0.115638524 -4.059906 -2.0923808
-0.445781 0.06637377 -0.5240103 0.3363232 1.7075235 0.059775308 -0.03233307 0.07543158
-0.10470175 -0.18363033 0.0081625525 -2.9483862 -0.01717097 0.14493555 0.14040032 0.41214904
-0.0020609496 1.432046 -0.3369727 -0.10328635 -1.8701352 -0.14613785 -0.009468112 -0.13244082
0.3238546 0.31442583 2.600009 1.4059708 -0.023769429 0.48138323 -0.14438787 2.0782633
00000000: 1249 eb3d 4edf b4be 0d70 ae3e 2445 aabf
00000010: 1589 24be 75d6 193e 00df 153e dc99 8b3d
00000020: 386b 8dc0 2e7d 34be f46c 483e 3589 94be
00000030: d166 6b3e e4d3 ecbd c0ea 81c0 91e9 05c0
00000040: 683d e4be f9ee 873d 8a25 06bf 8e32 ac3e
00000050: 2190 da3f f4d6 743d ae6f 04bd df7b 9a3d
00000060: df6d d6bd 9709 3cbe 3abc 053c 5cb2 3cc0
00000070: 22aa 8cbc fc69 143e 1ac5 0f3e 3305 d33e
00000080: ff10 07bb 494d b73f b087 acbe cb87 d3bd
00000090: 9760 efbf 29a5 15be 2420 1bbc 919e 07be
000000a0: 45d0 a53e 6cfc a03e 8c66 2640 daf6 b33f
000000b0: 1bb8 c2bc dd77 f63e 6ada 13be 4402 0540

nconvs.1.modlist.0.lin_r.weight f4 [48, 48]
0.646105 -0.085112445 -0.24419793 0.16691859 -0.6864759 -0.4153145 -0.38339898 -0.85713947
-0.048715174 -0.08575407 0.6320699 -0.14142913 -0.07473627 0.82880944 1.172586 -0.009009721
1.2810152 -0.49739373 -0.35926574 -0.34567854 -0.13237865 0.1954022 0.6233999 0.6319324
-0.52376187 0.73698866 -0.1983291 0.19275291 0.19230029 -0.3245463 0.12677002 0.54477435
-0.49178147 0.10192444 0.34563804 -0.86730283 -0.46530768 0.10109757 0.028378874 -0.48928645
-0.20719707 -0.79372656 0.70966387 1.728267 -0.64509916 1.630207 -0.30827934 -0.48196387
0.59255874 1.3356801 0.11574232 -0.4762906 0.73358965 -0.036388606 0.42935032 -0.30888066
0.4556406 0.039324425 -0.34185797 -0.40236536 -0.3166595 -0.08087907 0.82530504 -0.0781005
-0.6866779 0.02984332 0.3141305 1.298855 -0.17025681 -1.3646476 0.45033383 -0.44399378
-1.0003686 -0.07559012 0.33869064 -0.22407255 0.23037584 0.26667482 -0.057054196 -0.28041652
0.38537195 0.3263459 0.751912 -0.0004642052 0.376348 -0.11774908 -0.29743132 0.13161914
-0.20277338 0.09609658 0.6065899 3.6086774 -0.44187155 -0.30632684 -0.38511273 0.5182101
-1.2530693 -0.38662806 -0.2312383 0.7501531 1.6258218 0.50196326 -0.54860795 0.536306
0.056908164 -0.107535765 1.0224315 0.3232279 -0.29179776 0.39165393 0.37151453 -0.21235922
-0.24728382 -0.31330442 0.41145828 -1.9708986 -0.18599115 0.36735797 0.14865826 -0.15752178
0.89483017 0.045714065 -0.14584078 -0.088948674 -1.027293 0.8462724 0.38759628 0.10578331
0.6671063 -0.29236677 1.2109368 -1.965078 -0.18391994 -0.16921355 -0.3390076 0.28365853
-0.5402851 -0.23029152 0.1981558 0.7151111 0.18594866 0.051043224 -0.1248662 0.5317888
-0.028075475 0.16757315 0.16911712 0.039829105 -0.43676645 -0.097716756 0.77234447 0.10368002
0.06658482 0.017562952 -0.06368899 0.26968485 -0.12973188 0.74307036 0.066060394 -0.24826612
-0.1056455 0.21058604 -0.17669657 1.6814034 -0.15449114 0.15256083 0.08544189 0.42562577
0.42378536 0.42586696 0.41679138 0.27750543 0.062576 0.073905386 -0.15574224 -0.062645644
-0.50850445 0.35208088 0.34466532 0.45647356 0.46219596 0.10123574 -0.06492178 0.63491964
-0.101139046 -0.1684071 0.11829776 0.93697333 0.58397657 0.0607124 1.1894404 -0.04472173
-0.38678846 -0.3928025 -0.57853985 0.1166857 0.9880487 -0.10549006 -0.4422923 0.49653915
-1.0155677 -0.11017441 -1.121466 0.24042629 0.20246518 0.2225791 0.13951212 -0.005517056
-0.8456057 -1.022208 -0.17202929 0.050692488 0.16804723 -1.3009531 0.34309575 -0.60294205
-0.9520921 0.060811896 0.13528201 0.069666006 0.33338898 0.16179347 0.083001226 -0.6097411
-0.03806815 -1.366722 -0.85563827 -0.09610963 0.13003796 -0.2790831 0.2016476 0.8767278
-0.122705296 0.4949474 -0.54181874 0.20349896 -0.23909622 0.28061232 0.5908793 0.26185095
-1.2939256 -0.8999187 0.3011164 -0.18148689 0.55901784 0.044791095 -0.23412417 -0.33197603
-0.79404587 -0.13904068 -0.2413384 -0.0496116 -0.029035829 0.18759768 1.2942563 -0.27230075
00000000: 2367 253f 6f4f aebd 060f 7abe b5ec 2a3e
00000010: e2bc 2fbf 1aa4 d4be df4c c4be 7e6d 5bbf
00000020: 9089 47bd d49f afbd 55cf 213f ccd2 10be
00000030: 540f 99bd db2c 543f 4c17 963f 829d 13bc
00000040: 4ef8 a33f 64aa febe aef1 b7be c7fc b0be
00000050: 458e 07be 8417 483e 2397 1f3f 52c6 213f
00000060: 4215 06bf 4aab 3c3f c916 4bbe 0561 453e
00000070: 5eea 443e ef2a a6be 00d0 013e 5576 0b3f
00000080: c8ca fbbe c3bd d03d 78f7 b03e 8f07 5ebf
00000090: cf3c eebe 3e0c cf3d d07a e83c c183 fabe
000000a0: 782b 54be aa31 4bbf 88ac 353f da37 dd3f
000000b0: 3825 25bf 9faa d03f cad6 9dbe f8c3 f6be
000000c0: eeb1 173f 91f7 aa3f 4f0a ed3d 5ddc f3be
000000d0: 88cc 3b3f 380c 15bd ced3 db3e 9b25 9ebe
000000e0: ba49 e93e a612 213d 0208 afbe d502 cebe
000000f0: 3221 a2be eda3 a5bd 3147 533f 28f3 9fbd
00000100: 1fca 2fbf fa79 f43c b7d5 a03e e140 a63f
00000110: cd57 2ebe c6ac aebf 2892 e63e 2753 e3be
00000120: 140c 80bf fece 9abd dc68 ad3e 4673 65be
00000130: a5e7 6b3e 9a89 883e a9b1 69bd c192 8fbe
00000140: 794f c53e cf16 a73e 4e7d 403f 9160 f3b9
00000150: afb0 c03e 6e26 f1bd eb48 98be 2bc7 063e
00000160: d3a3 4fbe 49ce c43d 7a49 1b3f 92f4 6640
00000170: fd3c e2be dfd6 9cbe 7f2d c5be 6ba9 043f
00000180: 9364 a0bf 1df4 c5be bcc9 6cbe 090a 403f
00000190: ee1a d03f aa80 003f 9271 0cbf 5a4b 093f
000001a0: 8918 693d b63b dcbd 09df 823f 217e a53e
000001b0: 8466 95be dd86 c83e 2737 be3e b274 59be
000001c0: f837 7dbe 7069 a0be a9aa d23e 6846 fcbf
000001d0: 7774 3ebe 5816 bc3e df39 183e 644d 21be
000001e0: 9713 653f ac3e 3b3d 4957 15be b92a b6bd
000001f0: 567e 83bf 4fa5 583f 0573 c63e eca4 d83d
00000200: 7ac7 2a3f 19b1 95be faff 9a3f ad87 fbbf
00000210: 8255 3cbe 5146 2dbe 6792 adbe b13b 913e
00000220: 2050 0abf 8ad1 6bbe 5be9 4a3e 8511 373f
00000230: 5369 3e3e b312 513d dab9 ffbd 5023 083f
00000240: 8afe e5bc 4c98 2b3e 0a2d 2d3e d823 233d
00000250: da9f dfbe b91f c8bd 5eb8 453f 3156 d43d
00000260: 9f5d 883d 2ee0 8f3c 606f 82bd 2214 8a3e
00000270: 6fd8 04be dc39 3e3f ac4a 873d 7939 7ebe
00000280: ab5c d8bd dea3 573e f2ef 34be 3a38 d73f
00000290: ed32 1ebe e838 1c3e 28fc ae3d 9feb d93e
000002a0: 65fa d83e 3c0b da3e ae65 d53e 3115 8e3e
000002b0: d927 803d b55b 973d e57a 1fbe 5c4c 80bd
000002c0: 592d 02bf f243 b43e f977 b03e e7b6 e93e
000002d0: f3a4 ec3e af54 cf3d b6f5 84bd 188a 223f
000002e0: fd21 cfbd e972 2cbe 1946 f23d 7cdd 6f3f
000002f0: 7d7f 153f 91ad 783d 953f 983f 222e 37bd
00000300: 2309 c6be 691d c9be 301b 14bf eaf8 ee3d
00000310: c2f0 7c3f 2c0b d8bd 2374 e2be 613a fe3e
00000320: 1ffe 81bf 1fa3 e1bd 338c 8fbf 4f32 763e
00000330: 0853 4f3e c7eb 633e 44dc 0e3e 6cc8 b4bb
00000340: 9d79 58bf b6d7 82bf 7228 30be eda2 4f3d
00000350: 9314 2c3e a285 a6bf 3faa af3e 695a 1abf
00000360: 4fbc 73bf e515 793d 5e87 0a3e 0dad 8e3d
00000370: f6b1 aa3e 30ad 253e 8cfc a93d fe17 1cbf
00000380: 59ed 1bbd bff0 aebf 1c0b 5bbf 20d5 c4bd
00000390: ac28 053e fbe3 8ebe b57c 4e3e 3c71 603f
000003a0: ea4c fbbd bf69 fd3e a2b4 0abf 0862 503e
000003b0: a4d5 74be 6bac 8f3e de43 173f 5411 863e
000003c0: 5b9f a5bf 1261 66bf ee2b 9a3e b3d7 39be
000003d0: cb1b 0f3f de76 373d 3fbe 6fbe c3f8 a9be
000003e0: 9746 4bbf ae60 0ebe 6a21 77be 8835 4bbd
000003f0: 8cdc edbc 9b19 403e 31aa a53f 016b 8bbe

h_1.modlist.0.modlist.0.weight f4 [18, 49]
0.20832606 0.12629426 0.16580991 1.2588485 -0.08725057 -0.13868986 -0.091527656 0.06278645
0.15244894 0.23738132 -0.10772571 0.14002934 -0.18386906 -0.3859512 0.21473248 0.11798766
-0.23143077 -0.048293084 0.1250964 -0.23279122 1.617331 0.108100094 0.23494269 0.22858033
0.102776505 0.07615844 0.1668142 -0.7107979 0.027343342 0.21744336 -0.17331947 2.4924078
0.06741053 -0.6279966 -0.43167657 -0.39844403 -0.6163075 0.20710915 -0.058681045 0.32607046
0.21523876 0.26255178 -0.29063874 -0.32476553 0.12837684 0.36012596 0.03415779 -0.41363776
-8.848478 -0.122582085 0.08027938 0.19850603 0.077171244 -0.10442335 0.42974618 -0.19621989
0.18574953 -0.91010314 0.40127173 -0.16478959 -0.30524135 -0.07891991 0.052576277 0.054069202
1.6422348 0.2449259 0.1431648 0.1711914 -0.25395113 -0.33554173 -0.036890127 0.023297083
0.15162382 -0.05064198 0.29526126 -0.20299427 2.5790892 0.10636792 0.40596217 0.16585265
-2.5135477 0.008169742 -0.5559793 -0.18558687 -0.040897053 -2.5804749 0.13687599 -0.15037656
0.39091375 0.14173344 -0.008661213 0.73036456 0.3912062 -0.018366832 0.047924075 -0.3918633
0.39261284 2.064808 0.36993486 -0.5339917 0.268909 -4.1948605 -0.21652485 -0.4429615
0.118888564 -0.576002 -0.036446076 -0.22319067 0.4173035 -0.13539688 -0.0633657 -0.32101652
0.7652902 -0.3108823 0.109330475 0.25570834 -0.06671245 0.0960972 -0.52473116 -0.43250275
-0.10604216 -0.3785809 -0.047394983 -0.24951431 -0.06335191 2.5726044 -0.13363655 0.14184073
-0.14616226 -0.8743637 -0.36301863 5.117593 0.5165509 -0.2072569 1.6230042 -0.5036452
0.2011283 0.055934545 -0.23887607 -0.13019444 0.42198908 -0.39763328 -0.17153476 -0.13488974
-0.120726906 -0.45910135 -0.4212992 0.07864081 -0.078876436 -0.4429953 -0.94825673 -0.04159877
0.007878455 -0.023558598 -0.23430325 -0.9254936 0.20299451 -0.23361433 0.019952705 0.07305414
0.1890437 -0.7137859 0.6816427 0.3064644 0.45027158 -0.17952925 -0.16531515 1.1815637
-0.049298115 0.01310764 -0.09725465 -0.073921844 0.053142406 -0.27054003 -0.08583634 0.053281315
-0.005376659 0.12007166 0.9527578 -0.28039148 -0.4922413 -0.078104615 -0.07978004 -0.4036183
0.27994078 0.119642295 0.015819747 -0.2687921 -0.12790474 0.060994327 -0.351023 -0.118378274
0.19218318 -0.10608063 0.36127716 -5.612526 -0.12446656 -0.011082992 -0.21397398 -0.5969575
0.0563686 0.31389564 -0.17247131 -0.13697897 0.98158175 0.15307693 0.07001527 -0.22815597
0.4486392 -0.11215265 1.0320745 1.6069409 -0.20949188 0.0023581008 0.20480585 -0.07822115
2.2182424 0.42866203 0.13887915 -0.2783517 0.5656394 -0.13687693 -0.23116355 1.909588
-0.16978295 0.03120981 -0.07977095 0.37121877 0.2723646 -0.54073185 -0.019194396 0.13280629
-0.34897393 0.06113827 -0.09528941 -0.04173662 0.21640037 -0.16243869 1.383293 -0.021489106
0.2690161 -0.13095587 0.042575434 -0.51512575 -5.6053524 -0.17921421 -0.7443271 -0.25740147
-2.0266302 -0.18056577 -0.3528121 0.3854161 -0.22380741 0.18867746 -0.7171125 0.29238087
00000000: 6d53 553e 4853 013e 13ca 293e f321 a13f
00000010: 6db0 b2bd b704 0ebe da72 bbbd 2f96 803d
00000020: 931b 1c3e 1714 733e 4c9f dcbd da63 0f3e
00000030: 2c48 3cbe 659b c5be d5e2 5b3e 84a3 f13d
00000040: 30fc 6cbe f8ce 45bd 4519 003e d260 6ebe
00000050: b404 cf3f 9563 dd3d d194 703e f610 6a3e
00000060: 7d7c d23d f5f8 9b3d 57d1 2a3e daf6 35bf
00000070: 25ff df3c 79a9 5e3e a97a 31be 9c83 1f40
00000080: 880e 8a3d 63c4 20bf b604 ddbe db00 ccbe
00000090: 54c6 1dbf 6c14 543e 895b 70bd b5f2 a63e
000000a0: 8d67 5c3e 306d 863e 9ace 94be ab47 a6be
000000b0: 3875 033e 6e62 b83e 0ae9 0b3d 54c8 d3be
000000c0: 5e93 0dc1 510c fbbd 8469 a43d 2a45 4b3e
000000d0: f50b 9e3d e9db d5bd b107 dc3e deed 48be
000000e0: 2035 3e3e 85fc 68bf 7d73 cd3e 9abe 28be
000000f0: 9848 9cbe c3a0 a1bd 395a 573d ab77 5d3d
00000100: c034 d23f dbcd 7a3e cb99 123e cc4c 2f3e
00000110: e205 82be 20cc abbe 1a1a 17bd 86d9 be3c
00000120: 4643 1b3e f76d 4fbd 7c2c 973e bbdd 4fbe
00000130: cc0f 2540 6dd7 d93d 46da cf3e 47d5 293e
00000140: f7dd 20c0 62da 053c a954 0ebf 7c0a 3ebe
00000150: ab83 27bd 8026 25c0 3829 0c3e 50fc 19be
00000160: d925 c83e 9222 113e c3e7 0dbc 2cf9 3a3f
00000170: 2e4c c83e 0a76 96bc 094c 443d 4ea2 c8be
00000180: 8d04 c93e d025 0440 1a68 bd3e aeb3 08bf
00000190: 71ae 893e 4c3c 86c0 b1b8 5dbe dacb e2be
000001a0: d97b f33d de74 13bf 7b48 15bd 188c 64be
000001b0: cea8 d53e 7ba5 0abe e0c5 81bd 475c a4be
000001c0: 0fea 433f f72b 9fbe a8e8 df3d 34ec 823e
000001d0: 89a0 88bd 9cce c43d c854 06bf 0071 ddbe
000001e0: a22c d9bd 5bd5 c1be 3e21 42bd ae80 7fbe
000001f0: a5be 81bd 8da5 2440 05d8 08be b23e 113e
00000200: 8fab 15be 4dd6 5fbf 94dd b9be 52c3 a340
00000210: ae3c 043f 273b 54be 9abe cf3f e4ee 00bf
00000220: 94f4 4d3e 9f1b 653d ee9b 74be b151 05be
00000230: f40e d83e 9796 cbbe cfa6 2fbe 8920 0abe
00000240: ab3f f7bd 550f ebbe 87b4 d7be 6f0e a13d
00000250: f889 a1bd 48d0 e2be f4c0 72bf 7963 2abd
00000260: a314 013c f6fd c0bc 31ed 6fbe 26ed 6cbf
00000270: cbdd 4f3e 9838 6fbe db73 a33c 699d 953d
00000280: ac94 413e acba 36bf 2380 2e3f e7e8 9c3e
00000290: ff89 e63e 84d6 37be 6048 29be 7b3d 973f
000002a0: d2ec 49bd 6dc1 563c 722d c7bd 5664 97bd
000002b0: daab 593d 3984 8abe f7ca afbd 823d 5a3d
000002c0: af2e b0bb 21e8 f53d efe7 733f 798f 8fbe
000002d0: 0d07 fcbe 50f5 9fbd b863 a3bd 0fa7 cebe
000002e0: 6654 8f3e 0507 f53d 6a98 813c 1e9f 89be
000002f0: 76f9 02be 30d5 793d 49b9 b3be 4f70 f2bd
00000300: abcb 443e cd40 d9bd 52f9 b83e d099 b3c0
00000310: 53e8 febd 7095 35bc ff1b 5bbe 35d2 18bf
00000320: c3e2 663d eeb6 a03e 529c 30be 3744 0cbe
00000330: f148 7b3f 33c0 1c3e 2a64 8f3d b8a1 69be
00000340: 0ab4 e53e 4ab0 e5bd 041b 843f 3db0 cd3f
00000350: 0a85 56be 5e8a 1a3b a0b8 513e 6932 a0bd
00000360: aff7 0d40 9779 db3e 5636 0e3e 1d84 8ebe
00000370: becd 103f 7729 0cbe 23b6 6cbe 616d f43f
00000380: 95db 2dbe b7ab ff3c f45e a3bd 6310 be3e
00000390: 5f73 8b3e 676d 0abf 913d 9dbc 5ffe 073e
000003a0: b6ac b2be 1f6c 7a3d 1827 c3bd 05f4 2abd
000003b0: 0f98 5d3e 5456 26be bf0f b13f ec09 b0bc
000003c0: 7abc 893e 4c19 06be 9463 2e3d 48df 03bf
000003d0: 0c5f b3c0 ee83 37be 398c 3ebf 20ca 83be
000003e0: 4fb4 01c0 3ce6 38be caa3 b4be 4255 c53e
000003f0: c52d 65be aa34 413e af94 37bf f2b2 953e

h_1.modlist.0.modlist.0.bias f4 [18]
-1.2855867 -0.24286066 0.9125257 0.22798546 -8.64836 -0.9779168 0.81153095 7.3614073
-0.048096713 8.457162 -0.12455423 -4.923765 -0.94814414 0.15062724 -1.1870884 2.0325255
1.3550938 1.2206348
00000000: 1b8e a4bf 77b0 78be 499b 693f 0575 693e
00000010: af5f 0ac1 c158 7abf 7ec0 4f3f a690 eb40
00000020: 0f01 45bd 8950 0741 4a16 ffbd 7c8f 9dc0
00000030: 93b9 72bf 073e 1a3e 83f2 97bf e614 0240
00000040: b773 ad3f c33d 9c3f

g_1.modlist.0.modlist.0.weight f4 [18, 85]
0.83648163 1.1388876 0.611638 -0.2906578 -0.13413715 0.21663466 -0.38794163 0.82933617
0.18196751 0.5210788 0.2020013 0.33513168 -0.7556437 -0.54099166 -0.07595232 -0.5462127
-0.72215563 -0.20699961 0.4725753 -0.67531765 0.103650555 0.3868139 0.16219075 0.10376812
0.3158481 0.030733088 0.99477726 1.0147823 -0.33051595 0.7318039 -0.07238 0.3669361
0.448316 0.5860071 -0.53308433 0.037877157 0.31962088 0.01874172 -0.28545684 -0.08494214
-0.24363369 0.38758257 0.08391447 -0.6785329 -0.24865687 0.7427455 -0.0077778883 -0.38337177
0.13452241 0.55387014 0.5506111 -1.1305668 0.6051516 0.7717817 -0.6612261 -1.374215
0.1927356 0.8210065 -0.036558587 1.0636344 0.5951525 -1.3722411 -0.31611365 0.104123995
-0.09519297 -0.78255445 1.0696616 1.6990434 -1.9765723 2.0006285 -2.9800153 -1.2349659
1.0564201 2.2457404 -2.5310948 -1.7868229 -1.2820833 -1.9691521 -0.0663058 4.660568
-1.9917961 1.8108337 3.3151817 1.551041 -6.6040173 -0.20921025 0.21796197 -0.5476427
-0.53452027 -0.12682837 -0.4203605 -0.0939271 0.0028724223 0.36807808 -0.049710795 0.058278885
-0.10212282 0.05654308 0.36822233 -0.5343978 -1.043336 -0.1991033 -0.38773984 0.060240805
-0.020112699 -1.9795398 0.39215827 -0.012376193 -0.15465745 0.16834173 0.40166909 0.25140175
0.3456762 -0.25638333 0.13564017 -0.22250226 -0.8631115 0.4319747 0.93143976 -0.6826462
-0.17003128 0.10319683 0.32798225 -0.14427222 0.39229786 0.13015942 0.26444757 0.64439344
0.8692908 -0.2354636 0.16843326 -0.40156004 -0.5602757 0.080219686 0.6573547 -0.028435916
-0.9560192 -1.0071508 -1.0709443 -1.3476205 -0.80804574 -1.2602328 1.0397661 0.6719163
0.6419818 -0.5412998 -1.9020647 -2.123134 2.020245 1.5454068 0.4955004 1.0717568
-2.1995468 1.2907758 2.140065 3.3550196 4.0894423 2.842828 1.6750597 0.31924206
-2.620112 -2.8986163 -1.6672232 1.5511516 0.80587965 4.4822803 -2.020491 -8.843429
-0.28399947 3.945793 0.09079006 0.2341673 0.40068632 0.5566191 -0.5671212 -0.1847861
0.11733254 0.18317805 -3.2437103 -0.27546117 0.41862375 0.33902234 0.4995453 0.108683296
-0.050396882 0.10048673 0.10291092 -0.77818304 0.18773746 -0.72988236 -0.01155325 0.19241071
-0.380899 0.37750098 0.1810829 0.2583889 0.09018643 -0.6541186 -0.0069191186 0.7385917
0.3946897 -0.2876942 0.63321555 0.17461397 0.41232944 0.000614729 0.43712842 0.1627435
0.41798416 0.5196783 0.26306114 0.10256515 -3.7312539 -0.2723487 0.29222882 0.17922454
0.2839399 -0.09853918 0.042712186 -0.23763072 1.7403055 0.2656966 -1.0972971 -6.3516626
-0.34239638 0.10557278 6.553969 0.31531712 3.8161864 0.2288278 -4.0136085 1.1188352
0.6510316 -2.8356571 2.750162 0.3820367 -1.4089638 0.22334683 0.8703058 0.9087958
-1.3540752 4.400388 0.53304446 0.8463628 -4.60017 -0.3886027 -4.7521358 -1.0426786
2.4826813 1.8788215 -2.2239425 2.892052 0.61491406 1.0318946 -1.8013556 -0.43289074
00000000: a923 563f 12c7 913f 4f94 1c3f 19d1 94be
00000010: 405b 09be 7ad5 5d3e 49a0 c6be 604f 543f
00000020: b155 3a3e 6c65 053f 6ed9 4e3e 6196 ab3e
00000030: de71 41bf 6e7e 0abf e48c 9bbd 98d4 0bbf
00000040: 31df 38bf b5f7 53be 64f5 f13e 9ee1 2cbf
00000050: be46 d43d 790c c63e 5515 263e 6184 d43d
00000060: d8b6 a13e f5c3 fb3c b9a9 7e3f 63e4 813f
00000070: 6339 a9be 8057 3b3f f73b 94bd 0cdf bb3e
00000080: ad89 e53e 9004 163f 3778 08bf 1425 1b3d
00000090: 59a5 a33e 3c88 993c 6627 92be 25f6 adbd
000000a0: 1c7b 79be 3971 c63e 5adb ab3d 55b4 2dbf
000000b0: e89f 7ebe 9224 3e3f a8dd febb 4e49 c4be
000000c0: 3ec0 093e 6fca 0d3f d9f4 0c3f 6ab6 90bf
000000d0: 37eb 1a3f 7c93 453f 1d46 29bf 47e6 afbf
000000e0: 7b5c 453e 7b2d 523f 75be 15bd 2c25 883f
000000f0: ea5b 183f 99a5 afbf a6d9 a1be f63e d53d
00000100: 88f4 c2bd 7d55 48bf acea 883f 417a d93f
00000110: 5200 fdbf 4c0a 0040 92b8 3ec0 5d13 9ebf
00000120: c638 873f 36ba 0f40 75fd 21c0 9db6 e4bf
00000130: 4e1b a4bf 2d0d fcbf 56cb 87bd 6023 9540
00000140: 2df3 febf 66c9 e73f f02b 5440 8388 c63f
00000150: 1c54 d3c0 363b 56be 6c31 5f3e 5032 0cbf
00000160: 52d6 08bf 4cdf 01be 7e39 d7be da5c c0bd
00000170: 403f 3c3b bb74 bc3e 8c9d 4bbd d7b5 6e3d
00000180: c525 d1bd b799 673d a387 bc3e 4bce 08bf
00000190: 098c 85bf bce1 4bbe d685 c6be 10bf 763d
000001a0: 63c3 a4bc 8f61 fdbf f8c8 c83e 84c5 4abc
000001b0: 865e 1ebe c661 2c3e 92a7 cd3e bbb7 803e
000001c0: 79fc b03e ad44 83be 42e5 0a3e a2d7 63be
000001d0: e0f4 5cbf ca2b dd3e d672 6e3f e7c1 2ebf
000001e0: ae1c 2ebe dc58 d33d 4aed a73e 19bc 13be
000001f0: 44db c83e 8348 053e ac65 873e f8f6 243f
00000200: d889 5e3f 5f1d 71be c579 2c3e 4799 cdbe
00000210: 3a6e 0fbf 384a a43d 6648 283f 70f2 e8bc
00000220: adbd 74bf 51ea 80bf b414 89bf d47e acbf
00000230: 16dc 4ebf 4f4f a1bf 0e17 853f b502 2c3f
00000240: eb58 243f a092 0abf db76 f3bf 6de1 07c0
00000250: b24b 0140 e4cf c53f 3ab2 fd3e 542f 893f
00000260: 60c5 0cc0 2438 a53f d3f6 0840 a4b8 5640
00000270: b6dc 8240 e5f0 3540 5b68 d63f b273 a33e
00000280: eaaf 27c0 ee82 39c0 9267 d5bf 238c c63f
00000290: 214e 4e3f d76e 8f40 b94f 01c0 af7e 0dc1
000002a0: 6168 91be df87 7c40 24f0 b93d 8dc9 6f3e
000002b0: c226 cd3e 977e 0e3f db2e 11bf 9138 3dbe
000002c0: 0b4c f03d 0793 3b3e f398 4fc0 3f09 8dbe
000002d0: da55 d63e 5694 ad3e 67c4 ff3e 5995 de3d
000002e0: f66c 4ebd fdcb cd3d f6c2 d23d 0137 47bf
000002f0: 403e 403e 92d9 3abf d849 3dbc 5007 453e
00000300: 3205 c3be cf47 c13e cc6d 393e 8d4b 843e
00000310: aab3 b83d 5174 27bf c6b9 e2bb 5814 3d3f
00000320: c514 ca3e a74c 93be 6a1a 223f 01ce 323e
00000330: d81c d33e c425 213a 4ccf df3e 3ba6 263e
00000340: 0502 d63e a309 053f f3af 863e ad0d d23d
00000350: ddcc 6ec0 4a71 8bbe 049f 953e a386 373e
00000360: 9260 913e e9ce c9bd f9f2 2e3d 7855 73be
00000370: 55c2 de3f 6209 883e 3b74 8cbf d240 cbc0
00000380: 944e afbe 8b36 d83d 1dba d140 3f71 a13e
00000390: 663c 7440 d651 6a3e 7b6f 80c0 fe35 8f3f
000003a0: 02aa 263f 687b 35c0 a702 3040 509a c33e
000003b0: ed58 b4bf 08b5 643e 5ccc 5e3f d7a6 683f
000003c0: 5652 adbf facf 8c40 9a75 083f 3cab 583f
000003d0: 9834 93c0 eff6 c6be 7f11 98c0 7e76 85bf
000003e0: 40e4 1e40 397d f03f 1355 0ec0 6117 3940
000003f0: 026b 1d3f 1f15 843f d292 e6bf dba3 ddbe

g_1.modlist.0.modlist.0.bias f4 [18]
-1.3596284 0.7419699 3.4262795 -1.1260316 1.6090122 0.9089886 -1.7788433 -3.6119874
-0.43342125 0.88872147 -1.6174076 -1.6496947 -4.6684375 -0.14219335 3.6233058 0.16361
1.8649133 0.40261847
00000000: 4e08 aebf bdf1 3d3f 2a48 5b40 ce21 90bf
00000010: 1df4 cd3f 7ab3 683f 23b1 e3bf cd2a 67c0
00000020: 64e9 ddbe 4083 633f 3607 cfbf 3229 d3bf
00000030: d763 95c0 229b 11be 3ee4 6740 6189 273e
00000040: 7bb5 ee3f 0224 ce3e
