2WL_link_pred/checkpoint/20221214_15_15/2WL_dict_15_15_3.pt (torch, 69996 bytes, 16 tensors)

weight f4 [48, 3]
000000 b8 96 15 bf 69 72 08 3e b7 2e a3 3f a6 81 c7 be
       -0.58433104 0.13324894 1.2748631 -0.389661
000010 62 f1 79 be 23 15 a1 3f ce 55 d5 be 45 57 c7 3d
       -0.24408486 1.2584575 -0.41667026 0.09733442
000020 92 93 b9 be 3c f8 ed be da da 53 bd e4 73 06 bf
       -0.362454 -0.4647845 -0.051722385 -0.52520585
000030 20 10 32 be 7e 5a ed 3e 0f 83 d5 be 85 e3 b7 be
       -0.17388964 0.46358103 -0.41701552 -0.3591577
000040 db ad 8e bd b9 aa b5 3f c1 b7 a3 3d 59 cd 2f 3f
       -0.06966754 1.4192725 0.07994033 0.6867271
000050 96 d6 62 bf 9c 21 f2 be 29 70 35 be 63 e0 05 bf
       -0.8860868 -0.47291267 -0.17718567 -0.5229551
000060 37 d9 d3 bf 90 a0 30 bf 7c d5 27 3f f4 a8 32 bf
       -1.6550664 -0.68995 0.65560126 -0.6978905
000070 77 90 b3 3f fc 50 1e be c9 9c 07 bf c2 08 1e be
       1.4028462 -0.1546058 -0.5297361 -0.15433028
000080 65 01 1a 3e 1d dc 06 be 69 59 d0 3d f7 61 b6 c0
       0.15039594 -0.13169904 0.10173304 -5.6994586
000090 a5 41 ed 3d d7 56 c3 bd e8 ba d1 be be 5c 89 be
       0.11584786 -0.09538048 -0.4096291 -0.2682857
0000a0 44 bd a6 bd c1 98 5e 3f 3c af 3a bf 2f 48 a8 be
       -0.08141568 0.86951834 -0.72923636 -0.32867572
0000b0 c2 ab a5 3f 7d ca d1 be b5 68 8f 3d e5 8f 9e 3d
       1.2943041 -0.409748 0.07002393 0.077422895
0000c0 24 1e 86 3f bc 86 4d be 58 5b 9b be e0 a4 c1 3e
       1.0477948 -0.20070928 -0.30343127 0.37821102
0000d0 c2 70 e4 3e 81 e3 31 bf 10 97 94 3e cb 1f 3f c0
       0.44617277 -0.6948777 0.29021502 -2.9863155
0000e0 d7 d5 b7 3e d4 f0 a6 3c f8 b1 2b bd da 62 0e be
       0.35905334 0.020378508 -0.04191777 -0.13904896
0000f0 2c 02 7b 3e b8 d4 1f bf cc 27 63 3f bc 51 1c bf
       0.24512547 -0.6243396 0.887326 -0.61062217
000100 5b 43 7d 3e d2 1b 77 3f 22 ed 8c bf 9b 82 f2 bf
       0.24732725 0.96526825 -1.1009867 -1.8946108
000110 fc 71 10 3e 56 fb 1e bf 96 ce 5e bf 78 ec 6d be
       0.14105982 -0.6210226 -0.87033975 -0.23234737
000120 e6 54 9c 3d 44 a8 e3 3e 7c 4f 13 bf 0a b8 e0 bd
       0.076333806 0.44464314 -0.5754316 -0.10972603
000130 a6 b0 e9 3e 2f 2b a8 bf 50 b4 a8 be 30 56 45 3f
       0.45642585 -1.3138179 -0.32950068 0.77084637
000140 32 17 16 3f 32 76 3a 40 a6 ec 9c 3c 5b c1 3c bc
       0.58629143 2.913464 0.019155812 -0.011520709
000150 62 d0 13 ba 17 21 ae be 33 be 70 3f e1 6b 96 bd
       -0.00056386564 -0.3400962 0.9404022 -0.07344795
000160 7e 2e e3 be 44 48 26 3f da c4 de bf 9d 38 55 3c
       -0.44371408 0.6495402 -1.7403824 0.013013986
000170 d6 f8 94 3e af 36 58 be 8e b4 84 3f 93 13 19 bf
       0.29096097 -0.2111461 1.0367601 -0.5979549
000180 12 39 43 3f 8b fe 6a 3f 16 86 01 be 04 c6 f3 3e
       0.7625896 0.9179465 -0.12648806 0.4761201
000190 ad f2 12 3f b0 3f 69 be a6 e4 6b bf e4 3d 0a 3f
       0.57401544 -0.22778201 -0.92145765 0.5400069
0001a0 2f 3e 98 3f 5c a8 2b 3f 7f 13 9f 3e 6c ba ac be
       1.1893977 0.6705377 0.31069562 -0.3373598
0001b0 f9 eb 7c bf 33 42 11 bf bd ad 39 3f 8a 14 bd bc
       -0.98797566 -0.56741637 0.7253073 -0.023081083
0001c0 ef e7 09 3f 41 c7 41 3f c7 49 df 3d a9 1c 68 bf
       0.5386953 0.7569466 0.10902744 -0.9066873
0001d0 59 cc d8 be 63 68 9e bd b1 78 8a c0 cb ce 97 3d
       -0.42343405 -0.07734754 -4.327233 0.074124895
0001e0 9f 9c 59 bf 37 ee 8a be cf 56 36 3f 4b ec a4 40
       -0.8500461 -0.27134869 0.7122621 5.1538444
0001f0 c0 32 89 40 f2 b1 3b 3e e8 d9 80 bb 04 e7 e8 bd
       4.287445 0.183296 -0.0039322264 -0.11372188
000200 f5 ff 82 bc 5a dc 2a 40 8c 74 d7 bd 53 8a cf be
       -0.01599119 2.6696992 -0.105202764 -0.4053522
000210 65 b6 10 be 0f d0 9f 3e ac 30 2d bf eb 12 b5 bf
       -0.14132078 0.31213424 -0.6765239 -1.4146398
000220 15 33 3f bf 0c 4c c9 3e 6d d0 8c bf ee 79 73 3e
       -0.7468732 0.39315832 -1.1001107 0.23776981
000230 06 ba bd 3f b4 54 3a bf 43 c5 4f 3f 4f 52 a7 bf
       1.4822395 -0.72785497 0.8116037 -1.3071994

bias f4 [48]
000000 7e 13 3b bf 40 8b cb bd 84 34 11 bf de 38 bf 3e
       -0.7307662 -0.09938669 -0.5672076 0.37348074
000010 10 ff 99 be bc 96 c5 bd 76 82 60 bd 65 38 1f 3f
       -0.3007741 -0.09647891 -0.054811917 0.62195426
000020 dd 23 91 3e 2c 33 fd 3e 64 b6 48 3e be 27 28 bc
       0.28347674 0.49453104 0.19600827 -0.0102633815
000030 b8 33 aa be 3f 20 e3 be 14 0b da be d2 33 2b bf
       -0.33242583 -0.4436054 -0.42586577 -0.66875947
000040 39 3f 97 3d 67 1a 9a be 3e 4c 58 bf a7 dd 81 40
       0.07385106 -0.30098268 -0.84491336 4.058307
000050 91 9b 80 3e d9 77 39 bf 5e 67 26 3c 64 43 72 bc
       0.25118688 -0.724485 0.010156481 -0.014786575
000060 f2 4e 88 bd ae 22 16 3f 10 15 16 3f aa ad 20 3e
       -0.066556826 0.58646667 0.5862589 0.15691248
000070 ee d3 13 bf a9 82 2b bf ca 16 68 be 8d 9b a9 3d
       -0.57745254 -0.66996247 -0.22664943 0.08281622
000080 b2 11 e6 bd 00 9f b4 be 7f 6f 1a bf dc 4c dc 3c
       -0.11233844 -0.35277557 -0.6032638 0.026892118
000090 3a 0f 48 bd f6 25 00 bf c7 9d 0d 3e 6f ca 95 3d
       -0.048842646 -0.50057924 0.13829719 0.07314002
0000a0 9b 06 53 be 55 4c b2 3b 3e d7 8d c0 67 a7 66 40
       -0.20607989 0.0054412284 -4.4325247 3.6039674
0000b0 63 11 89 3e 20 27 fc bb fa 3d 18 bf 28 c7 05 3b
       0.26771078 -0.0076950938 -0.5946957 0.0020412896

weight f4 [5, 48]
000000 c3 16 84 3e a2 c4 ca bf 59 25 3f bf 56 7c 37 bf
       0.25798616 -1.5841258 -0.74666363 -0.71674097
000010 90 64 d4 bf 2c 9f 64 bf 8d 14 f1 bf d1 05 34 be
       -1.6593189 -0.89305377 -1.8834397 -0.17580344
000020 ca 5d 7a bf a7 2c 95 3e f8 cc 26 3f 53 ef a5 bd
       -0.9779936 0.2913563 0.6515651 -0.08102288
000030 3c 02 4e 3f 5f c4 86 be 5d ef 3c bf 74 e3 9a bf
       0.8047216 -0.26321694 -0.7380274 -1.2100663
000040 5b f0 2a 3f 8b e9 1f 3f 1d cd 3b 3f 34 5e 2f 3e
       0.66773003 0.62465733 0.73359853 0.1712578
000050 4d 46 20 c0 64 8b a8 3f 43 e2 17 c0 e1 9d 20 3e
       -2.5042908 1.3167539 -2.373185 0.15685226
000060 83 53 7d bf af c1 6b 3f 24 6c 79 bf 36 fc a3 3f
       -0.98955554 0.9209241 -0.97430634 1.2811344
000070 f9 37 20 bf 77 17 08 bf a8 c6 3a 3e dd 28 c7 bf
       -0.6258541 -0.53160805 0.18239844 -1.5559345
000080 65 a7 a0 3e c6 4f f6 3e 5e 80 f3 bf 91 9f 30 bf
       0.31377712 0.48107737 -1.902355 -0.6899348
000090 ac 84 6f bf 83 16 83 be 86 44 17 bf c8 3d 8c 3e
       -0.93561816 -0.25603113 -0.59088933 0.27390885
0000a0 4d cb 86 bf 76 22 a5 3e 4f ed 67 3f 14 ea 20 3e
       -1.0530792 0.32252854 0.9059648 0.15714294
0000b0 4f 9b 34 c0 d7 6c 82 3f 5e 8e 14 bf 33 b5 a1 3e
       -2.8219793 1.0189465 -0.58029735 0.31583557
0000c0 7b 67 2f 3f 49 b4 58 bf 7d 24 73 be 21 f6 b4 3e
       0.68517274 -0.84650093 -0.23744388 0.3534403
0000d0 24 25 06 c0 97 d2 65 3e c2 c0 68 bd 48 24 9e bf
       -2.096017 0.22443615 -0.056824453 -1.2354822
0000e0 67 18 b3 3f d9 4c d3 3e 20 bd dc bf b4 a4 18 c0
       1.3991822 0.41269568 -1.7245216 -2.3850527
0000f0 b6 9a 9a 3f 0e f1 02 bf dc 16 ac 3e ee 2b 5c 3f
       1.2078464 -0.5114907 0.3361119 0.8600453
000100 16 db ab 3f b1 36 aa bf ad 32 15 c0 38 ba 3a 3f
       1.3426235 -1.329794 -2.331218 0.729404
000110 cc 34 00 c0 c8 21 b0 bf d4 b5 49 bf bd cb 13 3d
       -2.0032225 -1.3760309 -0.7879307 0.03608297
000120 60 13 8b bf a2 60 b5 bd f9 ab 1c bf 45 85 c5 3f
       -1.0865288 -0.08856322 -0.6119991 1.5431296
000130 fe 03 95 3e e6 6a b4 be a3 7e 5a bf 67 0d 7e bf
       0.29104608 -0.35237807 -0.8534948 -0.992392
000140 ea bd 89 3f 96 5e db bd 08 5c e0 3a 97 d4 f5 3f
       1.0761082 -0.107114 0.0017117271 1.9205502
000150 c7 a5 81 bd fd c8 b1 bf 9a 4b 99 bf 9b f6 81 bf
       -0.06330448 -1.3889462 -1.1976197 -1.0153383
000160 f6 bd 8e 3f 76 c6 37 be 62 4c da 3e 9e b1 5a bd
       1.1151721 -0.179468 0.426364 -0.053392045
000170 1b 37 3f 3e 91 4d 76 3f f9 12 a5 bd ff 4b 8e bf
       0.18673365 0.96212107 -0.08060259 -1.1116942
000180 b2 31 52 3f aa d8 6d bd ad 8b 02 3e 22 ac 50 bf
       0.8210708 -0.058067955 0.12748595 -0.81512654
000190 b2 0c ba 3f b6 50 24 be 6f 0b 8b 3e d6 9d 87 bf
       1.4535124 -0.16046414 0.2715716 -1.0595043
0001a0 9a ed 40 bd 93 2f 1a c0 91 38 2f 3f 35 84 39 bf
       -0.047101595 -2.4091537 0.6844569 -0.72467357
0001b0 a5 b6 30 3e e7 34 0c bd aa 10 b0 3e a3 7b bc 3f
       0.17257173 -0.03423014 0.34387714 1.4725231
0001c0 75 a7 f8 3e af 73 f0 3f f6 00 44 bf c7 7f ca 3e
       0.4856526 1.8785304 -0.76563966 0.3955061
0001d0 fa 02 82 3e 58 25 72 bf 37 52 52 bd 71 37 21 bf
       0.25392896 -0.9458823 -0.051347937 -0.6297522
0001e0 e9 00 e0 bf 61 8b c8 bf 4c 0e ea be 8d 27 ef bf
       -1.7500278 -1.5667535 -0.45714033 -1.8683945
0001f0 d3 7e 21 be 31 15 58 bf 4a 98 c7 bf 3f 00 76 3e
       -0.15771036 -0.84407336 -1.559335 0.24023531
000200 7a 0c 95 bf 2e 2f 55 bf dc 54 26 40 a8 13 b3 be
       -1.1644433 -0.83275115 2.5989294 -0.34975934
000210 40 9c cf 3f a7 81 9f 3f a1 e6 19 be e2 ba 1d 3f
       1.6219559 1.2461442 -0.15029384 0.61613286
000220 38 7a 6b be 64 44 9a 3f e0 69 40 bf c5 10 86 be
       -0.22995842 1.2052121 -0.7516155 -0.2618467
000230 d4 15 a4 3f 7f e3 24 bf 4f 82 2d 3f 01 42 ba bf
       1.2819161 -0.6440963 0.6777696 -1.4551393
000240 a4 fb a1 bf bf 19 69 bf bb 47 0c 3f 5d 66 39 bf
       -1.265492 -0.9105491 0.5479695 -0.7242182
000250 dd a3 f8 3f 8c 9a 68 3f 7c 16 26 bf 0b 19 fb 3f
       1.9425007 0.9086082 -0.6487806 1.9617018
000260 8b d1 a1 3f 4c 4f ef 3e fa ab 1d c0 38 aa 64 bf
       1.2642072 0.46740186 -2.4636216 -0.89322233
000270 64 59 00 be 3b e8 c0 bf 75 fd 34 be 2e 25 33 be
       -0.125341 -1.5070871 -0.17674811 -0.17494652
000280 3c cd e3 bd ae 01 06 bf 1d a2 d0 be f6 99 b5 bc
       -0.1112313 -0.52346313 -0.40748683 -0.02216814
000290 d3 80 8e 3f 17 73 47 bf c9 85 e3 be a5 20 82 bf
       1.1133064 -0.7790999 -0.44438007 -1.0166212
0002a0 db 34 62 3f 57 7c de 3c 06 35 40 3f da 1b 2e 3f
       0.883619 0.0271589 0.7508091 0.6801125
0002b0 6e bf 8a bd 60 9f b9 be c2 16 1e 3e 91 a6 27 3f
       -0.067747936 -0.36254406 0.15438369 0.65488535
0002c0 b6 55 0a c0 28 07 e1 3e d1 0f b5 bf 4d ae 5a 40
       -2.1614814 0.43950772 -1.4145452 3.4168885
0002d0 d9 17 a7 bb 7d bd 38 3f 4c 52 8c bf 12 d3 f1 bf
       -0.0050992784 0.72164136 -1.0962615 -1.8892539
0002e0 bc 47 e6 3e 17 d6 71 be 03 55 b6 3f 82 cd 36 3e
       0.44976604 -0.23616825 1.4244694 0.17851833
0002f0 c0 43 63 bf 94 21 c8 bd 11 ed 93 3f 61 0b ba 3f
       -0.88775253 -0.097720295 1.1556722 1.4534723
000300 62 13 6b 3f 16 61 03 3f 48 ba 0b c0 00 f7 8d 3e
       0.9182645 0.51320016 -2.1832447 0.2772751
000310 76 56 ed 3f 36 99 19 3b 73 6f 17 bf 80 17 34 3f
       1.8542011 0.0023437268 -0.59154433 0.7034836
000320 48 c6 82 bf e7 e1 18 40 e4 ff 86 bf 61 a9 1f 3f
       -1.0216761 2.388788 -1.0546842 0.62367827
000330 27 a0 3d 3f 5c 71 4b 3f c4 64 3c 3f 98 3c 95 3f
       0.740725 0.7946985 0.73591256 1.1659117
000340 55 a0 ea 3e 5c 8f b5 3e c2 3e 8d 3f 32 fd 6b 3f
       0.4582545 0.35460937 1.1034777 0.9218322
000350 8b 74 44 3f e3 1c 83 be 80 3f 4d 3d fc a6 21 3f
       0.7674033 -0.25607976 0.050109386 0.6314542
000360 28 f0 6f 3e 4c d9 72 bf 2e 4f 3b 3f 86 71 86 be
       0.23431456 -0.9486282 0.73167694 -0.26258487
000370 00 82 8b 3f 2c 98 46 bf 1a c9 9c be 99 d6 48 3f
       1.0899048 -0.77575946 -0.30622178 0.7845245
000380 8c bf ae be 87 66 06 40 44 0c 91 3f 2d 79 a1 bd
       -0.34130514 2.1000078 1.1331868 -0.078844406
000390 52 af a6 3f ec 7b c8 bf 80 78 46 bf 20 fc c6 3e
       1.3022254 -1.5662818 -0.7752762 0.3886423
0003a0 e4 3b 95 3f e1 20 ef bf 81 32 3d c0 fa 8a a3 3e
       1.1658902 -1.8681909 -2.9562075 0.31941968
0003b0 71 1c b2 be 8c 71 8d bf 32 23 a0 3e c0 72 cb bf
       -0.34787324 -1.1050277 0.31276852 -1.5894394

weight f4 [48, 48]
000000 c9 98 0f bf 36 78 3d 3f 5b 93 54 bf 7d 9b b0 3f
       -0.56092507 0.7401155 -0.83037347 1.3797451
000010 51 26 15 bf f1 7b 3c 3d 67 7a b5 be 71 37 8e 3f
       -0.5826159 0.046016637 -0.35444948 1.1110669
000020 7e 55 9f 40 2d ad bc 3e e2 e3 dd 3f 61 19 cc bd
       4.979186 0.36850873 1.7335169 -0.09965778
000030 7b 72 d4 bf cf 57 b6 3d 8c 5a f7 be 20 89 af be
       -1.6597437 0.08903467 -0.4831127 -0.34284306
000040 38 39 34 c0 d2 f8 de bf 71 a8 0b 3f 0f 72 b4 3e
       -2.8159924 -1.7419684 0.54553896 0.3524327
000050 0d c0 86 3e 46 54 f9 be a0 e0 ba 40 eb 04 90 40
       0.26318398 -0.48697108 5.83992 4.5006003
000060 ac 4f cc bf 62 f2 a9 3e e4 e4 98 3f 72 1d 06 be
       -1.5961814 0.33192736 1.1944852 -0.1309717
000070 4b 34 86 bf 18 58 77 be 54 61 7c 40 25 2c bc bf
       -1.0484709 -0.24154699 3.9434404 -1.4700972
000080 f5 2b 89 c0 30 a8 4e bf b9 e1 1a bf db 2b 96 c0
       -4.286616 -0.80725384 -0.60500675 -4.6928535
000090 48 ca 78 40 c1 70 44 bf 18 de c8 3f af 47 39 40
       3.8873463 -0.7673455 1.5692778 2.8950002
0000a0 db 14 eb 3f 7e cb 63 c0 a1 71 e3 be 1a f4 52 3f
       1.836574 -3.5592952 -0.4442263 0.8240372
0000b0 fb 91 6f 3f 6e 17 b4 40 3d d8 d7 3d 8a bd 0e bf
       0.93582124 5.62786 0.10539291 -0.55757964
0000c0 46 b5 5e bf 8b 7d 7c be a5 1f a9 3f f7 c3 36 3f
       -0.8699535 -0.24657266 1.3212782 0.7139277
0000d0 48 8b c6 be 3b 3b b2 bf d3 31 04 be 5e 85 c3 3e
       -0.38778138 -1.3924326 -0.12909631 0.3818769
0000e0 a2 7c 34 bf 44 e5 49 bf 0c 6c 99 3e 56 e1 81 bf
       -0.70502675 -0.78865457 0.29965246 -1.0146892
0000f0 44 ee 32 3e bd c7 04 bf 81 5b 5c bf 5a 6b 0b 3d
       0.17473704 -0.51867276 -0.86077124 0.034037925
000100 89 55 17 bf 8b 4b 33 bf 07 2f 97 bf 19 f4 2e c0
       -0.5911489 -0.70037144 -1.1811227 -2.7336485
000110 7b 32 60 bf 6f ee 4e bf 47 f6 03 3f dc 30 1d 3e
       -0.8757703 -0.8083257 0.51547664 0.1535067
000120 e5 17 3f 3e 96 81 27 3f 2e 57 fa bd 90 ef 94 bf
       0.18661459 0.6543211 -0.122236595 -1.1635609
000130 06 a3 41 bf 33 76 a3 bf c7 70 35 bf 1f 7b 80 be
       -0.7563938 -1.2770447 -0.7087521 -0.25093934
000140 f7 54 b8 bb 72 42 84 3f ce af 69 3f 74 0c 31 bf
       -0.005625363 1.0332778 0.9128388 -0.69159627
000150 5a b9 8f be f9 f7 80 be 47 37 5a be 1e 0c 1d 40
       -0.280711 -0.25189188 -0.21310149 2.4538646
000160 cc ab 10 bf 56 44 8d c0 29 68 99 40 10 c7 0d 3f
       -0.5651214 -4.414592 4.793965 0.5538187
000170 b9 77 db 3e e0 ef 8d 3e e3 20 43 be 54 ad d5 3e
       0.4286478 0.27722073 -0.19055514 0.417338
000180 58 c2 4c be a7 31 97 bc cf 92 a7 3f c0 84 6e bd
       -0.19996011 -0.018456293 1.3091677 -0.05823207
000190 94 a3 00 bf 43 35 f7 be cd fc 65 bc 3c 47 8d bf
       -0.502496 -0.48282823 -0.014037323 -1.1037364
0001a0 a6 70 91 bf 20 09 76 3e 4b ce fb be 77 e0 35 c0
       -1.1362503 0.24026918 -0.49180827 -2.8418252
0001b0 57 ac b6 3f 69 89 a1 be ed 96 76 be 33 5e a6 3f
       1.4271344 -0.31550148 -0.24081011 1.2997497
0001c0 1a 58 dc bd 3c c4 d2 3f 46 c6 06 3f 98 17 92 3f
       -0.107589915 1.6466136 0.5264629 1.141345
0001d0 7b 09 88 bf 9b 6f 81 be 62 4a 1e c0 41 2b 4f bf
       -1.0627893 -0.2528046 -2.47329 -0.80925375
0001e0 03 9e 91 3f 79 7a 28 bf 46 32 eb 3e 33 05 9b be
       1.1376346 -0.6581188 0.45936793 -0.30277404
0001f0 67 39 4e 3f cc aa 37 bf de f3 ef 3d 18 f8 6f 3f
       0.8055634 -0.7174499 0.11716436 0.93737936
000200 cb 39 17 bd ed 87 02 40 6b 59 f4 bc f0 ab de 3e
       -0.03692035 2.0395463 -0.029827794 0.43490553
000210 39 39 b9 bf 50 ee 2f bf 55 74 a3 be 68 d6 1d 40
       -1.4470588 -0.6872301 -0.31924692 2.4662113
000220 59 d5 98 3c 0c fd 22 bf 54 e3 19 40 62 bd 82 bf
       0.01865642 -0.6366737 2.4045 -1.0214045
000230 98 90 17 3f f2 e3 46 bf 0c 1c 20 3f d2 ae db 3f
       0.5920501 -0.77691567 0.62542796 1.7162726
000240 fa 99 30 3f c9 bd 14 be ab 4d 3f 3d af a1 18 bf
       0.6898495 -0.14525522 0.04670493 -0.5962171
000250 64 c1 44 3f 96 58 01 3e 10 e5 42 3e 49 03 0a 3e
       0.7685759 0.12631449 0.19032693 0.13477816
000260 75 a0 59 3f ba e8 9f 3b 50 12 cd be 54 db 4b be
       0.85010463 0.004880038 -0.40053034 -0.19907886
000270 3b 7e f7 bc 17 c1 4f 3e ae 6a c4 3e 49 3a 5a 3e
       -0.030211559 0.20288502 0.3836264 0.21311297
000280 2c 1b f0 3c 71 00 fc bd 46 c3 b2 3e 79 d5 9b be
       0.029309832 -0.12304772 0.34914607 -0.30436304
000290 dc 35 b8 be 94 08 a8 bd e8 43 50 3f 0f 00 d4 3e
       -0.3597859 -0.08204761 0.81353617 0.41406295
0002a0 de 95 dc bd f0 75 be 3e 19 d7 e2 bd d9 59 59 bf
       -0.107707724 0.37199354 -0.11076183 -0.8490272
0002b0 12 aa 5e bf d7 88 e2 3e a2 6b df 3e cc be 47 bf
       -0.86978257 0.44245026 0.43636805 -0.7802551
0002c0 87 a5 58 bf 76 67 4a bd 6d 5e 35 3c 8a 7d 33 bf
       -0.84627575 -0.049415074 0.011069876 -0.7011343
0002d0 47 95 99 3e 5e 51 d7 3e b1 ed 55 3e 38 a4 04 3e
       0.29996702 0.42054266 0.20891453 0.1295327
0002e0 d3 33 05 3f 8e db 28 3f b4 8f 50 be 29 42 79 bf
       0.520322 0.65960014 -0.20367318 -0.9736658
0002f0 04 6c b5 be 23 a8 2c 3f 38 81 44 bf 02 a5 ca bd
       -0.35433972 0.67444056 -0.7675967 -0.09894754
000300 0f 90 18 bf 16 a3 90 3e 1f d4 2b bf 72 27 a4 3f
       -0.59594816 0.28249425 -0.67120546 1.2824538
000310 b1 56 27 bd 31 6f e2 be 68 35 4e 3d 9f e3 89 3f
       -0.04085416 -0.44225457 0.0503439 1.077259
000320 2c 96 61 40 dd 1e fb 3e e0 b7 d7 3f 7e ff 27 3f
       3.5247908 0.49046984 1.6852989 0.65624225
000330 91 57 81 bf 0d b9 c1 be c6 a2 32 bf 9b f3 4a bd
       -1.0104848 -0.37836495 -0.6977962 -0.049548727
000340 54 2f 06 c0 e9 b0 a1 bf 31 ce 1f 3f 69 72 3b 3e
       -2.0966387 -1.2632114 0.62424 0.18305363
000350 d8 25 a3 be 11 04 54 bf ed e9 87 40 bc fd 77 40
       -0.3186481 -0.82818705 4.2473054 3.8748617
000360 9d 13 72 bf 4d 1f e3 3e 3e 28 51 3f e3 67 b9 3e
       -0.9456118 0.44359818 0.8170203 0.36212072
000370 3f 7c 32 bf d5 b5 2e bf df ce 51 40 c3 4b 7b bf
       -0.69720834 -0.68246204 3.2782514 -0.9816248
000380 1f e9 54 c0 29 ac 5c 3c 29 79 38 bf 00 26 76 c0
       -3.3267286 0.013468781 -0.72059876 -3.8460693
000390 bd 94 3e 40 c5 43 49 bf 88 2b ed 3f 23 a5 dd 3f
       2.9778283 -0.78619033 1.852891 1.7316021
0003a0 d1 2e 86 3f 2c 27 51 c0 a7 50 f3 bd c0 14 1d 3f
       1.0483037 -3.2680159 -0.118806176 0.61359787
0003b0 78 d1 5a 3f 56 13 94 40 b2 c6 55 be 68 13 e4 bc
       0.85475874 4.6273603 -0.20876577 -0.027841285
0003c0 eb a5 26 3f 8b fc 7b be 48 04 ff 3e ab 64 19 be
       0.6509692 -0.24608056 0.49807954 -0.14979808
0003d0 17 ec 84 3f 67 e5 ac 3e b8 92 d1 be ef 94 23 3e
       1.0384549 0.3376877 -0.4093225 0.15974782
0003e0 0c 0a 04 3f 23 6a ce be 2d aa 40 3d 4a f8 90 40
       0.5157783 -0.4031535 0.047037292 4.5303087
0003f0 79 a5 90 3e 49 b1 8b 3f a1 69 ac 3f 6d 6f 43 3f
       0.28251246 1.0913478 1.3469735 0.763419

bias f4 [48]
000000 84 a9 85 bf 64 41 ed 3f 12 3d 62 be 7b 15 90 bf
       -1.0442357 1.8535581 -0.22093609 -1.1256555
000010 e0 25 c3 bf 63 cc aa bf d5 67 43 40 a2 73 0e bf
       -1.5245934 -1.3343624 3.0532124 -0.5564519
000020 fe 84 ea 3f 05 95 49 bf b0 cd 37 40 07 69 9c be
       1.8321836 -0.7874301 2.8719292 -0.3054888
000030 d6 31 2b bf 6a b6 9e bf c3 47 89 bf b4 29 85 3f
       -0.6687292 -1.2399418 -1.0725025 1.0403352
000040 04 21 a1 3f 30 5a a9 bd d4 02 37 be 3b 6c 8e bf
       1.25882 -0.08269155 -0.17872173 -1.1126779
000050 30 bb ae 3f 0f 94 c3 3e b2 3e 79 bf 15 91 12 3f
       1.3650875 0.38198897 -0.9736129 0.5725263
000060 6d bb ea 3f ce af 4b bf 11 9c d9 be 3a 6c 03 3e
       1.8338448 -0.7956513 -0.42501882 0.12834254
000070 cd eb a2 3b ee bb 23 bf 60 8f 41 bf 5b 2d a0 be
       0.0049719573 -0.6395863 -0.756094 -0.31284603
000080 75 bb 61 3f db fa 13 bf 10 47 02 be 34 be 2a c0
       0.8817666 -0.5780465 -0.1272242 -2.667859
000090 94 3d f3 be 8a ba a1 3f 6a a9 c1 be fd 80 98 bf
       -0.47507918 1.2635052 -0.37824565 -1.1914364
0000a0 84 3f ce bc e8 3c 82 3f 18 9d cf bf a8 0e 80 bf
       -0.025176771 1.0174837 -1.6219816 -1.0004473
0000b0 6d e1 01 40 30 60 af be cb 63 98 3f 5f b1 fc 3f
       2.029384 -0.34253073 1.1905454 1.9741629

weight f4 [48, 48]
000000 4e e7 e8 3e cf 1c 31 be 27 3e 6b be 15 7e 10 3e
       0.4548897 -0.17296146 -0.22972928 0.14110596
000010 c2 c4 25 be cc 85 3b be c5 9e 12 be 76 56 ca 3d
       -0.16188338 -0.18312758 -0.14318378 0.09879772
000020 4d 33 0a 3f b2 3a cf be 3b f9 e2 be ff ef fe 3d
       0.5398453 -0.40474468 -0.44330773 0.12448119
000030 b1 e2 ae bc c0 c5 67 be 81 ed e3 bd 0b a4 27 3d
       -0.02134833 -0.2263403 -0.11129285 0.040927928
000040 2d 73 ec 3d 77 c3 83 bd b7 9f bc 3c b1 34 a7 bc
       0.115454055 -0.06433766 0.023025377 -0.020410867
000050 99 92 cf be 87 ad 83 bc 83 02 49 be 97 79 17 3e
       -0.40541533 -0.016073955 -0.19629864 0.14792477
000060 10 96 75 be 0a ec e0 be 74 00 12 be 73 9b 0a be
       -0.23983026 -0.43930084 -0.14257985 -0.13535862
000070 ec 32 c6 3e a7 d5 e5 3d b7 53 05 3e 29 f8 5e 3e
       0.38710725 0.112223916 0.13020216 0.21774353
000080 f4 d9 21 be b3 77 86 3d c3 5e 72 be 05 07 a1 be
       -0.15805799 0.065657996 -0.23668961 -0.31450668
000090 cc 8f 02 be 95 ec 1b be 59 53 38 be a2 b6 e4 3d
       -0.12750167 -0.15226968 -0.18000545 0.11167647
0000a0 e2 97 94 3e 8f ac 7c 3d db e2 0e be 32 dc 72 3e
       0.29022127 0.061688002 -0.13953726 0.2371681
0000b0 51 e4 cb bc c8 44 ca 3d 69 88 ac bc 5c 61 83 3d
       -0.024889143 0.098764 -0.02106114 0.06415054
0000c0 cf 75 24 bf 1a c8 e0 be 71 c7 91 bd 1e 59 ff 3d
       -0.6424226 -0.43902665 -0.071181186 0.1246817
0000d0 9b 64 14 3f e1 91 25 bd 41 75 93 bd 48 96 12 3f
       0.5796601 -0.040422324 -0.07200099 0.5726056
0000e0 c4 4c a5 be 92 0a ae 3d b3 24 bd bd 88 72 d8 be
       -0.3228513 0.0849811 -0.092355154 -0.4227488
0000f0 ca 63 b8 3d 95 94 ba 3e fc 6e dd be 03 f5 12 3f
       0.09003408 0.36441484 -0.43248737 0.5740511
000100 f2 a4 e5 be 7f a4 cb 3d 50 ec 0f 3e e4 f9 e9 be
       -0.44852406 0.099434845 0.1405499 -0.45698464
000110 77 64 88 3e 90 1d 95 be eb 98 8f be 96 8d f2 3d
       0.2663915 -0.29124117 -0.28046355 0.118434116
000120 e5 08 00 be 18 b5 6d 3e 4b 3a 21 3e bf 8f 21 3e
       -0.12503393 0.23213613 0.15744893 0.15777491
000130 6a cb 29 bf 2e 94 b2 3e 41 a9 99 bd 7e 27 8d 3e
       -0.6632601 0.34878677 -0.07502986 0.27569193
000140 f8 d6 58 be 4f 3b b5 3e f2 71 00 bf b6 8c 84 3e
       -0.21175754 0.3539681 -0.50173867 0.25888604
000150 2c 2c b3 bc 86 ef 7a be 42 06 35 3f 0b 13 af bc
       -0.021871649 -0.24505433 0.70712674 -0.021371385
000160 f9 9e 72 bd e3 5e a9 bd 0b 7b 46 bd ac 1e 07 3e
       -0.05923364 -0.08270051 -0.048457187 0.13195294
000170 09 4d 6e 3e 67 cb 79 be 3a ce 3b bf d6 73 09 3f
       0.23271574 -0.24393998 -0.7336155 0.53692377
000180 45 34 81 3e ef 23 53 bf 49 7d 5c bb 5f 5e 1c 3e
       0.2523519 -0.82476705 -0.0033644012 0.15270375
000190 1d f2 35 3f 9a de 69 3c 01 ec e2 3d c9 1f f3 3e
       0.7107256 0.014274264 0.110801704 0.47485188
0001a0 2b 36 44 be 0f 4c 1c be d1 6f 59 be 0b 68 65 3e
       -0.19161288 -0.15263389 -0.21234061 0.2240297
0001b0 98 3c 40 3f 5b fc 80 be 82 4c f3 3e 9b 27 04 3f
       0.7509246 -0.25192532 0.47519308 0.51622933
0001c0 80 73 5d be 2e 42 60 be 8b 5f bb 3e b2 33 71 3e
       -0.21626091 -0.21900246 0.3659633 0.23554876
0001d0 9a d4 24 3d 0f 63 06 3f bf 97 99 be 2c 40 30 be
       0.040241815 0.524949 -0.29998586 -0.1721198
0001e0 23 52 75 be 31 30 24 bf ca cf ac be 26 16 f8 3c
       -0.23957114 -0.64136034 -0.3375228 0.030283999
0001f0 c7 d1 cb 3e 22 91 6d be 8d bc d7 3d 4f cc 37 3d
       0.39808485 -0.23199895 0.1053401 0.04487258
000200 0b e2 0a 3f 78 60 11 3f c0 35 f8 3d 46 10 0b 3f
       0.54251164 0.56787825 0.12119627 0.54321706
000210 ad 31 db 3e 02 47 aa be 0e 02 09 3e a5 91 3c 3d
       0.42811337 -0.332573 0.1337969 0.046037335
000220 27 50 a2 bf 00 b4 8a be ca ec 54 3e 7a 07 e8 3e
       -1.268071 -0.27090454 0.20793453 0.45318204
000230 04 47 94 3e 0e 81 1b bf 1c 49 8f 3e 4b c3 53 be
       0.2896043 -0.60743797 0.27985466 -0.20679967
000240 40 a4 82 3f 13 fd d2 be 65 4d b7 3f 60 06 37 bf
       1.0206375 -0.41208705 1.4320494 -0.714941
000250 ee 45 8d 3e 4a b7 14 be 97 3c 1c bf 44 df 80 be
       0.27592415 -0.14523044 -0.6102995 -0.25170338
000260 cf 0b a6 be 86 bc fc bf 2c 6a 8a bf fe 23 87 3f
       -0.32430884 -1.9745033 -1.0813651 1.0557859
000270 e3 55 b9 3f 11 5f 59 be 34 90 20 3e 9a 3f 46 bf
       1.4479336 -0.21227671 0.15680009 -0.774408
000280 b5 a5 9e 3f cc d2 c3 3e 35 48 f9 3f f8 67 45 bf
       1.239432 0.38246763 1.9475161 -0.7711177
000290 15 cf 2a bf ee 96 bc 3e 10 8b 9a bf 62 e1 2a bf
       -0.6672223 0.368339 -1.2073689 -0.66750157
0002a0 72 fc 2e 3f 41 99 7d bf 45 14 f6 bf 82 e6 22 3e
       0.6835395 -0.9906197 -1.9224936 0.15908244
0002b0 54 e5 8b 3e 46 55 a6 3f bc d4 99 bf 90 77 82 bf
       0.273234 1.2994773 -1.2018046 -1.0192738
0002c0 8a aa 26 3f 95 e9 8f 3f 7f 00 15 bf a2 5c 6f 3f
       0.6510397 1.1243159 -0.5820388 0.9350072
0002d0 55 97 04 bf 3f 45 bc 3e 43 52 96 3f 51 7f b8 3f
       -0.51793414 0.3677158 1.1743854 1.4413854
0002e0 a0 e4 63 be c0 1b a8 bf db 71 80 3f 21 18 4d bf
       -0.22255182 -1.3133469 1.0034746 -0.8011494
0002f0 0e ee b7 bf 0d 32 bf bf 48 e8 b7 be db 99 49 bf
       -1.4369524 -1.4937149 -0.35919404 -0.7875039
000300 74 ff dd 3e 83 43 91 3d f8 bb c9 3e 8b a1 02 3e
       0.43358958 0.07092955 0.3940122 0.12756936
000310 67 78 35 be 40 68 7d 3d 05 25 ba 3e 7c 57 b5 bd
       -0.17721711 0.061867 0.3635637 -0.08854577
000320 9e 5f e3 3e cf 10 d6 be 09 d2 c9 be 75 17 cb 3c
       0.44408888 -0.418097 -0.39418057 0.024791459
000330 3f a8 5d 3e 7d 67 79 3d 61 e5 18 3e 3b 1e 03 be
       0.21646212 0.06088971 0.14931251 -0.12804501
000340 a4 99 7e 3d fb a8 ff bd 19 44 04 3e 6c fa b4 bc
       0.062158242 -0.12483402 0.12916602 -0.022092067
000350 31 2e a8 be c0 87 af 3d 7f 36 89 be 35 e7 f6 3d
       -0.3284774 0.08570814 -0.2679939 0.12055818
000360 83 f3 90 be 0e d4 20 be ac f2 e1 bd c1 6d 8f be
       -0.28310785 -0.15705892 -0.11032614 -0.28013423
000370 21 db f3 3e 7a f4 8a be ad 45 25 bd 09 1f 74 3e
       0.4762812 -0.27139646 -0.04034965 0.23839964
000380 20 16 07 be 31 52 5b be 73 74 35 be 35 af f2 bc
       -0.13192034 -0.21418072 -0.17720203 -0.02962456
000390 96 7b 2e bd 60 ee 0d be 7a f8 b5 be 3f 73 11 3d
       -0.04259833 -0.13860464 -0.35541135 0.035510298
0003a0 4d 91 3d 3e 08 c3 b9 bd c2 6e 8c 3e f6 af ad bb
       0.18512459 -0.090704024 0.27428252 -0.005300517
0003b0 cd ea 80 be e4 5b 45 be 57 42 b0 3e 87 22 4f bd
       -0.2517914 -0.19273335 0.34425613 -0.050570037
0003c0 56 de 5a bd 72 51 94 be b1 13 e3 3e 52 56 49 3e
       -0.053434692 -0.28968388 0.4435096 0.19661835
0003d0 e1 0f 0c bd 4f 93 13 be e7 d9 6e 3f f1 04 88 3e
       -0.03419483 -0.14411663 0.9330124 0.2656627
0003e0 3f 1e c5 3e 22 01 8c 3e 5c 52 fb 3e 85 7c d0 3d
       0.38499638 0.27344614 0.49086273 0.1018
0003f0 27 95 e5 3d d0 9e 7a 3e b4 47 04 be 1a 50 97 3e
       0.11210089 0.24474645 -0.12917978 0.295533

weight f4 [48, 48]
000000 f7 cf 51 be 1d 1b 00 3e 2e 20 75 3e df 8d 42 3d
       -0.20489489 0.12510343 0.23938057 0.04749858
000010 a5 90 00 bf 9f e2 05 3f 53 df e2 3e 8c ed 3c 3f
       -0.5022071 0.5229892 0.44311008 0.7379997
000020 6d 91 7a be ef e1 c8 be bd b7 48 3e 8e 61 6b bf
       -0.24469538 -0.39234874 0.1960134 -0.9194573
000030 58 64 bd 3e b8 7c 12 3f dd 44 a6 bf a4 72 87 bf
       0.3699062 0.57221556 -1.2989765 -1.058186
000040 ba 7b 88 3f 7b 5a a1 3f c2 fc e0 3d 6a 6d c3 3c
       1.0662758 1.2605737 0.1098571 0.023855884
000050 44 0f 60 3c 70 52 46 be cc 9d 24 bd 52 70 61 3d
       0.013675515 -0.19367385 -0.04018955 0.055038758
000060 22 44 0e be c3 67 88 bf 2d c5 0c bf 47 be 8e 3d
       -0.13893178 -1.0656666 -0.54988366 0.06969886
000070 93 6d 2c bf bb 6b fd be 91 02 64 bf 19 4a 86 bf
       -0.67354697 -0.49496254 -0.89066416 -1.0491363
000080 96 16 51 bf 4b 47 58 bf 59 3d d9 3e 04 27 be 3c
       -0.8167509 -0.84483784 0.42429617 0.023211963
000090 9e 06 22 3f 03 62 90 be 29 94 fb 3e d4 b7 e8 3e
       0.6329135 -0.28199777 0.49136475 0.4545275
0000a0 e7 cd 91 be 0b 3d 3b be 36 34 12 be 9d f5 fa be
       -0.28477404 -0.18285005 -0.1427773 -0.49015513
0000b0 84 d8 98 3e 36 82 32 3e eb 2a e6 3e 0c d3 89 3e
       0.29852688 0.17432484 0.4495462 0.26918828
0000c0 fa 56 89 3e 63 78 28 3f 2c b2 62 3e ed 60 9a bf
       0.2682417 0.65808696 0.2213828 -1.2060829
0000d0 6c a8 f4 bb 50 0e 8c 3f 3f 86 03 3e b6 b4 01 bf
       -0.0074663665 1.0941868 0.1284418 -0.5066637
0000e0 45 63 9e bf 12 12 66 3e 98 2a 43 bf ed 3c f4 3e
       -1.2374045 0.22467831 -0.7623687 0.47702733
0000f0 37 83 2b 3f e1 86 46 3e a3 8e 51 bf 1d b5 21 3f
       0.6699709 0.1938739 -0.8185827 0.6316698
000100 36 49 c5 be aa 79 00 3f 6a ab b3 3e b5 7e 2e bf
       -0.38532418 0.50185645 0.35091716 -0.6816209
000110 ff 78 00 3f a9 6a 80 3f c1 f1 28 bd b7 ce bf bc
       0.50184625 1.003255 -0.04124618 -0.023413999
000120 e7 4b 14 3f 25 60 01 3f dc fe ce 3d 4f 39 1c bf
       0.5792832 0.5053733 0.10107204 -0.61024946
000130 ff ba 5d bf 1a f0 a1 be 63 8e 80 3c 29 67 54 bd
       -0.8661346 -0.31628495 0.015692895 -0.051856194
000140 d5 02 3e be 7e 42 0d 3f 14 53 f6 3f 69 ad 6c 3e
       -0.18555768 0.55179584 1.9244103 0.23113026
000150 5c f5 31 3f 75 b7 bb 3f cc 43 90 3e 16 5e e3 bf
       0.69515014 1.4665362 0.28176725 -1.7763088
000160 a2 30 b5 be 55 e0 c1 3d f5 18 6f 3e 2b 6b 1d 3d
       -0.35388666 0.09466616 0.23349364 0.03843228
000170 8c d4 a3 3e b1 42 c3 be 88 49 76 bf 58 21 95 3e
       0.31998098 -0.3813682 -0.9620595 0.29127002
000180 59 e3 82 be bd bf c9 be 5b 7c 97 3e d8 e3 86 3e
       -0.25564077 -0.39404097 0.29587063 0.26345706
000190 ea 60 f4 be 70 e6 66 bf 95 9d aa be 75 61 10 bf
       -0.4773019 -0.9019537 -0.3332335 -0.5639871
0001a0 bd 82 b5 3e 33 fd 4e bf a1 eb f8 be 4a 4c 4a bf
       0.35451308 -0.808551 -0.4861727 -0.7902266
0001b0 e6 8d b5 bd 55 ae d3 3e d3 ab 3b 3f d2 6d 10 3f
       -0.088649556 0.41343942 0.7330906 0.5641757
0001c0 98 8e 2b bf 98 26 6c bf 1a 22 05 3e ac c1 26 be
       -0.67014456 -0.9224639 0.1300129 -0.16284817
0001d0 33 bb 79 bd 7a dd 8c bd 60 2f 38 bf 0f 88 e6 3e
       -0.060969543 -0.06878181 -0.7194729 0.4502568
0001e0 21 91 21 3e fa a2 55 bf 29 6c e3 3e 2b c1 85 3d
       0.15778019 -0.8345181 0.44418457 0.065309845
0001f0 56 16 36 bf 43 49 6e 3e 3b 38 12 bf 6e 82 66 3e
       -0.7112783 0.23270135 -0.5711705 0.22510692
000200 2a 00 02 bf 31 ab de be 2c d5 2a 3f 30 19 3b bf
       -0.507815 -0.43489984 0.66731524 -0.7308531
000210 49 25 1c bd 06 fa 23 3f c3 16 e3 3c 63 cc b6 be
       -0.038121495 0.6405338 0.027720815 -0.3570281
000220 b2 5d 1b 3d 0e 98 b9 3f 3c 6a c4 3f 57 6d 83 bf
       0.03793115 1.4499528 1.534492 -1.0267743
000230 21 c0 bc be 48 d0 8b 3e 97 21 35 3d 5b 5c b9 3e
       -0.36865333 0.27307343 0.044221487 0.36203274
000240 26 65 b9 be 5d 11 50 3f bd b7 5e 3f 89 99 23 be
       -0.36209983 0.81276494 0.8699911 -0.15976538
000250 1f f7 12 bf b8 e5 4b 3f 04 63 0d 3e c3 c5 c6 bd
       -0.57408327 0.796474 0.13807303 -0.09705689
000260 db 90 62 bf 5e 8a 06 3f d3 18 27 be bb 36 31 3f
       -0.8850228 0.5255488 -0.16318063 0.6922414
000270 66 58 62 bf ae 96 87 3e 4d 0b 28 bf 17 85 5b bd
       -0.88416135 0.26482147 -0.65642244 -0.05359372
000280 0f 2f c2 be be 87 32 3f 89 7e 15 3f 9d 32 49 bf
       -0.37926528 0.69738376 0.583962 -0.78592855
000290 09 84 bf 3e b4 82 1d 40 52 78 00 3f 14 a9 c2 3e
       0.37405422 2.4611025 0.50183594 0.3801962
0002a0 89 da e5 bb 24 5a 06 3f 9f bf 65 be b8 1d 71 bf
       -0.007014577 0.52481294 -0.22436379 -0.9418597
0002b0 f5 62 56 3f 26 2e 78 3e ec 24 4e bf 2d 8d 2b bf
       0.83744746 0.24236354 -0.8052509 -0.6701229
0002c0 9d 3a 35 3f d7 7e 47 bf 33 a3 ae bd 60 f8 b9 3e
       0.7079256 -0.7792792 -0.085272215 0.36322308
0002d0 91 16 52 3f 6d ba 81 3f f3 8e 71 3e db 65 4a 3f
       0.82065684 1.0135018 0.23589687 0.7906167
0002e0 a2 4c 2e bf 91 b5 08 c0 c6 5e 94 bf e7 4e aa 3e
       -0.6808568 -2.136082 -1.1591423 0.33263323
0002f0 fb e1 95 3e b9 dc 37 bf 4d d2 cd bf c6 f2 d1 3e
       0.29273972 -0.7182117 -1.6079804 0.41005534
000300 55 d5 1c 3f 08 c9 bb bc 3f c6 38 bd ec ef ac be
       0.6126302 -0.022923008 -0.045110937 -0.33776796
000310 2e 3d 2d 3f 1a 8d ae 3e 3f 2c 65 3f 81 3a 16 be
       0.6767148 0.34092027 0.8952064 -0.14670755
000320 6d 20 76 3e f9 fe 11 3f 08 6d 61 bd 68 78 9d 3f
       0.24035807 0.5702968 -0.05503562 1.230237
000330 96 b3 0f 3f 57 34 00 3f cc ef 20 40 c5 5b 0b 3f
       0.561334 0.50079864 2.514636 0.54436904
000340 1a 7d 6e 3f c6 e5 a7 3f 58 19 f9 bd 90 d6 21 bf
       0.9315964 1.3116996 -0.12163037 -0.6321802
000350 d4 3d b8 3e 1d 70 95 bf 0b 7f c4 3d ef d7 14 bf
       0.3598467 -1.1674839 0.09594544 -0.5814199
000360 9b 14 c0 3e 67 8f f3 3e ec e9 91 bc 47 85 71 bf
       0.3751572 0.47570345 -0.017811738 -0.9434399
000370 ed 20 e4 bd 65 5c 10 3e 2b 9e f8 3e 5e 24 82 3f
       -0.111390926 0.14097746 0.48558173 1.0167348
000380 47 f9 5a bc ac 7c fe 3d c8 14 67 3f 12 64 2a 3f
       -0.013365096 0.12426123 0.90266085 0.66558945
000390 a5 a9 90 3e c6 a9 cd bd 0f 26 5d 3f f6 23 f3 3e
       0.28254429 -0.10042147 0.863862 0.47488374
0003a0 54 46 1a bf 04 88 91 be 83 03 ae 3e 89 2a 41 3f
       -0.6026356 -0.28424084 0.33987054 0.7545553
0003b0 f8 07 2c bf d9 a1 f7 bc 27 2a e8 be 1c 1f 0b 3f
       -0.6719966 -0.030228542 -0.4534466 0.54344344
0003c0 fa 03 0c 3e d1 0e 2e 3d 67 2c b9 be 8c f3 98 3e
       0.13673392 0.0424946 -0.3616669 0.29873312
0003d0 cc 55 8b 3e 74 05 ea 3e 96 d0 06 bf 24 93 ac be
       0.27213895 0.45707285 -0.52662027 -0.3370601
0003e0 ff d2 ab be cb 5a 9d be ad f0 01 3e c4 e9 f6 3d
       -0.33559415 -0.30733332 0.12689467 0.12056306
0003f0 8c 9e c8 bd 5d d9 a1 bf ac 14 88 3f fb f3 45 3d
       -0.097958654 -1.2644459 1.0631309 0.04832838

bias f4 [48]
000000 07 93 91 bd f1 09 08 bf fa a2 36 bf 54 9b d3 be
       -0.07108121 -0.5314017 -0.7134243 -0.41329443
000010 0b 5e 10 3e 90 8b fc be 58 97 16 bd 7d f5 16 be
       0.14098375 -0.49325228 -0.036765426 -0.14742084
000020 60 37 05 3f 11 e2 1c 3e 7b 85 c9 3f 76 89 dd bd
       0.5203762 0.15320612 1.574386 -0.10817234
000030 ae 08 ab be 16 1f 4c be 43 66 f2 bd 84 33 43 be
       -0.3340506 -0.19933733 -0.11835911 -0.1906262
000040 42 e9 7d 3e 1e 15 00 bf 27 8b a1 3d 5f 9e a4 3e
       0.24796012 -0.5003222 0.07887869 0.32152078
000050 ad 8c 64 3f ba 86 b9 3e 42 86 50 bd d7 08 43 c0
       0.89277154 0.362356 -0.05090929 -3.0474145
000060 17 88 46 3f 21 7b 93 be 03 b1 a2 be d9 e1 d6 3e
       0.77551407 -0.28804877 -0.31775674 0.41969183
000070 ec a7 bb be 98 cd 0c 3e 34 3d 87 3e 74 e5 a6 bd
       -0.36651552 0.13750303 0.26413882 -0.081492335
000080 7a 81 c0 3e 03 c4 15 bf 3b 4c 6a 3e 13 22 4c 3e
       0.37598783 -0.58502215 0.22880642 0.19934873
000090 e6 5e af 3f 4c 46 22 3e 30 cc 43 3e 1a 73 21 3f
       1.3700836 0.15847129 0.1912086 0.63066256
0000a0 c9 1e 47 be b4 01 10 3e ae 46 8b bf fa 68 bc 3e
       -0.19445337 0.1406315 -1.0880945 0.3679884
0000b0 1e ba 0f 40 15 57 ab bd 56 11 9e be 69 9b 92 3e
       2.2457347 -0.08366219 -0.308726 0.28634194

weight f4 [48, 48]
000000 7f cc 09 3f 6a 64 93 3e a5 0f 85 bf 74 07 74 bc
       0.5382766 0.28787547 -1.0395399 -0.014894355
000010 25 a3 b8 3e 7b 4c 53 bf cd 44 79 be 3b 0f 35 3f
       0.3606197 -0.82538575 -0.24342652 0.70726365
000020 ea 14 78 bf 8c 91 89 bd e4 96 80 3e 1e 2a 59 bf
       -0.9690691 -0.06717214 0.2511512 -0.8482989
000030 2b 03 35 3f 9b 53 35 be c5 6c 3c 3f 9c 09 34 3f
       0.7070796 -0.17707674 0.7360347 0.7032716
000040 dd 36 84 bf e5 00 ad 3e e4 a8 47 3e 1a 6a 28 be
       -1.0329243 0.33789745 0.1949802 -0.16446725
000050 16 8a 1a 3f c4 b8 6d bf 07 18 7f 3e 91 cf 27 3e
       0.6036695 -0.92860055 0.2491151 0.16387774
000060 36 ba db be c0 f8 dd 3f 3f 62 e4 3d e2 e2 f4 bd
       -0.42915505 1.7341537 0.111515515 -0.11957337
000070 27 d4 b6 3e 6e 21 0a 3f bf 7b 1a 3e ae 78 ff bd
       0.35708734 0.5395726 0.15086268 -0.1247419
000080 91 67 ed be 66 b6 01 3f 83 a8 72 bf 82 9e 82 be
       -0.46368077 0.5066894 -0.9478838 -0.25511557
000090 4c 36 77 3d d8 d0 c8 be f3 9f da be 0a c7 f0 3f
       0.060354516 -0.39221835 -0.42700157 1.8810742
0000a0 49 73 3c be 43 fd 8f 3d 5b e2 a4 bf 18 f6 3e 3d
       -0.18403353 0.07030728 -1.2881578 0.046621412
0000b0 78 6c 60 3e 82 4d 13 3f 8a 1c 5e bf 2a 5d 9c 3f
       0.21916378 0.5754014 -0.867623 1.2215931
0000c0 92 60 81 be 7f 31 fd bd c9 b2 c8 3e f4 65 8e bf
       -0.2526899 -0.12362956 0.39198902 -1.1124864
0000d0 05 de 04 bf 04 30 83 3d b8 c5 0a bf 3a c0 04 bf
       -0.51901275 0.06405643 -0.54207945 -0.51855814
0000e0 1c 40 67 3f 49 9f c8 bc d9 e8 46 bd c7 46 d5 3e
       0.903322 -0.024490016 -0.048561905 0.4165556
0000f0 68 55 03 3f cc 28 29 bc 56 71 6e bf e1 46 a0 3f
       0.51302195 -0.010324668 -0.93141687 1.252163
000100 3f 4a 60 3f 25 77 21 3f 6e ce 40 3f d1 e5 a6 bd
       0.8761329 0.63072425 0.75314987 -0.08149303
000110 f9 94 3f 3f 7b 9b 6b bf e5 0b 08 bf 65 81 aa 3e
       0.7483669 -0.9203412 -0.5314315 0.33301845
000120 7b fb 88 3e c3 ff 7d 3e 3e fa 07 bf f3 1e 6b be
       0.26754364 0.24804597 -0.53116214 -0.22961025
000130 b4 36 ab bd 66 de 85 bd 53 a1 48 3f 9c d3 c2 be
       -0.08360043 -0.0653656 0.7837116 -0.3805207
000140 19 81 96 3f 4e 73 2f bf d3 02 83 bf b3 40 98 be
       1.1758147 -0.68535316 -1.0235237 -0.29736862
000150 5c b8 37 bf 4f e8 75 bd cd c4 64 3f 4b 57 1c c0
       -0.71765685 -0.060036 0.89362794 -2.442828
000160 e0 a1 3d bf 77 6a 47 bf f7 cc 07 3f 55 5f ad 3e
       -0.74075127 -0.7789683 0.53047127 0.33861795
000170 97 2e ad 3e 79 01 3e be a8 5f 34 bf 87 c4 0c 3f
       0.33824608 -0.1855525 -0.7045846 0.54987377
000180 12 fc 14 3f 2b f1 59 3d 0b 4e 67 bf 0d d5 07 3f
       0.5819713 0.05320851 -0.9035346 0.53059465
000190 cb 42 0e 3f db f2 02 bf ce 18 7f 3f 2d 51 e5 3e
       0.5557067 -0.5115182 0.99647224 0.44788495
0001a0 1f 51 5d be 39 af 81 be 34 31 f4 3e 66 db 6b 3f
       -0.21612976 -0.25328997 0.4769379 0.9213165
0001b0 4d 3c c7 3e 31 90 d5 3d 5a 0b 82 bf ce 8f 9c bf
       0.38913193 0.10427893 -1.0159714 -1.2231386
0001c0 4f f0 89 3f c2 93 7d 3e fc f4 ae be 2e 44 0c 3e
       1.0776461 0.24763396 -0.34171283 0.13697883
0001d0 3d bb fe 3e b1 bd 14 bf 9a 74 6c 3e f8 e8 98 bd
       0.49752226 -0.58101946 0.23091355 -0.0746631
0001e0 86 ba 6e 3f c6 0c 34 3e e0 be 22 bf 4a b2 a0 be
       0.9325336 0.17582998 -0.635725 -0.31386024
0001f0 71 59 43 be ca de 53 3f 63 b9 28 3f 86 db 95 3f
       -0.19077088 0.82761824 0.6590788 1.1707618
000200 5e b9 dd be 18 af d6 be ad 83 1f 3e 0e a7 8f be
       -0.43305486 -0.4193046 0.15577574 -0.2805714
000210 f0 33 91 3d 8e 94 d1 3e cc ec 57 bf b5 85 a1 be
       0.070899844 0.4093365 -0.843457 -0.31547323
000220 98 17 1d 3f fe 45 83 be 93 cb 7f be db b1 7a 3d
       0.61364126 -0.25639337 -0.24980001 0.061204772
000230 c9 c6 02 bf e1 e9 2f 3f e2 82 0b 3f 7f 01 fd be
       -0.5108457 0.68716246 0.54496586 -0.49415204
000240 da de 49 3e 90 80 24 3e 2b c0 11 3f 2d bd 41 bf
       0.19713917 0.16064668 0.5693385 -0.75679284
000250 80 47 a2 3e 16 9a 8e bd 3f 05 ba bd d7 cd bd 3e
       0.31695175 -0.06962983 -0.09083032 0.37071106
000260 61 8d 40 be 75 36 05 be 54 50 95 3d 66 e8 43 3d
       -0.18803932 -0.13009055 0.07290712 0.047829054
000270 c5 fc 74 3e 9d c5 82 bf 50 21 96 3e b3 84 34 3e
       0.23924549 -1.0216557 0.2932229 0.17628746
000280 9e 73 38 3e ad a2 4b bd a7 5b 5f 3e 7c e3 24 bf
       0.18012854 -0.049715687 0.21812306 -0.64409614
000290 9c 48 98 3e 21 ce d5 3d 5c 35 df be 56 a6 52 bf
       0.29742897 0.104397066 -0.43595397 -0.8228506
0002a0 72 37 98 be 29 bd 04 40 49 1d e4 3e 49 61 91 3d
       -0.297298 2.0740454 0.44553593 0.07098634
0002b0 30 2b 12 3e 4a 84 0c bf 60 3e 43 3f 9a 9f 68 be
       0.14274287 -0.5488936 0.7626705 -0.22717133
0002c0 42 1b 75 3f 9f 4b 2f 3f 98 d9 6b bf 84 c1 b2 be
       0.9574472 0.68474764 -0.92128897 -0.34913266
0002d0 4d 28 3b bd b2 cf ec 3e fb 3f 53 3f a2 f4 35 be
       -0.04569273 0.4625221 0.825195 -0.17769101
0002e0 a9 17 46 bf c6 ac 3c 3f eb 1d 6f 3f 5e a7 9b be
       -0.7737985 0.7370113 0.93405026 -0.3040113
0002f0 08 6a 19 3f 5d a7 c9 3e 64 37 4e be bc 9d b5 3f
       0.59927416 0.393855 -0.20138317 1.4188762
000300 7b d1 12 bf f3 63 74 be 8a af 5c bf 01 8f 85 bf
       -0.5735089 -0.23866253 -0.8620535 -1.0434266
000310 7c 13 2c bf e8 8c 89 3e a4 30 7c 3f ac e2 e6 be
       -0.6721723 0.26865315 0.9851172 -0.45094812
000320 20 5e 78 3e 29 85 45 3e 52 d1 cd bd 64 42 8e bd
       0.24254656 0.19289078 -0.1004969 -0.06946257
000330 08 2f 57 3f 35 4a 11 be d9 77 a1 bf 70 36 d9 be
       0.8405614 -0.14188464 -1.26147 -0.42424345
000340 73 5a 98 3f c7 3d 98 be d3 d8 3b bf 07 b6 cc be
       1.1902603 -0.29734632 -0.7337772 -0.39982626
000350 64 4f eb bd 53 cb 13 3f 35 98 12 bf d7 9d 1c 3f
       -0.11489752 0.57732123 -0.572635 0.61178344
000360 5b 0c 66 3c 8b 0d 3c bf b3 34 b4 3e 6c 33 8b bd
       0.014041032 -0.73458165 0.35196456 -0.06796917
000370 aa c1 92 be 68 70 d8 be b2 8c 3d 3f 0f b2 26 3d
       -0.2866338 -0.4227326 0.7404281 0.040697154
000380 53 c5 1b 3f af c1 f3 3d 94 71 68 bf ab b2 b9 be
       0.6084797 0.119021766 -0.90798306 -0.36269125
000390 4f a2 09 3f 2d 5a 11 3f 03 4c 45 3f e2 4c 69 be
       0.5376329 0.5677822 0.7706911 -0.22783235
0003a0 ec 31 f9 bd a2 8b fa 3e 22 c4 2d 3e 43 ef bb 3e
       -0.12167725 0.48934656 0.1696935 0.3670598
0003b0 71 7a 8e 3f 60 9f 7e be 95 fd 0e be 18 23 21 bf
       1.1131116 -0.24865484 -0.13963921 -0.62944174
0003c0 f3 55 02 bf 43 57 0f 3e 95 97 8d 3f b9 54 ed be
       -0.509124 0.13998131 1.1061884 -0.463537
0003d0 e8 86 d8 be 1f 26 0b 3e 1e d9 b9 be b4 06 ad bd
       -0.42290425 0.13588761 -0.3629846 -0.08448544
0003e0 88 69 7a 3d ca a4 2f 3f 83 f8 1c bf ac 9f 4d 3f
       0.0611358 0.68610823 -0.613167 0.80321765
0003f0 c3 c3 01 bf 40 61 36 3e 61 23 ad 3d 6a c6 58 bf
       -0.50689334 0.17810535 0.084540136 -0.84677756

weight f4 [18, 49]
000000 01 87 d7 3e bc 97 8a 3f a9 a0 0e be 7a 43 bd 3f
       0.42095187 1.0827556 -0.13928474 1.4786217
000010 0a 9e e0 3e 62 7e 5c 3d ff 28 67 3e aa 1b 75 3f
       0.43870574 0.053831466 0.22574233 0.95745337
000020 50 b7 c2 3f bc 5d 27 3f 32 d8 13 bf 91 bf ae 3f
       1.5212193 0.653774 -0.5775176 1.3652211
000030 60 a2 02 3f aa f7 9d 3f ee 4e 2c 40 2c d2 9c 3e
       0.51029015 1.2341206 2.6923175 0.30629098
000040 97 e1 1d 3e cf 7d ca 3f 44 27 31 3f e4 49 16 3f
       0.15418087 1.5819644 0.6920054 0.587065
000050 c8 92 58 bb 82 d7 0a 3e 58 10 fa be 3d f9 f4 bf
       -0.0033046473 0.13558772 -0.48840594 -1.9138561
000060 e3 fb 2f 3e 2c d0 26 3f 19 fa 8a 3f 30 43 d4 3f
       0.17185931 0.65161395 1.0857574 1.6583004
000070 97 3c a9 be 7e c5 0a 3e ce 54 60 be 59 a2 84 be
       -0.3305404 0.135519 -0.2190735 -0.2590511
000080 2d 2a c1 3f 89 71 34 bf b2 26 14 3e 50 8e db bf
       1.5090996 -0.7048574 0.14467886 -1.7152805
000090 fb d4 10 3f 3f 05 54 be 0d 92 ab 3f b6 8d 1c 3f
       0.5657498 -0.20705126 1.3403946 0.61153734
0000a0 b1 13 01 40 d4 e3 92 3f ec 40 48 bf 14 ee 8b 3f
       2.0168269 1.1475778 -0.7822406 1.0932031
0000b0 36 ce 27 bf 17 74 94 3f 8a fc 20 3f 96 02 3c 40
       -0.6554903 1.1597928 0.62885344 2.9376578
0000c0 cc e0 df 3f 0f 26 68 bf f0 d7 96 bf b0 73 b4 bb
       1.7490478 -0.9068307 -1.1784649 -0.005506955
0000d0 fe 7c cf bf fe d1 16 bf ee 13 0f 3f 58 de 83 be
       -1.621002 -0.5891417 0.55889785 -0.25755572
0000e0 1b 3b 4e bf 16 2b c6 bf 96 8b 69 be 2a b3 43 be
       -0.8055894 -1.5481899 -0.22807154 -0.19111314
0000f0 2b 1b fd bf a4 40 b5 be 7d de 38 bf 2b 20 0e c0
       -1.9773916 -0.3540088 -0.7221449 -2.2207134
000100 9a 3a 00 be 09 ee 56 3f 82 e6 7b bf 53 ac b0 be
       -0.12522355 0.8395696 -0.983986 -0.34506473
000110 ab b6 01 bf 9e 01 74 be 51 e1 c9 be 60 5d ae 3e
       -0.50669354 -0.23828742 -0.39429715 0.34055614
000120 3e a6 ca 3f 43 ca 03 bf 5a 81 87 3d a1 e3 08 c0
       1.5831983 -0.514805 0.06616469 -2.1388934
000130 13 f2 9e bf da d8 0c bf f1 5d 30 bf 45 21 ff be
       -1.2417625 -0.5501839 -0.68893343 -0.4983007
000140 3a 21 c0 3e 70 bc c2 bf 2e b5 c0 3d 29 e1 4f 3e
       0.3752535 -1.5213757 0.09409557 0.20300736
000150 31 53 bd bf 9a 3d 43 bf 93 5a 9e be e2 af a4 bf
       -1.4791013 -0.7626587 -0.30928478 -1.2866175
000160 47 64 0e bf 08 c4 33 c0 5c b3 9a bf d0 9a f3 3e
       -0.5562176 -2.8088398 -1.2085986 0.4757905
000170 bc 39 00 c0 91 ed 71 3f e7 65 92 3d c0 06 8c 3e
       -2.0035238 0.9450312 0.071483426 0.273489
000180 ea 7b 23 c0 9b fb 18 c0 9f c3 a7 3d ab f3 8d bf
       -2.554438 -2.3903568 0.08191609 -1.1089987
000190 c6 4b 1b be 9f c3 2d be 0b d8 d1 bc 27 96 17 3f
       -0.15165624 -0.16969155 -0.025615713 0.5921349
0001a0 14 27 6f bf 45 75 8b bf af 8a 29 bf 4a 44 7e 3f
       -0.93419003 -1.0895163 -0.6622724 0.9932295
0001b0 ac 99 82 3d 87 04 06 3f 03 23 b7 bd 21 27 29 bf
       0.06376967 0.5235066 -0.08942225 -0.6607533
0001c0 c5 b3 07 c0 41 7e 04 bf ca 0f aa be df 58 69 3e
       -2.1203473 -0.5175515 -0.3321517 0.22787808
0001d0 2a a4 3b 3f 16 65 89 bf 98 e0 3e be 9a b8 8d 3e
       0.7329737 -1.0733974 -0.18640363 0.27679902
0001e0 38 c8 8d 3f 61 10 23 3f 40 73 e0 be 5b 8c c8 bf
       1.1076727 0.6369687 -0.4383793 -1.5667833
0001f0 7b 06 0b 40 46 de 81 bf e8 53 30 bf 3f 1e 3d 3f
       2.1722705 -1.0145957 -0.6887803 0.73874277
000200 5d 04 16 3d ae d8 aa be 87 75 d8 be 84 c6 8f bf
       0.036625255 -0.33368438 -0.42277166 -1.1232457
000210 50 3f 51 bf a4 91 cc 3f 60 f8 0f 3e 5d c1 4e 3f
       -0.8173723 1.5981946 0.14059591 0.807638
000220 38 64 83 bf 26 f8 93 bf 9d ac 6f bf 58 65 4c bf
       -1.0264959 -1.1560104 -0.9362276 -0.7984214
000230 c9 6b 8b 3e df d8 c4 be cb 9e c6 3e 7a d4 e6 be
       0.2723067 -0.3844671 0.38793024 -0.45083982
000240 06 f1 dd be e5 22 36 40 0e af 1a bf 03 92 56 bf
       -0.4334795 2.8458798 -0.6042336 -0.83816546
000250 6f 26 c3 bf 01 28 12 bf e2 b7 d1 bf 5a 3b 42 bf
       -1.5246104 -0.5709229 -1.6384242 -0.75871813
000260 1c da 32 3f b0 ce 42 3d 84 27 a8 bf c2 e7 4b bf
       0.6986406 0.047560394 -1.3137059 -0.7965051
000270 cc 2a ee 3d 82 51 02 bf 88 77 e5 bf 79 9d 01 bf
       0.116292566 -0.5090562 -1.7927103 -0.5063091
000280 cf f9 10 bf d3 58 e2 bf 8e 80 01 bf 3c 4a 79 be
       -0.5663118 -1.7683357 -0.50586784 -0.24344724
000290 e2 4d f5 bf 6c fb a4 be d2 cf 4a bf 90 98 13 be
       -1.9164393 -0.3222307 -0.7922336 -0.14413667
0002a0 2b ae c1 be f1 0b 8c bc 9a 59 fe 3f 98 7b 73 bf
       -0.37828192 -0.017095538 1.9871094 -0.95110464
0002b0 e6 0b c5 be 27 89 a8 bf 03 36 0b c0 b6 ee 44 bf
       -0.3848564 -1.3166856 -2.1751716 -0.76926744
0002c0 97 1e 75 bf 3f 44 03 c0 49 8a d3 3d 4a 84 e0 bf
       -0.957498 -2.0510404 0.1032911 -1.7540371
0002d0 60 12 e8 be 11 19 a7 be 51 36 7b bf 77 88 12 bf
       -0.4532652 -0.32636312 -0.98129755 -0.5723948
0002e0 09 4a 90 3e 60 fc b9 bf 38 bc e9 bf bf 12 11 c0
       0.28181484 -1.4530144 -1.8260565 -2.2667692
0002f0 1a 8c db bf 56 3c 78 3f 2e f9 86 bf 28 2d 93 3f
       -1.7152131 0.96967065 -1.0544794 1.1498156
000300 e7 83 e8 be bf 9d c8 be 61 77 17 bf e3 ee 98 c0
       -0.45413134 -0.3918285 -0.5916653 -4.779161
000310 54 2e 7b bd 8c a3 88 3f de 5d 31 3f 84 42 93 3f
       -0.06132348 1.067491 0.69283855 1.1504674
000320 d8 79 09 bf be 8e dd 3e 1d 36 8e be 85 8f de 3e
       -0.53701544 0.43272966 -0.2777566 0.43468872
000330 23 9b 74 3f 6c 90 05 be bf a4 35 be 06 32 d4 3f
       0.9554922 -0.13043374 -0.17738627 1.6577766
000340 66 03 22 3f b9 b3 31 bf 3b 44 3c 40 48 ce 6f 3f
       0.63286436 -0.6941486 2.9416645 0.93674135
000350 0c 14 3b 3e b1 ea 05 40 90 4f 72 be fd 4c 93 bf
       0.18269366 2.0924494 -0.23663163 -1.150787
000360 f3 89 d7 3e a0 d7 78 3e 55 28 85 3e 33 81 d2 bd
       0.42097434 0.24301004 0.26007333 -0.10278549
000370 08 99 1d 3d 1e cb bc 3e 1c 1b d4 bf 24 02 2e 3f
       0.03847602 0.36873716 -1.6570773 0.67972016
000380 91 7e c2 3e 8f 75 6b bf ce ce 96 3e 95 94 87 be
       0.37987188 -0.91976255 0.29454654 -0.26480547
000390 1a 72 a2 3f ad b3 43 bf 50 72 59 3f cd 5e 16 c0
       1.2691071 -0.7644604 0.8494005 -2.3495362
0003a0 64 5a ea 3d 05 b7 77 bd a9 4a 7d 3f d5 8b be 3f
       0.11443022 -0.060477275 0.9894205 1.4886423
0003b0 95 42 bc 3f 60 60 a3 3f 91 16 9a be 5a 8d 69 3f
       1.4707819 1.2763786 -0.30095342 0.9123131
0003c0 16 83 9a bc 85 29 7a 3e 05 9a 70 3e 24 c2 2e c0
       -0.018861335 0.24429901 0.23496254 -2.7305994
0003d0 db 53 14 3c d9 19 92 3d 36 a0 45 3f 32 60 3e 3e
       0.009053196 0.07133836 0.7719759 0.18591383
0003e0 46 02 ee 3e 48 84 9f 3e f7 eb 85 3e a7 5b 30 be
       0.4648611 0.3115561 0.2615659 -0.17222463
0003f0 22 5b 9b 3f a7 96 ea 3e e2 65 fa 3e 41 a8 6c 40
       1.2137187 0.45818064 0.48905855 3.6977694

bias f4 [18]
000000 da 3b 36 40 46 80 06 c0 64 24 11 bc 74 fb ce bf
       2.847403 -2.1015792 -0.008858774 -1.6170487
000010 d4 8b 5b 3f 35 2a cc bf 89 2e 8e 3e f6 6b 1e 40
       0.85760236 -1.595038 0.27769879 2.4753394
000020 1f 22 a3 3f 42 f1 89 3e 9e f5 24 c0 eb 67 bc bf
       1.2744788 0.26941878 -2.5774913 -1.4719213
000030 05 52 bf bf 08 a2 29 c0 f5 9c cf 3f 34 cf 26 40
       -1.4946905 -2.6505146 1.6219774 2.6063967
000040 5f b0 27 40 4a d5 cc 3f
       2.6201398 1.6002591
