2WL_link_pred/checkpoint/archive/20221214_004756/2WL_state_dict_100_20_0.pt (torch, 147647 bytes, 33 tensors)

lin1.1.0.weight f4 [96, 3]
000000 ed 79 cf 3e a8 40 b9 3c d6 46 7f bd e2 6e ea 3e
       0.4052271 0.022613838 -0.062323414 0.45787722
000010 6c 3d ae be e4 72 a0 3e 79 e0 f7 3e 02 28 cb be
       -0.34031236 0.31337655 0.48413447 -0.3967896
000020 aa e6 97 3e 7a 16 5c 3e 2f 3a f2 3d a7 0e d8 bd
       0.2966817 0.21492949 0.11827504 -0.1054967
000030 84 34 2d be 65 c4 90 be 56 f5 26 be 6b be 4a bd
       -0.16914564 -0.28274837 -0.16304526 -0.049498003
000040 18 9a 23 be 60 8b 16 bf e0 34 1a be c2 46 8d bd
       -0.15976751 -0.5880642 -0.15059233 -0.068982616
000050 19 d0 80 3e 22 bf b4 3e 77 e4 7b be f2 b7 d4 3e
       0.25158766 0.35302073 -0.24598871 0.4154659
000060 d9 f2 cf bd 7e 1f 54 3d 0e da ed 3d 29 6e 07 3f
       -0.101537414 0.051787846 0.11613856 0.52902466
000070 a5 fe 5a be 8d 2b 42 be 42 a7 6e 3d 8a 1f fa bd
       -0.21386202 -0.18961926 0.05826498 -0.12213047
000080 87 ab ec be 37 13 fd be b7 db 42 3e f3 a2 fe 3e
       -0.46224615 -0.49428722 0.19029127 0.49733695
000090 eb f3 10 bf 81 17 de be ff d9 8e 3e 33 34 0a 3f
       -0.5662219 -0.43377307 0.27900693 0.539859
0000a0 28 da 5a 3e 53 5a 04 3f df 45 90 be 7d 4e dd be
       0.21372283 0.51700324 -0.28178307 -0.43223944
0000b0 1f cd 0f bf 4f 90 bf be 7c 72 ab 3e dc 33 8a 3d
       -0.56172365 -0.37414786 0.33485782 0.06748173
0000c0 08 33 b1 3e a9 f7 04 bf 38 39 5a be 41 ac fc be
       0.34609246 -0.519404 -0.2131089 -0.4935017
0000d0 c6 44 23 3f aa 16 c5 3d 34 b9 93 3e a9 1c 14 3e
       0.63776815 0.096234635 0.28852236 0.14464058
0000e0 68 da ef be a5 f4 9b 3e f8 e6 8b 3d 27 82 47 be
       -0.46846318 0.30460086 0.06831163 -0.19483243
0000f0 c1 b6 ee bd 45 2c 1d 3d 03 19 53 3e 8c 9a 56 3d
       -0.11655951 0.038372297 0.2061501 0.05239348
000100 ef 1b 71 be 31 43 a3 3e 93 ff 15 3f c5 57 c3 3e
       -0.23545812 0.318872 0.585931 0.381529
000110 d7 26 19 3f 32 c8 b6 3e 44 46 e2 be 07 de 0a 3f
       0.5982489 0.35699612 -0.44194233 0.54245037
000120 af 99 a8 be 57 d9 1a be fa 9a 14 3e d3 cd b4 3c
       -0.3292975 -0.15121971 0.14512244 0.0220708
000130 bc 52 f7 3e 5f 35 be 3e 11 0f b5 be 66 3f c6 3e
       0.4830531 0.37150094 -0.35363057 0.38720244
000140 90 aa d1 3e 2d e8 01 3e a0 2d 0b bf 4c 54 93 be
       0.4095044 0.12686224 -0.54366493 -0.2877525
000150 7f cd 06 3f 29 7e 4b be a8 c4 7a 3e 3f 9f fb bd
       0.5265731 -0.19872345 0.24489081 -0.12286233
000160 46 ac ef be 2a 7e d7 be f8 89 a3 3e 1a fe 09 be
       -0.46811122 -0.42088443 0.319412 -0.13475838
000170 c5 7f c8 bc bb 42 ba 3c 3c 23 bb 3c b5 e5 ba 3d
       -0.024474988 0.022736898 0.02284395 0.091258444
000180 5a 22 8d bd 5c c3 f6 be fd 39 e3 3e 92 29 45 be
       -0.06891318 -0.48195922 0.4438018 -0.19254139
000190 10 f1 5e be 5e 2b 82 3e dd 4e 41 bd 1f 1f 09 bd
       -0.21771646 0.25423712 -0.04719435 -0.033476945
0001a0 a8 fa 6d bd 61 88 31 3b 7d fc 26 be 9a 87 94 3e
       -0.058100373 0.0027089345 -0.16307254 0.29009706
0001b0 0e 5a b0 bd 76 56 19 be 2b 31 80 3d 05 dd 93 3e
       -0.086109266 -0.14974388 0.06259378 0.28879562
0001c0 d7 46 63 be d9 6c 1b bf 75 9d 6a 3d df 69 31 3e
       -0.22194992 -0.60712963 0.05727907 0.17325543
0001d0 11 d6 a9 be f9 22 e3 be e0 07 b8 3e ca ee a5 3d
       -0.33171132 -0.4436262 0.35943508 0.08102186
0001e0 10 55 d2 3e d9 61 40 3e c9 1f 0f be d9 89 b8 be
       0.41080523 0.18787326 -0.13976969 -0.3604267
0001f0 3f 40 dd 3e f7 fc 76 3e 1b ce ca be a8 0b 17 3f
       0.43213078 0.24119936 -0.3961037 0.5900216
000200 9a ce f1 be 0b 15 46 3e 40 4c f2 bc c4 6b f8 3e
       -0.47227937 0.19343965 -0.029577374 0.4851972
000210 31 1f e3 bd fc f2 7a 3e c3 48 ef 3d e6 2f dd 3e
       -0.11089934 0.24506754 0.116838 0.43200606
000220 1b de 42 be b4 91 10 bf 07 76 84 bd e3 08 e6 be
       -0.19030039 -0.56472325 -0.064678244 -0.44928655
000230 cc 17 ef 3e 6b 54 c5 3e cb b8 25 bb a5 ab ab 3e
       0.46697843 0.38540968 -0.0025287147 0.33529392
000240 33 ac 72 bc 8f c0 07 3e 0d 03 6c 3e 24 35 74 3e
       -0.014811563 0.13257049 0.23048039 0.23848397
000250 3b de 8a 3e 74 8d e0 3e 6b d2 66 3c 34 9a c4 3e
       0.27122673 0.4385792 0.0140882535 0.38398898
000260 8f 16 14 bf 7a 70 63 3e a8 76 0b 3d e0 78 97 bc
       -0.5784692 0.22210875 0.034048706 -0.018490255
000270 a8 66 0a bf c5 cb a2 be c5 58 ee 3e ff a6 9d be
       -0.5406289 -0.3179609 0.465521 -0.3079147
000280 a1 46 15 bf 74 99 0c be 96 02 12 3e 5b e0 2c be
       -0.58310896 -0.13730413 0.14258799 -0.1688246
000290 b6 f1 18 3f c9 d9 14 bf 17 80 01 3f b7 62 31 be
       0.5974382 -0.58144814 0.50586075 -0.17322813
0002a0 c4 e1 2a 3e 42 3b 0b be c7 31 83 3e a2 51 13 3f
       0.16687685 -0.13596824 0.25623915 0.57546437
0002b0 85 b2 7b be d7 b3 64 be e4 ce 92 3e 24 68 bd bc
       -0.24579819 -0.22334228 0.2867347 -0.023120947
0002c0 78 d5 cf 3d a2 48 d6 be d5 6a a5 3e 9b 9d e6 3e
       0.10148138 -0.4185229 0.3230807 0.45042118
0002d0 0f 65 fa be 8f e8 a1 be 66 8c ba 3e a8 54 0e bf
       -0.48905227 -0.3162274 0.3643524 -0.55597925
0002e0 92 6a 92 3e ff 13 a1 be 86 9a e8 be ba 22 6f be
       0.28596932 -0.31460568 -0.45430392 -0.23353091
0002f0 85 35 6c 3e e0 e3 ad 3e 96 34 91 3e 8c f0 12 bd
       0.23067291 0.33962917 0.28360432 -0.035873935
000300 b3 a7 a0 3e 14 37 ba 3e 94 4e 9a be e1 d1 99 be
       0.31377944 0.36370146 -0.30138075 -0.30042937
000310 0e ed 13 3f 03 4d 90 3e 8c 75 00 bf 85 97 b7 3e
       0.5778359 0.28183755 -0.5017936 0.35857788
000320 81 a2 f3 be 6c d4 9b 3e 1f 8c 31 be 55 94 e8 3e
       -0.47584918 0.30435503 -0.17338608 0.45425668
000330 c0 f1 71 bd 61 10 ae 3e ab b4 1b 3e 57 53 ee 3c
       -0.05906844 0.3399687 0.15205638 0.029092474
000340 d0 1a 09 3d 6f 62 9a 3e 85 46 1b 3e 7c 68 00 bf
       0.033472836 0.30153224 0.1516362 -0.5015943
000350 4d a8 02 bf bc 91 21 3c f3 31 80 3e 1c cf 0b be
       -0.51038057 0.009861406 0.25038108 -0.13653225
000360 78 36 d6 be 28 4b b1 be 3d f5 23 bf f2 99 e5 be
       -0.4183843 -0.34627652 -0.6404608 -0.44844013
000370 0c d0 18 3f e5 71 f6 3e f7 64 ae 3e 8b e0 f5 be
       0.59692454 0.4813377 0.34061405 -0.48022875
000380 75 db 2d be 18 d2 9c 3d 47 43 39 3e 4f 07 8a be
       -0.16978247 0.0765726 0.1809207 -0.269587
000390 6f a7 5e 3e ff 25 0d 3f f9 c2 87 3e 30 91 dc 3e
       0.21743558 0.551361 0.2651594 0.4307952
0003a0 a2 15 dc 3d d9 7f 02 bf 9f e2 9f be df 06 67 3e
       0.10746314 -0.5097633 -0.31227586 0.22561215
0003b0 58 f7 c9 3d f8 dd d3 bb 53 fb 46 3e 6c 99 cc 3d
       0.0986163 -0.0064656697 0.1943181 0.099902004
0003c0 29 1c c0 3d 66 d8 e1 3d d0 8f 13 be d7 e1 58 bd
       0.09380371 0.11027603 -0.14410329 -0.052949753
0003d0 4d 0d d9 3e 0f b2 d5 3d 43 56 26 3e 2f 08 ec 3e
       0.4239296 0.104343526 0.16243844 0.46099994
0003e0 cb a7 17 3d ad ae ce 3d 5e e6 0c be fd 9a fd be
       0.037025254 0.100919105 -0.13759753 -0.4953231
0003f0 ca e8 44 be 73 28 06 bf 73 ac cf be 1b 76 fe 3e
       -0.19229427 -0.5240547 -0.40561256 0.49699482

lin1.1.0.bias f4 [96]
000000 98 a1 02 3f 9a 3c a5 be 8f 97 a5 3c 17 94 8d be
       0.5102782 -0.32272798 0.02021387 -0.27652046
000010 6f 58 dd 3e d9 33 2c 3e f6 fe 76 bd 16 ce 9e 3e
       0.43231532 0.16816653 -0.060301743 0.31016606
000020 cb 11 03 bf 43 a6 31 be a2 98 8e bd 7b 6a c8 3e
       -0.51199025 -0.1734858 -0.06962706 0.39143738
000030 86 61 a4 be 8d 7c bb 3e 48 5e 49 3d 5d ce 05 3f
       -0.32105654 0.36618462 0.04916218 0.5226801
000040 98 3d f9 3e 9a de 89 be 5c 99 e7 3e 38 be 0c bf
       0.48679805 -0.26927644 0.4523419 -0.5497775
000050 ae 7b a4 be 05 7c 67 3e 8e 32 c3 bd 20 70 87 3e
       -0.3212561 0.22605903 -0.09531127 0.26452732
000060 00 d7 54 be b8 7d 02 bf f2 71 c6 be 5c 8e 18 bd
       -0.20785141 -0.5097308 -0.38758808 -0.03724514
000070 0b ba 36 be 62 16 4e 3e 19 4c b0 3e 6f d0 ee be
       -0.17844407 0.20125726 0.34433058 -0.46643397
000080 ad 85 c7 3e 59 1a e7 3d 9d d9 71 be 14 5f e6 3e
       0.38969174 0.11284322 -0.23618169 0.44994414
000090 b2 a9 fa 3e 51 ba 61 be c9 1d 31 be ee f2 14 3e
       0.48957592 -0.2204373 -0.17296518 0.14545795
0000a0 77 c1 b4 be ab 2f c9 be a8 f9 7b 3e 01 35 7f 3e
       -0.35303852 -0.3929418 0.24606955 0.24922563
0000b0 bb f1 c9 be 34 31 52 3e 3f dc 0b 3d df 3e bc 3e
       -0.39442238 0.20526582 0.03414559 0.36766717
0000c0 00 e6 f2 be 9b e5 e4 3d f7 c8 11 bf e3 56 6b bd
       -0.474411 0.11176606 -0.56947273 -0.05745591
0000d0 85 bf e3 3d e9 af 86 bd a5 ae 30 3e 81 df 0c bf
       0.11120514 -0.06576521 0.17254122 -0.5502854
0000e0 87 b7 da 3e 92 14 f3 3d 35 f7 f3 be 3b fb 32 3e
       0.42718145 0.11869158 -0.47649541 0.1747865
0000f0 4c 7f 73 be 96 74 ed 3d 59 fd 9d be ae f0 a4 3e
       -0.23779029 0.11594503 -0.3085735 0.32214874
000100 0f 00 80 3d 65 19 5b be 9c a3 f4 3e 08 91 27 3e
       0.06250011 -0.21396406 0.47781074 0.16363919
000110 fb b8 a5 be d6 17 3c be ab fe dd 3d c5 40 5a be
       -0.3236769 -0.18368468 0.1083959 -0.2131377
000120 a3 14 24 be da 0d 96 3e 15 3a a1 3e 8e 14 b0 3e
       -0.16023497 0.29307443 0.31489626 0.34390682
000130 5e 72 b3 3e 4e 84 b6 be 26 cc 05 bf d8 da 10 3e
       0.35048193 -0.35647815 -0.5226463 0.14145982
000140 bf d9 44 3e eb e9 b5 bc 0b 12 7c bd 89 c0 60 3e
       0.19223689 -0.022206267 -0.061540645 0.21948446
000150 bb 3e c4 be 9a 26 aa be 41 a6 f3 3e cf 05 60 be
       -0.3832911 -0.33232576 0.4758778 -0.21877216
000160 e9 77 aa be b1 18 1a bb bf 39 dd be 9d 83 10 bf
       -0.3329461 -0.0023513252 -0.4320812 -0.56450826
000170 ec 17 ff bc c9 bc f2 3e 82 f5 0e 3f e0 be 08 bf
       -0.031139337 0.47409657 0.55843365 -0.5341625

conv1s.0.modlist.0.bias f4 [96]
000000 45 43 a7 bc 61 a4 1a 3d 88 6d 44 bc 90 38 b6 3c
       -0.020417819 0.03775442 -0.011989005 0.022243768
000010 5d f2 70 3d 50 f6 7a 3c 55 9c e2 bd 2f 64 ec bd
       0.058824886 0.015317515 -0.11064974 -0.11542546
000020 01 19 ab bd 46 24 79 be ee bb 8e bd 3b 53 d0 bc
       -0.083543785 -0.24330243 -0.069694385 -0.025430312
000030 ff bb 8c bd 4b 5d 93 bd 16 71 c9 bd a0 70 b1 bd
       -0.06871795 -0.071955286 -0.098360226 -0.0866406
000040 63 10 7e 3d c0 e5 4e 3c 89 aa cb 3c fd 33 40 3c
       0.062027346 0.012628019 0.024861591 0.011731145
000050 a1 f5 c7 3c 32 be 3b 3e cc a8 1e bd aa 78 4b 3d
       0.024409117 0.18334273 -0.038735196 0.04967562
000060 ab 3b de 3c 64 bb 6b 3e 5b 41 8f bd 17 d2 9f 3d
       0.027128061 0.23020703 -0.069948874 0.07803743
000070 bc 45 27 3e d3 59 02 3c f3 a7 9d bd 5c 88 d2 bd
       0.16335195 0.007955986 -0.076980494 -0.10279915
000080 1b 47 8b 3c 9e 9e 70 bd 6e f1 a2 3d 4d 6e 53 3d
       0.01700168 -0.05874502 0.07956205 0.051618863
000090 90 01 3e 3d 42 b3 a1 bc ca 1e 9b bd eb 9c aa 3d
       0.04638821 -0.019738797 -0.07574232 0.08330711
0000a0 2f a2 05 be c9 ed 65 3e 77 e4 82 bb 78 94 86 3c
       -0.1305015 0.22453989 -0.0039945203 0.016428217
0000b0 a0 3f d1 bb 0b f2 88 bd 2d cf 9a bd 85 bc d7 3d
       -0.0063857585 -0.06686791 -0.07559047 0.10534004
0000c0 7b 87 08 bd 9a af 0a 3e d8 e2 1e 3d 6d ce 6d bd
       -0.03333233 0.13543549 0.038790554 -0.05805819
0000d0 ed 7f a0 bd b3 ec fc bd 4d 62 4e 3d d6 4f af 3d
       -0.078369 -0.12349834 0.050386716 0.08560149
0000e0 0b 20 8f bd 28 9d 8f bc a5 b1 a2 3d 09 a9 f1 bd
       -0.069885336 -0.017530993 0.07944039 -0.11799819
0000f0 8a ac 7e bc a5 36 c4 3d 70 3f 17 bb 68 e8 2e 3a
       -0.015544066 0.09580735 -0.0023078583 0.00066722045
000100 e3 f9 f9 bc 02 80 a7 bc 65 66 0e bd 9a 6c b9 3c
       -0.030514663 -0.020446781 -0.03476562 0.022634793
000110 d1 b7 bd bd 2b ad 3e bc f7 05 64 bd fb 55 84 3e
       -0.09263576 -0.011637966 -0.05566975 0.25846848
000120 42 90 7b 3d 98 8e 9c 3d 7f 0c b3 bd d2 63 86 3d
       0.06141687 0.07644385 -0.08742618 0.06562008
000130 c7 81 0e bd 55 fc 22 be 00 07 fd 3c 14 b2 8b 3c
       -0.034791734 -0.1591657 0.030887127 0.017052688
000140 55 73 38 be 95 42 55 3e e8 04 7d bd 8d 9f df 3c
       -0.18012746 0.2082618 -0.061772257 0.02729776
000150 1b 2e 68 bc bc 16 d6 bc e3 06 32 3d c0 48 8d 3b
       -0.014171149 -0.026133887 0.0434636 0.004311651
000160 c2 d2 bb 3a 85 69 e3 3d 81 ba fe 3c 2d 6c db 3c
       0.0014329778 0.11104111 0.031094791 0.02678498
000170 2e 7d 34 3d 94 9f fe 3c ee 96 15 3e 55 ac 8f be
       0.044064693 0.031081952 0.14608356 -0.28061166

conv1s.0.modlist.0.lin.weight f4 [96, 96]
000000 53 f8 59 be e6 7e cd bd 03 37 f2 3d f9 2c e2 3d
       -0.21286134 -0.100339696 0.11826899 0.11043734
000010 8f 9b 93 3d d6 cc 4f 3d df 52 f8 3d 8c 3b ee bd
       0.07207405 0.050732456 0.121251814 -0.116324514
000020 8a 29 0f 3e 63 a2 b2 bd c3 b5 b1 bd 8b a1 f8 3d
       0.1398069 -0.08722379 -0.086772464 0.12140187
000030 c5 23 cd bd 22 3b db 3d 32 03 24 3e c4 e8 61 be
       -0.10016588 0.10704638 0.16016844 -0.2206145
000040 05 28 b0 bd 38 fd 20 be ec dd 02 3e 23 a0 8d ba
       -0.08601383 -0.15721595 0.12779969 -0.0010805171
000050 59 9b c9 3d be 64 68 3c b7 bd 97 3d 96 ca 3a be
       0.09844083 0.014184175 0.07409232 -0.18241343
000060 5a 27 23 be 02 02 4c 3d ee b1 c7 bd a7 0c d2 bd
       -0.1593298 0.049806602 -0.09750734 -0.102563195
000070 4d fa ba bd ab 0b 55 bd 1c 9e 6b be 52 27 c1 bd
       -0.09129772 -0.05201308 -0.23009533 -0.09431328
000080 ef a3 fe bd 14 ed 81 bd c1 4a 97 3c eb 9c 1f be
       -0.124336116 -0.06344047 0.018468263 -0.15587203
000090 0c e5 13 3e 02 99 02 be 19 aa ef 3d 21 b4 e5 3d
       0.14442843 -0.1275368 0.117023654 0.112159975
0000a0 c2 31 1b be 5a f7 33 3e 02 2b 27 be a6 7b b1 bc
       -0.151557 0.17574826 -0.16325 -0.021665405
0000b0 b1 fa 01 bd 87 7e 94 bd ef 0b e7 3d 32 18 aa bc
       -0.03173322 -0.07250696 0.11281573 -0.02076349
0000c0 d8 05 4b bc 6b 62 6a bd 5f 03 bf bc 3e e3 00 be
       -0.01239153 -0.057222765 -0.023317037 -0.12586686
0000d0 fd 31 b4 bc 61 c0 cd bd aa b9 38 3e 9a 9f 1a be
       -0.021996493 -0.10046459 0.18039575 -0.15099946
0000e0 eb fc fc 3d b8 03 04 3e 79 d9 01 3e 60 8c af bd
       0.12352928 0.12892044 0.12680615 -0.08571696
0000f0 63 fc 08 bd 8b cc de bd 1b 57 25 bd 29 c2 22 be
       -0.03344382 -0.10878857 -0.040366273 -0.15894379
000100 50 0e 19 3e 8a 2d 40 be 2a 80 11 3e c5 88 ce 3c
       0.14946866 -0.18767372 0.14209047 0.025211701
000110 fc 54 5c bd 1e a2 1b bd 02 f4 8d 3d 48 17 00 3e
       -0.053791985 -0.037996404 0.069313064 0.12508881
000120 c8 9e cb 3d 0f 0e c9 3b 74 75 10 3e 3b b5 d5 bd
       0.099423945 0.006135709 0.14107305 -0.104349576
000130 5e 88 97 3d 06 09 4e 3d 01 58 a5 bd 75 fd 1d 3d
       0.07399057 0.050301574 -0.08073426 0.038571794
000140 1a a1 ad bd 70 36 c9 3b 32 c5 45 3d 17 95 23 be
       -0.08477993 0.0061405227 0.048283763 -0.15974842
000150 79 a6 1d bd 01 20 b4 bd 71 da 01 3e 7b 29 f1 bb
       -0.03848884 -0.08795167 0.12680985 -0.007359681
000160 72 16 75 3e d0 fe 3c be c3 1e 58 3e f6 6a 55 3d
       0.23934343 -0.18456578 0.21105485 0.05210396
000170 98 94 de bd 4a a4 31 3d 8c 5c 83 3d 00 50 0b 3c
       -0.10868186 0.04336957 0.06414136 0.00850296
000180 db 87 14 3e 4c 2d ee 3d da 07 1c be 3a 1d e6 bd
       0.1450495 0.116297334 -0.1523737 -0.11236043
000190 4d e7 22 be 39 b0 90 3d 8c 36 16 be 23 60 20 3d
       -0.15908547 0.07064862 -0.14669245 0.039154183
0001a0 42 06 f5 bd 68 dc e4 3d 5b d5 2f 3d 44 0f 8e 3d
       -0.11964084 0.11174852 0.04292808 0.069365054
0001b0 3b 90 32 3e bb b3 43 be e7 93 d7 3d 8f 4d e0 bd
       0.17437832 -0.1911153 0.10526257 -0.10952293
0001c0 c8 5f dc bd f5 47 77 bd e1 5f 53 3e 3c 14 83 3d
       -0.10760456 -0.060371358 0.20642044 0.06400344
0001d0 b0 18 06 be 69 45 83 be d7 25 2b 3d b6 c3 ce 3d
       -0.13095355 -0.25638893 0.041784134 0.10095923
0001e0 3b ec 90 bc d0 69 db bd ef 94 24 3e 1f 3c 17 bc
       -0.017690768 -0.107135415 0.16072439 -0.009230643
0001f0 e8 30 a8 3d 17 bd 0e 3e 5f d3 ed 3c 70 ed 2d 3d
       0.08212453 0.1393932 0.029031454 0.042462766
000200 2c b9 12 3d eb 9a 90 bd 04 3e 16 be b2 d9 9a bd
       0.035821125 -0.07060798 -0.14672095 -0.07561053
000210 5a f3 3a be 86 2d 2d be a5 35 57 bd 7f fe e3 bd
       -0.18256894 -0.16911897 -0.052541394 -0.11132526
000220 3f af 26 be 41 0d 43 3e 43 cc 99 bd 0b 59 48 3d
       -0.16277789 0.19048025 -0.07509663 0.048913043
000230 e2 07 0f 3e 75 90 ee 3d 13 47 ab bd 86 97 0b be
       0.13967851 0.11648647 -0.08363166 -0.1363202
000240 ad 85 f6 bb 5b 08 b1 bc c4 12 89 bd a6 9e 5b bd
       -0.0075232596 -0.02161043 -0.066930324 -0.053618096
000250 6e b1 a4 3c 7e 51 ec bd 47 d2 20 3d e7 a8 f5 3d
       0.020104136 -0.11538981 0.039263036 0.11995106
000260 44 1e 04 3e ec 33 4d 3d e7 34 1d bd b7 c2 c9 bd
       0.1290217 0.050098345 -0.03838053 -0.09851592
000270 49 23 cc 3d e6 3e f2 bd de 29 a0 bc e8 16 50 3d
       0.099676676 -0.11828403 -0.019551214 0.050803095
000280 84 c1 2c 3d 9f d2 27 3d a8 06 6b 3e 59 44 8b 3d
       0.04217674 0.04097235 0.22951758 0.06800146
000290 29 98 ca 3d 6e 3c 25 be 6b e9 c7 bd 58 f1 09 bd
       0.098923035 -0.16136333 -0.09761318 -0.03367743
0002a0 14 bb ca 3d ae 1b 29 bc 35 7d 24 bd eb 4c d1 3d
       0.098989636 -0.010321541 -0.04015847 0.10219749
0002b0 29 84 7c bd f7 a4 1a be 48 3d 9d 3d a9 51 92 bd
       -0.061649475 -0.15101992 0.07677704 -0.07144482
0002c0 81 c8 5c 3d 36 5d 1c be 8b 41 05 3e 06 9c a6 bd
       0.053902153 -0.15269932 0.13013284 -0.08135228
0002d0 01 f8 26 bd 01 a9 92 bd 03 47 0a bb c2 ef 1a be
       -0.04076386 -0.07161141 -0.0021099455 -0.15130523
0002e0 6e 86 e9 bd ad ec a7 3c c8 a5 80 bd f5 94 ec 3d
       -0.114025936 0.020498598 -0.0628162 0.11551849
0002f0 34 3d 3b bd 52 70 f3 bd b1 af b2 3d 45 5a 95 bd
       -0.045712665 -0.11886658 0.08724917 -0.07292608
000300 0e 20 04 be 62 71 74 bd 1e 88 07 b9 49 1c 14 3e
       -0.12902853 -0.059678443 -0.00012925311 0.14463915
000310 ef 3e 14 be 5f 6d 65 3e 58 96 8e 3d 1e 9b 5e 3d
       -0.14477132 0.22405003 0.069622695 0.05434715
000320 9f 25 2b be 2c ec 32 bc 48 a1 6a 3d 4a 76 09 3e
       -0.1671357 -0.010920566 0.057282716 0.1342403
000330 73 b0 eb 3d 0b 82 ec 3d 8a 06 c5 bd 08 b7 dd 3d
       0.115082644 0.11548241 -0.09620388 0.10825926
000340 79 83 87 3d 67 76 08 be 9e d6 1b 3e 77 12 5c be
       0.06616873 -0.13326417 0.15218589 -0.21491419
000350 2c 5f cc bd ef 5a 4f bd 33 a9 21 bc d4 f6 99 3d
       -0.0997909 -0.05062383 -0.009867 0.07517782
000360 0c a7 a7 bd 90 07 04 be dd e7 c9 bd 86 51 c4 bd
       -0.081861585 -0.1289351 -0.098586775 -0.09585862
000370 ad b0 0c be 29 8b a9 3d 06 81 4c 3d 3e 03 60 3e
       -0.13739271 0.08278496 0.049927734 0.21876237
000380 d7 9e 0b 3e c5 a4 cb bd 06 cb 73 be e0 d1 8c 3d
       0.13634811 -0.09943537 -0.23807916 0.06875968
000390 19 24 a6 3d 13 57 12 3e b7 3d 05 be 96 92 3b ba
       0.08112354 0.14291029 -0.13011824 -0.0007155327
0003a0 0a 75 c5 3d d1 81 c6 bd 84 3e 94 bd f4 77 d7 bd
       0.09641464 -0.09692729 -0.072384864 -0.10520926
0003b0 4c 0b ae 3d a3 dc 45 bd 3b d9 09 3e d9 fb 12 be
       0.084982485 -0.04830612 0.13461773 -0.14353885
0003c0 d3 a6 69 bd a6 fc 67 3d fc ac 3a 3e d3 0d e6 3d
       -0.05704386 0.05663743 0.18230051 0.112331055
0003d0 d2 e7 df 3d 06 9d 85 3d 9d 7b 22 bc 8e 30 68 3d
       0.10932888 0.065240905 -0.009917167 0.05668693
0003e0 29 f6 86 3d 6c 82 eb bd a0 ef e2 bd 3a 4d 09 3d
       0.0658992 -0.114994854 -0.11080861 0.033520915
0003f0 a6 5d 92 3d c5 85 96 bd 59 0f ff bd 62 42 b8 3b
       0.07146768 -0.07349733 -0.12454099 0.005623148

conv1s.0.modlist.1.weight f4 [96]
000000 4a 97 7c 3f 3d 85 82 3f 9c e6 77 3f 02 a3 71 3f
       0.9866835 1.0196911 0.96836257 0.94389355
000010 75 5e 82 3f 63 d6 81 3f 06 3a 86 3f 6e 36 80 3f
       1.0185076 1.0143551 1.0486457 1.0016611
000020 06 df 83 3f 8a ec 7d 3f a9 0b 82 3f 94 13 7d 3f
       1.0302436 0.99189055 1.0159808 0.98858
000030 42 c4 7e 3f a9 ad 6d 3f 19 bb 81 3f a1 5a 89 3f
       0.99518216 0.9284311 1.0135223 1.0730783
000040 00 2b 7b 3f d5 3f 89 3f 00 fd 71 3f b9 78 85 3f
       0.9811249 1.0722605 0.9452667 1.0427467
000050 bc 08 7e 3f 04 80 8e 3f cc 7d 7f 3f bd 86 8a 3f
       0.9923208 1.1132817 0.99801326 1.0822369
000060 71 3e 72 3f 25 ac 83 3f 07 22 7d 3f 8b 04 7a 3f
       0.9462653 1.0286909 0.98880047 0.9766318
000070 66 87 75 3f 23 cc 7b 3f 56 11 82 3f ff 98 80 3f
       0.95909727 0.9835836 1.016154 1.0046691
000080 bc 1b 7d 3f df 7e 85 3f 9f 02 74 3f 3a d1 7f 3f
       0.98870444 1.0429343 0.953165 0.9992863
000090 42 74 73 3f 92 9e 80 3f 31 67 79 3f c0 fa 71 3f
       0.9509927 1.0048392 0.9742308 0.9452324
0000a0 b4 17 81 3f e7 57 84 3f ec 62 8c 3f 7b b2 81 3f
       1.0085359 1.0339326 1.0967689 1.0132593
0000b0 78 00 88 3f d1 89 7a 3f db 58 79 3f 35 a1 6d 3f
       1.0625143 0.9786654 0.9740121 0.9282411
0000c0 c7 35 83 3f d1 40 86 3f 21 b9 7e 3f 02 02 70 3f
       1.0250787 1.048853 0.99501234 0.93753064
0000d0 3d a0 80 3f 33 44 83 3f 86 09 7f 3f 2c 5c 78 3f
       1.0048901 1.0255188 0.99623907 0.97015643
0000e0 d4 5f 81 3f 9f 7d 83 3f 7b db 88 3f 8b e7 7c 3f
       1.010737 1.0272712 1.069198 0.98790807
0000f0 6c 65 89 3f a0 c9 82 3f f4 45 76 3f 0e 08 81 3f
       1.0734076 1.0217781 0.9620049 1.0080583
000100 09 e0 78 3f 75 af 87 3f d0 3f 70 3f c9 79 7f 3f
       0.9721685 1.060042 0.9384737 0.99795204
000110 67 a5 81 3f 14 1b 81 3f 62 19 85 3f 7b 4e 82 3f
       1.0128602 1.0086389 1.0398371 1.01802
000120 ab 55 80 3f 37 af 88 3f 33 0a 80 3f 8b 1c 79 3f
       1.0026144 1.0678471 1.0003113 0.9730918
000130 6f ff 7e 3f 2f a9 82 3f ee d5 7f 3f 36 b9 79 3f
       0.9960851 1.0207881 0.99935806 0.97548234
000140 ba 07 7c 3f 1a 65 82 3f 48 c8 71 3f 51 87 82 3f
       0.9844929 1.0187104 0.9444623 1.0197545
000150 16 4f 77 3f b9 77 7a 3f 9c ef 81 3f 8d 5d 79 3f
       0.9660505 0.9783893 1.0151248 0.9740837
000160 72 12 6c 3f 35 a0 6d 3f b6 a7 78 3f 03 65 82 3f
       0.92215645 0.9282258 0.97130907 1.0187076
000170 47 61 70 3f 98 58 74 3f a6 35 78 3f 9d f3 80 3f
       0.93898433 0.95447683 0.9695686 1.0074345

conv1s.0.modlist.1.bias f4 [96]
000000 62 81 38 bd 00 03 12 3d 94 92 15 bd 28 7f 4c 3d
       -0.045045264 0.035647392 -0.03651674 0.049925953
000010 ce b0 ff bb 2f 80 10 bd 4d e0 21 3c 8c 85 8a 3d
       -0.007803059 -0.035278495 0.009880138 0.06763753
000020 d7 74 05 3d 1f 14 2e be 85 48 ba 3b 2c 94 51 3b
       0.03258213 -0.16999863 0.0056849145 0.0031979186
000030 0a d9 55 bd c3 eb 58 bd c2 b8 4b bd a3 ad 0e 3c
       -0.052208938 -0.052959215 -0.049736746 0.00870839
000040 17 36 ca 3c 62 36 d4 3c 03 06 e5 bc 72 6e c7 bc
       0.024683995 0.025904838 -0.027956968 -0.024344657
000050 d2 df 56 bc 6c b6 47 3e 55 99 2a bd 26 cb 84 bd
       -0.013114886 0.19503182 -0.041650135 -0.0648406
000060 43 a5 27 3c 0d 8f b7 bd 07 ee 9f 3d ce e8 b4 3b
       0.010232273 -0.08962832 0.07809072 0.0055209165
000070 29 b2 a4 3d f6 2f 16 3d ce da b4 3c 39 eb c4 3d
       0.08041794 0.036666833 0.02207699 0.09615178
000080 60 6b 57 3b bc 34 7c 3d cb 2f ee bd 8d 14 be 3c
       0.0032870397 0.06157373 -0.116302095 0.023203159
000090 e7 87 4d bc 52 82 ff 3c 6d d0 25 3d 45 3f 29 3d
       -0.012544609 0.031190071 0.040481973 0.041320104
0000a0 75 f1 6c 3d 75 2d 23 be 5a bf 8e 3c 6b 9d c3 3c
       0.05784746 -0.15935309 0.017425228 0.023878774
0000b0 05 10 fb bc e3 e8 8d 3d 50 d3 7c 3c 69 ab 33 bc
       -0.030647287 0.06929185 0.01543124 -0.01096616
0000c0 f8 c3 41 bd ed 77 fb bd a8 50 97 3b 76 4f 8a bd
       -0.04730603 -0.122787334 0.0046177693 -0.06753437
0000d0 33 22 99 bd d1 8e ce 3d bd c2 6a bc cc 9c 88 bd
       -0.07477226 0.10085834 -0.014328656 -0.06670532
0000e0 a1 3e 86 bd ef 99 af bc 46 df 7a bd 6b a8 07 3b
       -0.06554914 -0.021435706 -0.061248086 0.002069975
0000f0 5d 95 04 bd 8d eb af bd 5f 1e f7 bc 9c 91 fc bc
       -0.032369006 -0.085898496 -0.03016585 -0.03083115
000100 94 9f a4 3c 87 9a 48 bc 43 16 f2 bc 5d 38 91 bc
       0.020095624 -0.012243873 -0.02955163 -0.017727071
000110 28 09 b2 bd 93 e5 a0 bd f9 aa af 3d 8e 9f 52 be
       -0.08693153 -0.07856288 0.08577532 -0.20568678
000120 47 af 67 3d 67 78 a4 3d 8f 8f 7b bd 41 e3 b8 bc
       0.056563642 0.080307774 -0.061416205 -0.0225693
000130 fb c3 23 bd a5 24 c2 bd 2b 18 2e 3d 46 4a 27 bd
       -0.039981823 -0.09479646 0.042503517 -0.040842317
000140 be 71 ed bd 10 23 31 3e 97 e0 90 bd 28 ad f3 bc
       -0.1159396 0.17298532 -0.07074087 -0.029745653
000150 b8 49 a0 3b 02 1d 77 bd ff 30 de bc 87 ec c4 3c
       0.0048916005 -0.0603304 -0.027122973 0.024038566
000160 6c 82 d2 bc 48 f6 b0 bd 08 54 86 bd a7 c2 0c bd
       -0.025696956 -0.086407244 -0.065589964 -0.034365322
000170 a2 96 a3 3c 4b 29 28 3d db 7b c7 bd d2 a6 de 3d
       0.019969288 0.041055005 -0.097404204 0.10871662

conv1s.0.modlist.1.mean_scale f4 [96]
000000 bc 2f 82 3f ef 3f 80 3f 4d e4 76 3f 56 b4 6e 3f
       1.0170817 1.0019511 0.9644211 0.9324392
000010 ed 95 85 3f 13 bc 78 3f ad 7b 7b 3f d6 9c 88 3f
       1.0436379 0.9716198 0.9823559 1.0672863
000020 48 f5 7d 3f 87 a3 51 3f 4b 85 7d 3f c0 bf 77 3f
       0.99202394 0.8189015 0.99031514 0.9677696
000030 5e a5 74 3f 0a 00 81 3f 05 de 6b 3f bd fa 7d 3f
       0.9556483 1.0078137 0.9213565 0.9921072
000040 f1 69 7e 3f f8 e6 83 3f 56 f9 83 3f 36 5a 77 3f
       0.99380404 1.0304861 1.0310466 0.96622026
000050 b1 a1 7d 3f 73 56 5d 3f c7 31 75 3f 89 c8 87 3f
       0.99074847 0.86460036 0.9577908 1.0608073
000060 17 bd 80 3f 92 44 96 3f 8c a3 87 3f 06 62 7f 3f
       1.0057706 1.1739676 1.0596786 0.99758947
000070 47 20 65 3f a0 83 75 3f ea 70 78 3f af 9d 88 3f
       0.89502376 0.9590397 0.97047293 1.0673121
000080 c7 37 81 3f 2c 07 86 3f 48 29 7d 3f f4 cd 80 3f
       1.0095147 1.0470939 0.98891115 1.0062852
000090 d0 a5 7b 3f 84 fa 82 3f 08 e6 8a 3f 2d 50 5f 3f
       0.98299885 1.0232701 1.085145 0.87231714
0000a0 b7 33 87 3f a9 70 91 3f 0f 30 72 3f ff 83 83 3f
       1.0562657 1.1362506 0.9460458 1.0274657
0000b0 13 32 7d 3f 55 72 89 3f 62 80 7b 3f d6 23 7e 3f
       0.9890453 1.0738016 0.9824277 0.9927343
0000c0 9a 14 72 3f a1 eb 91 3f 11 1b 7b 3f 86 3a 6a 3f
       0.94562685 1.1400033 0.98088175 0.9149555
0000d0 0d 4c 76 3f d5 7c 8b 3f 2a e2 8e 3f ed 02 85 3f
       0.96209794 1.0897471 1.116277 1.0391518
0000e0 d9 b6 71 3f f5 88 7a 3f 10 fb 84 3f b9 ca 7f 3f
       0.9441963 0.9786523 1.0389118 0.99918705
0000f0 a7 3d 80 3f 8a 9a 8b 3f 58 b1 7f 3f 4b 7d 77 3f
       1.0018815 1.0906537 0.9987998 0.96675557
000100 0d 2f 80 3f c8 bd 81 3f 2b 3e 84 3f 1b c8 79 3f
       1.0014359 1.0136042 1.0331472 0.9757096
000110 8c d9 6d 3f f3 d4 6e 3f b7 f3 89 3f 7b b1 a3 3f
       0.92910075 0.93293685 1.0777501 1.2788538
000120 da cd 6d 3f b2 7a 79 3f d8 f6 78 3f fc d7 7d 3f
       0.9289223 0.97452843 0.97251654 0.9915769
000130 61 71 80 3f d0 6d 62 3f 66 aa 7e 3f 01 b7 81 3f
       1.00346 0.8844881 0.9947876 1.0133973
000140 93 82 61 3f c3 f7 54 3f f2 2d 7d 3f 4a 96 7d 3f
       0.88089865 0.83190554 0.9889823 0.9905745
000150 c4 9f 7b 3f 1f 93 70 3f f5 2b 71 3f 3e 01 7c 3f
       0.9829066 0.9397449 0.942077 0.98439395
000160 6f 8b 7d 3f c3 fc 8c 3f b6 2f 81 3f db 76 83 3f
       0.99040884 1.1014637 1.0092685 1.0270647
000170 61 19 83 3f 18 5c 83 3f 75 37 8e 3f 1e 02 93 3f
       1.024212 1.026248 1.1110674 1.1485021

conv1s.1.modlist.0.bias f4 [64]
000000 ec 94 06 bd d5 f9 b7 3d ee 86 f4 3c ee b4 6b bc
       -0.032856867 0.089831986 0.029849496 -0.014386399
000010 9b 26 e6 3d 61 9b d9 bb 24 15 a6 3d 1f 36 04 3e
       0.11237832 -0.006640837 0.08109501 0.1291127
000020 83 7a 9d 3d 92 76 23 3d 67 55 97 3d c2 e4 f4 bd
       0.07689383 0.039908 0.07389336 -0.119576946
000030 84 c9 3a 3d 4f 8e a6 3c 14 94 cc bd 34 40 ff bd
       0.045602337 0.02033153 -0.09989181 -0.12463418
000040 67 b7 b0 3c 99 b0 5d 3c 02 4c 0e 3d b1 9b b1 bc
       0.021571828 0.013530874 0.034740455 -0.021680685
000050 d0 27 9d bc 00 29 c9 3a fa f9 1b bb 08 54 17 bd
       -0.019184023 0.0015347302 -0.002380012 -0.036945373
000060 b3 f0 5f bc 95 50 19 bd ad 23 90 3a a4 49 87 ba
       -0.013668227 -0.037430365 0.001099696 -0.0010321629
000070 da 90 48 bc 1a de 4b bd ef 6e ab bd d8 50 0a 3d
       -0.012241567 -0.04977236 -0.08370768 0.033768505
000080 11 2b 1f be 18 4a 24 3c 41 c8 ff ba 24 cf c1 bc
       -0.15543772 0.010027431 -0.0019514636 -0.023658343
000090 ec eb dd bd 28 d8 9b bd 58 bf 74 3c 14 f3 9d bd
       -0.10836014 -0.07609588 0.014938198 -0.07712379
0000a0 8f ee 92 3d 17 47 e5 bc 54 48 27 bd 4a d6 61 bd
       0.07174408 -0.027988 -0.04084046 -0.055136003
0000b0 08 5a f7 3b 63 d8 98 3c 04 c6 15 3d 1f 93 2b bd
       0.0075485744 0.018657869 0.036565796 -0.041888352
0000c0 2d 9a 5c bc a4 c5 9f bd b0 a4 e3 3c 3d 1d cc 3d
       -0.013464493 -0.07801369 0.02778849 0.09966514
0000d0 1b 5b 8f 3d 25 92 5a bd 75 97 15 3e cb 01 a2 3d
       0.06999799 -0.05336203 0.14608558 0.07910498
0000e0 1d 70 77 bd 0c 48 02 3d b4 6a f3 bc fd 28 2e 3d
       -0.060409654 0.03180699 -0.029713966 0.04251956
0000f0 9f 85 6e 3d cc 8f 1d bb b3 93 a7 bd 2b 11 8c 3d
       0.0582329 -0.0024042008 -0.08182468 0.06839212

conv1s.1.modlist.0.lin.weight f4 [64, 96]
000000 0a 12 87 3d dc 05 19 bd be 14 39 bd ce 01 1d 3e
       0.065952376 -0.037359104 -0.045185797 0.1533272
000010 64 e2 6e 3d 18 97 15 3e fb 77 6d 3d 9e 5c 5f 3c
       0.05832137 0.14608419 0.05797575 0.0136329215
000020 c9 38 18 3e b2 88 17 3d 2f 60 3d 3e 12 08 43 bd
       0.14865412 0.036995597 0.18493722 -0.04761512
000030 24 2a 19 be 98 62 54 3d 2c 44 ed 3d f3 5c 54 3e
       -0.14957482 0.05185184 0.115852684 0.20738582
000040 d3 d7 20 be 18 73 dd 3d 95 b5 fc 3d 90 a7 4f bd
       -0.1570733 0.10812968 0.123393215 -0.05069691
000050 b5 31 a2 3d c3 dc c6 bd cc 9d 13 3e 12 1f c1 3d
       0.07919637 -0.09710076 0.14415663 0.09429754
000060 d2 b7 59 be b2 9c e5 3d 11 9d 8a bd ed 95 9d 3d
       -0.21261528 0.11211528 -0.06768239 0.07694612
000070 29 03 db 3c f6 41 9f 3c 72 29 81 3d 31 d2 ed 3c
       0.026734905 0.019440632 0.06306733 0.029030891
000080 55 7b dc bd 81 6b 90 3d 04 13 bf bd 4a 6f 8b 3b
       -0.10765711 0.07051755 -0.09329799 0.00425521
000090 ff 16 15 be cb 46 92 bd 23 28 23 3e 89 9b f6 bd
       -0.14559554 -0.07142409 0.1593328 -0.12041385
0000a0 5e 9f 05 3e 72 e0 18 bd ad 8a 4c 3e c0 0d a9 3d
       0.13049075 -0.037323423 0.19974776 0.08254576
0000b0 ba 47 31 3e 3f 77 e7 bd 75 5b 83 3d cf 25 77 bb
       0.17312518 -0.11302041 0.064139284 -0.0037711745
0000c0 89 7b 5e be 49 81 6a 3c 7e 25 03 3e b9 9e e5 bd
       -0.21726812 0.014313051 0.12807271 -0.112119146
0000d0 64 b3 a3 3d f1 9f 4c be 92 51 2f bd e5 39 8f 3c
       0.079932004 -0.19982888 -0.0428024 0.017483661
0000e0 48 e2 7e 3d 61 0c 4a bd 71 4f 58 3d 45 3d 00 be
       0.062227517 -0.04932821 0.052810136 -0.12523372
0000f0 44 07 52 3d 9c 24 1d 3e 20 40 04 3e 73 93 08 be
       0.05127646 0.15345997 0.12915087 -0.13337497
000100 21 e8 ee bd 21 1e 29 be 4e 0a a7 bc 31 b2 04 3e
       -0.11665369 -0.165154 -0.020390656 0.129586
000110 60 90 1c 3e 09 53 32 3e b4 fa 09 be 0a d5 56 3d
       0.1528945 0.17414488 -0.13474542 0.052449264
000120 c6 30 7c 3b 16 2d d3 3d c2 0d 76 3d 65 7f 9b 3b
       0.003848122 0.10311334 0.060071714 0.004745411
000130 95 c9 54 bd 18 ec ca bd ca c9 30 be c8 b7 53 be
       -0.051950056 -0.099083126 -0.17264476 -0.20675576
000140 b0 26 9c 3d 7a bf 4d 3d 80 d1 e1 bc e0 b1 9e 3c
       0.076245666 0.050231434 -0.027565718 0.019371927
000150 a9 77 13 be 85 c1 06 3e 6d 03 2b be d7 ba 80 ba
       -0.14401115 0.1315976 -0.16700526 -0.0009821308
000160 75 ec 0c be ca 22 11 3d a2 9a ae bd 1b a6 7d 3e
       -0.13762076 0.035433568 -0.085255876 0.24770395
000170 91 f7 f0 3d ad 7b 34 3e bf 00 57 3c 00 5a e9 3d
       0.117659695 0.17625304 0.0131227365 0.11394119
000180 55 b4 38 3e 02 24 83 bd 9e 61 9c bd aa 37 00 be
       0.18037541 -0.06403352 -0.076358065 -0.12521234
000190 47 86 15 be 2b 72 2f be 85 5e 04 be 7f ed 43 3e
       -0.14602004 -0.17133395 -0.12926681 0.19133566
0001a0 a3 15 49 be db a6 3a be 1b 7e 16 be 30 e0 21 bd
       -0.1963716 -0.18227713 -0.14696543 -0.039520442
0001b0 1a 0e b4 bd da 04 12 3e 5e 92 cc bd 91 ba 0f be
       -0.08791752 0.14259663 -0.09988855 -0.14036013
0001c0 47 73 00 be 3e 55 fd bd 1d 05 ee bb 6e ab e4 bd
       -0.12543975 -0.12369774 -0.007263793 -0.1116551
0001d0 52 f0 1f 3c bf 08 97 bc 12 c3 8c 3d 9a 57 93 3d
       0.009761887 -0.018436788 0.06873144 0.07194443
0001e0 8e bc 34 3d b0 11 1b 3e 64 f6 81 3d 46 4c 20 3e
       0.044125132 0.15143466 0.063458234 0.15654096
0001f0 0d 1f 59 3e 19 5d 4c 3d 4c 6f e5 bd 7c a4 07 3e
       0.21203251 0.049893472 -0.11202869 0.1324634
000200 38 6a b6 bd fb 07 23 be 09 7a 39 be b1 0e 10 3c
       -0.08906978 -0.15921013 -0.18112959 0.008792565
000210 ff de 2d 3d 0c d0 0c 3e 76 17 c5 3c af 1b c4 3d
       0.042448994 0.13751239 0.024059039 0.09575593
000220 12 d7 f8 bd 19 25 51 3d 17 c2 11 be b7 17 99 3b
       -0.121503964 0.05106077 -0.14234196 0.0046720165
000230 ca 62 03 3e 27 0b 71 be a2 95 b0 bd d0 c2 f1 3d
       0.12830654 -0.2353941 -0.0862229 0.11804736
000240 2b 51 4f 3d 83 08 12 3e f4 ce cd bd 3b 9e a7 bc
       0.050614517 0.1426106 -0.10049239 -0.020461192
000250 b1 f9 de 3b df fb 61 be 9e b4 74 3e 38 75 a8 3d
       0.006804668 -0.22068737 0.23897025 0.08225483
000260 90 7e 31 be 0c ac 74 3e 57 f2 65 3c fe ec 44 3e
       -0.17333436 0.23893756 0.014034829 0.1923103
000270 70 be f7 3c e1 50 06 3d 2d de 41 3d 73 94 b2 3c
       0.030242175 0.032791976 0.047331024 0.021799302
000280 ad e3 27 3e 97 a3 ca 3d 89 88 59 3e 98 ad 5b 3a
       0.16395445 0.098944835 0.2124349 0.00083800545
000290 db 19 92 3d 00 a5 a6 3d 7a 0d 17 3e 27 41 16 3e
       0.07133838 0.0813694 0.14751235 0.14673291
0002a0 db bf 8c bd 12 5a 62 bc f1 03 d5 bd 00 70 92 3c
       -0.06872531 -0.01381542 -0.104011424 0.017875671
0002b0 ed c8 1a be 95 28 36 3e 61 02 04 be ec f2 1a be
       -0.1511571 0.17788918 -0.12891532 -0.1513173
0002c0 de 13 94 bd 0e d4 d2 3d 8b 07 30 bd 8a 04 aa 3d
       -0.07230352 0.102943525 -0.042975944 0.08301647
0002d0 bc ac 14 3e 76 eb d2 3d fc da 9b 3c 6d 30 bc 3c
       0.14519018 0.10298817 0.019025318 0.02297231
0002e0 4c 1d f1 3d 9b 31 09 3e eb 42 1f be e0 b6 30 bd
       0.11773166 0.13397829 -0.15552871 -0.043143153
0002f0 36 f6 34 3c c6 4c 94 bd 48 00 09 be 48 27 88 3e
       0.011045029 -0.07241206 -0.13379014 0.2659247
000300 bf af 4a 3d 6e f2 10 3e c0 f9 b7 3d 07 49 c9 bd
       0.04948401 0.1415498 0.08983183 -0.09828382
000310 b9 86 14 3c df d9 90 3d 6f eb 47 3d 40 4a 33 3e
       0.0090653235 0.070728056 0.04880851 0.17508793
000320 64 66 69 bd 75 ee 38 be 1b 35 89 be 59 1b 3e be
       -0.056982413 -0.18059714 -0.2679833 -0.1856512
000330 2a 2d 58 be d8 df 08 3e 9d 01 d9 3d 7c ac 0a be
       -0.21110979 0.1336664 0.10596011 -0.1354236
000340 25 32 1c be 28 e3 c5 bd 04 59 23 3e 34 d8 f0 3d
       -0.15253504 -0.09662467 0.15951926 0.117599875
000350 7a 42 19 3d a9 5e 7b 3e 35 a1 d5 bc 28 00 cc bb
       0.037416913 0.24547829 -0.026077846 -0.0062256046
000360 09 29 a5 bd b4 85 d8 bd 1b 1f cb 3d e4 c7 56 bd
       -0.080644675 -0.10572377 0.09918042 -0.052436724
000370 39 e6 8f 3d 33 59 29 b9 42 73 f2 3d de 87 3c 3e
       0.07026333 -0.00016150325 0.1183839 0.18411204
000380 40 90 21 3d 12 45 16 3e 5a f0 9b bd 2c 75 7a 3c
       0.03944421 0.14674786 -0.07614203 0.015286725
000390 e4 81 18 3e 1f 9b 27 3d b0 35 38 3d be 86 c9 bc
       0.148933 0.04091942 0.044973075 -0.024600383
0003a0 a5 dc b8 3c 61 cf 02 bd a9 e4 32 be ee d8 08 3e
       0.022566149 -0.031936053 -0.1747004 0.13364002
0003b0 5a 0a 1a 3e 38 7a b7 bd a5 94 3e be 57 56 26 be
       0.15043011 -0.08958858 -0.18611391 -0.16243874
0003c0 fd 78 ea 3d 86 3d 54 3e 56 46 39 be 1f 04 0e bd
       0.11448858 0.20726594 -0.18093237 -0.0346719
0003d0 89 db f9 3a 66 fd 5b be 91 2d 8b 3b 09 b0 8a 3b
       0.0019062619 -0.21483383 0.0042473753 0.004232411
0003e0 a7 22 27 bd 8c 01 b9 bd 04 29 f1 bd 34 4f 2d be
       -0.04080453 -0.09033498 -0.11775401 -0.16924745
0003f0 a5 8d aa bd 67 07 21 3d 2b 7d 36 3e 25 d5 c6 bc
       -0.08327798 0.0393137 0.17821185 -0.024271557

conv1s.1.modlist.1.weight f4 [64]
000000 be d3 76 3f a0 06 79 3f 39 ed 7a 3f 9f 35 7f 3f
       0.9641684 0.97275734 0.98018223 0.99691194
000010 f0 e4 7c 3f e2 03 70 3f 92 b1 78 3f 74 2a 83 3f
       0.9878683 0.93755925 0.9714595 1.0247331
000020 89 a6 81 3f a3 c1 6b 3f 35 13 72 3f 18 cf 7f 3f
       1.0128947 0.9209234 0.9456056 0.99925375
000030 d0 22 7e 3f 5a 66 74 3f c7 8a 7e 3f 78 3e 82 3f
       0.9927187 0.95468676 0.9943051 1.0175314
000040 af 4e 7d 3f 2e 9d 70 3f a4 6c 7b 3f 47 4b 7c 3f
       0.98948187 0.9398984 0.9821265 0.98552364
000050 0a 8b 77 3f 5d 19 7b 3f be 2c 7e 3f bc 5f 82 3f
       0.9669653 0.98085576 0.9928702 1.0185466
000060 0a 83 86 3f b7 5b 6d 3f 83 d2 80 3f f6 41 80 3f
       1.050874 0.9271807 1.0064243 1.002013
000070 36 f5 7c 3f 33 18 86 3f c5 f0 7d 3f 27 16 77 3f
       0.9881166 1.0476135 0.9919551 0.96518177
000080 a5 4a 76 3f af c7 73 3f f7 53 7f 3f 18 20 7f 3f
       0.9620765 0.9522657 0.99737495 0.99658346
000090 22 81 81 3f 71 80 74 3f 81 77 83 3f 85 81 81 3f
       1.0117533 0.95508486 1.0270845 1.0117651
0000a0 c2 99 85 3f 01 5c 7c 3f e7 23 7b 3f 1b 36 80 3f
       1.0437548 0.98577887 0.9810166 1.0016512
0000b0 67 9f 81 3f 9d 64 74 3f a4 50 85 3f bf 75 75 3f
       1.0126771 0.95466024 1.0415235 0.9588279
0000c0 90 76 77 3f 6c ef 7b 3f 21 46 76 3f 48 f7 83 3f
       0.96665287 0.98412204 0.9620076 1.0309839
0000d0 8c 7b 7d 3f 44 d0 7a 3f 4f c6 77 3f 72 b9 74 3f
       0.9901664 0.9797404 0.9678697 0.9559547
0000e0 2b e0 7c 3f 3a 37 74 3f bd 2f 7c 3f 6d f7 71 3f
       0.98779553 0.9539677 0.9851034 0.94518167
0000f0 ed 4e 80 3f 42 a8 87 3f 67 ae 7b 3f b2 27 7a 3f
       1.0024086 1.0598223 0.9831299 0.9771682

conv1s.1.modlist.1.bias f4 [64]
000000 54 c1 aa bc ec 08 37 bd 94 41 29 3b 60 71 45 bd
       -0.02084414 -0.044686243 0.002582644 -0.048203826
000010 10 cc 6b bd 0d ce 2b bd bd 34 58 3c c8 98 3e bd
       -0.057567656 -0.041944552 0.013196168 -0.046532422
000020 bc ab 99 3c 6d bc d3 3d 0d 08 51 3d cc 22 75 3d
       0.018758647 0.10338674 0.05103307 0.059847638
000030 44 b8 42 bc 30 dd 88 3c dc 38 21 3d 44 37 60 3d
       -0.011884753 0.016707033 0.039360866 0.054740205
000040 8c 98 b8 bc b2 a0 c6 3c 04 e5 00 3c ed 00 10 bc
       -0.022533678 0.024246547 0.007867102 -0.008789283
000050 61 a3 1c 3d e3 2d 3e 3d 5b cd 1e 3c 47 2f db bb
       0.038241748 0.04643048 0.009692515 -0.0066889855
000060 27 13 98 bc d2 b8 87 3c cd 6f 21 3d 77 f7 2c bd
       -0.01856382 0.016567621 0.039413262 -0.04222819
000070 45 e3 53 3c 43 82 ab 3c bd 67 e2 3c 11 90 91 bb
       0.012932603 0.020936137 0.027637357 -0.004442223
000080 6d 11 cf bd ea 67 0f bc 16 0d 86 bd 95 02 0a bd
       -0.101107456 -0.008752802 -0.06545465 -0.03369387
000090 d6 4b 5f 3d ca 6c 32 3d 08 73 23 bd 74 be 1d bd
       0.054515682 0.04356078 -0.039904624 -0.03851171
0000a0 75 47 97 bc 47 b3 7c 3c fe 34 56 3d be 35 97 bd
       -0.01846669 0.015423602 0.05229663 -0.073832974
0000b0 e1 7e 16 bd 19 17 02 3c b5 6b bd bc b5 9f 5d bb
       -0.036742095 0.007940077 -0.023122648 -0.0033817117
0000c0 d5 89 4e 3d d3 14 69 3d e7 ca 42 3a d4 30 d0 bd
       0.050424416 0.056904625 0.00074307475 -0.10165563
0000d0 f3 26 51 3d 99 10 a0 3c 36 fb be bd 4c 6b 23 3d
       0.051062535 0.019539164 -0.093252584 0.03989725
0000e0 98 da 72 3d 8d 72 46 3c 8c fc 58 bb e6 27 a1 3c
       0.0592905 0.012112272 -0.0033109514 0.019672345
0000f0 80 78 02 3d 6c 43 c7 bb 05 df e7 bc a1 7e 50 3d
       0.0318532 -0.0060810354 -0.028304586 0.050902013

conv1s.1.modlist.1.mean_scale f4 [64]
000000 24 0d 77 3f 4e 5d 86 3f 91 61 82 3f a2 c0 74 3f
       0.96504426 1.0497224 1.0186025 0.95606434
000010 56 70 8e 3f 64 07 82 3f 56 4c 83 3f d1 48 90 3f
       1.1128032 1.0158505 1.0257671 1.1272222
000020 19 35 7e 3f c7 60 7f 3f 4c 8f 84 3f 81 fe 89 3f
       0.9929977 0.99757046 1.0356231 1.0780793
000030 e5 d1 6a 3f bd 31 7f 3f b7 25 81 3f 29 8e 8d 3f
       0.91726524 0.9968527 1.0089635 1.1059009
000040 7c f5 73 3f 68 0f 82 3f 09 35 7a 3f 18 d4 80 3f
       0.95296454 1.0160952 0.97737175 1.0064726
000050 b1 3f 84 3f 05 be 83 3f c3 7a 85 3f 58 10 82 3f
       1.0331937 1.0292364 1.0428089 1.0161238
000060 06 e7 6d 3f cf 73 7b 3f 17 37 85 3f 0c 6c 83 3f
       0.9293064 0.98223585 1.0407437 1.0267348
000070 cc e5 78 3f 4c 4d 7f 3f b2 d0 88 3f 66 9e 7d 3f
       0.9722564 0.9972732 1.0688689 0.9906982
000080 b9 e8 67 3f d9 3a 83 3f 2c c5 82 3f 65 e9 81 3f
       0.9058948 1.0252334 1.0216422 1.0149351
000090 96 ea 8b 3f 12 d6 87 3f 7c 6d 83 3f f9 f3 82 3f
       1.0930965 1.0612204 1.0267787 1.0230705
0000a0 a8 00 7a 3f fe 6d 84 3f 9f 28 89 3f 8a b3 74 3f
       0.9765725 1.0346067 1.0715522 0.95586455
0000b0 36 a2 78 3f 1b e8 78 3f 77 fe 81 3f 6c f0 80 3f
       0.97122514 0.97229165 1.0155782 1.0073371
0000c0 6b 1a 73 3f 26 5a 99 3f 36 9c 82 3f 16 cd 8f 3f
       0.94962186 1.1980636 1.0203922 1.1234462
0000d0 fd 8a 74 3f 88 95 77 3f 1c 81 94 3f ef 50 85 3f
       0.9552458 0.9671254 1.1601901 1.0415324
0000e0 1a 06 88 3f d9 2c 74 3f d9 60 72 3f 61 cc 7e 3f
       1.0626862 0.9538093 0.9467903 0.9953061
0000f0 86 7b 7a 3f 3f 98 80 3f e1 df 82 3f a7 24 79 3f
       0.9784473 1.0046462 1.0224572 0.9732155

conv2s.0.modlist.0.bias f4 [64]
000000 88 3b 2f 3f 84 d5 8b be a7 3a 4d 3d bf c7 7f be
       0.6845021 -0.27311337 0.050104763 -0.24978541
000010 cc 4b e6 3e c8 e9 4b be 2f 42 2a 3f c3 a3 10 3e
       0.44979703 -0.19913399 0.6650724 0.1412497
000020 36 a8 20 bf 1a 69 16 3f 5a cd 9a 3e 1b 76 4b bf
       -0.6275667 0.5875412 0.30234796 -0.7947709
000030 66 2f 72 bf 75 33 4d bd f9 fd fc 3c 7a 19 1e 3d
       -0.94603574 -0.0500979 0.030882822 0.038598515
000040 eb fa 7f be f7 e6 a4 3e 61 fb 5e 3e 8a d1 6a bf
       -0.24998061 0.32207462 0.21775581 -0.9172598
000050 96 88 2b bf 03 e8 c6 3e 94 0a 94 3e 89 5f 63 3e
       -0.6700529 0.38848886 0.2891432 0.22204413
000060 ea 85 a0 bd 9b d7 a7 bd 77 06 d7 3d 2c bd 07 3f
       -0.07838042 -0.0819542 0.1049928 0.5302303
000070 72 1c 50 bf 80 67 19 bf 6f 4c c2 3e 51 d8 2f 3e
       -0.81293404 -0.59923553 0.3794894 0.17172362
000080 5c 91 35 bf 78 28 39 3f 52 7f 5a bf a7 67 de bd
       -0.70924926 0.72327375 -0.85350525 -0.10859614
000090 5d ad 94 3d 9c ec 82 be 93 cc 68 bf 0f cd 3e bf
       0.07259629 -0.25571144 -0.90937155 -0.74531645
0000a0 ff 08 64 bf a2 9d 6b 3e b3 20 df 3e df 1d 17 3f
       -0.89076227 0.23009351 0.43579635 0.59029955
0000b0 a5 0d 10 3d ad 6b 55 3f 5d 21 09 3f dd 34 df bc
       0.035169262 0.83367425 0.53566533 -0.027246887
0000c0 1c ea 9d bd 39 48 f9 3e af 3f 09 3f 9a 51 1a 3f
       -0.077106684 0.48687914 0.536128 0.60280764
0000d0 f8 e1 9b 3e ab 0e 65 3e a9 2d 58 bf 71 a9 3f bf
       0.30445838 0.22368877 -0.8444467 -0.7486792
0000e0 f4 94 5a bf 9f 6b c3 3e 9d 53 da bc 59 ea 5c 3f
       -0.85383534 0.38168046 -0.026651198 0.86295086
0000f0 ce 43 5c bf ac 9e 11 3f 2f cc 09 3f 4c e4 72 bf
       -0.8604096 0.5688274 0.53827184 -0.94879603

conv2s.0.modlist.0.lin.weight f4 [64, 64]
000000 5f 6b 0a be 9f 55 2a 3e f9 12 7b 3e 8e a4 10 3e
       -0.13517521 0.16634224 0.24518956 0.14125273
000010 8b bb 52 3e f9 39 17 3e ef c5 fe 3d 4d e3 44 3e
       0.20579354 0.14768209 0.124400966 0.19227333
000020 65 af 94 3d c5 d3 f2 bc c1 8b 37 be 6f 93 04 3e
       0.07260016 -0.029641995 -0.17924406 0.12946866
000030 71 bb 1e bc e3 94 21 3e be cf 88 3d 96 08 3f 3c
       -0.009688244 0.15779452 0.06680249 0.011659762
000040 ad 3c b2 3d 0a 55 5d be 63 33 22 3e 71 fa 8d 3d
       0.08702979 -0.21614471 0.15839915 0.069325335
000050 77 a9 f3 bd 2a c2 97 3d 2a 0f 17 3e 71 59 ad 3c
       -0.11897557 0.07410081 0.14751878 0.021160813
000060 5a 33 2d 3e bd d7 c8 3d 6d 97 55 bd b8 b9 80 3d
       0.1691412 0.09806774 -0.052146364 0.06285423
000070 c4 c1 f5 3d e5 10 67 be 61 6f 45 3d 49 5f 21 3e
       0.119998485 -0.22565039 0.048201922 0.15759005
000080 e8 0b 25 3c 07 a8 bf bd 2e 90 33 3e 77 ff 55 3e
       0.010073639 -0.093582205 0.17535469 0.20898233
000090 22 00 88 3c 58 a3 2c 3e 5a 63 be bd 50 17 ec 3d
       0.016601626 0.16859186 -0.092962936 0.11527884
0000a0 c1 47 e8 bd a8 93 f8 3d bc 30 4a be 2e 71 83 3d
       -0.11341811 0.12137538 -0.19745153 0.06418072
0000b0 aa 98 62 be a3 62 24 3e 4b fc d9 3d 72 5a 3c 3e
       -0.22128549 0.16053252 0.10643824 0.18393877
0000c0 64 02 4a 3e 6c 43 90 3d 8f 9c 07 bd 83 81 b4 3c
       0.19727474 0.0704411 -0.03310829 0.022034412
0000d0 8e 6c b7 bd 68 87 40 be 4d f0 ae 3c 09 13 00 be
       -0.08956252 -0.18801653 0.021354819 -0.12507261
0000e0 22 6e 14 be e5 cf 1a 3e 62 4a cb bd 04 e7 48 bd
       -0.14495137 0.15118368 -0.09926297 -0.04904844
0000f0 6e 08 ea bd 08 6e bb 3d d9 30 05 3e f2 d8 f5 bd
       -0.11427389 0.09151846 0.13006915 -0.1200427
000100 99 b3 f1 3d 21 fa 6b 3e b2 cf 85 3d 8b 17 ac 3c
       0.11801834 0.23044635 0.06533755 0.02100732
000110 8a 4c 7a 3d 1f 36 37 be 4e b2 08 bd a5 8e 04 bd
       0.06110815 -0.1789174 -0.03337317 -0.0323626
000120 96 09 36 3e e6 f4 58 3c 72 46 d9 bd 37 aa 42 3c
       0.17777094 0.013241982 -0.106091395 0.011881403
000130 83 d1 8a bd ef c8 d1 3d 9e d3 73 be 43 b2 02 3e
       -0.067782424 0.10243403 -0.23811194 0.12763314
000140 74 25 30 3e 9e 45 56 be fd 9a 50 3d 38 61 3b 3d
       0.17201787 -0.20924994 0.05092906 0.045747012
000150 80 69 85 3d c9 69 8d bd e8 33 ba bd 56 90 47 bd
       0.06514263 -0.069049425 -0.090919316 -0.048721634
000160 8c 60 27 be 01 b9 f8 bd a8 d7 f9 3c e6 a7 a4 bd
       -0.16345423 -0.12144662 0.03049834 -0.080398366
000170 cf 40 01 3e bc 72 57 3e 4e 49 0a 3e 73 fb 68 3d
       0.12622379 0.21039861 0.13504526 0.056880426
000180 3a ef f7 bd e7 fb 92 bd 77 7e 3d 3e 34 e4 2c 3c
       -0.12106176 -0.07176953 0.18505274 0.010552455
000190 be 31 2e 3d 8e 5b 06 3e da b1 f1 3d ae 43 7b bc
       0.042527907 0.13120863 0.118015006 -0.01533596
0001a0 24 94 a9 3d c1 7f b0 3d b2 72 e7 3d c5 2f a2 3d
       0.08280209 0.08618117 0.11301173 0.079192676
0001b0 d1 96 43 3e 2b b3 75 bd fc f4 69 ba 4d bd 4b bd
       0.191005 -0.05998532 -0.000892475 -0.04974108
0001c0 da fe 78 be 3c 0c 8b be 33 05 54 3e 0b fb 86 bd
       -0.24315968 -0.27157772 0.20705108 -0.065908514
0001d0 2b e3 1d 3b 32 e4 e1 bd dc ed d1 bd 2b 31 18 be
       0.0024091701 -0.11029853 -0.10250446 -0.14862506
0001e0 62 8d 65 bd 4c be d4 bd f1 8f e6 3d d7 16 0d be
       -0.056043036 -0.10387859 0.112579234 -0.13778244
0001f0 06 c4 06 3d 64 07 41 3d be d1 cb bd ac 61 6c be
       0.032901786 0.04712619 -0.099521145 -0.23084134
000200 12 a4 58 be 6f 98 59 3c 1e 20 d9 bc 7b ac 12 3e
       -0.21156338 0.013280972 -0.026504572 0.14323609
000210 b8 9e 0b be fb b5 09 3e 39 f9 6a bd 0d cd 1a 3a
       -0.13634765 0.13448326 -0.057366583 0.0005905189
000220 bb af bf 3d b9 e5 2b 3e 43 7e 20 be 4d c2 c3 3c
       0.0935969 0.16786851 -0.15673165 0.02389636
000230 11 48 28 3e 58 ca 51 bd 6f 52 52 be 56 c9 09 bc
       0.16433741 -0.05121836 -0.20539258 -0.008409819
000240 0d 24 0a be 56 d4 44 be 2b 6c 2e be be 32 87 3d
       -0.13490315 -0.19221625 -0.1703345 0.06601475
000250 63 0e 19 3d a5 9e 38 be 70 4f 27 bd 69 bf 5a be
       0.037367236 -0.18029268 -0.040847242 -0.2136208
000260 ea a6 19 3e ee fc 80 3c 83 9a c7 bd 9c e1 72 3e
       0.15005079 0.015745606 -0.09746268 0.23718876
000270 b3 20 ce bd 37 ab 51 3e c1 23 55 bd 23 ad c5 be
       -0.10064831 0.2047547 -0.05203605 -0.38608655
000280 bf 60 a3 bd 01 66 9d bd 1c 04 b7 3d c1 9e 26 3b
       -0.07977437 -0.07685471 0.08936331 0.0025424215
000290 b8 63 3b 3e 26 1d c8 3d 91 4f 1e be 4b 4f 84 be
       0.18299758 0.097711846 -0.1546004 -0.25841746
0002a0 72 cc bf 3d ab 31 8c bd 0a fd 86 be 38 ce 4b bc
       0.09365167 -0.06845411 -0.26364928 -0.012439303
0002b0 84 7f 69 bd 96 33 51 be 68 aa 02 be ff 92 ac bc
       -0.057006374 -0.20429835 -0.12760317 -0.021066187
0002c0 52 9b fa 3c 92 2d 96 3c 34 6e 08 bc c3 ba 2c 3e
       0.03059164 0.018332276 -0.008327056 0.16868119
0002d0 20 58 d8 3d 85 5b 9d 3d 11 12 e8 bd 5b b3 1c 3e
       0.105636835 0.076834716 -0.11331571 0.15302794
0002e0 22 62 a1 3b a3 5c a0 3c f6 f0 08 be 41 ed ba 3d
       0.0049250284 0.019575423 -0.1337317 0.09127284
0002f0 02 a2 01 3e cc 61 83 ba dc d1 a2 bd b2 0d d6 3d
       0.12659457 -0.0010023653 -0.07950184 0.10451831
000300 e8 72 a0 3d 42 00 ae 3d 38 60 81 3e b7 fe 5a be
       0.07834417 0.08496143 0.25268722 -0.21386229
000310 e8 78 34 bc de 54 f6 bd ef bc 52 3e 91 27 03 3d
       -0.011015154 -0.12027906 0.20579885 0.032020155
000320 d5 01 ff bd 6a 4c 3f be cf e3 3d bd 53 c7 49 be
       -0.12451521 -0.18681493 -0.046359833 -0.19704942
000330 04 c4 4c 3e a3 1e 85 3d 13 13 9f 3c 2e d2 35 3e
       0.19996649 0.06499984 0.019418275 0.17755958
000340 fc 3c ac 3d 0f bf f0 3d af 46 1f 3e 4f 9a 4d bd
       0.08410069 0.117551915 0.15554307 -0.05019599
000350 17 22 08 be 00 a2 ae bd a9 f0 84 3d 18 5c c1 bb
       -0.13294254 -0.08526993 0.06491215 -0.005900871
000360 ef c6 3c bd 10 74 2c bd 96 4e 87 be 97 6e ce 3d
       -0.046088155 -0.042102873 -0.26427144 0.10079687
000370 57 6f 16 be eb 0f 2d 3e 47 ae 0a be 6d 3d 9b 3d
       -0.1469091 0.16900603 -0.13543044 0.075800754
000380 6b 22 15 3e 28 80 31 bd 0e 48 17 be 79 d2 91 3b
       0.1456391 -0.04333511 -0.1477358 0.004450139
000390 7c 9e 5a bd 98 30 d0 3c eb 22 8c be 48 ac 3f be
       -0.0533738 0.025413796 -0.2737039 -0.18718064
0003a0 8d 64 3e 3e 2d f7 21 be 74 08 77 3e 7f 1e 01 be
       0.18593045 -0.15816946 0.24124318 -0.1260929
0003b0 ba 0e 22 be 17 12 26 3e 6a ee 27 3e 89 82 f9 bd
       -0.1582593 0.16217838 0.16399541 -0.12183101
0003c0 ce 3d 0d ba 87 bd 58 be 69 f7 8c be 3d ba 6f 3b
       -0.0005387933 -0.21166049 -0.2753251 0.0036579513
0003d0 0c 8a 9b bd 17 7b ee bd ab c4 80 3c 1c a3 25 bd
       -0.0759469 -0.11644571 0.015718779 -0.040438756
0003e0 51 3e 24 bd 36 a1 2a 3e f8 1a 30 be 90 a1 02 be
       -0.040098492 0.1666306 -0.17197788 -0.12756944
0003f0 6f 5e ba 3d 04 51 b3 bc ad 99 e6 bc 38 09 da 3c
       0.09100043 -0.021889217 -0.02814945 0.026615724
