2WL_link_pred/checkpoint/archive/20221214_004756/2WL_dict_100_20_8.pt (torch, 185977 bytes, 33 tensors)

weight f4 [96, 3]
0	0x3ec616ce	0.38689274
1	0x3d99f278	0.0751695
2	0x3dd3cd67	0.10341912
3	0x3e6a8381	0.22901727
4	0xbe79917b	-0.24371903
5	0x3dc491b0	0.095981
6	0x3f053e77	0.5204844
7	0xbe260683	-0.16213422
8	0x3ee73976	0.45161027
9	0xbdcd3866	-0.10020523
10	0xbd3c7075	-0.046005685
11	0xb98a3fa7	-0.00026368836
12	0xbe637fb0	-0.22216678
13	0xbef3fe89	-0.47655132
14	0xbe885918	-0.26630473
15	0xbe683fc7	-0.22680579
16	0xbe7de71e	-0.24795195
17	0xbf0b6ab6	-0.544597
18	0xbdd309a4	-0.10304573
19	0xbddcf73d	-0.107893445
20	0xbdb213d4	-0.08695188
21	0x3ef59b43	0.47970018
22	0xbc3eb5bf	-0.011640011
23	0x3f16c27a	0.588905
24	0xbd45787c	-0.048210606
25	0xbde74b5f	-0.11293673
26	0x3e57ed2f	0.21086572
27	0x3e7ae750	0.24502301
28	0xbe55e9c9	-0.20889963
29	0xbe1dc8a1	-0.15408565
30	0xbe1517b0	-0.14559817
31	0xbe8a22f3	-0.2697979
32	0xbeff6a5f	-0.49885842
33	0xbebc485c	-0.36773956
34	0x3e4f89d2	0.20267418
35	0x3f247c15	0.64251834
36	0xbf282015	-0.65673953
37	0xbf28cd0d	-0.6593788
38	0xbdd1baf1	-0.10240734
39	0x3f268fae	0.6506299
40	0x3f0df4fe	0.55451953
41	0x3f2069e6	0.6266159
42	0xbed61b87	-0.41817877
43	0xbec40e2a	-0.38292056
44	0xbf17b31c	-0.59257674
45	0xbde35647	-0.111004405
46	0x3eb94d72	0.361919
47	0x3e43eec6	0.19134054
48	0x3f0e1d38	0.55513334
49	0xbeb5a0cc	-0.3547424
50	0xbe08cf35	-0.13360293
51	0xbf023b07	-0.5087132
52	0x3e796cd7	0.24357925
53	0xbde8e326	-0.1137145
54	0x3ef1585f	0.47137734
55	0x3ea2570f	0.31707045
56	0xbebaf78f	-0.36516997
57	0x3dc01117	0.0937826
58	0xbdee44ee	-0.11634241
59	0xbe889b54	-0.26681006
60	0xbe055bfa	-0.13023368
61	0x3c0e21f2	0.008675085
62	0x3e0c815a	0.13721219
63	0x3e5deac4	0.21671587
64	0x3e252c6f	0.16130231
65	0x3eac541e	0.33657926
66	0x3f1be4d0	0.60896015
67	0x3f48b29c	0.78397536
68	0x3f22b531	0.63557726
69	0x3ed20037	0.4101579
70	0xbde7e484	-0.11322883
71	0x3f14fa8a	0.5819479
72	0xbeb6871f	-0.35649964
73	0xbea41a8e	-0.3205151
74	0xbdeef3f9	-0.11667628
75	0x3e14b827	0.14523374
76	0x3f1977bc	0.59948325
77	0x3edc602e	0.4304213
78	0xbed4a50e	-0.41532177
79	0x3de24323	0.110479616
80	0x3ea1e286	0.31618136
81	0xbe6f2586	-0.23354158
82	0xbef2a477	-0.47391102
83	0xbea8f527	-0.32999536
84	0x3ee8831e	0.45412534
85	0xbde8a22e	-0.11359058
86	0x3e8fff52	0.2812448
87	0xbe6fde65	-0.2342468
88	0xbee08a95	-0.4385573
89	0xbefa844c	-0.4892906
90	0x3ebc1d4c	0.36741102
91	0xbe2d89a0	-0.16947031
92	0x3bbcf40a	0.0057663964
93	0xbc9e386f	-0.019314019
94	0xbd516155	-0.051118214
95	0xbc8d6a32	-0.017262552
96	0x3d18aa67	0.037271883
97	0xbe9f5554	-0.31119788
98	0x3f182cd3	0.59443396
99	0xbdde06d8	-0.10841149
100	0xbe687543	-0.22700982
101	0x3cd4aad6	0.025960367
102	0xbe5cd6a2	-0.21566251
103	0xbe5154e6	-0.20442542
104	0xbe93596b	-0.28779158
105	0x3e6a8188	0.22900975
106	0x3d7d6ccf	0.061871346
107	0x3ec7ee99	0.39049223
108	0x3e8fab57	0.2806041
109	0xbd66393c	-0.056206927
110	0x3e18d300	0.1492424
111	0x3d83f673	0.06443491
112	0xbe287a19	-0.16452827
113	0xbf04b436	-0.5183748
114	0xbe801a16	-0.25019902
115	0xbdc45f1d	-0.09588454
116	0xbe1340d1	-0.14380194
117	0xbe6d6d6d	-0.23186274
118	0x3e04185a	0.12899914
119	0xbc1085a1	-0.008820922
120	0x3e51147f	0.20417975
121	0x3e6f1d98	0.23351133
122	0xbe1ad69c	-0.1512093
123	0xbefbd164	-0.4918319
124	0x3db82649	0.08991677
125	0x3dac5c0a	0.084159926
126	0xbe91fe8e	-0.28514522
127	0x3f34b30a	0.7058569
128	0xbebad018	-0.36486888
129	0x3eb03737	0.34417126
130	0x3e309f14	0.17248183
131	0x3f01963c	0.50619864
132	0xbdd8762e	-0.10569416
133	0x3ad23022	0.0016036073
134	0x3e3c2dc1	0.18376829
135	0x3f009976	0.5023416
136	0xbd9cf52e	-0.07663952
137	0xbedc3935	-0.43012396
138	0x3d7998fd	0.060936917
139	0xbeafad88	-0.3431208
140	0x3ee7676a	0.45196086
141	0x3ed9be02	0.42527777
142	0x3e90572b	0.28191504
143	0x3eeb0d4c	0.45908582
144	0xbdd7018d	-0.10498343
145	0x3d01b30a	0.031664886
146	0xbbf44448	-0.007454429
147	0x3ece921c	0.40345848
148	0x3ee7c5b3	0.4526802
149	0x3eec6d23	0.46177015
150	0xbe05e9e4	-0.13077503
151	0x3dbd3f23	0.09240558
152	0xbf233032	-0.63745415
153	0x3dc1ae0a	0.094570234
154	0x3e0bb842	0.13644508
155	0x3e09ee23	0.13469748
156	0xbf0879f2	-0.53311074
157	0xbedc92e4	-0.4308082
158	0x3eaa6afd	0.3328475
159	0xbebb59ed	-0.36592045
160	0xbf38977a	-0.72106135
161	0xbeb699ee	-0.35664314
162	0x3eab52f7	0.33461735
163	0x3d9206cd	0.071302034
164	0x3f1dc566	0.6162933
165	0xbeef9015	-0.46789613
166	0x3eb63a8c	0.35591543
167	0xbe902415	-0.28152528
168	0x3ebf625b	0.37379727
169	0x3e12ef3b	0.14349072
170	0x3ead79eb	0.3388208
171	0x3f161e68	0.58640146
172	0xbda827b5	-0.082106985
173	0xbd3e77d6	-0.046501003
174	0xbae359ec	-0.0017345524
175	0xbe9c0bd5	-0.30477777
176	0xbdd2daec	-0.10295662
177	0x3d0a2910	0.033730567
178	0x3eb42eca	0.35191947
179	0x3f0730fe	0.5280913
180	0xbf1807ca	-0.59386885
181	0xbeb2f9c3	-0.34956178
182	0x3de2345f	0.11045145
183	0xbf0fd97f	-0.5619125
184	0x3e83c2f5	0.25734678
185	0xbeca0e5e	-0.39464086
186	0xbf11e1c7	-0.56985134
187	0xbed18b6c	-0.40926683
188	0x3e0495fc	0.1294784
189	0x3efc2157	0.49244186
190	0x3eddb2ea	0.43300563
191	0x3e93cd6d	0.28867665
192	0x3ec1b30c	0.37831914
193	0x3ea8d587	0.32975408
194	0xbc6911ab	-0.014225404
195	0xbe997e18	-0.29979014
196	0x3f183cca	0.59467757
197	0x3e42af6c	0.1901223
198	0xbe90828f	-0.28224608
199	0x3e8fab3e	0.28060335
200	0xbedd21cd	-0.4318985
201	0x3ef55f1b	0.47924122
202	0x3e047e6a	0.12938848
203	0x3ed589a5	0.41706577
204	0xbdaafe10	-0.0834924
205	0x3e389950	0.18027234
206	0x3e1003ef	0.14064
207	0xbdcd31a1	-0.100192316
208	0xbd64fe28	-0.055906445
209	0xbd4ea970	-0.050454557
210	0xbd976b4e	-0.073935136
211	0xbf02cbac	-0.5109203
212	0xbefa81ac	-0.48927057
213	0xbdc184d1	-0.09449161
214	0x3e0cc57e	0.13747212
215	0xbea105a6	-0.31449622
216	0xbf24b19b	-0.64333504
217	0xbefc4589	-0.492718
218	0xbf1a3289	-0.6023336
219	0xbe9243bd	-0.28567305
220	0x3f34adc5	0.7057765
221	0x3f189981	0.5960923
222	0x3e5e2180	0.21692467
223	0xbeb9823e	-0.3623218
224	0xbcfe4b86	-0.031041872
225	0x3e349e2b	0.17638461
226	0x3e824c5e	0.2544889
227	0xbd9f2317	-0.07770365
228	0x3ece737f	0.40322492
229	0x3f408749	0.7520643
230	0x3f03e359	0.5151878
231	0x3e62da8d	0.22153683
232	0x3ca99a08	0.02070333
233	0xbf075391	-0.5286189
234	0xbf147aae	-0.57999694
235	0x3b4785b8	0.0030444693
236	0xbc9993d6	-0.018747251
237	0x3e763fae	0.2404773
238	0x3ea7fbea	0.32809383
239	0x3e6e20c3	0.23254685
240	0x3d5db5d3	0.05412848
241	0x3e3738b1	0.1789272
242	0x3dd2ed95	0.102992214
243	0x3dbd2889	0.09236247
244	0x3ee2939a	0.44253236
245	0x3e2ba504	0.16762167
246	0x3e0859fe	0.1331558
247	0x3ec0fc9d	0.3769273
248	0x3e218035	0.15771563
249	0x3d7696c0	0.06020236
250	0xbdff86a4	-0.124768525
251	0xbebb3c4d	-0.36569443
252	0xbed635aa	-0.41837817
253	0xbf3f2020	-0.74658394
254	0xbf149698	-0.5804229
255	0x3ea86a4b	0.32893595

bias f4 [96]
0	0x3f12c114	0.57325864
1	0xbea648b5	-0.32477346
2	0x3e005947	0.12534057
3	0xbdd27187	-0.1027556
4	0x3e8c9fa1	0.27465537
5	0xbe327f0d	-0.17431279
6	0xbdea53e8	-0.11441785
7	0x3e9ba821	0.3040171
8	0xbf20887a	-0.62708247
9	0xbd4d27ad	-0.050086666
10	0xbe8cb8e2	-0.27484804
11	0x3e93580b	0.2877811
12	0xbedd4a8a	-0.4322093
13	0x3f10e71d	0.5660265
14	0xbebf12a9	-0.37318924
15	0x3f1ffaab	0.62491864
16	0x3ed45ca8	0.4147694
17	0xbe9faa9c	-0.31184852
18	0x3eff8cd1	0.49912122
19	0xbf37cbef	-0.7179555
20	0xbe3aae13	-0.18230467
21	0x3eb3363e	0.3500232
22	0x3e82fdbb	0.25584206
23	0x3e91959c	0.28434455
24	0xbe1c8d59	-0.15288295
25	0xbe39ed3a	-0.18156901
26	0xbef8fa84	-0.48628628
27	0xbe0455c4	-0.12923342
28	0xbe200227	-0.15625821
29	0xbd6663ff	-0.056247707
30	0x3e6505f0	0.22365546
31	0xbef7da10	-0.48408556
32	0x3e9ccb31	0.30623773
33	0xbdb8cdc9	-0.090236254
34	0xbe425341	-0.18977071
35	0x3ef6d3b3	0.4820839
36	0x3f15626e	0.58353317
37	0xbe88ab0e	-0.26693004
38	0xbdd31faa	-0.10308774
39	0xbb129d96	-0.002237176
40	0xbe2fc2c7	-0.17164145
41	0xbeb79e46	-0.3586294
42	0x3ec4e146	0.3845312
43	0x3ef9745b	0.48721585
44	0xbec2b2e2	-0.38027102
45	0x3ec6e967	0.38849947
46	0x3bcd2255	0.006260196
47	0x3f0a8a58	0.54117346
48	0xbeb3deb2	-0.3513084
49	0x3e9204c9	0.28519276
50	0xbf380d17	-0.71894974
51	0xbc5fdee6	-0.013663983
52	0xbe6e54c2	-0.2327452
53	0xbec3ec6c	-0.38266313
54	0x3e9e76c7	0.30949995
55	0xbeb92b42	-0.36165816
56	0x3f0841b7	0.5322527
57	0x3ddda436	0.108223364
58	0xbe89d049	-0.2691672
59	0x3e7d8571	0.24757935
60	0xbe935515	-0.2877585
61	0x3c4fef7b	0.012691374
62	0xbee5c7fc	-0.44879138
63	0x3f080919	0.5313888
64	0x3e58329e	0.21113059
65	0xbe772065	-0.24133451
66	0x3ee0bcb7	0.43893978
67	0x3e4c64ac	0.19960278
68	0xbe01f383	-0.12690549
69	0xbe52092d	-0.20511313
70	0xbe842470	-0.2580905
71	0xbc73ff6a	-0.014892438
72	0xbee9eb40	-0.45687294
73	0x3e9c7321	0.30556586
74	0x3e33984b	0.17538564
75	0x3ed0a41d	0.40750208
76	0x3eea4813	0.45758113
77	0xbe552c78	-0.20817745
78	0xbf19d398	-0.6008849
79	0x3cd28d5d	0.025702173
80	0x3e4918ef	0.19638418
81	0x3e03ad55	0.1285909
82	0x3e40c935	0.18826754
83	0x3bc50e43	0.006013663
84	0xbf291438	-0.66046476
85	0xbec21c33	-0.3791214
86	0x3f13da18	0.5775466
87	0x3c0875f9	0.008328908
88	0xbe79bd38	-0.24388587
89	0xbec3e144	-0.38257802
90	0xbf099ab6	-0.53751695
91	0xbf2dc3ea	-0.67877066
92	0xbde87ec3	-0.11352303
93	0x3f00d959	0.50331646
94	0x3f05e9a4	0.5230963
95	0xbeb25d0c	-0.34836614

bias f4 [96]
0	0x3f267bf4	0.6503289
1	0xbf0fc081	-0.5615311
2	0xbf22b09d	-0.6355074
3	0x3eeb66c0	0.4597683
4	0x3ee431b4	0.4456917
5	0xbf1f7715	-0.6229108
6	0x3ee33067	0.44372866
7	0xbf0e31a7	-0.55544513
8	0x3e855c0e	0.26046795
9	0xbf2f565b	-0.68491143
10	0xbed9e192	-0.4255491
11	0x3f1579ce	0.58388984
12	0xbf0b6352	-0.54448426
13	0x3f04466b	0.5166995
14	0xbf0a904a	-0.5412642
15	0xbf33a0b4	-0.7016709
16	0xbf01255e	-0.5044764
17	0xbf347f8a	-0.7050711
18	0x3eaa8288	0.33302712
19	0xbf21b534	-0.6316712
20	0x3f371e2d	0.7153042
21	0x3f2707ac	0.6524608
22	0xbf0bbccd	-0.5458496
23	0x3f00228d	0.5005272
24	0xbeff57ee	-0.49871773
25	0x3f2402f4	0.64067006
26	0x3f026aec	0.509444
27	0xbeec6ba6	-0.4617588
28	0x3eff5d2e	0.49875778
29	0x3f049356	0.51787317
30	0x3eb09dcd	0.34495392
31	0xbf2ed2b7	-0.68290275
32	0xbf3c9b4d	-0.7367447
33	0xbeefcef2	-0.46837574
34	0x3f3dc347	0.74126095
35	0x3f3a6d51	0.72823054
36	0xbeb50577	-0.35355732
37	0xbef5a550	-0.47977686
38	0xbe8bc8fa	-0.2730177
39	0x3f132162	0.57472813
40	0xbf1c400f	-0.61035246
41	0x3f38e895	0.7222989
42	0xbf065c7d	-0.52484876
43	0xbe452ff5	-0.19256575
44	0x3f035638	0.51303434
45	0x3ee3a934	0.4446503
46	0x3f060304	0.5234835
47	0xbec32d95	-0.38120714
48	0xbf11541e	-0.5676898
49	0x3f037513	0.51350516
50	0xbf00b20a	-0.50271666
51	0xbefbb4ae	-0.49161285
52	0xbeacd14c	-0.3375343
53	0xbefaa0a6	-0.4895069
54	0xbed0c20e	-0.40773052
55	0x3f155feb	0.58349484
56	0xbf2e0def	-0.6799001
57	0xbee8b7e1	-0.45452788
58	0x3f1c136a	0.60967124
59	0x3ec2e97a	0.38068753
60	0x3edcc7a8	0.43121076
61	0x3f19addf	0.6003093
62	0x3ee45294	0.44594252
63	0xbeca1657	-0.3947017
64	0x3f36d587	0.71419567
65	0x3ee5421c	0.44777
66	0x3eea78b8	0.45795226
67	0xbec0a571	-0.37626222
68	0x3edf9c36	0.43673867
69	0xbecc009c	-0.39844215
70	0xbed407b9	-0.41412142
71	0x3f19ef61	0.6013089
72	0x3f08f612	0.53500473
73	0x3f10d0f4	0.5656884
74	0x3f00640c	0.5015266
75	0xbf198df4	-0.5998223
76	0xbf057f48	-0.5214734
77	0xbf124213	-0.5713207
78	0x3f12c7ec	0.57336307
79	0x3f202fb2	0.6257278
80	0x3e5423d9	0.207168
81	0x3ee1ee04	0.44126904
82	0xbee36470	-0.44412565
83	0x3f2df274	0.6794808
84	0x3ef0febe	0.47069353
85	0xbf183df9	-0.5946956
86	0x3f07c1eb	0.5303027
87	0xbf2b578f	-0.6693048
88	0x3f105b81	0.56389624
89	0x3f28807d	0.6582106
90	0xbecdd6b8	-0.4020288
91	0x3f049524	0.5179007
92	0xbefaec42	-0.49008375
93	0x3f1f870f	0.6231546
94	0x3f02c13e	0.51076114
95	0xbf19a35b	-0.60014886

weight f4 [96, 96]
0	0xbd16aa31	-0.0367834
1	0xbe11373c	-0.14181226
2	0x3e642273	0.22278766
3	0x3ce81126	0.02832849
4	0x3ca64ba1	0.020299735
5	0xbae76295	-0.0017653281
6	0x3cabf33e	0.02099001
7	0xbd4304f8	-0.04761216
8	0x3c6231c6	0.013805812
9	0xbe129fc4	-0.14318758
10	0xbe7ffe57	-0.24999367
11	0x3dac46b0	0.0841192
12	0xbe750386	-0.23927125
13	0x3e9a0a36	0.30085915
14	0xbd414d67	-0.047192957
15	0xbe896597	-0.2683532
16	0x3d5432da	0.05180631
17	0xbdce8a17	-0.10084932
18	0x3dbb1a9b	0.09135934
19	0xbd6692d3	-0.056292366
20	0x3e3ae1c8	0.18250191
21	0x3e0b2b2d	0.13590689
22	0x3e8b5132	0.27210385
23	0x3ceafbb7	0.02868448
24	0xbe6654a5	-0.22493227
25	0x3e5e1ebe	0.21691415
26	0xbe4064e8	-0.18788493
27	0xbe178fc0	-0.1480093
28	0x3cd6e0e1	0.026230277
29	0xbd832784	-0.064040214
30	0xbe850d55	-0.25986734
31	0xbd7429f1	-0.05961031
32	0xbe2d3a40	-0.16916752
33	0xbdd232de	-0.102636084
34	0xbdf18a13	-0.11793914
35	0xbe564a87	-0.20926867
36	0x3ec01fa1	0.3752413
37	0xbe1ed1c2	-0.15509704
38	0x3d7f3906	0.06231024
39	0x3e29f2c7	0.16596518
40	0xbe1d5568	-0.15364611
41	0x3e9cb6b9	0.30608156
42	0xbdc66320	-0.09686875
43	0xbd1b94b6	-0.03798362
44	0xbd8db012	-0.06918348
45	0xbdec7ec7	-0.11547618
46	0x3d93d656	0.07218616
47	0xbe1e3583	-0.154501
48	0xbe127091	-0.14300753
49	0x3d62261a	0.055212118
50	0x3c042679	0.008065813
51	0x3d18d56c	0.03731291
52	0xbe5ba4e2	-0.21449617
53	0xbebadcdd	-0.3649663
54	0x3ecb3f31	0.3969665
55	0xbe3e8be3	-0.1860805
56	0x3e55c2c8	0.20875084
57	0x3e322335	0.17396243
58	0x3ca089d5	0.019596973
59	0xbdc3e409	-0.09564979
60	0xbded6c96	-0.11592977
61	0xbe524f76	-0.20538124
62	0xbdc2c4e5	-0.09510211
63	0xbdd3d8fa	-0.10344119
64	0x3e757931	0.23972012
65	0xbde319f1	-0.11088932
66	0x3e0a0e69	0.1348206
67	0x3e7919eb	0.24326293
68	0xbdc134bf	-0.09433889
69	0x3e331ddc	0.17491859
70	0x3dc721aa	0.09723218
71	0xbd2555b8	-0.04036495
72	0xbd494f1d	-0.049147714
73	0xbca16a6c	-0.019704066
74	0x3e0a7df9	0.13524617
75	0xbd982fb4	-0.07430974
76	0x3ecb1ff9	0.3967283
77	0x3dfa8222	0.12231852
78	0xbe01742c	-0.12641972
79	0x3e553e95	0.20824654
80	0xbdb83797	-0.08994978
81	0x3d9b7fa4	0.07592705
82	0x3e936767	0.28789827
83	0xbe5fed4c	-0.21867865
84	0xbdf1df98	-0.11810225
85	0xbda498c7	-0.080369525
86	0x3e69f28a	0.22846428
87	0x3e3a42b0	0.18189502
88	0x3eb398da	0.35077554
89	0xbea1f0ed	-0.31629124
90	0xbe3211f6	-0.17389664
91	0x3c4b84a5	0.012421762
92	0xbdd4ca2c	-0.10390124
93	0x3dc932a7	0.09824114
94	0x3e5e0212	0.21680477
95	0x3774d288	1.4592551e-05
96	0x3eac0ac4	0.33601964
97	0x3c864824	0.016391821
98	0xbddfcc70	-0.10927665
99	0xbe956418	-0.29177928
100	0xbd2bacfb	-0.041913014
101	0x3d8c0bc0	0.06838179
102	0xbd71abf1	-0.059001867
103	0xbe569e3b	-0.20958798
104	0xbead76c0	-0.33879662
105	0x3e32ff8d	0.17480297
106	0x3e03dc03	0.12876897
107	0x3d777c9d	0.060421575
108	0x3e58d5de	0.21175334
109	0xbe950dc2	-0.2911206
110	0x3dff9f66	0.12481575
111	0xbdf69c3a	-0.120415166
112	0xbe3a88fe	-0.18216321
113	0xbd48fcff	-0.0490694
114	0x3dfd8c69	0.12380297
115	0x3e3d41ff	0.18482207
116	0xbe756a43	-0.23966317
117	0xbe4ca657	-0.19985329
118	0x3c37b153	0.011211711
119	0x3df88cb9	0.12136216
120	0xbc8678e6	-0.01641507
121	0xbdd432d6	-0.10361259
122	0x3df98049	0.121826716
123	0x3dc05784	0.09391692
124	0x3d01a301	0.031649593
125	0x3e6f8661	0.23391105
126	0xbd8f2588	-0.069895804
127	0xbd3c5607	-0.04598048
128	0xbda44fcd	-0.08023033
129	0xbe0e4b3b	-0.13895886
130	0xbdfe70f8	-0.12423891
131	0xbd54cedf	-0.0519551
132	0xbed81baf	-0.4220862
133	0xbe3f0ea3	-0.18657927
134	0x3d4fdb2e	0.050746135
135	0xbca77b1b	-0.020444443
136	0xbe058dba	-0.13042346
137	0x3edc7461	0.4305754
138	0x3d99cb2d	0.07509456
139	0xbda991b4	-0.08279744
140	0x3e0cc65a	0.1374754
141	0x3d48dc21	0.049038056
142	0xbe8d0e99	-0.275502
143	0xbe9be925	-0.30451313
144	0x3dda16ef	0.106489055
145	0xbe50b917	-0.20383106
146	0xbd7f88cd	-0.062386323
147	0xbd9c59c7	-0.07634311
148	0xbd96a4c5	-0.07355646
149	0x3cc218cd	0.023693467
150	0xbd72c1b8	-0.059266776
151	0x3dd3258e	0.10309897
152	0x3e6527f8	0.22378528
153	0x3dd5a0d3	0.104310654
154	0xbd8896c5	-0.06669382
155	0xbe545625	-0.20735987
156	0x3d288535	0.04114266
157	0xbe0d09a4	-0.13773209
158	0x3de3163a	0.11088224
159	0x3dba6571	0.0910138
160	0x3a047ef1	0.0005054316
161	0xbd31cd1f	-0.04340851
162	0x3e1c6162	0.15271524
163	0x3d0a8f43	0.03382803
164	0x3e21820f	0.1577227
165	0xbd89ef18	-0.06735057
166	0x3daa11d1	0.083041795
167	0xbce834d5	-0.028345505
168	0x3e5232bc	0.20527166
169	0x3e4b8fef	0.19879125
170	0xbdbaff9a	-0.091307834
171	0x3dcbfbe7	0.09960156
172	0xbed4694b	-0.41486582
173	0xbdb86531	-0.09003676
174	0x3c2b8fa9	0.010471263
175	0xbe08ca50	-0.13358426
176	0x3cd05622	0.025431696
177	0xbe3c62a9	-0.18397011
178	0x3db3d317	0.087804966
179	0xbd6d94ae	-0.05800312
180	0x3ccf0e16	0.025275271
181	0xbc3af4ee	-0.011410935
182	0xbddd6a7f	-0.10811328
183	0xbe2afdcb	-0.16698377
184	0xbdfa4a50	-0.12221205
185	0x3e4a7b37	0.19773565
186	0x3e4a04fa	0.19728461
187	0x3ec397ee	0.3820185
188	0x3dbbae64	0.09164122
189	0xbe3199f9	-0.17343892
190	0x3e67aa32	0.22623518
191	0xbe51b318	-0.20478475
192	0xbe9dda49	-0.308306
193	0x3bd27139	0.0064221886
194	0xbb03971c	-0.0020079082
195	0x3e3f37e8	0.1867367
196	0xbe0fd8a7	-0.1404749
197	0x3e155436	0.14582905
198	0x3dddcdef	0.10830294
199	0x3dcb59d1	0.099292405
200	0xbe7d3e6a	-0.2473084
201	0xbc4c9006	-0.01248551
202	0x3e18394c	0.14865607
203	0x3da919dc	0.082568854
204	0x3e9acedd	0.3023595
205	0xbca616a6	-0.020274471
206	0x3dccc37b	0.099982224
207	0x3e23180c	0.15927142
208	0x3e00f963	0.12595133
209	0xbdddc298	-0.108281314
210	0x3d0a24e3	0.033726584
211	0xbec092f4	-0.37612116
212	0x3c2b094e	0.01043923
213	0xbdbb504f	-0.09146177
214	0xbe18854e	-0.14894602
215	0xbd32b5ba	-0.04363034
216	0x3da20edb	0.0791299
217	0xbd8e3c50	-0.069450974
218	0x3d716b33	0.058940124
219	0x3d4f4d65	0.05061092
220	0xbd94b6ac	-0.072614044
221	0x3d06e087	0.03292897
222	0xbd35580c	-0.04427342
223	0x3edfadd7	0.43687317
224	0xbdbb5a68	-0.09148103
225	0x3dbc827b	0.09204575
226	0xbcbc3d6a	-0.022978503
227	0xbe843541	-0.2582188
228	0xbe5df5a8	-0.21675742
229	0x3d8dcf36	0.06924288
230	0xbe08376b	-0.1330239
231	0x3cbdc85f	0.023166833
232	0x3e2ad50c	0.16682833
233	0x3caf50d6	0.02140085
234	0xbdee4927	-0.116350465
235	0xbe8a31f2	-0.2699123
236	0x3e8e74cc	0.27823484
237	0xbe61c1e4	-0.2204662
238	0x3e369ea5	0.17833956
239	0xbe575e45	-0.21032055
240	0x3da88982	0.082293525
241	0xbd7f2836	-0.062294208
242	0x3e815241	0.25258067
243	0x3d8d25d7	0.06891983
244	0x3e20c843	0.15701394
245	0x3e4f4017	0.20239292
246	0xbe5fd0d3	-0.21857004
247	0x3d8328a0	0.06404233
248	0xbe26228e	-0.16224119
249	0xbe5b41cc	-0.21411818
250	0x3d504278	0.05084464
251	0xbda69f90	-0.08135903
252	0x3e4a7104	0.19769675
253	0xbd59730c	-0.053088233
254	0x3d992cfd	0.07479284
255	0xbe87b022	-0.26501566

weight f4 [96]
0	0x3f81f0c1	1.0151597
1	0x3f7627df	0.9615459
2	0x3f5f67a4	0.8726752
3	0x3f630a25	0.88687354
4	0x3f6b3929	0.91884094
5	0x3f8737bb	1.0563883
6	0x3f83b73f	1.0290297
7	0x3f60a144	0.8774607
8	0x3f9b94fd	1.2154843
9	0x3f7318b3	0.94959563
10	0x3f456a89	0.77115685
11	0x3f85813a	1.0430062
12	0x3f5357ae	0.82555664
13	0x3f47705e	0.77905834
14	0x3f84cd4e	1.0375154
15	0x3f8ea2b6	1.1143405
16	0x3f57283b	0.8404576
17	0x3f72468f	0.94638914
18	0x3f39dbca	0.72600996
19	0x3f5a4623	0.8526327
20	0x3f7be99b	0.9840333
21	0x3f815692	1.0104544
22	0x3f5f6a42	0.8727151
23	0x3f4115e0	0.75424004
24	0x3f61bb95	0.8817685
25	0x3f8480f4	1.0351853
26	0x3f5ed396	0.87041605
27	0x3f6c50ac	0.92310596
28	0x3f80c71b	1.0060762
29	0x3f5ca318	0.8618636
30	0x3f62f01d	0.88647634
31	0x3f6dbcbc	0.9286611
32	0x3f57de6f	0.8432378
33	0x3f8264d0	1.0187016
34	0x3f5262b2	0.8218185
35	0x3f7c984b	0.9866988
36	0x3f78664f	0.9703111
37	0x3f7139b9	0.942287
38	0x3f8190dd	1.0122334
39	0x3f745ac6	0.9545101
40	0x3f7c8603	0.98641986
41	0x3f875008	1.0571299
42	0x3f6ff0ba	0.93726695
43	0x3f39ac25	0.72528297
44	0x3f86faf6	1.0545337
45	0x3f264899	0.64954525
46	0x3f6b763a	0.91977274
47	0x3f64a2bb	0.89310807
48	0x3f634d1b	0.8878953
49	0x3f8beb01	1.0931093
50	0x3f5fd7a6	0.8743843
51	0x3f6a7461	0.9158383
52	0x3f7e4fb6	0.9934038
53	0x3f6a9ab7	0.91642326
54	0x3f749f15	0.9555524
55	0x3f7838aa	0.9696146
56	0x3f81196a	1.0085881
57	0x3f81a81d	1.0129429
58	0x3f8071e9	1.0034763
59	0x3f7c6304	0.98588586
60	0x3f8d594c	1.1042876
61	0x3f5fc45b	0.8740899
62	0x3f5cdbcd	0.8627289
63	0x3f72f3e9	0.9490343
64	0x3f6154b6	0.88019884
65	0x3f7f3250	0.99686146
66	0x3f5c000d	0.8593758
67	0x3f6255d1	0.88412195
68	0x3f7e9bb7	0.9945635
69	0x3f8215d7	1.0162915
70	0x3f81e574	1.0148149
71	0x3f653b32	0.8954345
72	0x3f6cccae	0.92499816
73	0x3f905d46	1.1278465
74	0x3f580c55	0.8439382
75	0x3f813b12	1.0096152
76	0x3f80ecb5	1.0072237
77	0x3f7ab1a0	0.97927284
78	0x3f7b337b	0.9812543
79	0x3f79effd	0.9763182
80	0x3f0ef608	0.55844164
81	0x3f83f3c7	1.030877
82	0x3f7587b6	0.95910203
83	0x3f83324d	1.0249726
84	0x3f5b27f1	0.8560782
85	0x3f5e4ea7	0.86838764
86	0x3f72f250	0.9490099
87	0x3f49cdbd	0.78829557
88	0x3f35cfbc	0.710201
89	0x3f55581c	0.8333757
90	0x3f51e61f	0.8199176
91	0x3f800e5c	1.0004382
92	0x3f84c160	1.0371513
93	0x3f5f550c	0.87239146
94	0x3f8174a3	1.011372
95	0x3f84386c	1.0329719

bias f4 [96]
0	0xbf66574e	-0.89976966
1	0x3f509ebe	0.8149222
2	0x3f4c6958	0.7984824
3	0x3f38040f	0.7188119
4	0xbf043114	-0.5163739
5	0xbf57e036	-0.84326494
6	0x3f39d7fb	0.72595185
7	0x3f2b6880	0.6695633
8	0x3f337dd8	0.701139
9	0xbf5690cb	-0.83814687
10	0x3f072a01	0.5279847
11	0x3f2044d0	0.62605
12	0x3efc8127	0.49317285
13	0x3f19c5d4	0.60067487
14	0xbf31a6e0	-0.69395256
15	0x3f3113f3	0.69171065
16	0x3f32c4b1	0.6983138
17	0x3f2cd404	0.6751101
18	0xbec42b82	-0.38314444
19	0xbf24cf81	-0.64379126
20	0x3f336579	0.7007671
21	0x3f1f58d1	0.622449
22	0xbf1c9dfd	-0.6117857
23	0x3ed71233	0.42006072
24	0xbf2f4826	-0.68469465
25	0xbf41973b	-0.75621384
26	0x3f473005	0.77807647
27	0xbf27f688	-0.6561055
28	0x3f4c6f7c	0.7985761
29	0x3f2e36f7	0.6805262
30	0x3f1093aa	0.5647532
31	0x3f5142ff	0.8174285
32	0xbf395e1c	-0.72409225
33	0x3f34b81e	0.7059344
34	0xbf5788bd	-0.8419302
35	0xbf344a39	-0.70425755
36	0x3f4a4a28	0.79019403
37	0x3f14bf16	0.58104074
38	0xbeee95ac	-0.46598566
39	0x3f4831bd	0.78200895
40	0x3f3ee468	0.7456727
41	0xbf8199a0	-1.0125008
42	0xbef66b1b	-0.4812859
43	0x3e4c3ed6	0.19945845
44	0xbf2f3003	-0.68432635
45	0x3ee17a82	0.4403878
46	0xbf255085	-0.6457599
47	0xbf2c0bcb	-0.67205495
48	0xbf460868	-0.77356577
49	0xbf6684fa	-0.90046656
50	0xbf1a6459	-0.6030937
51	0xbf3d8efe	-0.74046314
52	0xbf1abe84	-0.60446954
53	0x3f262f37	0.64915794
54	0x3f198222	0.5996419
55	0x3f2f47f7	0.68469185
56	0xbf54e67b	-0.83164185
57	0xbf3b2672	-0.7310554
58	0xbf254592	-0.6455928
59	0xbef6aa4e	-0.48176807
60	0x3f2ffd8c	0.68746257
61	0xbf1856e1	-0.59507567
62	0x3f2951c0	0.66140366
63	0xbf1f351e	-0.62190425
64	0xbf252ce7	-0.6452164
65	0x3f2ee586	0.68318975
66	0xbf1bd26d	-0.6086796
67	0x3f01f5a1	0.50765425
68	0xbf341cfb	-0.7035672
69	0xbf406bcc	-0.75164485
70	0x3f2dedf4	0.6794121
71	0xbf116327	-0.5679192
72	0x3f3e55be	0.7434958
73	0xbf35a632	-0.7095672
74	0xbf1fdc4c	-0.6244552
75	0x3f4eb6e7	0.80747837
76	0xbf06751f	-0.5252246
77	0xbf2e4da4	-0.6808722
78	0xbf5976c6	-0.8494686
79	0xbf3ca915	-0.736955
80	0xbe903d3c	-0.28171718
81	0x3f192457	0.59821075
82	0xbf7d0577	-0.98836464
83	0x3f1ba8d2	0.60804474
84	0xbf062d88	-0.52413225
85	0xbf234f42	-0.6379281
86	0x3ee8c09a	0.45459443
87	0xbf128339	-0.5723148
88	0xbf016f6e	-0.50560653
89	0xbf257f3a	-0.6464726
90	0xbf09ec66	-0.5387634
91	0xbf14db96	-0.5814756
92	0x3f78a98a	0.97133696
93	0x3f5fc9bc	0.874172
94	0xbf447dc7	-0.7675442
95	0x3f3b7bdd	0.73235875

mean_scale f4 [96]
0	0x3fdf9ba1	1.7469369
1	0x3fc7e982	1.5618136
2	0x3fce158a	1.6100323
3	0x3f07e344	0.53081155
4	0x3fbbad8f	1.4662341
5	0x3eed4ce5	0.46347728
6	0x3ee7edd5	0.4529864
7	0x3fbbda8c	1.467607
8	0x3f21da8c	0.632241
9	0x3ebe0b4a	0.37117988
10	0x3fb7aa4b	1.4348844
11	0x3eea612b	0.45777258
12	0x3fba1592	1.4537833
13	0x3ebfbccc	0.37448728
14	0x3f0117b7	0.5042681
15	0x3fc4c9f4	1.5374131
16	0x3fbf522e	1.4946954
17	0x3fe08f11	1.754366
18	0x3fbb4b8e	1.4632432
19	0x3ea86c5c	0.32895172
20	0x3ea12896	0.31476277
21	0x3edcf4ea	0.43155605
22	0x3ee86b8b	0.4539455
23	0x3f00ea3e	0.50357425
24	0x3ecef5f7	0.4042203
25	0x3fc81508	1.5631418
26	0x3ea89d05	0.32932296
27	0x3ece518b	0.40296587
28	0x3f0d2632	0.55136406
29	0x3eebbea0	0.46043873
30	0x3f0b6891	0.5445643
31	0x3fca8d12	1.5824301
32	0x3eb07036	0.3446061
33	0x3fb727a9	1.4308978
34	0x3fd46f19	1.6596404
35	0x3fd47069	1.6596805
36	0x3fb73b9b	1.4315065
37	0x3fbce2c1	1.47567
38	0x3f364798	0.71202993
39	0x3ed33c81	0.41257098
40	0x3fbea0c4	1.4892812
41	0x3fd17016	1.6362331
42	0x3ecfb348	0.40566468
43	0x3fa6a9f5	1.3020617
44	0x3fbf03f0	1.4923077
45	0x3f0c7ddc	0.54879546
46	0x3fc49cc9	1.5360347
47	0x3ed880e7	0.42285845
48	0x3ef1271e	0.47100157
49	0x3fc15614	1.5104394
50	0x3ee057c0	0.43816948
51	0x3ef03864	0.46918023
52	0x3f27a36a	0.65483725
53	0x3fb80ed5	1.4379526
54	0x3fce2e62	1.6107905
55	0x3efbd888	0.49188638
56	0x3ec8cec8	0.39220262
57	0x3f0bc81c	0.5460222
58	0x3fc3e041	1.5302812
59	0x3fc17d4a	1.511636
60	0x3f094e29	0.5363489
61	0x3fcc4658	1.5958967
62	0x3f111689	0.5667501
63	0x3f13ae33	0.5768768
64	0x3fcf7c62	1.6209834
65	0x3f0af358	0.54277563
66	0x3fbe72b4	1.4878755
67	0x3fb3c725	1.4045149
68	0x3fc74b64	1.5569882
69	0x3f0ced20	0.55049324
70	0x3fb8a183	1.442429
71	0x3fcf59e3	1.6199306
72	0x3ee5c10e	0.44873852
73	0x3fc4bdd9	1.5370437
74	0x3fcf502a	1.6196339
75	0x3fcceb06	1.6009223
76	0x3f0b0261	0.54300505
77	0x3ef05d74	0.469463
78	0x3fc51ade	1.5398824
79	0x3fc898da	1.5671647
80	0x3fb273ac	1.394155
81	0x3f21e0c6	0.632336
82	0x3f160906	0.5860752
83	0x3ee0e7d0	0.4392686
84	0x3fafe5f7	1.3742055
85	0x3ecafd32	0.39646298
86	0x3edd37f7	0.4320676
87	0x3ecd1885	0.4005777
88	0x3fc2dcf0	1.5223675
89	0x3fd4b0eb	1.6616491
90	0x3f18b9f9	0.5965877
91	0x3fbcb8fd	1.4743954
92	0x3fc08a62	1.5042231
93	0x3ec4688f	0.38361022
94	0x3fbc4e8d	1.4711472
95	0x3fbde70e	1.4836137

bias f4 [64]
0	0xba80dff0	-0.0009832364
1	0xbda8a901	-0.0823536
2	0xbdf3f671	-0.11912239
3	0x3c257dbd	0.010100779
4	0x3df909c1	0.121600635
5	0xbdbf986a	-0.093552426
6	0x3ecb0b2b	0.39656958
7	0x3c0dcd28	0.00865487
8	0x3dc12ac0	0.09431982
9	0x3ddb6704	0.10713008
10	0x3e5ce66a	0.21572271
11	0xbdd47fd5	-0.103759445
12	0x3c9a0c96	0.01880483
13	0x3da64b33	0.08119812
14	0x3cd2dcfb	0.025740137
15	0xbd9c674c	-0.0763689
16	0x3d07be24	0.033140317
17	0x3e1cdcd4	0.15318614
18	0xbe783dd6	-0.24242339
19	0x3d8da5bc	0.06916377
20	0xbd99fb4c	-0.07518634
21	0x3ec9d41a	0.39419633
22	0x3e717eae	0.2358348
23	0xbddfd309	-0.10928924
24	0xbc9c9013	-0.019111669
25	0x3b998416	0.0046849353
26	0xbddc54ba	-0.10758348
27	0x3dfcad8f	0.12337791
28	0xbd41ddc9	-0.04733065
29	0xbd716a8b	-0.058939498
30	0x3ca05994	0.019573964
31	0x3caf4857	0.021396799
32	0xbd4cff7e	-0.050048344
33	0xbe09103d	-0.133851
34	0x3ddbc0ae	0.1073011
35	0xbd9b6db7	-0.07589286
36	0x3d388407	0.045047786
37	0x3c193c68	0.009352781
38	0xbe2a5616	-0.16634402
39	0xbe32bf02	-0.17455676
40	0x3dce8751	0.10084403
41	0x3ced9b43	0.029004699
42	0xbd88adc4	-0.06673768
43	0xbd3d750e	-0.04625421
44	0x3dbae6a1	0.0912602
45	0x3d1b8b05	0.037974376
46	0xbe3a4ce7	-0.18193398
47	0x3d407116	0.046982847
48	0x3cab304f	0.020897059
49	0x3c2bf8a9	0.010496297
50	0x3c8f3b77	0.01748441
51	0xbdd90847	-0.10597282
52	0x3e250fdb	0.1611933
53	0x3d6f46f4	0.058417276
54	0x4004b847	2.0737474
55	0x3df9be7f	0.12194537
56	0x3d157f11	0.036498133
57	0x3e646cc9	0.22307123
58	0xbd94dc59	-0.072685905
59	0x3db6d3c4	0.0892711
60	0xbcc6dab0	-0.0242742
61	0xbde8c2bd	-0.113652684
62	0xbd8eb963	-0.069689535
63	0x3edc201e	0.42993253

weight f4 [64, 96]
0	0xbe684871	-0.22683884
1	0xbdc38717	-0.09547251
2	0xbd8cfeea	-0.068845585
3	0x3e630359	0.22169246
4	0xbcaba72b	-0.020953735
5	0x3e951ee9	0.29125145
6	0xbd784d81	-0.06062079
7	0x3e7f0fc9	0.24908365
8	0x3c21a157	0.009865127
9	0x39a1039e	0.00030711008
10	0x3e88faa8	0.26753736
11	0xbb818318	-0.003952395
12	0xbe547172	-0.20746401
13	0xbe073f0f	-0.13207649
14	0x3d9c4ac3	0.07631447
15	0x3edaf1e8	0.42762685
16	0xbe0d7ba0	-0.1381669
17	0x3e4a1469	0.19734348
18	0xbd525b04	-0.05135633
19	0xbdb66103	-0.08905222
20	0xbd823cf3	-0.063592814
21	0xbddfbb83	-0.10924437
22	0x3e848afc	0.25887287
23	0x3e74ffb5	0.2392567
24	0xbd59425a	-0.053041793
25	0x3e3f537e	0.18684193
26	0xbb771977	-0.0037704387
27	0x3d5afb72	0.053462453
28	0x3e0254fc	0.12727731
29	0xbd16008e	-0.036621623
30	0x3d76e161	0.06027353
31	0x3e883642	0.26603895
32	0xbda6dde9	-0.08147795
33	0x3e84c812	0.25933892
34	0xbdef4270	-0.11682594
35	0xbd8f6863	-0.07002332
36	0xbe0572c6	-0.13032064
37	0xbd12f8e8	-0.035881907
38	0x3e9c7b14	0.3056265
39	0xbe795770	-0.24349761
40	0x3e040326	0.12891826
41	0x3dc0e706	0.09419064
42	0xb9cb8437	-0.00038817685
43	0x3d7183ee	0.05896371
44	0x3e1f16b6	0.15536007
45	0xbcc46b4b	-0.023976943
46	0x3c9e32bf	0.019311307
47	0xbdb32dd9	-0.08748979
48	0xbebbc2e9	-0.36672142
49	0xbe2204fd	-0.15822215
50	0x3e37dac3	0.17954545
51	0xbe3e0eb8	-0.18560302
52	0x3dd2f8cc	0.103013605
53	0xbe82aa9f	-0.255208
54	0x3df08f50	0.11746085
55	0xbe2655de	-0.16243693
56	0x3eaa88c3	0.33307466
57	0xbde445ed	-0.1114615
58	0x3ca6e41b	0.020372441
59	0xbdf16039	-0.11785931
60	0x3dc1e144	0.09466794
61	0x3e447095	0.19183572
62	0x3e685d34	0.22691804
63	0xbe64c2fd	-0.22340007
64	0xbe3a1c03	-0.18174748
65	0xbe96e587	-0.2947199
66	0xbc06784d	-0.008207393
67	0x3e6ae566	0.22939071
68	0x3e65bb32	0.2243469
69	0x3e1f9ea5	0.15587862
70	0xbe1a8f30	-0.15093684
71	0x3d182bbc	0.037151083
72	0xbd935a74	-0.07194987
73	0x3ee34d17	0.44394752
74	0x3e07fd64	0.13280255
75	0x3d2f1197	0.042741384
76	0xbd7cc842	-0.06171442
77	0xbdd19cf6	-0.10235016
78	0x3b4527d0	0.0030083545
79	0xbe0af501	-0.13570024
80	0x3dff6f52	0.124724045
81	0xbc9b7a5c	-0.018979244
82	0x3dfbddc1	0.122981556
83	0x3ea91620	0.33024693
84	0xbe568028	-0.20947325
85	0x3d1ec6c6	0.038763784
86	0xbe3457d0	-0.17611623
87	0x3e7aa07a	0.2447528
88	0xbe7b7831	-0.24557568
89	0xbdd827dd	-0.10554478
90	0x3b490512	0.0030673188
91	0x3e9c7f5c	0.30565917
92	0xbc851ed3	-0.01625005
93	0x3de51be3	0.111869596
94	0xbd34bc71	-0.044125024
95	0x3ebeb2a8	0.3724568
96	0x3e748175	0.23877509
97	0xbd821774	-0.063521296
98	0x3da46f9f	0.080291025
99	0xbe40c2ac	-0.18824261
100	0xbdb7b5a5	-0.08970193
101	0xbe12e0a0	-0.143435
102	0xbe5e80aa	-0.21728769
103	0x3e36d4e2	0.17854646
104	0xbe9066ff	-0.2820358
105	0xbea03e09	-0.3129733
106	0x3cd89fd1	0.026443394
107	0xbe7e5cc1	-0.2484007
108	0xbdf93364	-0.12168005
109	0x3e4a5c7b	0.19761841
110	0xbdb96498	-0.0905239
111	0xbd3d66a2	-0.046240456
112	0xbe0c2c86	-0.1368886
113	0xbe5dae4d	-0.21648522
114	0x3e05a72a	0.1305205
115	0xbe54d45b	-0.20784132
116	0xbc822663	-0.015887445
117	0xbe6e4152	-0.23267105
118	0xbcf60224	-0.030030318
119	0x3c9a468e	0.018832471
120	0x3d94a6d0	0.072583795
121	0x3de34126	0.110964105
122	0xbc53b54b	-0.012921642
123	0x3e54a69a	0.20766678
124	0x3ec6c737	0.38823864
125	0x3d9af997	0.07567137
126	0xbe277e0b	-0.16356675
127	0x3e761abe	0.24033639
128	0xbe28e12c	-0.16492146
129	0xbeb6d00a	-0.35705596
130	0xbd59b6bf	-0.053152796
131	0x3d8ee4da	0.06977244
132	0x3db92938	0.09041065
133	0x3e002708	0.12514889
134	0xbd9b2e7a	-0.07577224
135	0xbc2ae479	-0.010430449
136	0x3d19e325	0.037570138
137	0x3e6497bd	0.22323509
138	0xbe874801	-0.26422122
139	0xbcc05a52	-0.023480568
140	0x3db84e6f	0.08999335
141	0xbe06fc30	-0.1318214
142	0xbe415b63	-0.18882518
143	0x3e82cb79	0.25545862
144	0xbda965bf	-0.0827136
145	0xbdf6dea7	-0.12054186
146	0x3e3cfb91	0.1845534
147	0xbe1d5a6d	-0.15366526
148	0xbe885336	-0.26625985
149	0xbeb3b5a5	-0.3509952
150	0x3f019fab	0.5063426
151	0x3e054ca6	0.1301752
152	0xbeb2cf3e	-0.34923738
153	0x3e01df03	0.12682728
154	0xbe3dc678	-0.18532741
155	0x3ea87a31	0.32905725
156	0xbd493b23	-0.049128663
157	0xbd5bc04b	-0.05365018
158	0xbd475499	-0.048664663
159	0xbc2f3b7b	-0.010695334
160	0x3de00391	0.1093818
161	0xbbffb986	-0.0078040985
162	0x3e9345e6	0.28764266
163	0x3e14273b	0.1446809
164	0x3de2556a	0.11051448
165	0x3e4200e5	0.18945654
166	0x3ec2dd91	0.38059667
167	0x3e53024d	0.20606346
168	0xbd0fd4a1	-0.035114888
169	0xbc931b86	-0.01795746
170	0xbe0c539a	-0.13703766
171	0x3d374c00	0.044750214
172	0xbf08194c	-0.531636
173	0x3e2c42ba	0.16822329
174	0xbe2173c9	-0.15766825
175	0xbe2eec2e	-0.17082283
176	0xbe12b680	-0.1432743
177	0x3c1805c9	0.009278723
178	0xbe374d06	-0.17900476
179	0x3d4c949b	0.04994641
180	0x3e331bed	0.17491122
181	0x3d5ce0c3	0.053925287
182	0x3ca88473	0.02057097
183	0x3e1e28a0	0.15445185
184	0x3e05cbf3	0.13066082
185	0x3e194e04	0.14971167
186	0xbc811471	-0.015756818
187	0xbd336e41	-0.04380632
188	0xbd265b08	-0.040614158
189	0x3e014da5	0.12627275
190	0xbd6241b0	-0.055238426
191	0x3ea53516	0.32267064
192	0x3e9326b5	0.2874047
193	0x3e7c03eb	0.2461087
194	0x3d92602b	0.07147249
195	0x3dc5e31f	0.096624605
196	0xbca52a93	-0.020161903
197	0x3e6496d5	0.22323163
198	0xbc7669a5	-0.015039836
199	0x3eba46bf	0.363821
200	0xbe00ba7f	-0.12571143
201	0xbe2f5895	-0.17123635
202	0xbe280ce6	-0.1641117
203	0xbe33949a	-0.17537156
204	0xbdc40f5d	-0.09573243
205	0x3d416c30	0.047222316
206	0x3e5da801	0.2164612
207	0xbdc0e789	-0.09419162
208	0x3d55fe04	0.0522442
209	0xbd0e8ce2	-0.034802325
210	0x3e15df6a	0.14636007
211	0x3e6f9450	0.2339642
212	0xbdcf9197	-0.10135191
213	0x3e9ddeee	0.30834144
214	0xbe1d7127	-0.15375195
215	0xbc752a96	-0.014963767
216	0xbdf9f7e2	-0.12205483
217	0xbe3d091d	-0.18460508
218	0x3e13ab9d	0.14420934
219	0x3aa95807	0.0012919911
220	0x3d29b24d	0.041429807
221	0xbd8ac32a	-0.06775506
222	0x3eb9fd3c	0.36326015
223	0x3a1ace66	0.00059053896
224	0x3c2a7f1e	0.010406284
225	0x3da485b1	0.08033312
226	0x3e52b4b7	0.2057675
227	0x3d7e644d	0.062107373
228	0x3e6d8bfe	0.23197934
229	0x3dce663c	0.100780934
230	0xbd83f590	-0.06443322
231	0xbe48921d	-0.19586988
232	0x3d939ec0	0.072080135
233	0xbd9bcbeb	-0.07607254
234	0xbe1e0c58	-0.15434396
235	0xbc9b4b6e	-0.018956866
236	0x3e66968a	0.22518364
237	0xbcd9aa63	-0.026570505
238	0xbe53c39e	-0.20680091
239	0xbe4dbbbd	-0.20091148
240	0x3dcca878	0.0999307
241	0x3f0d4522	0.55183613
242	0xbd28bc2a	-0.041195072
243	0x3e3e157e	0.18562886
244	0xbc4a3831	-0.012342499
245	0xbe9ce95a	-0.30646783
246	0x3b82deec	0.0039938595
247	0x3e5a1bc2	0.21299651
248	0xbe98fab0	-0.2987876
249	0xbe88aaca	-0.26692802
250	0x3cfe89e3	0.031071609
251	0xbde5b400	-0.11215973
252	0xbb1a8588	-0.0023578126
253	0x3e295038	0.16534507
254	0x3e47a073	0.194948
255	0xbdb7e0ac	-0.089784

weight f4 [64]
0	0x3f2a4bd5	0.6652196
1	0x3f17f8b8	0.5936389
2	0x3f1ccc71	0.6124945
3	0x3efa7fbc	0.4892558
4	0x3f10a5fa	0.5650326
5	0x3f0844fa	0.5323025
6	0x3f16ddb8	0.58932066
7	0x3f0d3e18	0.5517287
8	0x3f3785e0	0.7168865
9	0x3edb20d1	0.42798474
10	0x3f21e1c5	0.6323512
11	0x3f36e490	0.7144251
12	0x3f1727cd	0.59045106
13	0x3ee2f6cf	0.44328925
14	0x3f399e08	0.7250676
15	0x3f04d7ba	0.5189167
16	0x3f225b86	0.63420904
17	0x3ec5068f	0.38481566
18	0x3efa2240	0.48854256
19	0x3f1b8bd6	0.6076025
20	0x3f09719c	0.5368898
21	0x3f24b8ac	0.64344287
22	0x3ef555a2	0.47916895
23	0x3f1a1fb7	0.60204643
24	0x3f8a4ad8	1.080409
25	0x3ef01610	0.46891832
26	0x3f17c654	0.59287
27	0x3f20bb44	0.62785745
28	0x3f0a4419	0.5401016
29	0x3f071430	0.5276518
30	0x3f3af8bd	0.73035794
31	0x3f244dd9	0.64181286
32	0x3f08f4ef	0.5349874
33	0x3ef80157	0.48438522
34	0x3f20952b	0.6272761
35	0x3f1ea576	0.61971223
36	0x3f03aeda	0.5143868
37	0x3ed7bd54	0.42136633
38	0x3f017ba3	0.5057928
39	0x3f0ca6d2	0.5494205
40	0x3efaaba3	0.48959073
41	0x3f3514f8	0.7073512
42	0x3fe8607f	1.8154448
43	0x3f29ba9a	0.66300356
44	0x3eebd8c6	0.46063823
45	0x3ecb771d	0.39739314
46	0x3f28110b	0.65651006
47	0x3f1abcf2	0.6044456
48	0x3f3566c1	0.70859915
49	0x3f0acade	0.542158
50	0x3f0ed7bc	0.55797935
51	0x3f1090e2	0.56471074
52	0x3f031e15	0.51217777
53	0x3f840ddb	1.0316728
54	0x3ff2294c	1.8918853
55	0x3f02c502	0.5108186
56	0x3ee38da4	0.44444
57	0x3f207b0b	0.6268775
58	0x3efab958	0.4896953
59	0x3f0c00aa	0.54688513
60	0x3f0ea651	0.5572253
61	0x3f254406	0.6455692
62	0x3efde304	0.49587262
63	0x3f3511be	0.707302

bias f4 [64]
0	0xb966ede9	-0.00022023138
1	0x3daf402a	0.0855716
2	0xbd3eb974	-0.04656358
3	0x3d1b09f5	0.037851293
4	0xbc7ba734	-0.015359689
5	0xbd156bf7	-0.036479916
6	0x39b309e4	0.0003414891
7	0xbcb8904d	-0.022529745
8	0x3d521092	0.051285334
9	0x3bcdc957	0.006280105
10	0xbbc4f5a7	-0.0060107294
11	0xbd246635	-0.040136535
12	0x3c3654a9	0.011128583
13	0x3de3ac92	0.111168995
14	0xbcb94ba3	-0.022619074
15	0x3bd7b46e	0.006582788
16	0xbcfb902c	-0.030708395
17	0xbd644aad	-0.05573528
18	0x3db01516	0.08597772
19	0xbcf8d233	-0.030373668
20	0x3ce9be05	0.028532991
21	0xbdcd51ca	-0.10025366
22	0xbdc6e046	-0.097107455
23	0xbd4249c2	-0.047433622
24	0xbf009f67	-0.5024323
25	0xbd0d1613	-0.03444488
26	0x3dc46904	0.09590343
27	0x3cb567f0	0.022144288
28	0xbd35f64c	-0.04442434
29	0xbb6d8233	-0.0036240935
30	0xbd95e58c	-0.07319173
31	0x3e1c3395	0.15254052
32	0x3d246c51	0.04014236
33	0x3c83b6d3	0.016078388
34	0xbd8cf724	-0.06883076
35	0xba1bc792	-0.0005942519
36	0xbcb59e4d	-0.02217021
37	0xbd236745	-0.039893407
38	0xbc8b8bae	-0.017034378
39	0x3db42ec6	0.08797984
40	0x3bd4d786	0.006495419
41	0xbdc13747	-0.094343714
42	0x3fba312f	1.454626
43	0x3d3319f5	0.043725926
44	0xbe1f9f7b	-0.1558818
45	0x3d33e1f3	0.043916654
46	0x3c38e6b3	0.011285472
47	0xbc79b8c7	-0.015241808
48	0x3d184ea9	0.03718439
49	0xbc1aea68	-0.009455301
50	0x3d47bf2f	0.04876631
51	0xbdf0fd21	-0.117670305
52	0x3db8583d	0.09001205
53	0x3e736016	0.23767123
54	0xc079b0a3	-3.901406
55	0x3c8396af	0.016063062
56	0x3c294fa9	0.010333934
57	0xbc6566db	-0.014001573
58	0x3df7cd26	0.12099676
59	0xbd28bef6	-0.04119774
60	0xbbc0f800	-0.005888939
61	0x3d0154f9	0.031575177
62	0xbdf1a9bd	-0.11799953
63	0x3d02a118	0.031891912

mean_scale f4 [64]
0	0x3f864bbb	1.0491861
1	0x3f7f258a	0.99666655
2	0x3f82c32d	1.0215813
3	0x3f85aa46	1.0442588
4	0x3f89640f	1.073366
5	0x3f845ffd	1.0341793
6	0x3f8372d2	1.0269415
7	0x3f89ad48	1.0756006
8	0x3f749e67	0.955542
9	0x3f86e66e	1.0539072
10	0x3f90f803	1.1325687
11	0x3f88ca4c	1.0686736
12	0x3f86524a	1.0493863
13	0x3f8add85	1.0848852
14	0x3f7b0196	0.98049295
15	0x3f8ed544	1.1158834
16	0x3f743313	0.95390433
17	0x3f682742	0.906849
18	0x3f732de7	0.94991916
19	0x3f8a6eb5	1.0815035
20	0x3f87424b	1.0567106
21	0x3f7a2ecb	0.9772765
22	0x3f7eb927	0.9950127
23	0x3f7c41c1	0.9853783
24	0x3f6672ac	0.90018725
25	0x3f7f6f29	0.9977899
26	0x3f800203	1.0000614
27	0x3f845ef3	1.0341476
28	0x3f8862e5	1.065518
29	0x3f8340bc	1.025413
30	0x3f8d508c	1.1040206
31	0x3f801751	1.0007116
32	0x3f7cee67	0.98801273
33	0x3f7ed890	0.995492
34	0x3f86ce64	1.0531735
35	0x3f8b1d1c	1.0868258
36	0x3f825c13	1.0184349
37	0x3f850c4d	1.0394379
38	0x3f70970c	0.9398048
39	0x3f79afc8	0.97533846
40	0x3f5721bc	0.8403585
41	0x3f8635be	1.0485151
42	0x3f91cbf5	1.1390368
43	0x3f81504d	1.0102631
44	0x3f8ae892	1.0852225
45	0x3f897677	1.0739278
46	0x3f874433	1.0567688
47	0x3f87ec1b	1.0618929
48	0x3f81e138	1.0146856
49	0x3f8d0624	1.1017499
50	0x3f8d5dd6	1.1044261
51	0x3f82ca11	1.0217916
52	0x3f7cd254	0.98758435
53	0x3f86905c	1.0512805
54	0x403abf9c	2.917945
55	0x3f822809	1.0168468
56	0x3f868bf4	1.051146
57	0x3f8527c8	1.0402765
58	0x3f6fdaa7	0.9369301
59	0x3f8f03f9	1.1173087
60	0x3f81e9fc	1.0149531
61	0x3f8b2ec8	1.0873652
62	0x3f84df77	1.0380696
63	0x3f6f3902	0.9344636

bias f4 [64]
0	0x3f60bc49	0.877873
1	0xbf1b905e	-0.6076716
2	0xbe9e4c18	-0.3091743
3	0xbedc10e8	-0.42981648
4	0x3f54170b	0.8284766
5	0xbf011c8a	-0.5043417
6	0x3f4081a5	0.7519782
7	0x3ea58176	0.32325333
8	0xbf56dc33	-0.8392975
9	0x3f15ca6d	0.58512
10	0x3f3b155a	0.73079455
11	0xbf4af101	-0.7927399
12	0xbf9f164d	-1.2428681
13	0xbe82c519	-0.25541
14	0x3e94a65c	0.29033172
15	0xbd9fd556	-0.078043625
16	0xbea4ba2a	-0.32173282
17	0x3ef7f229	0.4842694
18	0xbe4330a9	-0.19061531
19	0xbf8e1344	-1.1099629
20	0xbf7b5cf6	-0.9818872
21	0x3eda4ca5	0.426366
22	0x3ee9a829	0.4563611
23	0xbdb7dcd3	-0.08977666
24	0x3ee25e21	0.4421244
25	0xbe7a0bc4	-0.2441855
26	0xbe216b2c	-0.15763539
27	0x3f62f83f	0.88660043
28	0xbfa356a6	-1.2760818
29	0xbf517460	-0.818182
30	0x3f1c0d83	0.6095812
31	0xbec3f784	-0.38274777
32	0xbf49ea2b	-0.78872937
33	0x3f9a64ea	1.2062047
34	0xbf8da1a9	-1.106496
35	0xbe17a0db	-0.14807455
36	0x3ebd1721	0.36931708
37	0xbe1fdefb	-0.15612404
38	0xbfb39505	-1.4029852
39	0xbf32ffda	-0.6992165
40	0xbfa2a609	-1.270692
41	0x3e998e70	0.29991484
42	0x3f369502	0.7132112
43	0x3f2e840b	0.6817023
44	0xbe76df13	-0.24108534
45	0x3fb0d00c	1.3813491
46	0x3f1d9011	0.6154795
47	0x3de4e1d7	0.11175888
48	0xbf150f10	-0.5822611
49	0x3e1af6c3	0.15133195
50	0x3f1a11f7	0.6018366
51	0x3ef6296f	0.48078486
52	0xbc15fea6	-0.009154951
53	0xbef14f5a	-0.47130853
54	0xbf4a7dd7	-0.79098266
55	0xbf8b0410	-1.0860615
56	0xbf8eee1c	-1.1166415
57	0x3f081c15	0.5316785
58	0xbf06ba6d	-0.52628213
59	0x3f8d0988	1.1018534
60	0xbf7fd17b	-0.99929017
61	0x3ecf03fd	0.4043273
62	0x3f6c7470	0.9236517
63	0xbf89d316	-1.0767543

weight f4 [64, 64]
0	0x3da6f3eb	0.081519924
1	0x3e2da51c	0.16957515
2	0x3db1d65a	0.086834624
3	0x3e6fcd31	0.23418118
4	0x3d6ba3e4	0.057529345
5	0x3db367e4	0.0876005
6	0x3caafaae	0.020871487
7	0x3e0e73cd	0.13911362
8	0x3d29c007	0.041442897
9	0x3dad257d	0.08454416
10	0xbe074037	-0.1320809
11	0x3d94ac40	0.072594166
12	0x3d842950	0.06453192
13	0x3e168200	0.14698029
14	0x3d24b5b2	0.04021234
15	0x3e3339c0	0.17502499
16	0xbc6a20a5	-0.01429001
17	0xbbc423dd	-0.0059857205
18	0x3dddc749	0.10829026
19	0x3e08f5ef	0.13375066
20	0x3d36eec4	0.0446613
21	0x3e87f7f7	0.2655637
22	0x3e0008d2	0.12503365
23	0x3b784a87	0.0037886219
24	0xbe20afd1	-0.15692069
25	0x3dac687a	0.08418365
26	0x3c9a9c54	0.018873371
27	0x3e067dde	0.13133952
28	0x3e7bb6f4	0.2458151
29	0xbe683146	-0.22675046
30	0x3c4b4d25	0.012408529
31	0x3d932449	0.07184655
32	0x3daa376c	0.08311352
33	0xbd82fc87	-0.06395822
34	0x3da4bc56	0.08043735
35	0x3e66ef3b	0.22552197
36	0x3cecc1a4	0.028900929
37	0x3e910112	0.2832113
38	0x3d1de9af	0.038552936
39	0x3a082d64	0.0005194752
40	0xbd7ff554	-0.062489823
41	0x3d8c704a	0.06857355
42	0xbf0fe6e0	-0.5621166
43	0x3d906205	0.07049946
44	0x3d25e276	0.040499173
45	0x3d997b26	0.07494192
46	0x3e192292	0.14954594
47	0x3e1b1115	0.15143235
48	0x3d25e1b9	0.04049847
49	0x3ce3754e	0.027765896
50	0x3d58d80a	0.052940406
51	0x3d2b1386	0.041766666
52	0x3c87f39f	0.01659566
53	0xbe439a42	-0.19101813
54	0xbe85bb5f	-0.26119515
55	0xbd904a5b	-0.07045432
56	0xbdc042c9	-0.09387738
57	0x3d3f830f	0.046755847
58	0x3d10a022	0.035308965
59	0xbdbb9747	-0.09159713
60	0x3de1a886	0.110184714
61	0x3e32b486	0.17451677
62	0x3e619df2	0.22032908
63	0xbd93c877	-0.0721597
64	0x3d376987	0.044778373
65	0x3e00a1e9	0.12561764
66	0x3e0f81b8	0.14014328
67	0xbe3fa08f	-0.18713592
68	0x3dbe46a9	0.09290821
69	0xbdf51156	-0.11966197
70	0xbd0acdc0	-0.033887625
71	0x3cf8707a	0.03032707
72	0x3dfedcc4	0.124444515
73	0xbe032a19	-0.12809028
74	0xbdc10323	-0.094244264
75	0x3ddda27d	0.10822008
76	0xbd645fb7	-0.055755343
77	0xbd9fdbf8	-0.078056276
78	0xbe3699e9	-0.1783215
79	0x3da3294a	0.0796686
80	0x3d9dfa3c	0.07713744
81	0xbea76cb9	-0.32700136
82	0xbdcb5a68	-0.09929353
83	0xbd617b9a	-0.055049516
84	0x3e101bfa	0.14073172
85	0xbde418ab	-0.111375175
86	0xbdcee241	-0.10101748
87	0x3c621a05	0.013800149
88	0x3da2aca0	0.07943082
89	0xbe3c7b85	-0.18406494
90	0x3be2cab0	0.006921135
91	0xbe45e5cb	-0.1932594
92	0x3d0a8300	0.033816338
93	0x3e803c49	0.25045994
94	0x3d7640f7	0.06012055
95	0x3c86f412	0.016473804
96	0xbd9c5101	-0.07632638
97	0xbd63f21f	-0.055650827
98	0x3dcd6009	0.10028083
99	0xbc64cfe3	-0.01396558
100	0xbca71335	-0.0203949
101	0x3cd73421	0.026269974
102	0x3dce22f4	0.100652605
103	0x3d7d77d3	0.06188185
104	0x3c025f26	0.0079572555
105	0x3e023553	0.12715654
106	0x3d9b57ec	0.07585129
107	0xbc01c3cd	-0.007920218
108	0x3d90169c	0.070355624
109	0xbdfb6ca5	-0.12276582
110	0xbdce541e	-0.10074638
111	0xbbe61ad7	-0.0070222425
112	0xbea2457d	-0.3169364
113	0xbe0c3e0b	-0.13695543
114	0x3eede5aa	0.46464282
115	0xbdd28d40	-0.102808475
116	0x3df4ae28	0.1194728
117	0xbe342d74	-0.17595464
118	0x3f4b0067	0.7929749
119	0xbda36b04	-0.07979396
120	0xbde1fa24	-0.11034039
121	0x3bad0f5e	0.005281373
122	0x3cdc2d1b	0.026876977
123	0xbe5ef269	-0.2177216
124	0x3c47eb3b	0.012202079
125	0xbdd4d40e	-0.10392009
126	0xbd86737c	-0.06564996
127	0xbe22c5c9	-0.15895762
128	0xbde0cf34	-0.10977021
129	0xbd712ba0	-0.058879495
130	0x3dc99bac	0.09844145
131	0xbdbd929e	-0.09256481
132	0xbd83b052	-0.06430115
133	0xbd09267c	-0.033483967
134	0xbe3c8d11	-0.18413188
135	0x3c545708	0.012960203
136	0x3dd6cf81	0.10488797
137	0x3d74bbe7	0.05974951
138	0xbeb44c79	-0.35214594
139	0xbebfbef3	-0.3745037
140	0xbe3aee2f	-0.18254922
141	0x3e2d833a	0.1694459
142	0xbef8dca7	-0.48605844
143	0xbde82336	-0.11334841
144	0xbdc8f45f	-0.09812235
145	0xbe4bc77c	-0.19900316
146	0x3d268877	0.040657487
147	0x3de0fd49	0.1098581
148	0x3e45b961	0.19308998
149	0xbe052f9a	-0.1300644
150	0xbeaccc0b	-0.33749422
151	0xbe9b64ac	-0.30350244
152	0x3b9da9db	0.004811508
153	0xbda9f58b	-0.08298787
154	0xbeb7b5c4	-0.35880864
155	0x3dbd2c44	0.092369586
156	0xbecbcc8e	-0.398045
157	0x3d8b0c61	0.067894705
158	0x3d97c314	0.07410255
159	0xbf94992e	-1.1609247
160	0xbd291161	-0.04127634
161	0x3e5bfd87	0.21483432
162	0x3df7191c	0.12065336
163	0x3db127c7	0.08650165
164	0x3d987866	0.07444839
165	0xbd7d10c5	-0.06178357
166	0xbddce2af	-0.10785424
167	0xbf228cb6	-0.6349596
168	0x3ddd8dd3	0.108180664
169	0xbb9aa260	-0.0047190636
170	0xbc996227	-0.01872356
171	0x3dc3a842	0.09553577
172	0xbe6e55c5	-0.23274906
173	0xbe71a509	-0.23598112
174	0x3c904af2	0.017613862
175	0x3e22f426	0.15913448
176	0xbc681b4e	-0.014166666
177	0x3cfd4b62	0.030919734
178	0xbd61aa81	-0.055094246
179	0xbcccad67	-0.024985028
180	0xbe1f9af1	-0.15586449
181	0x3e35a201	0.17737581
182	0xbd07ea8e	-0.033182673
183	0x3cb33e78	0.021880373
184	0x3d1de94a	0.03855256
185	0x3d2ed5a7	0.042684224
186	0xbe585b4c	-0.21128577
187	0x3daa2398	0.0830757
188	0x3dd1bd2b	0.10241159
189	0xbd991c0b	-0.07476052
190	0x3da90ba1	0.08254171
191	0x3ccba2dc	0.02485793
192	0x3d8fa522	0.070139185
193	0x3ddbdcbb	0.1073546
194	0x3de565b7	0.11201041
195	0xbe2fcec2	-0.17168716
196	0x3ca49c62	0.0200941
197	0x3cfcc2bd	0.030854577
198	0x3eb14511	0.34623006
199	0x3d14ffa3	0.036376607
200	0xbe5a65c2	-0.2132788
201	0xbe07f48e	-0.13276884
202	0x3d8f799f	0.07005619
203	0xbdec7303	-0.11545374
204	0x3dff3833	0.12461891
205	0xbdfe93be	-0.12430523
206	0x3e13da79	0.1443881
207	0x3e1f9b0c	0.1558649
208	0x3dfdc008	0.12390143
209	0x3dff201b	0.124572955
210	0x3e09fdfa	0.1347579
211	0xbcbb0d4f	-0.022833494
212	0xbdad6488	-0.084664404
213	0xbe7fe10e	-0.24988195
214	0xbd0402f4	-0.03222938
215	0x3c370e94	0.011172909
216	0x3e33ca20	0.17557573
217	0xbdeeb0b6	-0.11654799
218	0xbe0ccadf	-0.13749264
219	0x3d963980	0.07335186
220	0xbde0f215	-0.109836735
221	0x3e880904	0.26569378
222	0xbd7d5f05	-0.061858196
223	0x3da3ad3c	0.07992026
224	0x3ce2be9e	0.027678784
225	0xbdb48278	-0.088139474
226	0xbdab07c2	-0.08351089
227	0xbd09f5ae	-0.033681564
228	0x3c4489a9	0.011995711
229	0x3db55ee7	0.08855992
230	0xbef89b08	-0.4855578
231	0xbde69e5f	-0.11260676
232	0x3d4b722b	0.049669426
233	0xbe734fd0	-0.23760915
234	0x3e26a65d	0.162744
235	0xbe7a75b9	-0.2445897
236	0xbe63da5f	-0.2225127
237	0x3d974f9f	0.073882334
238	0x3d939f60	0.07208133
239	0x3b7eefa3	0.0038900159
240	0x3d177d5a	0.03698478
241	0xbcfb2083	-0.030655151
242	0xbe92cef2	-0.28673512
243	0x3e370169	0.17871632
244	0x3c8b84a8	0.017031029
245	0xbb4634d2	-0.0030243886
246	0x3f6e7be6	0.93157804
247	0x3d2b286b	0.041786592
248	0xbe4d58d8	-0.20053422
249	0x3dadc593	0.0848495
250	0xbdafa4a7	-0.08576327
251	0x3d6a47e4	0.057197466
252	0x3d0a7009	0.03379825
253	0x3cb49d8f	0.022047786
254	0x3d8899d4	0.066699654
255	0xbd1f340c	-0.038867995

weight f4 [64]
0	0x3f12a41f	0.5728168
1	0x3fc577fa	1.5427239
2	0x3fb68e97	1.4262265
3	0x3f918e07	1.1371468
4	0x3ee3d941	0.4450169
5	0x3fb3efb6	1.4057529
6	0x3f551a6a	0.8324343
7	0x3f60980c	0.87732005
8	0x3f24a5f8	0.6431575
9	0x3f1afd67	0.6054291
10	0x3f143d72	0.5790626
11	0x3f1e57bd	0.6185263
12	0x3ec92d99	0.392926
13	0x3fa0ca27	1.2561692
14	0x3f329768	0.6976228
15	0x3f537b60	0.8261013
16	0x3edbe5a4	0.4294864
17	0x3f5e2553	0.867757
18	0x3f7e275f	0.99278826
19	0x3f10deee	0.56590164
20	0x3ed94164	0.42432702
21	0x3efbf4f8	0.49210334
22	0x3f39ad0f	0.7252969
23	0x3f7dfbdb	0.99212426
24	0x3f90bb88	1.130723
25	0x3f6a77e9	0.9158922
26	0x3f5ebc5f	0.8700618
27	0x3f3042df	0.6885204
28	0x3d895c3e	0.06707047
29	0x3f1ee53e	0.62068546
30	0x3f2a547d	0.6653517
31	0x3fbb0a11	1.4612447
32	0x3f132372	0.5747596
33	0x3ed2e998	0.41193843
34	0x3e973cef	0.29538676
35	0x3f70cdb9	0.9406391
36	0x3f2fb390	0.68633366
37	0x3f333ce5	0.7001479
38	0x3dcc7ef6	0.099851534
39	0x3f574024	0.84082246
40	0x3ef04b22	0.46932322
41	0x3f639431	0.88898
42	0x3f21b6a0	0.6316929
43	0x3f149452	0.5803882
44	0x40090f02	2.141541
45	0x3ebeaf79	0.3724325
46	0x3f351cb5	0.7074693
47	0x3f8cc239	1.0996772
48	0x3f070775	0.52745754
49	0x3fa31280	1.2740021
50	0x3f5a9502	0.8538362
51	0x3f54f545	0.8318675
52	0x3f2b6cd2	0.6696292
53	0x400b530e	2.1769443
54	0x3f43e56a	0.76521933
55	0x3ee3b2b8	0.4447229
56	0x3ee332c6	0.44374675
57	0x3f33f622	0.70297444
58	0x3f90e4bf	1.1319808
59	0x3eddab8c	0.43294942
60	0x3ef9f1ab	0.4881719
61	0x3f552d45	0.832722
62	0x3ed1a35b	0.40944943
63	0x3f01a471	0.5064154

bias f4 [64]
0	0x3ee5869f	0.4482927
1	0x3e98e846	0.2986471
2	0xbefedbad	-0.49776974
3	0x3de05b10	0.10954869
4	0x3e6ac71b	0.22927515
5	0xbf2a6bde	-0.6657084
6	0x3ea9c9a3	0.3316165
7	0xbeacecb8	-0.33774352
8	0x3e72ab2f	0.23698114
9	0xbe9106c9	-0.2832549
10	0xbf23bbde	-0.6395854
11	0x3d99ffbd	0.07519481
12	0x3ea7b219	0.32753065
13	0xbea36b61	-0.3191786
14	0xbe64fa72	-0.22361162
15	0x3de09d62	0.109675184
16	0x3e35a917	0.17740284
17	0xbe9dc3ae	-0.30813354
18	0xbe8d5a6b	-0.27608046
19	0x3ec9b08d	0.3939251
20	0x3e45a2a3	0.19300322
21	0xbdcab7e9	-0.09898359
22	0x3e650508	0.223652
23	0xbe976e6b	-0.2957643
24	0x3d332f3c	0.043746218
25	0xbe845541	-0.25846294
26	0xbdf420da	-0.119203284
27	0x3eb0babc	0.34517467
28	0xbdb7c72f	-0.08973538
29	0x3eb212ec	0.3478006
30	0x3ed7c892	0.4214521
31	0xbe45ca1f	-0.19315384
32	0x3e92f6ca	0.2870391
33	0x3eb5dbe7	0.35519335
34	0x3c4d280f	0.012521758
35	0x3d006a1b	0.03135119
36	0xbe764bb4	-0.24052316
37	0xbe67dd94	-0.22643119
38	0xbd4d6579	-0.0501456
39	0x3e0cfcc4	0.13768297
40	0x3ef03988	0.46918893
41	0xbe34adaa	-0.17644373
42	0x3ea46a6a	0.32112437
43	0x3e0eef3f	0.13958453
44	0x3eb78e23	0.3585063
45	0x3f23de34	0.6401093
46	0x3e22c9c4	0.1589728
47	0x3e9b9aad	0.30391446
48	0x3e43c537	0.191182
49	0x3e30d986	0.17270479
50	0x3e32c2c0	0.17457104
51	0xbdb4cdf4	-0.08828345
52	0xbe7abd68	-0.24486315
53	0xbeb8aec3	-0.36070833
54	0x3e8cdf9e	0.27514356
55	0x3e97944b	0.29605326
56	0x3e653157	0.22382103
57	0x3ed67787	0.41888067
58	0xbf131834	-0.57458806
59	0x3ef655ed	0.4811243
60	0x3e2934a9	0.16523995
61	0x3bc0f8f5	0.005889053
62	0x3f093654	0.53598523
63	0x3ed0b315	0.4076163
