2WL_link_pred/checkpoint/archive/20221214_004756/2WL_state_dict_100_20_1.pt (torch, 147647 bytes, 33 tensors)

lin1.1.0.weight f4 [96, 3]
0	0x3ee5c68d	0.44878045
1	0xbce61b5a	-0.028089214
2	0xbc806168	-0.015671447
3	0x3ee1350b	0.4398578
4	0xbe9f196e	-0.3107409
5	0x3e8d8930	0.27643728
6	0x3f0823f5	0.53179866
7	0xbecdfdf0	-0.402328
8	0x3e55a198	0.20862424
9	0x3e025497	0.12727581
10	0x3ddc1097	0.10745352
11	0xbd856e60	-0.06515193
12	0xbe440b26	-0.19144878
13	0xbea44f7c	-0.32091892
14	0xbe560e6d	-0.2090394
15	0x3a13ef52	0.00056432665
16	0xbde958e1	-0.113939054
17	0xbf20d7c4	-0.6282923
18	0xbdc23fc7	-0.09484821
19	0xbd922435	-0.07135812
20	0x3e39d072	0.18145922
21	0x3eafd463	0.34341726
22	0xbe7a9388	-0.24470341
23	0x3f009ee5	0.50242454
24	0xbd94dc7c	-0.072686166
25	0x3c6921cd	0.01422925
26	0x3e38d3f7	0.18049608
27	0x3eecf921	0.4628382
28	0xbe6708cb	-0.22561948
29	0xbe4e1bbc	-0.20127767
30	0x3d63b75d	0.05559479
31	0xbdd893d2	-0.105750695
32	0xbf096f03	-0.53685015
33	0xbf1943c9	-0.59869057
34	0x3e49aeaf	0.19695543
35	0x3eee4454	0.46536505
36	0xbf15470d	-0.5831154
37	0xbef9f3a2	-0.4881869
38	0x3e67f791	0.22653033
39	0x3f174608	0.59091234
40	0x3e441904	0.19150168
41	0x3f02a26c	0.51029086
42	0xbe8eda8d	-0.27901116
43	0xbecf2360	-0.40456676
44	0xbf232b29	-0.6373773
45	0xbeabaa2b	-0.33528265
46	0x3eb1b75f	0.34710214
47	0x3da726c4	0.08161691
48	0x3ea20f20	0.31652164
49	0xbefa3617	-0.48869392
50	0xbe598b8e	-0.21244642
51	0xbef4a347	-0.4778082
52	0x3f163c64	0.586859
53	0x3da26749	0.07929856
54	0x3e809b56	0.25118512
55	0x3e0f6da6	0.14006671
56	0xbee0e226	-0.43922538
57	0x3e96110b	0.29309878
58	0x3cb9932c	0.022653185
59	0xbe5a8ffa	-0.21343985
60	0xbe2305b7	-0.15920149
61	0x3d497a77	0.049189057
62	0x3e86b48f	0.2630963
63	0x3d60cea0	0.054884553
64	0xbe89894a	-0.26862556
65	0x3ea8d83a	0.32977468
66	0x3f0bc3ce	0.5459565
67	0x3ed9e0c2	0.4255429
68	0x3f15f9b4	0.5858414
69	0x3eb32a6f	0.34993312
70	0xbed126ab	-0.40849814
71	0x3f08bd8c	0.53414226
72	0xbeaadca9	-0.33371475
73	0xbe097b68	-0.13425982
74	0x3dd424b2	0.103585616
75	0x3cfc4c36	0.030798059
76	0x3f05ba2e	0.5223721
77	0x3eaf55cd	0.34245148
78	0xbec93dc0	-0.39304924
79	0x3ecef356	0.40420026
80	0x3efd4bc0	0.49471855
81	0x3dbe38af	0.09288155
82	0xbf11f30d	-0.5701149
83	0xbe534346	-0.20631132
84	0x3eff4e4c	0.49864423
85	0xbe181bf4	-0.14854413
86	0x3e5a8f4a	0.21343723
87	0xbe587905	-0.21139915
88	0xbef9f90c	-0.4882282
89	0xbedfe41d	-0.43728724
90	0x3eb217fe	0.3478393
91	0xbdf2eb5d	-0.11861298
92	0xbb041efb	-0.0020160067
93	0x3d05e2e2	0.032687075
94	0x3d3069b5	0.04306956
95	0x3d5aa16b	0.053376596
96	0xbd4236d2	-0.047415562
97	0xbef08afc	-0.46981037
98	0x3f022538	0.5083804
99	0xbe2b3728	-0.16720259
100	0xbe70131f	-0.23444794
101	0x3e0c5109	0.13702787
102	0xbcb309ba	-0.021855224
103	0xbe178662	-0.14797357
104	0xbd801482	-0.062539116
105	0x3e1189bc	0.14212698
106	0xbe231b8c	-0.15928477
107	0x3e573f3d	0.21020217
108	0xbc64a93d	-0.013956365
109	0xbe27199f	-0.16318367
110	0x3dfd9a88	0.1238299
111	0x3e825fc4	0.25463688
112	0xbe7b3b0d	-0.24534245
113	0xbf1846ed	-0.59483224
114	0x3c725c81	0.014792562
115	0x3e3586fe	0.17727277
116	0xbea7a4da	-0.3274296
117	0xbededc20	-0.43527317
118	0x3ea4116d	0.32044545
119	0x3db1a792	0.086745396
120	0x3ebeb35b	0.37246212
121	0x3e67da92	0.22641972
122	0xbdea5d31	-0.11443556
123	0xbea01094	-0.31262648
124	0x3ecfbd63	0.40574178
125	0x3e6178f7	0.220188
126	0xbef0e3e2	-0.4704886
127	0x3f20528d	0.6262596
128	0xbeef75a3	-0.46769437
129	0x3e80ba68	0.25142217
130	0xbc4b65ba	-0.01241439
131	0x3f0a3fff	0.540039
132	0xbe075147	-0.13214599
133	0x3e84b930	0.25922537
134	0x3e694848	0.2278148
135	0x3ee8d087	0.45471594
136	0xbe2b0757	-0.16702019
137	0xbf12dddf	-0.573698
138	0xbd6e07a2	-0.058112748
139	0xbede30b0	-0.4339652
140	0x3f03256b	0.5122897
141	0x3ec98c88	0.3936503
142	0x3c4d4b0d	0.0125301005
143	0x3ed5548d	0.4166607
144	0x3d032906	0.032021545
145	0x3d8d002f	0.06884801
146	0x3e194216	0.14966616
147	0x3e8b7927	0.2724087
148	0x3eaaf13b	0.3338717
149	0x3eef6baa	0.4676183
150	0x3c409974	0.011755336
151	0x3ea42807	0.32061788
152	0xbf13ca70	-0.5773077
153	0x3e35ffb5	0.17773326
154	0x3d86e8d6	0.06587379
155	0xbd0fc8fb	-0.03510378
156	0xbf0d17c0	-0.55114365
157	0xbea8177b	-0.32830414
158	0x3ed55841	0.41668895
159	0xbeb846fe	-0.35991663
160	0xbf1ebde7	-0.6200852
161	0xbe139209	-0.14411177
162	0x3e079ac7	0.13242637
163	0xbddd194d	-0.10795841
164	0x3f117068	0.56812143
165	0xbf084b97	-0.5324034
166	0x3f0291ae	0.5100354
167	0xbe441387	-0.19148074
168	0x3e6087c2	0.21926787
169	0xbdd49beb	-0.103813015
170	0x3e6a5cbb	0.22886936
171	0x3f127e60	0.5722408
172	0xbe544791	-0.20730425
173	0xbe5ff570	-0.2187097
174	0x3e955100	0.2916336
175	0xbdeadb4f	-0.11467611
176	0x3d8490ac	0.064729065
177	0xbec8eb31	-0.39241937
178	0x3eb02e6d	0.3441042
179	0x3f0b46a2	0.5440465
180	0xbf0520f7	-0.52003425
181	0xbeb778c8	-0.35834336
182	0x3eb92b6f	0.3616595
183	0xbf1f3afd	-0.62199384
184	0x3e9ef83d	0.31048766
185	0xbeaa34a6	-0.33243293
186	0xbef73750	-0.48284388
187	0xbe676a21	-0.22599079
188	0x3e899d3b	0.2687777
189	0x3e9ba617	0.30400154
190	0x3eb3cdb2	0.3511787
191	0xbd11e190	-0.035615504
192	0x3eae5033	0.34045562
193	0x3ec5c812	0.38629204
194	0xbe8964ef	-0.2683482
195	0xbeab969d	-0.33513346
196	0x3f16bdf0	0.5888357
197	0x3e8b63bd	0.27224532
198	0xbef35faf	-0.47533938
199	0x3ecd3988	0.40082955
200	0xbf02cf05	-0.51097137
201	0x3e9ddec0	0.30834007
202	0xbddaaeb5	-0.10677854
203	0x3edee921	0.43537238
204	0xbcc28207	-0.023743642
205	0x3ea97771	0.3309894
206	0x3e16cc7a	0.14726439
207	0x3d29c793	0.041450094
208	0x3cd74dd1	0.026282223
209	0x3e6d0de2	0.23149827
210	0x3dff1a32	0.12456168
211	0xbef7dedd	-0.4841222
212	0xbf065b95	-0.52483493
213	0x3cf915df	0.030405937
214	0x3e5c60ee	0.2152135
215	0xbe299055	-0.16558965
216	0xbef9d3d4	-0.48794425
217	0xbeb7470a	-0.35796386
218	0xbf20e2dc	-0.6284616
219	0xbee4d47f	-0.44693372
220	0x3f1a9bce	0.6039399
221	0x3f0410dc	0.51588225
222	0x3e8c7f0a	0.27440673
223	0xbef79d7e	-0.48362345
224	0xbe24811d	-0.16064878
225	0x3d988321	0.07446886
226	0x3e33d8dc	0.17563194
227	0xbe32992e	-0.17441246
228	0x3e645cc7	0.22301017
229	0x3f1e393b	0.61806077
230	0x3e8326d5	0.25615564
231	0x3ed2473c	0.41069973
232	0x3d720d9b	0.059095006
233	0xbf0d623c	-0.5522802
234	0xbeaaff01	-0.33397678
235	0x3e566626	0.20937404
236	0x3de56ab0	0.1120199
237	0x3d925388	0.071448386
238	0x3e4f9911	0.20273234
239	0x3e004866	0.12527618
240	0x3e18b044	0.1491099
241	0x3e03acdf	0.12858914
242	0xbdd1f91c	-0.10252592
243	0xbd7c18d6	-0.061547123
244	0x3edb320d	0.42811623
245	0x3e00fb54	0.12595874
246	0x3e103a9f	0.14084862
247	0x3ebbe3e1	0.36697295
248	0x3d599c84	0.05312778
249	0x3dbd7356	0.09250514
250	0xbde9b162	-0.11410786
251	0xbefb8f85	-0.49132934
252	0xbe8aa266	-0.27077025
253	0xbef573a4	-0.4793979
254	0xbed5a1fd	-0.4172515
255	0x3efb2fbd	0.4905986

lin1.1.0.bias f4 [96]
0	0x3f02ed31	0.51143175
1	0xbeab56a9	-0.33464554
2	0x3db6a8bc	0.08918902
3	0xbe86579d	-0.2623872
4	0x3ed59dd5	0.4172198
5	0x3e2565aa	0.16152063
6	0xbdc81b31	-0.09770811
7	0x3ea551d4	0.32288992
8	0xbefef53a	-0.49796468
9	0xbde9e21d	-0.11420081
10	0xbe027dd5	-0.12743314
11	0x3eb7412b	0.35791907
12	0xbed1bebb	-0.40965828
13	0x3ee23c53	0.4418665
14	0x3d8408c5	0.06446985
15	0x3f0834dc	0.53205657
16	0x3efbc0c2	0.491705
17	0xbe85b9f9	-0.26118448
18	0x3ed82b28	0.42220426
19	0xbf0921a5	-0.5356696
20	0xbeb8d239	-0.36097887
21	0x3e9c84f8	0.30570197
22	0xbcb8e480	-0.022569895
23	0x3e881ae7	0.26583025
24	0xbe7fe9a7	-0.24991475
25	0xbf024a6e	-0.5089482
26	0xbedde24f	-0.43336722
27	0xbd5de708	-0.054175407
28	0xbe1d666f	-0.15371107
29	0x3e510a0b	0.20413987
30	0x3e8d77a3	0.27630338
31	0xbf0b4698	-0.5440459
32	0x3ead5f7b	0.33861908
33	0x3e1f1e48	0.15538895
34	0xbe5b09ca	-0.21390453
35	0x3ecc97be	0.3995952
36	0x3ef71b1d	0.48262873
37	0xbe307ce8	-0.17235148
38	0xbdfba2fb	-0.122869454
39	0x3d951f62	0.072813764
40	0xbe958c6d	-0.292087
41	0xbeba559a	-0.36393434
42	0x3e8a641d	0.27029505
43	0x3ea44ef8	0.32091498
44	0xbec2b43e	-0.3802814
45	0x3e8ffb0a	0.28121215
46	0x3cc869e8	0.024464563
47	0x3eaaf069	0.33386543
48	0xbf06199f	-0.52382845
49	0x3e1f23b7	0.15540968
50	0xbf1e602c	-0.61865497
51	0xbd68857f	-0.056767937
52	0x3d9e56db	0.0773141
53	0xbd96ec2a	-0.073692635
54	0x3e602f86	0.21893129
55	0xbf0939e7	-0.53603977
56	0x3ed5c804	0.41754162
57	0x3dad9471	0.084755786
58	0xbed4f180	-0.415905
59	0x3e333009	0.17498793
60	0xbe2d28c8	-0.16910088
61	0x3dde9c95	0.108697094
62	0xbec50990	-0.38483858
63	0x3ed5b3c5	0.41738716
64	0x3e0208d7	0.12698685
65	0xbe573a2e	-0.21018288
66	0x3edd8fee	0.43273872
67	0x3e424a0c	0.18973559
68	0xbeb9857a	-0.36234647
69	0xbe1687e8	-0.14700282
70	0x3ccec6cd	0.02524128
71	0xbe5fbd95	-0.21849664
72	0xbe41034b	-0.18848912
73	0x3e9755ff	0.29557797
74	0x3e814298	0.2524612
75	0x3ed2132c	0.41030252
76	0x3eb54d07	0.3541033
77	0xbe96e416	-0.2947089
78	0xbf056362	-0.5210477
79	0x3dd93aa4	0.10606888
80	0x3db8af20	0.090177774
81	0xbcfd76e7	-0.030940486
82	0x3b965dd1	0.0045888205
83	0x3e0fb190	0.14032578
84	0xbee22c46	-0.44174403
85	0xbea038b7	-0.3129327
86	0x3f0ccf5e	0.5500392
87	0xbe656ca7	-0.22404729
88	0xbe7b8cd8	-0.24565446
89	0xbca7f34e	-0.020501759
90	0xbf015147	-0.50514644
91	0xbf14f131	-0.5818053
92	0x39b2543f	0.00034013574
93	0x3eda38c4	0.42621434
94	0x3f14e5ec	0.5816333
95	0xbefecf5a	-0.49767572

conv1s.0.modlist.0.bias f4 [96]
0	0xbda9188b	-0.08256634
1	0x3d361b5a	0.04445968
2	0x3b884c1e	0.0041594645
3	0xbca4281e	-0.02003866
4	0x3df8f68b	0.12156399
5	0x3d0edea4	0.034880295
6	0x3d8bda8b	0.06828793
7	0xbd63b5c1	-0.055593256
8	0x3c8d8d08	0.017279163
9	0xbe91f137	-0.28504345
10	0xbcf0b4d7	-0.029383106
11	0xbc47b532	-0.012189196
12	0x3c022b75	0.007944931
13	0x3d752a59	0.05985484
14	0xbdbe4baa	-0.092917755
15	0xbe2617b4	-0.1621998
16	0xbbcc564f	-0.0062358747
17	0xbd853336	-0.06503908
18	0x3d069ba9	0.032863293
19	0x3db4e3d5	0.08832518
20	0x3da3d794	0.08000103
21	0x3e5f4eeb	0.21807449
22	0xbcccf508	-0.025019184
23	0x3ccd453e	0.025057431
24	0x3dba64ec	0.091012806
25	0x3e28eac0	0.164958
26	0xbdb27a54	-0.087147385
27	0x3e098317	0.13428913
28	0x3e8dfdf8	0.27732825
29	0x3d43abfa	0.04777143
30	0xbd4d17c4	-0.050071493
31	0xbe02375c	-0.1271643
32	0x3cb14a23	0.021641796
33	0xbdd82bc1	-0.105552204
34	0x3e1b3246	0.15155897
35	0x3bc65e01	0.0060536866
36	0x3cc575ba	0.024103988
37	0xbd9cc29b	-0.076543055
38	0xbd1d425b	-0.03839336
39	0x3d8b8d7e	0.06814097
40	0xbe15b398	-0.14619291
41	0x3e8a2d82	0.26987845
42	0x3c3d0d6e	0.011538846
43	0x3c4d881a	0.012544656
44	0x3d4f45a7	0.050603535
45	0xbd4bf97b	-0.04979847
46	0xbda4e7d2	-0.08052029
47	0x3e1d61d0	0.15369344
48	0xbdb862ec	-0.09003243
49	0x3e5367fd	0.20645137
50	0x3be3a06d	0.0069466145
51	0xbe61515e	-0.22003695
52	0xbd23f6b3	-0.040030193
53	0xbe23030d	-0.15919133
54	0x3ca8d5d6	0.020609777
55	0x3d81c72c	0.06336817
56	0xbdbe8f47	-0.09304672
57	0x3dbacb33	0.091207884
58	0x3e39e214	0.18152648
59	0xbe0b8b3a	-0.1362733
60	0xbd6f943c	-0.058490977
61	0x3e50509f	0.20343255
62	0xbc405d87	-0.011741049
63	0x3c1355e2	0.008992644
64	0x3d30f9c9	0.043206964
65	0xbca70e28	-0.020392492
66	0x3d87ecb1	0.06636942
67	0x3d7c7684	0.061636463
68	0xbde50800	-0.111831665
69	0xbd54ab5d	-0.051921237
70	0xbced0386	-0.028932344
71	0x3e977f47	0.29589292
72	0x3e24378f	0.16036819
73	0x3d1405a8	0.036138207
74	0xbd913373	-0.07089891
75	0x3d88f34b	0.066870295
76	0xbd0c6764	-0.03427829
77	0xbe9c2e08	-0.3050387
78	0xbcf6c067	-0.030121041
79	0x3ddb683a	0.10713239
80	0xbdfc4695	-0.1231815
81	0x3e7264d8	0.23671281
82	0xbdf4109b	-0.1191723
83	0x3e6718f0	0.22568107
84	0x3c1c114a	0.009525606
85	0xbe429822	-0.19003347
86	0x3e232edd	0.15935846
87	0xbc17c10b	-0.009262334
88	0x3d2ba6d3	0.041907143
89	0x3e0b325a	0.13593426
90	0xbd8b4504	-0.06800273
91	0x3d7fe8b6	0.06247779
92	0xbd05335f	-0.032519694
93	0xbd33f4bd	-0.043934572
94	0x3e95e973	0.2927967
95	0xbebfdc9a	-0.37472993

conv1s.0.modlist.0.lin.weight f4 [96, 96]
0	0xbe3424c7	-0.17592154
1	0xbe0cf3f8	-0.13764942
2	0x3deed35a	0.11661406
3	0x3e036dbe	0.12834832
4	0x3d8cf089	0.06881816
5	0x3db8aa23	0.09016826
6	0x3df01b68	0.11723977
7	0xbdc81d4f	-0.09771215
8	0x3da126fd	0.078687645
9	0xbdde9949	-0.108690806
10	0xbdfb6414	-0.12274948
11	0x3e32141d	0.17390485
12	0xbd94dcfb	-0.07268711
13	0x3e25fbd2	0.16209343
14	0x3e393b7d	0.18089099
15	0xbe4fac36	-0.20280537
16	0xbd191b6e	-0.037379675
17	0xbdfdf880	-0.12400913
18	0x3e55ca60	0.20877981
19	0xbbfe1e02	-0.007755042
20	0x3dbb0998	0.09132689
21	0xbabae6af	-0.0014259423
22	0x3d9ee77a	0.077589944
23	0xbe1683e4	-0.1469875
24	0xbe3bec10	-0.1835177
25	0x3d4718de	0.0486077
26	0xbe4715c6	-0.194419
27	0xbe002e45	-0.1251765
28	0xbdf65caa	-0.12029393
29	0x3bfe0075	0.0077515193
30	0xbe852ddc	-0.2601155
31	0xbe21127a	-0.15729704
32	0xbe1e42d3	-0.15455179
33	0xbdb6f27f	-0.08932971
34	0xbd41fd63	-0.04736079
35	0xbe2caa37	-0.16861807
36	0x3e4eee3b	0.20208065
37	0xbdcdc124	-0.10046604
38	0x3db02b29	0.08601982
39	0x3e082af0	0.1329763
40	0xbe2cfad2	-0.16892555
41	0x3e4fc0be	0.20288369
42	0xbdf0b88a	-0.11753948
43	0xbe1999f5	-0.15000136
44	0xbd4707a8	-0.048591286
45	0xbd065582	-0.03279639
46	0x3e0f3bc8	0.13987648
47	0xbdbcbc3d	-0.09215591
48	0xbd6f3b8a	-0.05840639
49	0xbe12d81b	-0.1434025
50	0xbcc8a9c3	-0.024495011
51	0xbdeb8284	-0.11499503
52	0xbc78b460	-0.0151797235
53	0xbe1a2e30	-0.15056682
54	0x3e1ad566	0.15120468
55	0xbe090bf3	-0.13383465
56	0x3e139cd9	0.14415301
57	0x3e23a211	0.15979792
58	0x3d5b8928	0.0535976
59	0xbe14fb27	-0.14548932
60	0xbd169b13	-0.036768984
61	0xbdb4c38a	-0.088263586
62	0xbdd3241c	-0.10309622
63	0xbe1e4b26	-0.15458354
64	0x3e4725e9	0.19448055
65	0xbe59f792	-0.21285847
66	0x3e2f6a17	0.17130314
67	0x3db5de53	0.088802956
68	0xbdbaf3c0	-0.09128523
69	0xbd6638f0	-0.056206644
70	0x3d829c4f	0.0637747
71	0x3db9bd01	0.09069253
72	0x3e5bc7c6	0.21462926
73	0xbb4ed925	-0.0031562534
74	0x3de2362c	0.11045489
75	0xbd72d7c3	-0.059287798
76	0x3e11895c	0.14212555
77	0x3dc71777	0.097212724
78	0xbd9f590a	-0.07780655
79	0x3d79a872	0.060951658
80	0xbd77e03d	-0.060516585
81	0xbc784438	-0.015152983
82	0x3d52fba6	0.051509522
83	0xbdbf62d2	-0.0934502
84	0x3d11236f	0.035434183
85	0xbe09c231	-0.13452984
86	0x3e475ac0	0.19468212
87	0xbc41254c	-0.011788677
88	0x3e65781d	0.22409101
89	0xbe369311	-0.17829539
90	0x3e1c96e0	0.15291929
91	0x3d8d61c3	0.06903412
92	0xbdb0a26b	-0.08624729
93	0x3d6e1441	0.058124784
94	0x3e0deb7a	0.13859358
95	0x3bc9887e	0.0061503043
96	0x3e76666c	0.24062508
97	0x3df96344	0.121771365
98	0xbe45ceb7	-0.19317137
99	0xbd9dc793	-0.077040814
100	0xbe34195c	-0.17587799
101	0x3dbf8a56	0.09352557
102	0xbe2c467b	-0.16823761
103	0x3cd8e8ca	0.02647819
104	0xbe2b9fa4	-0.16760117
105	0x3e081173	0.13287906
106	0x3dbcdddf	0.09222006
107	0x3d90d79c	0.07072374
108	0x3e8ccd79	0.27500513
109	0xbe6bfa9a	-0.23044816
110	0x3e01914c	0.12653083
111	0xbde676ef	-0.112531535
112	0xbd944472	-0.072396174
113	0xbda0e3c6	-0.07855944
114	0x3e41d590	0.18929124
115	0x3dcd3f02	0.100217834
116	0xbe2b8952	-0.16751602
117	0xbe895108	-0.26819634
118	0x3dca1092	0.09866442
119	0x3e1bf16d	0.15228815
120	0xbd656e76	-0.056013547
121	0xbe155907	-0.14584742
122	0x3e0c34ca	0.13692012
123	0x3dc30e85	0.09524254
124	0x3dea89e9	0.114520855
125	0x3e489afb	0.1959037
126	0x3d9bf23e	0.076145634
127	0x3d5d51a0	0.05403292
128	0x3cfc76a1	0.030818285
129	0xbcc7da17	-0.024395986
130	0xbe15621b	-0.14588206
131	0xbe00c4c0	-0.12575054
132	0xbe733ea2	-0.23754361
133	0xbe106a1a	-0.14102975
134	0xbc3ef612	-0.011655347
135	0xbe185d76	-0.14879403
136	0xbdef777f	-0.11692714
137	0x3e591130	0.21197963
138	0xbcfb6e37	-0.030692203
139	0x3dba34ae	0.09092079
140	0x3dcc739f	0.099829905
141	0x3ddb027b	0.106938325
142	0xbe1a384c	-0.15060538
143	0xbe30fbdc	-0.17283577
144	0x3b8cce5d	0.0042970614
145	0xbe025520	-0.12727785
146	0xbc5208a5	-0.012819444
147	0xbd20f099	-0.03929195
148	0xbd456e19	-0.0482007
149	0xbd86d704	-0.0658398
150	0x3d2a3271	0.04155201
151	0x3d9d301b	0.07675191
152	0x3e089c79	0.1334094
153	0x3da85253	0.08218827
154	0xbd4e5fe2	-0.05038441
155	0xbe282798	-0.16421354
156	0x3d6f6e95	0.05845507
157	0xbe29f258	-0.16596353
158	0x3c436443	0.01192576
159	0x3df46f35	0.119352736
160	0x3da2f4cf	0.0795685
161	0x3b523167	0.0032072903
162	0x3e3de813	0.1854556
163	0x3d59214e	0.053010277
164	0x3dabfbf7	0.08397668
165	0xbe21dc15	-0.15806611
166	0xbd23e2ba	-0.040011145
167	0xbd07e13d	-0.03317379
168	0x3ddcea6d	0.10786901
169	0x3d1057c3	0.035239946
170	0xbd148a4a	-0.036264695
171	0x3d990411	0.07471479
172	0xbdb69cb8	-0.089166105
173	0xbdeaf660	-0.114727736
174	0x3cfd93f1	0.030954333
175	0xbd73d81f	-0.05953228
176	0x3d8ac971	0.06776703
177	0xbe106184	-0.140997
178	0x3ddb5238	0.10709041
179	0xbd6ebc55	-0.058285076
180	0x3b720bd7	0.0036933327
181	0xbdbee81e	-0.093216166
182	0xbcab0b59	-0.020879434
183	0xbe0a5aff	-0.13511275
184	0xbd8706d8	-0.06593102
185	0x3db21d55	0.08697001
186	0x3bae62b4	0.005321825
187	0x3e399acd	0.18125458
188	0xbd653f42	-0.05596853
189	0xbe013f81	-0.12621881
190	0x3dab3e5c	0.083615035
191	0xbdb897b4	-0.0901331
192	0xbdf866b4	-0.12128964
193	0xbd91b4ca	-0.07114561
194	0x3ce29dd5	0.02766315
195	0x3e5129af	0.20426057
196	0xbe383e56	-0.1799253
197	0x3e648d8c	0.22319621
198	0x3cea63b2	0.028611992
199	0x3c945c7b	0.018110504
200	0xbe45d044	-0.19317728
201	0x3b9b24ce	0.004734612
202	0x3dc14fff	0.09439086
203	0x3e2e70d9	0.17035235
204	0x3dd85cc4	0.10564569
205	0x3e0ecd6b	0.13945548
206	0xbdcb1ddd	-0.09917805
207	0x3d39ace8	0.045330912
208	0x3ddafe77	0.106930666
209	0xbe0c3241	-0.13691045
210	0x3dce6685	0.10078148
211	0xbe9042e7	-0.28176042
212	0xbdc5c228	-0.09656173
213	0xbd5eefcd	-0.05442791
214	0xbcff0c24	-0.031133719
215	0x3d738e9c	0.059462175
216	0xbd68a0b7	-0.056793895
217	0xbdf07683	-0.11741354
218	0xbce973fe	-0.028497692
219	0xbe058052	-0.13037232
220	0xbdceb01f	-0.10092186
221	0x3c60ff05	0.013732676
222	0x3d33c567	0.04388943
223	0x3e89ae36	0.26890725
224	0x3d2ee077	0.042694535
225	0xbdb2db41	-0.087332256
226	0xbe7cec4d	-0.24699517
227	0xbd002bcb	-0.031291764
228	0xbcf50689	-0.029910343
229	0x3e1e07f3	0.1543272
230	0xbe3dddc1	-0.18541624
231	0xbae2131e	-0.0017248129
232	0x3e1e30be	0.15448281
233	0xbd16337e	-0.0366702
234	0xbd8ce414	-0.0687944
235	0xbe2fd6d0	-0.17171788
236	0x3dfc3a40	0.12315798
237	0xbd48b3f4	-0.04899974
238	0x3dc26028	0.094909966
239	0xbdbd0011	-0.09228528
240	0xb91d4730	-0.00014999206
241	0x3d5b8bca	0.05360011
242	0x3e54f7f7	0.20797716
243	0x3e4b61bc	0.19861501
244	0x3d926a54	0.07149187
245	0x3d07c341	0.033145193
246	0xbda3e102	-0.08001901
247	0xbc0e651a	-0.008691097
248	0x3c5f424e	0.013626648
249	0xbddb94c5	-0.10721735
250	0xbe059550	-0.1304524
251	0xbd540bc6	-0.05176904
252	0x3d8343b6	0.06409399
253	0xbd6a733c	-0.057238802
254	0xbdf4660b	-0.11933526
255	0x3c23e124	0.010002408

conv1s.0.modlist.1.weight f4 [96]
0	0x3f858db1	1.0433866
1	0x3f7ba148	0.9829297
2	0x3f623150	0.88356495
3	0x3f6d0ae7	0.9259476
4	0x3f8166d3	1.0109504
5	0x3f8d44b2	1.1036589
6	0x3f742866	0.95374143
7	0x3f82b739	1.0212165
8	0x3f8c0445	1.0938803
9	0x3f85b8ea	1.0447056
10	0x3f7a1cff	0.97700495
11	0x3f8a0746	1.078347
12	0x3f9372cf	1.1519412
13	0x3f617b8f	0.8807916
14	0x3f86a45e	1.0518911
15	0x3f8a517d	1.0806118
16	0x3f70277f	0.93810266
17	0x3f910862	1.1330683
18	0x3f664e6d	0.8996342
19	0x3f8085fa	1.0040886
20	0x3f817354	1.011332
21	0x3f931e22	1.1493571
22	0x3f7f2a84	0.9967425
23	0x3f863006	1.0483406
24	0x3f72cb30	0.9484129
25	0x3f7c2ded	0.9850758
26	0x3f7f207d	0.9965895
27	0x3f7e5386	0.99346197
28	0x3f66e74a	0.9019667
29	0x3f6ffef7	0.9374842
30	0x3f82e960	1.022747
31	0x3f74a3a5	0.955622
32	0x3f72a9a0	0.9479008
33	0x3f8841c4	1.064507
34	0x3f6a49dc	0.9151895
35	0x3f7d1aea	0.9886919
36	0x3f6c2603	0.922455
37	0x3f87be38	1.0604925
38	0x3f881a77	1.0633076
39	0x3f6df983	0.9295885
40	0x3f8cb545	1.0992819
41	0x3f84b974	1.0369096
42	0x3f8ad23e	1.0845411
43	0x3f7d5bfb	0.98968476
44	0x3f8df58c	1.109056
45	0x3f7819de	0.9691447
46	0x3f7db932	0.9911071
47	0x3f7c35b4	0.98519444
48	0x3f7fcc84	0.9992144
49	0x3f7eadf8	0.99484205
50	0x3f688209	0.9082342
51	0x3f66a424	0.9009421
52	0x3f835a9b	1.0262026
53	0x3f7c46bb	0.98545426
54	0x3f77fd22	0.96870625
55	0x3f6f7df1	0.93551546
56	0x3f8ab16c	1.0835395
57	0x3f80d7f9	1.006591
58	0x3f8b4086	1.0879066
59	0x3f878e6a	1.0590336
60	0x3f8344f5	1.0255419
61	0x3f80c407	1.0059823
62	0x3f6db3fb	0.92852753
63	0x3f7650f7	0.9621729
64	0x3f80cc40	1.0062332
65	0x3f84d249	1.0376674
66	0x3f6d284a	0.926396
67	0x3f7cdc8e	0.9877404
68	0x3f88e81b	1.0695833
69	0x3f812587	1.0089577
70	0x3f8a666f	1.081251
71	0x3f80eff7	1.0073231
72	0x3f79a4b9	0.9751697
73	0x3f8cef09	1.1010448
74	0x3f7d5bcf	0.98968214
75	0x3f6af4d0	0.91779804
76	0x3f899c60	1.0750847
77	0x3f79958f	0.97493833
78	0x3f759ec0	0.9594536
79	0x3f867dbc	1.0507121
80	0x3f73fdad	0.95308954
81	0x3f86c9bc	1.0530314
82	0x3f671a36	0.9027437
83	0x3f8249a3	1.0178722
84	0x3f774706	0.9659275
85	0x3f736f31	0.9509154
86	0x3f89d6e0	1.07687
87	0x3f789324	0.9709952
88	0x3f6ff86b	0.9373843
89	0x3f653ff2	0.895507
90	0x3f725f5c	0.94676757
91	0x3f868e46	1.0512168
92	0x3f69c710	0.9131937
93	0x3f74a168	0.95558786
94	0x3f72eeb7	0.948955
95	0x3f7be87e	0.9840163

conv1s.0.modlist.1.bias f4 [96]
0	0xbd8da2f8	-0.069158494
1	0x3c3bfcc0	0.0114738345
2	0x3bca658d	0.0061766566
3	0x3cdc345a	0.026880432
4	0xbd985089	-0.07437236
5	0xbd430063	-0.04760779
6	0x3df217fd	0.11820982
7	0x3d0dfc21	0.034664277
8	0x3e0e3b8b	0.13889901
9	0xbe9c7769	-0.30559853
10	0x3d35749d	0.044300664
11	0x3a247033	0.00062728225
12	0xbd015b9f	-0.031581517
13	0x3d630a89	0.05542997
14	0xbdb0afcc	-0.086272806
15	0xbccfbeb0	-0.025359482
16	0x3d1cfb82	0.038325794
17	0x3dbfef0a	0.09371765
18	0x3d4b2549	0.049596105
19	0xbd2709bc	-0.040780768
20	0x3a9540d9	0.0011387124
21	0x3e8e5c8c	0.27804983
22	0xbd64acc5	-0.05582883
23	0xbd223bbc	-0.03960775
24	0xbca10c13	-0.019659078
25	0xbbac142a	-0.005251427
26	0x3ddadd56	0.10686748
27	0xbc01cf99	-0.00792303
28	0x3e302fae	0.17205688
29	0x3dad5b14	0.084646374
30	0x3d787427	0.060657647
31	0x3e119b04	0.1421929
32	0xbd06f82d	-0.032951523
33	0x3dde8736	0.10865633
34	0xbe2f054f	-0.17091869
35	0x3d1f18dd	0.03884207
36	0x3d714c2f	0.058910545
37	0x3df92af2	0.12166394
38	0x3d5361d2	0.05160696
39	0x3c707004	0.014675144
40	0x3df2510a	0.11831863
41	0xbe78a7b7	-0.24282728
42	0x3d0921df	0.033479568
43	0x3d058243	0.03259493
44	0xbd2cc988	-0.042184383
45	0x3d6a90fc	0.057267174
46	0x3ccc0d0c	0.024908565
47	0xbd7f0724	-0.06226267
48	0xbdc51b90	-0.09624398
49	0xbe33698e	-0.17520735
50	0xbc52282d	-0.012826961
51	0xbe5f0854	-0.2178052
52	0xbd3417bc	-0.043967947
53	0x3e0c7cd7	0.13719498
54	0x3c4bb4ee	0.012433274
55	0xbdac5149	-0.084139414
56	0xbe1f1b7d	-0.1553783
57	0x3cc19d29	0.02363451
58	0xbe31e829	-0.17373718
59	0xbb0e8009	-0.0021743795
60	0x3b8fa6ce	0.0043838983
61	0xbe6798b8	-0.22616851
62	0xbc0aa871	-0.008463011
63	0xbcd8c8e6	-0.026462983
64	0xbd6e2c41	-0.058147673
65	0xbd33ae2c	-0.043867275
66	0xbe04cccf	-0.12968753
67	0x3d22f2b7	0.039782252
68	0xbdff62c6	-0.124700114
69	0xbe1d841f	-0.15382431
70	0x3db70b57	0.0893771
71	0xbe8e845f	-0.27835366
72	0x3e2085f9	0.15676107
73	0x3d0bff28	0.034178883
74	0xbde7d27c	-0.113194436
75	0xbd1bf065	-0.038071055
76	0xbd76e0a7	-0.06027284
77	0xbe43fc3a	-0.19139186
78	0x3cb9e950	0.02269426
79	0xbdcfffa8	-0.101561844
80	0xbd45d9d9	-0.04830346
81	0x3e8c1b56	0.27364606
82	0xbd67cd8e	-0.056592517
83	0x3d592b38	0.053019732
84	0x3d0d7fa5	0.03454556
85	0xbe3f7a4a	-0.18698993
86	0x3dad0a6a	0.08449252
87	0xbd94f430	-0.072731376
88	0xbd56d846	-0.05245235
89	0xbded95fe	-0.11600874
90	0xbd9164f7	-0.07099336
91	0xbddbcbe3	-0.10732248
92	0x3dbe2f67	0.09286385
93	0x3dd6dffb	0.1049194
94	0xbe8aed4e	-0.27134174
95	0x3e439a83	0.1910191

conv1s.0.modlist.1.mean_scale f4 [96]
0	0x3f8484c8	1.0353022
1	0x3f78389e	0.9696139
2	0x3f847c89	1.0350505
3	0x3f7c3f0d	0.9853371
4	0x3f8d1ac8	1.1023798
5	0x3f7defd5	0.9919408
6	0x3f51779c	0.81823134
7	0x3f836894	1.026629
8	0x3f61ef55	0.88255817
9	0x3f45efdf	0.7731914
10	0x3f7ca2df	0.9868602
11	0x3f7c41da	0.9853798
12	0x3f7f8c99	0.9982391
13	0x3f5759cb	0.8412139
14	0x3f6b21b7	0.9184832
15	0x3f7f1af5	0.9965051
16	0x3f7ced2f	0.98799413
17	0x3f8ef432	1.1168272
18	0x3f780baf	0.9689283
19	0x3f7a3dd0	0.9775057
20	0x3f7e8ecf	0.9943666
21	0x3f5c72fd	0.8611296
22	0x3f71d867	0.9447083
23	0x3f856266	1.0420654
24	0x3f76302e	0.96167266
25	0x3f8c3467	1.0953492
26	0x3f87619f	1.0576667
27	0x3f7b87e0	0.98254204
28	0x3f451697	0.76987594
29	0x3f6b78ce	0.9198121
30	0x3f6f442a	0.93463385
31	0x3f89c2b8	1.0762548
32	0x3f782c2f	0.9694242
33	0x3f88d053	1.0688576
34	0x3f88ba99	1.0681945
35	0x3f7f7f7c	0.998039
36	0x3f89951e	1.0748632
37	0x3f8982cc	1.0743041
38	0x3f870b58	1.0550337
39	0x3f5f5407	0.8723759
40	0x3f8649f4	1.0491319
41	0x3f978c23	1.1839641
42	0x3f713faa	0.9423777
43	0x3f85ff94	1.0468621
44	0x3f81c0e5	1.0136992
45	0x3f89c3a3	1.0762829
46	0x3f7a5714	0.9778912
47	0x3f73206a	0.94971335
48	0x3f6afc76	0.91791475
49	0x3f9ad64a	1.2096646
50	0x3f6c5190	0.92311954
51	0x3f3e059d	0.74227315
52	0x3f82851f	1.0196875
53	0x3f8ecdd9	1.115657
54	0x3f95b060	1.169445
55	0x3f8748bc	1.0569072
56	0x3f6dcc56	0.92889917
57	0x3f7da131	0.99074084
58	0x3f900475	1.125136
59	0x3f7dc227	0.9912438
60	0x3f7a68b7	0.9781603
61	0x3f9997c9	1.1999446
62	0x3f819156	1.0122478
63	0x3f72a375	0.94780666
64	0x3f81ad07	1.0130929
65	0x3f832a8a	1.0247357
66	0x3f8fc01c	1.1230502
67	0x3f8060f9	1.0029594
68	0x3f8255bc	1.0182414
69	0x3f637679	0.8885265
70	0x3f887926	1.0661972
71	0x3fa7df83	1.3115085
72	0x3f524fd0	0.82153034
73	0x3f855605	1.0416876
74	0x3f889f8e	1.0673692
75	0x3f83f6de	1.0309713
76	0x3f7eb0d8	0.9948859
77	0x3f3c9579	0.7366558
78	0x3f812c9c	1.0091739
79	0x3f8a6861	1.0813104
80	0x3f70eda2	0.941126
81	0x3f4fd1a7	0.8117928
82	0x3f8b5620	1.0885658
83	0x3f61eaeb	0.8824908
84	0x3f8198b5	1.0124727
85	0x3f4b7337	0.7947268
86	0x3f4f832e	0.8105954
87	0x3f824308	1.0176706
88	0x3f797847	0.97449154
89	0x3f913b0b	1.1346143
90	0x3f835594	1.0260491
91	0x3f88a21e	1.0674474
92	0x3f8a0b76	1.0784748
93	0x3f8d47f7	1.1037587
94	0x3f9fcfda	1.2485306
95	0x3fa01c7b	1.2508692

conv1s.1.modlist.0.bias f4 [64]
0	0xbd5de2dd	-0.05417143
1	0x3d1f04aa	0.038822807
2	0xbc8d6319	-0.017259168
3	0xbc708f1f	-0.01468256
4	0x3d77a2f8	0.060458153
5	0xbd157c82	-0.036495693
6	0x3dea198d	0.11430655
7	0x3da1bf55	0.07897822
8	0x3d9be038	0.07611126
9	0x3c9476b3	0.018123006
10	0x3df4ec0d	0.119590856
11	0xbd4c33f7	-0.049854245
12	0x3d20136d	0.039081026
13	0x3d22877c	0.03967999
14	0xbd7deef4	-0.06199546
15	0xbdfae73b	-0.12251135
16	0xbd901531	-0.07035292
17	0x3dd196a5	0.10233811
18	0xbccfd4aa	-0.02536996
19	0xbbeeb8de	-0.0072852215
20	0x3b8a7a51	0.004226007
21	0x3d918129	0.071047135
22	0x3d830687	0.06397729
23	0xbd975350	-0.073889375
24	0xbdda336c	-0.10654339
25	0xbd8752eb	-0.06607612
26	0xbd225b86	-0.039638065
27	0x3c64cf7a	0.013965482
28	0xbda50422	-0.08057429
29	0xbdacb0ff	-0.08432197
30	0xbdb66691	-0.08906282
31	0x3d6dda45	0.058069486
32	0xbe1f2dce	-0.15544817
33	0x3cf2740d	0.029596353
34	0xbce85935	-0.02836285
35	0x3d08928d	0.033342887
36	0xbdf1f7da	-0.11814852
37	0xbd9a2fa4	-0.07528618
38	0x3cb4af12	0.022056136
39	0xbdee2f6d	-0.116301395
40	0x3dedc2d2	0.11609425
41	0x3ce99ab8	0.028516158
42	0xbddedd62	-0.10882069
43	0xbd31cea4	-0.04340996
44	0xbcf2db77	-0.029645665
45	0xbd5c57af	-0.05379456
46	0xbd8b5af8	-0.0680446
47	0xbb456e72	-0.0030125645
48	0xbd1838ca	-0.037163533
49	0xbca42bfb	-0.020040503
50	0x3c8a2ecc	0.016868018
51	0x3d891da0	0.06695104
52	0x3cf7c267	0.030244065
53	0x3ceede65	0.02915878
54	0x3e1588e5	0.14603002
55	0x3de8cf33	0.11367645
56	0xbdaddb3f	-0.084890835
57	0x3ca46c33	0.020071125
58	0xbd371368	-0.04469624
59	0x3d6faa96	0.058512293
60	0x3d62ecd1	0.055401627
61	0x3c69cf3c	0.0142706
62	0xbe16c46d	-0.14723368
63	0x3dd36740	0.10322428

conv1s.1.modlist.0.lin.weight f4 [64, 96]
0	0x3e122639	0.14272393
1	0xbd58e74f	-0.052954968
2	0xbd8a868a	-0.067639425
3	0x3e2edf27	0.17077313
4	0x3cf453a1	0.029825034
5	0x3e64cdce	0.22344133
6	0x3d6fb5ae	0.058522873
7	0x3cd0b151	0.025475176
8	0x3e558244	0.20850474
9	0x3d0ea4fd	0.034825314
10	0x3e2170bd	0.15765662
11	0x3c8fb2d1	0.017541321
12	0xbe58c865	-0.21170194
13	0x3da54597	0.08069914
14	0x3dae56cf	0.08512651
15	0x3e69b48c	0.2282278
16	0xbdd5868e	-0.10426055
17	0x3db82062	0.089905515
18	0x3d20e5c1	0.03928161
19	0xbd1928a8	-0.03739229
20	0x3d8ec6d6	0.06971519
21	0xbe064e3d	-0.13115783
22	0x3e12d880	0.143404
23	0x3e004448	0.12526047
24	0xbe5c6234	-0.21521837
25	0x3e15a0c6	0.14612111
26	0x3bd9bee9	0.0066450727
27	0x3dde65d2	0.108592644
28	0xbc9901a1	-0.018677535
29	0x3d2ded4b	0.04246263
30	0x3c22d366	0.009938097
31	0xbb8cf2fe	-0.004301428
32	0xbdea356e	-0.11435972
33	0x3dd7da91	0.10539735
34	0xbd98c10b	-0.07458695
35	0x3cf5274a	0.029925961
36	0xbe17f2b1	-0.14838673
37	0xbd8988f8	-0.06715578
38	0x3e45f2dc	0.19330925
39	0xbe078361	-0.13233711
40	0x3dec238a	0.11530216
41	0xbce8eb42	-0.028432492
42	0x3e4be458	0.19911325
43	0x3b96ddc6	0.004604074
44	0x3e931c52	0.28732544
45	0xbe16340c	-0.14668292
46	0x3db3c0bd	0.08776996
47	0xbd0009dd	-0.031259406
48	0xbe3a1cfb	-0.18175118
49	0xbd36bd7e	-0.044614308
50	0x3e0ce734	0.13760072
51	0xbe0b1625	-0.13582666
52	0x3d88bb8f	0.06676399
53	0xbe84a2e4	-0.25905526
54	0xbd098da5	-0.03358235
55	0x3d128343	0.035769712
56	0x3e13b68c	0.14425105
57	0xbca62b8f	-0.020284442
58	0x3d8213ae	0.0635141
59	0xbdfafcac	-0.122552246
60	0x3e0bb3ce	0.13642809
61	0x3e381672	0.17977312
62	0x3e6a2e7b	0.22869293
63	0xbda895eb	-0.082317196
64	0xbdf66410	-0.12030804
65	0xbe2bd313	-0.16779737
66	0xbc57db4b	-0.013174842
67	0x3e00c8c2	0.12576583
68	0x3de8758e	0.11350547
69	0x3e263919	0.16232719
70	0xbe0d2bb5	-0.13786204
71	0x3d1f3b0e	0.03887468
72	0x3c7a3f85	0.015273933
73	0x3dfb5fbe	0.12274121
74	0x3d816a1e	0.06319068
75	0x3d5b1d3a	0.05349467
76	0xbcc9567e	-0.024577376
77	0xbe465654	-0.19368869
78	0xbd97e9d3	-0.07417645
79	0xbe1c2e90	-0.15252137
80	0x3df36817	0.11885088
81	0x3d858dcc	0.06521186
82	0xbcfec38e	-0.031099107
83	0x3dd53f95	0.10412518
84	0xbe16116f	-0.14655088
85	0x3e0a0c8e	0.13481352
86	0xbe1c3535	-0.15254672
87	0x3cf5fec9	0.030028718
88	0xbe1cc05e	-0.15307757
89	0x3bb6fb52	0.005584159
90	0xbdb21591	-0.0869552
91	0x3e46d047	0.19415389
92	0x3de9a4fc	0.114084214
93	0x3e523d3e	0.20531175
94	0xbc9abf1e	-0.01888996
95	0x3db7b26f	0.089695804
96	0x3e2c4511	0.16823222
97	0xbca398a2	-0.019970242
98	0xbdfc030c	-0.12305269
99	0xbde9c014	-0.11413589
100	0xbde2cfab	-0.11074766
101	0xbe0448f0	-0.12918448
102	0xbe196bca	-0.14982525
103	0x3e764954	0.2405141
104	0xbe12e909	-0.14346708
105	0xbe3c1ea5	-0.18371065
106	0xbe1f951a	-0.15584221
107	0xbdf48ca4	-0.119408876
108	0xbdfba6b0	-0.122876525
109	0x3dce615f	0.10077166
110	0xbe0532a8	-0.13007605
111	0xbdb21a44	-0.08696416
112	0xbe4ef701	-0.20211412
113	0xbe3f6ce8	-0.18693888
114	0x3d1225c3	0.035680544
115	0xbe17a23b	-0.1480798
116	0xbba883c8	-0.0051426627
117	0xbdc98274	-0.09839335
118	0xbbe3632f	-0.006939314
119	0x3d626215	0.05526932
120	0xbd2b39e7	-0.041803267
121	0x3e3e544b	0.18586843
122	0x3dc37ed3	0.09545674
123	0x3e51a299	0.20472182
124	0x3e4f8fba	0.20269671
125	0xbcca0129	-0.024658756
126	0xbe100450	-0.14064145
127	0x3dc9f2db	0.09860774
128	0xbdca4d85	-0.09878067
129	0xbe3cfd05	-0.18455894
130	0xbe1ca4c4	-0.15297228
131	0x3c56b646	0.013104981
132	0x3c84abe8	0.016195253
133	0x3ddf57e2	0.10905434
134	0xbcaa5b90	-0.020795614
135	0x3e196128	0.14978468
136	0xbdf92fe6	-0.12167339
137	0x3d98e4c9	0.07465512
138	0xbdac81a7	-0.08423167
139	0x3d552688	0.0520387
140	0x3e03a79d	0.12856908
141	0xbe8d9501	-0.27652743
142	0xbdcd7f06	-0.100339934
143	0x3e17d927	0.14828931
144	0x3d728cb8	0.05921623
145	0x3cfa8870	0.030582637
146	0xbc38436a	-0.0112465415
147	0xbc215057	-0.009845815
148	0xbd3bac9f	-0.04581892
149	0xbe86655f	-0.26249215
150	0x3e8ee2b1	0.27907327
151	0x3d59624f	0.05307227
152	0xbe9a9c07	-0.30197164
153	0x3e971fcf	0.29516456
154	0xbd731d00	-0.05935383
155	0x3e4c9092	0.19977024
156	0x3d3d79e0	0.046258807
157	0x3d09d90f	0.03365427
158	0x3c9a83b6	0.018861633
159	0xbd6e0c62	-0.058117278
160	0x3e29bdd0	0.16576314
161	0x3dde70fb	0.10861393
162	0x3e56b62d	0.20967932
163	0x3cbe0af7	0.023198588
164	0x3cf87b6d	0.030332291
165	0x3e0ca55d	0.13734956
166	0x3e7c15fc	0.24617761
167	0x3e23a997	0.15982662
168	0xbbbeda7f	-0.0058243866
169	0xbcc1102c	-0.023567282
170	0xbd902d7e	-0.07039927
171	0x3d039239	0.03212187
172	0xbe20e8e5	-0.15713842
173	0x3e2e0faf	0.1699817
174	0xbd669ccf	-0.056301888
175	0xbdccd4c8	-0.10001522
176	0xbd8c6037	-0.06854289
177	0x3db2f69a	0.08738442
178	0xbdaf1d05	-0.08550457
179	0x3d4ab8c7	0.049492624
180	0x3e06a035	0.13147052
181	0x3dcac185	0.09900192
182	0xbc6acd7b	-0.014331217
183	0x3d32fd2e	0.043698482
184	0x3e0241c8	0.12720406
185	0x3df80721	0.12110735
186	0xbe3655da	-0.17806187
187	0xbd503429	-0.050830994
188	0xbca55bef	-0.020185439
189	0xbd902224	-0.07037762
190	0xbe029ffd	-0.12756343
191	0x3e90bf00	0.2827072
192	0x3d5ecd4d	0.05439501
193	0x3e4afba9	0.19822563
194	0x3ddc8a24	0.10768536
195	0xbd0d68e2	-0.034523852
196	0xbd159992	-0.03652341
197	0x3d62c8bf	0.055367228
198	0x3d10ca22	0.03534902
199	0x3e4cc363	0.19996409
200	0xbde6b50a	-0.11264999
201	0xbe1e16fe	-0.15438458
202	0xbe5aa600	-0.21352386
203	0xbe385bdf	-0.18003796
204	0xbe6c4d8a	-0.23076454
205	0x3e038508	0.12843716
206	0x3e141acd	0.14463349
207	0xbd9a3734	-0.075300604
208	0xbdaa3831	-0.08311499
209	0xbde5ba29	-0.11217148
210	0x3e49cb83	0.1970654
211	0x3db82ee3	0.08993318
212	0x3d523c48	0.05132702
213	0x3e7511ce	0.23932573
214	0xbb974790	-0.004616685
215	0x3c64e012	0.013969438
216	0xbe2ac44a	-0.16676441
217	0xbdcee96d	-0.10103116
218	0x3dffeb7f	0.12496089
219	0xbd880af3	-0.066427134
220	0x3d49ead8	0.04929623
221	0x3c47fe93	0.012206691
222	0x3e3b597a	0.18295851
223	0x3e0fb139	0.14032449
224	0x3d1fe851	0.039039914
225	0x3e54e401	0.20790102
226	0xbd077649	-0.03307179
227	0x3c112aa6	0.008860266
228	0x3dc91089	0.09817607
229	0x3d45e9b0	0.048318565
230	0xbd0c0ec9	-0.034193788
231	0x3d9037b8	0.070418775
232	0xbd221a1a	-0.039575674
233	0xbd5de4e2	-0.054173358
234	0xbe7499bb	-0.23886769
235	0x3e0eedd0	0.13957906
236	0x3e295b32	0.16538695
237	0xbd56f3d4	-0.052478626
238	0xbe61890b	-0.22024934
239	0xbe59720f	-0.21234916
240	0x3e1a4456	0.1506513
241	0x3e80efc8	0.2518294
242	0xbe1250fa	-0.14288703
243	0x3de567e2	0.11201455
244	0xbd238b2d	-0.03992765
245	0xbe7a79c6	-0.24460515
246	0xbc9e9ec9	-0.019362824
247	0x3d427a38	0.047479838
248	0xbd8225e1	-0.06354881
249	0xbe16348d	-0.14668484
250	0xbd79e23e	-0.061006777
251	0xbe39b7a2	-0.18136457
252	0xbe28dd73	-0.16490726
253	0x3ce87988	0.028378263
254	0x3e3ba73d	0.18325515
255	0xbd98681b	-0.074417315

conv1s.1.modlist.1.weight f4 [64]
0	0x3f753c4e	0.9579514
1	0x3f762100	0.96144104
2	0x3f810ecd	1.0082642
3	0x3f72bf62	0.94823277
4	0x3f77063f	0.96493906
5	0x3f70d367	0.94072574
6	0x3f720a8e	0.94547355
7	0x3f7e2660	0.99277306
8	0x3f78cb28	0.9718499
9	0x3f7257f7	0.94665474
10	0x3f7faa64	0.9986937
11	0x3f81817f	1.0117644
12	0x3f70e65d	0.94101506
13	0x3f7b2d34	0.9811585
14	0x3f76efa2	0.964594
15	0x3f7e2a8f	0.9928369
16	0x3f71b453	0.9441578
17	0x3f668df5	0.9006036
18	0x3f8367c8	1.0266047
19	0x3f6cf566	0.9256195
20	0x3f791f7c	0.97313666
21	0x3f83a5ec	1.028501
22	0x3f7afe1c	0.9804399
23	0x3f80c600	1.0060425
24	0x3f701c1b	0.93792886
25	0x3f6e476f	0.9307775
26	0x3f74dc9a	0.9564911
27	0x3f77c70a	0.96788085
28	0x3f71052c	0.94148517
29	0x3f88508d	1.0649582
30	0x3f79c9aa	0.9757334
31	0x3f7d1140	0.98854446
32	0x3f7d48ad	0.9893902
33	0x3f683eec	0.9072101
34	0x3f811e7a	1.0087426
35	0x3f804fb5	1.0024325
36	0x3f6ece81	0.9328385
37	0x3f5f7648	0.8728986
38	0x3f8205f6	1.0158069
39	0x3f83a476	1.0284564
40	0x3f61d1fc	0.88211036
41	0x3f80c085	1.0058752
42	0x3f7323f7	0.94976753
43	0x3f803682	1.0016634
44	0x3f71cbbd	0.94451505
45	0x3f684903	0.9073641
46	0x3f84ca1d	1.037418
47	0x3f6a4020	0.91504097
48	0x3f7ee7d1	0.99572474
49	0x3f80a4bd	1.0050274
50	0x3f7080de	0.93946636
51	0x3f7f0836	0.99621904
52	0x3f81b93b	1.0134653
53	0x3f7243d9	0.9463478
54	0x3f770407	0.9649052
55	0x3f6adecc	0.9174621
56	0x3f77616b	0.96633023
57	0x3f7c3d8b	0.9853141
58	0x3f6e1e98	0.9301543
59	0x3f7736c7	0.9656796
60	0x3f7cb54e	0.9871415
61	0x3f887532	1.0660765
62	0x3f6e1331	0.92998034
63	0x3f7b6e54	0.9821522

conv1s.1.modlist.1.bias f4 [64]
0	0xbd77b148	-0.060471803
1	0xbc12891e	-0.008943824
2	0xb9f1eddc	-0.0004614432
3	0x3d26b6bd	0.040701617
4	0x3a132230	0.00056126993
5	0xbcf8f2d1	-0.030389221
6	0xbc17fa4b	-0.009275983
7	0xbb8d9a22	-0.0043213526
8	0x3cd30a4b	0.025761744
9	0x3d2bd1ce	0.041948132
10	0x3ccc4bb2	0.024938438
11	0xbc8e4e73	-0.017371392
12	0xbc81a1cb	-0.01582422
13	0x3d988dd3	0.07448926
14	0x3c9d2506	0.019182693
15	0x3d72ae5c	0.059248313
16	0xbd5d9b76	-0.054103337
17	0xbcae31f1	-0.021264048
18	0xbd26415c	-0.040589675
19	0x3d45d84b	0.048301976
20	0x3c364a9f	0.0111261895
21	0x3c758da8	0.014987387
22	0xbd509a84	-0.050928608
23	0xbb92bf2f	-0.0044783573
24	0xbdcef954	-0.10106149
25	0xbd01bd7e	-0.031674854
26	0x3dafa54f	0.08576452
27	0x3d220284	0.03955318
28	0xbd7f1dc1	-0.062284235
29	0xbc9370fc	-0.017998211
30	0x3d177173	0.036973428
31	0x3cc2ec30	0.023794264
32	0xbdd375e6	-0.10325222
33	0xbd12f277	-0.035875764
34	0x3c93742c	0.017999731
35	0xbb6d580a	-0.0036215805
36	0x3d92ceed	0.07168374
37	0x3d718501	0.058964733
38	0xbd810298	-0.06299323
39	0x3b334454	0.002735396
40	0x3caa843b	0.020815006
41	0xbcd63af6	-0.026151162
42	0x3dfd73d3	0.12375607
43	0xbd882f2c	-0.06649622
44	0xbda63055	-0.08114687
45	0xbd833dcf	-0.064082734
46	0xbaffc170	-0.0019512605
47	0xbdda145a	-0.10648413
48	0x3cf272c9	0.02959575
49	0xba3d31c0	-0.0007217191
50	0x3d0b1adf	0.033961173
51	0xbda53013	-0.0806581
52	0x3c937ece	0.018004801
53	0x3d58341c	0.05278407
54	0xbdc0d575	-0.09415714
55	0x3c0b3089	0.008495458
56	0x3df4f0a8	0.11959964
57	0xbc90e4dd	-0.017687256
58	0x3b84372a	0.0040348964
59	0x3d9a9f47	0.07549911
60	0x3d3ffa46	0.04686954
61	0xbc9c610f	-0.01908925
62	0x3ca7b3ef	0.020471541
63	0x3d5d688e	0.05405479

conv1s.1.modlist.1.mean_scale f4 [64]
0	0x3f714a37	0.9425387
1	0x3f830a29	1.0237476
2	0x3f812484	1.0089269
3	0x3f88da05	1.0691534
4	0x3f84e65f	1.0382804
5	0x3f80981e	1.0046422
6	0x3f78ff3c	0.97264457
7	0x3f8b10dd	1.0864521
8	0x3f8451c7	1.0337456
9	0x3f6fb73d	0.93638974
10	0x3f80c70c	1.0060744
11	0x3f81afed	1.0131813
12	0x3f6adbf3	0.91741866
13	0x3f871164	1.0552182
14	0x3f80146e	1.0006235
15	0x3f8dcd8c	1.1078353
16	0x3f8062c5	1.0030142
17	0x3f8bfc6d	1.0936409
18	0x3f7989bf	0.9747581
19	0x3f7d9faa	0.99071753
20	0x3f81a568	1.0128603
21	0x3f7dffad	0.99218255
22	0x3f8ee361	1.116314
23	0x3f829431	1.0201474
24	0x3f573ce7	0.84077305
25	0x3f7cb0ef	0.9870748
26	0x3f8af5f2	1.0856307
27	0x3f772401	0.9653931
28	0x3f757b5e	0.9589137
29	0x3f765356	0.9622091
30	0x3f8a156e	1.078779
31	0x3f807e23	1.0038494
32	0x3f78e27e	0.972206
33	0x3f87e4de	1.061672
34	0x3f7093f4	0.9397576
35	0x3f6b92a7	0.9202065
36	0x3f8e7ca3	1.1131786
37	0x3f88916c	1.0669379
38	0x3f878ecf	1.0590457
39	0x3f79f431	0.9763823
40	0x3f7b0ae6	0.98063505
41	0x3f7f3311	0.99687296
42	0x3f932c06	1.149781
43	0x3f69cf5c	0.9133203
44	0x3f70f5c3	0.94125
45	0x3f62fd0b	0.8866736
46	0x3f7f1c9e	0.9965304
47	0x3f74605c	0.9545953
48	0x3f6f87dd	0.93566686
49	0x3f90c666	1.1310546
50	0x3f86e8c5	1.0539786
51	0x3f8b1988	1.0867167
52	0x3f737191	0.95095164
53	0x3f81800b	1.0117201
54	0x3f94aa92	1.1614554
55	0x3f80abf9	1.0052482
56	0x3f883857	1.0642194
57	0x3f732ae4	0.9498732
58	0x3f721aa1	0.9457188
59	0x3f8235c8	1.0172663
60	0x3f7ac6bc	0.97959495
61	0x3f812bf7	1.0091542
62	0x3f7b3242	0.9812356
63	0x3f7cfacf	0.98820204

conv2s.0.modlist.0.bias f4 [64]
0	0x3f48f16d	0.78493387
1	0xbe8807fc	-0.26568592
2	0xbde9c02a	-0.114136055
3	0xbe731470	-0.23738265
4	0x3f1ad59d	0.604822
5	0xbeabff36	-0.33593148
6	0x3f438e01	0.76388556
7	0x3e7b3327	0.24531232
8	0xbf3cf386	-0.7380909
9	0x3f287a01	0.65811163
10	0x3eeed43a	0.4664629
11	0xbf5bd9d3	-0.8587925
12	0xbf8a59de	-1.0808675
13	0xbe018f1a	-0.12652245
14	0x3e310741	0.17287923
15	0x3daaf44c	0.08347377
16	0xbe80ef47	-0.25182554
17	0x3ecc25f3	0.39872703
18	0x3de5ea73	0.11226358
19	0xbf84729f	-1.034748
20	0xbf5e3c1d	-0.86810476
21	0x3ee9d336	0.45668954
22	0x3eca7da6	0.39548987
23	0x3e70e04d	0.23523064
24	0xbd16be87	-0.036802795
25	0xbd9ada21	-0.07561136
26	0xbc3ff410	-0.011715904
27	0x3f2b8ee1	0.6701489
28	0xbf60ca9e	-0.8780917
29	0xbf3b06fa	-0.7305752
30	0x3f0ee1e2	0.5581342
31	0x3dadee7b	0.08492752
32	0xbf501ef7	-0.8129725
33	0x3f62927a	0.88504755
34	0xbf6329c4	-0.88735604
35	0xbdc1b4ff	-0.094583504
36	0x3e1ac036	0.15112385
37	0xbee06a68	-0.43831182
38	0xbf822f70	-1.0170727
39	0xbf4f3136	-0.80934465
40	0xbf792145	-0.9731639
41	0x3e955f53	0.2917429
42	0x3f1c329d	0.6101473
43	0x3f2c6ba8	0.6735177
44	0x3cceb617	0.025233312
45	0x3f813d5b	1.0096849
46	0x3f303104	0.6882479
47	0x3e852a93	0.26009044
48	0xbe1ab2f0	-0.15107322
49	0x3eec8249	0.4619315
50	0x3f1dceaa	0.6164347
51	0x3f24973e	0.6429328
52	0x3e72020e	0.23633596
53	0x3e8f0dd1	0.2794023
54	0xbf6fc9ea	-0.9366747
55	0xbf5a26e2	-0.8521558
56	0xbf712981	-0.94203955
57	0x3f13b10a	0.57692015
58	0xbe571060	-0.2100234
59	0x3f8b91f9	1.0903922
60	0xbf714acb	-0.9425475
61	0x3f198600	0.5997009
62	0x3f32f636	0.6990694
63	0xbf89fb12	-1.0779746

conv2s.0.modlist.0.lin.weight f4 [64, 64]
0	0xbda36119	-0.07977504
1	0x3e079ada	0.13242665
2	0x3e91add7	0.28452942
3	0x3e0a666b	0.13515632
4	0x3e6beea5	0.23040254
5	0x3df85fbf	0.12127637
6	0x3e2be8b6	0.16787991
7	0x3e781df4	0.24230176
8	0x3df87700	0.121320724
9	0x3c438d45	0.011935537
10	0xbe3bd308	-0.18342221
11	0x3dd4e096	0.10394399
12	0xbdc0d428	-0.094154656
13	0x3e34a3e2	0.17640641
14	0x3da40e3c	0.080105275
15	0x397b554b	0.00023969
16	0x3dc19a73	0.09453287
17	0xbe786091	-0.24255587
18	0x3e4512db	0.19245474
19	0x3d83bf75	0.06433002
20	0xbd3a5f7f	-0.04550123
21	0x3dda9ec1	0.10674811
22	0x3e350ea2	0.17681363
23	0x3bb1705e	0.0054150065
24	0x3e10b35b	0.14130919
25	0x3de7a58b	0.11310872
26	0xbc8d4b43	-0.017247802
27	0x3da4dcf1	0.08049954
28	0x3e0c741b	0.13716166
29	0xbe8f4ee4	-0.27989876
30	0x3df208a7	0.118180566
31	0x3e1c0a16	0.15238222
32	0x3b8e298a	0.004338448
33	0xbe077388	-0.13227665
34	0x3e099778	0.13436687
35	0x3e6471be	0.22309014
36	0x3cd58fd3	0.026069557
37	0x3e57ddaf	0.2108066
38	0xbdb8a780	-0.09016323
39	0x3e00a38a	0.12562385
40	0xbe1f02c2	-0.15528396
41	0x3dd401c0	0.10351896
42	0xbe4d37d0	-0.20040822
43	0x3ce4330e	0.027856376
44	0xbe5d13fa	-0.21589652
45	0x3e315639	0.17318048
46	0x3dfcf2ba	0.12350984
47	0x3e1dc4bd	0.15407081
48	0x3e5af4c1	0.21382429
49	0x3d5b648e	0.053562693
50	0x3d89f8a6	0.06736879
51	0x3c8d509d	0.017250353
52	0xbd8c28b7	-0.06843703
53	0xbe492025	-0.19641168
54	0x3d117e59	0.035520885
55	0xbe19ef76	-0.15032753
56	0xbe132159	-0.1436819
57	0x3e274378	0.16334331
58	0xbcca94f8	-0.024729237
59	0xbd152010	-0.03640753
60	0xbddddfd0	-0.108337045
61	0x3d561b9f	0.052272435
62	0x3df29b81	0.11846066
63	0xbe043b18	-0.12913167
64	0x3df52f91	0.11971963
65	0x3e90a604	0.2825166
66	0x3dd7ad14	0.10531059
67	0xbcc01fc2	-0.023452643
68	0x3d441928	0.047875553
69	0xbe31a69f	-0.17348717
70	0xbcdfbbb9	-0.027311193
71	0xbcd138e7	-0.025539828
72	0x3e36416d	0.17798395
73	0xbd7fcc9c	-0.06245099
74	0xbdb842ac	-0.08997092
75	0x3c3c267d	0.011483786
76	0xbcddd2e2	-0.027078096
77	0x3d17b52a	0.037038006
78	0xbe6d1658	-0.23153055
79	0x3d9ef23a	0.07761045
80	0x3e2dff6f	0.16991971
81	0xbe8b3eb5	-0.2719628
82	0x3d2faaa2	0.042887338
83	0x3d665983	0.05623771
84	0x3de5d0c7	0.11221462
85	0xbdcb54c4	-0.09928277
86	0xbd97d3ed	-0.074134685
87	0xbbe195e8	-0.0068843253
88	0xbe016895	-0.12637551
89	0xbdf805b4	-0.12110463
90	0x3d064499	0.032780264
91	0xbdf8d2c3	-0.121495746
92	0x3daa0d5c	0.08303329
93	0x3e815be7	0.25265428
94	0x3e319d14	0.17345077
95	0x3d2db523	0.042409074
96	0xbe23899d	-0.15970464
97	0xbd8318eb	-0.06401237
98	0x3e81f7ec	0.25384462
99	0x3d38a855	0.04508241
100	0x3ce781cd	0.028260136
101	0x3dcb232a	0.099188164
102	0x3e15d274	0.14631063
103	0xbca3c028	-0.019989088
104	0x3dc71786	0.097212836
105	0x3e071076	0.13189873
106	0x3e099a54	0.13437778
107	0x3e00bb2e	0.12571403
108	0x3e39b1d0	0.18134236
109	0xbd4cace2	-0.04996956
110	0xbd379364	-0.044818297
111	0xbd85afd0	-0.06527674
112	0xbe607e4b	-0.21923177
113	0xbe94bf9d	-0.2905244
114	0x3e9082e6	0.28224868
115	0xbdd6a1a3	-0.104800485
116	0xbb1cdd37	-0.0023935565
117	0xbd0390c0	-0.032120466
118	0xbd5d8d67	-0.05408993
119	0xbe23337c	-0.15937608
120	0xbd32e9c0	-0.043679953
121	0xbdf54842	-0.11976673
122	0x3e035511	0.12825419
123	0xbe2cad90	-0.16863084
124	0x3b8fe018	0.0043907277
125	0x3d2351cd	0.039872933
126	0xbddd2e27	-0.107998185
127	0xbe725210	-0.23664117
128	0xbe0d0e1b	-0.13774912
129	0xbcadf50a	-0.021235008
130	0x3d7e29f2	0.06205172
131	0x3df9af5b	0.121916495
132	0xbe189de7	-0.14903985
133	0x3e08cbb3	0.13358955
134	0xbc137248	-0.008999415
135	0xbd455858	-0.048179954
136	0x3cb058ae	0.02152666
137	0x3e724980	0.2366085
138	0xbe4c8b3e	-0.19974992
139	0xbc050de3	-0.008120987
140	0x3dc46f99	0.09591598
141	0xbc9c5626	-0.019084048
142	0xbe87b7f3	-0.2650753
143	0x394d16d0	0.00019558822
144	0xbdcb2ff5	-0.099212565
145	0xbe1631a0	-0.14667368
146	0xbe355d64	-0.17711407
147	0x3d832ab3	0.064046286
148	0x3d9e94bc	0.077432126
149	0xbe53d1b6	-0.20685467
150	0xbd3c6566	-0.04599514
151	0xbe35ab3a	-0.17741099
152	0x3e4f5103	0.20245747
153	0x3cfe453d	0.031038875
154	0xbd99ef29	-0.07516319
155	0x3e40ef3d	0.18841262
156	0xbe0a1b40	-0.13486958
157	0x3e959fe1	0.2922354
158	0xbaffd8df	-0.0019519589
159	0xbf050869	-0.5196596
160	0xbd5b541e	-0.053547017
161	0xbd8c7953	-0.06859078
162	0x3dc4da28	0.096119225
163	0x3d7be9c9	0.06150225
164	0x3e36fe72	0.178705
165	0x3c8e9a60	0.017407596
166	0xbe1a05f3	-0.15041332
167	0xbec0396d	-0.37543812
168	0x3da6b4aa	0.08139928
169	0xbdc87d0d	-0.097894765
170	0xbe8e8213	-0.27833614
171	0xbcfd5dfd	-0.030928606
172	0xbdadf897	-0.084946804
173	0xbe7aef5f	-0.24505375
174	0xbdb03fc5	-0.08605913
175	0xbd8305d6	-0.063975975
176	0x3d4b5883	0.04964496
177	0xbc30088b	-0.010744224
178	0xbd6c714c	-0.057725236
179	0x3e3a0f4c	0.18169898
180	0x3d0c756d	0.034291673
181	0x3d8a0be4	0.06740549
182	0xbde1cb2d	-0.11025081
183	0x3e0d7506	0.13814172
184	0x394235ad	0.00018521278
185	0xbd27ff0e	-0.041014723
186	0xbe1823f6	-0.14857468
187	0x3dce58a6	0.10075502
188	0x3ddddc2a	0.108330086
189	0xbd0fd57d	-0.035115708
190	0xbd768d8e	-0.06019359
191	0x3da8a77f	0.08235072
192	0x3dc50361	0.09619785
193	0x3d867dfd	0.06566999
194	0x3e89fa1d	0.26948634
195	0xbe91124a	-0.28334266
196	0xbc29cb08	-0.010363348
197	0xbddddd70	-0.108332515
198	0x3e454bbd	0.19267173
199	0x3cbdb3fd	0.023157114
200	0xbdf2de4c	-0.11858806
201	0xbe3886fc	-0.18020242
202	0xbd60909b	-0.054825407
203	0xbe6338a9	-0.22189583
204	0x3e442f3c	0.19158643
205	0x3d048e3b	0.032362204
206	0x3d6926ca	0.056921758
207	0x3e34812f	0.17627405
208	0x3d794777	0.06085917
209	0x3e2d3f75	0.16918738
210	0x3e0d9cb2	0.13829306
211	0xbc602d39	-0.013682657
212	0xbe08714b	-0.13324468
213	0xbde40135	-0.11133043
214	0x3d6dee90	0.05808884
215	0xbda6ccdb	-0.08144542
216	0xbdda6fe7	-0.10665875
217	0xbd78e4de	-0.06076514
218	0xbe63e920	-0.22256899
219	0x3da0c044	0.07849172
220	0xbdf32756	-0.11872737
221	0x3e27719e	0.16351935
222	0xbd915302	-0.070959106
223	0x3dbcb9b4	0.092151076
224	0x3e3e0e24	0.18560082
225	0xbd21d8db	-0.03951345
226	0xbe4683f6	-0.19386277
227	0x3b30dd65	0.002698743
228	0xbc9f18cb	-0.019421002
229	0x3d2495a5	0.040181775
230	0xbec18f73	-0.37804756
231	0xbe5d4be6	-0.21610984
232	0x3e213107	0.15741359
233	0xbe46ebd7	-0.19425903
234	0x3e8643b4	0.26223528
235	0xbe0c2d92	-0.13689259
236	0xbe3c493a	-0.18387309
237	0x3e395a60	0.18100882
238	0x3e331926	0.17490062
239	0xbdfa68ea	-0.12227042
240	0x3c19a2cc	0.009377193
241	0xbe53a1bd	-0.20667167
242	0xbea621cf	-0.3244767
243	0x3cef0c23	0.029180592
244	0xbddefcdc	-0.10888073
245	0xbdc1c2f6	-0.09461014
246	0x3dad06e7	0.08448582
247	0x3b0b7573	0.0021279722
248	0xbd215dcc	-0.039396092
249	0x3e113592	0.14180592
250	0xbe30e5f9	-0.17275228
251	0xbdf23598	-0.118266284
252	0x3d458067	0.048218157
253	0x3c980800	0.018558502
254	0xbdb06935	-0.08613817
255	0x3cb52cbf	0.022116063

conv2s.0.modlist.1.weight f4 [64]
0	0x3f6a6fe9	0.9157701
1	0x3f58a89c	0.8463228
2	0x3f829961	1.0203058
3	0x3f5749d5	0.84097034
4	0x3f627c9d	0.88471395
5	0x3f850548	1.0392237
6	0x3f85c82e	1.0451715
7	0x3f76e1f8	0.9643855
8	0x3f7f3c3f	0.99701303
9	0x3f71acf0	0.94404507
10	0x3f7258bc	0.9466665
11	0x3f8ed1f2	1.115782
12	0x3f88dfbf	1.0693282
13	0x3f6bcd78	0.92110395
14	0x3f598fe1	0.84985167
15	0x3f5b4799	0.85656124
16	0x3f54d260	0.83133507
17	0x3f92c577	1.1466511
18	0x3f6c8ef6	0.9240564
19	0x3f84f6bb	1.0387796
20	0x3f7cad23	0.98701686
21	0x3f5d0be0	0.86346245
22	0x3f537e83	0.82614917
23	0x3f6a934c	0.9163101
24	0x3f20f9c0	0.6288109
25	0x3f3c7af3	0.73625106
26	0x3f719727	0.94371265
27	0x3f7c3fa8	0.9853463
28	0x3f80213b	1.0010141
29	0x3f752cab	0.9577128
30	0x3f5f3c2c	0.8720119
31	0x3f87c878	1.0608053
32	0x3f83df0e	1.0302446
33	0x3f6f1fb8	0.93407774
34	0x3f855472	1.0416396
35	0x3f6aa365	0.9165557
36	0x3f8c56a4	1.0963941
37	0x3f6192d6	0.8811468
38	0x3f85f0e1	1.0464135
39	0x3f87c30e	1.0606401
40	0x3f95b38e	1.1695421
41	0x3f988d5d	1.1918141
42	0x3f76f305	0.9646457
43	0x3f85ca22	1.0452311
44	0x3f4e12e0	0.8049755
45	0x3f707669	0.9393068
46	0x3f66286d	0.89905435
47	0x3f5aa021	0.8540059
48	0x3f4c0c60	0.7970638
49	0x3f5896af	0.84604925
50	0x3f704dec	0.938689
51	0x3f771b93	0.9652645
52	0x3f3c47fa	0.7354733
53	0x3f86bd9a	1.0526612
54	0x3f8fbe4f	1.1229953
55	0x3f7c3010	0.9851084
56	0x3f829515	1.0201746
57	0x3f6c831d	0.92387563
58	0x3f7e14ea	0.9925066
59	0x3f6191a7	0.8811287
60	0x3f8a8dd5	1.0824534
61	0x3f76cb82	0.9640428
62	0x3f5ae2a0	0.8550205
63	0x3f846370	1.0342846

conv2s.0.modlist.1.bias f4 [64]
0	0x3ed1e939	0.40998247
1	0x3e3655dd	0.17806192
2	0xbe1b3294	-0.15156013
3	0x3e105566	0.14095077
4	0x3eb7aebb	0.35875496
5	0xbeb0e3d9	-0.34548834
6	0x3ef404a3	0.47659788
7	0xbe5e546c	-0.21711892
8	0x3f2a61f1	0.66555697
9	0x3e9bf29e	0.3045854
10	0xbee426fe	-0.44561
11	0x3f486a7a	0.7828747
12	0x3f79c223	0.97561854
13	0xbd5fc342	-0.05462957
14	0xbe155214	-0.14582092
15	0x3df60365	0.12012366
16	0x3e11bff6	0.14233384
17	0xbec914ad	-0.39273587
18	0x3d94bb16	0.07262246
19	0x3f6143ee	0.8799428
20	0x3f53ec03	0.82782
21	0x3e911d5a	0.28342706
22	0x3e70d575	0.23518927
23	0x3e26e0e8	0.16296732
24	0x3d90829c	0.07056162
25	0x3c137b22	0.009001525
26	0xbc755bbd	-0.014975485
27	0x3ed2a54d	0.4114174
28	0x3f467970	0.7752905
29	0x3f3ab3b0	0.7293043
30	0x3eafb804	0.3432008
31	0x3d918354	0.07105127
32	0x3f4e218c	0.8051994
33	0x3f0ffa6b	0.5624148
34	0x3f2c983f	0.6741981
35	0x3d6b6d17	0.057477083
36	0xbe051fc8	-0.13000405
37	0x3ea088e6	0.31354445
38	0x3f5312ef	0.82450765
39	0x3f22f059	0.6364799
40	0x3f794bf9	0.9738155
41	0xbea4a4a6	-0.32156867
42	0x3eec2dfd	0.46128836
43	0x3eeb5d2e	0.45969528
44	0x3df14ac7	0.11781841
45	0x3f3b0cb1	0.7306624
46	0x3ed5e643	0.41777238
47	0x3e560403	0.20899968
48	0x3e30e976	0.17276558
49	0x3e63f1a2	0.22260144
50	0x3ed3ab50	0.4134164
51	0x3ebc6b2a	0.3680051
52	0x3e02c9e3	0.12772326
53	0xbe83454c	-0.25638807
54	0x3f691494	0.91047025
55	0x3f3e5fbe	0.7436484
56	0x3f3e5a88	0.7435689
57	0x3f012725	0.50450355
58	0xbe16cc28	-0.14726317
59	0x3f4edc75	0.8080514
60	0x3f631266	0.8869995
61	0x3eaef486	0.34170932
62	0x3f0bcf64	0.5461333
63	0x3f7b9eb4	0.98289037
