2WL_link_pred/checkpoint/archive/20221214_004756/2WL_dict_100_20_6.pt (torch, 185977 bytes, 33 tensors)

weight f4 [96, 3]
0	0x3edb57a5	0.42840305
1	0x3b9e4128	0.0048295446
2	0x3d9b260e	0.07575618
3	0x3e9ca8cd	0.30597535
4	0xbea8ece4	-0.32993233
5	0x3e0ecd53	0.13945512
6	0x3f1196cb	0.56870717
7	0xbe70759e	-0.23482367
8	0x3ea1da99	0.3161209
9	0xbd205274	-0.039141133
10	0xbac9421a	-0.0015354783
11	0xbc9c9bac	-0.019117199
12	0xbe8a3a44	-0.26997578
13	0xbed47a44	-0.4149953
14	0xbe83e495	-0.25760332
15	0xbe014073	-0.12622242
16	0xbe8d1110	-0.2755208
17	0xbf17cd7e	-0.5929793
18	0xbde72874	-0.11287013
19	0xbe06e62d	-0.13173743
20	0x3b0d9c9d	0.0021608241
21	0x3ecaddda	0.39622384
22	0xbd938a61	-0.07204128
23	0x3f1bd2d4	0.60868573
24	0xbdc4e82f	-0.09614598
25	0xbdf25b8c	-0.118338674
26	0x3e2780b0	0.16357684
27	0x3e5104bf	0.20411967
28	0xbe681255	-0.22663243
29	0xbe22d3be	-0.15901086
30	0xbd925093	-0.071442746
31	0xbe833e8d	-0.2563366
32	0xbf0587bc	-0.5216024
33	0xbef538cf	-0.47894904
34	0x3e8d9319	0.2765129
35	0x3f20f7f6	0.6287836
36	0xbf253f1f	-0.6454944
37	0xbf243143	-0.6413767
38	0xbdd461c4	-0.1037021
39	0x3f3fddcd	0.74947816
40	0x3eff3f5a	0.4985302
41	0x3f11f823	0.5701925
42	0xbecc1770	-0.3986163
43	0xbed04105	-0.40674606
44	0xbf236112	-0.6381999
45	0xbe325578	-0.17415416
46	0x3ebcf50e	0.36905712
47	0x3e54229e	0.2071633
48	0x3f0164fc	0.50544715
49	0xbeb0a194	-0.34498274
50	0xbe0fc8af	-0.14041398
51	0xbeff457b	-0.49857697
52	0x3ea20e32	0.31651455
53	0xbcfe3f0c	-0.031035922
54	0x3ec2385f	0.37933633
55	0x3ea75ef5	0.32689634
56	0xbebc18bd	-0.36737624
57	0x3dd3a0d2	0.103334084
58	0xbdac922f	-0.0842632
59	0xbe812fd2	-0.25231797
60	0xbdb8031e	-0.089849696
61	0xbd1ac1e2	-0.037782557
62	0x3e0669b0	0.13126254
63	0x3e33ee82	0.17571452
64	0x3d853e47	0.06506019
65	0x3e9933e1	0.29922393
66	0x3f0e1895	0.5550626
67	0x3f380681	0.71884924
68	0x3f29a016	0.66259897
69	0x3eaf5025	0.34240833
70	0xbe16e0dc	-0.14734215
71	0x3f19eeec	0.6013019
72	0xbeab3918	-0.33441997
73	0xbe9a78b4	-0.30170214
74	0xbdb3bde5	-0.08776454
75	0x3e13f7a0	0.1444993
76	0x3f269a72	0.65079415
77	0x3e9dc42b	0.30813727
78	0xbeb55e41	-0.35423473
79	0x3e0e6aad	0.13907881
80	0x3eb53685	0.35393158
81	0xbe2b9c35	-0.16758807
82	0xbed893f0	-0.42300367
83	0xbe92851d	-0.28617182
84	0x3eea5176	0.45765275
85	0xbdd4d44b	-0.10392054
86	0x3e9bfc11	0.3046575
87	0xbe540437	-0.20704733
88	0xbefe57ff	-0.4967651
89	0xbefd5da1	-0.49485496
90	0x3ea3f358	0.32021594
91	0xbe36ca12	-0.17850521
92	0xbcddf2b2	-0.027093265
93	0xbd1a3e4a	-0.03765706
94	0xbd177a50	-0.03698188
95	0x3c839f3c	0.01606714
96	0xbd4ac885	-0.049507637
97	0xbec22c03	-0.37924203
98	0x3f21028c	0.6289451
99	0xbddd45fb	-0.10804363
100	0xbe1f27fa	-0.15542594
101	0x3d629fe4	0.055328265
102	0xbe2a9bb9	-0.16660966
103	0xbe56a022	-0.20959523
104	0xbe53594f	-0.20639537
105	0x3e8fc402	0.2807923
106	0xbc71ff9a	-0.014770413
107	0x3ea7d97a	0.3278311
108	0x3e84aa06	0.25910968
109	0xbe22585c	-0.15854019
110	0x3e4e77a3	0.20162825
111	0x3e0c6d50	0.13713574
112	0xbe51e7fe	-0.20498654
113	0xbf1822f9	-0.59428364
114	0xbe03772c	-0.12838429
115	0xbcf75d11	-0.030195745
116	0xbe483503	-0.19551472
117	0xbe958159	-0.29200247
118	0x3e1f9128	0.15582716
119	0x3ccc00e6	0.024902772
120	0x3e86f168	0.26356053
121	0x3e74b81f	0.23898362
122	0xbd26c919	-0.040719125
123	0xbee8c32b	-0.454614
124	0x3e43858b	0.19093911
125	0x3d850b96	0.064963505
126	0xbe95458a	-0.29154617
127	0x3f480434	0.78131413
128	0xbec7bda0	-0.3901186
129	0x3ece87ea	0.4033807
130	0x3dd185d6	0.10230605
131	0x3f0398b9	0.5140491
132	0xbe0d41a1	-0.13794567
133	0x3d78db1c	0.060755834
134	0x3e8164a7	0.25272104
135	0x3ef8dd09	0.48606136
136	0xbdcfc72a	-0.101454094
137	0xbef5fc84	-0.48044217
138	0x3dd2aabf	0.102864735
139	0xbeabdb43	-0.3356572
140	0x3f09519a	0.5364014
141	0x3ef8a8aa	0.4856618
142	0x3e638846	0.22219953
143	0x3eea569d	0.45769206
144	0xbda97346	-0.0827394
145	0x3d39e0b9	0.045380328
146	0x3d07cb4a	0.033152856
147	0x3ec43373	0.38320503
148	0x3ef72e13	0.4827734
149	0x3ef79c9f	0.4836168
150	0xbe26d78b	-0.1629316
151	0x3df3a493	0.118966244
152	0xbf230ae6	-0.63688505
153	0x3ada0698	0.0016634045
154	0x3de28dfb	0.11062237
155	0x3e2bd9ff	0.16782378
156	0xbf157b8f	-0.5839166
157	0xbedcba38	-0.43110824
158	0x3e9acd19	0.30234602
159	0xbeb73513	-0.3578268
160	0xbf36cb65	-0.71404105
161	0xbea0ced9	-0.31407812
162	0x3e8f1853	0.27948245
163	0x3d9f4d5c	0.07778427
164	0x3f269457	0.650701
165	0xbebf999e	-0.37421888
166	0x3eaf9d75	0.34299818
167	0xbe94450d	-0.28958932
168	0x3eb8e8a3	0.36114988
169	0x3db75fa8	0.08953792
170	0x3e7eaa41	0.24869634
171	0x3f1b49da	0.60659564
172	0xbdc2e3be	-0.095160946
173	0xbd5bc815	-0.05365761
174	0xbc406bd0	-0.0117444545
175	0xbe964b6d	-0.2935442
176	0xbd6697fe	-0.056297295
177	0xbe179728	-0.14803755
178	0x3ed6b8d0	0.41937876
179	0x3f0d2dea	0.55148184
180	0xbf2021cc	-0.6255157
181	0xbee4846a	-0.44632274
182	0x3e5cfe4b	0.2158138
183	0xbf20a40a	-0.62750304
184	0x3e83fd22	0.25779063
185	0xbedfc987	-0.4370844
186	0xbf1dcc83	-0.61640185
187	0xbebf4904	-0.37360394
188	0x3e1c0d8e	0.15239546
189	0x3ee17674	0.44035685
190	0x3ef08741	0.4697819
191	0x3e40d58e	0.18831465
192	0x3ece3d33	0.40281066
193	0x3e6cd7bd	0.23129173
194	0xbd8a5356	-0.06754176
195	0xbe93d678	-0.28874564
196	0x3f14edf7	0.58175606
197	0x3e3f57c8	0.1868583
198	0xbe88cf69	-0.2672074
199	0x3ec6816f	0.38770625
200	0xbedfeb19	-0.43734053
201	0x3edfe99b	0.43732914
202	0x3b822a99	0.003972363
203	0x3e97fb7b	0.29684052
204	0x3c40805d	0.011749354
205	0x3e3ee9ee	0.18643925
206	0x3e0660e2	0.13122895
207	0xbddaa5e3	-0.10676172
208	0x3d51d53c	0.051228747
209	0x3d658e6b	0.056044023
210	0xbd106a90	-0.035257876
211	0xbf073348	-0.52812624
212	0xbf03cd03	-0.514847
213	0xbd14539c	-0.03621255
214	0x3dcbb076	0.09945767
215	0xbe8067a4	-0.25079072
216	0xbf16494c	-0.5870559
217	0xbf012d90	-0.5046015
218	0xbf203df1	-0.62594515
219	0xbec6052f	-0.3867583
220	0x3f1db7f1	0.616088
221	0x3f1b80d6	0.60743463
222	0x3e6d3c0c	0.23167437
223	0xbee91ef5	-0.4553143
224	0xbde02e1b	-0.10946294
225	0x3e422df0	0.18962836
226	0x3e8669e7	0.26252672
227	0xbca4884b	-0.02008452
228	0x3ecd050a	0.40042907
229	0x3f36d16d	0.7141331
230	0x3f089a5b	0.5336053
231	0x3e7ce881	0.24698068
232	0x3de51185	0.11184982
233	0xbf00c60e	-0.5030221
234	0xbf0549f0	-0.52065945
235	0x3c9f1bcc	0.019422434
236	0x3d0ee151	0.034882847
237	0x3e39a538	0.18129432
238	0x3ea24ff1	0.31701615
239	0x3e49da3e	0.19712159
240	0x3e0d2666	0.13784179
241	0x3e4bedb5	0.19914897
242	0x3d806bf7	0.06270593
243	0x3db4fbee	0.08837114
244	0x3ebd85ec	0.37016237
245	0x3dee729e	0.11642955
246	0x3e0462fe	0.12928388
247	0x3eb82baf	0.35970828
248	0x3ddc8d21	0.10769106
249	0x3d881fca	0.06646688
250	0xbdb4bba0	-0.08824849
251	0xbed5a255	-0.41725412
252	0xbec4aa77	-0.38411304
253	0xbf145051	-0.57935053
254	0xbf075365	-0.52861625
255	0x3e79c7f0	0.24392676

bias f4 [96]
0	0x3f0f9ed6	0.5610174
1	0xbea1f629	-0.31633118
2	0x3dcf3356	0.101172134
3	0xbdc4d918	-0.0961172
4	0x3ead9335	0.33901373
5	0xbdae3bb7	-0.085074835
6	0xbd4b654b	-0.049657147
7	0x3ea18238	0.31544662
8	0xbf0f012c	-0.55861163
9	0xbd18a9f6	-0.037271462
10	0xbe981a84	-0.2970773
11	0x3e9bfb12	0.3046499
12	0xbedd92a8	-0.43275952
13	0x3ef191c9	0.47181538
14	0xbe850784	-0.25982296
15	0x3f19d5eb	0.6009204
16	0x3ec41f19	0.38304976
17	0xbe9ca7aa	-0.30596668
18	0x3ed3324f	0.4124932
19	0xbf24d168	-0.6438203
20	0xbe720e5e	-0.23638293
21	0x3ebd2779	0.36944178
22	0x3e60c3f8	0.21949756
23	0x3e457d5b	0.192861
24	0xbe3f8001	-0.18701173
25	0xbe82c746	-0.2554266
26	0xbeeecf35	-0.4664246
27	0xbe3d5108	-0.18487942
28	0xbd9ce3a9	-0.0766061
29	0xbd223c31	-0.039608184
30	0x3e8310be	0.2559871
31	0xbf073729	-0.5281854
32	0x3eb85b7e	0.36007303
33	0xbdef2979	-0.11677832
34	0xbe5a4768	-0.21316302
35	0x3edfa3d1	0.4367967
36	0x3f01a949	0.50648934
37	0xbe48753b	-0.1957597
38	0xbdeb20b3	-0.11480846
39	0x3c8a9763	0.01691789
40	0xbe45cacb	-0.1931564
41	0xbeacf21d	-0.33778468
42	0x3ed27858	0.4110744
43	0x3ebcc509	0.36869076
44	0xbee6c8b3	-0.45074996
45	0x3ed084e2	0.40726382
46	0x3d041c08	0.032253295
47	0x3f0268dd	0.5094126
48	0xbefe03eb	-0.49612364
49	0x3e6ae480	0.22938728
50	0xbf2e48c7	-0.680798
51	0x3b2e470e	0.0026592645
52	0xbe2a9b91	-0.16660906
53	0xbeb1cf8a	-0.34728652
54	0x3e8952f1	0.26821092
55	0xbee47d32	-0.44626766
56	0x3f122dbf	0.57101053
57	0x3d0bada4	0.034101143
58	0xbea6c400	-0.3257141
59	0x3e6f071a	0.23342553
60	0xbe984055	-0.2973658
61	0x3c4b2d84	0.0124009885
62	0xbec05b12	-0.3756948
63	0x3f28351a	0.65706027
64	0x3e2bc2aa	0.16773477
65	0xbe8aff8d	-0.27148095
66	0x3ee0c117	0.43897316
67	0x3e82c355	0.25539652
68	0xbe542852	-0.20718506
69	0xbe082249	-0.13294329
70	0xbe9115e6	-0.2833702
71	0xbcb74219	-0.022370385
72	0xbecc6b62	-0.39925677
73	0x3eacb439	0.3373125
74	0x3e4d6c5d	0.20060869
75	0x3eb78900	0.3584671
76	0x3ed715b1	0.42008737
77	0xbe7343e8	-0.23756373
78	0xbf13d862	-0.5775205
79	0x3e1a22a2	0.15052274
80	0x3e0a0b8f	0.13480972
81	0x3e1aa777	0.15102945
82	0x3db643ef	0.08899676
83	0x3d24ef11	0.040267054
84	0xbf0d0d47	-0.55098385
85	0xbeb7cae8	-0.35896993
86	0x3f2bdb42	0.67131436
87	0xbdebeeba	-0.11520143
88	0xbe65a369	-0.22425617
89	0xbe9e96c9	-0.30974415
90	0xbef7af08	-0.48375726
91	0xbf1f1da1	-0.62154585
92	0xbe2bc345	-0.16773708
93	0x3ee472db	0.44618878
94	0x3f11215f	0.56691545
95	0xbecea117	-0.40357277

bias f4 [96]
0	0x3f1012fe	0.5627898
1	0xbf015d06	-0.5053257
2	0xbf1c9efa	-0.6118008
3	0x3edc7812	0.43060356
4	0x3ec2d98c	0.380566
5	0xbf1cab8a	-0.6119925
6	0x3ed439b7	0.41450283
7	0xbefe1888	-0.4962809
8	0x3e8c00d6	0.27344388
9	0xbf0e65a4	-0.5562384
10	0xbea5bf3e	-0.3237247
11	0x3f113da7	0.567347
12	0xbef842e5	-0.48488536
13	0x3eec400b	0.4614261
14	0xbf0a5854	-0.5404103
15	0xbf3884dd	-0.72077733
16	0xbef937ff	-0.48675534
17	0xbf185079	-0.5949779
18	0x3e5adfeb	0.2137448
19	0xbf10a9f7	-0.56509346
20	0x3f1b1617	0.6058058
21	0x3f1c8b28	0.61149836
22	0xbf09afec	-0.5378406
23	0x3edc5fa8	0.4304173
24	0xbed543e3	-0.41653356
25	0x3f116971	0.56801516
26	0x3ee9b846	0.45648402
27	0xbeca3ce1	-0.39499572
28	0x3efcc752	0.4937082
29	0x3f0344e1	0.51276976
30	0x3eafc89b	0.34332737
31	0xbf3bb967	-0.73329777
32	0xbf20c948	-0.6280713
33	0xbee086ff	-0.43852994
34	0x3f24f44d	0.64435273
35	0x3f2a0fe4	0.664305
36	0xbeac430a	-0.33644897
37	0xbed1df8f	-0.40990874
38	0xbe828edd	-0.2549962
39	0x3ef21782	0.4728356
40	0xbf06b178	-0.52614546
41	0x3f27cf3f	0.6555061
42	0xbee9e2e4	-0.45680916
43	0xbdc42dae	-0.09579025
44	0x3ee61561	0.44938186
45	0x3ebfcfa3	0.37463102
46	0x3ed7c80d	0.42144814
47	0xbea4d16e	-0.32191032
48	0xbf059073	-0.52173537
49	0x3f039b53	0.5140888
50	0xbee62fd2	-0.4495836
51	0xbecd58fb	-0.4010695
52	0xbecb1a5a	-0.39668542
53	0xbeefd3ae	-0.46841186
54	0xbebd1ed0	-0.3693757
55	0x3f0bbe27	0.54587024
56	0xbf14a224	-0.58059907
57	0xbecf805b	-0.40527615
58	0x3f0ebadc	0.55753875
59	0x3eb942df	0.3618383
60	0x3edcd4c5	0.4313108
61	0x3f04378b	0.5164725
62	0x3ed924e7	0.42410967
63	0xbead0f80	-0.33800888
64	0x3f2b1805	0.66833526
65	0x3ecb2878	0.39679313
66	0x3ed01886	0.4064371
67	0xbecf83a0	-0.4053011
68	0x3ec1a089	0.3781779
69	0xbeb3fafe	-0.3515243
70	0xbed0d141	-0.40784648
71	0x3f0d9417	0.5530409
72	0x3eff1a41	0.49824718
73	0x3f09574b	0.53648823
74	0x3efab28f	0.48964354
75	0xbf10df53	-0.56590766
76	0xbefec7f3	-0.49761924
77	0xbf08a9c5	-0.5338405
78	0x3ef2cd72	0.47422367
79	0x3f1014e9	0.56281906
80	0x3db56dad	0.088588096
81	0x3eebc07d	0.46045294
82	0xbee03aa9	-0.43794754
83	0x3f22a9a6	0.6354011
84	0x3ee17cfb	0.44040665
85	0xbf0b87c2	-0.54504025
86	0x3f022450	0.5083666
87	0xbf19ca20	-0.60074043
88	0x3f0e4adf	0.55582994
89	0x3f1d611f	0.6147632
90	0xbec3752f	-0.3817534
91	0x3efecf5e	0.49767584
92	0xbef3fb09	-0.47652462
93	0x3f0b4441	0.5440102
94	0x3f003bf4	0.5009148
95	0xbf1a960b	-0.603852

weight f4 [96, 96]
0	0xbc54a8ae	-0.0129796695
1	0xbe169a8b	-0.14707391
2	0x3e1859e4	0.1487804
3	0x3dc2b6a5	0.09507493
4	0x3dbea459	0.093086906
5	0x3dd85f31	0.10565031
6	0xbc818d82	-0.015814546
7	0xbc94e440	-0.018175244
8	0xbb9512fb	-0.004549382
9	0xbdfb8763	-0.12281682
10	0xbe505904	-0.20346457
11	0x3c813157	0.015770597
12	0xbe73c69a	-0.23806229
13	0x3ea2176d	0.31658497
14	0x3d74bfa5	0.05975308
15	0xbe447538	-0.1918534
16	0x3ceab77a	0.028651942
17	0xbdc41884	-0.095749885
18	0x3e250a66	0.16117248
19	0xbd8d9d0e	-0.069147214
20	0x3e087ce5	0.13328893
21	0x3dc79396	0.09744947
22	0x3e5bbbfc	0.21458429
23	0xbdaceb7e	-0.08443354
24	0xbe5770d2	-0.21039131
25	0x3da7361c	0.081646174
26	0xbe4949a0	-0.19656992
27	0xbdd248cf	-0.102677934
28	0x3c0af708	0.008481748
29	0x3cee5d8e	0.029097345
30	0xbe8dc87f	-0.2769203
31	0xbe564154	-0.20923358
32	0xbdf983b5	-0.12183324
33	0xbe6333c0	-0.2218771
34	0xbd901989	-0.070361204
35	0xbe32fa29	-0.17478241
36	0x3eb871aa	0.3602422
37	0xbe1fa4e3	-0.15590243
38	0x3dcddf79	0.1005239
39	0x3e5f53ab	0.2180926
40	0xbe402a7f	-0.18766211
41	0x3e81fde6	0.25389022
42	0xbdf91595	-0.121623196
43	0xbd1c6540	-0.038182497
44	0xbda41578	-0.08011907
45	0xbd52334a	-0.051318444
46	0x3e1034b3	0.14082603
47	0xbe000a92	-0.12504032
48	0xbdecda42	-0.11565067
49	0xbd2bf1dd	-0.041978706
50	0xbd494fa5	-0.04914822
51	0x3b640442	0.0034792577
52	0xbe04e25c	-0.12976974
53	0xbe929f74	-0.28637278
54	0x3ea01a69	0.3127015
55	0xbe1bd9ef	-0.15219854
56	0x3e9c06f2	0.3047405
57	0x3e1e1bd0	0.15440297
58	0x3dc7ec3d	0.09761856
59	0xbd9dcbd7	-0.07704895
60	0xbda75d82	-0.08172132
61	0xbe47f282	-0.19526103
62	0xbd89bccc	-0.06725463
63	0xbd8f86a4	-0.070081025
64	0x3e6a4465	0.22877653
65	0xbe2c0c59	-0.16801585
66	0x3e56e66d	0.20986338
67	0x3e5c03ff	0.214859
68	0xbe0b47f3	-0.13601665
69	0x3c5db824	0.013532672
70	0x3d99e245	0.075138606
71	0x3d9561d4	0.0729405
72	0xbd360c1f	-0.044445153
73	0xbb04e639	-0.0020278825
74	0x3e34d70c	0.17660159
75	0x3d310d58	0.043225616
76	0x3ea7cb0c	0.327721
77	0x3df8ba03	0.12144854
78	0xbdeeb7c6	-0.11656146
79	0x3e1c5c5c	0.15269607
80	0xbd90718a	-0.07052906
81	0xbbf7e6eb	-0.0075653694
82	0x3e1eb17e	0.15497395
83	0xbe0fb277	-0.14032923
84	0xbda432d0	-0.08017504
85	0xbe3b1029	-0.18267883
86	0x3ea387b1	0.31939462
87	0x3da01050	0.07815611
88	0x3ea4a79e	0.32159132
89	0xbe8cc94d	-0.2749733
90	0xbd648e6f	-0.055799898
91	0xbcbbde12	-0.02293304
92	0xbe2b5ff4	-0.16735822
93	0x3e32989b	0.17441027
94	0x3e300a8a	0.1719152
95	0xbb82bf78	-0.00399011
96	0x3ead9433	0.3390213
97	0x3d698408	0.05701068
98	0xbd8f54c0	-0.06998587
99	0xbe5997d4	-0.21249324
100	0xbd022aaa	-0.03177897
101	0x3dcac091	0.099000104
102	0xbde33524	-0.1109412
103	0xbdf45f06	-0.11932187
104	0xbe6cd5b9	-0.23128404
105	0x3e390823	0.1806951
106	0x3e0dbbf3	0.13841228
107	0x3acf8b2a	0.0015834321
108	0x3e72b6a4	0.23702484
109	0xbe7f8ac5	-0.2495528
110	0x3dff7e5b	0.12475272
111	0xbe0ba178	-0.13635814
112	0xbde047cf	-0.109511964
113	0xbdc0636a	-0.09393962
114	0x3e445349	0.19172396
115	0x3e03ef11	0.12884165
116	0xbe2e0b62	-0.1699653
117	0xbe5c9005	-0.21539314
118	0x3d479faa	0.048736252
119	0x3dc8dd4c	0.09807834
120	0x3cf99888	0.03046824
121	0xbe02071f	-0.12698029
122	0x3d84f8a9	0.06492741
123	0x3e17a60c	0.14809436
124	0x3c9d9b74	0.019239165
125	0x3ea55425	0.3229076
126	0x3ce342de	0.027741846
127	0xbd57a843	-0.0526507
128	0xbdd54019	-0.10412616
129	0xbe1c0ff9	-0.15240468
130	0xbdd1ad23	-0.10238101
131	0xbd521ace	-0.051295094
132	0xbebd4d37	-0.36972973
133	0xbe37d567	-0.179525
134	0x3d12e667	0.03586426
135	0xbdaff93c	-0.085924596
136	0xbe28a70b	-0.16469972
137	0x3eb0e044	0.345461
138	0x3d09823f	0.033571478
139	0xbd85ec0c	-0.06539163
140	0x3df050eb	0.11734184
141	0x3dcf66d6	0.10127036
142	0xbe9bd9a9	-0.304395
143	0xbe9d5174	-0.30726206
144	0x3dee0367	0.11621743
145	0xbe6bcfcf	-0.23028491
146	0xbd621c98	-0.05520305
147	0xbde8e7b2	-0.113723174
148	0xbd8f4432	-0.06995429
149	0x3c8ef183	0.017449146
150	0x3c1f67b3	0.009729314
151	0x3df6b44e	0.12046109
152	0x3e4a0e30	0.19731975
153	0x3daec07f	0.085328095
154	0xbcc4b298	-0.024010941
155	0xbe3c79c9	-0.18405832
156	0x3d6509e9	0.055917654
157	0xbe3e6f9d	-0.18597265
158	0x3cef7e55	0.029235044
159	0x3da7fbc5	0.08202318
160	0x3d06fe07	0.032957103
161	0xbd2fa044	-0.04287745
162	0x3e22cd38	0.15898597
163	0xbc09050a	-0.008363018
164	0x3d75ced8	0.060011715
165	0xbdef1fff	-0.11676025
166	0x3de33ff5	0.11096183
167	0xbd9259ce	-0.07146035
168	0x3e0d52ce	0.13801119
169	0x3e29c482	0.16578868
170	0xbda97809	-0.08274848
171	0x3dd1bef1	0.10241497
172	0xbeb67e58	-0.35643268
173	0xbda4cfcb	-0.08047446
174	0xbbd7edd7	-0.006589632
175	0xbe11ec4a	-0.14250293
176	0x3d51dd50	0.05123645
177	0xbe50b3c8	-0.20381081
178	0x3d270274	0.040773824
179	0xbceb308e	-0.028709676
180	0x3db1d52c	0.086832374
181	0xbd349b3f	-0.044093367
182	0xbc045e2f	-0.008079096
183	0xbe45d61a	-0.19319955
184	0xbde83ca8	-0.11339694
185	0x3e08e75c	0.13369507
186	0x3de19c11	0.110160954
187	0x3ecd0bb3	0.40047988
188	0x3c9873bb	0.018609872
189	0xbe153abf	-0.14573191
190	0x3e256ee0	0.16155577
191	0xbe253d1c	-0.16136593
192	0xbe8aa27e	-0.27077097
193	0xbd9695e2	-0.07352807
194	0xbcaced30	-0.021109194
195	0x3e7b1779	0.24520673
196	0xbe5a6316	-0.21326861
197	0x3e1b007f	0.15136908
198	0x3d26947d	0.040668953
199	0x3c24dc39	0.010062271
200	0xbe703da7	-0.23461019
201	0xbca0a2e1	-0.019608917
202	0x3e0b3975	0.13596137
203	0x3e06996b	0.13144462
204	0x3e65e598	0.22450864
205	0x3d4eb341	0.05046392
206	0x3c7d6ba1	0.015467555
207	0x3d686c0b	0.056743663
208	0x3dfac3d9	0.12244386
209	0xbe172d96	-0.14763483
210	0x3d47b2df	0.04875457
211	0xbeac5523	-0.33658704
212	0xbd0657d5	-0.032798607
213	0xbdc31290	-0.09525025
214	0xbe268d3e	-0.16264817
215	0xbda12ff8	-0.078704774
216	0x3dc3a677	0.09553235
217	0xbd97aa3a	-0.07405515
218	0x3d58d2ee	0.052935533
219	0xbabbae27	-0.0014318869
220	0xbdadf61f	-0.084942095
221	0xbade15cf	-0.0016943755
222	0xbd233266	-0.039842986
223	0x3ee1977e	0.44060892
224	0xbe0bebf5	-0.13664229
225	0xbd3123ed	-0.043247152
226	0xbc8f7b66	-0.017514896
227	0xbe5cfb32	-0.21580198
228	0xbe237b50	-0.15965009
229	0x3e20baf8	0.15696323
230	0xbd91eda3	-0.07125404
231	0x3c131574	0.008977283
232	0x3e184b03	0.14872365
233	0xbd3720e6	-0.04470911
234	0xbda1f2ae	-0.079076156
235	0xbe92ecda	-0.28696328
236	0x3e4008e1	0.18753387
237	0xbe3775a7	-0.17915975
238	0x3dc6f128	0.09713966
239	0xbe5e602d	-0.21716376
240	0x3e097468	0.13423312
241	0xbcd6c9ee	-0.026219334
242	0x3e8ba747	0.2727606
243	0x3dd6de8f	0.104916684
244	0x3e09c8c0	0.13455486
245	0x3dddaf62	0.10824467
246	0xbde97f80	-0.11401272
247	0x3c4445af	0.0119795045
248	0xbda5ac9b	-0.080895625
249	0xbe2c0031	-0.16796948
250	0xbca74405	-0.020418176
251	0xbdaa73a7	-0.0832284
252	0x3e35c392	0.17750385
253	0xbb1108fc	-0.00221306
254	0x3d529106	0.051407836
255	0xbe6a7992	-0.22897938

weight f4 [96]
0	0x3f76624f	0.96243757
1	0x3f68e60a	0.9097601
2	0x3f68aed0	0.9089174
3	0x3f5f505c	0.87231994
4	0x3f7b4115	0.9814618
5	0x3f87c4b0	1.0606899
6	0x3f785c01	0.97015387
7	0x3f6e749f	0.931467
8	0x3f9ca637	1.2238225
9	0x3f80438a	1.0020611
10	0x3f44d807	0.7689213
11	0x3f81df47	1.0146264
12	0x3f5d71b6	0.86501634
13	0x3f496576	0.7867044
14	0x3f80c711	1.006075
15	0x3f89f8c7	1.0779046
16	0x3f5caf2f	0.8620481
17	0x3f836a71	1.0266858
18	0x3f58c25c	0.8467157
19	0x3f4c9265	0.7991088
20	0x3f8c9db7	1.0985631
21	0x3f86741f	1.0504187
22	0x3f5c3159	0.860128
23	0x3f58acf9	0.84638935
24	0x3f6bbfcb	0.9208953
25	0x3f8726cb	1.0558714
26	0x3f589d4d	0.8461502
27	0x3f7f200d	0.9965828
28	0x3f802b62	1.0013239
29	0x3f63cd97	0.8898558
30	0x3f545ac2	0.82950985
31	0x3f673b6d	0.9032505
32	0x3f627ad1	0.8846865
33	0x3f831dbf	1.0243453
34	0x3f4fe5b1	0.81209856
35	0x3f811769	1.0085269
36	0x3f772031	0.96533495
37	0x3f72fade	0.9491404
38	0x3f80ac9a	1.0052674
39	0x3f72b0a0	0.9480076
40	0x3f7dd890	0.99158573
41	0x3f86282b	1.0481008
42	0x3f8435f8	1.032897
43	0x3f45f12e	0.77321136
44	0x3f8ec7f0	1.1154766
45	0x3f26bbe5	0.65130454
46	0x3f809d3b	1.0047983
47	0x3f78d702	0.97203076
48	0x3f73fe3b	0.953098
49	0x3f8afe48	1.085885
50	0x3f5ecf9a	0.87035525
51	0x3f76028f	0.96097654
52	0x3f775543	0.96614474
53	0x3f67d87b	0.905647
54	0x3f7df282	0.9919816
55	0x3f736d7b	0.9508893
56	0x3f7b9178	0.9826884
57	0x3f8445c0	1.0333786
58	0x3f82750e	1.0191972
59	0x3f7ca39f	0.98687166
60	0x3f836ef7	1.0268239
61	0x3f5dd721	0.86656386
62	0x3f6399f5	0.88906795
63	0x3f7b6b20	0.98210335
64	0x3f739331	0.9514647
65	0x3f81a634	1.0128846
66	0x3f75345f	0.95783037
67	0x3f51ff64	0.8203032
68	0x3f8373b7	1.0269688
69	0x3f83e66d	1.0304695
70	0x3f784721	0.96983534
71	0x3f6d8fbb	0.9279744
72	0x3f68eecb	0.9098937
73	0x3f8d7189	1.1050273
74	0x3f4e41f1	0.8056937
75	0x3f74aaa6	0.9557289
76	0x3f83165f	1.0241202
77	0x3f78449a	0.9697968
78	0x3f81de1d	1.0145909
79	0x3f811b76	1.0086505
80	0x3f2b8042	0.6699258
81	0x3f80f0e8	1.0073519
82	0x3f627eea	0.88474905
83	0x3f882577	1.0636433
84	0x3f5ba8fc	0.85804725
85	0x3f64859a	0.8926636
86	0x3f84afc5	1.0366141
87	0x3f590f6f	0.84789175
88	0x3f3a937c	0.72881293
89	0x3f3f9f5d	0.74852544
90	0x3f567c5d	0.83783513
91	0x3f80f565	1.0074888
92	0x3f7b946b	0.9827334
93	0x3f4fb0c1	0.8112908
94	0x3f79ef91	0.97631174
95	0x3f819c68	1.0125856

bias f4 [96]
0	0xbf453858	-0.770391
1	0x3f2b97ee	0.670287
2	0x3f538634	0.8262665
3	0x3f241c30	0.6410551
4	0xbf0a51be	-0.5403098
5	0xbf5795f0	-0.8421316
6	0x3f226253	0.6343128
7	0x3f2802c3	0.65629214
8	0x3f3b4aa8	0.7316079
9	0xbf3e0311	-0.7422343
10	0x3ec4bd61	0.38425735
11	0x3f0d0a0c	0.55093455
12	0x3ee9b7cb	0.45648035
13	0x3f11677e	0.5679854
14	0xbf267269	-0.65018326
15	0x3f24046a	0.64069235
16	0x3f36d70b	0.7142188
17	0x3f28ea16	0.65982187
18	0xbeb42827	-0.35186884
19	0xbf042caa	-0.5163065
20	0x3f3b9372	0.7327186
21	0x3f27e7ae	0.6558789
22	0xbf0dcfa0	-0.55394936
23	0x3edee48d	0.43533745
24	0xbf211813	-0.6292736
25	0xbf36e198	-0.7143798
26	0x3f2fdc62	0.6869565
27	0xbf2e8e85	-0.6818622
28	0x3f467c31	0.7753325
29	0x3f3b1b94	0.73088956
30	0x3eefebc0	0.4685955
31	0x3f509d9e	0.81490505
32	0xbf2f3bb0	-0.6845045
33	0x3f287275	0.6579965
34	0xbf3ee0fb	-0.7456204
35	0xbf298423	-0.6621725
36	0x3f3ed78a	0.74547637
37	0x3ee4582d	0.44598523
38	0xbed4431a	-0.41457444
39	0x3f23141e	0.6370257
40	0x3f21a87d	0.6314772
41	0xbf6b7b3e	-0.9198493
42	0xbf094385	-0.5361865
43	0x3ddc487d	0.107560135
44	0xbf3213f6	-0.6956171
45	0x3e9099ca	0.28242332
46	0xbf202b8a	-0.62566435
47	0xbf3af041	-0.7302285
48	0xbf4efead	-0.80857354
49	0xbf631848	-0.88708925
50	0xbf0a0d31	-0.5392638
51	0xbf2eb299	-0.6824127
52	0xbf26f9f3	-0.6522514
53	0x3f19a520	0.60017586
54	0x3f1b0bc5	0.60564834
55	0x3f241a03	0.6410219
56	0xbf1f8837	-0.6231722
57	0xbf29f934	-0.6639588
58	0xbf0f96ac	-0.5608928
59	0xbee3931b	-0.4444817
60	0x3f0c0dd5	0.54708606
61	0xbef0e807	-0.47052023
62	0x3f26d148	0.6516309
63	0xbf1834f1	-0.5945578
64	0xbf3073d2	-0.6892673
65	0x3f1ad021	0.6047383
66	0xbf36443d	-0.71197873
67	0x3ee5a217	0.44850227
68	0xbf2c2600	-0.67245483
69	0xbf366a11	-0.71255594
70	0x3f1ae56b	0.60506314
71	0xbf1716d4	-0.5901921
72	0x3f227512	0.63459885
73	0xbf1d604b	-0.61475056
74	0xbf10e61b	-0.56601113
75	0x3f2ddab2	0.6791183
76	0xbf027802	-0.5096437
77	0xbf208878	-0.62708235
78	0xbf4aa0cb	-0.791516
79	0xbf3465b2	-0.70467675
80	0xbe697521	-0.22798587
81	0x3f17b7da	0.5926491
82	0xbf59ee32	-0.8512908
83	0x3f1dffc2	0.6171838
84	0xbee6579e	-0.44988722
85	0xbf1e7258	-0.61893225
86	0x3f0e243d	0.55524045
87	0xbf145cbf	-0.5795402
88	0xbf042fbf	-0.51635355
89	0xbef85719	-0.4850395
90	0xbf09f478	-0.53888655
91	0xbf0f6c98	-0.56025076
92	0x3f57355e	0.84065807
93	0x3f2da11e	0.6782397
94	0xbf3333bc	-0.70000815
95	0x3f32c7fd	0.6983641

mean_scale f4 [96]
0	0x3fd465a1	1.6593515
1	0x3fc0d716	1.5065639
2	0x3fcaff24	1.5859113
3	0x3f0e5d86	0.55611455
4	0x3fb34fbc	1.4008708
5	0x3ef1702e	0.471559
6	0x3ef7ecdf	0.48422906
7	0x3fb4a289	1.4112102
8	0x3f1f5a62	0.6224729
9	0x3f00d49a	0.50324404
10	0x3faab3c0	1.3336105
11	0x3ef1277c	0.47100437
12	0x3fb2eef2	1.397917
13	0x3edb1ff2	0.4279781
14	0x3eff3de0	0.49851894
15	0x3fc70773	1.5549148
16	0x3fbd7987	1.4802712
17	0x3fd2451c	1.642734
18	0x3faa7e9b	1.3319887
19	0x3ecb8612	0.39750725
20	0x3edb202d	0.42797986
21	0x3ef1481c	0.47125328
22	0x3eeb9939	0.46015337
23	0x3f1293d9	0.5725685
24	0x3efb0de0	0.49034023
25	0x3fbf20dc	1.4931903
26	0x3ec3d7ff	0.3825073
27	0x3eee6124	0.46558487
28	0x3f0e9cb6	0.5570787
29	0x3eed76bc	0.4637965
30	0x3f091bf9	0.5355831
31	0x3fd15c4b	1.635629
32	0x3ee76ce6	0.4520027
33	0x3fb3802d	1.4023491
34	0x3fc7e301	1.5616151
35	0x3fccce2d	1.600042
36	0x3fb4dd45	1.4130026
37	0x3fb374b6	1.4019992
38	0x3f3a611a	0.72804415
39	0x3f03edc2	0.51534665
40	0x3fb3d7bc	1.4050212
41	0x3fc92c26	1.5716598
42	0x3ef41952	0.47675568
43	0x3f997cad	1.1991173
44	0x3fb6c0a5	1.427754
45	0x3f1dc854	0.616338
46	0x3fb7c866	1.4358032
47	0x3ef75d1e	0.4831323
48	0x3f0424a2	0.516184
49	0x3fc18fc7	1.5122002
50	0x3efb9f7a	0.49145108
51	0x3f0f68be	0.560192
52	0x3f17c74e	0.5928849
53	0x3fb5ebbe	1.4212568
54	0x3fc9212f	1.5713252
55	0x3f08af37	0.53392357
56	0x3efba193	0.4914671
57	0x3f182afb	0.59440583
58	0x3fbcd0e0	1.4751244
59	0x3fbfc5c8	1.4982233
60	0x3f09a4b7	0.5376696
61	0x3fc18486	1.5118568
62	0x3f16d2b4	0.5891526
63	0x3f21a7c4	0.63146615
64	0x3fc96ad3	1.5735725
65	0x3f17566f	0.5911626
66	0x3fb81122	1.4380229
67	0x3fb7c458	1.4356794
68	0x3fbfa686	1.4972694
69	0x3f19874d	0.5997208
70	0x3fb8352c	1.4391227
71	0x3fc9a2f3	1.5752853
72	0x3ef68c25	0.48153797
73	0x3fc16f7c	1.5112147
74	0x3fcddc64	1.6082883
75	0x3fc87a4a	1.566232
76	0x3f10794a	0.5643507
77	0x3f0116b9	0.504253
78	0x3fb87943	1.4412006
79	0x3fc0cbaf	1.5062159
80	0x3fa1f846	1.2653892
81	0x3f1b2a68	0.6061158
82	0x3f17134d	0.59013826
83	0x3ef5b6f9	0.4799116
84	0x3fac7c54	1.3475442
85	0x3ee490bf	0.44641683
86	0x3eea64dd	0.45780078
87	0x3eef580f	0.4674687
88	0x3fc18bed	1.5120827
89	0x3fcf0f8f	1.6176623
90	0x3f1d9e45	0.61569625
91	0x3fbacc4c	1.4593596
92	0x3fbe9b09	1.4891063
93	0x3eea8770	0.45806456
94	0x3fbb5ff3	1.4638656
95	0x3fbec2f6	1.4903247

bias f4 [64]
0	0xbd48189e	-0.0488516
1	0xbc808638	-0.015689
2	0xbe0c6838	-0.13711631
3	0x3ca45291	0.020058902
4	0x3e1b2917	0.15152393
5	0xbe003a39	-0.1252221
6	0x3e945ed1	0.2897859
7	0xbdabeb79	-0.08394522
8	0x3e0f7185	0.14008148
9	0x3c93a273	0.018021798
10	0x3dcb7864	0.09935072
11	0xbdd2ea15	-0.10298554
12	0x3d2fb372	0.04289574
13	0x3db7de25	0.089779176
14	0x3b10eb81	0.0022113028
15	0x3ab0979a	0.0013472915
16	0x3d5b3c0f	0.053524073
17	0x3e062858	0.13101327
18	0xbe408fc0	-0.18804836
19	0x3d679581	0.056539062
20	0xbd516624	-0.0511228
21	0x3e8c41e8	0.27394032
22	0x3dcb1c63	0.09917524
23	0xbe47bfbd	-0.19506736
24	0xbd2ac638	-0.041692942
25	0xbdb20bfb	-0.08693691
26	0x3d26e57f	0.04074621
27	0x3e0327e3	0.12808184
28	0xbd59135f	-0.05299699
29	0xbe125485	-0.14290054
30	0xbd68879a	-0.056769945
31	0x3db71e2f	0.08941304
32	0xbd8aa8ca	-0.06770475
33	0xbd15cc33	-0.036571693
34	0x3e0a9829	0.13534607
35	0xbd2d9faa	-0.042388596
36	0x3c7fa5b0	0.015603468
37	0x3c2990a3	0.0103494255
38	0xbe2f4978	-0.1711787
39	0xbdd52f46	-0.10409407
40	0xbc5eff35	-0.013610651
41	0x3cd0338a	0.0254152
42	0xbdc63482	-0.09677984
43	0xbd532c87	-0.051556136
44	0x3cf0bdfb	0.029387465
45	0x3d2ed256	0.04268106
46	0xbe2a84c9	-0.16652216
47	0x3c810126	0.015747618
48	0xbd631900	-0.055443764
49	0x3d7f57b8	0.062339514
50	0x3d9fa0ee	0.07794367
51	0x3d44facc	0.04809074
52	0x3e1366f4	0.14394742
53	0xbb532174	-0.0032215985
54	0x3ff19e1f	1.887638
55	0x3e27d016	0.16387972
56	0xba3eccb6	-0.0007278429
57	0x3e2ff5dd	0.17183633
58	0xbda642a2	-0.08118178
59	0x3d35fa42	0.044428118
60	0xbc4cb764	-0.012494896
61	0xbd955ba0	-0.07292867
62	0xbe030f68	-0.12798846
63	0x3ec57e1e	0.38572782

weight f4 [64, 96]
0	0xbd091f09	-0.033476863
1	0xbda524b3	-0.080636404
2	0xbe0ce98a	-0.13760963
3	0x3e6270db	0.22113363
4	0x3d8c9b69	0.0686558
5	0x3e8b4147	0.2719824
6	0xbbbb5f2d	-0.005718133
7	0x3e9cb5e8	0.30607533
8	0x3dc57aa8	0.096425354
9	0x3c946bd5	0.018117825
10	0x3e62440d	0.22096272
11	0x3d00fb16	0.031489454
12	0xbe2aa4cf	-0.16664432
13	0xbcff0e38	-0.03113471
14	0x3d9b1eb0	0.075742126
15	0x3ecb5f95	0.3972136
16	0xbe233f71	-0.1594217
17	0x3e761e24	0.24034935
18	0xbdacbd4e	-0.084345445
19	0x3d532a67	0.05155411
20	0xbd8e8dea	-0.06960662
21	0xbdc32745	-0.095289744
22	0x3e251c91	0.16124178
23	0x3e69556a	0.22786489
24	0xbca596c5	-0.020213494
25	0x3e61fdcb	0.2206947
26	0x3d689734	0.056784824
27	0x3dd5ec2f	0.10445439
28	0x3bf9d34c	0.0076240655
29	0xbdba6167	-0.09100609
30	0x3c89b645	0.016810546
31	0x3e23b56b	0.15987174
32	0xbe0f0ba0	-0.13969278
33	0x3ea326a3	0.31865415
34	0xbdf245c3	-0.11829712
35	0x3cb2d998	0.021832272
36	0xbd94de64	-0.0726898
37	0xbdc8e6a2	-0.09809615
38	0x3ea14aa7	0.31502268
39	0xbe022aa0	-0.12711573
40	0x3d99c786	0.07508759
41	0x3d8c55ca	0.068523005
42	0x3e094b0f	0.13407539
43	0x3dc4beea	0.096067265
44	0x3e9f73a5	0.31142917
45	0xbd777984	-0.06041862
46	0xbd439e65	-0.04775848
47	0xbde2ceaf	-0.11074578
48	0xbe867a9c	-0.2626542
49	0xbd4eafb2	-0.050460525
50	0x3e2c98d8	0.1685518
51	0xbe32e410	-0.17469811
52	0xbc19dbcf	-0.009390785
53	0xbdf33775	-0.11875812
54	0x3bea9aa3	0.0071595474
55	0xbdb58697	-0.088635616
56	0x3e5de371	0.21668793
57	0xbc380680	-0.0112320185
58	0xbd6bf673	-0.05760808
59	0xbdd90fed	-0.10598741
60	0x3cdbded8	0.026839659
61	0x3e4c4039	0.19946374
62	0x3e5ff06f	0.21869062
63	0xbe0cc7a1	-0.13748027
64	0xbdec831f	-0.11548447
65	0xbe2e3915	-0.17013963
66	0xbb5852ac	-0.003300826
67	0x3e2d62d8	0.16932237
68	0x3e145285	0.14484604
69	0x3e20b715	0.1569484
70	0xbe868580	-0.26273727
71	0xbaee4b86	-0.0018180467
72	0xbc72640c	-0.014794361
73	0x3eda9bfb	0.4269713
74	0x3e20cd5b	0.15703337
75	0x3d120401	0.03564835
76	0xbc82873e	-0.01593363
77	0xbe116deb	-0.14202087
78	0xbcb362f1	-0.021897765
79	0xbe42bd7e	-0.19017598
80	0x3e5c2805	0.21499641
81	0xbb95062d	-0.0045478554
82	0x3d02de08	0.031950027
83	0x3e18cc18	0.14921606
84	0xbe9cd8dc	-0.306342
85	0x3e004c50	0.12529111
86	0xbe7a74c4	-0.24458605
87	0x3e49f259	0.19721355
88	0xbe513e1d	-0.2043385
89	0xbd816e03	-0.06319811
90	0x3d591132	0.052994914
91	0x3e7a1d52	0.24425247
92	0x3c0d9f28	0.008643903
93	0x3e23a8d8	0.15982378
94	0x3d925114	0.07144371
95	0x3eaa94f3	0.33316764
96	0x3e2567f9	0.16152944
97	0xbd724eb1	-0.059157077
98	0xbd53cc07	-0.051708248
99	0xbdcf758f	-0.101298444
100	0xbc4e6462	-0.012597175
101	0xbe0e8d10	-0.13920999
102	0xbe02ec41	-0.12785436
103	0x3e2bcd1f	0.16777466
104	0xbe8d4a77	-0.27595875
105	0xbe40f712	-0.1884425
106	0xbdc14e38	-0.09438747
107	0xbdc4ca29	-0.096088715
108	0xbe258383	-0.16163449
109	0x3e443e73	0.19164447
110	0xbdd05321	-0.101721056
111	0xbe028e8b	-0.12749688
112	0xbe6599ce	-0.22421953
113	0xbe55b98a	-0.20871559
114	0x3cad1988	0.021130338
115	0xbe613c77	-0.21995722
116	0xbd43a13c	-0.047761187
117	0xbe83cdb6	-0.25742882
118	0xbd0668a2	-0.03281463
119	0x3d748fda	0.0597075
120	0x3e042bf9	0.12907399
121	0x3e181010	0.14849877
122	0x3c7e3c4e	0.015517307
123	0x3e5f2f80	0.21795464
124	0x3ec7ff9a	0.39062196
125	0x3d7f98d0	0.062401593
126	0xbe35f9c2	-0.17771056
127	0x3e76f422	0.24116567
128	0xbe0fd313	-0.14045362
129	0xbeb11e23	-0.34593305
130	0xbd7a797f	-0.061151024
131	0x3deb02ca	0.11475141
132	0x3cf72ab1	0.030171724
133	0x3dbd8c7a	0.092553094
134	0xbda458f7	-0.08024781
135	0x3dcf3959	0.1011836
136	0x3d2aa354	0.041659668
137	0x3e4fafc1	0.20281889
138	0xbe9482da	-0.29006082
139	0x3ce4358c	0.027857564
140	0x3dc49572	0.09598817
141	0xbe234448	-0.15944016
142	0xbe2b11ae	-0.16705963
143	0x3e4f0e6c	0.20220345
144	0xbd10513c	-0.03523372
145	0xbc4f152e	-0.012639327
146	0x3e65f2dc	0.22455925
147	0xbdf673b7	-0.120337896
148	0xbe80a5e8	-0.25126576
149	0xbe96bcf5	-0.29441038
150	0x3ee10c9c	0.43954933
151	0x3d812403	0.06305697
152	0xbe9e303d	-0.30896178
153	0x3e4690c2	0.19391158
154	0xbe2f9ab6	-0.17148861
155	0x3eb5d4c8	0.35513902
156	0x3d1c9a72	0.038233228
157	0x3caa4580	0.020785093
158	0xbcbb7494	-0.022882737
159	0xbcb2ee5d	-0.021842176
160	0x3def7866	0.11692886
161	0x3d3278c7	0.043572214
162	0x3e937112	0.28797203
163	0x3da93992	0.08262934
164	0x3ddc8252	0.10767044
165	0x3dc5f678	0.09666151
166	0x3ebe37d5	0.3715197
167	0x3e92a764	0.28643334
168	0xbcea3bcf	-0.028592972
169	0x3ca5e6a8	0.020251587
170	0xbd98b295	-0.07455937
171	0x3d8864eb	0.066598736
172	0xbec8a0b5	-0.3918511
173	0x3de1490a	0.11000259
174	0xbdb967d1	-0.090530045
175	0xbdbc6c57	-0.09200352
176	0xbd860d86	-0.06545548
177	0x3dee09a3	0.11622932
178	0xbe1b56e4	-0.15169865
179	0x3e1589e7	0.14603387
180	0x3e59db15	0.2127498
181	0x3aea4c4b	0.001787552
182	0x3cca5c72	0.024702284
183	0x3e109cfd	0.14122386
184	0x3e10d7ae	0.14144775
185	0x3e45a454	0.19300967
186	0xbc4204fb	-0.011842008
187	0xbe049cd3	-0.12950449
188	0xbd971aba	-0.073781446
189	0x3d2ee72e	0.04270094
190	0xbd1eb1ff	-0.03874397
191	0x3eca8a84	0.39558804
192	0x3e796adf	0.24357174
193	0x3e79f1da	0.24408665
194	0x3d96c5e6	0.07361965
195	0x3d937592	0.07200159
196	0xbd53974f	-0.05165797
197	0x3df54feb	0.11978134
198	0xbaf51c69	-0.0018700483
199	0x3ea0f331	0.3143554
200	0xbe27ed17	-0.16399036
201	0xbe4821ad	-0.19544096
202	0xbe637e9c	-0.22216266
203	0xbe4ef23c	-0.20209593
204	0xbe369e28	-0.1783377
205	0x3c09c693	0.00840916
206	0x3e2ad77e	0.16683766
207	0xbd4828cd	-0.048867036
208	0xbc3bc1f3	-0.011459815
209	0xbd44252e	-0.04788702
210	0x3e3abc49	0.18235888
211	0x3e802dbb	0.2503489
212	0xbc208529	-0.009797373
213	0x3e529fae	0.20568725
214	0xbdceedbd	-0.10103939
215	0xbdbf8348	-0.09351212
216	0xbd873651	-0.06602157
217	0xbe2ae918	-0.1669048
218	0x3e226e4d	0.15862389
219	0xbcf2a180	-0.029618025
220	0x3db105bd	0.086436726
221	0xbd7c6dba	-0.06162808
222	0x3eb22bad	0.34798947
223	0x3dfc0921	0.12306429
224	0x3d41284d	0.047157574
225	0x3d45c476	0.048283063
226	0x3e1a88f7	0.1509131
227	0x3e2129bb	0.15738575
228	0x3e717f11	0.23583628
229	0x3dc14bf2	0.094383135
230	0xbd05b094	-0.0326391
231	0xbdc428e6	-0.09578113
232	0xbb146ad0	-0.0022646673
233	0xbda02882	-0.07820226
234	0xbe4131ea	-0.18866697
235	0x3caab57c	0.020838492
236	0x3e6a542d	0.22883673
237	0xbdd7d7fb	-0.10539242
238	0xbe910b58	-0.28328967
239	0xbe7637d6	-0.24044737
240	0x3e0a71ce	0.13519976
241	0x3ee1a689	0.4407237
242	0x3c57ef0f	0.013179555
243	0x3e3d7369	0.18501057
244	0xbdc1a6be	-0.09455632
245	0xbe9a40e6	-0.3012764
246	0xbd54c63f	-0.051946875
247	0x3e0888a6	0.13333377
248	0xbe303f49	-0.17211641
249	0xbe4083ac	-0.18800229
250	0x3c1f880f	0.009737029
251	0xbe0c865e	-0.13723132
252	0xbd117648	-0.035513192
253	0x3e02f489	0.12788595
254	0x3e245d5e	0.16051242
255	0xbd7a1a48	-0.06106022

weight f4 [64]
0	0x3f32d90f	0.69862455
1	0x3f23c232	0.63968194
2	0x3f1f7819	0.6229263
3	0x3f0f1a7d	0.5589979
4	0x3f170727	0.5899529
5	0x3f24b4d7	0.6433844
6	0x3f307cde	0.6894053
7	0x3f194561	0.5987149
8	0x3f3eeaeb	0.74577206
9	0x3f12e1a6	0.5737556
10	0x3f2a55d7	0.6653723
11	0x3f1ff12a	0.6247736
12	0x3f24da39	0.6439548
13	0x3f040c32	0.5158111
14	0x3f363eaa	0.7118937
15	0x3f1cab69	0.6119905
16	0x3f2edc09	0.68304497
17	0x3eef0268	0.46681523
18	0x3f1832d6	0.5945257
19	0x3f2ba539	0.67048985
20	0x3f16fba6	0.58977735
21	0x3f316ac5	0.6930354
22	0x3f0cc448	0.54987
23	0x3f281af4	0.6566613
24	0x3f84a30c	1.0362258
25	0x3f0d1d83	0.55123156
26	0x3f3857cf	0.72008985
27	0x3f3420e9	0.70362717
28	0x3f2252b9	0.63407475
29	0x3f2fca1f	0.6866779
30	0x3f351f3e	0.70750797
31	0x3f3db42a	0.74103034
32	0x3f17958b	0.5921256
33	0x3f1ddc9c	0.6166475
34	0x3f3d91b3	0.74050444
35	0x3f394967	0.7237763
36	0x3f2696ad	0.65073663
37	0x3f022925	0.5084403
38	0x3f1437e6	0.57897794
39	0x3f2476f5	0.64244014
40	0x3f0993ef	0.53741354
41	0x3f2ed8e1	0.6829968
42	0x3fea424d	1.8301483
43	0x3f346909	0.7047277
44	0x3f0fec16	0.56219614
45	0x3f073d8b	0.5282828
46	0x3f38d4b0	0.72199535
47	0x3f2322ae	0.6372479
48	0x3f334866	0.70032346
49	0x3f3837d5	0.7196019
50	0x3f194228	0.5986657
51	0x3f208af7	0.62712044
52	0x3f123e70	0.5712652
53	0x3f81e01b	1.0146517
54	0x3ff452af	1.9087733
55	0x3f14e135	0.5815614
56	0x3f036fa9	0.51342255
57	0x3f342353	0.703664
58	0x3efdda98	0.49580836
59	0x3f270d88	0.6525502
60	0x3f17a786	0.59239995
61	0x3f2867cb	0.65783376
62	0x3f1d1744	0.61363626
63	0x3f3df0da	0.74195635

bias f4 [64]
0	0x3cbe2c56	0.0232145
1	0x3c7e4bd4	0.0155210085
2	0xbd766004	-0.06015016
3	0x3d083681	0.033255104
4	0xbd7decae	-0.061993293
5	0x3c472362	0.012154432
6	0x3cb6654d	0.0222651
7	0x3dae9f41	0.08526469
8	0x3c619527	0.013768471
9	0x3d4579cc	0.048211858
10	0x3d71c76c	0.059028074
11	0xbc27b998	-0.01023712
12	0xbd1edf31	-0.03878707
13	0x3dc4464a	0.09583719
14	0x3caad5a4	0.020853825
15	0xbd11b5f2	-0.035573907
16	0x3c7d658c	0.015466105
17	0xbd93f428	-0.072243035
18	0x3b4f6cb3	0.0031650483
19	0xbbffb1e8	-0.0078031905
20	0x3b1f7f7d	0.0024337464
21	0xbd0dcf5e	-0.03462159
22	0xbd9b7964	-0.07591513
23	0xbcb49c88	-0.022047296
24	0xbedb00f9	-0.4277418
25	0xbca784a7	-0.020448996
26	0x3d128d95	0.035779554
27	0x3aad70ea	0.0013232504
28	0xbc1c4f8f	-0.009540453
29	0x3c987350	0.018609673
30	0x3c907aa0	0.017636597
31	0x3dcc7fcf	0.09985315
32	0xbd84c29f	-0.064824335
33	0xbc6064ae	-0.013695879
34	0xbd2be9bc	-0.041970953
35	0xbd3e7ec4	-0.046507612
36	0xb9bfb641	-0.0003656615
37	0xbcff6478	-0.031175837
38	0x3d4524f8	0.04813096
39	0x3aa20ced	0.0012363471
40	0x3b881af0	0.004153602
41	0xbd6dc1a8	-0.058046013
42	0x3fc03650	1.5016575
43	0x3c1e060b	0.009644995
44	0xbdbff75c	-0.09373352
45	0x3cb711bc	0.022347324
46	0xba2b27b8	-0.0006529051
47	0x3bffc7bb	0.007805792
48	0xbc38d878	-0.011282079
49	0xbd3592e7	-0.04432955
50	0x3b84e555	0.004055659
51	0xbdf448fa	-0.11927982
52	0x3d1c6e4f	0.038191136
53	0x3e71ac28	0.23600829
54	0xc05e6774	-3.4750643
55	0x3ca71e76	0.020400267
56	0x3d93d237	0.0721783
57	0xbaf24cf2	-0.0018486066
58	0x3c13bb22	0.009016784
59	0xbd12026e	-0.03564685
60	0x3d278b0f	0.0409041
61	0xbd053d35	-0.032529075
62	0xbd82a0f7	-0.06378358
63	0xbccfac8b	-0.02535083

mean_scale f4 [64]
0	0x3f8b2475	1.0870501
1	0x3f837778	1.0270834
2	0x3f808cb8	1.0042944
3	0x3f8b1241	1.0864946
4	0x3f850deb	1.0394872
5	0x3f85a2dd	1.0440327
6	0x3f82d3ac	1.0220847
7	0x3f8b1213	1.0864891
8	0x3f7761ca	0.9663359
9	0x3f813994	1.0095696
10	0x3f8b2704	1.0871282
11	0x3f854630	1.0412045
12	0x3f823956	1.0173748
13	0x3f8cf29d	1.101154
14	0x3f7aaf69	0.97923905
15	0x3f7b7cc5	0.9823726
16	0x3f706b11	0.9391337
17	0x3f8162cc	1.0108275
18	0x3f80f5b3	1.0074981
19	0x3f870755	1.0549113
20	0x3f8a7d35	1.081946
21	0x3f7b69b8	0.9820819
22	0x3f7e9fab	0.99462384
23	0x3f813742	1.0094988
24	0x3f6448ae	0.891734
25	0x3f834c39	1.0257636
26	0x3f867002	1.0502932
27	0x3f83fcf7	1.0311574
28	0x3f8999be	1.0750043
29	0x3f87951c	1.059238
30	0x3f864b33	1.0491699
31	0x3f879d48	1.0594873
32	0x3f71a280	0.9438858
33	0x3f846a51	1.0344945
34	0x3f841fcd	1.0322205
35	0x3f8d36eb	1.1032385
36	0x3f84c40f	1.0372332
37	0x3f8a9046	1.0825279
38	0x3f884dd5	1.0648752
39	0x3f86b70b	1.052461
40	0x3f706160	0.9389858
41	0x3f854be3	1.0413784
42	0x3f9426b5	1.1574312
43	0x3f82c2a7	1.0215653
44	0x3f8a368a	1.0797894
45	0x3f81aafb	1.0130304
46	0x3f807373	1.0035232
47	0x3f82dab1	1.0222989
48	0x3f77b2e7	0.9675736
49	0x3f8c530d	1.0962845
50	0x3f830b3a	1.0237801
51	0x3f81fbf2	1.0155013
52	0x3f815a1d	1.0105625
53	0x3f89bb3f	1.0760268
54	0x402ec1fb	2.7305896
55	0x3f827fcd	1.0195252
56	0x3f8442e4	1.0332913
57	0x3f852830	1.0402889
58	0x3f7f6611	0.99765116
59	0x3f891081	1.0708162
60	0x3f80f0ef	1.0073527
61	0x3f7b00c2	0.9804803
62	0x3f88c6cf	1.0685672
63	0x3f81ceac	1.0141196

bias f4 [64]
0	0x3f60d3e2	0.8782331
1	0xbee74921	-0.4517298
2	0xbe96f198	-0.29481196
3	0xbec59d4d	-0.38596573
4	0x3f43c230	0.7646818
5	0xbefc0ad0	-0.49227
6	0x3f55db1a	0.8353745
7	0x3e8cd424	0.275056
8	0xbf4943ad	-0.7861889
9	0x3f05338a	0.5203177
10	0x3f395c24	0.7240622
11	0xbf52bd77	-0.8232035
12	0xbf9a8c68	-1.2074099
13	0xbe79aa1a	-0.24381295
14	0x3e98b5c5	0.2982618
15	0xbd37142c	-0.04469697
16	0xbe834a6a	-0.2564271
17	0x3ecbe323	0.3982173
18	0xbe5f8a06	-0.21829996
19	0xbf88983d	-1.067146
20	0xbf604992	-0.8761226
21	0x3eade5f1	0.33964494
22	0x3eee7df3	0.46580467
23	0xbcdbb808	-0.026821151
24	0x3ec14945	0.37751213
25	0xbe95c35b	-0.29250607
26	0xbe251f30	-0.16125178
27	0x3f62d71c	0.8860948
28	0xbf95d5cb	-1.170587
29	0xbf474968	-0.77846384
30	0x3f3858ed	0.7201069
31	0xbeb8296b	-0.359691
32	0xbf48d661	-0.78452116
33	0x3f9de0bf	1.2334212
34	0xbf7f8a4c	-0.998204
35	0xbe0408f1	-0.12894036
36	0x3eb30863	0.34967336
37	0xbe636f4f	-0.2221043
38	0xbfa78d29	-1.3089954
39	0xbf39c8c4	-0.7257197
40	0xbf994744	-1.1974874
41	0x3e801715	0.2501761
42	0x3f432276	0.7622446
43	0x3f3b8a77	0.73258156
44	0xbd8e19a5	-0.06938485
45	0x3faaad40	1.3334122
46	0x3efe7ddd	0.497054
47	0x3e2476e3	0.16060977
48	0xbf1332ba	-0.5749928
49	0x3e56dab2	0.20981863
50	0x3f196a0a	0.5992743
51	0x3f0bf6d9	0.54673535
52	0xbc7f66b1	-0.015588448
53	0xbe59b0d7	-0.21258865
54	0xbf5d1326	-0.86357343
55	0xbf81d53d	-1.01432
56	0xbf859391	-1.0435659
57	0x3f0869de	0.5328654
58	0xbf064f80	-0.5246506
59	0x3f9894bc	1.192039
60	0xbf6d8b4b	-0.9279067
61	0x3f18ee0e	0.5973824
62	0x3f8596f8	1.0436697
63	0xbf89fa67	-1.0779542

weight f4 [64, 64]
0	0x3d7f177b	0.062278252
1	0x3e5e31ff	0.2169876
2	0x3e09e2d5	0.13465436
3	0x3e4966bf	0.19668101
4	0x3e09a9bf	0.13443659
5	0x3e0767cd	0.1322319
6	0x3d35bbed	0.044368673
7	0x3e294c67	0.16533051
8	0x3dc81c91	0.097710736
9	0x3de16981	0.110064514
10	0xbdea25f9	-0.11433024
11	0x3e09f257	0.13471352
12	0x3daf94fb	0.08573338
13	0x3e42dd26	0.19029674
14	0x3de29c7f	0.110650055
15	0x3e23cd6c	0.15996331
16	0x3db3b167	0.08774071
17	0xbd7c4ec3	-0.06159855
18	0x3e089b83	0.13340573
19	0x3dd21db5	0.102595724
20	0x3db54238	0.08850521
21	0x3e89a674	0.26884806
22	0x3e5940a5	0.21216066
23	0x3d9576d1	0.07298053
24	0x3d0525d4	0.03250678
25	0x3e118ce6	0.14213905
26	0x3d98cfa8	0.07461482
27	0x3e57774d	0.21041603
28	0x3e7f72a1	0.24946071
29	0xbeb6c76c	-0.35699022
30	0x3debfa34	0.11522332
31	0x3d97c1a3	0.0740998
32	0x3d8a421d	0.06750891
33	0xbde2c36e	-0.110724315
34	0x3e0d2645	0.1378413
35	0x3e8ea720	0.2786188
36	0x3db696ef	0.08915507
37	0x3ea7f50f	0.32804152
38	0x3dc86b81	0.0978613
39	0xbb3bc573	-0.0028651624
40	0xbd3468cd	-0.04404526
41	0x3de45da9	0.11150677
42	0xbedece08	-0.43516564
43	0x3d410245	0.047121305
44	0x3c82a49f	0.015947638
45	0x3e24c0fe	0.16089246
46	0x3ddf6655	0.1090819
47	0x3e18105c	0.1484999
48	0x3df42872	0.11921777
49	0x3d8a67ba	0.067580655
50	0x3e02b081	0.12762643
51	0xbd032763	-0.032019984
52	0xbd98747d	-0.074440934
53	0x3b518290	0.003196869
54	0xbe80b0e2	-0.2513495
55	0xbdc9c79c	-0.098525256
56	0xbd325eb6	-0.043547355
57	0x3e17be7a	0.14818755
58	0x3d48710d	0.04893594
59	0xbc9637da	-0.018337179
60	0x3d4e080f	0.050300654
61	0x3e46a9c4	0.19400698
62	0x3e6d4f3b	0.23174755
63	0xbdca900d	-0.09890757
64	0x3dd20319	0.10254497
65	0x3e36b47c	0.17842287
66	0x3de3293b	0.110918485
67	0xbdfe95d9	-0.12430925
68	0x3d860046	0.06543021
69	0xbdda9a94	-0.10674015
70	0x3c3c05d2	0.011475997
71	0xbd100c27	-0.03516784
72	0x3d969aca	0.073537424
73	0xbe3010cc	-0.17193907
74	0xbe142905	-0.14468773
75	0x3bf0bdcb	0.007346844
76	0xbdf230f9	-0.11825747
77	0xbdf66ccc	-0.1203247
78	0xbe6d379b	-0.23165743
79	0x3ca6819c	0.020325474
80	0x3d439354	0.047747925
81	0xbeae3a8e	-0.3402905
82	0xbe10f4cb	-0.14155881
83	0xbda478e2	-0.08030869
84	0x3db319a6	0.087451264
85	0xbdd564ac	-0.10419592
86	0xbdebba30	-0.11510122
87	0x3cc4b331	0.024011226
88	0x3e06a5d5	0.13149197
89	0xbe33d860	-0.1756301
90	0xbd866319	-0.0656187
91	0xbe63973d	-0.22225662
92	0x3d66e8bf	0.056374308
93	0x3e6c029c	0.2304787
94	0x3e021b2a	0.12705675
95	0x3c3d6863	0.011560532
96	0xbd822c24	-0.063560754
97	0xbd965861	-0.07341076
98	0x3e11492a	0.14188066
99	0x3c1c749c	0.009549286
100	0xbd9b2e1a	-0.075771526
101	0x3d4eec17	0.05051812
102	0x3d87b480	0.066262245
103	0x3d0a363d	0.033743132
104	0x3c05a747	0.008157558
105	0x3de765ec	0.11298737
106	0x3daf2261	0.08551479
107	0x3c7f9ddc	0.015601601
108	0x3d9b31e3	0.075778745
109	0xbde0fe1a	-0.10985966
110	0xbdbd21c9	-0.0923496
111	0xbda23b99	-0.079215236
112	0xbebaa256	-0.36451977
113	0xbe2dd4f7	-0.16975771
114	0x3eda419b	0.42628178
115	0xbdc4099a	-0.09572144
116	0x3d3424f5	0.043980557
117	0xbdfa9cca	-0.122369364
118	0x3f212ee7	0.6296219
119	0xbdddb7fa	-0.10826106
120	0xbe11cd7c	-0.14238542
121	0xbd275024	-0.040847912
122	0xbc6fa1a8	-0.014625944
123	0xbe922a6d	-0.28547993
124	0xbc80c11d	-0.015717084
125	0xbd9cc085	-0.07653908
126	0xbda6b215	-0.08139435
127	0xbe097ebe	-0.13427255
128	0xbddc44cb	-0.10755309
129	0x3c8acd7e	0.01694369
130	0xbc9339c9	-0.01797189
131	0xbd3e8f22	-0.04652322
132	0xbdad6f6b	-0.08468517
133	0xbc8ffdb3	-0.017577028
134	0xbdcd6d70	-0.10030639
135	0xbc232a2f	-0.009958788
136	0x3db2344c	0.08701381
137	0x3e26fc19	0.16307105
138	0xbebd3a92	-0.36958748
139	0xbe90b3e9	-0.2826226
140	0xbe0cf1ea	-0.13764158
141	0x3dd63728	0.10459739
142	0xbecc82ed	-0.39943638
143	0xbdab073c	-0.08350989
144	0xbe0abf22	-0.13549474
145	0xbe125c70	-0.14293075
146	0x3d42a0aa	0.047516502
147	0x3e06e3f8	0.131729
148	0x3dd1607e	0.102234825
149	0xbe173d30	-0.14769435
150	0xbe7ca829	-0.24673523
151	0xbeaba7e2	-0.33526522
152	0x3d102c41	0.035198454
153	0xbd8f9707	-0.07011228
154	0xbe768f43	-0.24078088
155	0x3dcb9dbd	0.099421956
156	0xbecd030c	-0.40041387
157	0x3e0304a2	0.12794736
158	0x3d96f222	0.07370402
159	0xbf8f0ffc	-1.1176753
160	0xbd84114c	-0.064486116
161	0x3deed9dc	0.11662647
162	0x3e38bf29	0.18041672
163	0x3dc0c411	0.09412397
164	0x3d278946	0.0409024
165	0xbdbdd2e6	-0.09268741
166	0xbddd1cce	-0.1079651
167	0xbf135e2b	-0.57565564
168	0x3d4378b7	0.047722545
169	0xbdbe4477	-0.092904024
170	0xbc71fe6e	-0.014770133
171	0x3dce432f	0.10071408
172	0xbe35b839	-0.17746057
173	0xbe834350	-0.25637293
174	0xbcf0943a	-0.029367555
175	0x3e03cf04	0.12871939
176	0x3d8409d0	0.06447184
177	0x3beaebe5	0.007169234
178	0xbd10defb	-0.0353689
179	0x3d6d0982	0.057870395
180	0xbe27ba81	-0.1637974
181	0x3df708fd	0.12062261
182	0xbc62bc1a	-0.013838792
183	0xbcd40a81	-0.025883915
184	0x3c3c04d7	0.011475763
185	0x3bb4cd28	0.0055176206
186	0xbe171dc7	-0.14757453
187	0x3de3deaa	0.11126454
188	0x3d856846	0.06514029
189	0xbda237e1	-0.07920814
190	0x3d024dd8	0.03181252
191	0x3dc18555	0.09449259
192	0x3cc5598c	0.02409055
193	0x3e07d290	0.13263917
194	0x3e1d041c	0.15333599
195	0xbe3e8c6d	-0.18608256
196	0x3d8558ed	0.06511102
197	0xbd87a51f	-0.06623291
198	0x3e992dc8	0.2991774
199	0x3d2b9902	0.041893966
200	0xbe2603b7	-0.16212355
201	0xbe4720ae	-0.1944606
202	0x3cd5d765	0.026103685
203	0xbe41b6c9	-0.18917383
204	0x3c505f98	0.012718104
205	0xbd2d596f	-0.04232162
206	0x3db9af60	0.09066653
207	0x3e086e7a	0.13323393
208	0x3db01510	0.08597767
209	0x3df876ad	0.121320106
210	0x3de5fc49	0.1122976
211	0xbd291a57	-0.041284885
212	0xbd65f109	-0.056138072
213	0xbe3b5144	-0.18292719
214	0xbbb2ff67	-0.0054625752
215	0xbc93c129	-0.018036442
216	0x3e867a39	0.26265123
217	0xbdaca759	-0.084303565
218	0xbe73df07	-0.23815547
219	0x3d56a245	0.052400846
220	0xbd8adf3b	-0.06780859
221	0x3e40b200	0.18817902
222	0xbcd53fc5	-0.026031384
223	0x3dcab305	0.098974265
224	0x3daffa33	0.085926436
225	0xbd04f219	-0.032457445
226	0xbd9ba474	-0.07599726
227	0x3ccc13f2	0.024911854
228	0xbca8bc8b	-0.020597717
229	0x3dcb05de	0.099132285
230	0xbec73470	-0.38907194
231	0xbe015d31	-0.12633206
232	0x3e2b83c9	0.16749491
233	0xbe3c3e9f	-0.18383263
234	0x3df82015	0.12115494
235	0xbe0b8ef9	-0.13628758
236	0xbe6ab02f	-0.22918771
237	0x3d963dbc	0.07335994
238	0x3d7ba0fc	0.061432824
239	0xbd871670	-0.065960765
240	0xbc8d53fd	-0.017251963
241	0xbdf460ba	-0.11932512
242	0xbe8221e3	-0.2541648
243	0x3d4f7a36	0.05065366
244	0xbd52f870	-0.05150646
245	0xbcd5d12b	-0.026100716
246	0x3f7094e2	0.9397718
247	0xbc320d84	-0.01086748
248	0xbe06e591	-0.1317351
249	0x3cc05779	0.02347921
250	0xbdb782c0	-0.089604855
251	0xbab0e968	-0.0013497295
252	0xbb608a43	-0.0034262098
253	0xbc09eb48	-0.008417912
254	0x3bfb7171	0.0076734354
255	0xbc697eaa	-0.0142513905

weight f4 [64]
0	0x3f057a57	0.521398
1	0x3fa7c9cc	1.3108459
2	0x3fbaeb6b	1.4603094
3	0x3f93e3bd	1.1553875
4	0x3f26a5ba	0.6509663
5	0x3fbb4ef8	1.4633474
6	0x3f592ebb	0.8483693
7	0x3f51e9cc	0.8199737
8	0x3f51e54b	0.819905
9	0x3f345b21	0.7045155
10	0x3f15d2b4	0.5852463
11	0x3f458c6e	0.77167404
12	0x3f1fa584	0.6236193
13	0x3f9f83d9	1.2462112
14	0x3f3b8840	0.73254776
15	0x3f65e351	0.8979998
16	0x3f05410d	0.52052385
17	0x3f7c61e2	0.9858686
18	0x3f6fd4fa	0.9368435
19	0x3f48af1a	0.78392184
20	0x3f2cfa48	0.675694
21	0x3f44809d	0.7675875
22	0x3f46e1c6	0.7768825
23	0x3f86eb1b	1.0540498
24	0x3f866154	1.0498452
25	0x3f597b82	0.8495408
26	0x3f770fae	0.965083
27	0x3f400b7d	0.7501753
28	0x3e209028	0.15679991
29	0x3f3baf4d	0.7331436
30	0x3f38cbcb	0.72185963
31	0x3fb7d7f7	1.4362782
32	0x3f2fbf24	0.6865103
33	0x3f06bdfb	0.5263364
34	0x3f1264dd	0.57185155
35	0x3f7b8541	0.98250204
36	0x3f38ae7f	0.7214126
37	0x3f2eeb79	0.6832805
38	0x3e055844	0.13021952
39	0x3f677b14	0.9042218
40	0x3f399965	0.72499686
41	0x3f810a46	1.008126
42	0x3f2e8e26	0.6818565
43	0x3f3679e1	0.7127972
44	0x4001a601	2.025757
45	0x3f0ef5bd	0.55843717
46	0x3f62492d	0.8839291
47	0x3f8778bd	1.0583721
48	0x3f2665a8	0.64998865
49	0x3f8c56ce	1.0963991
50	0x3f6518ef	0.8949117
51	0x3f5cbd45	0.862263
52	0x3f1342c3	0.57523745
53	0x3fe95293	1.8228325
54	0x3f5b8840	0.85754776
55	0x3f18ea0b	0.5973212
56	0x3f1a6128	0.603045
57	0x3f54bafd	0.8309782
58	0x3f9413a5	1.1568495
59	0x3f1497ad	0.5804394
60	0x3f39de8d	0.7260521
61	0x3f58d3b0	0.8469801
62	0x3f18ce96	0.59690225
63	0x3f30d4b0	0.69074535

bias f4 [64]
0	0x3ef87630	0.4852767
1	0x3e9839bf	0.29731557
2	0xbf023c45	-0.50873214
3	0x3df3b3e5	0.118995465
4	0x3ecf9816	0.4054572
5	0xbf303844	-0.68835855
6	0x3ed87d5d	0.42283145
7	0xbe608392	-0.2192519
8	0x3ee6d178	0.45081687
9	0xbe71c3e2	-0.2360988
10	0xbf23eafb	-0.64030427
11	0x3e96ab7d	0.2942771
12	0x3f164088	0.58692217
13	0xbe9a2a30	-0.30110312
14	0xbe8204d4	-0.2539431
15	0x3e112c6c	0.14177102
16	0x3e0d2cdf	0.13786648
17	0xbe87d5bb	-0.2653025
18	0xbe92a4bb	-0.28641304
19	0x3f202337	0.62553734
20	0x3ed71349	0.420069
21	0x3d8006b2	0.06251277
22	0x3e994597	0.29935905
23	0xbe6e6894	-0.23282081
24	0x3d823d03	0.06359293
25	0xbe9ad6da	-0.30242044
26	0xbe32b969	-0.17453541
27	0x3ed2b48b	0.41153368
28	0xbce54167	-0.027985288
29	0x3ef712cb	0.48256525
30	0x3f141b12	0.57853806
31	0xbe4e391d	-0.20138974
32	0x3ed43428	0.41446042
33	0x3f0396f0	0.5140219
34	0x3e888f9e	0.2667207
35	0x3c3e6876	0.011621585
36	0xbe6c2e25	-0.23064478
37	0xbe231307	-0.15925227
38	0xbd11f044	-0.035629526
39	0x3e8a8ece	0.27062076
40	0x3f397b89	0.72454125
41	0xbe196568	-0.1498009
42	0x3ecf2301	0.40456393
43	0x3e9bb5bb	0.30412087
44	0x3ead7967	0.33881685
45	0x3f4ef320	0.8083973
46	0x3e41d7da	0.18929997
47	0x3e9d0b93	0.30672893
48	0x3ec3f1d6	0.38270444
49	0x3e078fb5	0.13238414
50	0x3e8738c7	0.26410505
51	0x3d2cc9da	0.04218469
52	0xbe524755	-0.20535024
53	0xbeab7fa6	-0.33495826
54	0x3f057f7d	0.52147657
55	0x3ed45544	0.41471303
56	0x3eba3ca6	0.36374396
57	0x3f1066ff	0.5640716
58	0xbf169473	-0.58820266
59	0x3f0654dc	0.52473235
60	0x3ebfb6fc	0.37444293
61	0x3e544266	0.20728454
62	0x3f4cdc90	0.8002405
63	0x3f1fd007	0.624268
