2WL_link_pred/checkpoint/archive/20221214_004756/2WL_dict_100_20_7.pt (torch, 185977 bytes, 33 tensors)

weight f4 [96, 3]
0.44062355 0.025591204 0.12550934 0.24737906 -0.2803242 0.10502494 0.5410494 -0.20344041
0.38712975 -0.06387358 -0.0557999 -0.0057737334 -0.25738207 -0.4456751 -0.23618914 -0.21323328
-0.23587742 -0.5642583 -0.10404746 -0.086052805 -0.0675099 0.44368875 -0.02767874 0.6226122
-0.12541017 -0.06350093 0.19546378 0.18741544 -0.2418347 -0.16016538 -0.12184242 -0.27339128
-0.47268382 -0.39936498 0.21618953 0.6425758 -0.6196608 -0.67818916 -0.08292608 0.74495465
0.54593647 0.54479516 -0.4616297 -0.42846 -0.5550912 -0.117190294 0.37035885 0.18368231
0.5107078 -0.35540855 -0.1329214 -0.49064893 0.2865212 -0.11947537 0.39876288 0.31300533
-0.3741136 0.12549497 -0.10002417 -0.28275007 -0.13600276 -0.0023145324 0.12567915 0.18819943
0.13488334 0.28084567 0.6320265 0.7229564 0.6729309 0.3625774 -0.19557631 0.56758827
-0.34843576 -0.29317233 -0.13476585 0.19288549 0.6299516 0.36339578 -0.38236812 0.07502636
0.38322023 -0.16283956 -0.49306232 -0.29927638 0.4209791 -0.11549173 0.3062323 -0.2573633
-0.4548939 -0.4973035 0.28403002 -0.20000182 -0.0018455087 0.009524372 -0.058951173 -0.028818814
-0.00023863139 -0.3137014 0.5985869 -0.09976752 -0.16251183 0.026982475 -0.20248039 -0.21391608
-0.2525546 0.20346536 0.03128482 0.40975362 0.26786846 -0.11220569 0.19689912 0.097842775
-0.16326264 -0.5796514 -0.18305923 -0.029300174 -0.18278103 -0.22943012 0.095577225 0.043791782
0.2445622 0.21176207 -0.09128052 -0.48118824 0.17800131 0.052110594 -0.3057652 0.76824206
-0.35182655 0.36704212 0.1401139 0.5394627 -0.15009616 0.04958007 0.23461317 0.484158
-0.045869906 -0.47048903 0.07484678 -0.36006734 0.49433172 0.48459792 0.31779644 0.48370415
-0.08475061 0.053034272 0.010090354 0.38081947 0.508106 0.44979727 -0.19497141 0.10912895
-0.6297922 0.06308831 0.16141938 0.16728865 -0.55627155 -0.45699084 0.34864798 -0.3470758
-0.6838374 -0.34929538 0.33470726 0.10067397 0.5519607 -0.4505278 0.3758187 -0.2802747
0.3529128 0.13103701 0.29144728 0.60101104 -0.13489713 -0.055607356 -0.021416593 -0.3586958
-0.083529025 -0.0677996 0.38023213 0.5345925 -0.5988061 -0.37602082 0.15806726 -0.56235313
0.2749378 -0.4552822 -0.57431805 -0.36155152 0.1401837 0.459899 0.4273861 0.23449776
0.4359641 0.32515064 -0.037238915 -0.32256913 0.61226207 0.18766621 -0.22988965 0.26990825
-0.46304992 0.45319247 0.06302789 0.37328166 -0.05981916 0.17446348 0.11734629 -0.092041604
-0.015168476 -0.031783536 -0.08003248 -0.5429963 -0.52021265 -0.066880286 0.12303658 -0.28194156
-0.63120896 -0.50455916 -0.60536987 -0.32382274 0.6543506 0.6127435 0.26719323 -0.41952482
-0.004859386 0.19991831 0.26992565 -0.114042856 0.41144714 0.7123033 0.5348826 0.23990496
0.015563315 -0.5533884 -0.49773425 0.06368587 0.010420042 0.25347078 0.34953633 0.23325217
0.105796106 0.19353722 0.063155025 0.11427462 0.33191082 0.1244028 0.12110752 0.3334528
0.13527921 0.036584917 -0.08774952 -0.35284314 -0.40277216 -0.6826266 -0.57129693 0.29258403
00000000: 6999 e13e a5a4 d13c 8585 003e f050 7d3e
00000010: a786 8fbe 5117 d73d 3782 0a3f af52 50be
00000020: df35 c63e 27d0 82bd 708e 64bd 9631 bdbb
00000030: 95c7 83be 872f e4be 91db 71be d359 5abe
00000040: da89 71be 3b73 10bf d616 d5bd 743c b0bd
00000050: a142 8abd 2c2b e33e 86be e2bc 8363 1f3f
00000060: 866b 00be c70c 82bd a827 483e d5e9 3f3e
00000070: 84a3 77be 6502 24be 8588 f9bd f1f9 8bbe
00000080: 9d03 f2be 9179 ccbe ca60 5d3e d97f 243f
00000090: 17a2 1ebf ce9d 2dbf 26d5 a9bd 59b5 3e3f
000000a0: 7ec2 0b3f b277 0b3f ba5a ecbe 1c5f dbbe
000000b0: 751a 0ebf 7701 f0bd ad9f bd3e 3717 3c3e
000000c0: bfbd 023f 1cf8 b5be 8c1c 08be 5636 fbbe
000000d0: e8b2 923e 81af f4bd a62a cc3e 3c42 a03e
000000e0: d18b bfbe c181 003e 79d9 ccbd 9ec4 90be
000000f0: 4f44 0bbe 69af 17bb 09b2 003e 5ab7 403e
00000100: dc1e 0a3e 01cb 8f3e 7dcc 213f ac13 393f
00000110: 3345 2c3f bfa3 b93e 2845 48be 774d 113f
00000120: 2c66 b2be af1a 96be 0f00 0abe c683 453e
00000130: 8244 213f 030f ba3e c1c5 c3be 6ca7 993d
00000140: 7135 c43e 6abf 26be aa72 fcbe c13a 99be
00000150: 938a d73e ee86 ecbd 7bca 9c3e 1fc5 83be
00000160: dae7 e8be 909e febe 626c 913e 47cd 4cbe
00000170: ffe4 f1ba 1d0c 1c3c c976 71bd 6f15 ecbc
00000180: 2039 7ab9 789d a0be fe3c 193f ea52 ccbd
00000190: 8069 26be 5a0a dd3c 0557 4fbe d10c 5bbe
000001a0: d64e 81be 3959 503e 8324 003d 3acb d13e
000001b0: 0e26 893e 19cc e5bd ec9f 493e cb61 c83d
000001c0: 522e 27be 0964 14bf e173 3bbe eb06 f0bc
000001d0: f32a 3bbe bbef 6abe febd c33d 035f 333d
000001e0: 836e 7a3e 28d8 583e 48f1 babd 4e5e f6be
000001f0: fa45 363e eb71 553d 428d 9cbe 83ab 443f
00000200: 9c22 b4be f2ec bb3e 057a 0f3e 3a1a 0a3f
00000210: cfb2 19be 7914 4b3d 6f3e 703e 8fe3 f73e
00000220: 15e2 3bbd f0e3 f0be 4549 993d bf5a b8be
00000230: 0c19 fd3e 381d f83e 37b6 a23e 12a8 f73e
00000240: ba91 adbd 773a 593d 0352 253c c5fa c23e
00000250: 3c13 023f d44b e63e 96a6 47be 007f df3d
00000260: 103a 21bf 7234 813d 1f4b 253e b74d 2b3e
00000270: d067 0ebf b4fa e9be fd81 b23e ebb3 b1be
00000280: f80f 2fbf d8d6 b2be c05e ab3e 282e ce3d
00000290: 4c4d 0d3f 94ab e6be 4f6b c03e 2a80 8fbe
000002a0: fdb0 b43e 912e 063e 9438 953e dcdb 193f
000002b0: 7922 0abe 8ac4 63bd da71 afbc faa6 b7be
000002c0: 4411 abbd 84da 8abd c9ad c23e 0edb 083f
000002d0: 5b4b 19bf cd85 c0be 62dc 213e 60f6 0fbf
000002e0: a6c4 8c3e c01a e9be 8206 13bf 481d b9be
000002f0: 518c 0f3e e277 eb3e 5ad2 da3e 2e20 703e
00000300: b036 df3e 257a a63e d587 18bd c827 a5be
00000310: 35bd 1c3f 922b 403e 3168 6bbe 6a31 8a3e
00000320: e114 edbe d808 e83e c414 813d c61e bf3e
00000330: ef04 75bd 8ea6 323e 4053 f03d 4f80 bcbd
00000340: 3385 78bc 742f 02bd 12e8 a3bd ce01 0bbf
00000350: a82c 05bf 88f8 88bd 9afa fb3d a55a 90be
00000360: e996 21bf ca2a 01bf 85f9 1abf 18cc a5be
00000370: 8583 273f c2dc 1c3f 8dcd 883e f5cb d6be
00000380: 7c3b 9fbb 63b7 4c3e b233 8a3e 4d8f e9bd
00000390: 33a9 d23e 8259 363f 11ee 083f a5a9 753e
000003a0: 46fd 7e3c ddaa 0dbf 06d7 febe bd6d 823d
000003b0: d3b8 2a3c ecc6 813e 6df6 b23e a8d9 6e3e
000003c0: a1ab d83d 9f2e 463e 6c57 813d d008 ea3d
000003d0: 37f0 a93e e5c6 fe3d 3807 f83d 53ba aa3e
000003e0: a286 0a3e 11da 153d 05b6 b3bd dba7 b4be
000003f0: 2738 cebe 9ec0 2ebf 8440 12bf 93cd 953e

bias f4 [96]
0.5665384 -0.3132614 0.08596032 -0.06248625 0.27090883 -0.1762441 -0.09715294 0.29567465
-0.5810018 -0.029043391 -0.27971196 0.2951294 -0.39435825 0.52499545 -0.25384086 0.6020033
0.3813671 -0.36396787 0.42841184 -0.65533173 -0.17333092 0.40041897 0.18727851 0.18618585
-0.19348843 -0.16103762 -0.50709754 -0.15949397 -0.14777984 -0.06679516 0.3059247 -0.5530238
0.3669144 -0.1341942 -0.25075132 0.4971977 0.5443506 -0.20953467 -0.11003616 0.031376243
-0.17331535 -0.3382223 0.42172846 0.47978014 -0.3825361 0.37245458 -0.009253775 0.476718
-0.44576162 0.2045952 -0.6845758 -0.004112624 -0.20136912 -0.4076133 0.292793 -0.36933503
0.5414332 0.14015351 -0.26363432 0.25937462 -0.29375172 0.061009232 -0.4131581 0.5755673
0.23099542 -0.2379069 0.4509947 0.2521504 -0.16868378 -0.16311187 -0.25445196 -0.002498114
-0.4318966 0.32606456 0.17699528 0.41476828 0.4342661 -0.18160489 -0.6655736 0.07237666
0.15659255 0.16133395 0.14422084 0.042172022 -0.6103034 -0.40825704 0.632205 -0.055109315
-0.2524163 -0.37511477 -0.52652675 -0.6393065 -0.12306013 0.4795771 0.506173 -0.365698
00000000: a908 113f cc63 a0be f70b b03d 95f1 7fbd
00000010: 90b4 8a3e 5579 34be 1ff8 c6bd ab62 973e
00000020: 89bc 14bf 68ec edbc 6836 8fbe 331b 973e
00000030: 53e9 c9be 1a66 063f 6ef7 81be e31c 1a3f
00000040: 8c42 c33e ff59 babe cc58 db3e d2c3 27bf
00000050: a97d 31be b703 cd3e f0c5 3f3e 81a7 3e3e
00000060: d521 46be 0ce7 24be 25d1 01bf 6352 23be
00000070: 9953 17be e7cb 88bd 2aa2 9c3e f892 0dbf
00000080: 34dc bb3e 346a 09be 7a62 80be b290 fe3e
00000090: 905a 0b3f 4290 56be a35a e1bd 6084 003d
000000a0: 9479 31be 792b adbe cbec d73e bea5 f53e
000000b0: c6db c3be 5eb2 be3e 259d 17bc 6214 f43e
000000c0: de3a e4be 6781 513e 5c40 2fbf 31c3 86bb
000000d0: b533 4ebe b1b2 d0be f7e8 953e 7b19 bdbe
000000e0: 5e9b 0a3f 6784 0f3e 14fb 86be c0cc 843e
000000f0: a066 96be d1e4 793d 7589 d3be 6158 133f
00000100: 108a 6c3e de9d 73be c7e8 e63e db19 813e
00000110: 71bb 2cbe cc06 27be 8747 82be 66b7 23bb
00000120: 8d21 ddbe eff1 a63e 403e 353e 825c d43e
00000130: 2058 de3e a2f6 39be 0863 2abf 373a 943d
00000140: cc59 203e ba34 253e a1ae 133e 92bc 2c3d
00000150: d83c 1cbf 1107 d1be 30d8 213f 4eba 61bd
00000160: b63c 81be 0b0f c0be 75ca 06bf 97a9 23bf
00000170: f306 fcbd 218b f53e 8e94 013f c53c bbbe

bias f4 [96]
0.61375356 -0.5428028 -0.5802231 0.46573472 0.44254637 -0.59685254 0.44685334 -0.5291422
0.3332711 -0.6417773 -0.38503888 0.5611492 -0.49995634 0.49292687 -0.54601485 -0.67030567
-0.46560153 -0.64404595 0.27280062 -0.61556 0.7249376 0.69710386 -0.5104956 0.49695155
-0.5247099 0.63289815 0.5175343 -0.45345303 0.458609 0.54946816 0.33117616 -0.6736147
-0.7130011 -0.44362217 0.6748129 0.67067885 -0.36543384 -0.39114088 -0.29107308 0.5315861
-0.5318754 0.65559024 -0.55655366 -0.1953183 0.48807234 0.43512645 0.44710958 -0.36279845
-0.58940744 0.49402857 -0.52178925 -0.4412497 -0.36732292 -0.48021412 -0.40704414 0.6108774
-0.65414685 -0.42644456 0.5806692 0.3776111 0.3929937 0.5810813 0.48092097 -0.37404135
0.69251823 0.42123246 0.43748504 -0.3657595 0.41908032 -0.37206173 -0.41951475 0.5930029
0.51762444 0.5568002 0.4658956 -0.57354623 -0.53786653 -0.5613163 0.48672557 0.5795695
0.12762551 0.43226933 -0.41954282 0.67713994 0.43997997 -0.58020145 0.49729732 -0.66570824
0.5237646 0.5938573 -0.43812805 0.50625515 -0.4889422 0.58435726 0.458296 -0.5821661
00000000: f41e 1d3f 20f5 0abf 8089 14bf c874 ee3e
00000010: 7095 e23e 54cb 18bf f6c9 e43e dd75 07bf
00000020: 82a2 aa3e 844b 24bf d123 c5be 79a7 0f3f
00000030: 47fa ffbe e960 fc3e a1c7 0bbf 2799 2bbf
00000040: 5363 eebe 32e0 24bf 86ac 8b3e 5795 1dbf
00000050: 8395 393f 6675 323f d7af 02bf 6f70 fe3e
00000060: 6353 06bf 9d05 223f 217d 043f ff2a e8be
00000070: cdce ea3e f2a9 0c3f ec8f a93e 0372 2cbf
00000080: 3d87 36bf 7222 e3be 8ac0 2c3f 9cb1 2b3f
00000090: 251a bbbe 9e43 c8be 8807 95be 0716 083f
000000a0: fc28 08bf c3d4 273f 4d7a 0ebf 8501 48be
000000b0: 9ee4 f93e e5c8 de3e 8ceb e43e b8c0 b9be
000000c0: 68e3 16bf 50f1 fc3e fb93 05bf 7beb e1be
000000d0: c011 bcbe a0de f5be 1768 d0be 7662 1c3f
000000e0: 2b76 27bf f156 dabe bda6 143f 3e56 c13e
000000f0: 7836 c93e bec1 143f 463b f63e 5982 bfbe
00000100: e048 313f c8ab d73e 0afe df3e d444 bbbe
00000110: b291 d63e e07e bebe a3ca d6be 0acf 173f
00000120: 0983 043f 758a 0e3f de89 ee3e edd3 12bf
00000130: 9fb1 09bf 6db2 0fbf 1834 f93e ab5e 143f
00000140: 43b0 023e 6852 dd3e 51ce d6be 0b59 2d3f
00000150: 0e45 e13e 1588 14bf c19d fe3e db6b 2abf
00000160: 7015 063f 0807 183f 5252 e0be f099 013f
00000170: a256 fabe 7098 153f c6a5 ea3e d608 15bf

weight f4 [96, 96]
-0.027659144 -0.10785743 0.21797729 0.075339995 0.07522928 0.008488693 -0.017201336 -0.042158965
-0.015941774 -0.15636641 -0.24810657 0.025244024 -0.24393207 0.25178546 -0.010658534 -0.23288713
0.034024823 -0.12834296 0.08206219 -0.06343412 0.10888269 0.13339435 0.24292189 -0.016704299
-0.21164213 0.1423853 -0.20606229 -0.17200929 0.0065963827 -0.060341153 -0.28223893 -0.16641304
-0.112718105 -0.11841497 -0.08719501 -0.23913713 0.41308048 -0.15302831 0.055847414 0.16468951
-0.1589365 0.25889775 -0.10156695 -0.006744477 -0.080366805 -0.10239077 0.14158197 -0.12250444
-0.13266172 0.0009239601 -0.027404388 0.021685647 -0.17271255 -0.35711855 0.39828616 -0.19137312
0.28354567 0.18765602 0.045045827 -0.08235405 -0.14636195 -0.22063692 -0.11453202 -0.11155751
0.22296984 -0.121934086 0.20182021 0.22271574 -0.13363522 0.11528613 0.060464583 -0.023396188
-0.021390548 -0.01351886 0.14817582 -0.040182207 0.34431452 0.1414545 -0.14562552 0.17127346
-0.08120331 0.032615293 0.18014118 -0.15550828 -0.13422473 -0.10390167 0.23841266 0.14438036
0.36098942 -0.295549 -0.13297041 0.017003454 -0.11643523 0.10574895 0.19829406 0.0021800206
0.35641384 0.042590585 -0.08226963 -0.21308644 -0.06736486 0.0444338 -0.15507212 -0.17145766
-0.27163485 0.16661476 0.13209473 0.017361697 0.19439279 -0.3060148 0.09225597 -0.12856922
-0.12892115 -0.048935995 0.12424409 0.16746752 -0.19184873 -0.1903146 0.064860195 0.17101559
0.028773427 -0.10358332 0.1306675 0.16113806 0.07069881 0.2725469 -0.043825727 -0.04479098
-0.089356124 -0.14587219 -0.060463592 -0.043167457 -0.37316948 -0.20081343 0.03462282 -0.07228299
-0.1348053 0.37361687 0.05730278 -0.10587648 0.13789737 0.07956861 -0.22474165 -0.32135656
0.13363448 -0.20356452 -0.07451947 -0.10463428 -0.051517267 0.012370835 -0.04564037 0.1227296
0.30136314 0.079345584 -0.020628525 -0.17764856 0.03460402 -0.15828338 0.11074501 0.044474676
-8.909613e-05 -0.034229822 0.13338324 0.036302697 0.12895799 -0.10863088 0.09304079 -0.07772629
0.16687712 0.21298943 -0.08857489 0.10355824 -0.43487826 -0.10035975 0.061863177 -0.15173224
0.05098538 -0.19726649 0.03308334 -0.07291793 0.032499645 0.042599235 -0.09449508 -0.15817064
-0.100886956 0.18030095 0.18568672 0.34891814 0.07612754 -0.19741087 0.19855759 -0.19647042
-0.27210027 -0.032727752 -0.007540529 0.24840441 -0.17934203 0.14679213 0.07933692 0.098061286
-0.24169844 -0.02730772 0.13284738 0.086856745 0.33817983 0.057628263 0.061867334 0.13910608
0.12630932 -0.07764614 0.020184774 -0.32765794 0.037798814 -0.09789822 -0.14002922 -0.04048238
0.08237991 -0.028725421 0.053752787 0.04120478 -0.08122855 -0.0034765955 -0.018478328 0.50992405
-0.11461192 0.007971172 -0.03147599 -0.23185545 -0.27551723 0.081579454 -0.13514449 0.029558258
0.13930228 -0.0197582 -0.0829245 -0.26516145 0.25512075 -0.2368273 0.13946955 -0.22383854
0.09421077 -0.00043597512 0.26683795 0.114727706 0.14135951 0.18176621 -0.18663822 0.08367999
-0.19100492 -0.18131965 0.041566625 -0.059730202 0.17655395 -0.030421214 0.08458693 -0.19892979
00000000: 6e95 e2bc 5be4 dcbd 7035 5f3e db4b 9a3d
00000010: cf11 9a3d 2914 0b3c d1e9 8cbc e1ae 2cbd
00000020: 5398 82bc 841e 20be a60f 7ebe 8ecc ce3c
00000030: 54c9 79be 06ea 803e 22a1 2ebc f779 6ebe
00000040: 9d5d 0b3d 566c 03be 3910 a83d bfe9 81bd
00000050: e3fd de3d 8798 083e 84c0 783e 74d7 88bc
00000060: b7b8 58be 74cd 113e fe01 53be 3423 30be
00000070: 7826 d83b 4928 77bd 9f81 90be 2e68 2abe
00000080: c0d8 e6bd 8c83 f2bd 4c93 b2bd 5de0 74be
00000090: 497f d33e 74b3 1cbe 42c0 643d 5ea4 283e
000000a0: 40c0 22be 3f8e 843e 5502 d0bd c600 ddbb
000000b0: 5a97 a4bd 41b2 d1bd ddfa 103e 9ce3 fabd
000000c0: 79d8 07be ea35 723a 2b7f e0bc 19a6 b13c
000000d0: 8fdb 30be 3ed8 b6be 2aec cb3e 51f7 43be
000000e0: e62c 913e e628 403e f981 383d 3da9 a8bd
000000f0: e8df 15be a5ee 61be c48f eabd 4478 e4bd
00000100: 3552 643e 94b8 f9bd f5a9 4e3e 980f 643e
00000110: acd7 08be 221b ec3d b6a9 773d 5da9 bfbc
00000120: 3b3b afbc 357e 5dbc 67bb 173e 1996 24bd
00000130: fe49 b03e 73d9 103e db1e 15be 4f62 2f3e
00000140: ec4d a6bd 9d97 053d ee76 383e 903d 1fbe
00000150: 3572 09be 66ca d4bd 7322 743e 72d8 133e
00000160: 9bd3 b83e 3352 97be 6529 08be d44a 8b3c
00000170: 9875 eebd e892 d83d 990d 4b3e adde 0e3b
00000180: e07b b63e 7773 2e3d fb7c a8bd 5533 5abe
00000190: 96f6 89bd 3700 363d 3acb 1ebe 9992 2fbe
000001a0: b913 8bbe 0f9d 2a3e d743 073e 1e3a 8e3c
000001b0: e70e 473e f9ad 9cbe b3f0 bc3d a6a7 03be
000001c0: e803 04be 1c71 48bd af73 fe3d 9b7c 2b3e
000001d0: fe73 44be d5e1 42be 6cd5 843d b61e 2f3e
000001e0: 40b6 eb3c 7e23 d4bd b3cd 053e 6001 253e
000001f0: 8aca 903d 448b 8b3e 9b82 33bd bf76 37bd
00000200: 5800 b7bd 855f 15be aca8 77bd 5cd0 30bd
00000210: 1210 bfbe 09a2 4dbe a8d0 0d3d 1b09 94bd
00000220: 670a 0abe b64a bf3e 52b6 6a3d c5d5 d8bd
00000230: f834 0d3e def4 a23d ad22 66be d988 a4be
00000240: 7ad7 083e 3873 50be aa9d 98bd 7f4a d6bd
00000250: c503 53bd 0baf 4a3c 66f1 3abd a859 fb3d
00000260: 454c 9a3e f07f a23d 27fd a8bc 81e9 35be
00000270: f2bc 0d3d 0a15 22be 48ce e23d 142b 363d
00000280: 1fd9 bab8 9234 0cbd 9e95 083e 23b2 143d
00000290: 900d 043e de79 debd 2b8c be3d f62e 9fbd
000002a0: d6e1 2a3e e719 5a3e c066 b5bd 5816 d43d
000002b0: 5da8 debe 6a89 cdbd 3e64 7d3d b25f 1bbe
000002c0: 0cd6 503d 3a00 4abe 6582 073d ff55 95bd
000002d0: 591e 053d 897c 2e3d a386 c1bd 7cf7 21be
000002e0: d29d cebd d0a0 383e a924 3e3e 66a5 b23e
000002f0: c1e8 9b3d 1326 4abe ae52 4b3e 8b2f 49be
00000300: ba50 8bbe 890d 06bd 8b16 f7bb ba5d 7e3e
00000310: 70a5 37be ad50 163e 657b a23d 5bd4 c83d
00000320: cc7f 77be 71b4 dfbc 2509 083e f3e1 b13d
00000330: e825 ad3e 9d0b 6c3d 9a68 7d3d d371 0e3e
00000340: 3b57 013e f004 9fbd 8a5a a53c c8c2 a7be
00000350: eed2 1a3d dd7e c8bd d263 0fbe dad0 25bd
00000360: ccb6 a83d 9351 ebbc e22b 5c3d 58c6 283d
00000370: 275b a6bd 98d7 63bb dd5f 97bc 628a 023f
00000380: a8b9 eabd 8599 023c f8ec 00bd 846b 6dbe
00000390: 9810 8dbe 2113 a73d 5163 0abe 2924 f23c
000003a0: 42a5 0e3e f3db a1bc 52d4 a9bd 3ec3 87be
000003b0: 309f 823e db82 72be 1bd1 0e3e ee35 65be
000003c0: 94f1 c03d 9793 e4b9 fc9e 883e 5cf6 ea3d
000003d0: 8cc0 103e ec20 3a3e 171e 3fbe 6a60 ab3d
000003e0: cb96 43be dcab 39be c441 2a3d a8a7 74bd
000003f0: 8fca 343e e935 f9bc ea3b ad3d 40b4 4bbe

weight f4 [96]
1.0231718 0.9565671 0.9347169 0.8088926 0.9283886 1.0928991 1.0363935 0.87676847
1.1642052 0.97531945 0.7522185 1.0545582 0.88863504 0.7881539 1.0500726 1.1372956
0.84369576 1.008496 0.7945906 0.78828835 0.9686672 1.0039556 0.8997712 0.7558229
0.85256493 1.0541534 0.8264328 0.89959645 1.0416446 0.8225524 0.86923826 0.94381917
0.8555859 1.0394766 0.7967877 1.0425543 0.9651427 0.98802775 0.95541096 0.9209292
1.0363139 1.0738739 0.97379315 0.71423274 1.0683858 0.632411 0.97224355 0.9103562
0.8721678 1.0998653 0.82607394 0.9496705 0.9749546 0.92386824 0.9861602 0.9601284
0.9887044 1.0101944 1.0183516 1.0087465 1.0778333 0.8824731 0.84888375 0.9564434
0.92012984 1.0062003 0.91079915 0.8903912 0.9964993 1.0055785 0.99825776 0.9192423
0.9179812 1.1216189 0.88087714 0.9911554 0.9846536 0.9212582 1.0236458 1.0116456
0.6398879 1.0387377 0.9719949 1.0211115 0.861251 0.8525046 0.97696126 0.7883478
0.730106 0.8274326 0.78960824 1.0263499 0.9988236 0.8322003 1.0408821 1.0335531
00000000: 4bf7 823f 95e1 743f 9b49 6f3f 9613 4f3f
00000010: e0aa 6d3f 1ee4 8b3f 8ba8 843f e673 603f
00000020: ad04 953f 89ae 793f 6491 403f c3fb 863f
00000030: 967d 633f 74c4 493f c768 863f e792 913f
00000040: 72fc 573f 6616 813f 4a6a 4b3f 44cd 493f
00000050: 93fa 773f 9e81 803f 6857 663f 9c7d 413f
00000060: b241 5a3f 80ee 863f 1a91 533f f44b 663f
00000070: 9c54 853f cb92 523f 6686 5e3f 229e 713f
00000080: ad07 5b3f 920d 853f 47fa 4b3f 6b72 853f
00000090: 9813 773f 63ef 7c3f d095 743f 04c2 6b3f
000000a0: efa5 843f b374 893f 824a 793f f5d7 363f
000000b0: dec0 883f b0e5 213f f4e4 783f 1b0d 693f
000000c0: 6446 5f3f 63c8 8c3f 9579 533f 9b1d 733f
000000d0: a096 793f a182 6c3f ff74 7c3f faca 753f
000000e0: bb1b 7d3f 0d4e 813f 5859 823f 9b1e 813f
000000f0: 71f6 893f c2e9 613f 7250 593f 7ad9 743f
00000100: a18d 6b3f 2ccb 803f 222a 693f adf0 633f
00000110: 941a 7f3f ccb6 803f d28d 7f3f 7753 6b3f
00000120: d100 6b3f 3591 8f3f 2a81 613f 5cbc 7d3f
00000130: 4212 7c3f 94d7 6b3f d306 833f 9a7d 813f
00000140: b2cf 233f 5bf5 843f a8d4 783f c8b3 823f
00000150: f27a 5c3f be3d 5a3f 221a 7a3f 29d1 493f
00000160: 3ae8 3a3f 9fd2 533f c423 4a3f 6f5f 833f
00000170: e7b2 7f3f 140b 553f a03b 853f 784b 843f

bias f4 [96]
-0.8785144 0.7841761 0.8225262 0.58511114 -0.55184287 -0.87545687 0.74234253 0.62214303
0.7247452 -0.82757676 0.43380368 0.6100082 0.55342656 0.59444755 -0.7309321 0.6748218
0.6062695 0.68917114 -0.37508884 -0.5664755 0.6912222 0.68601155 -0.58810663 0.40194777
-0.6799681 -0.78934675 0.7317084 -0.614391 0.8002059 0.67006844 0.54203004 0.8143862
-0.7226328 0.69876987 -0.75401604 -0.72588235 0.78368986 0.47743267 -0.40224066 0.69194835
0.71921515 -0.96290904 -0.57324755 0.17684913 -0.6688561 0.3818599 -0.6218614 -0.6795684
-0.77619994 -0.88094974 -0.57383025 -0.7309746 -0.61235857 0.6537517 0.64736253 0.7093859
-0.76787263 -0.6593834 -0.6318458 -0.5141658 0.5730373 -0.577121 0.6887202 -0.6055528
-0.6730782 0.64960474 -0.66947776 0.49698806 -0.68367654 -0.7041695 0.66242546 -0.5908355
0.70284665 -0.68880355 -0.63738036 0.7462671 -0.5191047 -0.57823694 -0.8177654 -0.7308042
-0.28062963 0.5995929 -0.9696302 0.59105563 -0.46808088 -0.59860927 0.46366897 -0.56970936
-0.47797346 -0.5652212 -0.55573344 -0.6051884 0.88430846 0.7746907 -0.7448854 0.7099315
00000000: 52e6 60bf c4bf 483f 1491 523f d8c9 153f
00000010: 9345 0dbf f11d 60bf 290a 3e3f c444 1f3f
00000020: e788 393f 12dc 53bf 841b de3e 7f29 1c3f
00000030: 5dad 0d3f b72d 183f 5e1e 3bbf 1fc1 2c3f
00000040: 7a34 1b3f 856d 303f a50b c0be 8a04 11bf
00000050: f0f3 303f 749e 2f3f 288e 16bf 19cc cd3e
00000060: 6412 2ebf a112 4abf 3e51 3b3f bb48 1dbf
00000070: 4bda 4c3f 9b89 2b3f 7bc2 0a3f 9d7b 503f
00000080: 77fe 38bf 95e2 323f 3207 41bf 6dd3 39bf
00000090: e69f 483f 0e72 f43e 7df2 cdbe 8723 313f
000000a0: 7c1e 383f 3581 76bf 5ac0 12bf f017 353e
000000b0: 273a 2bbf 2483 c33e 4f32 1fbf 32f8 2dbf
000000c0: 0ab5 46bf ec85 61bf 8ae6 12bf 2721 3bbf
000000d0: 88c3 1cbf 455c 273f 8db9 253f 509a 353f
000000e0: 4d93 44bf 5acd 28bf a5c0 21bf 5fa0 03bf
000000f0: 93b2 123f 34be 13bf f84f 303f 8205 1bbf
00000100: da4e 2cbf 7f4c 263f e562 2bbf 3875 fe3e
00000110: 6d05 2fbf 7444 34bf b794 293f ff40 17bf
00000120: c2ed 333f 6e55 30bf 5c2b 23bf 5c0b 3f3f
00000130: 0ce4 04bf 5607 14bf 1359 51bf fc15 3bbf
00000140: b0ae 8fbe ec7e 193f af39 78bf 6c4f 173f
00000150: 4ca8 efbe 753e 19bf 0566 ed3e 79d8 11bf
00000160: f0b8 f4be 56b2 10bf 8c44 0ebf a1ed 1abf
00000170: 0a62 623f 2152 463f cfb0 3ebf 12be 353f

mean_scale f4 [96]
1.7110794 1.5435672 1.5547402 0.52306116 1.4643286 0.48693645 0.45007354 1.4435475
0.55950075 0.4144677 1.3959712 0.47890398 1.4124733 0.39845717 0.4974471 1.5030957
1.455733 1.6926135 1.3982434 0.34588587 0.30513862 0.3845718 0.48972857 0.5049669
0.37816614 1.5561984 0.3206928 0.4094851 0.59102786 0.42802367 0.5548827 1.5736314
0.36804557 1.4055897 1.593271 1.604477 1.441784 1.3785026 0.6945233 0.4552781
1.4085487 1.5702596 0.3757052 1.3057697 1.4671862 0.5606192 1.4575135 0.44198552
0.44924518 1.491323 0.41813618 0.52116436 0.623981 1.4300605 1.6097844 0.4643667
0.41802132 0.5732703 1.5018768 1.5103004 0.57448363 1.5768458 0.5313095 0.59628356
1.5988061 0.5680635 1.4676466 1.3933438 1.5397693 0.57874 1.4474947 1.6127362
0.4639824 1.5289271 1.5837831 1.5735292 0.52335227 0.478251 1.4534419 1.5198735
1.3123085 0.6391476 0.60947853 0.44048256 1.3465465 0.41102377 0.46508622 0.4032079
1.4818008 1.5984266 0.558833 1.4649836 1.5028094 0.42008933 1.4200019 1.4666097
00000000: a604 db3f 9c93 c53f ba01 c73f 56e7 053f
00000010: 1f6f bb3f bc4f f93e 0a70 e63e 2ac6 b83f
00000020: 713b 0f3f 1c35 d43e 2faf b23f e732 f53e
00000030: edcb b43f 9402 cc3e 63b1 fe3e 7165 c03f
00000040: 7555 ba3f 8fa7 d83f a4f9 b23f f417 b13e
00000050: 213b 9c3e 98e6 c43e b4bd fa3e 8345 013f
00000060: fe9e c13e 8231 c73f d931 a43e 08a8 d13e
00000070: 9a4d 173f eb25 db3e cb0c 0e3f c16c c93f
00000080: 7870 bc3e 5dea b33f 4ef0 cb3f 815f cd3f
00000090: 618c b83f c672 b03f 47cc 313f 361a e93e
000000a0: 534b b43f 44fe c83f 6f5c c03e 7623 a73f
000000b0: c2cc bb3f bd84 0f3f cd8f ba3f ed4b e23e
000000c0: 7703 e63e ace3 be3f f215 d63e 076b 053f
000000d0: 38bd 1f3f 390c b73f 6a0d ce3f 79c1 ed3e
000000e0: e406 d63e d8c1 123f 803d c03f 8651 c13f
000000f0: 5c11 133f 15d6 c93f e603 083f 0aa6 183f
00000100: aea5 cc3f 9c6c 113f d8db bb3f 1759 b23f
00000110: 2917 c53f 4e28 143f 8247 b93f 246e ce3f
00000120: 1a8f ed3e e2b3 c33f 68b9 ca3f 6869 c93f
00000130: 6afa 053f 51dd f43e 620a ba3f 378b c23f
00000140: baf9 a73f 2d9f 233f c906 1c3f ee86 e13e
00000150: a35b ac3f b571 d23e c81f ee3e 4471 ce3e
00000160: a6ab bd3f 3e99 cc3f ae0f 0f3f 9584 bb3f
00000170: 0f5c c03f f315 d73e 9fc2 b53f deb9 bb3f

bias f4 [64]
-0.047008608 -0.021657154 -0.16314617 0.021436818 0.18905462 -0.08384107 0.3518646 0.0060643833
0.123116046 0.05876664 0.13440993 -0.095919535 0.062563054 0.095912665 0.013130395 -0.0054437886
0.05526861 0.13198455 -0.2806215 0.060151536 -0.08559239 0.36399677 0.204179 -0.14662232
0.016693981 -0.039120853 -0.0368224 0.13857196 -0.009566271 -0.087971464 -0.028904652 0.076161586
-0.026835164 -0.10294564 0.049808003 -0.046615817 0.10032629 0.032911472 -0.17173141 -0.1689324
0.06501031 0.010840129 -0.06068263 -0.0835529 0.059028096 0.0635301 -0.22907807 0.0850184
0.0058362405 0.08356575 0.0773081 -0.034881886 0.17506091 0.054491367 2.000143 0.12629686
0.06765319 0.2209078 -0.07513813 0.13564257 -0.058193456 -0.055194646 -0.1005159 0.41228732
00000000: 198c 40bd 586a b1bc ca0f 27be 449c af3c
00000010: 8997 413e deb4 abbd 9927 b43e bcb7 c63b
00000020: 4424 fc3d 4ab5 703d c2a2 093e 7671 c4bd
00000030: 0f21 803d dc6d c43d de20 573c cf61 b2bb
00000040: 5761 623d f526 073e 9fad 8fbe 7561 763d
00000050: 104b afbd c95d ba3e 4d14 513e 2924 16be
00000060: d1c1 883c 303d 20bd 16d3 16bd cfe5 0d3e
00000070: d9bb 1cbc 622a b4bd 73c9 ecbc 9bfa 9b3d
00000080: 6bd5 dbbc 2ad5 d2bd 7a03 4c3d 3af0 3ebd
00000090: df77 cd3d 2ece 063d 5cda 2fbe 9dfc 2cbe
000000a0: 2024 853d cc9a 313c 598e 78bd c81d abbd
000000b0: 72c7 713d 121c 823d 7193 6abe 201e ae3d
000000c0: ef3d bf3b 8524 ab3d b653 9e3d 4fe0 0ebd
000000d0: 2b43 333e 5732 5f3d 5802 0040 f753 013e
000000e0: c18d 8a3d a835 623e 05e2 99bd e3e5 0a3e
000000f0: 435c 6ebd c813 62bd 48db cdbd 5317 d33e

weight f4 [64, 96]
-0.16426006 -0.14834972 -0.10648891 0.1741525 0.03497656 0.2808823 -0.067478366 0.25612006
0.033925045 0.054776676 0.28591007 -0.07873305 -0.14320669 -0.12293297 0.1211542 0.4403876
-0.13199581 0.18354106 -0.04845678 -0.0044947416 -0.07723624 -0.11492763 0.21581115 0.2349923
-0.040832322 0.16273873 0.018545814 0.08541062 0.07894838 -0.09258067 0.06888443 0.22610499
-0.079978645 0.25259346 -0.063273504 -0.0867895 -0.08562217 -0.031623133 0.33774653 -0.18286255
0.046332557 0.05737705 0.08256845 0.08340276 0.26285428 -0.043202262 0.012383836 -0.093266554
-0.28721115 -0.1013993 0.19500038 -0.17846827 0.065006755 -0.23137349 -0.0013989289 -0.1379564
0.2875221 -0.07507843 0.027229685 -0.12131671 0.10343751 0.20164745 0.2482827 -0.2067872
-0.116814956 -0.24660324 0.010550916 0.19517002 0.26398775 0.15478359 -0.20948228 0.0038774414
-0.03995704 0.4270961 0.17245814 0.08761603 -0.04673874 -0.18239811 0.0075678313 -0.14730468
0.1437443 0.0071923435 0.11145401 0.23076293 -0.28953695 0.061347805 -0.21637075 0.28026518
-0.22249097 -0.10759903 -0.018026352 0.29599738 -0.007039149 0.109265715 0.017923526 0.37415648
0.21917422 -0.070499964 0.02612007 -0.13185266 -0.07692625 -0.18630545 -0.15514256 0.17949368
-0.23411044 -0.2720185 -0.041146975 -0.17071624 -0.12578145 0.14499362 -0.077786654 -0.08662703
-0.18498603 -0.20783079 0.13186304 -0.21606429 0.0028785828 -0.2786824 -0.03302367 0.01414972
0.04574658 0.098006874 -0.039754674 0.19699083 0.37572277 0.09032996 -0.22210042 0.26552853
-0.20934671 -0.3761985 -0.052203253 0.10516558 0.062206358 0.10538706 -0.100645706 0.022070548
0.07755253 0.2300108 -0.2217028 0.008795118 0.019426564 -0.12996249 -0.18716814 0.22674645
-0.045533605 -0.07526062 0.21198702 -0.13112035 -0.27540603 -0.31635863 0.5054334 0.09747223
-0.3027221 0.15272887 -0.14823359 0.323639 0.00018268547 -0.07696513 -0.09005933 -0.0041816873
0.09928652 -0.022554548 0.23609124 0.07010144 0.10777083 0.15931472 0.4192585 0.20014572
-0.03179283 -0.007319093 -0.16698018 0.040163442 -0.50966465 0.104462415 -0.16373965 -0.21336962
-0.03459022 0.05933492 -0.21605778 0.093928434 0.23357211 -0.0017498295 0.029309971 0.11832893
0.15509361 0.17481275 -0.019621326 -0.11589083 -0.073828615 0.12505731 -0.098103516 0.3166882
0.26814225 0.2375912 0.08182372 0.11798926 -0.061861336 0.18691872 -0.030350657 0.3148964
-0.121760696 -0.21466443 -0.1873639 -0.17129788 -0.17839238 0.019132609 0.18394914 -0.0920252
-0.02269939 -0.04230372 0.1665764 0.2470873 -0.123461716 0.23865102 -0.1574621 -0.07938557
-0.053746205 -0.11006302 0.100713566 -0.029603904 0.03313606 -0.026158828 0.35949826 0.07438643
0.04048566 0.07718465 0.18905522 0.11618131 0.23673272 0.11246714 -0.016914686 -0.15472564
0.026152454 -0.114678 -0.13850161 -0.0053080567 0.25477734 -0.049997892 -0.24098507 -0.2580884
0.14255415 0.56123924 -0.013221941 0.2525232 -0.018755576 -0.28125036 -0.05704462 0.23316279
-0.23319177 -0.1740718 -0.011481423 -0.1036215 0.036374826 0.14572383 0.20897299 -0.07468532
00000000: ca33 28be fde8 17be dc16 dabd 0855 323e
00000010: 9543 0f3d cecf 8f3e 1932 8abd 2b22 833e
00000020: fdf4 0a3d 825d 603d ce62 923e cb3e a1bd
00000030: c6a4 12be 48c4 fbbd b11f f83d 7c7a e13e
00000040: e929 07be 30f2 3b3e 9e7a 46bd a048 93bb
00000050: 092e 9ebd 2d5f ebbd 99fd 5c3e d2a1 703e
00000060: cb3f 27bd fba4 263e 64ed 973c c3eb ae3d
00000070: b0af a13d ef9a bdbd 4813 8d3d 1188 673e
00000080: d8cb a3bd ee53 813e 8a95 81bd b2be b1bd
00000090: ad5a afbd 4287 01bd 1ded ac3e 5240 3bbe
000000a0: 35c7 3d3d 3304 6b3d a619 a93d 11cf aa3d
000000b0: d694 863e dbf4 30bd 93e5 4a3c 8902 bfbd
000000c0: 570d 93be 70aa cfbd 2eae 473e 63c0 36be
000000d0: 4322 853d 2ced 6cbe 445c b7ba 7144 0dbe
000000e0: 1936 933e b8c2 99bd ca10 df3c e574 f8bd
000000f0: 0cd7 d33d ab7c 4e3e d23d 7e3e 06c0 53be
00000100: ae3c efbd 8f85 7cbe c0dd 2c3c a6da 473e
00000110: 6729 873e 977f 1e3e 8682 56be ac1c 7e3b
00000120: fea9 23bd 57ac da3e de98 303e 0870 b33d
00000130: 1f71 3fbd 92c6 3abe 92fb f73b 0ad7 16be
00000140: b531 133e c0ad eb3b 0042 e43d 1e4d 6c3e
00000150: 303e 94be d647 7b3d 4b90 5dbe eb7e 8f3e
00000160: acd4 63be e15c dcbd 00ac 93bc f88c 973e
00000170: a9a8 e6bb b4c6 df3d 5cd4 923c 7091 bf3e
00000180: 356f 603e 4962 90bd c2f9 d53c 6204 07be
00000190: 828b 9dbd dbc6 3ebe b1dd 1ebe 31cd 373e
000001a0: a6ba 6fbe 0246 8bbe bb89 28bd 3dd0 2ebe
000001b0: dacc 00be 3579 143e 9c4e 9fbd 8369 b1bd
000001c0: fa6c 3dbe 98d1 54be 1b07 073e f53f 5dbe
000001d0: 9ba6 3c3b 76af 8ebe d443 07bd 3ad4 673c
000001e0: c460 3b3d d4b7 c83d ccd5 22bd f7b7 493e
000001f0: bc5e c03e eafe b83d 4b6e 63be 5bf3 873e
00000200: fc5e 56be 179d c0be 14d3 55bd 0d61 d73d
00000210: 18cc 7e3d 2cd5 d73d 561f cebd 4bcd b43c
00000220: dcd3 9e3d f387 6b3e 0f06 63be 6619 103c
00000230: 7524 9f3c e314 05be 01a9 3fbe 3930 683e
00000240: 7281 3abd 3d22 9abd 2013 593e 6a44 06be
00000250: 0502 8dbe c2f9 a1be 1564 013f 859f c73d
00000260: 64fe 9abe f564 1c3e 8cca 17be 03b4 a53e
00000270: 428f 3f39 e59f 9dbd 0771 b8bd 8906 89bb
00000280: bb56 cb3d 51c4 b8bc e7c1 713e 5891 8f3d
00000290: f4b6 dc3d 6623 233e 0da9 d63e 00f3 4c3e
000002a0: 3339 02bd 01d5 efbb dafc 2abe 6c82 243d
000002b0: 6279 02bf 64f0 d53d 5eab 27be 917d 5abe
000002c0: 79ae 0dbd 2c09 733d 403e 5dbe 8d5d c03d
000002d0: 872d 6f3e 895a e5ba 771b f03c 7056 f23d
000002e0: dcd0 1e3e 1d02 333e e7bc a0bc 2c58 edbd
000002f0: 7533 97bd 060f 003e 7fea c8bd f524 a23e
00000300: f149 893e 1c4b 733e 3293 a73d 5aa4 f13d
00000310: 5062 7dbd 9f67 3f3e f1a1 f8bc 1a3a a13e
00000320: ac5d f9bd fed0 5bbe 52dc 3fbe b668 2fbe
00000330: 7eac 36be fdbb 9c3c 2a5d 3c3e b577 bcbd
00000340: 12f4 b9bc aa46 2dbd 0193 2a3e 7404 7d3e
00000350: 7fd9 fcbd ef60 743e bf3d 21be e794 a2bd
00000360: fb24 5cbd b868 e1bd ea42 ce3d e383 f2bc
00000370: adb9 073d 0a4b d6bc 2810 b83e ea57 983d
00000380: 4bd4 253d fc12 9e3d b197 413e 77f0 ed3d
00000390: 106a 723e 2c55 e63d ab90 8abc 6670 1ebe
000003a0: ac3d d63c 4ddc eabd 5ed3 0dbe 35ef adbb
000003b0: 2d72 823e 97ca 4cbd cac4 76be 2a24 84be
000003c0: b7f9 113e 60ad 0f3f d7a0 58bc b94a 813e
000003d0: 4ba5 99bc 0c00 90be 9fa7 69bd 3ac2 6e3e
000003e0: d3c9 6ebe e13f 32be 941c 3cbc 8237 d4bd
000003f0: c5fd 143d a138 153e 04fd 553e 9ef4 98bd

weight f4 [64]
0.65759 0.60287154 0.6306416 0.5308944 0.57873994 0.5350648 0.6704776 0.58331287
0.71988976 0.4780309 0.6741281 0.70093566 0.63720524 0.47167748 0.70225763 0.52398634
0.6242363 0.36803964 0.47335285 0.60859483 0.5938848 0.6484615 0.4943879 0.5937171
1.0927936 0.48068768 0.5893646 0.63616437 0.56148475 0.6033816 0.7075966 0.7142916
0.54103976 0.4910239 0.680019 0.64594555 0.6069194 0.40310758 0.508484 0.59583145
0.52985036 0.7019742 1.8367372 0.6762866 0.52429813 0.51258785 0.6864928 0.64643097
0.726946 0.6755946 0.558209 0.5572966 0.48392195 1.0442989 1.896485 0.51619554
0.4473034 0.64879864 0.4509272 0.5713061 0.5743397 0.658113 0.524181 0.6783332
00000000: d157 283f ca55 1a3f ba71 213f b2e8 073f
00000010: 4d28 143f 02fa 083f 6ca4 2b3f fe53 153f
00000020: b24a 383f 77c0 f43e a993 2c3f 8570 333f
00000030: e21f 233f b67f f13e 28c7 333f f823 063f
00000040: f3cd 1f3f b16f bc3e 4e5b f23e dfcc 1b3f
00000050: d608 183f 9301 263f 6920 fd3e d8fd 173f
00000060: a9e0 8b3f b21c f63e 99e0 163f abdb 223f
00000070: 77bd 0f3f 3777 1a3f 0d25 353f d0db 363f
00000080: 9581 0a3f 7c67 fb3e ba15 2e3f b05c 253f
00000090: 125f 1b3f 1e64 ce3e 022c 023f 6988 183f
000000a0: 46a4 073f 95b4 333f 341a eb3f 1e21 2d3f
000000b0: 6738 063f f538 033f febd 2f3f 807c 253f
000000c0: 2219 3a3f c5f3 2c3f c9e6 0e3f fdaa 0e3f
000000d0: 9ec4 f73e 96ab 853f 05c0 f23f 6425 043f
000000e0: f404 e53e ab17 263f eedf e63e 1e41 123f
000000f0: ed07 133f 187a 283f ba30 063f 3fa7 2d3f

bias f4 [64]
0.022601403 0.0069617573 -0.009217408 0.036542416 -0.08704081 -0.040594503 -0.029143548 -0.022440381
-0.010513062 0.04389088 0.017913872 -0.038679153 -0.028310344 0.08957328 -0.004818787 -0.04481221
-0.0055883806 -0.07666781 0.03430493 -0.014903039 0.049728233 -0.09714369 -0.09894584 0.003852876
-0.4702704 -0.0588739 0.09328492 0.0026373942 -0.0648391 -0.052266553 -0.026566792 0.110267885
-0.013684899 0.035904516 -0.0161709 -0.028539373 -0.055000175 -0.054922998 0.034280803 0.086213626
0.04216843 -0.072752684 1.4648603 0.02830968 -0.12595403 0.040406197 0.06040034 -0.055725917
0.011801514 -0.049848497 -0.015061809 -0.11488541 0.09460453 0.23796064 -3.7324681 0.024396831
-0.0064984793 -0.02429181 0.00998167 -0.0891062 0.034181543 -0.025333764 -0.090752155 0.0030906745
00000000: 9426 b93c 741f e43b 9c04 17bc 80ad 153d
00000010: 7442 b2bd 6c46 26bd 73be eebc e4d4 b7bc
00000020: fa3e 2cbc ecc6 333d 1dc0 923c 086e 1ebd
00000030: 18eb e7bc 3272 b73d eae6 9dbb 028d 37bd
00000040: bc1e b7bb 0304 9dbd 5483 0c3d e02b 74bc
00000050: d5af 4b3d 45f3 c6bd 1ea4 cabd 8880 7c3b
00000060: 48c7 f0be c225 71bd 2a0c bf3d 22d8 2c3b
00000070: 5dca 84bd 7415 56bd 9aa2 d9bc 21d4 e13d
00000080: a036 60bc 9d10 133d d678 84bc 67cb e9bc
00000090: dd47 61bd f0f6 60bd 076a 0c3d c590 b03d
000000a0: ceb8 2c3d 5cff 94bd 8b80 bb3f b4e9 e73c
000000b0: 18fa 00be f880 253d 5966 773d dc40 64bd
000000c0: 235b 413c f02d 4cbd cec5 76bc 0b49 ebbd
000000d0: 05c0 c13d f4ab 733e c2e0 6ec0 dddb c73c
000000e0: 32f1 d4bb 9eff c6bc 298a 233c 507d b6bd
000000f0: f201 0c3d c188 cfbc 44dc b9bd ea8c 4a3b

mean_scale f4 [64]
1.012766 1.0713277 1.0486196 1.0336595 1.0072098 1.0411818 0.9923721 1.0874108
1.0059221 1.0196224 1.0346389 1.0370468 1.0290295 1.1019866 1.0115856 1.022063
0.9840589 0.9668149 0.99138707 1.0769231 1.0631385 0.9772994 0.98464566 1.0349655
0.9411151 0.97790974 0.99599636 1.0369738 1.0395758 0.9704482 1.0474685 1.0456716
1.0441301 0.98342675 1.0001159 1.1240903 1.003066 1.0668453 1.0455085 0.9731799
0.8756856 1.0316311 1.1278827 1.0088784 1.0752531 1.0462571 1.0744468 1.0454017
1.0078533 1.020819 1.0720966 1.016407 0.9689212 1.0412943 2.8440104 1.0029943
1.0903987 1.0225604 1.0423615 1.1662343 1.0088565 1.0229067 1.0578992 0.9598184
00000000: 51a2 813f 4421 893f 2b39 863f f44e 843f
00000010: 40ec 803f 7245 853f 190c 7e3f 4730 8b3f
00000020: 0ec2 803f fd82 823f 0c6f 843f f3bd 843f
00000030: 3db7 833f e60d 8d3f a37b 813f f6d2 823f
00000040: 49eb 7b3f 2e81 773f 8bcb 7d3f 9ed8 893f
00000050: ec14 883f 4b30 7a3f bd11 7c3f c079 843f
00000060: ebec 703f 4b58 7a3f 9ef9 7e3f 8fbb 843f
00000070: d210 853f 4b6f 783f 7313 863f 91d8 853f
00000080: 0ea6 853f dbc1 7b3f cc03 803f 31e2 8f3f
00000090: 7764 803f 638e 883f 39d3 853f 5122 793f
000000a0: ee2c 603f 7d0c 843f 765e 903f ed22 813f
000000b0: e5a1 893f c1eb 853f 7987 893f b9cf 853f
000000c0: 5601 813f 32aa 823f 763a 893f a019 823f
000000d0: 380b 783f 2249 853f 4404 3640 1e62 803f
000000e0: 2f92 8b3f 42e3 823f 1a6c 853f 2a47 953f
000000f0: 3622 813f 9bee 823f 3e69 873f a9b6 753f

bias f4 [64]
0.8804944 -0.5182135 -0.30081698 -0.3890248 0.8085109 -0.50784576 0.7569273 0.27796528
-0.8049604 0.560924 0.76359123 -0.80311364 -1.1847208 -0.24837005 0.26750088 -0.054037597
-0.29407334 0.49902594 -0.19742535 -1.1232442 -0.9622806 0.38520795 0.47182214 -0.085142195
0.4266559 -0.269502 -0.15127611 0.8955234 -1.1852465 -0.7802365 0.65141493 -0.3813338
-0.7456764 1.1919916 -1.0481601 -0.14368738 0.3390468 -0.24583778 -1.3133104 -0.6765499
-1.2347883 0.3112867 0.67441416 0.6849085 -0.22112639 1.3738225 0.58173305 0.13674925
-0.5907302 0.19100606 0.5548939 0.5160357 0.0009071485 -0.4109157 -0.76294446 -1.1008874
-1.0664839 0.50258166 -0.5252101 1.1689394 -1.0330243 0.47521314 0.9497241 -1.1024051
00000000: 1568 613f a4a9 04bf af04 9abe 422e c7be
00000010: 92fa 4e3f 2e02 02bf fdc5 413f 7751 8e3e
00000020: e311 4ebf b798 0f3f b77a 433f db98 4dbf
00000030: eea4 97bf b854 7ebe e0f5 883e 8756 5dbd
00000040: c890 96be 5480 ff3e df29 4abe 77c6 8fbf
00000050: 0558 76bf fa39 c53e ac92 f13e 085f aebd
00000060: a472 da3e 2bfc 89be 20e8 1abe 0641 653f
00000070: 28b6 97bf 94bd 47bf 21c3 263f 2f3e c3be
00000080: a6e4 3ebf 2e93 983f 1c2a 86bf c922 13be
00000090: 8b97 ad3e e6bc 7bbe 8e1a a8bf 6032 2dbf
000000a0: 8b0d 9ebf f860 9f3e 68a6 2c3f 2a56 2f3f
000000b0: f56e 62be 6ad9 af3f 75ec 143f ff07 0c3e
000000c0: 183a 17bf 1897 433e 870d 0e3f ea1a 043f
000000d0: b5cd 6d3a 8b63 d2be 5450 43bf e1e9 8cbf
000000e0: 8b82 88bf 31a9 003f 2b74 06bf ce9f 953f
000000f0: 243a 84bf 234f f33e 1e21 733f 9c1b 8dbf

weight f4 [64, 64]
0.12343393 0.2129777 0.121980496 0.27080965 0.13577016 0.1332928 0.027877703 0.15828079
0.061687663 0.11199219 -0.0938351 0.046262328 0.057531305 0.17275463 0.07459311 0.2059252
0.045606952 -0.039710045 0.14854534 0.10362379 0.07854058 0.21101564 0.16347238 0.06276804
-0.18787004 0.1699555 0.058443774 0.13713944 0.24624209 -0.25282857 0.081013754 0.06800456
0.07824122 -0.027982084 0.12449452 0.26338726 0.07060259 0.315078 0.06722535 0.016193626
-0.0012049653 0.0736221 -0.48526797 0.08058137 0.08081602 0.14415115 0.14607829 0.19472352
0.08044269 0.056317892 0.1392387 0.0015354631 -0.03643082 -0.1405835 -0.27594826 -0.079692654
-0.009736969 0.07090459 0.033034425 -0.04737409 0.1606249 0.20426925 0.21643701 -0.06400212
0.094035365 0.14109343 0.10284449 -0.14751428 0.046340108 -0.08902822 -0.016135566 0.025077509
0.14783308 -0.09225515 -0.13844769 0.078479685 -0.09786246 -0.07305632 -0.22323476 0.045097
0.1260033 -0.3535179 -0.08058484 -0.083217956 0.10520511 -0.08779257 -0.08342259 -0.0067866943
0.067305 -0.20643868 -0.015686894 -0.19824289 0.030906666 0.20299932 0.119320475 0.00012802724
-0.13103454 -0.045203 0.09224022 -0.0050296476 -0.066289455 0.02938114 0.054802246 0.02315068
-0.057118546 0.13828154 0.09793811 -0.002339232 0.07122771 -0.094218425 -0.077316776 -0.10674307
-0.3413909 -0.1329544 0.4402125 -0.094472505 0.08625995 -0.14122596 0.7431341 -0.0987092
-0.092133306 -0.04017811 -0.0032471903 -0.23083153 0.04721947 -0.085371196 -0.034839153 -0.104533724
-0.1426425 -0.01226749 0.07801317 -0.052410945 -0.08529655 0.004927653 -0.20114107 -0.035227414
0.13847432 0.11435127 -0.29787657 -0.33353725 -0.15678532 0.1424944 -0.46779045 -0.1296316
-0.08534611 -0.18079773 0.07920032 0.08532138 0.16422608 -0.18014783 -0.29518563 -0.32785523
-0.032773484 -0.09242911 -0.27023274 0.03973394 -0.4131634 0.08714025 0.053385362 -1.1726029
-0.06402971 0.19091016 0.15502667 0.06958275 0.09905376 -0.09186713 -0.12832889 -0.57372266
0.05488716 -0.032139413 0.0009944111 0.08487412 -0.24332131 -0.26450145 -0.014242726 0.17565885
0.01598006 0.06127656 -0.042524505 0.00744592 -0.20327848 0.13901699 -0.017208004 0.01963284
0.043684784 0.04751383 -0.1595119 0.040086914 0.11238813 -0.09980467 0.06560702 0.033014085
0.0724007 0.13384938 0.13231462 -0.163787 0.052269798 -0.010580142 0.3163528 -0.009740769
-0.19684853 -0.14451043 0.028248388 -0.124894805 0.05021059 -0.0753129 0.17391281 0.1452565
0.13306482 0.09375419 0.13058566 -0.023082126 -0.12840606 -0.23110296 0.01410644 -0.011471376
0.19106807 -0.109821096 -0.17357318 0.060294285 -0.089530036 0.23128174 -0.0227241 0.05186732
0.026937202 -0.05752302 -0.05236048 -0.016412169 -0.025594154 0.11547521 -0.48528987 -0.1404761
0.04607583 -0.23635523 0.14532702 -0.22335356 -0.24139372 0.096196294 0.074791536 -0.06128276
0.019630315 -0.0757595 -0.2725337 0.1331132 -0.032337945 -0.014010862 0.9398682 0.04908553
-0.19172916 0.027500268 -0.109892525 0.045395825 0.03881044 -0.008256735 0.08122469 0.0018729292
00000000: eeca fc3d d416 5a3e e9d0 f93d 90a7 8a3e
00000010: 5507 0b3e e87d 083e c85f e43c 5c14 223e
00000020: 34ac 7c3d 295c e53d 9e2c c0bd 917d 3d3d
00000030: f2a5 6b3d 97e6 303e 46c4 983d 0ede 523e
00000040: 5bce 3a3d 00a7 22bd 451c 183e b638 d43d
00000050: e2d9 a03d 7c14 583e 4e65 273e 888c 803d
00000060: 0161 40be d108 2e3e bd62 6f3d 486e 0c3e
00000070: e326 7c3e bf72 81be 8aea a53d fa45 8b3d
00000080: ef3c a03d af3a e5bc fcf6 fe3d b2da 863e
00000090: 1798 903d e751 a13e 72ad 893d 7fa8 843c
000000a0: edef 9dba 2fc7 963d 0b75 f8be d807 a53d
000000b0: df82 a53d 5c9c 133e 8c95 153e 9a65 473e
000000c0: 23bf a43d 97ad 663d 9794 0e3e 9841 c93a
000000d0: 7c38 15bd 1ff5 0fbe 1749 8dbe e735 a3bd
000000e0: cf87 1fbc 6d36 913d 1b4f 073d 550b 42bd
000000f0: db7a 243e f52b 513e aaa1 5d3e 8b13 83bd
00000100: 9d95 c03d cc7a 103e 22a0 d23d fc0d 17be
00000110: 20cf 3d3d 6d54 b6bd bc2e 84bc 596f cd3c
00000120: 8e61 173e 45f0 bcbd 3bc5 0dbe f5b9 a03d
00000130: 1d6c c8bd 8d9e 95bd a797 64be a2b7 383d
00000140: 0207 013e 4c00 b5be aa09 a5bd 2d6e aabd
00000150: c775 d73d 97cc b3bd 76d9 aabd eb62 debb
00000160: 34d7 893d a964 53be cd81 80bc 2f00 4bbe
00000170: fa2f fd3c 0edf 4f3e 4b5e f43d 0d3f 0639
00000180: eb2d 06be c826 39bd 71e8 bc3d becf a4bb
00000190: c4c2 87bd b7b0 f03c 5278 603d 7fa6 bd3c
000001a0: 23f5 69bd ad99 0d3e c793 c83d cd4d 19bb
000001b0: d5df 913d 97f5 c0bd 4258 9ebd 1c9c dabd
000001c0: caca aebe 3325 08be 8863 e13e cd7a c1bd
000001d0: 0fa9 b03d 8a9d 10be 093e 3e3f 0d28 cabd
000001e0: 63b0 bcbd cd91 24bd d0ce 54bb 1a5f 6cbe
000001f0: 3469 413d 18d7 aebd 80b3 0ebd c715 d6bd
00000200: e010 12be 95fd 48bc 5ec5 9f3d dcac 56bd
00000210: f5af aebd 2678 a13b edf7 4dbe 9f4a 10bd
00000220: 36cc 0d3e 0031 ea3d 4783 98be 65c5 aabe
00000230: 558c 20be 0dea 113e 3b82 efbe 25be 04be
00000240: f1c9 aebd 0a23 39be c733 a23d fabc ae3d
00000250: e22a 283e ac78 38be 9222 97be a4dc a7be
00000260: 7d3d 06bd 794b bdbd f25b 8abe 0ec0 223d
00000270: 278a d3be 9676 b23d 9caa 5a3d da17 96bf
00000280: 0222 83bd f47d 433e 50bf 1e3e 6781 8e3d
00000290: b3dc ca3d d524 bcbd a668 03be 7ddf 12bf
000002a0: 5cd1 603d 9ea4 03bd e656 823a 7cd2 ad3d
000002b0: 3929 79be bc6c 87be 535a 69bc eadf 333e
000002c0: 9de8 823c 21fd 7a3d 2d2e 2ebd e7fc f33b
000002d0: 3c28 50be 785a 0e3e cdf7 8cbc 0dd5 a03c
000002e0: d1ee 323d dd9d 423d 1657 23be 2d32 243d
000002f0: bf2b e63d 6466 ccbd f95c 863d c739 073d
00000300: d146 943d d00f 093e 7c7d 073e c8b7 27be
00000310: db18 563d 5558 2dbc fff8 a13e bf97 1fbc
00000320: a992 49be 8bfa 13be 2a69 e73c d9c8 ffbd
00000330: 9fa9 4d3d a63d 9abd 3316 323e 1fbe 143e
00000340: 2542 083e 3202 c03d 3fb8 053e ba16 bdbc
00000350: e17c 03be 41a6 6cbe b31e 673c 70f2 3bbc
00000360: 59a7 433e e2e9 e0bd 2bbd 31be 24f7 763d
00000370: 865b b7bd 1fd5 6c3e e427 babc d472 543d
00000380: 68ab dc3c 429d 6bbd f177 56bd d072 86bc
00000390: d5aa d1bc 447e ec3d ea77 f8be f7d8 0fbe
000003a0: 02ba 3c3d 1b07 72be 9bd0 143e ccb6 64be
000003b0: ea2f 77be 9002 c53d 4e2c 993d a203 7bbd
000003c0: c1cf a03c cc27 9bbd 8a89 8bbe d44e 083e
000003d0: cb74 04bd d18d 65bc 349b 703f e90d 493d
000003e0: a654 44be 3e48 e13c 550f e1bd f9f0 393d
000003f0: b2f7 1e3d 4247 07bc 2159 a63d 137d f53a

weight f4 [64]
0.52492803 1.4112635 1.4372389 1.1357343 0.5095384 1.4384791 0.8558244 0.92970085
0.71632355 0.63841224 0.54652995 0.69654095 0.50203717 1.2660105 0.7448962 0.8397313
0.38146168 0.8788347 0.98909825 0.67950946 0.53117365 0.6373735 0.7087999 0.9963768
1.154366 0.9006162 0.9297188 0.6951735 0.1464451 0.6332126 0.6976932 1.4726288
0.61469126 0.48569766 0.36941922 0.9573504 0.7177326 0.7348039 0.10467803 0.8564911
0.5624646 0.87399554 0.6543704 0.6188142 2.0690289 0.36942518 0.827461 1.1039352
0.5478746 1.225732 0.9405469 0.84018964 0.63212246 2.0705132 0.8197373 0.48253247
0.5014719 0.7375402 1.1471684 0.5742309 0.5251977 0.83969873 0.46962842 0.51081
00000000: af61 063f 48a4 b43f 72f7 b73f be5f 913f
00000010: 1c71 023f 1520 b83f 4f17 5b3f e000 6e3f
00000020: fb60 373f fc6e 233f 63e9 0b3f 8250 323f
00000030: 8285 003f a20c a23f 84b1 3e3f a1f8 563f
00000040: f24e c33e 50fb 603f 8b35 7d3f 55f4 2d3f
00000050: fffa 073f e92a 233f e973 353f 8d12 7f3f
00000060: 44c2 933f c98e 663f 0d02 6e3f e4f6 313f
00000070: b4f5 153e 391a 223f 069c 323f 1a7f bc3f
00000080: 685c 1d3f 5dad f83e 8424 bd3e ea14 753f
00000090: 53bd 373f 1c1c 3c3f 6f61 d63d 0043 5b3f
000000a0: aefd 0f3f 2cbe 5f3f d284 273f 9b6a 1e3f
000000b0: f86a 0440 4c25 bd3e 7cd4 533f c04d 8d3f
000000c0: 8341 0c3f c9e4 9c3f aec7 703f ab16 573f
000000d0: c7d2 213f 4a83 0440 4eda 513f 7f0e f73e
000000e0: 7660 003f 6fcf 3c3f 6ad6 923f cc00 133f
000000f0: 5b73 063f 7ff6 563f 2373 f03e 72c4 023f

bias f4 [64]
0.48395666 0.283166 -0.49658877 0.12978972 0.284553 -0.6989317 0.36870298 -0.3080609
0.31365934 -0.26689267 -0.6799495 0.18390845 0.42336217 -0.31575173 -0.2109339 0.12482625
0.17998557 -0.35647413 -0.28344548 0.53443736 0.3039486 -0.0059173806 0.22027299 -0.2917391
0.03592513 -0.29122823 -0.13815548 0.35382223 -0.03693984 0.31855905 0.5002835 -0.18839364
0.31528762 0.4282975 0.07272829 0.02915885 -0.21044283 -0.120276675 -0.065064326 0.13379931
0.5569139 -0.18911293 0.32003903 0.17532869 0.33813375 0.62821966 0.24379921 0.33109385
0.2422802 0.1789095 0.24789414 -0.03622756 -0.21059014 -0.3486535 0.34612355 0.3501617
0.261487 0.43497178 -0.57223654 0.5183945 0.21783961 0.08696404 0.6165349 0.42524287
00000000: 2bc9 f73e 22fb 903e e240 febe 99e7 043e
00000010: eeb0 913e 30ed 32bf a3c6 bc3e 29ba 9dbe
00000020: f597 a03e 28a6 88be 2c11 2ebf 7f52 3c3e
00000030: edc2 d83e 36aa a1be 0eff 57be e8a4 ff3d
00000040: 234e 383e c783 b6be c41f 91be e3d0 083f
00000050: 279f 9b3e 96e6 c1bb 3e8f 613e d45e 95be
00000060: 3b26 133d de1b 95be a178 0dbe 3028 b53e
00000070: 3b4e 17bd 2c1a a33e 9412 003f 43ea 40be
00000080: 616d a13e cf49 db3e 92f2 943d 8ade ee3c
00000090: 537e 57be 9e53 f6bd 7240 85bd b002 093e
000000a0: e991 0e3f d2a6 41be 28dc a33e 5d89 333e
000000b0: de1f ad3e 01d3 203f 80a6 793e 2285 a93e
000000c0: 4d18 783e 0d34 373e f6d7 7d3e 5a63 14bd
000000d0: f1a4 57be b682 b2be 1b37 b13e 6548 b33e
000000e0: a0e1 853e 9fb4 de3e 187e 12bf 80b5 043f
000000f0: 5911 5f3e 341a b23d 3bd5 1d3f 6fb9 d93e

mean_scale f4 [64]
0.30183473 1.0106438 0.65577704 0.9661202 0.30800796 0.6408435 0.48679194 1.2331852
1.7460574 0.6556763 1.6607903 1.6393256 1.9255406 0.8042692 1.2540598 0.95872885
1.0383667 1.3894864 0.7171547 1.807368 1.827684 0.7816541 0.536451 0.6186257
0.9764078 0.81631947 0.74483293 0.29843444 2.0140603 1.6905098 0.38122037 0.9357104
1.6739604 0.09198472 1.8911672 1.1007209 1.3591317 1.1042781 2.05535 1.5646346
2.059277 1.2510681 0.40925923 0.38981235 0.9831125 -0.15222432 0.60145736 0.8956077
1.5806242 0.9716107 0.60556877 0.6473693 0.85992026 1.0078744 1.5256877 1.9968809
1.8655493 0.48823988 0.59555346 0.40260166 1.8879848 0.6746334 0.14407633 1.8191832
00000000: 158a 9a3e c75c 813f 01e1 273f a753 773f
00000010: 38b3 9d3e 520e 243f cb3c f93e 03d9 9d3f
00000020: cf7e df3f 67da 273f c794 d43f 6cd5 d13f
00000030: 1d78 f63f 96e4 4d3f 0885 a03f 416f 753f
00000040: 33e9 843f b1da b13f 7397 373f d657 e73f
00000050: 8df1 e93f 7c1a 483f da54 093f 415e 1e3f
00000060: ddf5 793f 50fa 503f 5fad 3e3f 66cc 983e
00000070: 5de6 0040 a062 d83f 512f c33e b78a 6f3f
00000080: 5644 d63f 7c62 bc3d c411 f23f 6ce4 8c3f
00000090: 07f8 ad3f fc58 8d3f db8a 0340 f245 c83f
000000a0: 32cb 0340 0023 a03f 6d8a d13e 7c95 c73e
000000b0: 43ad 7b3f b1e0 1bbe 1cf9 193f 8c46 653f
000000c0: e551 ca3f 7bbb 783f 8e06 1b3f ffb9 253f
000000d0: bc23 5c3f 0702 813f bc49 c33f cb99 ff3f
000000e0: 52ca ee3f 94fa f93e 3176 183f ce21 ce3e
000000f0: 7ca9 f13f c6b4 2c3f bf88 133e ffda e83f

bias f4 [64]
-0.4462768 0.6881483 0.07517922 0.41173536 0.46080622 0.47344273 -0.089485586 -0.14438383
0.04769991 0.108585574 0.42153376 0.09133145 -0.3284315 -0.41112903 -0.42134443 -0.029407585
0.33682498 0.17539202 0.13529891 0.039549977 0.08379006 0.006674472 0.49700364 0.5154738
-0.43739188 -0.21254641 0.08482163 0.1506565 0.13973 0.37736923 -0.3595062 0.02256167
-0.014242639 0.8484925 0.2574646 -0.24159785 -0.25458276 -0.039988764 -0.28298074 0.093660936
0.85667485 -0.50229746 -0.23118038 0.34498802 -0.50828713 0.059265614 0.39171496 -0.3487775
-0.44770205 0.15985647 -0.15036517 0.46295756 -0.14866519 0.7784781 0.14483225 0.4973928
0.20714745 -0.4301692 0.19566509 -0.2572023 -0.21756053 -0.18535295 -0.11213958 0.22632219
00000000: 657e e4be 7d2a 303f 90f7 993d face d23e
00000010: cbee eb3e 1667 f23e 3844 b7bd 5bd9 13be
00000020: fb60 433d 1d62 de3d 46d3 d73e fc0b bb3d
00000030: 2c28 a8be 817f d2be 75ba d7be 2de8 f0bc
00000040: 5374 ac3e f799 333e cc8b 0a3e 28ff 213d
00000050: 1f9a ab3d 87b5 da3b 4377 fe3e 17f6 033f
00000060: d4f1 dfbe c4a5 59be f6b6 ad3d b345 1a3e
00000070: 6215 0f3e 8a36 c13e 3211 b8be 40d3 b83c
00000080: f559 69bc ce36 593f 66d2 833e 6d65 77be
00000090: ac58 82be 42cb 23bd dae2 90be 4ed1 bf3d
000000a0: 0b4f 5b3f 9196 00bf 8dba 6cbe 45a2 b03e
000000b0: 1b1f 02bf 80c0 723d dd8e c83e f792 b2be
000000c0: 3439 e5be 6ab1 233e 54f9 19be c608 ed3e
000000d0: b03b 18be 574a 473f e84e 143e 45aa fe3e
000000e0: 761e 543e 233f dcbe 6e5c 483e 05b0 83be
000000f0: 30c8 5ebe 2acd 3dbe 70a9 e5bd 01c1 673e
